…
I0305 13:43:26.062424 10100 net.cpp:58] Initializing net from parameters: 
name: "Res50-IDE"
state {
  phase: TRAIN
  level: 0
  stage: ""
}
layer {
  name: "data"
  type: "ImageData"
  top: "data"
  top: "label"
  include {
    phase: TRAIN
  }
  transform_param {
    mirror: true
    crop_size: 224
    mean_value: 104
    mean_value: 117
    mean_value: 124
  }
  image_data_param {
    source: "evaluation/data/CUHK03/train_cuhk03_labeled.txt"
    batch_size: 32
    shuffle: true
    new_height: 256
    new_width: 256
    is_color: true
    root_folder: "evaluation/data/CUHK03/"
  }
}
layer {
  name: "conv1"
  type: "Convolution"
  bottom: "data"
  top: "conv1"
  convolution_param {
    num_output: 64
    pad: 3
    kernel_size: 7
    stride: 2
  }
}
layer {
  name: "bn_conv1"
  type: "BatchNorm"
  bottom: "conv1"
  top: "conv1"
  batch_norm_param {
    use_global_stats: true
  }
}
layer {
  name: "scale_conv1"
  type: "Scale"
  bottom: "conv1"
  top: "conv1"
  scale_param {
    bias_term: true
  }
}
layer {
  name: "conv1_relu"
  type: "ReLU"
  bottom: "conv1"
  top: "conv1"
}
layer {
  name: "pool1"
  type: "Pooling"
  bottom: "conv1"
  top: "pool1"
  pooling_param {
    pool: MAX
    kernel_size: 3
    stride: 2
  }
}
layer {
  name: "res2a_branch1"
  type: "Convolution"
  bottom: "pool1"
  top: "res2a_branch1"
  convolution_param {
    num_output: 256
    bias_term: false
    pad: 0
    kernel_size: 1
    stride: 1
  }
}
layer {
  name: "bn2a_branch1"
  type: "BatchNorm"
  bottom: "res2a_branch1"
  top: "res2a_branch1"
  batch_norm_param {
    use_global_stats: true
  }
}
layer {
  name: "scale2a_branch1"
  type: "Scale"
  bottom: "res2a_branch1"
  top: "res2a_branch1"
  scale_param {
    bias_term: true
  }
}
layer {
  name: "res2a_branch2a"
  type: "Convolution"
  bottom: "pool1"
  top: "res2a_branch2a"
  convolution_param {
    num_output: 64
    bias_term: false
    pad: 0
    kernel_size: 1
    stride: 1
  }
}
layer {
  name: "bn2a_branch2a"
  type: "BatchNorm"
  bottom: "res2a_branch2a"
  top: "res2a_branch2a"
  batch_norm_param {
    use_global_stats: true
  }
}
layer {
  name: "scale2a_branch2a"
  type: "Scale"
  bottom: "res2a_branch2a"
  top: "res2a_branch2a"
  scale_param {
    bias_term: true
  }
}
layer {
  name: "res2a_branch2a_relu"
  type: "ReLU"
  bottom: "res2a_branch2a"
  top: "res2a_branch2a"
}
layer {
  name: "res2a_branch2b"
  type: "Convolution"
  bottom: "res2a_branch2a"
  top: "res2a_branch2b"
  convolution_param {
    num_output: 64
    bias_term: false
    pad: 1
    kernel_size: 3
    stride: 1
  }
}
layer {
  name: "bn2a_branch2b"
  type: "BatchNorm"
  bottom: "res2a_branch2b"
  top: "res2a_branch2b"
  batch_norm_param {
    use_global_stats: true
  }
}
layer {
  name: "scale2a_branch2b"
  type: "Scale"
  bottom: "res2a_branch2b"
  top: "res2a_branch2b"
  scale_param {
    bias_term: true
  }
}
layer {
  name: "res2a_branch2b_relu"
  type: "ReLU"
  bottom: "res2a_branch2b"
  top: "res2a_branch2b"
}
layer {
  name: "res2a_branch2c"
  type: "Convolution"
  bottom: "res2a_branch2b"
  top: "res2a_branch2c"
  convolution_param {
    num_output: 256
    bias_term: false
    pad: 0
    kernel_size: 1
    stride: 1
  }
}
layer {
  name: "bn2a_branch2c"
  type: "BatchNorm"
  bottom: "res2a_branch2c"
  top: "res2a_branch2c"
  batch_norm_param {
    use_global_stats: true
  }
}
layer {
  name: "scale2a_branch2c"
  type: "Scale"
  bottom: "res2a_branch2c"
  top: "res2a_branch2c"
  scale_param {
    bias_term: true
  }
}
layer {
  name: "res2a"
  type: "Eltwise"
  bottom: "res2a_branch1"
  bottom: "res2a_branch2c"
  top: "res2a"
}
layer {
  name: "res2a_relu"
  type: "ReLU"
  bottom: "res2a"
  top: "res2a"
}
layer {
  name: "res2b_branch2a"
  type: "Convolution"
  bottom: "res2a"
  top: "res2b_branch2a"
  convolution_param {
    num_output: 64
    bias_term: false
    pad: 0
    kernel_size: 1
    stride: 1
  }
}
layer {
  name: "bn2b_branch2a"
  type: "BatchNorm"
  bottom: "res2b_branch2a"
  top: "res2b_branch2a"
  batch_norm_param {
    use_global_stats: true
  }
}
layer {
  name: "scale2b_branch2a"
  type: "Scale"
  bottom: "res2b_branch2a"
  top: "res2b_branch2a"
  scale_param {
    bias_term: true
  }
}
layer {
  name: "res2b_branch2a_relu"
  type: "ReLU"
  bottom: "res2b_branch2a"
  top: "res2b_branch2a"
}
layer {
  name: "res2b_branch2b"
  type: "Convolution"
  bottom: "res2b_branch2a"
  top: "res2b_branch2b"
  convolution_param {
    num_output: 64
    bias_term: false
    pad: 1
    kernel_size: 3
    stride: 1
  }
}
layer {
  name: "bn2b_branch2b"
  type: "BatchNorm"
  bottom: "res2b_branch2b"
  top: "res2b_branch2b"
  batch_norm_param {
    use_global_stats: true
  }
}
layer {
  name: "scale2b_branch2b"
  type: "Scale"
  bottom: "res2b_branch2b"
  top: "res2b_branch2b"
  scale_param {
    bias_term: true
  }
}
layer {
  name: "res2b_branch2b_relu"
  type: "ReLU"
  bottom: "res2b_branch2b"
  top: "res2b_branch2b"
}
layer {
  name: "res2b_branch2c"
  type: "Convolution"
  bottom: "res2b_branch2b"
  top: "res2b_branch2c"
  convolution_param {
    num_output: 256
    bias_term: false
    pad: 0
    kernel_size: 1
    stride: 1
  }
}
layer {
  name: "bn2b_branch2c"
  type: "BatchNorm"
  bottom: "res2b_branch2c"
  top: "res2b_branch2c"
  batch_norm_param {
    use_global_stats: true
  }
}
layer {
  name: "scale2b_branch2c"
  type: "Scale"
  bottom: "res2b_branch2c"
  top: "res2b_branch2c"
  scale_param {
    bias_term: true
  }
}
layer {
  name: "res2b"
  type: "Eltwise"
  bottom: "res2a"
  bottom: "res2b_branch2c"
  top: "res2b"
}
layer {
  name: "res2b_relu"
  type: "ReLU"
  bottom: "res2b"
  top: "res2b"
}
layer {
  name: "res2c_branch2a"
  type: "Convolution"
  bottom: "res2b"
  top: "res2c_branch2a"
  convolution_param {
    num_output: 64
    bias_term: false
    pad: 0
    kernel_size: 1
    stride: 1
  }
}
layer {
  name: "bn2c_branch2a"
  type: "BatchNorm"
  bottom: "res2c_branch2a"
  top: "res2c_branch2a"
  batch_norm_param {
    use_global_stats: true
  }
}
layer {
  name: "scale2c_branch2a"
  type: "Scale"
  bottom: "res2c_branch2a"
  top: "res2c_branch2a"
  scale_param {
    bias_term: true
  }
}
layer {
  name: "res2c_branch2a_relu"
  type: "ReLU"
  bottom: "res2c_branch2a"
  top: "res2c_branch2a"
}
layer {
  name: "res2c_branch2b"
  type: "Convolution"
  bottom: "res2c_branch2a"
  top: "res2c_branch2b"
  convolution_param {
    num_output: 64
    bias_term: false
    pad: 1
    kernel_size: 3
    stride: 1
  }
}
layer {
  name: "bn2c_branch2b"
  type: "BatchNorm"
  bottom: "res2c_branch2b"
  top: "res2c_branch2b"
  batch_norm_param {
    use_global_stats: true
  }
}
layer {
  name: "scale2c_branch2b"
  type: "Scale"
  bottom: "res2c_branch2b"
  top: "res2c_branch2b"
  scale_param {
    bias_term: true
  }
}
layer {
  name: "res2c_branch2b_relu"
  type: "ReLU"
  bottom: "res2c_branch2b"
  top: "res2c_branch2b"
}
layer {
  name: "res2c_branch2c"
  type: "Convolution"
  bottom: "res2c_branch2b"
  top: "res2c_branch2c"
  convolution_param {
    num_output: 256
    bias_term: false
    pad: 0
    kernel_size: 1
    stride: 1
  }
}
layer {
  name: "bn2c_branch2c"
  type: "BatchNorm"
  bottom: "res2c_branch2c"
  top: "res2c_branch2c"
  batch_norm_param {
    use_global_stats: true
  }
}
layer {
  name: "scale2c_branch2c"
  type: "Scale"
  bottom: "res2c_branch2c"
  top: "res2c_branch2c"
  scale_param {
    bias_term: true
  }
}
layer {
  name: "res2c"
  type: "Eltwise"
  bottom: "res2b"
  bottom: "res2c_branch2c"
  top: "res2c"
}
layer {
  name: "res2c_relu"
  type: "ReLU"
  bottom: "res2c"
  top: "res2c"
}
layer {
  name: "res3a_branch1"
  type: "Convolution"
  bottom: "res2c"
  top: "res3a_branch1"
  convolution_param {
    num_output: 512
    bias_term: false
    pad: 0
    kernel_size: 1
    stride: 2
  }
}
layer {
  name: "bn3a_branch1"
  type: "BatchNorm"
  bottom: "res3a_branch1"
  top: "res3a_branch1"
  batch_norm_param {
    use_global_stats: true
  }
}
layer {
  name: "scale3a_branch1"
  type: "Scale"
  bottom: "res3a_branch1"
  top: "res3a_branch1"
  scale_param {
    bias_term: true
  }
}
layer {
  name: "res3a_branch2a"
  type: "Convolution"
  bottom: "res2c"
  top: "res3a_branch2a"
  convolution_param {
    num_output: 128
    bias_term: false
    pad: 0
    kernel_size: 1
    stride: 2
  }
}
layer {
  name: "bn3a_branch2a"
  type: "BatchNorm"
  bottom: "res3a_branch2a"
  top: "res3a_branch2a"
  batch_norm_param {
    use_global_stats: true
  }
}
layer {
  name: "scale3a_branch2a"
  type: "Scale"
  bottom: "res3a_branch2a"
  top: "res3a_branch2a"
  scale_param {
    bias_term: true
  }
}
layer {
  name: "res3a_branch2a_relu"
  type: "ReLU"
  bottom: "res3a_branch2a"
  top: "res3a_branch2a"
}
layer {
  name: "res3a_branch2b"
  type: "Convolution"
  bottom: "res3a_branch2a"
  top: "res3a_branch2b"
  convolution_param {
    num_output: 128
    bias_term: false
    pad: 1
    kernel_size: 3
    stride: 1
  }
}
layer {
  name: "bn3a_branch2b"
  type: "BatchNorm"
  bottom: "res3a_branch2b"
  top: "res3a_branch2b"
  batch_norm_param {
    use_global_stats: true
  }
}
layer {
  name: "scale3a_branch2b"
  type: "Scale"
  bottom: "res3a_branch2b"
  top: "res3a_branch2b"
  scale_param {
    bias_term: true
  }
}
layer {
  name: "res3a_branch2b_relu"
  type: "ReLU"
  bottom: "res3a_branch2b"
  top: "res3a_branch2b"
}
layer {
  name: "res3a_branch2c"
  type: "Convolution"
  bottom: "res3a_branch2b"
  top: "res3a_branch2c"
  convolution_param {
    num_output: 512
    bias_term: false
    pad: 0
    kernel_size: 1
    stride: 1
  }
}
layer {
  name: "bn3a_branch2c"
  type: "BatchNorm"
  bottom: "res3a_branch2c"
  top: "res3a_branch2c"
  batch_norm_param {
    use_global_stats: true
  }
}
layer {
  name: "scale3a_branch2c"
  type: "Scale"
  bottom: "res3a_branch2c"
  top: "res3a_branch2c"
  scale_param {
    bias_term: true
  }
}
layer {
  name: "res3a"
  type: "Eltwise"
  bottom: "res3a_branch1"
  bottom: "res3a_branch2c"
  top: "res3a"
}
layer {
  name: "res3a_relu"
  type: "ReLU"
  bottom: "res3a"
  top: "res3a"
}
layer {
  name: "res3b_branch2a"
  type: "Convolution"
  bottom: "res3a"
  top: "res3b_branch2a"
  convolution_param {
    num_output: 128
    bias_term: false
    pad: 0
    kernel_size: 1
    stride: 1
  }
}
layer {
  name: "bn3b_branch2a"
  type: "BatchNorm"
  bottom: "res3b_branch2a"
  top: "res3b_branch2a"
  batch_norm_param {
    use_global_stats: true
  }
}
layer {
  name: "scale3b_branch2a"
  type: "Scale"
  bottom: "res3b_branch2a"
  top: "res3b_branch2a"
  scale_param {
    bias_term: true
  }
}
layer {
  name: "res3b_branch2a_relu"
  type: "ReLU"
  bottom: "res3b_branch2a"
  top: "res3b_branch2a"
}
layer {
  name: "res3b_branch2b"
  type: "Convolution"
  bottom: "res3b_branch2a"
  top: "res3b_branch2b"
  convolution_param {
    num_output: 128
    bias_term: false
    pad: 1
    kernel_size: 3
    stride: 1
  }
}
layer {
  name: "bn3b_branch2b"
  type: "BatchNorm"
  bottom: "res3b_branch2b"
  top: "res3b_branch2b"
  batch_norm_param {
    use_global_stats: true
  }
}
layer {
  name: "scale3b_branch2b"
  type: "Scale"
  bottom: "res3b_branch2b"
  top: "res3b_branch2b"
  scale_param {
    bias_term: true
  }
}
layer {
  name: "res3b_branch2b_relu"
  type: "ReLU"
  bottom: "res3b_branch2b"
  top: "res3b_branch2b"
}
layer {
  name: "res3b_branch2c"
  type: "Convolution"
  bottom: "res3b_branch2b"
  top: "res3b_branch2c"
  convolution_param {
    num_output: 512
    bias_term: false
    pad: 0
    kernel_size: 1
    stride: 1
  }
}
layer {
  name: "bn3b_branch2c"
  type: "BatchNorm"
  bottom: "res3b_branch2c"
  top: "res3b_branch2c"
  batch_norm_param {
    use_global_stats: true
  }
}
layer {
  name: "scale3b_branch2c"
  type: "Scale"
  bottom: "res3b_branch2c"
  top: "res3b_branch2c"
  scale_param {
    bias_term: true
  }
}
layer {
  name: "res3b"
  type: "Eltwise"
  bottom: "res3a"
  bottom: "res3b_branch2c"
  top: "res3b"
}
layer {
  name: "res3b_relu"
  type: "ReLU"
  bottom: "res3b"
  top: "res3b"
}
layer {
  name: "res3c_branch2a"
  type: "Convolution"
  bottom: "res3b"
  top: "res3c_branch2a"
  convolution_param {
    num_output: 128
    bias_term: false
    pad: 0
    kernel_size: 1
    stride: 1
  }
}
layer {
  name: "bn3c_branch2a"
  type: "BatchNorm"
  bottom: "res3c_branch2a"
  top: "res3c_branch2a"
  batch_norm_param {
    use_global_stats: true
  }
}
layer {
  name: "scale3c_branch2a"
  type: "Scale"
  bottom: "res3c_branch2a"
  top: "res3c_branch2a"
  scale_param {
    bias_term: true
  }
}
layer {
  name: "res3c_branch2a_relu"
  type: "ReLU"
  bottom: "res3c_branch2a"
  top: "res3c_branch2a"
}
layer {
  name: "res3c_branch2b"
  type: "Convolution"
  bottom: "res3c_branch2a"
  top: "res3c_branch2b"
  convolution_param {
    num_output: 128
    bias_term: false
    pad: 1
    kernel_size: 3
    stride: 1
  }
}
layer {
  name: "bn3c_branch2b"
  type: "BatchNorm"
  bottom: "res3c_branch2b"
  top: "res3c_branch2b"
  batch_norm_param {
    use_global_stats: true
  }
}
layer {
  name: "scale3c_branch2b"
  type: "Scale"
  bottom: "res3c_branch2b"
  top: "res3c_branch2b"
  scale_param {
    bias_term: true
  }
}
layer {
  name: "res3c_branch2b_relu"
  type: "ReLU"
  bottom: "res3c_branch2b"
  top: "res3c_branch2b"
}
layer {
  name: "res3c_branch2c"
  type: "Convolution"
  bottom: "res3c_branch2b"
  top: "res3c_branch2c"
  convolution_param {
    num_output: 512
    bias_term: false
    pad: 0
    kernel_size: 1
    stride: 1
  }
}
layer {
  name: "bn3c_branch2c"
  type: "BatchNorm"
  bottom: "res3c_branch2c"
  top: "res3c_branch2c"
  batch_norm_param {
    use_global_stats: true
  }
}
layer {
  name: "scale3c_branch2c"
  type: "Scale"
  bottom: "res3c_branch2c"
  top: "res3c_branch2c"
  scale_param {
    bias_term: true
  }
}
layer {
  name: "res3c"
  type: "Eltwise"
  bottom: "res3b"
  bottom: "res3c_branch2c"
  top: "res3c"
}
layer {
  name: "res3c_relu"
  type: "ReLU"
  bottom: "res3c"
  top: "res3c"
}
layer {
  name: "res3d_branch2a"
  type: "Convolution"
  bottom: "res3c"
  top: "res3d_branch2a"
  convolution_param {
    num_output: 128
    bias_term: false
    pad: 0
    kernel_size: 1
    stride: 1
  }
}
layer {
  name: "bn3d_branch2a"
  type: "BatchNorm"
  bottom: "res3d_branch2a"
  top: "res3d_branch2a"
  batch_norm_param {
    use_global_stats: true
  }
}
layer {
  name: "scale3d_branch2a"
  type: "Scale"
  bottom: "res3d_branch2a"
  top: "res3d_branch2a"
  scale_param {
    bias_term: true
  }
}
layer {
  name: "res3d_branch2a_relu"
  type: "ReLU"
  bottom: "res3d_branch2a"
  top: "res3d_branch2a"
}
layer {
  name: "res3d_branch2b"
  type: "Convolution"
  bottom: "res3d_branch2a"
  top: "res3d_branch2b"
  convolution_param {
    num_output: 128
    bias_term: false
    pad: 1
    kernel_size: 3
    stride: 1
  }
}
layer {
  name: "bn3d_branch2b"
  type: "BatchNorm"
  bottom: "res3d_branch2b"
  top: "res3d_branch2b"
  batch_norm_param {
    use_global_stats: true
  }
}
layer {
  name: "scale3d_branch2b"
  type: "Scale"
  bottom: "res3d_branch2b"
  top: "res3d_branch2b"
  scale_param {
    bias_term: true
  }
}
layer {
  name: "res3d_branch2b_relu"
  type: "ReLU"
  bottom: "res3d_branch2b"
  top: "res3d_branch2b"
}
layer {
  name: "res3d_branch2c"
  type: "Convolution"
  bottom: "res3d_branch2b"
  top: "res3d_branch2c"
  convolution_param {
    num_output: 512
    bias_term: false
    pad: 0
    kernel_size: 1
    stride: 1
  }
}
layer {
  name: "bn3d_branch2c"
  type: "BatchNorm"
  bottom: "res3d_branch2c"
  top: "res3d_branch2c"
  batch_norm_param {
    use_global_stats: true
  }
}
layer {
  name: "scale3d_branch2c"
  type: "Scale"
  bottom: "res3d_branch2c"
  top: "res3d_branch2c"
  scale_param {
    bias_term: true
  }
}
layer {
  name: "res3d"
  type: "Eltwise"
  bottom: "res3c"
  bottom: "res3d_branch2c"
  top: "res3d"
}
layer {
  name: "res3d_relu"
  type: "ReLU"
  bottom: "res3d"
  top: "res3d"
}
layer {
  name: "res4a_branch1"
  type: "Convolution"
  bottom: "res3d"
  top: "res4a_branch1"
  convolution_param {
    num_output: 1024
    bias_term: false
    pad: 0
    kernel_size: 1
    stride: 2
  }
}
layer {
  name: "bn4a_branch1"
  type: "BatchNorm"
  bottom: "res4a_branch1"
  top: "res4a_branch1"
  batch_norm_param {
    use_global_stats: true
  }
}
layer {
  name: "scale4a_branch1"
  type: "Scale"
  bottom: "res4a_branch1"
  top: "res4a_branch1"
  scale_param {
    bias_term: true
  }
}
layer {
  name: "res4a_branch2a"
  type: "Convolution"
  bottom: "res3d"
  top: "res4a_branch2a"
  convolution_param {
    num_output: 256
    bias_term: false
    pad: 0
    kernel_size: 1
    stride: 2
  }
}
layer {
  name: "bn4a_branch2a"
  type: "BatchNorm"
  bottom: "res4a_branch2a"
  top: "res4a_branch2a"
  batch_norm_param {
    use_global_stats: true
  }
}
layer {
  name: "scale4a_branch2a"
  type: "Scale"
  bottom: "res4a_branch2a"
  top: "res4a_branch2a"
  scale_param {
    bias_term: true
  }
}
layer {
  name: "res4a_branch2a_relu"
  type: "ReLU"
  bottom: "res4a_branch2a"
  top: "res4a_branch2a"
}
layer {
  name: "res4a_branch2b"
  type: "Convolution"
  bottom: "res4a_branch2a"
  top: "res4a_branch2b"
  convolution_param {
    num_output: 256
    bias_term: false
    pad: 1
    kernel_size: 3
    stride: 1
  }
}
layer {
  name: "bn4a_branch2b"
  type: "BatchNorm"
  bottom: "res4a_branch2b"
  top: "res4a_branch2b"
  batch_norm_param {
    use_global_stats: true
  }
}
layer {
  name: "scale4a_branch2b"
  type: "Scale"
  bottom: "res4a_branch2b"
  top: "res4a_branch2b"
  scale_param {
    bias_term: true
  }
}
layer {
  name: "res4a_branch2b_relu"
  type: "ReLU"
  bottom: "res4a_branch2b"
  top: "res4a_branch2b"
}
layer {
  name: "res4a_branch2c"
  type: "Convolution"
  bottom: "res4a_branch2b"
  top: "res4a_branch2c"
  convolution_param {
    num_output: 1024
    bias_term: false
    pad: 0
    kernel_size: 1
    stride: 1
  }
}
layer {
  name: "bn4a_branch2c"
  type: "BatchNorm"
  bottom: "res4a_branch2c"
  top: "res4a_branch2c"
  batch_norm_param {
    use_global_stats: true
  }
}
layer {
  name: "scale4a_branch2c"
  type: "Scale"
  bottom: "res4a_branch2c"
  top: "res4a_branch2c"
  scale_param {
    bias_term: true
  }
}
layer {
  name: "res4a"
  type: "Eltwise"
  bottom: "res4a_branch1"
  bottom: "res4a_branch2c"
  top: "res4a"
}
layer {
  name: "res4a_relu"
  type: "ReLU"
  bottom: "res4a"
  top: "res4a"
}
layer {
  name: "res4b_branch2a"
  type: "Convolution"
  bottom: "res4a"
  top: "res4b_branch2a"
  convolution_param {
    num_output: 256
    bias_term: false
    pad: 0
    kernel_size: 1
    stride: 1
  }
}
layer {
  name: "bn4b_branch2a"
  type: "BatchNorm"
  bottom: "res4b_branch2a"
  top: "res4b_branch2a"
  batch_norm_param {
    use_global_stats: true
  }
}
layer {
  name: "scale4b_branch2a"
  type: "Scale"
  bottom: "res4b_branch2a"
  top: "res4b_branch2a"
  scale_param {
    bias_term: true
  }
}
layer {
  name: "res4b_branch2a_relu"
  type: "ReLU"
  bottom: "res4b_branch2a"
  top: "res4b_branch2a"
}
layer {
  name: "res4b_branch2b"
  type: "Convolution"
  bottom: "res4b_branch2a"
  top: "res4b_branch2b"
  convolution_param {
    num_output: 256
    bias_term: false
    pad: 1
    kernel_size: 3
    stride: 1
  }
}
layer {
  name: "bn4b_branch2b"
  type: "BatchNorm"
  bottom: "res4b_branch2b"
  top: "res4b_branch2b"
  batch_norm_param {
    use_global_stats: true
  }
}
layer {
  name: "scale4b_branch2b"
  type: "Scale"
  bottom: "res4b_branch2b"
  top: "res4b_branch2b"
  scale_param {
    bias_term: true
  }
}
layer {
  name: "res4b_branch2b_relu"
  type: "ReLU"
  bottom: "res4b_branch2b"
  top: "res4b_branch2b"
}
layer {
  name: "res4b_branch2c"
  type: "Convolution"
  bottom: "res4b_branch2b"
  top: "res4b_branch2c"
  convolution_param {
    num_output: 1024
    bias_term: false
    pad: 0
    kernel_size: 1
    stride: 1
  }
}
layer {
  name: "bn4b_branch2c"
  type: "BatchNorm"
  bottom: "res4b_branch2c"
  top: "res4b_branch2c"
  batch_norm_param {
    use_global_stats: true
  }
}
layer {
  name: "scale4b_branch2c"
  type: "Scale"
  bottom: "res4b_branch2c"
  top: "res4b_branch2c"
  scale_param {
    bias_term: true
  }
}
layer {
  name: "res4b"
  type: "Eltwise"
  bottom: "res4a"
  bottom: "res4b_branch2c"
  top: "res4b"
}
layer {
  name: "res4b_relu"
  type: "ReLU"
  bottom: "res4b"
  top: "res4b"
}
layer {
  name: "res4c_branch2a"
  type: "Convolution"
  bottom: "res4b"
  top: "res4c_branch2a"
  convolution_param {
    num_output: 256
    bias_term: false
    pad: 0
    kernel_size: 1
    stride: 1
  }
}
layer {
  name: "bn4c_branch2a"
  type: "BatchNorm"
  bottom: "res4c_branch2a"
  top: "res4c_branch2a"
  batch_norm_param {
    use_global_stats: true
  }
}
layer {
  name: "scale4c_branch2a"
  type: "Scale"
  bottom: "res4c_branch2a"
  top: "res4c_branch2a"
  scale_param {
    bias_term: true
  }
}
layer {
  name: "res4c_branch2a_relu"
  type: "ReLU"
  bottom: "res4c_branch2a"
  top: "res4c_branch2a"
}
layer {
  name: "res4c_branch2b"
  type: "Convolution"
  bottom: "res4c_branch2a"
  top: "res4c_branch2b"
  convolution_param {
    num_output: 256
    bias_term: false
    pad: 1
    kernel_size: 3
    stride: 1
  }
}
layer {
  name: "bn4c_branch2b"
  type: "BatchNorm"
  bottom: "res4c_branch2b"
  top: "res4c_branch2b"
  batch_norm_param {
    use_global_stats: true
  }
}
layer {
  name: "scale4c_branch2b"
  type: "Scale"
  bottom: "res4c_branch2b"
  top: "res4c_branch2b"
  scale_param {
    bias_term: true
  }
}
layer {
  name: "res4c_branch2b_relu"
  type: "ReLU"
  bottom: "res4c_branch2b"
  top: "res4c_branch2b"
}
layer {
  name: "res4c_branch2c"
  type: "Convolution"
  bottom: "res4c_branch2b"
  top: "res4c_branch2c"
  convolution_param {
    num_output: 1024
    bias_term: false
    pad: 0
    kernel_size: 1
    stride: 1
  }
}
layer {
  name: "bn4c_branch2c"
  type: "BatchNorm"
  bottom: "res4c_branch2c"
  top: "res4c_branch2c"
  batch_norm_param {
    use_global_stats: true
  }
}
layer {
  name: "scale4c_branch2c"
  type: "Scale"
  bottom: "res4c_branch2c"
  top: "res4c_branch2c"
  scale_param {
    bias_term: true
  }
}
layer {
  name: "res4c"
  type: "Eltwise"
  bottom: "res4b"
  bottom: "res4c_branch2c"
  top: "res4c"
}
layer {
  name: "res4c_relu"
  type: "ReLU"
  bottom: "res4c"
  top: "res4c"
}
layer {
  name: "res4d_branch2a"
  type: "Convolution"
  bottom: "res4c"
  top: "res4d_branch2a"
  convolution_param {
    num_output: 256
    bias_term: false
    pad: 0
    kernel_size: 1
    stride: 1
  }
}
layer {
  name: "bn4d_branch2a"
  type: "BatchNorm"
  bottom: "res4d_branch2a"
  top: "res4d_branch2a"
  batch_norm_param {
    use_global_stats: true
  }
}
layer {
  name: "scale4d_branch2a"
  type: "Scale"
  bottom: "res4d_branch2a"
  top: "res4d_branch2a"
  scale_param {
    bias_term: true
  }
}
layer {
  name: "res4d_branch2a_relu"
  type: "ReLU"
  bottom: "res4d_branch2a"
  top: "res4d_branch2a"
}
layer {
  name: "res4d_branch2b"
  type: "Convolution"
  bottom: "res4d_branch2a"
  top: "res4d_branch2b"
  convolution_param {
    num_output: 256
    bias_term: false
    pad: 1
    kernel_size: 3
    stride: 1
  }
}
layer {
  name: "bn4d_branch2b"
  type: "BatchNorm"
  bottom: "res4d_branch2b"
  top: "res4d_branch2b"
  batch_norm_param {
    use_global_stats: true
  }
}
layer {
  name: "scale4d_branch2b"
  type: "Scale"
  bottom: "res4d_branch2b"
  top: "res4d_branch2b"
  scale_param {
    bias_term: true
  }
}
layer {
  name: "res4d_branch2b_relu"
  type: "ReLU"
  bottom: "res4d_branch2b"
  top: "res4d_branch2b"
}
layer {
  name: "res4d_branch2c"
  type: "Convolution"
  bottom: "res4d_branch2b"
  top: "res4d_branch2c"
  convolution_param {
    num_output: 1024
    bias_term: false
    pad: 0
    kernel_size: 1
    stride: 1
  }
}
layer {
  name: "bn4d_branch2c"
  type: "BatchNorm"
  bottom: "res4d_branch2c"
  top: "res4d_branch2c"
  batch_norm_param {
    use_global_stats: true
  }
}
layer {
  name: "scale4d_branch2c"
  type: "Scale"
  bottom: "res4d_branch2c"
  top: "res4d_branch2c"
  scale_param {
    bias_term: true
  }
}
layer {
  name: "res4d"
  type: "Eltwise"
  bottom: "res4c"
  bottom: "res4d_branch2c"
  top: "res4d"
}
layer {
  name: "res4d_relu"
  type: "ReLU"
  bottom: "res4d"
  top: "res4d"
}
layer {
  name: "res4e_branch2a"
  type: "Convolution"
  bottom: "res4d"
  top: "res4e_branch2a"
  convolution_param {
    num_output: 256
    bias_term: false
    pad: 0
    kernel_size: 1
    stride: 1
  }
}
layer {
  name: "bn4e_branch2a"
  type: "BatchNorm"
  bottom: "res4e_branch2a"
  top: "res4e_branch2a"
  batch_norm_param {
    use_global_stats: true
  }
}
layer {
  name: "scale4e_branch2a"
  type: "Scale"
  bottom: "res4e_branch2a"
  top: "res4e_branch2a"
  scale_param {
    bias_term: true
  }
}
layer {
  name: "res4e_branch2a_relu"
  type: "ReLU"
  bottom: "res4e_branch2a"
  top: "res4e_branch2a"
}
layer {
  name: "res4e_branch2b"
  type: "Convolution"
  bottom: "res4e_branch2a"
  top: "res4e_branch2b"
  convolution_param {
    num_output: 256
    bias_term: false
    pad: 1
    kernel_size: 3
    stride: 1
  }
}
layer {
  name: "bn4e_branch2b"
  type: "BatchNorm"
  bottom: "res4e_branch2b"
  top: "res4e_branch2b"
  batch_norm_param {
    use_global_stats: true
  }
}
layer {
  name: "scale4e_branch2b"
  type: "Scale"
  bottom: "res4e_branch2b"
  top: "res4e_branch2b"
  scale_param {
    bias_term: true
  }
}
layer {
  name: "res4e_branch2b_relu"
  type: "ReLU"
  bottom: "res4e_branch2b"
  top: "res4e_branch2b"
}
layer {
  name: "res4e_branch2c"
  type: "Convolution"
  bottom: "res4e_branch2b"
  top: "res4e_branch2c"
  convolution_param {
    num_output: 1024
    bias_term: false
    pad: 0
    kernel_size: 1
    stride: 1
  }
}
layer {
  name: "bn4e_branch2c"
  type: "BatchNorm"
  bottom: "res4e_branch2c"
  top: "res4e_branch2c"
  batch_norm_param {
    use_global_stats: true
  }
}
layer {
  name: "scale4e_branch2c"
  type: "Scale"
  bottom: "res4e_branch2c"
  top: "res4e_branch2c"
  scale_param {
    bias_term: true
  }
}
layer {
  name: "res4e"
  type: "Eltwise"
  bottom: "res4d"
  bottom: "res4e_branch2c"
  top: "res4e"
}
layer {
  name: "res4e_relu"
  type: "ReLU"
  bottom: "res4e"
  top: "res4e"
}
layer {
  name: "res4f_branch2a"
  type: "Convolution"
  bottom: "res4e"
  top: "res4f_branch2a"
  convolution_param {
    num_output: 256
    bias_term: false
    pad: 0
    kernel_size: 1
    stride: 1
  }
}
layer {
  name: "bn4f_branch2a"
  type: "BatchNorm"
  bottom: "res4f_branch2a"
  top: "res4f_branch2a"
  batch_norm_param {
    use_global_stats: true
  }
}
layer {
  name: "scale4f_branch2a"
  type: "Scale"
  bottom: "res4f_branch2a"
  top: "res4f_branch2a"
  scale_param {
    bias_term: true
  }
}
layer {
  name: "res4f_branch2a_relu"
  type: "ReLU"
  bottom: "res4f_branch2a"
  top: "res4f_branch2a"
}
layer {
  name: "res4f_branch2b"
  type: "Convolution"
  bottom: "res4f_branch2a"
  top: "res4f_branch2b"
  convolution_param {
    num_output: 256
    bias_term: false
    pad: 1
    kernel_size: 3
    stride: 1
  }
}
layer {
  name: "bn4f_branch2b"
  type: "BatchNorm"
  bottom: "res4f_branch2b"
  top: "res4f_branch2b"
  batch_norm_param {
    use_global_stats: true
  }
}
layer {
  name: "scale4f_branch2b"
  type: "Scale"
  bottom: "res4f_branch2b"
  top: "res4f_branch2b"
  scale_param {
    bias_term: true
  }
}
layer {
  name: "res4f_branch2b_relu"
  type: "ReLU"
  bottom: "res4f_branch2b"
  top: "res4f_branch2b"
}
layer {
  name: "res4f_branch2c"
  type: "Convolution"
  bottom: "res4f_branch2b"
  top: "res4f_branch2c"
  convolution_param {
    num_output: 1024
    bias_term: false
    pad: 0
    kernel_size: 1
    stride: 1
  }
}
layer {
  name: "bn4f_branch2c"
  type: "BatchNorm"
  bottom: "res4f_branch2c"
  top: "res4f_branch2c"
  batch_norm_param {
    use_global_stats: true
  }
}
layer {
  name: "scale4f_branch2c"
  type: "Scale"
  bottom: "res4f_branch2c"
  top: "res4f_branch2c"
  scale_param {
    bias_term: true
  }
}
layer {
  name: "res4f"
  type: "Eltwise"
  bottom: "res4e"
  bottom: "res4f_branch2c"
  top: "res4f"
}
layer {
  name: "res4f_relu"
  type: "ReLU"
  bottom: "res4f"
  top: "res4f"
}
layer {
  name: "res5a_branch1"
  type: "Convolution"
  bottom: "res4f"
  top: "res5a_branch1"
  convolution_param {
    num_output: 2048
    bias_term: false
    pad: 0
    kernel_size: 1
    stride: 2
  }
}
layer {
  name: "bn5a_branch1"
  type: "BatchNorm"
  bottom: "res5a_branch1"
  top: "res5a_branch1"
  batch_norm_param {
    use_global_stats: true
  }
}
layer {
  name: "scale5a_branch1"
  type: "Scale"
  bottom: "res5a_branch1"
  top: "res5a_branch1"
  scale_param {
    bias_term: true
  }
}
layer {
  name: "res5a_branch2a"
  type: "Convolution"
  bottom: "res4f"
  top: "res5a_branch2a"
  convolution_param {
    num_output: 512
    bias_term: false
    pad: 0
    kernel_size: 1
    stride: 2
  }
}
layer {
  name: "bn5a_branch2a"
  type: "BatchNorm"
  bottom: "res5a_branch2a"
  top: "res5a_branch2a"
  batch_norm_param {
    use_global_stats: true
  }
}
layer {
  name: "scale5a_branch2a"
  type: "Scale"
  bottom: "res5a_branch2a"
  top: "res5a_branch2a"
  scale_param {
    bias_term: true
  }
}
layer {
  name: "res5a_branch2a_relu"
  type: "ReLU"
  bottom: "res5a_branch2a"
  top: "res5a_branch2a"
}
layer {
  name: "res5a_branch2b"
  type: "Convolution"
  bottom: "res5a_branch2a"
  top: "res5a_branch2b"
  convolution_param {
    num_output: 512
    bias_term: false
    pad: 1
    kernel_size: 3
    stride: 1
  }
}
layer {
  name: "bn5a_branch2b"
  type: "BatchNorm"
  bottom: "res5a_branch2b"
  top: "res5a_branch2b"
  batch_norm_param {
    use_global_stats: true
  }
}
layer {
  name: "scale5a_branch2b"
  type: "Scale"
  bottom: "res5a_branch2b"
  top: "res5a_branch2b"
  scale_param {
    bias_term: true
  }
}
layer {
  name: "res5a_branch2b_relu"
  type: "ReLU"
  bottom: "res5a_branch2b"
  top: "res5a_branch2b"
}
layer {
  name: "res5a_branch2c"
  type: "Convolution"
  bottom: "res5a_branch2b"
  top: "res5a_branch2c"
  convolution_param {
    num_output: 2048
    bias_term: false
    pad
I0305 13:43:26.062881 10100 layer_factory.hpp:77] Creating layer data
I0305 13:43:26.062907 10100 net.cpp:100] Creating Layer data
I0305 13:43:26.062913 10100 net.cpp:408] data -> data
I0305 13:43:26.062930 10100 net.cpp:408] data -> label
I0305 13:43:26.063235 10100 image_data_layer.cpp:40] Opening file evaluation/data/CUHK03/train_cuhk03_labeled.txt
I0305 13:43:26.064471 10100 image_data_layer.cpp:55] Shuffling data
I0305 13:43:26.065243 10100 image_data_layer.cpp:60] A total of 7012 images.
I0305 13:43:26.075538 10100 image_data_layer.cpp:87] output data size: 32,3,224,224
I0305 13:43:26.095341 10100 net.cpp:150] Setting up data
I0305 13:43:26.095381 10100 net.cpp:157] Top shape: 32 3 224 224 (4816896)
I0305 13:43:26.095386 10100 net.cpp:157] Top shape: 32 (32)
I0305 13:43:26.095388 10100 net.cpp:165] Memory required for data: 19267712
I0305 13:43:26.095393 10100 layer_factory.hpp:77] Creating layer conv1
I0305 13:43:26.095408 10100 net.cpp:100] Creating Layer conv1
I0305 13:43:26.095423 10100 net.cpp:434] conv1 <- data
I0305 13:43:26.095435 10100 net.cpp:408] conv1 -> conv1
I0305 13:43:26.218760 10100 net.cpp:150] Setting up conv1
I0305 13:43:26.218781 10100 net.cpp:157] Top shape: 32 64 112 112 (25690112)
I0305 13:43:26.218786 10100 net.cpp:165] Memory required for data: 122028160
I0305 13:43:26.218813 10100 layer_factory.hpp:77] Creating layer bn_conv1
I0305 13:43:26.218827 10100 net.cpp:100] Creating Layer bn_conv1
I0305 13:43:26.218832 10100 net.cpp:434] bn_conv1 <- conv1
I0305 13:43:26.218839 10100 net.cpp:395] bn_conv1 -> conv1 (in-place)
I0305 13:43:26.218976 10100 net.cpp:150] Setting up bn_conv1
I0305 13:43:26.218983 10100 net.cpp:157] Top shape: 32 64 112 112 (25690112)
I0305 13:43:26.218987 10100 net.cpp:165] Memory required for data: 224788608
I0305 13:43:26.219009 10100 layer_factory.hpp:77] Creating layer scale_conv1
I0305 13:43:26.219019 10100 net.cpp:100] Creating Layer scale_conv1
I0305 13:43:26.219024 10100 net.cpp:434] scale_conv1 <- conv1
I0305 13:43:26.219030 10100 net.cpp:395] scale_conv1 -> conv1 (in-place)
I0305 13:43:26.219087 10100 layer_factory.hpp:77] Creating layer scale_conv1
I0305 13:43:26.219192 10100 net.cpp:150] Setting up scale_conv1
I0305 13:43:26.219199 10100 net.cpp:157] Top shape: 32 64 112 112 (25690112)
I0305 13:43:26.219203 10100 net.cpp:165] Memory required for data: 327549056
I0305 13:43:26.219220 10100 layer_factory.hpp:77] Creating layer conv1_relu
I0305 13:43:26.219229 10100 net.cpp:100] Creating Layer conv1_relu
I0305 13:43:26.219234 10100 net.cpp:434] conv1_relu <- conv1
I0305 13:43:26.219240 10100 net.cpp:395] conv1_relu -> conv1 (in-place)
I0305 13:43:26.219455 10100 net.cpp:150] Setting up conv1_relu
I0305 13:43:26.219463 10100 net.cpp:157] Top shape: 32 64 112 112 (25690112)
I0305 13:43:26.219467 10100 net.cpp:165] Memory required for data: 430309504
I0305 13:43:26.219481 10100 layer_factory.hpp:77] Creating layer pool1
I0305 13:43:26.219491 10100 net.cpp:100] Creating Layer pool1
I0305 13:43:26.219496 10100 net.cpp:434] pool1 <- conv1
I0305 13:43:26.219502 10100 net.cpp:408] pool1 -> pool1
I0305 13:43:26.219548 10100 net.cpp:150] Setting up pool1
I0305 13:43:26.219555 10100 net.cpp:157] Top shape: 32 64 56 56 (6422528)
I0305 13:43:26.219559 10100 net.cpp:165] Memory required for data: 455999616
I0305 13:43:26.219573 10100 layer_factory.hpp:77] Creating layer pool1_pool1_0_split
I0305 13:43:26.219580 10100 net.cpp:100] Creating Layer pool1_pool1_0_split
I0305 13:43:26.219584 10100 net.cpp:434] pool1_pool1_0_split <- pool1
I0305 13:43:26.219590 10100 net.cpp:408] pool1_pool1_0_split -> pool1_pool1_0_split_0
I0305 13:43:26.219597 10100 net.cpp:408] pool1_pool1_0_split -> pool1_pool1_0_split_1
I0305 13:43:26.219635 10100 net.cpp:150] Setting up pool1_pool1_0_split
I0305 13:43:26.219640 10100 net.cpp:157] Top shape: 32 64 56 56 (6422528)
I0305 13:43:26.219645 10100 net.cpp:157] Top shape: 32 64 56 56 (6422528)
I0305 13:43:26.219660 10100 net.cpp:165] Memory required for data: 507379840
I0305 13:43:26.219663 10100 layer_factory.hpp:77] Creating layer res2a_branch1
I0305 13:43:26.219671 10100 net.cpp:100] Creating Layer res2a_branch1
I0305 13:43:26.219676 10100 net.cpp:434] res2a_branch1 <- pool1_pool1_0_split_0
I0305 13:43:26.219681 10100 net.cpp:408] res2a_branch1 -> res2a_branch1
I0305 13:43:26.220340 10100 net.cpp:150] Setting up res2a_branch1
I0305 13:43:26.220350 10100 net.cpp:157] Top shape: 32 256 56 56 (25690112)
I0305 13:43:26.220353 10100 net.cpp:165] Memory required for data: 610140288
I0305 13:43:26.220369 10100 layer_factory.hpp:77] Creating layer bn2a_branch1
I0305 13:43:26.220377 10100 net.cpp:100] Creating Layer bn2a_branch1
I0305 13:43:26.220382 10100 net.cpp:434] bn2a_branch1 <- res2a_branch1
I0305 13:43:26.220389 10100 net.cpp:395] bn2a_branch1 -> res2a_branch1 (in-place)
I0305 13:43:26.220760 10100 net.cpp:150] Setting up bn2a_branch1
I0305 13:43:26.220769 10100 net.cpp:157] Top shape: 32 256 56 56 (25690112)
I0305 13:43:26.220773 10100 net.cpp:165] Memory required for data: 712900736
I0305 13:43:26.220794 10100 layer_factory.hpp:77] Creating layer scale2a_branch1
I0305 13:43:26.220804 10100 net.cpp:100] Creating Layer scale2a_branch1
I0305 13:43:26.220809 10100 net.cpp:434] scale2a_branch1 <- res2a_branch1
I0305 13:43:26.220815 10100 net.cpp:395] scale2a_branch1 -> res2a_branch1 (in-place)
I0305 13:43:26.220857 10100 layer_factory.hpp:77] Creating layer scale2a_branch1
I0305 13:43:26.220948 10100 net.cpp:150] Setting up scale2a_branch1
I0305 13:43:26.220955 10100 net.cpp:157] Top shape: 32 256 56 56 (25690112)
I0305 13:43:26.220958 10100 net.cpp:165] Memory required for data: 815661184
I0305 13:43:26.220975 10100 layer_factory.hpp:77] Creating layer res2a_branch2a
I0305 13:43:26.220984 10100 net.cpp:100] Creating Layer res2a_branch2a
I0305 13:43:26.220990 10100 net.cpp:434] res2a_branch2a <- pool1_pool1_0_split_1
I0305 13:43:26.220999 10100 net.cpp:408] res2a_branch2a -> res2a_branch2a
I0305 13:43:26.221540 10100 net.cpp:150] Setting up res2a_branch2a
I0305 13:43:26.221549 10100 net.cpp:157] Top shape: 32 64 56 56 (6422528)
I0305 13:43:26.221554 10100 net.cpp:165] Memory required for data: 841351296
I0305 13:43:26.221570 10100 layer_factory.hpp:77] Creating layer bn2a_branch2a
I0305 13:43:26.221578 10100 net.cpp:100] Creating Layer bn2a_branch2a
I0305 13:43:26.221582 10100 net.cpp:434] bn2a_branch2a <- res2a_branch2a
I0305 13:43:26.221588 10100 net.cpp:395] bn2a_branch2a -> res2a_branch2a (in-place)
I0305 13:43:26.221729 10100 net.cpp:150] Setting up bn2a_branch2a
I0305 13:43:26.221737 10100 net.cpp:157] Top shape: 32 64 56 56 (6422528)
I0305 13:43:26.221741 10100 net.cpp:165] Memory required for data: 867041408
I0305 13:43:26.221752 10100 layer_factory.hpp:77] Creating layer scale2a_branch2a
I0305 13:43:26.221760 10100 net.cpp:100] Creating Layer scale2a_branch2a
I0305 13:43:26.221765 10100 net.cpp:434] scale2a_branch2a <- res2a_branch2a
I0305 13:43:26.221771 10100 net.cpp:395] scale2a_branch2a -> res2a_branch2a (in-place)
I0305 13:43:26.221810 10100 layer_factory.hpp:77] Creating layer scale2a_branch2a
I0305 13:43:26.221910 10100 net.cpp:150] Setting up scale2a_branch2a
I0305 13:43:26.221917 10100 net.cpp:157] Top shape: 32 64 56 56 (6422528)
I0305 13:43:26.221921 10100 net.cpp:165] Memory required for data: 892731520
I0305 13:43:26.221938 10100 layer_factory.hpp:77] Creating layer res2a_branch2a_relu
I0305 13:43:26.221945 10100 net.cpp:100] Creating Layer res2a_branch2a_relu
I0305 13:43:26.221948 10100 net.cpp:434] res2a_branch2a_relu <- res2a_branch2a
I0305 13:43:26.221953 10100 net.cpp:395] res2a_branch2a_relu -> res2a_branch2a (in-place)
I0305 13:43:26.222164 10100 net.cpp:150] Setting up res2a_branch2a_relu
I0305 13:43:26.222173 10100 net.cpp:157] Top shape: 32 64 56 56 (6422528)
I0305 13:43:26.222177 10100 net.cpp:165] Memory required for data: 918421632
I0305 13:43:26.222190 10100 layer_factory.hpp:77] Creating layer res2a_branch2b
I0305 13:43:26.222199 10100 net.cpp:100] Creating Layer res2a_branch2b
I0305 13:43:26.222203 10100 net.cpp:434] res2a_branch2b <- res2a_branch2a
I0305 13:43:26.222209 10100 net.cpp:408] res2a_branch2b -> res2a_branch2b
I0305 13:43:26.223217 10100 net.cpp:150] Setting up res2a_branch2b
I0305 13:43:26.223227 10100 net.cpp:157] Top shape: 32 64 56 56 (6422528)
I0305 13:43:26.223232 10100 net.cpp:165] Memory required for data: 944111744
I0305 13:43:26.223248 10100 layer_factory.hpp:77] Creating layer bn2a_branch2b
I0305 13:43:26.223256 10100 net.cpp:100] Creating Layer bn2a_branch2b
I0305 13:43:26.223260 10100 net.cpp:434] bn2a_branch2b <- res2a_branch2b
I0305 13:43:26.223266 10100 net.cpp:395] bn2a_branch2b -> res2a_branch2b (in-place)
I0305 13:43:26.223415 10100 net.cpp:150] Setting up bn2a_branch2b
I0305 13:43:26.223424 10100 net.cpp:157] Top shape: 32 64 56 56 (6422528)
I0305 13:43:26.223428 10100 net.cpp:165] Memory required for data: 969801856
I0305 13:43:26.223436 10100 layer_factory.hpp:77] Creating layer scale2a_branch2b
I0305 13:43:26.223446 10100 net.cpp:100] Creating Layer scale2a_branch2b
I0305 13:43:26.223453 10100 net.cpp:434] scale2a_branch2b <- res2a_branch2b
I0305 13:43:26.223458 10100 net.cpp:395] scale2a_branch2b -> res2a_branch2b (in-place)
I0305 13:43:26.223490 10100 layer_factory.hpp:77] Creating layer scale2a_branch2b
I0305 13:43:26.223572 10100 net.cpp:150] Setting up scale2a_branch2b
I0305 13:43:26.223584 10100 net.cpp:157] Top shape: 32 64 56 56 (6422528)
I0305 13:43:26.223587 10100 net.cpp:165] Memory required for data: 995491968
I0305 13:43:26.223594 10100 layer_factory.hpp:77] Creating layer res2a_branch2b_relu
I0305 13:43:26.223600 10100 net.cpp:100] Creating Layer res2a_branch2b_relu
I0305 13:43:26.223604 10100 net.cpp:434] res2a_branch2b_relu <- res2a_branch2b
I0305 13:43:26.223611 10100 net.cpp:395] res2a_branch2b_relu -> res2a_branch2b (in-place)
I0305 13:43:26.223733 10100 net.cpp:150] Setting up res2a_branch2b_relu
I0305 13:43:26.223742 10100 net.cpp:157] Top shape: 32 64 56 56 (6422528)
I0305 13:43:26.223745 10100 net.cpp:165] Memory required for data: 1021182080
I0305 13:43:26.223749 10100 layer_factory.hpp:77] Creating layer res2a_branch2c
I0305 13:43:26.223758 10100 net.cpp:100] Creating Layer res2a_branch2c
I0305 13:43:26.223762 10100 net.cpp:434] res2a_branch2c <- res2a_branch2b
I0305 13:43:26.223768 10100 net.cpp:408] res2a_branch2c -> res2a_branch2c
I0305 13:43:26.224444 10100 net.cpp:150] Setting up res2a_branch2c
I0305 13:43:26.224454 10100 net.cpp:157] Top shape: 32 256 56 56 (25690112)
I0305 13:43:26.224458 10100 net.cpp:165] Memory required for data: 1123942528
I0305 13:43:26.224465 10100 layer_factory.hpp:77] Creating layer bn2a_branch2c
I0305 13:43:26.224473 10100 net.cpp:100] Creating Layer bn2a_branch2c
I0305 13:43:26.224478 10100 net.cpp:434] bn2a_branch2c <- res2a_branch2c
I0305 13:43:26.224484 10100 net.cpp:395] bn2a_branch2c -> res2a_branch2c (in-place)
I0305 13:43:26.224616 10100 net.cpp:150] Setting up bn2a_branch2c
I0305 13:43:26.224623 10100 net.cpp:157] Top shape: 32 256 56 56 (25690112)
I0305 13:43:26.224627 10100 net.cpp:165] Memory required for data: 1226702976
I0305 13:43:26.224637 10100 layer_factory.hpp:77] Creating layer scale2a_branch2c
I0305 13:43:26.224643 10100 net.cpp:100] Creating Layer scale2a_branch2c
I0305 13:43:26.224647 10100 net.cpp:434] scale2a_branch2c <- res2a_branch2c
I0305 13:43:26.224654 10100 net.cpp:395] scale2a_branch2c -> res2a_branch2c (in-place)
I0305 13:43:26.224685 10100 layer_factory.hpp:77] Creating layer scale2a_branch2c
I0305 13:43:26.224772 10100 net.cpp:150] Setting up scale2a_branch2c
I0305 13:43:26.224781 10100 net.cpp:157] Top shape: 32 256 56 56 (25690112)
I0305 13:43:26.224786 10100 net.cpp:165] Memory required for data: 1329463424
I0305 13:43:26.224792 10100 layer_factory.hpp:77] Creating layer res2a
I0305 13:43:26.224800 10100 net.cpp:100] Creating Layer res2a
I0305 13:43:26.224807 10100 net.cpp:434] res2a <- res2a_branch1
I0305 13:43:26.224812 10100 net.cpp:434] res2a <- res2a_branch2c
I0305 13:43:26.224817 10100 net.cpp:408] res2a -> res2a
I0305 13:43:26.224841 10100 net.cpp:150] Setting up res2a
I0305 13:43:26.224848 10100 net.cpp:157] Top shape: 32 256 56 56 (25690112)
I0305 13:43:26.224851 10100 net.cpp:165] Memory required for data: 1432223872
I0305 13:43:26.224855 10100 layer_factory.hpp:77] Creating layer res2a_relu
I0305 13:43:26.224862 10100 net.cpp:100] Creating Layer res2a_relu
I0305 13:43:26.224866 10100 net.cpp:434] res2a_relu <- res2a
I0305 13:43:26.224871 10100 net.cpp:395] res2a_relu -> res2a (in-place)
I0305 13:43:26.225096 10100 net.cpp:150] Setting up res2a_relu
I0305 13:43:26.225106 10100 net.cpp:157] Top shape: 32 256 56 56 (25690112)
I0305 13:43:26.225109 10100 net.cpp:165] Memory required for data: 1534984320
I0305 13:43:26.225113 10100 layer_factory.hpp:77] Creating layer res2a_res2a_relu_0_split
I0305 13:43:26.225121 10100 net.cpp:100] Creating Layer res2a_res2a_relu_0_split
I0305 13:43:26.225126 10100 net.cpp:434] res2a_res2a_relu_0_split <- res2a
I0305 13:43:26.225131 10100 net.cpp:408] res2a_res2a_relu_0_split -> res2a_res2a_relu_0_split_0
I0305 13:43:26.225138 10100 net.cpp:408] res2a_res2a_relu_0_split -> res2a_res2a_relu_0_split_1
I0305 13:43:26.225169 10100 net.cpp:150] Setting up res2a_res2a_relu_0_split
I0305 13:43:26.225177 10100 net.cpp:157] Top shape: 32 256 56 56 (25690112)
I0305 13:43:26.225181 10100 net.cpp:157] Top shape: 32 256 56 56 (25690112)
I0305 13:43:26.225184 10100 net.cpp:165] Memory required for data: 1740505216
I0305 13:43:26.225188 10100 layer_factory.hpp:77] Creating layer res2b_branch2a
I0305 13:43:26.225196 10100 net.cpp:100] Creating Layer res2b_branch2a
I0305 13:43:26.225201 10100 net.cpp:434] res2b_branch2a <- res2a_res2a_relu_0_split_0
I0305 13:43:26.225206 10100 net.cpp:408] res2b_branch2a -> res2b_branch2a
I0305 13:43:26.225778 10100 net.cpp:150] Setting up res2b_branch2a
I0305 13:43:26.225788 10100 net.cpp:157] Top shape: 32 64 56 56 (6422528)
I0305 13:43:26.225792 10100 net.cpp:165] Memory required for data: 1766195328
I0305 13:43:26.225798 10100 layer_factory.hpp:77] Creating layer bn2b_branch2a
I0305 13:43:26.225806 10100 net.cpp:100] Creating Layer bn2b_branch2a
I0305 13:43:26.225811 10100 net.cpp:434] bn2b_branch2a <- res2b_branch2a
I0305 13:43:26.225816 10100 net.cpp:395] bn2b_branch2a -> res2b_branch2a (in-place)
I0305 13:43:26.225944 10100 net.cpp:150] Setting up bn2b_branch2a
I0305 13:43:26.225951 10100 net.cpp:157] Top shape: 32 64 56 56 (6422528)
I0305 13:43:26.225955 10100 net.cpp:165] Memory required for data: 1791885440
I0305 13:43:26.225967 10100 layer_factory.hpp:77] Creating layer scale2b_branch2a
I0305 13:43:26.225977 10100 net.cpp:100] Creating Layer scale2b_branch2a
I0305 13:43:26.225983 10100 net.cpp:434] scale2b_branch2a <- res2b_branch2a
I0305 13:43:26.225989 10100 net.cpp:395] scale2b_branch2a -> res2b_branch2a (in-place)
I0305 13:43:26.226023 10100 layer_factory.hpp:77] Creating layer scale2b_branch2a
I0305 13:43:26.226119 10100 net.cpp:150] Setting up scale2b_branch2a
I0305 13:43:26.226126 10100 net.cpp:157] Top shape: 32 64 56 56 (6422528)
I0305 13:43:26.226130 10100 net.cpp:165] Memory required for data: 1817575552
I0305 13:43:26.226137 10100 layer_factory.hpp:77] Creating layer res2b_branch2a_relu
I0305 13:43:26.226145 10100 net.cpp:100] Creating Layer res2b_branch2a_relu
I0305 13:43:26.226150 10100 net.cpp:434] res2b_branch2a_relu <- res2b_branch2a
I0305 13:43:26.226155 10100 net.cpp:395] res2b_branch2a_relu -> res2b_branch2a (in-place)
I0305 13:43:26.226441 10100 net.cpp:150] Setting up res2b_branch2a_relu
I0305 13:43:26.226450 10100 net.cpp:157] Top shape: 32 64 56 56 (6422528)
I0305 13:43:26.226454 10100 net.cpp:165] Memory required for data: 1843265664
I0305 13:43:26.226459 10100 layer_factory.hpp:77] Creating layer res2b_branch2b
I0305 13:43:26.226467 10100 net.cpp:100] Creating Layer res2b_branch2b
I0305 13:43:26.226471 10100 net.cpp:434] res2b_branch2b <- res2b_branch2a
I0305 13:43:26.226478 10100 net.cpp:408] res2b_branch2b -> res2b_branch2b
I0305 13:43:26.227221 10100 net.cpp:150] Setting up res2b_branch2b
I0305 13:43:26.227231 10100 net.cpp:157] Top shape: 32 64 56 56 (6422528)
I0305 13:43:26.227236 10100 net.cpp:165] Memory required for data: 1868955776
I0305 13:43:26.227243 10100 layer_factory.hpp:77] Creating layer bn2b_branch2b
I0305 13:43:26.227250 10100 net.cpp:100] Creating Layer bn2b_branch2b
I0305 13:43:26.227254 10100 net.cpp:434] bn2b_branch2b <- res2b_branch2b
I0305 13:43:26.227262 10100 net.cpp:395] bn2b_branch2b -> res2b_branch2b (in-place)
I0305 13:43:26.227393 10100 net.cpp:150] Setting up bn2b_branch2b
I0305 13:43:26.227401 10100 net.cpp:157] Top shape: 32 64 56 56 (6422528)
I0305 13:43:26.227404 10100 net.cpp:165] Memory required for data: 1894645888
I0305 13:43:26.227413 10100 layer_factory.hpp:77] Creating layer scale2b_branch2b
I0305 13:43:26.227419 10100 net.cpp:100] Creating Layer scale2b_branch2b
I0305 13:43:26.227423 10100 net.cpp:434] scale2b_branch2b <- res2b_branch2b
I0305 13:43:26.227429 10100 net.cpp:395] scale2b_branch2b -> res2b_branch2b (in-place)
I0305 13:43:26.227461 10100 layer_factory.hpp:77] Creating layer scale2b_branch2b
I0305 13:43:26.227560 10100 net.cpp:150] Setting up scale2b_branch2b
I0305 13:43:26.227567 10100 net.cpp:157] Top shape: 32 64 56 56 (6422528)
I0305 13:43:26.227571 10100 net.cpp:165] Memory required for data: 1920336000
I0305 13:43:26.227577 10100 layer_factory.hpp:77] Creating layer res2b_branch2b_relu
I0305 13:43:26.227586 10100 net.cpp:100] Creating Layer res2b_branch2b_relu
I0305 13:43:26.227591 10100 net.cpp:434] res2b_branch2b_relu <- res2b_branch2b
I0305 13:43:26.227596 10100 net.cpp:395] res2b_branch2b_relu -> res2b_branch2b (in-place)
I0305 13:43:26.227720 10100 net.cpp:150] Setting up res2b_branch2b_relu
I0305 13:43:26.227726 10100 net.cpp:157] Top shape: 32 64 56 56 (6422528)
I0305 13:43:26.227730 10100 net.cpp:165] Memory required for data: 1946026112
I0305 13:43:26.227748 10100 layer_factory.hpp:77] Creating layer res2b_branch2c
I0305 13:43:26.227761 10100 net.cpp:100] Creating Layer res2b_branch2c
I0305 13:43:26.227766 10100 net.cpp:434] res2b_branch2c <- res2b_branch2b
I0305 13:43:26.227771 10100 net.cpp:408] res2b_branch2c -> res2b_branch2c
I0305 13:43:26.228448 10100 net.cpp:150] Setting up res2b_branch2c
I0305 13:43:26.228459 10100 net.cpp:157] Top shape: 32 256 56 56 (25690112)
I0305 13:43:26.228463 10100 net.cpp:165] Memory required for data: 2048786560
I0305 13:43:26.228469 10100 layer_factory.hpp:77] Creating layer bn2b_branch2c
I0305 13:43:26.228477 10100 net.cpp:100] Creating Layer bn2b_branch2c
I0305 13:43:26.228482 10100 net.cpp:434] bn2b_branch2c <- res2b_branch2c
I0305 13:43:26.228488 10100 net.cpp:395] bn2b_branch2c -> res2b_branch2c (in-place)
I0305 13:43:26.228613 10100 net.cpp:150] Setting up bn2b_branch2c
I0305 13:43:26.228621 10100 net.cpp:157] Top shape: 32 256 56 56 (25690112)
I0305 13:43:26.228624 10100 net.cpp:165] Memory required for data: 2151547008
I0305 13:43:26.228632 10100 layer_factory.hpp:77] Creating layer scale2b_branch2c
I0305 13:43:26.228641 10100 net.cpp:100] Creating Layer scale2b_branch2c
I0305 13:43:26.228646 10100 net.cpp:434] scale2b_branch2c <- res2b_branch2c
I0305 13:43:26.228651 10100 net.cpp:395] scale2b_branch2c -> res2b_branch2c (in-place)
I0305 13:43:26.228688 10100 layer_factory.hpp:77] Creating layer scale2b_branch2c
I0305 13:43:26.228765 10100 net.cpp:150] Setting up scale2b_branch2c
I0305 13:43:26.228772 10100 net.cpp:157] Top shape: 32 256 56 56 (25690112)
I0305 13:43:26.228776 10100 net.cpp:165] Memory required for data: 2254307456
I0305 13:43:26.228782 10100 layer_factory.hpp:77] Creating layer res2b
I0305 13:43:26.228790 10100 net.cpp:100] Creating Layer res2b
I0305 13:43:26.228795 10100 net.cpp:434] res2b <- res2a_res2a_relu_0_split_1
I0305 13:43:26.228799 10100 net.cpp:434] res2b <- res2b_branch2c
I0305 13:43:26.228804 10100 net.cpp:408] res2b -> res2b
I0305 13:43:26.228827 10100 net.cpp:150] Setting up res2b
I0305 13:43:26.228834 10100 net.cpp:157] Top shape: 32 256 56 56 (25690112)
I0305 13:43:26.228838 10100 net.cpp:165] Memory required for data: 2357067904
I0305 13:43:26.228842 10100 layer_factory.hpp:77] Creating layer res2b_relu
I0305 13:43:26.228847 10100 net.cpp:100] Creating Layer res2b_relu
I0305 13:43:26.228852 10100 net.cpp:434] res2b_relu <- res2b
I0305 13:43:26.228857 10100 net.cpp:395] res2b_relu -> res2b (in-place)
I0305 13:43:26.229068 10100 net.cpp:150] Setting up res2b_relu
I0305 13:43:26.229077 10100 net.cpp:157] Top shape: 32 256 56 56 (25690112)
I0305 13:43:26.229081 10100 net.cpp:165] Memory required for data: 2459828352
I0305 13:43:26.229085 10100 layer_factory.hpp:77] Creating layer res2b_res2b_relu_0_split
I0305 13:43:26.229092 10100 net.cpp:100] Creating Layer res2b_res2b_relu_0_split
I0305 13:43:26.229096 10100 net.cpp:434] res2b_res2b_relu_0_split <- res2b
I0305 13:43:26.229102 10100 net.cpp:408] res2b_res2b_relu_0_split -> res2b_res2b_relu_0_split_0
I0305 13:43:26.229109 10100 net.cpp:408] res2b_res2b_relu_0_split -> res2b_res2b_relu_0_split_1
I0305 13:43:26.229141 10100 net.cpp:150] Setting up res2b_res2b_relu_0_split
I0305 13:43:26.229148 10100 net.cpp:157] Top shape: 32 256 56 56 (25690112)
I0305 13:43:26.229153 10100 net.cpp:157] Top shape: 32 256 56 56 (25690112)
I0305 13:43:26.229157 10100 net.cpp:165] Memory required for data: 2665349248
I0305 13:43:26.229161 10100 layer_factory.hpp:77] Creating layer res2c_branch2a
I0305 13:43:26.229168 10100 net.cpp:100] Creating Layer res2c_branch2a
I0305 13:43:26.229173 10100 net.cpp:434] res2c_branch2a <- res2b_res2b_relu_0_split_0
I0305 13:43:26.229179 10100 net.cpp:408] res2c_branch2a -> res2c_branch2a
I0305 13:43:26.229729 10100 net.cpp:150] Setting up res2c_branch2a
I0305 13:43:26.229738 10100 net.cpp:157] Top shape: 32 64 56 56 (6422528)
I0305 13:43:26.229743 10100 net.cpp:165] Memory required for data: 2691039360
I0305 13:43:26.229748 10100 layer_factory.hpp:77] Creating layer bn2c_branch2a
I0305 13:43:26.229758 10100 net.cpp:100] Creating Layer bn2c_branch2a
I0305 13:43:26.229761 10100 net.cpp:434] bn2c_branch2a <- res2c_branch2a
I0305 13:43:26.229768 10100 net.cpp:395] bn2c_branch2a -> res2c_branch2a (in-place)
I0305 13:43:26.229899 10100 net.cpp:150] Setting up bn2c_branch2a
I0305 13:43:26.229907 10100 net.cpp:157] Top shape: 32 64 56 56 (6422528)
I0305 13:43:26.229910 10100 net.cpp:165] Memory required for data: 2716729472
I0305 13:43:26.229919 10100 layer_factory.hpp:77] Creating layer scale2c_branch2a
I0305 13:43:26.229926 10100 net.cpp:100] Creating Layer scale2c_branch2a
I0305 13:43:26.229931 10100 net.cpp:434] scale2c_branch2a <- res2c_branch2a
I0305 13:43:26.229936 10100 net.cpp:395] scale2c_branch2a -> res2c_branch2a (in-place)
I0305 13:43:26.229971 10100 layer_factory.hpp:77] Creating layer scale2c_branch2a
I0305 13:43:26.230062 10100 net.cpp:150] Setting up scale2c_branch2a
I0305 13:43:26.230069 10100 net.cpp:157] Top shape: 32 64 56 56 (6422528)
I0305 13:43:26.230073 10100 net.cpp:165] Memory required for data: 2742419584
I0305 13:43:26.230080 10100 layer_factory.hpp:77] Creating layer res2c_branch2a_relu
I0305 13:43:26.230087 10100 net.cpp:100] Creating Layer res2c_branch2a_relu
I0305 13:43:26.230110 10100 net.cpp:434] res2c_branch2a_relu <- res2c_branch2a
I0305 13:43:26.230116 10100 net.cpp:395] res2c_branch2a_relu -> res2c_branch2a (in-place)
I0305 13:43:26.230325 10100 net.cpp:150] Setting up res2c_branch2a_relu
I0305 13:43:26.230334 10100 net.cpp:157] Top shape: 32 64 56 56 (6422528)
I0305 13:43:26.230339 10100 net.cpp:165] Memory required for data: 2768109696
I0305 13:43:26.230342 10100 layer_factory.hpp:77] Creating layer res2c_branch2b
I0305 13:43:26.230361 10100 net.cpp:100] Creating Layer res2c_branch2b
I0305 13:43:26.230366 10100 net.cpp:434] res2c_branch2b <- res2c_branch2a
I0305 13:43:26.230373 10100 net.cpp:408] res2c_branch2b -> res2c_branch2b
I0305 13:43:26.231102 10100 net.cpp:150] Setting up res2c_branch2b
I0305 13:43:26.231112 10100 net.cpp:157] Top shape: 32 64 56 56 (6422528)
I0305 13:43:26.231117 10100 net.cpp:165] Memory required for data: 2793799808
I0305 13:43:26.231122 10100 layer_factory.hpp:77] Creating layer bn2c_branch2b
I0305 13:43:26.231130 10100 net.cpp:100] Creating Layer bn2c_branch2b
I0305 13:43:26.231134 10100 net.cpp:434] bn2c_branch2b <- res2c_branch2b
I0305 13:43:26.231140 10100 net.cpp:395] bn2c_branch2b -> res2c_branch2b (in-place)
I0305 13:43:26.231277 10100 net.cpp:150] Setting up bn2c_branch2b
I0305 13:43:26.231284 10100 net.cpp:157] Top shape: 32 64 56 56 (6422528)
I0305 13:43:26.231288 10100 net.cpp:165] Memory required for data: 2819489920
I0305 13:43:26.231297 10100 layer_factory.hpp:77] Creating layer scale2c_branch2b
I0305 13:43:26.231304 10100 net.cpp:100] Creating Layer scale2c_branch2b
I0305 13:43:26.231312 10100 net.cpp:434] scale2c_branch2b <- res2c_branch2b
I0305 13:43:26.231317 10100 net.cpp:395] scale2c_branch2b -> res2c_branch2b (in-place)
I0305 13:43:26.231349 10100 layer_factory.hpp:77] Creating layer scale2c_branch2b
I0305 13:43:26.231433 10100 net.cpp:150] Setting up scale2c_branch2b
I0305 13:43:26.231441 10100 net.cpp:157] Top shape: 32 64 56 56 (6422528)
I0305 13:43:26.231444 10100 net.cpp:165] Memory required for data: 2845180032
I0305 13:43:26.231451 10100 layer_factory.hpp:77] Creating layer res2c_branch2b_relu
I0305 13:43:26.231458 10100 net.cpp:100] Creating Layer res2c_branch2b_relu
I0305 13:43:26.231462 10100 net.cpp:434] res2c_branch2b_relu <- res2c_branch2b
I0305 13:43:26.231467 10100 net.cpp:395] res2c_branch2b_relu -> res2c_branch2b (in-place)
I0305 13:43:26.231585 10100 net.cpp:150] Setting up res2c_branch2b_relu
I0305 13:43:26.231593 10100 net.cpp:157] Top shape: 32 64 56 56 (6422528)
I0305 13:43:26.231597 10100 net.cpp:165] Memory required for data: 2870870144
I0305 13:43:26.231600 10100 layer_factory.hpp:77] Creating layer res2c_branch2c
I0305 13:43:26.231611 10100 net.cpp:100] Creating Layer res2c_branch2c
I0305 13:43:26.231614 10100 net.cpp:434] res2c_branch2c <- res2c_branch2b
I0305 13:43:26.231621 10100 net.cpp:408] res2c_branch2c -> res2c_branch2c
I0305 13:43:26.232324 10100 net.cpp:150] Setting up res2c_branch2c
I0305 13:43:26.232334 10100 net.cpp:157] Top shape: 32 256 56 56 (25690112)
I0305 13:43:26.232338 10100 net.cpp:165] Memory required for data: 2973630592
I0305 13:43:26.232344 10100 layer_factory.hpp:77] Creating layer bn2c_branch2c
I0305 13:43:26.232352 10100 net.cpp:100] Creating Layer bn2c_branch2c
I0305 13:43:26.232355 10100 net.cpp:434] bn2c_branch2c <- res2c_branch2c
I0305 13:43:26.232363 10100 net.cpp:395] bn2c_branch2c -> res2c_branch2c (in-place)
I0305 13:43:26.232493 10100 net.cpp:150] Setting up bn2c_branch2c
I0305 13:43:26.232501 10100 net.cpp:157] Top shape: 32 256 56 56 (25690112)
I0305 13:43:26.232504 10100 net.cpp:165] Memory required for data: 3076391040
I0305 13:43:26.232520 10100 layer_factory.hpp:77] Creating layer scale2c_branch2c
I0305 13:43:26.232527 10100 net.cpp:100] Creating Layer scale2c_branch2c
I0305 13:43:26.232532 10100 net.cpp:434] scale2c_branch2c <- res2c_branch2c
I0305 13:43:26.232537 10100 net.cpp:395] scale2c_branch2c -> res2c_branch2c (in-place)
I0305 13:43:26.232574 10100 layer_factory.hpp:77] Creating layer scale2c_branch2c
I0305 13:43:26.232662 10100 net.cpp:150] Setting up scale2c_branch2c
I0305 13:43:26.232669 10100 net.cpp:157] Top shape: 32 256 56 56 (25690112)
I0305 13:43:26.232673 10100 net.cpp:165] Memory required for data: 3179151488
I0305 13:43:26.232681 10100 layer_factory.hpp:77] Creating layer res2c
I0305 13:43:26.232686 10100 net.cpp:100] Creating Layer res2c
I0305 13:43:26.232691 10100 net.cpp:434] res2c <- res2b_res2b_relu_0_split_1
I0305 13:43:26.232695 10100 net.cpp:434] res2c <- res2c_branch2c
I0305 13:43:26.232702 10100 net.cpp:408] res2c -> res2c
I0305 13:43:26.232723 10100 net.cpp:150] Setting up res2c
I0305 13:43:26.232729 10100 net.cpp:157] Top shape: 32 256 56 56 (25690112)
I0305 13:43:26.232733 10100 net.cpp:165] Memory required for data: 3281911936
I0305 13:43:26.232736 10100 layer_factory.hpp:77] Creating layer res2c_relu
I0305 13:43:26.232744 10100 net.cpp:100] Creating Layer res2c_relu
I0305 13:43:26.232748 10100 net.cpp:434] res2c_relu <- res2c
I0305 13:43:26.232753 10100 net.cpp:395] res2c_relu -> res2c (in-place)
I0305 13:43:26.232965 10100 net.cpp:150] Setting up res2c_relu
I0305 13:43:26.232975 10100 net.cpp:157] Top shape: 32 256 56 56 (25690112)
I0305 13:43:26.232978 10100 net.cpp:165] Memory required for data: 3384672384
I0305 13:43:26.232982 10100 layer_factory.hpp:77] Creating layer res2c_res2c_relu_0_split
I0305 13:43:26.232988 10100 net.cpp:100] Creating Layer res2c_res2c_relu_0_split
I0305 13:43:26.232992 10100 net.cpp:434] res2c_res2c_relu_0_split <- res2c
I0305 13:43:26.233000 10100 net.cpp:408] res2c_res2c_relu_0_split -> res2c_res2c_relu_0_split_0
I0305 13:43:26.233006 10100 net.cpp:408] res2c_res2c_relu_0_split -> res2c_res2c_relu_0_split_1
I0305 13:43:26.233039 10100 net.cpp:150] Setting up res2c_res2c_relu_0_split
I0305 13:43:26.233045 10100 net.cpp:157] Top shape: 32 256 56 56 (25690112)
I0305 13:43:26.233050 10100 net.cpp:157] Top shape: 32 256 56 56 (25690112)
I0305 13:43:26.233054 10100 net.cpp:165] Memory required for data: 3590193280
I0305 13:43:26.233057 10100 layer_factory.hpp:77] Creating layer res3a_branch1
I0305 13:43:26.233067 10100 net.cpp:100] Creating Layer res3a_branch1
I0305 13:43:26.233070 10100 net.cpp:434] res3a_branch1 <- res2c_res2c_relu_0_split_0
I0305 13:43:26.233078 10100 net.cpp:408] res3a_branch1 -> res3a_branch1
I0305 13:43:26.234048 10100 net.cpp:150] Setting up res3a_branch1
I0305 13:43:26.234058 10100 net.cpp:157] Top shape: 32 512 28 28 (12845056)
I0305 13:43:26.234062 10100 net.cpp:165] Memory required for data: 3641573504
I0305 13:43:26.234071 10100 layer_factory.hpp:77] Creating layer bn3a_branch1
I0305 13:43:26.234079 10100 net.cpp:100] Creating Layer bn3a_branch1
I0305 13:43:26.234084 10100 net.cpp:434] bn3a_branch1 <- res3a_branch1
I0305 13:43:26.234091 10100 net.cpp:395] bn3a_branch1 -> res3a_branch1 (in-place)
I0305 13:43:26.234477 10100 net.cpp:150] Setting up bn3a_branch1
I0305 13:43:26.234485 10100 net.cpp:157] Top shape: 32 512 28 28 (12845056)
I0305 13:43:26.234489 10100 net.cpp:165] Memory required for data: 3692953728
I0305 13:43:26.234498 10100 layer_factory.hpp:77] Creating layer scale3a_branch1
I0305 13:43:26.234505 10100 net.cpp:100] Creating Layer scale3a_branch1
I0305 13:43:26.234509 10100 net.cpp:434] scale3a_branch1 <- res3a_branch1
I0305 13:43:26.234515 10100 net.cpp:395] scale3a_branch1 -> res3a_branch1 (in-place)
I0305 13:43:26.234550 10100 layer_factory.hpp:77] Creating layer scale3a_branch1
I0305 13:43:26.234627 10100 net.cpp:150] Setting up scale3a_branch1
I0305 13:43:26.234634 10100 net.cpp:157] Top shape: 32 512 28 28 (12845056)
I0305 13:43:26.234638 10100 net.cpp:165] Memory required for data: 3744333952
I0305 13:43:26.234645 10100 layer_factory.hpp:77] Creating layer res3a_branch2a
I0305 13:43:26.234654 10100 net.cpp:100] Creating Layer res3a_branch2a
I0305 13:43:26.234659 10100 net.cpp:434] res3a_branch2a <- res2c_res2c_relu_0_split_1
I0305 13:43:26.234673 10100 net.cpp:408] res3a_branch2a -> res3a_branch2a
I0305 13:43:26.235460 10100 net.cpp:150] Setting up res3a_branch2a
I0305 13:43:26.235471 10100 net.cpp:157] Top shape: 32 128 28 28 (3211264)
I0305 13:43:26.235474 10100 net.cpp:165] Memory required for data: 3757179008
I0305 13:43:26.235481 10100 layer_factory.hpp:77] Creating layer bn3a_branch2a
I0305 13:43:26.235488 10100 net.cpp:100] Creating Layer bn3a_branch2a
I0305 13:43:26.235493 10100 net.cpp:434] bn3a_branch2a <- res3a_branch2a
I0305 13:43:26.235499 10100 net.cpp:395] bn3a_branch2a -> res3a_branch2a (in-place)
I0305 13:43:26.235636 10100 net.cpp:150] Setting up bn3a_branch2a
I0305 13:43:26.235643 10100 net.cpp:157] Top shape: 32 128 28 28 (3211264)
I0305 13:43:26.235647 10100 net.cpp:165] Memory required for data: 3770024064
I0305 13:43:26.235666 10100 layer_factory.hpp:77] Creating layer scale3a_branch2a
I0305 13:43:26.235672 10100 net.cpp:100] Creating Layer scale3a_branch2a
I0305 13:43:26.235678 10100 net.cpp:434] scale3a_branch2a <- res3a_branch2a
I0305 13:43:26.235683 10100 net.cpp:395] scale3a_branch2a -> res3a_branch2a (in-place)
I0305 13:43:26.235731 10100 layer_factory.hpp:77] Creating layer scale3a_branch2a
I0305 13:43:26.235817 10100 net.cpp:150] Setting up scale3a_branch2a
I0305 13:43:26.235824 10100 net.cpp:157] Top shape: 32 128 28 28 (3211264)
I0305 13:43:26.235828 10100 net.cpp:165] Memory required for data: 3782869120
I0305 13:43:26.235834 10100 layer_factory.hpp:77] Creating layer res3a_branch2a_relu
I0305 13:43:26.235842 10100 net.cpp:100] Creating Layer res3a_branch2a_relu
I0305 13:43:26.235847 10100 net.cpp:434] res3a_branch2a_relu <- res3a_branch2a
I0305 13:43:26.235852 10100 net.cpp:395] res3a_branch2a_relu -> res3a_branch2a (in-place)
I0305 13:43:26.236073 10100 net.cpp:150] Setting up res3a_branch2a_relu
I0305 13:43:26.236083 10100 net.cpp:157] Top shape: 32 128 28 28 (3211264)
I0305 13:43:26.236088 10100 net.cpp:165] Memory required for data: 3795714176
I0305 13:43:26.236091 10100 layer_factory.hpp:77] Creating layer res3a_branch2b
I0305 13:43:26.236099 10100 net.cpp:100] Creating Layer res3a_branch2b
I0305 13:43:26.236102 10100 net.cpp:434] res3a_branch2b <- res3a_branch2a
I0305 13:43:26.236110 10100 net.cpp:408] res3a_branch2b -> res3a_branch2b
I0305 13:43:26.237145 10100 net.cpp:150] Setting up res3a_branch2b
I0305 13:43:26.237156 10100 net.cpp:157] Top shape: 32 128 28 28 (3211264)
I0305 13:43:26.237160 10100 net.cpp:165] Memory required for data: 3808559232
I0305 13:43:26.237167 10100 layer_factory.hpp:77] Creating layer bn3a_branch2b
I0305 13:43:26.237175 10100 net.cpp:100] Creating Layer bn3a_branch2b
I0305 13:43:26.237180 10100 net.cpp:434] bn3a_branch2b <- res3a_branch2b
I0305 13:43:26.237188 10100 net.cpp:395] bn3a_branch2b -> res3a_branch2b (in-place)
I0305 13:43:26.237345 10100 net.cpp:150] Setting up bn3a_branch2b
I0305 13:43:26.237354 10100 net.cpp:157] Top shape: 32 128 28 28 (3211264)
I0305 13:43:26.237359 10100 net.cpp:165] Memory required for data: 3821404288
I0305 13:43:26.237366 10100 layer_factory.hpp:77] Creating layer scale3a_branch2b
I0305 13:43:26.237377 10100 net.cpp:100] Creating Layer scale3a_branch2b
I0305 13:43:26.237382 10100 net.cpp:434] scale3a_branch2b <- res3a_branch2b
I0305 13:43:26.237388 10100 net.cpp:395] scale3a_branch2b -> res3a_branch2b (in-place)
I0305 13:43:26.237422 10100 layer_factory.hpp:77] Creating layer scale3a_branch2b
I0305 13:43:26.237506 10100 net.cpp:150] Setting up scale3a_branch2b
I0305 13:43:26.237514 10100 net.cpp:157] Top shape: 32 128 28 28 (3211264)
I0305 13:43:26.237517 10100 net.cpp:165] Memory required for data: 3834249344
I0305 13:43:26.237524 10100 layer_factory.hpp:77] Creating layer res3a_branch2b_relu
I0305 13:43:26.237530 10100 net.cpp:100] Creating Layer res3a_branch2b_relu
I0305 13:43:26.237534 10100 net.cpp:434] res3a_branch2b_relu <- res3a_branch2b
I0305 13:43:26.237541 10100 net.cpp:395] res3a_branch2b_relu -> res3a_branch2b (in-place)
I0305 13:43:26.237665 10100 net.cpp:150] Setting up res3a_branch2b_relu
I0305 13:43:26.237674 10100 net.cpp:157] Top shape: 32 128 28 28 (3211264)
I0305 13:43:26.237678 10100 net.cpp:165] Memory required for data: 3847094400
I0305 13:43:26.237681 10100 layer_factory.hpp:77] Creating layer res3a_branch2c
I0305 13:43:26.237690 10100 net.cpp:100] Creating Layer res3a_branch2c
I0305 13:43:26.237694 10100 net.cpp:434] res3a_branch2c <- res3a_branch2b
I0305 13:43:26.237701 10100 net.cpp:408] res3a_branch2c -> res3a_branch2c
I0305 13:43:26.238428 10100 net.cpp:150] Setting up res3a_branch2c
I0305 13:43:26.238438 10100 net.cpp:157] Top shape: 32 512 28 28 (12845056)
I0305 13:43:26.238442 10100 net.cpp:165] Memory required for data: 3898474624
I0305 13:43:26.238448 10100 layer_factory.hpp:77] Creating layer bn3a_branch2c
I0305 13:43:26.238463 10100 net.cpp:100] Creating Layer bn3a_branch2c
I0305 13:43:26.238468 10100 net.cpp:434] bn3a_branch2c <- res3a_branch2c
I0305 13:43:26.238474 10100 net.cpp:395] bn3a_branch2c -> res3a_branch2c (in-place)
I0305 13:43:26.238610 10100 net.cpp:150] Setting up bn3a_branch2c
I0305 13:43:26.238616 10100 net.cpp:157] Top shape: 32 512 28 28 (12845056)
I0305 13:43:26.238620 10100 net.cpp:165] Memory required for data: 3949854848
I0305 13:43:26.238628 10100 layer_factory.hpp:77] Creating layer scale3a_branch2c
I0305 13:43:26.238636 10100 net.cpp:100] Creating Layer scale3a_branch2c
I0305 13:43:26.238639 10100 net.cpp:434] scale3a_branch2c <- res3a_branch2c
I0305 13:43:26.238646 10100 net.cpp:395] scale3a_branch2c -> res3a_branch2c (in-place)
I0305 13:43:26.238678 10100 layer_factory.hpp:77] Creating layer scale3a_branch2c
I0305 13:43:26.238759 10100 net.cpp:150] Setting up scale3a_branch2c
I0305 13:43:26.238767 10100 net.cpp:157] Top shape: 32 512 28 28 (12845056)
I0305 13:43:26.238770 10100 net.cpp:165] Memory required for data: 4001235072
I0305 13:43:26.238777 10100 layer_factory.hpp:77] Creating layer res3a
I0305 13:43:26.238785 10100 net.cpp:100] Creating Layer res3a
I0305 13:43:26.238790 10100 net.cpp:434] res3a <- res3a_branch1
I0305 13:43:26.238795 10100 net.cpp:434] res3a <- res3a_branch2c
I0305 13:43:26.238800 10100 net.cpp:408] res3a -> res3a
I0305 13:43:26.238822 10100 net.cpp:150] Setting up res3a
I0305 13:43:26.238829 10100 net.cpp:157] Top shape: 32 512 28 28 (12845056)
I0305 13:43:26.238832 10100 net.cpp:165] Memory required for data: 4052615296
I0305 13:43:26.238837 10100 layer_factory.hpp:77] Creating layer res3a_relu
I0305 13:43:26.238842 10100 net.cpp:100] Creating Layer res3a_relu
I0305 13:43:26.238845 10100 net.cpp:434] res3a_relu <- res3a
I0305 13:43:26.238852 10100 net.cpp:395] res3a_relu -> res3a (in-place)
I0305 13:43:26.238979 10100 net.cpp:150] Setting up res3a_relu
I0305 13:43:26.238986 10100 net.cpp:157] Top shape: 32 512 28 28 (12845056)
I0305 13:43:26.238991 10100 net.cpp:165] Memory required for data: 4103995520
I0305 13:43:26.238994 10100 layer_factory.hpp:77] Creating layer res3a_res3a_relu_0_split
I0305 13:43:26.239001 10100 net.cpp:100] Creating Layer res3a_res3a_relu_0_split
I0305 13:43:26.239006 10100 net.cpp:434] res3a_res3a_relu_0_split <- res3a
I0305 13:43:26.239012 10100 net.cpp:408] res3a_res3a_relu_0_split -> res3a_res3a_relu_0_split_0
I0305 13:43:26.239017 10100 net.cpp:408] res3a_res3a_relu_0_split -> res3a_res3a_relu_0_split_1
I0305 13:43:26.239051 10100 net.cpp:150] Setting up res3a_res3a_relu_0_split
I0305 13:43:26.239058 10100 net.cpp:157] Top shape: 32 512 28 28 (12845056)
I0305 13:43:26.239063 10100 net.cpp:157] Top shape: 32 512 28 28 (12845056)
I0305 13:43:26.239066 10100 net.cpp:165] Memory required for data: 4206755968
I0305 13:43:26.239069 10100 layer_factory.hpp:77] Creating layer res3b_branch2a
I0305 13:43:26.239078 10100 net.cpp:100] Creating Layer res3b_branch2a
I0305 13:43:26.239083 10100 net.cpp:434] res3b_branch2a <- res3a_res3a_relu_0_split_0
I0305 13:43:26.239087 10100 net.cpp:408] res3b_branch2a -> res3b_branch2a
I0305 13:43:26.240016 10100 net.cpp:150] Setting up res3b_branch2a
I0305 13:43:26.240028 10100 net.cpp:157] Top shape: 32 128 28 28 (3211264)
I0305 13:43:26.240032 10100 net.cpp:165] Memory required for data: 4219601024
I0305 13:43:26.240038 10100 layer_factory.hpp:77] Creating layer bn3b_branch2a
I0305 13:43:26.240047 10100 net.cpp:100] Creating Layer bn3b_branch2a
I0305 13:43:26.240051 10100 net.cpp:434] bn3b_branch2a <- res3b_branch2a
I0305 13:43:26.240058 10100 net.cpp:395] bn3b_branch2a -> res3b_branch2a (in-place)
I0305 13:43:26.240229 10100 net.cpp:150] Setting up bn3b_branch2a
I0305 13:43:26.240238 10100 net.cpp:157] Top shape: 32 128 28 28 (3211264)
I0305 13:43:26.240242 10100 net.cpp:165] Memory required for data: 4232446080
I0305 13:43:26.240267 10100 layer_factory.hpp:77] Creating layer scale3b_branch2a
I0305 13:43:26.240276 10100 net.cpp:100] Creating Layer scale3b_branch2a
I0305 13:43:26.240281 10100 net.cpp:434] scale3b_branch2a <- res3b_branch2a
I0305 13:43:26.240286 10100 net.cpp:395] scale3b_branch2a -> res3b_branch2a (in-place)
I0305 13:43:26.240331 10100 layer_factory.hpp:77] Creating layer scale3b_branch2a
I0305 13:43:26.240432 10100 net.cpp:150] Setting up scale3b_branch2a
I0305 13:43:26.240439 10100 net.cpp:157] Top shape: 32 128 28 28 (3211264)
I0305 13:43:26.240443 10100 net.cpp:165] Memory required for data: 4245291136
I0305 13:43:26.240460 10100 layer_factory.hpp:77] Creating layer res3b_branch2a_relu
I0305 13:43:26.240466 10100 net.cpp:100] Creating Layer res3b_branch2a_relu
I0305 13:43:26.240470 10100 net.cpp:434] res3b_branch2a_relu <- res3b_branch2a
I0305 13:43:26.240478 10100 net.cpp:395] res3b_branch2a_relu -> res3b_branch2a (in-place)
I0305 13:43:26.240706 10100 net.cpp:150] Setting up res3b_branch2a_relu
I0305 13:43:26.240715 10100 net.cpp:157] Top shape: 32 128 28 28 (3211264)
I0305 13:43:26.240720 10100 net.cpp:165] Memory required for data: 4258136192
I0305 13:43:26.240733 10100 layer_factory.hpp:77] Creating layer res3b_branch2b
I0305 13:43:26.240742 10100 net.cpp:100] Creating Layer res3b_branch2b
I0305 13:43:26.240747 10100 net.cpp:434] res3b_branch2b <- res3b_branch2a
I0305 13:43:26.240753 10100 net.cpp:408] res3b_branch2b -> res3b_branch2b
I0305 13:43:26.241818 10100 net.cpp:150] Setting up res3b_branch2b
I0305 13:43:26.241828 10100 net.cpp:157] Top shape: 32 128 28 28 (3211264)
I0305 13:43:26.241833 10100 net.cpp:165] Memory required for data: 4270981248
I0305 13:43:26.241849 10100 layer_factory.hpp:77] Creating layer bn3b_branch2b
I0305 13:43:26.241858 10100 net.cpp:100] Creating Layer bn3b_branch2b
I0305 13:43:26.241863 10100 net.cpp:434] bn3b_branch2b <- res3b_branch2b
I0305 13:43:26.241868 10100 net.cpp:395] bn3b_branch2b -> res3b_branch2b (in-place)
I0305 13:43:26.242014 10100 net.cpp:150] Setting up bn3b_branch2b
I0305 13:43:26.242022 10100 net.cpp:157] Top shape: 32 128 28 28 (3211264)
I0305 13:43:26.242027 10100 net.cpp:165] Memory required for data: 4283826304
I0305 13:43:26.242044 10100 layer_factory.hpp:77] Creating layer scale3b_branch2b
I0305 13:43:26.242051 10100 net.cpp:100] Creating Layer scale3b_branch2b
I0305 13:43:26.242058 10100 net.cpp:434] scale3b_branch2b <- res3b_branch2b
I0305 13:43:26.242064 10100 net.cpp:395] scale3b_branch2b -> res3b_branch2b (in-place)
I0305 13:43:26.242113 10100 layer_factory.hpp:77] Creating layer scale3b_branch2b
I0305 13:43:26.242213 10100 net.cpp:150] Setting up scale3b_branch2b
I0305 13:43:26.242221 10100 net.cpp:157] Top shape: 32 128 28 28 (3211264)
I0305 13:43:26.242225 10100 net.cpp:165] Memory required for data: 4296671360
I0305 13:43:26.242243 10100 layer_factory.hpp:77] Creating layer res3b_branch2b_relu
I0305 13:43:26.242249 10100 net.cpp:100] Creating Layer res3b_branch2b_relu
I0305 13:43:26.242254 10100 net.cpp:434] res3b_branch2b_relu <- res3b_branch2b
I0305 13:43:26.242259 10100 net.cpp:395] res3b_branch2b_relu -> res3b_branch2b (in-place)
I0305 13:43:26.242400 10100 net.cpp:150] Setting up res3b_branch2b_relu
I0305 13:43:26.242410 10100 net.cpp:157] Top shape: 32 128 28 28 (3211264)
I0305 13:43:26.242414 10100 net.cpp:165] Memory required for data: 4309516416
I0305 13:43:26.242427 10100 layer_factory.hpp:77] Creating layer res3b_branch2c
I0305 13:43:26.242434 10100 net.cpp:100] Creating Layer res3b_branch2c
I0305 13:43:26.242439 10100 net.cpp:434] res3b_branch2c <- res3b_branch2b
I0305 13:43:26.242446 10100 net.cpp:408] res3b_branch2c -> res3b_branch2c
I0305 13:43:26.243190 10100 net.cpp:150] Setting up res3b_branch2c
I0305 13:43:26.243201 10100 net.cpp:157] Top shape: 32 512 28 28 (12845056)
I0305 13:43:26.243204 10100 net.cpp:165] Memory required for data: 4360896640
I0305 13:43:26.243221 10100 layer_factory.hpp:77] Creating layer bn3b_branch2c
I0305 13:43:26.243229 10100 net.cpp:100] Creating Layer bn3b_branch2c
I0305 13:43:26.243234 10100 net.cpp:434] bn3b_branch2c <- res3b_branch2c
I0305 13:43:26.243240 10100 net.cpp:395] bn3b_branch2c -> res3b_branch2c (in-place)
I0305 13:43:26.243382 10100 net.cpp:150] Setting up bn3b_branch2c
I0305 13:43:26.243389 10100 net.cpp:157] Top shape: 32 512 28 28 (12845056)
I0305 13:43:26.243393 10100 net.cpp:165] Memory required for data: 4412276864
I0305 13:43:26.243412 10100 layer_factory.hpp:77] Creating layer scale3b_branch2c
I0305 13:43:26.243420 10100 net.cpp:100] Creating Layer scale3b_branch2c
I0305 13:43:26.243425 10100 net.cpp:434] scale3b_branch2c <- res3b_branch2c
I0305 13:43:26.243432 10100 net.cpp:395] scale3b_branch2c -> res3b_branch2c (in-place)
I0305 13:43:26.243479 10100 layer_factory.hpp:77] Creating layer scale3b_branch2c
I0305 13:43:26.243580 10100 net.cpp:150] Setting up scale3b_branch2c
I0305 13:43:26.243587 10100 net.cpp:157] Top shape: 32 512 28 28 (12845056)
I0305 13:43:26.243592 10100 net.cpp:165] Memory required for data: 4463657088
I0305 13:43:26.243608 10100 layer_factory.hpp:77] Creating layer res3b
I0305 13:43:26.243614 10100 net.cpp:100] Creating Layer res3b
I0305 13:43:26.243619 10100 net.cpp:434] res3b <- res3a_res3a_relu_0_split_1
I0305 13:43:26.243625 10100 net.cpp:434] res3b <- res3b_branch2c
I0305 13:43:26.243631 10100 net.cpp:408] res3b -> res3b
I0305 13:43:26.243666 10100 net.cpp:150] Setting up res3b
I0305 13:43:26.243672 10100 net.cpp:157] Top shape: 32 512 28 28 (12845056)
I0305 13:43:26.243676 10100 net.cpp:165] Memory required for data: 4515037312
I0305 13:43:26.243690 10100 layer_factory.hpp:77] Creating layer res3b_relu
I0305 13:43:26.243696 10100 net.cpp:100] Creating Layer res3b_relu
I0305 13:43:26.243700 10100 net.cpp:434] res3b_relu <- res3b
I0305 13:43:26.243706 10100 net.cpp:395] res3b_relu -> res3b (in-place)
I0305 13:43:26.243839 10100 net.cpp:150] Setting up res3b_relu
I0305 13:43:26.243846 10100 net.cpp:157] Top shape: 32 512 28 28 (12845056)
I0305 13:43:26.243850 10100 net.cpp:165] Memory required for data: 4566417536
I0305 13:43:26.243865 10100 layer_factory.hpp:77] Creating layer res3b_res3b_relu_0_split
I0305 13:43:26.243870 10100 net.cpp:100] Creating Layer res3b_res3b_relu_0_split
I0305 13:43:26.243875 10100 net.cpp:434] res3b_res3b_relu_0_split <- res3b
I0305 13:43:26.243882 10100 net.cpp:408] res3b_res3b_relu_0_split -> res3b_res3b_relu_0_split_0
I0305 13:43:26.243890 10100 net.cpp:408] res3b_res3b_relu_0_split -> res3b_res3b_relu_0_split_1
I0305 13:43:26.243933 10100 net.cpp:150] Setting up res3b_res3b_relu_0_split
I0305 13:43:26.243940 10100 net.cpp:157] Top shape: 32 512 28 28 (12845056)
I0305 13:43:26.243945 10100 net.cpp:157] Top shape: 32 512 28 28 (12845056)
I0305 13:43:26.243958 10100 net.cpp:165] Memory required for data: 4669177984
I0305 13:43:26.243963 10100 layer_factory.hpp:77] Creating layer res3c_branch2a
I0305 13:43:26.243976 10100 net.cpp:100] Creating Layer res3c_branch2a
I0305 13:43:26.243981 10100 net.cpp:434] res3c_branch2a <- res3b_res3b_relu_0_split_0
I0305 13:43:26.243988 10100 net.cpp:408] res3c_branch2a -> res3c_branch2a
I0305 13:43:26.244710 10100 net.cpp:150] Setting up res3c_branch2a
I0305 13:43:26.244721 10100 net.cpp:157] Top shape: 32 128 28 28 (3211264)
I0305 13:43:26.244725 10100 net.cpp:165] Memory required for data: 4682023040
I0305 13:43:26.244741 10100 layer_factory.hpp:77] Creating layer bn3c_branch2a
I0305 13:43:26.244748 10100 net.cpp:100] Creating Layer bn3c_branch2a
I0305 13:43:26.244752 10100 net.cpp:434] bn3c_branch2a <- res3c_branch2a
I0305 13:43:26.244760 10100 net.cpp:395] bn3c_branch2a -> res3c_branch2a (in-place)
I0305 13:43:26.244907 10100 net.cpp:150] Setting up bn3c_branch2a
I0305 13:43:26.244915 10100 net.cpp:157] Top shape: 32 128 28 28 (3211264)
I0305 13:43:26.244918 10100 net.cpp:165] Memory required for data: 4694868096
I0305 13:43:26.244936 10100 layer_factory.hpp:77] Creating layer scale3c_branch2a
I0305 13:43:26.244943 10100 net.cpp:100] Creating Layer scale3c_branch2a
I0305 13:43:26.244947 10100 net.cpp:434] scale3c_branch2a <- res3c_branch2a
I0305 13:43:26.244953 10100 net.cpp:395] scale3c_branch2a -> res3c_branch2a (in-place)
I0305 13:43:26.245002 10100 layer_factory.hpp:77] Creating layer scale3c_branch2a
I0305 13:43:26.245103 10100 net.cpp:150] Setting up scale3c_branch2a
I0305 13:43:26.245110 10100 net.cpp:157] Top shape: 32 128 28 28 (3211264)
I0305 13:43:26.245115 10100 net.cpp:165] Memory required for data: 4707713152
I0305 13:43:26.245131 10100 layer_factory.hpp:77] Creating layer res3c_branch2a_relu
I0305 13:43:26.245138 10100 net.cpp:100] Creating Layer res3c_branch2a_relu
I0305 13:43:26.245142 10100 net.cpp:434] res3c_branch2a_relu <- res3c_branch2a
I0305 13:43:26.245147 10100 net.cpp:395] res3c_branch2a_relu -> res3c_branch2a (in-place)
I0305 13:43:26.245378 10100 net.cpp:150] Setting up res3c_branch2a_relu
I0305 13:43:26.245386 10100 net.cpp:157] Top shape: 32 128 28 28 (3211264)
I0305 13:43:26.245390 10100 net.cpp:165] Memory required for data: 4720558208
I0305 13:43:26.245404 10100 layer_factory.hpp:77] Creating layer res3c_branch2b
I0305 13:43:26.245412 10100 net.cpp:100] Creating Layer res3c_branch2b
I0305 13:43:26.245417 10100 net.cpp:434] res3c_branch2b <- res3c_branch2a
I0305 13:43:26.245426 10100 net.cpp:408] res3c_branch2b -> res3c_branch2b
I0305 13:43:26.246502 10100 net.cpp:150] Setting up res3c_branch2b
I0305 13:43:26.246515 10100 net.cpp:157] Top shape: 32 128 28 28 (3211264)
I0305 13:43:26.246520 10100 net.cpp:165] Memory required for data: 4733403264
I0305 13:43:26.246536 10100 layer_factory.hpp:77] Creating layer bn3c_branch2b
I0305 13:43:26.246543 10100 net.cpp:100] Creating Layer bn3c_branch2b
I0305 13:43:26.246548 10100 net.cpp:434] bn3c_branch2b <- res3c_branch2b
I0305 13:43:26.246554 10100 net.cpp:395] bn3c_branch2b -> res3c_branch2b (in-place)
I0305 13:43:26.246704 10100 net.cpp:150] Setting up bn3c_branch2b
I0305 13:43:26.246712 10100 net.cpp:157] Top shape: 32 128 28 28 (3211264)
I0305 13:43:26.246716 10100 net.cpp:165] Memory required for data: 4746248320
I0305 13:43:26.246734 10100 layer_factory.hpp:77] Creating layer scale3c_branch2b
I0305 13:43:26.246740 10100 net.cpp:100] Creating Layer scale3c_branch2b
I0305 13:43:26.246747 10100 net.cpp:434] scale3c_branch2b <- res3c_branch2b
I0305 13:43:26.246752 10100 net.cpp:395] scale3c_branch2b -> res3c_branch2b (in-place)
I0305 13:43:26.246803 10100 layer_factory.hpp:77] Creating layer scale3c_branch2b
I0305 13:43:26.246906 10100 net.cpp:150] Setting up scale3c_branch2b
I0305 13:43:26.246912 10100 net.cpp:157] Top shape: 32 128 28 28 (3211264)
I0305 13:43:26.246915 10100 net.cpp:165] Memory required for data: 4759093376
I0305 13:43:26.246932 10100 layer_factory.hpp:77] Creating layer res3c_branch2b_relu
I0305 13:43:26.246939 10100 net.cpp:100] Creating Layer res3c_branch2b_relu
I0305 13:43:26.246944 10100 net.cpp:434] res3c_branch2b_relu <- res3c_branch2b
I0305 13:43:26.246950 10100 net.cpp:395] res3c_branch2b_relu -> res3c_branch2b (in-place)
I0305 13:43:26.247087 10100 net.cpp:150] Setting up res3c_branch2b_relu
I0305 13:43:26.247095 10100 net.cpp:157] Top shape: 32 128 28 28 (3211264)
I0305 13:43:26.247099 10100 net.cpp:165] Memory required for data: 4771938432
I0305 13:43:26.247103 10100 layer_factory.hpp:77] Creating layer res3c_branch2c
I0305 13:43:26.247112 10100 net.cpp:100] Creating Layer res3c_branch2c
I0305 13:43:26.247117 10100 net.cpp:434] res3c_branch2c <- res3c_branch2b
I0305 13:43:26.247123 10100 net.cpp:408] res3c_branch2c -> res3c_branch2c
I0305 13:43:26.247967 10100 net.cpp:150] Setting up res3c_branch2c
I0305 13:43:26.247978 10100 net.cpp:157] Top shape: 32 512 28 28 (12845056)
I0305 13:43:26.247983 10100 net.cpp:165] Memory required for data: 4823318656
I0305 13:43:26.247998 10100 layer_factory.hpp:77] Creating layer bn3c_branch2c
I0305 13:43:26.248008 10100 net.cpp:100] Creating Layer bn3c_branch2c
I0305 13:43:26.248011 10100 net.cpp:434] bn3c_branch2c <- res3c_branch2c
I0305 13:43:26.248018 10100 net.cpp:395] bn3c_branch2c -> res3c_branch2c (in-place)
I0305 13:43:26.248198 10100 net.cpp:150] Setting up bn3c_branch2c
I0305 13:43:26.248206 10100 net.cpp:157] Top shape: 32 512 28 28 (12845056)
I0305 13:43:26.248209 10100 net.cpp:165] Memory required for data: 4874698880
I0305 13:43:26.248227 10100 layer_factory.hpp:77] Creating layer scale3c_branch2c
I0305 13:43:26.248236 10100 net.cpp:100] Creating Layer scale3c_branch2c
I0305 13:43:26.248246 10100 net.cpp:434] scale3c_branch2c <- res3c_branch2c
I0305 13:43:26.248255 10100 net.cpp:395] scale3c_branch2c -> res3c_branch2c (in-place)
I0305 13:43:26.248301 10100 layer_factory.hpp:77] Creating layer scale3c_branch2c
I0305 13:43:26.248402 10100 net.cpp:150] Setting up scale3c_branch2c
I0305 13:43:26.248410 10100 net.cpp:157] Top shape: 32 512 28 28 (12845056)
I0305 13:43:26.248414 10100 net.cpp:165] Memory required for data: 4926079104
I0305 13:43:26.248430 10100 layer_factory.hpp:77] Creating layer res3c
I0305 13:43:26.248436 10100 net.cpp:100] Creating Layer res3c
I0305 13:43:26.248440 10100 net.cpp:434] res3c <- res3b_res3b_relu_0_split_1
I0305 13:43:26.248445 10100 net.cpp:434] res3c <- res3c_branch2c
I0305 13:43:26.248452 10100 net.cpp:408] res3c -> res3c
I0305 13:43:26.248486 10100 net.cpp:150] Setting up res3c
I0305 13:43:26.248507 10100 net.cpp:157] Top shape: 32 512 28 28 (12845056)
I0305 13:43:26.248513 10100 net.cpp:165] Memory required for data: 4977459328
I0305 13:43:26.248517 10100 layer_factory.hpp:77] Creating layer res3c_relu
I0305 13:43:26.248523 10100 net.cpp:100] Creating Layer res3c_relu
I0305 13:43:26.248528 10100 net.cpp:434] res3c_relu <- res3c
I0305 13:43:26.248533 10100 net.cpp:395] res3c_relu -> res3c (in-place)
I0305 13:43:26.248657 10100 net.cpp:150] Setting up res3c_relu
I0305 13:43:26.248666 10100 net.cpp:157] Top shape: 32 512 28 28 (12845056)
I0305 13:43:26.248669 10100 net.cpp:165] Memory required for data: 5028839552
I0305 13:43:26.248673 10100 layer_factory.hpp:77] Creating layer res3c_res3c_relu_0_split
I0305 13:43:26.248679 10100 net.cpp:100] Creating Layer res3c_res3c_relu_0_split
I0305 13:43:26.248683 10100 net.cpp:434] res3c_res3c_relu_0_split <- res3c
I0305 13:43:26.248690 10100 net.cpp:408] res3c_res3c_relu_0_split -> res3c_res3c_relu_0_split_0
I0305 13:43:26.248697 10100 net.cpp:408] res3c_res3c_relu_0_split -> res3c_res3c_relu_0_split_1
I0305 13:43:26.248733 10100 net.cpp:150] Setting up res3c_res3c_relu_0_split
I0305 13:43:26.248739 10100 net.cpp:157] Top shape: 32 512 28 28 (12845056)
I0305 13:43:26.248749 10100 net.cpp:157] Top shape: 32 512 28 28 (12845056)
I0305 13:43:26.248752 10100 net.cpp:165] Memory required for data: 5131600000
I0305 13:43:26.248756 10100 layer_factory.hpp:77] Creating layer res3d_branch2a
I0305 13:43:26.248765 10100 net.cpp:100] Creating Layer res3d_branch2a
I0305 13:43:26.248771 10100 net.cpp:434] res3d_branch2a <- res3c_res3c_relu_0_split_0
I0305 13:43:26.248777 10100 net.cpp:408] res3d_branch2a -> res3d_branch2a
I0305 13:43:26.249733 10100 net.cpp:150] Setting up res3d_branch2a
I0305 13:43:26.249744 10100 net.cpp:157] Top shape: 32 128 28 28 (3211264)
I0305 13:43:26.249748 10100 net.cpp:165] Memory required for data: 5144445056
I0305 13:43:26.249755 10100 layer_factory.hpp:77] Creating layer bn3d_branch2a
I0305 13:43:26.249763 10100 net.cpp:100] Creating Layer bn3d_branch2a
I0305 13:43:26.249768 10100 net.cpp:434] bn3d_branch2a <- res3d_branch2a
I0305 13:43:26.249775 10100 net.cpp:395] bn3d_branch2a -> res3d_branch2a (in-place)
I0305 13:43:26.249918 10100 net.cpp:150] Setting up bn3d_branch2a
I0305 13:43:26.249927 10100 net.cpp:157] Top shape: 32 128 28 28 (3211264)
I0305 13:43:26.249929 10100 net.cpp:165] Memory required for data: 5157290112
I0305 13:43:26.249953 10100 layer_factory.hpp:77] Creating layer scale3d_branch2a
I0305 13:43:26.249961 10100 net.cpp:100] Creating Layer scale3d_branch2a
I0305 13:43:26.249965 10100 net.cpp:434] scale3d_branch2a <- res3d_branch2a
I0305 13:43:26.249972 10100 net.cpp:395] scale3d_branch2a -> res3d_branch2a (in-place)
I0305 13:43:26.250013 10100 layer_factory.hpp:77] Creating layer scale3d_branch2a
I0305 13:43:26.250099 10100 net.cpp:150] Setting up scale3d_branch2a
I0305 13:43:26.250108 10100 net.cpp:157] Top shape: 32 128 28 28 (3211264)
I0305 13:43:26.250113 10100 net.cpp:165] Memory required for data: 5170135168
I0305 13:43:26.250119 10100 layer_factory.hpp:77] Creating layer res3d_branch2a_relu
I0305 13:43:26.250126 10100 net.cpp:100] Creating Layer res3d_branch2a_relu
I0305 13:43:26.250130 10100 net.cpp:434] res3d_branch2a_relu <- res3d_branch2a
I0305 13:43:26.250135 10100 net.cpp:395] res3d_branch2a_relu -> res3d_branch2a (in-place)
I0305 13:43:26.250358 10100 net.cpp:150] Setting up res3d_branch2a_relu
I0305 13:43:26.250367 10100 net.cpp:157] Top shape: 32 128 28 28 (3211264)
I0305 13:43:26.250371 10100 net.cpp:165] Memory required for data: 5182980224
I0305 13:43:26.250375 10100 layer_factory.hpp:77] Creating layer res3d_branch2b
I0305 13:43:26.250386 10100 net.cpp:100] Creating Layer res3d_branch2b
I0305 13:43:26.250391 10100 net.cpp:434] res3d_branch2b <- res3d_branch2a
I0305 13:43:26.250397 10100 net.cpp:408] res3d_branch2b -> res3d_branch2b
I0305 13:43:26.251477 10100 net.cpp:150] Setting up res3d_branch2b
I0305 13:43:26.251487 10100 net.cpp:157] Top shape: 32 128 28 28 (3211264)
I0305 13:43:26.251492 10100 net.cpp:165] Memory required for data: 5195825280
I0305 13:43:26.251497 10100 layer_factory.hpp:77] Creating layer bn3d_branch2b
I0305 13:43:26.251504 10100 net.cpp:100] Creating Layer bn3d_branch2b
I0305 13:43:26.251509 10100 net.cpp:434] bn3d_branch2b <- res3d_branch2b
I0305 13:43:26.251516 10100 net.cpp:395] bn3d_branch2b -> res3d_branch2b (in-place)
I0305 13:43:26.251668 10100 net.cpp:150] Setting up bn3d_branch2b
I0305 13:43:26.251677 10100 net.cpp:157] Top shape: 32 128 28 28 (3211264)
I0305 13:43:26.251680 10100 net.cpp:165] Memory required for data: 5208670336
I0305 13:43:26.251689 10100 layer_factory.hpp:77] Creating layer scale3d_branch2b
I0305 13:43:26.251696 10100 net.cpp:100] Creating Layer scale3d_branch2b
I0305 13:43:26.251700 10100 net.cpp:434] scale3d_branch2b <- res3d_branch2b
I0305 13:43:26.251706 10100 net.cpp:395] scale3d_branch2b -> res3d_branch2b (in-place)
I0305 13:43:26.251742 10100 layer_factory.hpp:77] Creating layer scale3d_branch2b
I0305 13:43:26.251828 10100 net.cpp:150] Setting up scale3d_branch2b
I0305 13:43:26.251835 10100 net.cpp:157] Top shape: 32 128 28 28 (3211264)
I0305 13:43:26.251839 10100 net.cpp:165] Memory required for data: 5221515392
I0305 13:43:26.251847 10100 layer_factory.hpp:77] Creating layer res3d_branch2b_relu
I0305 13:43:26.251853 10100 net.cpp:100] Creating Layer res3d_branch2b_relu
I0305 13:43:26.251858 10100 net.cpp:434] res3d_branch2b_relu <- res3d_branch2b
I0305 13:43:26.251863 10100 net.cpp:395] res3d_branch2b_relu -> res3d_branch2b (in-place)
I0305 13:43:26.251996 10100 net.cpp:150] Setting up res3d_branch2b_relu
I0305 13:43:26.252004 10100 net.cpp:157] Top shape: 32 128 28 28 (3211264)
I0305 13:43:26.252008 10100 net.cpp:165] Memory required for data: 5234360448
I0305 13:43:26.252012 10100 layer_factory.hpp:77] Creating layer res3d_branch2c
I0305 13:43:26.252019 10100 net.cpp:100] Creating Layer res3d_branch2c
I0305 13:43:26.252024 10100 net.cpp:434] res3d_branch2c <- res3d_branch2b
I0305 13:43:26.252032 10100 net.cpp:408] res3d_branch2c -> res3d_branch2c
I0305 13:43:26.252764 10100 net.cpp:150] Setting up res3d_branch2c
I0305 13:43:26.252774 10100 net.cpp:157] Top shape: 32 512 28 28 (12845056)
I0305 13:43:26.252779 10100 net.cpp:165] Memory required for data: 5285740672
I0305 13:43:26.252785 10100 layer_factory.hpp:77] Creating layer bn3d_branch2c
I0305 13:43:26.252794 10100 net.cpp:100] Creating Layer bn3d_branch2c
I0305 13:43:26.252799 10100 net.cpp:434] bn3d_branch2c <- res3d_branch2c
I0305 13:43:26.252804 10100 net.cpp:395] bn3d_branch2c -> res3d_branch2c (in-place)
I0305 13:43:26.252949 10100 net.cpp:150] Setting up bn3d_branch2c
I0305 13:43:26.252956 10100 net.cpp:157] Top shape: 32 512 28 28 (12845056)
I0305 13:43:26.252960 10100 net.cpp:165] Memory required for data: 5337120896
I0305 13:43:26.252969 10100 layer_factory.hpp:77] Creating layer scale3d_branch2c
I0305 13:43:26.252977 10100 net.cpp:100] Creating Layer scale3d_branch2c
I0305 13:43:26.252982 10100 net.cpp:434] scale3d_branch2c <- res3d_branch2c
I0305 13:43:26.252988 10100 net.cpp:395] scale3d_branch2c -> res3d_branch2c (in-place)
I0305 13:43:26.253034 10100 layer_factory.hpp:77] Creating layer scale3d_branch2c
I0305 13:43:26.253139 10100 net.cpp:150] Setting up scale3d_branch2c
I0305 13:43:26.253146 10100 net.cpp:157] Top shape: 32 512 28 28 (12845056)
I0305 13:43:26.253149 10100 net.cpp:165] Memory required for data: 5388501120
I0305 13:43:26.253166 10100 layer_factory.hpp:77] Creating layer res3d
I0305 13:43:26.253172 10100 net.cpp:100] Creating Layer res3d
I0305 13:43:26.253177 10100 net.cpp:434] res3d <- res3c_res3c_relu_0_split_1
I0305 13:43:26.253181 10100 net.cpp:434] res3d <- res3d_branch2c
I0305 13:43:26.253188 10100 net.cpp:408] res3d -> res3d
I0305 13:43:26.253213 10100 net.cpp:150] Setting up res3d
I0305 13:43:26.253219 10100 net.cpp:157] Top shape: 32 512 28 28 (12845056)
I0305 13:43:26.253223 10100 net.cpp:165] Memory required for data: 5439881344
I0305 13:43:26.253227 10100 layer_factory.hpp:77] Creating layer res3d_relu
I0305 13:43:26.253233 10100 net.cpp:100] Creating Layer res3d_relu
I0305 13:43:26.253237 10100 net.cpp:434] res3d_relu <- res3d
I0305 13:43:26.253242 10100 net.cpp:395] res3d_relu -> res3d (in-place)
I0305 13:43:26.253365 10100 net.cpp:150] Setting up res3d_relu
I0305 13:43:26.253373 10100 net.cpp:157] Top shape: 32 512 28 28 (12845056)
I0305 13:43:26.253377 10100 net.cpp:165] Memory required for data: 5491261568
I0305 13:43:26.253381 10100 layer_factory.hpp:77] Creating layer res3d_res3d_relu_0_split
I0305 13:43:26.253387 10100 net.cpp:100] Creating Layer res3d_res3d_relu_0_split
I0305 13:43:26.253391 10100 net.cpp:434] res3d_res3d_relu_0_split <- res3d
I0305 13:43:26.253398 10100 net.cpp:408] res3d_res3d_relu_0_split -> res3d_res3d_relu_0_split_0
I0305 13:43:26.253407 10100 net.cpp:408] res3d_res3d_relu_0_split -> res3d_res3d_relu_0_split_1
I0305 13:43:26.253445 10100 net.cpp:150] Setting up res3d_res3d_relu_0_split
I0305 13:43:26.253453 10100 net.cpp:157] Top shape: 32 512 28 28 (12845056)
I0305 13:43:26.253458 10100 net.cpp:157] Top shape: 32 512 28 28 (12845056)
I0305 13:43:26.253460 10100 net.cpp:165] Memory required for data: 5594022016
I0305 13:43:26.253464 10100 layer_factory.hpp:77] Creating layer res4a_branch1
I0305 13:43:26.253473 10100 net.cpp:100] Creating Layer res4a_branch1
I0305 13:43:26.253479 10100 net.cpp:434] res4a_branch1 <- res3d_res3d_relu_0_split_0
I0305 13:43:26.253485 10100 net.cpp:408] res4a_branch1 -> res4a_branch1
I0305 13:43:26.254796 10100 net.cpp:150] Setting up res4a_branch1
I0305 13:43:26.254807 10100 net.cpp:157] Top shape: 32 1024 14 14 (6422528)
I0305 13:43:26.254812 10100 net.cpp:165] Memory required for data: 5619712128
I0305 13:43:26.254817 10100 layer_factory.hpp:77] Creating layer bn4a_branch1
I0305 13:43:26.254827 10100 net.cpp:100] Creating Layer bn4a_branch1
I0305 13:43:26.254830 10100 net.cpp:434] bn4a_branch1 <- res4a_branch1
I0305 13:43:26.254837 10100 net.cpp:395] bn4a_branch1 -> res4a_branch1 (in-place)
I0305 13:43:26.254992 10100 net.cpp:150] Setting up bn4a_branch1
I0305 13:43:26.255000 10100 net.cpp:157] Top shape: 32 1024 14 14 (6422528)
I0305 13:43:26.255004 10100 net.cpp:165] Memory required for data: 5645402240
I0305 13:43:26.255013 10100 layer_factory.hpp:77] Creating layer scale4a_branch1
I0305 13:43:26.255022 10100 net.cpp:100] Creating Layer scale4a_branch1
I0305 13:43:26.255028 10100 net.cpp:434] scale4a_branch1 <- res4a_branch1
I0305 13:43:26.255033 10100 net.cpp:395] scale4a_branch1 -> res4a_branch1 (in-place)
I0305 13:43:26.255067 10100 layer_factory.hpp:77] Creating layer scale4a_branch1
I0305 13:43:26.255158 10100 net.cpp:150] Setting up scale4a_branch1
I0305 13:43:26.255165 10100 net.cpp:157] Top shape: 32 1024 14 14 (6422528)
I0305 13:43:26.255169 10100 net.cpp:165] Memory required for data: 5671092352
I0305 13:43:26.255175 10100 layer_factory.hpp:77] Creating layer res4a_branch2a
I0305 13:43:26.255185 10100 net.cpp:100] Creating Layer res4a_branch2a
I0305 13:43:26.255189 10100 net.cpp:434] res4a_branch2a <- res3d_res3d_relu_0_split_1
I0305 13:43:26.255197 10100 net.cpp:408] res4a_branch2a -> res4a_branch2a
I0305 13:43:26.255962 10100 net.cpp:150] Setting up res4a_branch2a
I0305 13:43:26.255972 10100 net.cpp:157] Top shape: 32 256 14 14 (1605632)
I0305 13:43:26.255976 10100 net.cpp:165] Memory required for data: 5677514880
I0305 13:43:26.255982 10100 layer_factory.hpp:77] Creating layer bn4a_branch2a
I0305 13:43:26.255996 10100 net.cpp:100] Creating Layer bn4a_branch2a
I0305 13:43:26.256003 10100 net.cpp:434] bn4a_branch2a <- res4a_branch2a
I0305 13:43:26.256009 10100 net.cpp:395] bn4a_branch2a -> res4a_branch2a (in-place)
I0305 13:43:26.256168 10100 net.cpp:150] Setting up bn4a_branch2a
I0305 13:43:26.256176 10100 net.cpp:157] Top shape: 32 256 14 14 (1605632)
I0305 13:43:26.256181 10100 net.cpp:165] Memory required for data: 5683937408
I0305 13:43:26.256189 10100 layer_factory.hpp:77] Creating layer scale4a_branch2a
I0305 13:43:26.256196 10100 net.cpp:100] Creating Layer scale4a_branch2a
I0305 13:43:26.256201 10100 net.cpp:434] scale4a_branch2a <- res4a_branch2a
I0305 13:43:26.256206 10100 net.cpp:395] scale4a_branch2a -> res4a_branch2a (in-place)
I0305 13:43:26.256243 10100 layer_factory.hpp:77] Creating layer scale4a_branch2a
I0305 13:43:26.256330 10100 net.cpp:150] Setting up scale4a_branch2a
I0305 13:43:26.256336 10100 net.cpp:157] Top shape: 32 256 14 14 (1605632)
I0305 13:43:26.256340 10100 net.cpp:165] Memory required for data: 5690359936
I0305 13:43:26.256347 10100 layer_factory.hpp:77] Creating layer res4a_branch2a_relu
I0305 13:43:26.256356 10100 net.cpp:100] Creating Layer res4a_branch2a_relu
I0305 13:43:26.256359 10100 net.cpp:434] res4a_branch2a_relu <- res4a_branch2a
I0305 13:43:26.256366 10100 net.cpp:395] res4a_branch2a_relu -> res4a_branch2a (in-place)
I0305 13:43:26.256580 10100 net.cpp:150] Setting up res4a_branch2a_relu
I0305 13:43:26.256589 10100 net.cpp:157] Top shape: 32 256 14 14 (1605632)
I0305 13:43:26.256593 10100 net.cpp:165] Memory required for data: 5696782464
I0305 13:43:26.256597 10100 layer_factory.hpp:77] Creating layer res4a_branch2b
I0305 13:43:26.256605 10100 net.cpp:100] Creating Layer res4a_branch2b
I0305 13:43:26.256609 10100 net.cpp:434] res4a_branch2b <- res4a_branch2a
I0305 13:43:26.256618 10100 net.cpp:408] res4a_branch2b -> res4a_branch2b
I0305 13:43:26.258003 10100 net.cpp:150] Setting up res4a_branch2b
I0305 13:43:26.258013 10100 net.cpp:157] Top shape: 32 256 14 14 (1605632)
I0305 13:43:26.258018 10100 net.cpp:165] Memory required for data: 5703204992
I0305 13:43:26.258024 10100 layer_factory.hpp:77] Creating layer bn4a_branch2b
I0305 13:43:26.258033 10100 net.cpp:100] Creating Layer bn4a_branch2b
I0305 13:43:26.258036 10100 net.cpp:434] bn4a_branch2b <- res4a_branch2b
I0305 13:43:26.258044 10100 net.cpp:395] bn4a_branch2b -> res4a_branch2b (in-place)
I0305 13:43:26.258191 10100 net.cpp:150] Setting up bn4a_branch2b
I0305 13:43:26.258199 10100 net.cpp:157] Top shape: 32 256 14 14 (1605632)
I0305 13:43:26.258203 10100 net.cpp:165] Memory required for data: 5709627520
I0305 13:43:26.258211 10100 layer_factory.hpp:77] Creating layer scale4a_branch2b
I0305 13:43:26.258219 10100 net.cpp:100] Creating Layer scale4a_branch2b
I0305 13:43:26.258222 10100 net.cpp:434] scale4a_branch2b <- res4a_branch2b
I0305 13:43:26.258227 10100 net.cpp:395] scale4a_branch2b -> res4a_branch2b (in-place)
I0305 13:43:26.258266 10100 layer_factory.hpp:77] Creating layer scale4a_branch2b
I0305 13:43:26.258354 10100 net.cpp:150] Setting up scale4a_branch2b
I0305 13:43:26.258363 10100 net.cpp:157] Top shape: 32 256 14 14 (1605632)
I0305 13:43:26.258365 10100 net.cpp:165] Memory required for data: 5716050048
I0305 13:43:26.258373 10100 layer_factory.hpp:77] Creating layer res4a_branch2b_relu
I0305 13:43:26.258380 10100 net.cpp:100] Creating Layer res4a_branch2b_relu
I0305 13:43:26.258385 10100 net.cpp:434] res4a_branch2b_relu <- res4a_branch2b
I0305 13:43:26.258390 10100 net.cpp:395] res4a_branch2b_relu -> res4a_branch2b (in-place)
I0305 13:43:26.258610 10100 net.cpp:150] Setting up res4a_branch2b_relu
I0305 13:43:26.258620 10100 net.cpp:157] Top shape: 32 256 14 14 (1605632)
I0305 13:43:26.258623 10100 net.cpp:165] Memory required for data: 5722472576
I0305 13:43:26.258627 10100 layer_factory.hpp:77] Creating layer res4a_branch2c
I0305 13:43:26.258636 10100 net.cpp:100] Creating Layer res4a_branch2c
I0305 13:43:26.258641 10100 net.cpp:434] res4a_branch2c <- res4a_branch2b
I0305 13:43:26.258646 10100 net.cpp:408] res4a_branch2c -> res4a_branch2c
I0305 13:43:26.259722 10100 net.cpp:150] Setting up res4a_branch2c
I0305 13:43:26.259733 10100 net.cpp:157] Top shape: 32 1024 14 14 (6422528)
I0305 13:43:26.259737 10100 net.cpp:165] Memory required for data: 5748162688
I0305 13:43:26.259743 10100 layer_factory.hpp:77] Creating layer bn4a_branch2c
I0305 13:43:26.259752 10100 net.cpp:100] Creating Layer bn4a_branch2c
I0305 13:43:26.259755 10100 net.cpp:434] bn4a_branch2c <- res4a_branch2c
I0305 13:43:26.259763 10100 net.cpp:395] bn4a_branch2c -> res4a_branch2c (in-place)
I0305 13:43:26.259917 10100 net.cpp:150] Setting up bn4a_branch2c
I0305 13:43:26.259925 10100 net.cpp:157] Top shape: 32 1024 14 14 (6422528)
I0305 13:43:26.259929 10100 net.cpp:165] Memory required for data: 5773852800
I0305 13:43:26.259938 10100 layer_factory.hpp:77] Creating layer scale4a_branch2c
I0305 13:43:26.259945 10100 net.cpp:100] Creating Layer scale4a_branch2c
I0305 13:43:26.259949 10100 net.cpp:434] scale4a_branch2c <- res4a_branch2c
I0305 13:43:26.259954 10100 net.cpp:395] scale4a_branch2c -> res4a_branch2c (in-place)
I0305 13:43:26.259990 10100 layer_factory.hpp:77] Creating layer scale4a_branch2c
I0305 13:43:26.260090 10100 net.cpp:150] Setting up scale4a_branch2c
I0305 13:43:26.260098 10100 net.cpp:157] Top shape: 32 1024 14 14 (6422528)
I0305 13:43:26.260102 10100 net.cpp:165] Memory required for data: 5799542912
I0305 13:43:26.260109 10100 layer_factory.hpp:77] Creating layer res4a
I0305 13:43:26.260118 10100 net.cpp:100] Creating Layer res4a
I0305 13:43:26.260123 10100 net.cpp:434] res4a <- res4a_branch1
I0305 13:43:26.260128 10100 net.cpp:434] res4a <- res4a_branch2c
I0305 13:43:26.260133 10100 net.cpp:408] res4a -> res4a
I0305 13:43:26.260157 10100 net.cpp:150] Setting up res4a
I0305 13:43:26.260165 10100 net.cpp:157] Top shape: 32 1024 14 14 (6422528)
I0305 13:43:26.260170 10100 net.cpp:165] Memory required for data: 5825233024
I0305 13:43:26.260174 10100 layer_factory.hpp:77] Creating layer res4a_relu
I0305 13:43:26.260179 10100 net.cpp:100] Creating Layer res4a_relu
I0305 13:43:26.260184 10100 net.cpp:434] res4a_relu <- res4a
I0305 13:43:26.260190 10100 net.cpp:395] res4a_relu -> res4a (in-place)
I0305 13:43:26.260316 10100 net.cpp:150] Setting up res4a_relu
I0305 13:43:26.260324 10100 net.cpp:157] Top shape: 32 1024 14 14 (6422528)
I0305 13:43:26.260329 10100 net.cpp:165] Memory required for data: 5850923136
I0305 13:43:26.260332 10100 layer_factory.hpp:77] Creating layer res4a_res4a_relu_0_split
I0305 13:43:26.260339 10100 net.cpp:100] Creating Layer res4a_res4a_relu_0_split
I0305 13:43:26.260342 10100 net.cpp:434] res4a_res4a_relu_0_split <- res4a
I0305 13:43:26.260349 10100 net.cpp:408] res4a_res4a_relu_0_split -> res4a_res4a_relu_0_split_0
I0305 13:43:26.260356 10100 net.cpp:408] res4a_res4a_relu_0_split -> res4a_res4a_relu_0_split_1
I0305 13:43:26.260396 10100 net.cpp:150] Setting up res4a_res4a_relu_0_split
I0305 13:43:26.260403 10100 net.cpp:157] Top shape: 32 1024 14 14 (6422528)
I0305 13:43:26.260408 10100 net.cpp:157] Top shape: 32 1024 14 14 (6422528)
I0305 13:43:26.260411 10100 net.cpp:165] Memory required for data: 5902303360
I0305 13:43:26.260416 10100 layer_factory.hpp:77] Creating layer res4b_branch2a
I0305 13:43:26.260435 10100 net.cpp:100] Creating Layer res4b_branch2a
I0305 13:43:26.260439 10100 net.cpp:434] res4b_branch2a <- res4a_res4a_relu_0_split_0
I0305 13:43:26.260445 10100 net.cpp:408] res4b_branch2a -> res4b_branch2a
I0305 13:43:26.261587 10100 net.cpp:150] Setting up res4b_branch2a
I0305 13:43:26.261597 10100 net.cpp:157] Top shape: 32 256 14 14 (1605632)
I0305 13:43:26.261602 10100 net.cpp:165] Memory required for data: 5908725888
I0305 13:43:26.261610 10100 layer_factory.hpp:77] Creating layer bn4b_branch2a
I0305 13:43:26.261618 10100 net.cpp:100] Creating Layer bn4b_branch2a
I0305 13:43:26.261622 10100 net.cpp:434] bn4b_branch2a <- res4b_branch2a
I0305 13:43:26.261628 10100 net.cpp:395] bn4b_branch2a -> res4b_branch2a (in-place)
I0305 13:43:26.261780 10100 net.cpp:150] Setting up bn4b_branch2a
I0305 13:43:26.261788 10100 net.cpp:157] Top shape: 32 256 14 14 (1605632)
I0305 13:43:26.261791 10100 net.cpp:165] Memory required for data: 5915148416
I0305 13:43:26.261801 10100 layer_factory.hpp:77] Creating layer scale4b_branch2a
I0305 13:43:26.261807 10100 net.cpp:100] Creating Layer scale4b_branch2a
I0305 13:43:26.261811 10100 net.cpp:434] scale4b_branch2a <- res4b_branch2a
I0305 13:43:26.261818 10100 net.cpp:395] scale4b_branch2a -> res4b_branch2a (in-place)
I0305 13:43:26.261855 10100 layer_factory.hpp:77] Creating layer scale4b_branch2a
I0305 13:43:26.261943 10100 net.cpp:150] Setting up scale4b_branch2a
I0305 13:43:26.261950 10100 net.cpp:157] Top shape: 32 256 14 14 (1605632)
I0305 13:43:26.261955 10100 net.cpp:165] Memory required for data: 5921570944
I0305 13:43:26.261961 10100 layer_factory.hpp:77] Creating layer res4b_branch2a_relu
I0305 13:43:26.261967 10100 net.cpp:100] Creating Layer res4b_branch2a_relu
I0305 13:43:26.261971 10100 net.cpp:434] res4b_branch2a_relu <- res4b_branch2a
I0305 13:43:26.261976 10100 net.cpp:395] res4b_branch2a_relu -> res4b_branch2a (in-place)
I0305 13:43:26.262194 10100 net.cpp:150] Setting up res4b_branch2a_relu
I0305 13:43:26.262204 10100 net.cpp:157] Top shape: 32 256 14 14 (1605632)
I0305 13:43:26.262208 10100 net.cpp:165] Memory required for data: 5927993472
I0305 13:43:26.262212 10100 layer_factory.hpp:77] Creating layer res4b_branch2b
I0305 13:43:26.262223 10100 net.cpp:100] Creating Layer res4b_branch2b
I0305 13:43:26.262228 10100 net.cpp:434] res4b_branch2b <- res4b_branch2a
I0305 13:43:26.262233 10100 net.cpp:408] res4b_branch2b -> res4b_branch2b
I0305 13:43:26.263660 10100 net.cpp:150] Setting up res4b_branch2b
I0305 13:43:26.263671 10100 net.cpp:157] Top shape: 32 256 14 14 (1605632)
I0305 13:43:26.263676 10100 net.cpp:165] Memory required for data: 5934416000
I0305 13:43:26.263682 10100 layer_factory.hpp:77] Creating layer bn4b_branch2b
I0305 13:43:26.263690 10100 net.cpp:100] Creating Layer bn4b_branch2b
I0305 13:43:26.263695 10100 net.cpp:434] bn4b_branch2b <- res4b_branch2b
I0305 13:43:26.263701 10100 net.cpp:395] bn4b_branch2b -> res4b_branch2b (in-place)
I0305 13:43:26.263854 10100 net.cpp:150] Setting up bn4b_branch2b
I0305 13:43:26.263862 10100 net.cpp:157] Top shape: 32 256 14 14 (1605632)
I0305 13:43:26.263866 10100 net.cpp:165] Memory required for data: 5940838528
I0305 13:43:26.263875 10100 layer_factory.hpp:77] Creating layer scale4b_branch2b
I0305 13:43:26.263881 10100 net.cpp:100] Creating Layer scale4b_branch2b
I0305 13:43:26.263887 10100 net.cpp:434] scale4b_branch2b <- res4b_branch2b
I0305 13:43:26.263895 10100 net.cpp:395] scale4b_branch2b -> res4b_branch2b (in-place)
I0305 13:43:26.263972 10100 layer_factory.hpp:77] Creating layer scale4b_branch2b
I0305 13:43:26.264075 10100 net.cpp:150] Setting up scale4b_branch2b
I0305 13:43:26.264086 10100 net.cpp:157] Top shape: 32 256 14 14 (1605632)
I0305 13:43:26.264091 10100 net.cpp:165] Memory required for data: 5947261056
I0305 13:43:26.264097 10100 layer_factory.hpp:77] Creating layer res4b_branch2b_relu
I0305 13:43:26.264104 10100 net.cpp:100] Creating Layer res4b_branch2b_relu
I0305 13:43:26.264108 10100 net.cpp:434] res4b_branch2b_relu <- res4b_branch2b
I0305 13:43:26.264114 10100 net.cpp:395] res4b_branch2b_relu -> res4b_branch2b (in-place)
I0305 13:43:26.264350 10100 net.cpp:150] Setting up res4b_branch2b_relu
I0305 13:43:26.264360 10100 net.cpp:157] Top shape: 32 256 14 14 (1605632)
I0305 13:43:26.264364 10100 net.cpp:165] Memory required for data: 5953683584
I0305 13:43:26.264377 10100 layer_factory.hpp:77] Creating layer res4b_branch2c
I0305 13:43:26.264386 10100 net.cpp:100] Creating Layer res4b_branch2c
I0305 13:43:26.264392 10100 net.cpp:434] res4b_branch2c <- res4b_branch2b
I0305 13:43:26.264399 10100 net.cpp:408] res4b_branch2c -> res4b_branch2c
I0305 13:43:26.266945 10100 net.cpp:150] Setting up res4b_branch2c
I0305 13:43:26.266957 10100 net.cpp:157] Top shape: 32 1024 14 14 (6422528)
I0305 13:43:26.266960 10100 net.cpp:165] Memory required for data: 5979373696
I0305 13:43:26.266975 10100 layer_factory.hpp:77] Creating layer bn4b_branch2c
I0305 13:43:26.266984 10100 net.cpp:100] Creating Layer bn4b_branch2c
I0305 13:43:26.266989 10100 net.cpp:434] bn4b_branch2c <- res4b_branch2c
I0305 13:43:26.266996 10100 net.cpp:395] bn4b_branch2c -> res4b_branch2c (in-place)
I0305 13:43:26.267159 10100 net.cpp:150] Setting up bn4b_branch2c
I0305 13:43:26.267168 10100 net.cpp:157] Top shape: 32 1024 14 14 (6422528)
I0305 13:43:26.267171 10100 net.cpp:165] Memory required for data: 6005063808
I0305 13:43:26.267199 10100 layer_factory.hpp:77] Creating layer scale4b_branch2c
I0305 13:43:26.267208 10100 net.cpp:100] Creating Layer scale4b_branch2c
I0305 13:43:26.267213 10100 net.cpp:434] scale4b_branch2c <- res4b_branch2c
I0305 13:43:26.267218 10100 net.cpp:395] scale4b_branch2c -> res4b_branch2c (in-place)
I0305 13:43:26.267264 10100 layer_factory.hpp:77] Creating layer scale4b_branch2c
I0305 13:43:26.267376 10100 net.cpp:150] Setting up scale4b_branch2c
I0305 13:43:26.267385 10100 net.cpp:157] Top shape: 32 1024 14 14 (6422528)
I0305 13:43:26.267387 10100 net.cpp:165] Memory required for data: 6030753920
I0305 13:43:26.267405 10100 layer_factory.hpp:77] Creating layer res4b
I0305 13:43:26.267411 10100 net.cpp:100] Creating Layer res4b
I0305 13:43:26.267416 10100 net.cpp:434] res4b <- res4a_res4a_relu_0_split_1
I0305 13:43:26.267421 10100 net.cpp:434] res4b <- res4b_branch2c
I0305 13:43:26.267441 10100 net.cpp:408] res4b -> res4b
I0305 13:43:26.267488 10100 net.cpp:150] Setting up res4b
I0305 13:43:26.267495 10100 net.cpp:157] Top shape: 32 1024 14 14 (6422528)
I0305 13:43:26.267499 10100 net.cpp:165] Memory required for data: 6056444032
I0305 13:43:26.267513 10100 layer_factory.hpp:77] Creating layer res4b_relu
I0305 13:43:26.267518 10100 net.cpp:100] Creating Layer res4b_relu
I0305 13:43:26.267531 10100 net.cpp:434] res4b_relu <- res4b
I0305 13:43:26.267537 10100 net.cpp:395] res4b_relu -> res4b (in-place)
I0305 13:43:26.267669 10100 net.cpp:150] Setting up res4b_relu
I0305 13:43:26.267681 10100 net.cpp:157] Top shape: 32 1024 14 14 (6422528)
I0305 13:43:26.267685 10100 net.cpp:165] Memory required for data: 6082134144
I0305 13:43:26.267699 10100 layer_factory.hpp:77] Creating layer res4b_res4b_relu_0_split
I0305 13:43:26.267706 10100 net.cpp:100] Creating Layer res4b_res4b_relu_0_split
I0305 13:43:26.267710 10100 net.cpp:434] res4b_res4b_relu_0_split <- res4b
I0305 13:43:26.267719 10100 net.cpp:408] res4b_res4b_relu_0_split -> res4b_res4b_relu_0_split_0
I0305 13:43:26.267725 10100 net.cpp:408] res4b_res4b_relu_0_split -> res4b_res4b_relu_0_split_1
I0305 13:43:26.267771 10100 net.cpp:150] Setting up res4b_res4b_relu_0_split
I0305 13:43:26.267778 10100 net.cpp:157] Top shape: 32 1024 14 14 (6422528)
I0305 13:43:26.267783 10100 net.cpp:157] Top shape: 32 1024 14 14 (6422528)
I0305 13:43:26.267796 10100 net.cpp:165] Memory required for data: 6133514368
I0305 13:43:26.267799 10100 layer_factory.hpp:77] Creating layer res4c_branch2a
I0305 13:43:26.267807 10100 net.cpp:100] Creating Layer res4c_branch2a
I0305 13:43:26.267813 10100 net.cpp:434] res4c_branch2a <- res4b_res4b_relu_0_split_0
I0305 13:43:26.267819 10100 net.cpp:408] res4c_branch2a -> res4c_branch2a
I0305 13:43:26.268936 10100 net.cpp:150] Setting up res4c_branch2a
I0305 13:43:26.268947 10100 net.cpp:157] Top shape: 32 256 14 14 (1605632)
I0305 13:43:26.268951 10100 net.cpp:165] Memory required for data: 6139936896
I0305 13:43:26.268967 10100 layer_factory.hpp:77] Creating layer bn4c_branch2a
I0305 13:43:26.268975 10100 net.cpp:100] Creating Layer bn4c_branch2a
I0305 13:43:26.268980 10100 net.cpp:434] bn4c_branch2a <- res4c_branch2a
I0305 13:43:26.268987 10100 net.cpp:395] bn4c_branch2a -> res4c_branch2a (in-place)
I0305 13:43:26.269155 10100 net.cpp:150] Setting up bn4c_branch2a
I0305 13:43:26.269163 10100 net.cpp:157] Top shape: 32 256 14 14 (1605632)
I0305 13:43:26.269167 10100 net.cpp:165] Memory required for data: 6146359424
I0305 13:43:26.269186 10100 layer_factory.hpp:77] Creating layer scale4c_branch2a
I0305 13:43:26.269193 10100 net.cpp:100] Creating Layer scale4c_branch2a
I0305 13:43:26.269198 10100 net.cpp:434] scale4c_branch2a <- res4c_branch2a
I0305 13:43:26.269204 10100 net.cpp:395] scale4c_branch2a -> res4c_branch2a (in-place)
I0305 13:43:26.269253 10100 layer_factory.hpp:77] Creating layer scale4c_branch2a
I0305 13:43:26.269366 10100 net.cpp:150] Setting up scale4c_branch2a
I0305 13:43:26.269373 10100 net.cpp:157] Top shape: 32 256 14 14 (1605632)
I0305 13:43:26.269377 10100 net.cpp:165] Memory required for data: 6152781952
I0305 13:43:26.269393 10100 layer_factory.hpp:77] Creating layer res4c_branch2a_relu
I0305 13:43:26.269400 10100 net.cpp:100] Creating Layer res4c_branch2a_relu
I0305 13:43:26.269404 10100 net.cpp:434] res4c_branch2a_relu <- res4c_branch2a
I0305 13:43:26.269410 10100 net.cpp:395] res4c_branch2a_relu -> res4c_branch2a (in-place)
I0305 13:43:26.269634 10100 net.cpp:150] Setting up res4c_branch2a_relu
I0305 13:43:26.269665 10100 net.cpp:157] Top shape: 32 256 14 14 (1605632)
I0305 13:43:26.269670 10100 net.cpp:165] Memory required for data: 6159204480
I0305 13:43:26.269673 10100 layer_factory.hpp:77] Creating layer res4c_branch2b
I0305 13:43:26.269683 10100 net.cpp:100] Creating Layer res4c_branch2b
I0305 13:43:26.269687 10100 net.cpp:434] res4c_branch2b <- res4c_branch2a
I0305 13:43:26.269695 10100 net.cpp:408] res4c_branch2b -> res4c_branch2b
I0305 13:43:26.271095 10100 net.cpp:150] Setting up res4c_branch2b
I0305 13:43:26.271107 10100 net.cpp:157] Top shape: 32 256 14 14 (1605632)
I0305 13:43:26.271111 10100 net.cpp:165] Memory required for data: 6165627008
I0305 13:43:26.271127 10100 layer_factory.hpp:77] Creating layer bn4c_branch2b
I0305 13:43:26.271134 10100 net.cpp:100] Creating Layer bn4c_branch2b
I0305 13:43:26.271138 10100 net.cpp:434] bn4c_branch2b <- res4c_branch2b
I0305 13:43:26.271145 10100 net.cpp:395] bn4c_branch2b -> res4c_branch2b (in-place)
I0305 13:43:26.271308 10100 net.cpp:150] Setting up bn4c_branch2b
I0305 13:43:26.271316 10100 net.cpp:157] Top shape: 32 256 14 14 (1605632)
I0305 13:43:26.271319 10100 net.cpp:165] Memory required for data: 6172049536
I0305 13:43:26.271337 10100 layer_factory.hpp:77] Creating layer scale4c_branch2b
I0305 13:43:26.271344 10100 net.cpp:100] Creating Layer scale4c_branch2b
I0305 13:43:26.271349 10100 net.cpp:434] scale4c_branch2b <- res4c_branch2b
I0305 13:43:26.271354 10100 net.cpp:395] scale4c_branch2b -> res4c_branch2b (in-place)
I0305 13:43:26.271407 10100 layer_factory.hpp:77] Creating layer scale4c_branch2b
I0305 13:43:26.271513 10100 net.cpp:150] Setting up scale4c_branch2b
I0305 13:43:26.271520 10100 net.cpp:157] Top shape: 32 256 14 14 (1605632)
I0305 13:43:26.271523 10100 net.cpp:165] Memory required for data: 6178472064
I0305 13:43:26.271540 10100 layer_factory.hpp:77] Creating layer res4c_branch2b_relu
I0305 13:43:26.271546 10100 net.cpp:100] Creating Layer res4c_branch2b_relu
I0305 13:43:26.271550 10100 net.cpp:434] res4c_branch2b_relu <- res4c_branch2b
I0305 13:43:26.271556 10100 net.cpp:395] res4c_branch2b_relu -> res4c_branch2b (in-place)
I0305 13:43:26.271787 10100 net.cpp:150] Setting up res4c_branch2b_relu
I0305 13:43:26.271796 10100 net.cpp:157] Top shape: 32 256 14 14 (1605632)
I0305 13:43:26.271800 10100 net.cpp:165] Memory required for data: 6184894592
I0305 13:43:26.271813 10100 layer_factory.hpp:77] Creating layer res4c_branch2c
I0305 13:43:26.271823 10100 net.cpp:100] Creating Layer res4c_branch2c
I0305 13:43:26.271828 10100 net.cpp:434] res4c_branch2c <- res4c_branch2b
I0305 13:43:26.271834 10100 net.cpp:408] res4c_branch2c -> res4c_branch2c
I0305 13:43:26.272917 10100 net.cpp:150] Setting up res4c_branch2c
I0305 13:43:26.272927 10100 net.cpp:157] Top shape: 32 1024 14 14 (6422528)
I0305 13:43:26.272931 10100 net.cpp:165] Memory required for data: 6210584704
I0305 13:43:26.272946 10100 layer_factory.hpp:77] Creating layer bn4c_branch2c
I0305 13:43:26.272955 10100 net.cpp:100] Creating Layer bn4c_branch2c
I0305 13:43:26.272960 10100 net.cpp:434] bn4c_branch2c <- res4c_branch2c
I0305 13:43:26.272965 10100 net.cpp:395] bn4c_branch2c -> res4c_branch2c (in-place)
I0305 13:43:26.273128 10100 net.cpp:150] Setting up bn4c_branch2c
I0305 13:43:26.273135 10100 net.cpp:157] Top shape: 32 1024 14 14 (6422528)
I0305 13:43:26.273139 10100 net.cpp:165] Memory required for data: 6236274816
I0305 13:43:26.273157 10100 layer_factory.hpp:77] Creating layer scale4c_branch2c
I0305 13:43:26.273164 10100 net.cpp:100] Creating Layer scale4c_branch2c
I0305 13:43:26.273169 10100 net.cpp:434] scale4c_branch2c <- res4c_branch2c
I0305 13:43:26.273175 10100 net.cpp:395] scale4c_branch2c -> res4c_branch2c (in-place)
I0305 13:43:26.273226 10100 layer_factory.hpp:77] Creating layer scale4c_branch2c
I0305 13:43:26.273339 10100 net.cpp:150] Setting up scale4c_branch2c
I0305 13:43:26.273345 10100 net.cpp:157] Top shape: 32 1024 14 14 (6422528)
I0305 13:43:26.273349 10100 net.cpp:165] Memory required for data: 6261964928
I0305 13:43:26.273365 10100 layer_factory.hpp:77] Creating layer res4c
I0305 13:43:26.273372 10100 net.cpp:100] Creating Layer res4c
I0305 13:43:26.273377 10100 net.cpp:434] res4c <- res4b_res4b_relu_0_split_1
I0305 13:43:26.273382 10100 net.cpp:434] res4c <- res4c_branch2c
I0305 13:43:26.273387 10100 net.cpp:408] res4c -> res4c
I0305 13:43:26.273422 10100 net.cpp:150] Setting up res4c
I0305 13:43:26.273428 10100 net.cpp:157] Top shape: 32 1024 14 14 (6422528)
I0305 13:43:26.273432 10100 net.cpp:165] Memory required for data: 6287655040
I0305 13:43:26.273450 10100 layer_factory.hpp:77] Creating layer res4c_relu
I0305 13:43:26.273455 10100 net.cpp:100] Creating Layer res4c_relu
I0305 13:43:26.273461 10100 net.cpp:434] res4c_relu <- res4c
I0305 13:43:26.273468 10100 net.cpp:395] res4c_relu -> res4c (in-place)
I0305 13:43:26.273598 10100 net.cpp:150] Setting up res4c_relu
I0305 13:43:26.273605 10100 net.cpp:157] Top shape: 32 1024 14 14 (6422528)
I0305 13:43:26.273609 10100 net.cpp:165] Memory required for data: 6313345152
I0305 13:43:26.273622 10100 layer_factory.hpp:77] Creating layer res4c_res4c_relu_0_split
I0305 13:43:26.273630 10100 net.cpp:100] Creating Layer res4c_res4c_relu_0_split
I0305 13:43:26.273635 10100 net.cpp:434] res4c_res4c_relu_0_split <- res4c
I0305 13:43:26.273640 10100 net.cpp:408] res4c_res4c_relu_0_split -> res4c_res4c_relu_0_split_0
I0305 13:43:26.273648 10100 net.cpp:408] res4c_res4c_relu_0_split -> res4c_res4c_relu_0_split_1
I0305 13:43:26.273685 10100 net.cpp:150] Setting up res4c_res4c_relu_0_split
I0305 13:43:26.273696 10100 net.cpp:157] Top shape: 32 1024 14 14 (6422528)
I0305 13:43:26.273701 10100 net.cpp:157] Top shape: 32 1024 14 14 (6422528)
I0305 13:43:26.273705 10100 net.cpp:165] Memory required for data: 6364725376
I0305 13:43:26.273708 10100 layer_factory.hpp:77] Creating layer res4d_branch2a
I0305 13:43:26.273717 10100 net.cpp:100] Creating Layer res4d_branch2a
I0305 13:43:26.273721 10100 net.cpp:434] res4d_branch2a <- res4c_res4c_relu_0_split_0
I0305 13:43:26.273727 10100 net.cpp:408] res4d_branch2a -> res4d_branch2a
I0305 13:43:26.274777 10100 net.cpp:150] Setting up res4d_branch2a
I0305 13:43:26.274787 10100 net.cpp:157] Top shape: 32 256 14 14 (1605632)
I0305 13:43:26.274791 10100 net.cpp:165] Memory required for data: 6371147904
I0305 13:43:26.274798 10100 layer_factory.hpp:77] Creating layer bn4d_branch2a
I0305 13:43:26.274806 10100 net.cpp:100] Creating Layer bn4d_branch2a
I0305 13:43:26.274811 10100 net.cpp:434] bn4d_branch2a <- res4d_branch2a
I0305 13:43:26.274817 10100 net.cpp:395] bn4d_branch2a -> res4d_branch2a (in-place)
I0305 13:43:26.274969 10100 net.cpp:150] Setting up bn4d_branch2a
I0305 13:43:26.274976 10100 net.cpp:157] Top shape: 32 256 14 14 (1605632)
I0305 13:43:26.274981 10100 net.cpp:165] Memory required for data: 6377570432
I0305 13:43:26.274988 10100 layer_factory.hpp:77] Creating layer scale4d_branch2a
I0305 13:43:26.274996 10100 net.cpp:100] Creating Layer scale4d_branch2a
I0305 13:43:26.275002 10100 net.cpp:434] scale4d_branch2a <- res4d_branch2a
I0305 13:43:26.275007 10100 net.cpp:395] scale4d_branch2a -> res4d_branch2a (in-place)
I0305 13:43:26.275058 10100 layer_factory.hpp:77] Creating layer scale4d_branch2a
I0305 13:43:26.275149 10100 net.cpp:150] Setting up scale4d_branch2a
I0305 13:43:26.275156 10100 net.cpp:157] Top shape: 32 256 14 14 (1605632)
I0305 13:43:26.275161 10100 net.cpp:165] Memory required for data: 6383992960
I0305 13:43:26.275167 10100 layer_factory.hpp:77] Creating layer res4d_branch2a_relu
I0305 13:43:26.275176 10100 net.cpp:100] Creating Layer res4d_branch2a_relu
I0305 13:43:26.275179 10100 net.cpp:434] res4d_branch2a_relu <- res4d_branch2a
I0305 13:43:26.275184 10100 net.cpp:395] res4d_branch2a_relu -> res4d_branch2a (in-place)
I0305 13:43:26.275420 10100 net.cpp:150] Setting up res4d_branch2a_relu
I0305 13:43:26.275430 10100 net.cpp:157] Top shape: 32 256 14 14 (1605632)
I0305 13:43:26.275434 10100 net.cpp:165] Memory required for data: 6390415488
I0305 13:43:26.275439 10100 layer_factory.hpp:77] Creating layer res4d_branch2b
I0305 13:43:26.275447 10100 net.cpp:100] Creating Layer res4d_branch2b
I0305 13:43:26.275451 10100 net.cpp:434] res4d_branch2b <- res4d_branch2a
I0305 13:43:26.275460 10100 net.cpp:408] res4d_branch2b -> res4d_branch2b
I0305 13:43:26.276875 10100 net.cpp:150] Setting up res4d_branch2b
I0305 13:43:26.276886 10100 net.cpp:157] Top shape: 32 256 14 14 (1605632)
I0305 13:43:26.276890 10100 net.cpp:165] Memory required for data: 6396838016
I0305 13:43:26.276906 10100 layer_factory.hpp:77] Creating layer bn4d_branch2b
I0305 13:43:26.276916 10100 net.cpp:100] Creating Layer bn4d_branch2b
I0305 13:43:26.276921 10100 net.cpp:434] bn4d_branch2b <- res4d_branch2b
I0305 13:43:26.276926 10100 net.cpp:395] bn4d_branch2b -> res4d_branch2b (in-place)
I0305 13:43:26.277086 10100 net.cpp:150] Setting up bn4d_branch2b
I0305 13:43:26.277093 10100 net.cpp:157] Top shape: 32 256 14 14 (1605632)
I0305 13:43:26.277096 10100 net.cpp:165] Memory required for data: 6403260544
I0305 13:43:26.277114 10100 layer_factory.hpp:77] Creating layer scale4d_branch2b
I0305 13:43:26.277122 10100 net.cpp:100] Creating Layer scale4d_branch2b
I0305 13:43:26.277125 10100 net.cpp:434] scale4d_branch2b <- res4d_branch2b
I0305 13:43:26.277134 10100 net.cpp:395] scale4d_branch2b -> res4d_branch2b (in-place)
I0305 13:43:26.277207 10100 layer_factory.hpp:77] Creating layer scale4d_branch2b
I0305 13:43:26.277317 10100 net.cpp:150] Setting up scale4d_branch2b
I0305 13:43:26.277323 10100 net.cpp:157] Top shape: 32 256 14 14 (1605632)
I0305 13:43:26.277326 10100 net.cpp:165] Memory required for data: 6409683072
I0305 13:43:26.277343 10100 layer_factory.hpp:77] Creating layer res4d_branch2b_relu
I0305 13:43:26.277351 10100 net.cpp:100] Creating Layer res4d_branch2b_relu
I0305 13:43:26.277356 10100 net.cpp:434] res4d_branch2b_relu <- res4d_branch2b
I0305 13:43:26.277362 10100 net.cpp:395] res4d_branch2b_relu -> res4d_branch2b (in-place)
I0305 13:43:26.277595 10100 net.cpp:150] Setting up res4d_branch2b_relu
I0305 13:43:26.277604 10100 net.cpp:157] Top shape: 32 256 14 14 (1605632)
I0305 13:43:26.277608 10100 net.cpp:165] Memory required for data: 6416105600
I0305 13:43:26.277612 10100 layer_factory.hpp:77] Creating layer res4d_branch2c
I0305 13:43:26.277621 10100 net.cpp:100] Creating Layer res4d_branch2c
I0305 13:43:26.277626 10100 net.cpp:434] res4d_branch2c <- res4d_branch2b
I0305 13:43:26.277632 10100 net.cpp:408] res4d_branch2c -> res4d_branch2c
I0305 13:43:26.278770 10100 net.cpp:150] Setting up res4d_branch2c
I0305 13:43:26.278781 10100 net.cpp:157] Top shape: 32 1024 14 14 (6422528)
I0305 13:43:26.278785 10100 net.cpp:165] Memory required for data: 6441795712
I0305 13:43:26.278791 10100 layer_factory.hpp:77] Creating layer bn4d_branch2c
I0305 13:43:26.278800 10100 net.cpp:100] Creating Layer bn4d_branch2c
I0305 13:43:26.278805 10100 net.cpp:434] bn4d_branch2c <- res4d_branch2c
I0305 13:43:26.278810 10100 net.cpp:395] bn4d_branch2c -> res4d_branch2c (in-place)
I0305 13:43:26.278981 10100 net.cpp:150] Setting up bn4d_branch2c
I0305 13:43:26.278990 10100 net.cpp:157] Top shape: 32 1024 14 14 (6422528)
I0305 13:43:26.278993 10100 net.cpp:165] Memory required for data: 6467485824
I0305 13:43:26.279003 10100 layer_factory.hpp:77] Creating layer scale4d_branch2c
I0305 13:43:26.279011 10100 net.cpp:100] Creating Layer scale4d_branch2c
I0305 13:43:26.279016 10100 net.cpp:434] scale4d_branch2c <- res4d_branch2c
I0305 13:43:26.279021 10100 net.cpp:395] scale4d_branch2c -> res4d_branch2c (in-place)
I0305 13:43:26.279058 10100 layer_factory.hpp:77] Creating layer scale4d_branch2c
I0305 13:43:26.279160 10100 net.cpp:150] Setting up scale4d_branch2c
I0305 13:43:26.279166 10100 net.cpp:157] Top shape: 32 1024 14 14 (6422528)
I0305 13:43:26.279170 10100 net.cpp:165] Memory required for data: 6493175936
I0305 13:43:26.279177 10100 layer_factory.hpp:77] Creating layer res4d
I0305 13:43:26.279186 10100 net.cpp:100] Creating Layer res4d
I0305 13:43:26.279191 10100 net.cpp:434] res4d <- res4c_res4c_relu_0_split_1
I0305 13:43:26.279196 10100 net.cpp:434] res4d <- res4d_branch2c
I0305 13:43:26.279201 10100 net.cpp:408] res4d -> res4d
I0305 13:43:26.279228 10100 net.cpp:150] Setting up res4d
I0305 13:43:26.279234 10100 net.cpp:157] Top shape: 32 1024 14 14 (6422528)
I0305 13:43:26.279238 10100 net.cpp:165] Memory required for data: 6518866048
I0305 13:43:26.279242 10100 layer_factory.hpp:77] Creating layer res4d_relu
I0305 13:43:26.279248 10100 net.cpp:100] Creating Layer res4d_relu
I0305 13:43:26.279253 10100 net.cpp:434] res4d_relu <- res4d
I0305 13:43:26.279258 10100 net.cpp:395] res4d_relu -> res4d (in-place)
I0305 13:43:26.279383 10100 net.cpp:150] Setting up res4d_relu
I0305 13:43:26.279392 10100 net.cpp:157] Top shape: 32 1024 14 14 (6422528)
I0305 13:43:26.279395 10100 net.cpp:165] Memory required for data: 6544556160
I0305 13:43:26.279399 10100 layer_factory.hpp:77] Creating layer res4d_res4d_relu_0_split
I0305 13:43:26.279405 10100 net.cpp:100] Creating Layer res4d_res4d_relu_0_split
I0305 13:43:26.279409 10100 net.cpp:434] res4d_res4d_relu_0_split <- res4d
I0305 13:43:26.279422 10100 net.cpp:408] res4d_res4d_relu_0_split -> res4d_res4d_relu_0_split_0
I0305 13:43:26.279430 10100 net.cpp:408] res4d_res4d_relu_0_split -> res4d_res4d_relu_0_split_1
I0305 13:43:26.279469 10100 net.cpp:150] Setting up res4d_res4d_relu_0_split
I0305 13:43:26.279475 10100 net.cpp:157] Top shape: 32 1024 14 14 (6422528)
I0305 13:43:26.279480 10100 net.cpp:157] Top shape: 32 1024 14 14 (6422528)
I0305 13:43:26.279484 10100 net.cpp:165] Memory required for data: 6595936384
I0305 13:43:26.279489 10100 layer_factory.hpp:77] Creating layer res4e_branch2a
I0305 13:43:26.279496 10100 net.cpp:100] Creating Layer res4e_branch2a
I0305 13:43:26.279500 10100 net.cpp:434] res4e_branch2a <- res4d_res4d_relu_0_split_0
I0305 13:43:26.279505 10100 net.cpp:408] res4e_branch2a -> res4e_branch2a
I0305 13:43:26.280583 10100 net.cpp:150] Setting up res4e_branch2a
I0305 13:43:26.280596 10100 net.cpp:157] Top shape: 32 256 14 14 (1605632)
I0305 13:43:26.280599 10100 net.cpp:165] Memory required for data: 6602358912
I0305 13:43:26.280606 10100 layer_factory.hpp:77] Creating layer bn4e_branch2a
I0305 13:43:26.280613 10100 net.cpp:100] Creating Layer bn4e_branch2a
I0305 13:43:26.280618 10100 net.cpp:434] bn4e_branch2a <- res4e_branch2a
I0305 13:43:26.280624 10100 net.cpp:395] bn4e_branch2a -> res4e_branch2a (in-place)
I0305 13:43:26.280781 10100 net.cpp:150] Setting up bn4e_branch2a
I0305 13:43:26.280789 10100 net.cpp:157] Top shape: 32 256 14 14 (1605632)
I0305 13:43:26.280792 10100 net.cpp:165] Memory required for data: 6608781440
I0305 13:43:26.280802 10100 layer_factory.hpp:77] Creating layer scale4e_branch2a
I0305 13:43:26.280810 10100 net.cpp:100] Creating Layer scale4e_branch2a
I0305 13:43:26.280815 10100 net.cpp:434] scale4e_branch2a <- res4e_branch2a
I0305 13:43:26.280822 10100 net.cpp:395] scale4e_branch2a -> res4e_branch2a (in-place)
I0305 13:43:26.280869 10100 layer_factory.hpp:77] Creating layer scale4e_branch2a
I0305 13:43:26.280962 10100 net.cpp:150] Setting up scale4e_branch2a
I0305 13:43:26.280969 10100 net.cpp:157] Top shape: 32 256 14 14 (1605632)
I0305 13:43:26.280972 10100 net.cpp:165] Memory required for data: 6615203968
I0305 13:43:26.280979 10100 layer_factory.hpp:77] Creating layer res4e_branch2a_relu
I0305 13:43:26.280987 10100 net.cpp:100] Creating Layer res4e_branch2a_relu
I0305 13:43:26.280990 10100 net.cpp:434] res4e_branch2a_relu <- res4e_branch2a
I0305 13:43:26.280997 10100 net.cpp:395] res4e_branch2a_relu -> res4e_branch2a (in-place)
I0305 13:43:26.281224 10100 net.cpp:150] Setting up res4e_branch2a_relu
I0305 13:43:26.281234 10100 net.cpp:157] Top shape: 32 256 14 14 (1605632)
I0305 13:43:26.281237 10100 net.cpp:165] Memory required for data: 6621626496
I0305 13:43:26.281241 10100 layer_factory.hpp:77] Creating layer res4e_branch2b
I0305 13:43:26.281250 10100 net.cpp:100] Creating Layer res4e_branch2b
I0305 13:43:26.281255 10100 net.cpp:434] res4e_branch2b <- res4e_branch2a
I0305 13:43:26.281260 10100 net.cpp:408] res4e_branch2b -> res4e_branch2b
I0305 13:43:26.282682 10100 net.cpp:150] Setting up res4e_branch2b
I0305 13:43:26.282692 10100 net.cpp:157] Top shape: 32 256 14 14 (1605632)
I0305 13:43:26.282696 10100 net.cpp:165] Memory required for data: 6628049024
I0305 13:43:26.282712 10100 layer_factory.hpp:77] Creating layer bn4e_branch2b
I0305 13:43:26.282721 10100 net.cpp:100] Creating Layer bn4e_branch2b
I0305 13:43:26.282726 10100 net.cpp:434] bn4e_branch2b <- res4e_branch2b
I0305 13:43:26.282732 10100 net.cpp:395] bn4e_branch2b -> res4e_branch2b (in-place)
I0305 13:43:26.282897 10100 net.cpp:150] Setting up bn4e_branch2b
I0305 13:43:26.282904 10100 net.cpp:157] Top shape: 32 256 14 14 (1605632)
I0305 13:43:26.282908 10100 net.cpp:165] Memory required for data: 6634471552
I0305 13:43:26.282927 10100 layer_factory.hpp:77] Creating layer scale4e_branch2b
I0305 13:43:26.282935 10100 net.cpp:100] Creating Layer scale4e_branch2b
I0305 13:43:26.282940 10100 net.cpp:434] scale4e_branch2b <- res4e_branch2b
I0305 13:43:26.282945 10100 net.cpp:395] scale4e_branch2b -> res4e_branch2b (in-place)
I0305 13:43:26.283000 10100 layer_factory.hpp:77] Creating layer scale4e_branch2b
I0305 13:43:26.283113 10100 net.cpp:150] Setting up scale4e_branch2b
I0305 13:43:26.283119 10100 net.cpp:157] Top shape: 32 256 14 14 (1605632)
I0305 13:43:26.283123 10100 net.cpp:165] Memory required for data: 6640894080
I0305 13:43:26.283140 10100 layer_factory.hpp:77] Creating layer res4e_branch2b_relu
I0305 13:43:26.283148 10100 net.cpp:100] Creating Layer res4e_branch2b_relu
I0305 13:43:26.283154 10100 net.cpp:434] res4e_branch2b_relu <- res4e_branch2b
I0305 13:43:26.283159 10100 net.cpp:395] res4e_branch2b_relu -> res4e_branch2b (in-place)
I0305 13:43:26.283380 10100 net.cpp:150] Setting up res4e_branch2b_relu
I0305 13:43:26.283390 10100 net.cpp:157] Top shape: 32 256 14 14 (1605632)
I0305 13:43:26.283393 10100 net.cpp:165] Memory required for data: 6647316608
I0305 13:43:26.283397 10100 layer_factory.hpp:77] Creating layer res4e_branch2c
I0305 13:43:26.283406 10100 net.cpp:100] Creating Layer res4e_branch2c
I0305 13:43:26.283411 10100 net.cpp:434] res4e_branch2c <- res4e_branch2b
I0305 13:43:26.283419 10100 net.cpp:408] res4e_branch2c -> res4e_branch2c
I0305 13:43:26.284507 10100 net.cpp:150] Setting up res4e_branch2c
I0305 13:43:26.284518 10100 net.cpp:157] Top shape: 32 1024 14 14 (6422528)
I0305 13:43:26.284523 10100 net.cpp:165] Memory required for data: 6673006720
I0305 13:43:26.284528 10100 layer_factory.hpp:77] Creating layer bn4e_branch2c
I0305 13:43:26.284535 10100 net.cpp:100] Creating Layer bn4e_branch2c
I0305 13:43:26.284540 10100 net.cpp:434] bn4e_branch2c <- res4e_branch2c
I0305 13:43:26.284545 10100 net.cpp:395] bn4e_branch2c -> res4e_branch2c (in-place)
I0305 13:43:26.284708 10100 net.cpp:150] Setting up bn4e_branch2c
I0305 13:43:26.284716 10100 net.cpp:157] Top shape: 32 1024 14 14 (6422528)
I0305 13:43:26.284719 10100 net.cpp:165] Memory required for data: 6698696832
I0305 13:43:26.284729 10100 layer_factory.hpp:77] Creating layer scale4e_branch2c
I0305 13:43:26.284735 10100 net.cpp:100] Creating Layer scale4e_branch2c
I0305 13:43:26.284739 10100 net.cpp:434] scale4e_branch2c <- res4e_branch2c
I0305 13:43:26.284744 10100 net.cpp:395] scale4e_branch2c -> res4e_branch2c (in-place)
I0305 13:43:26.284782 10100 layer_factory.hpp:77] Creating layer scale4e_branch2c
I0305 13:43:26.284881 10100 net.cpp:150] Setting up scale4e_branch2c
I0305 13:43:26.284888 10100 net.cpp:157] Top shape: 32 1024 14 14 (6422528)
I0305 13:43:26.284891 10100 net.cpp:165] Memory required for data: 6724386944
I0305 13:43:26.284898 10100 layer_factory.hpp:77] Creating layer res4e
I0305 13:43:26.284905 10100 net.cpp:100] Creating Layer res4e
I0305 13:43:26.284909 10100 net.cpp:434] res4e <- res4d_res4d_relu_0_split_1
I0305 13:43:26.284914 10100 net.cpp:434] res4e <- res4e_branch2c
I0305 13:43:26.284921 10100 net.cpp:408] res4e -> res4e
I0305 13:43:26.284947 10100 net.cpp:150] Setting up res4e
I0305 13:43:26.284953 10100 net.cpp:157] Top shape: 32 1024 14 14 (6422528)
I0305 13:43:26.284957 10100 net.cpp:165] Memory required for data: 6750077056
I0305 13:43:26.284961 10100 layer_factory.hpp:77] Creating layer res4e_relu
I0305 13:43:26.284968 10100 net.cpp:100] Creating Layer res4e_relu
I0305 13:43:26.284972 10100 net.cpp:434] res4e_relu <- res4e
I0305 13:43:26.284977 10100 net.cpp:395] res4e_relu -> res4e (in-place)
I0305 13:43:26.285105 10100 net.cpp:150] Setting up res4e_relu
I0305 13:43:26.285115 10100 net.cpp:157] Top shape: 32 1024 14 14 (6422528)
I0305 13:43:26.285117 10100 net.cpp:165] Memory required for data: 6775767168
I0305 13:43:26.285121 10100 layer_factory.hpp:77] Creating layer res4e_res4e_relu_0_split
I0305 13:43:26.285130 10100 net.cpp:100] Creating Layer res4e_res4e_relu_0_split
I0305 13:43:26.285133 10100 net.cpp:434] res4e_res4e_relu_0_split <- res4e
I0305 13:43:26.285140 10100 net.cpp:408] res4e_res4e_relu_0_split -> res4e_res4e_relu_0_split_0
I0305 13:43:26.285147 10100 net.cpp:408] res4e_res4e_relu_0_split -> res4e_res4e_relu_0_split_1
I0305 13:43:26.285187 10100 net.cpp:150] Setting up res4e_res4e_relu_0_split
I0305 13:43:26.285193 10100 net.cpp:157] Top shape: 32 1024 14 14 (6422528)
I0305 13:43:26.285198 10100 net.cpp:157] Top shape: 32 1024 14 14 (6422528)
I0305 13:43:26.285202 10100 net.cpp:165] Memory required for data: 6827147392
I0305 13:43:26.285205 10100 layer_factory.hpp:77] Creating layer res4f_branch2a
I0305 13:43:26.285213 10100 net.cpp:100] Creating Layer res4f_branch2a
I0305 13:43:26.285218 10100 net.cpp:434] res4f_branch2a <- res4e_res4e_relu_0_split_0
I0305 13:43:26.285224 10100 net.cpp:408] res4f_branch2a -> res4f_branch2a
I0305 13:43:26.286264 10100 net.cpp:150] Setting up res4f_branch2a
I0305 13:43:26.286274 10100 net.cpp:157] Top shape: 32 256 14 14 (1605632)
I0305 13:43:26.286278 10100 net.cpp:165] Memory required for data: 6833569920
I0305 13:43:26.286284 10100 layer_factory.hpp:77] Creating layer bn4f_branch2a
I0305 13:43:26.286293 10100 net.cpp:100] Creating Layer bn4f_branch2a
I0305 13:43:26.286298 10100 net.cpp:434] bn4f_branch2a <- res4f_branch2a
I0305 13:43:26.286303 10100 net.cpp:395] bn4f_branch2a -> res4f_branch2a (in-place)
I0305 13:43:26.286464 10100 net.cpp:150] Setting up bn4f_branch2a
I0305 13:43:26.286471 10100 net.cpp:157] Top shape: 32 256 14 14 (1605632)
I0305 13:43:26.286475 10100 net.cpp:165] Memory required for data: 6839992448
I0305 13:43:26.286485 10100 layer_factory.hpp:77] Creating layer scale4f_branch2a
I0305 13:43:26.286491 10100 net.cpp:100] Creating Layer scale4f_branch2a
I0305 13:43:26.286499 10100 net.cpp:434] scale4f_branch2a <- res4f_branch2a
I0305 13:43:26.286504 10100 net.cpp:395] scale4f_branch2a -> res4f_branch2a (in-place)
I0305 13:43:26.286543 10100 layer_factory.hpp:77] Creating layer scale4f_branch2a
I0305 13:43:26.286639 10100 net.cpp:150] Setting up scale4f_branch2a
I0305 13:43:26.286646 10100 net.cpp:157] Top shape: 32 256 14 14 (1605632)
I0305 13:43:26.286649 10100 net.cpp:165] Memory required for data: 6846414976
I0305 13:43:26.286656 10100 layer_factory.hpp:77] Creating layer res4f_branch2a_relu
I0305 13:43:26.286664 10100 net.cpp:100] Creating Layer res4f_branch2a_relu
I0305 13:43:26.286669 10100 net.cpp:434] res4f_branch2a_relu <- res4f_branch2a
I0305 13:43:26.286674 10100 net.cpp:395] res4f_branch2a_relu -> res4f_branch2a (in-place)
I0305 13:43:26.286893 10100 net.cpp:150] Setting up res4f_branch2a_relu
I0305 13:43:26.286903 10100 net.cpp:157] Top shape: 32 256 14 14 (1605632)
I0305 13:43:26.286907 10100 net.cpp:165] Memory required for data: 6852837504
I0305 13:43:26.286911 10100 layer_factory.hpp:77] Creating layer res4f_branch2b
I0305 13:43:26.286918 10100 net.cpp:100] Creating Layer res4f_branch2b
I0305 13:43:26.286923 10100 net.cpp:434] res4f_branch2b <- res4f_branch2a
I0305 13:43:26.286931 10100 net.cpp:408] res4f_branch2b -> res4f_branch2b
I0305 13:43:26.288328 10100 net.cpp:150] Setting up res4f_branch2b
I0305 13:43:26.288341 10100 net.cpp:157] Top shape: 32 256 14 14 (1605632)
I0305 13:43:26.288345 10100 net.cpp:165] Memory required for data: 6859260032
I0305 13:43:26.288352 10100 layer_factory.hpp:77] Creating layer bn4f_branch2b
I0305 13:43:26.288359 10100 net.cpp:100] Creating Layer bn4f_branch2b
I0305 13:43:26.288363 10100 net.cpp:434] bn4f_branch2b <- res4f_branch2b
I0305 13:43:26.288370 10100 net.cpp:395] bn4f_branch2b -> res4f_branch2b (in-place)
I0305 13:43:26.288537 10100 net.cpp:150] Setting up bn4f_branch2b
I0305 13:43:26.288543 10100 net.cpp:157] Top shape: 32 256 14 14 (1605632)
I0305 13:43:26.288547 10100 net.cpp:165] Memory required for data: 6865682560
I0305 13:43:26.288555 10100 layer_factory.hpp:77] Creating layer scale4f_branch2b
I0305 13:43:26.288563 10100 net.cpp:100] Creating Layer scale4f_branch2b
I0305 13:43:26.288566 10100 net.cpp:434] scale4f_branch2b <- res4f_branch2b
I0305 13:43:26.288573 10100 net.cpp:395] scale4f_branch2b -> res4f_branch2b (in-place)
I0305 13:43:26.288614 10100 layer_factory.hpp:77] Creating layer scale4f_branch2b
I0305 13:43:26.288712 10100 net.cpp:150] Setting up scale4f_branch2b
I0305 13:43:26.288718 10100 net.cpp:157] Top shape: 32 256 14 14 (1605632)
I0305 13:43:26.288722 10100 net.cpp:165] Memory required for data: 6872105088
I0305 13:43:26.288728 10100 layer_factory.hpp:77] Creating layer res4f_branch2b_relu
I0305 13:43:26.288734 10100 net.cpp:100] Creating Layer res4f_branch2b_relu
I0305 13:43:26.288738 10100 net.cpp:434] res4f_branch2b_relu <- res4f_branch2b
I0305 13:43:26.288745 10100 net.cpp:395] res4f_branch2b_relu -> res4f_branch2b (in-place)
I0305 13:43:26.288971 10100 net.cpp:150] Setting up res4f_branch2b_relu
I0305 13:43:26.288980 10100 net.cpp:157] Top shape: 32 256 14 14 (1605632)
I0305 13:43:26.288985 10100 net.cpp:165] Memory required for data: 6878527616
I0305 13:43:26.288988 10100 layer_factory.hpp:77] Creating layer res4f_branch2c
I0305 13:43:26.288997 10100 net.cpp:100] Creating Layer res4f_branch2c
I0305 13:43:26.289002 10100 net.cpp:434] res4f_branch2c <- res4f_branch2b
I0305 13:43:26.289008 10100 net.cpp:408] res4f_branch2c -> res4f_branch2c
I0305 13:43:26.290069 10100 net.cpp:150] Setting up res4f_branch2c
I0305 13:43:26.290079 10100 net.cpp:157] Top shape: 32 1024 14 14 (6422528)
I0305 13:43:26.290084 10100 net.cpp:165] Memory required for data: 6904217728
I0305 13:43:26.290091 10100 layer_factory.hpp:77] Creating layer bn4f_branch2c
I0305 13:43:26.290096 10100 net.cpp:100] Creating Layer bn4f_branch2c
I0305 13:43:26.290102 10100 net.cpp:434] bn4f_branch2c <- res4f_branch2c
I0305 13:43:26.290108 10100 net.cpp:395] bn4f_branch2c -> res4f_branch2c (in-place)
I0305 13:43:26.290274 10100 net.cpp:150] Setting up bn4f_branch2c
I0305 13:43:26.290282 10100 net.cpp:157] Top shape: 32 1024 14 14 (6422528)
I0305 13:43:26.290285 10100 net.cpp:165] Memory required for data: 6929907840
I0305 13:43:26.290323 10100 layer_factory.hpp:77] Creating layer scale4f_branch2c
I0305 13:43:26.290329 10100 net.cpp:100] Creating Layer scale4f_branch2c
I0305 13:43:26.290334 10100 net.cpp:434] scale4f_branch2c <- res4f_branch2c
I0305 13:43:26.290339 10100 net.cpp:395] scale4f_branch2c -> res4f_branch2c (in-place)
I0305 13:43:26.290381 10100 layer_factory.hpp:77] Creating layer scale4f_branch2c
I0305 13:43:26.290482 10100 net.cpp:150] Setting up scale4f_branch2c
I0305 13:43:26.290489 10100 net.cpp:157] Top shape: 32 1024 14 14 (6422528)
I0305 13:43:26.290493 10100 net.cpp:165] Memory required for data: 6955597952
I0305 13:43:26.290499 10100 layer_factory.hpp:77] Creating layer res4f
I0305 13:43:26.290508 10100 net.cpp:100] Creating Layer res4f
I0305 13:43:26.290513 10100 net.cpp:434] res4f <- res4e_res4e_relu_0_split_1
I0305 13:43:26.290516 10100 net.cpp:434] res4f <- res4f_branch2c
I0305 13:43:26.290522 10100 net.cpp:408] res4f -> res4f
I0305 13:43:26.290549 10100 net.cpp:150] Setting up res4f
I0305 13:43:26.290556 10100 net.cpp:157] Top shape: 32 1024 14 14 (6422528)
I0305 13:43:26.290560 10100 net.cpp:165] Memory required for data: 6981288064
I0305 13:43:26.290563 10100 layer_factory.hpp:77] Creating layer res4f_relu
I0305 13:43:26.290570 10100 net.cpp:100] Creating Layer res4f_relu
I0305 13:43:26.290573 10100 net.cpp:434] res4f_relu <- res4f
I0305 13:43:26.290580 10100 net.cpp:395] res4f_relu -> res4f (in-place)
I0305 13:43:26.290707 10100 net.cpp:150] Setting up res4f_relu
I0305 13:43:26.290714 10100 net.cpp:157] Top shape: 32 1024 14 14 (6422528)
I0305 13:43:26.290719 10100 net.cpp:165] Memory required for data: 7006978176
I0305 13:43:26.290722 10100 layer_factory.hpp:77] Creating layer res4f_res4f_relu_0_split
I0305 13:43:26.290729 10100 net.cpp:100] Creating Layer res4f_res4f_relu_0_split
I0305 13:43:26.290732 10100 net.cpp:434] res4f_res4f_relu_0_split <- res4f
I0305 13:43:26.290740 10100 net.cpp:408] res4f_res4f_relu_0_split -> res4f_res4f_relu_0_split_0
I0305 13:43:26.290746 10100 net.cpp:408] res4f_res4f_relu_0_split -> res4f_res4f_relu_0_split_1
I0305 13:43:26.290786 10100 net.cpp:150] Setting up res4f_res4f_relu_0_split
I0305 13:43:26.290793 10100 net.cpp:157] Top shape: 32 1024 14 14 (6422528)
I0305 13:43:26.290797 10100 net.cpp:157] Top shape: 32 1024 14 14 (6422528)
I0305 13:43:26.290802 10100 net.cpp:165] Memory required for data: 7058358400
I0305 13:43:26.290805 10100 layer_factory.hpp:77] Creating layer res5a_branch1
I0305 13:43:26.290814 10100 net.cpp:100] Creating Layer res5a_branch1
I0305 13:43:26.290818 10100 net.cpp:434] res5a_branch1 <- res4f_res4f_relu_0_split_0
I0305 13:43:26.290824 10100 net.cpp:408] res5a_branch1 -> res5a_branch1
I0305 13:43:26.294245 10100 net.cpp:150] Setting up res5a_branch1
I0305 13:43:26.294273 10100 net.cpp:157] Top shape: 32 2048 7 7 (3211264)
I0305 13:43:26.294277 10100 net.cpp:165] Memory required for data: 7071203456
I0305 13:43:26.294286 10100 layer_factory.hpp:77] Creating layer bn5a_branch1
I0305 13:43:26.294297 10100 net.cpp:100] Creating Layer bn5a_branch1
I0305 13:43:26.294303 10100 net.cpp:434] bn5a_branch1 <- res5a_branch1
I0305 13:43:26.294312 10100 net.cpp:395] bn5a_branch1 -> res5a_branch1 (in-place)
I0305 13:43:26.294503 10100 net.cpp:150] Setting up bn5a_branch1
I0305 13:43:26.294512 10100 net.cpp:157] Top shape: 32 2048 7 7 (3211264)
I0305 13:43:26.294514 10100 net.cpp:165] Memory required for data: 7084048512
I0305 13:43:26.294523 10100 layer_factory.hpp:77] Creating layer scale5a_branch1
I0305 13:43:26.294533 10100 net.cpp:100] Creating Layer scale5a_branch1
I0305 13:43:26.294538 10100 net.cpp:434] scale5a_branch1 <- res5a_branch1
I0305 13:43:26.294543 10100 net.cpp:395] scale5a_branch1 -> res5a_branch1 (in-place)
I0305 13:43:26.294590 10100 layer_factory.hpp:77] Creating layer scale5a_branch1
I0305 13:43:26.294697 10100 net.cpp:150] Setting up scale5a_branch1
I0305 13:43:26.294704 10100 net.cpp:157] Top shape: 32 2048 7 7 (3211264)
I0305 13:43:26.294708 10100 net.cpp:165] Memory required for data: 7096893568
I0305 13:43:26.294714 10100 layer_factory.hpp:77] Creating layer res5a_branch2a
I0305 13:43:26.294725 10100 net.cpp:100] Creating Layer res5a_branch2a
I0305 13:43:26.294731 10100 net.cpp:434] res5a_branch2a <- res4f_res4f_relu_0_split_1
I0305 13:43:26.294739 10100 net.cpp:408] res5a_branch2a -> res5a_branch2a
I0305 13:43:26.296172 10100 net.cpp:150] Setting up res5a_branch2a
I0305 13:43:26.296183 10100 net.cpp:157] Top shape: 32 512 7 7 (802816)
I0305 13:43:26.296188 10100 net.cpp:165] Memory required for data: 7100104832
I0305 13:43:26.296195 10100 layer_factory.hpp:77] Creating layer bn5a_branch2a
I0305 13:43:26.296202 10100 net.cpp:100] Creating Layer bn5a_branch2a
I0305 13:43:26.296207 10100 net.cpp:434] bn5a_branch2a <- res5a_branch2a
I0305 13:43:26.296212 10100 net.cpp:395] bn5a_branch2a -> res5a_branch2a (in-place)
I0305 13:43:26.296385 10100 net.cpp:150] Setting up bn5a_branch2a
I0305 13:43:26.296392 10100 net.cpp:157] Top shape: 32 512 7 7 (802816)
I0305 13:43:26.296396 10100 net.cpp:165] Memory required for data: 7103316096
I0305 13:43:26.296406 10100 layer_factory.hpp:77] Creating layer scale5a_branch2a
I0305 13:43:26.296412 10100 net.cpp:100] Creating Layer scale5a_branch2a
I0305 13:43:26.296418 10100 net.cpp:434] scale5a_branch2a <- res5a_branch2a
I0305 13:43:26.296424 10100 net.cpp:395] scale5a_branch2a -> res5a_branch2a (in-place)
I0305 13:43:26.296463 10100 layer_factory.hpp:77] Creating layer scale5a_branch2a
I0305 13:43:26.296566 10100 net.cpp:150] Setting up scale5a_branch2a
I0305 13:43:26.296573 10100 net.cpp:157] Top shape: 32 512 7 7 (802816)
I0305 13:43:26.296577 10100 net.cpp:165] Memory required for data: 7106527360
I0305 13:43:26.296584 10100 layer_factory.hpp:77] Creating layer res5a_branch2a_relu
I0305 13:43:26.296592 10100 net.cpp:100] Creating Layer res5a_branch2a_relu
I0305 13:43:26.296597 10100 net.cpp:434] res5a_branch2a_relu <- res5a_branch2a
I0305 13:43:26.296602 10100 net.cpp:395] res5a_branch2a_relu -> res5a_branch2a (in-place)
I0305 13:43:26.296731 10100 net.cpp:150] Setting up res5a_branch2a_relu
I0305 13:43:26.296739 10100 net.cpp:157] Top shape: 32 512 7 7 (802816)
I0305 13:43:26.296743 10100 net.cpp:165] Memory required for data: 7109738624
I0305 13:43:26.296747 10100 layer_factory.hpp:77] Creating layer res5a_branch2b
I0305 13:43:26.296756 10100 net.cpp:100] Creating Layer res5a_branch2b
I0305 13:43:26.296761 10100 net.cpp:434] res5a_branch2b <- res5a_branch2a
I0305 13:43:26.296766 10100 net.cpp:408] res5a_branch2b -> res5a_branch2b
I0305 13:43:26.300727 10100 net.cpp:150] Setting up res5a_branch2b
I0305 13:43:26.300756 10100 net.cpp:157] Top shape: 32 512 7 7 (802816)
I0305 13:43:26.300760 10100 net.cpp:165] Memory required for data: 7112949888
I0305 13:43:26.300770 10100 layer_factory.hpp:77] Creating layer bn5a_branch2b
I0305 13:43:26.300783 10100 net.cpp:100] Creating Layer bn5a_branch2b
I0305 13:43:26.300789 10100 net.cpp:434] bn5a_branch2b <- res5a_branch2b
I0305 13:43:26.300797 10100 net.cpp:395] bn5a_branch2b -> res5a_branch2b (in-place)
I0305 13:43:26.300993 10100 net.cpp:150] Setting up bn5a_branch2b
I0305 13:43:26.301002 10100 net.cpp:157] Top shape: 32 512 7 7 (802816)
I0305 13:43:26.301005 10100 net.cpp:165] Memory required for data: 7116161152
I0305 13:43:26.301014 10100 layer_factory.hpp:77] Creating layer scale5a_branch2b
I0305 13:43:26.301023 10100 net.cpp:100] Creating Layer scale5a_branch2b
I0305 13:43:26.301028 10100 net.cpp:434] scale5a_branch2b <- res5a_branch2b
I0305 13:43:26.301033 10100 net.cpp:395] scale5a_branch2b -> res5a_branch2b (in-place)
I0305 13:43:26.301079 10100 layer_factory.hpp:77] Creating layer scale5a_branch2b
I0305 13:43:26.301189 10100 net.cpp:150] Setting up scale5a_branch2b
I0305 13:43:26.301198 10100 net.cpp:157] Top shape: 32 512 7 7 (802816)
I0305 13:43:26.301200 10100 net.cpp:165] Memory required for data: 7119372416
I0305 13:43:26.301208 10100 layer_factory.hpp:77] Creating layer res5a_branch2b_relu
I0305 13:43:26.301215 10100 net.cpp:100] Creating Layer res5a_branch2b_relu
I0305 13:43:26.301219 10100 net.cpp:434] res5a_branch2b_relu <- res5a_branch2b
I0305 13:43:26.301226 10100 net.cpp:395] res5a_branch2b_relu -> res5a_branch2b (in-place)
I0305 13:43:26.301468 10100 net.cpp:150] Setting up res5a_branch2b_relu
I0305 13:43:26.301478 10100 net.cpp:157] Top shape: 32 512 7 7 (802816)
I0305 13:43:26.301481 10100 net.cpp:165] Memory required for data: 7122583680
I0305 13:43:26.301486 10100 layer_factory.hpp:77] Creating layer res5a_branch2c
I0305 13:43:26.301496 10100 net.cpp:100] Creating Layer res5a_branch2c
I0305 13:43:26.301501 10100 net.cpp:434] res5a_branch2c <- res5a_branch2b
I0305 13:43:26.301506 10100 net.cpp:408] res5a_branch2c -> res5a_branch2c
I0305 13:43:26.303297 10100 net.cpp:150] Setting up res5a_branch2c
I0305 13:43:26.303308 10100 net.cpp:157] Top shape: 32 2048 7 7 (3211264)
I0305 13:43:26.303313 10100 net.cpp:165] Memory required for data: 7135428736
I0305 13:43:26.303318 10100 layer_factory.hpp:77] Creating layer bn5a_branch2c
I0305 13:43:26.303328 10100 net.cpp:100] Creating Layer bn5a_branch2c
I0305 13:43:26.303333 10100 net.cpp:434] bn5a_branch2c <- res5a_branch2c
I0305 13:43:26.303338 10100 net.cpp:395] bn5a_branch2c -> res5a_branch2c (in-place)
I0305 13:43:26.303519 10100 net.cpp:150] Setting up bn5a_branch2c
I0305 13:43:26.303526 10100 net.cpp:157] Top shape: 32 2048 7 7 (3211264)
I0305 13:43:26.303529 10100 net.cpp:165] Memory required for data: 7148273792
I0305 13:43:26.303539 10100 layer_factory.hpp:77] Creating layer scale5a_branch2c
I0305 13:43:26.303544 10100 net.cpp:100] Creating Layer scale5a_branch2c
I0305 13:43:26.303550 10100 net.cpp:434] scale5a_branch2c <- res5a_branch2c
I0305 13:43:26.303555 10100 net.cpp:395] scale5a_branch2c -> res5a_branch2c (in-place)
I0305 13:43:26.303596 10100 layer_factory.hpp:77] Creating layer scale5a_branch2c
I0305 13:43:26.303706 10100 net.cpp:150] Setting up scale5a_branch2c
I0305 13:43:26.303714 10100 net.cpp:157] Top shape: 32 2048 7 7 (3211264)
I0305 13:43:26.303719 10100 net.cpp:165] Memory required for data: 7161118848
I0305 13:43:26.303725 10100 layer_factory.hpp:77] Creating layer res5a
I0305 13:43:26.303731 10100 net.cpp:100] Creating Layer res5a
I0305 13:43:26.303736 10100 net.cpp:434] res5a <- res5a_branch1
I0305 13:43:26.303741 10100 net.cpp:434] res5a <- res5a_branch2c
I0305 13:43:26.303746 10100 net.cpp:408] res5a -> res5a
I0305 13:43:26.303776 10100 net.cpp:150] Setting up res5a
I0305 13:43:26.303781 10100 net.cpp:157] Top shape: 32 2048 7 7 (3211264)
I0305 13:43:26.303786 10100 net.cpp:165] Memory required for data: 7173963904
I0305 13:43:26.303789 10100 layer_factory.hpp:77] Creating layer res5a_relu
I0305 13:43:26.303797 10100 net.cpp:100] Creating Layer res5a_relu
I0305 13:43:26.303800 10100 net.cpp:434] res5a_relu <- res5a
I0305 13:43:26.303805 10100 net.cpp:395] res5a_relu -> res5a (in-place)
I0305 13:43:26.304029 10100 net.cpp:150] Setting up res5a_relu
I0305 13:43:26.304039 10100 net.cpp:157] Top shape: 32 2048 7 7 (3211264)
I0305 13:43:26.304042 10100 net.cpp:165] Memory required for data: 7186808960
I0305 13:43:26.304046 10100 layer_factory.hpp:77] Creating layer res5a_res5a_relu_0_split
I0305 13:43:26.304052 10100 net.cpp:100] Creating Layer res5a_res5a_relu_0_split
I0305 13:43:26.304056 10100 net.cpp:434] res5a_res5a_relu_0_split <- res5a
I0305 13:43:26.304067 10100 net.cpp:408] res5a_res5a_relu_0_split -> res5a_res5a_relu_0_split_0
I0305 13:43:26.304075 10100 net.cpp:408] res5a_res5a_relu_0_split -> res5a_res5a_relu_0_split_1
I0305 13:43:26.304123 10100 net.cpp:150] Setting up res5a_res5a_relu_0_split
I0305 13:43:26.304131 10100 net.cpp:157] Top shape: 32 2048 7 7 (3211264)
I0305 13:43:26.304136 10100 net.cpp:157] Top shape: 32 2048 7 7 (3211264)
I0305 13:43:26.304139 10100 net.cpp:165] Memory required for data: 7212499072
I0305 13:43:26.304143 10100 layer_factory.hpp:77] Creating layer res5b_branch2a
I0305 13:43:26.304152 10100 net.cpp:100] Creating Layer res5b_branch2a
I0305 13:43:26.304157 10100 net.cpp:434] res5b_branch2a <- res5a_res5a_relu_0_split_0
I0305 13:43:26.304162 10100 net.cpp:408] res5b_branch2a -> res5b_branch2a
I0305 13:43:26.306161 10100 net.cpp:150] Setting up res5b_branch2a
I0305 13:43:26.306180 10100 net.cpp:157] Top shape: 32 512 7 7 (802816)
I0305 13:43:26.306185 10100 net.cpp:165] Memory required for data: 7215710336
I0305 13:43:26.306191 10100 layer_factory.hpp:77] Creating layer bn5b_branch2a
I0305 13:43:26.306201 10100 net.cpp:100] Creating Layer bn5b_branch2a
I0305 13:43:26.306206 10100 net.cpp:434] bn5b_branch2a <- res5b_branch2a
I0305 13:43:26.306212 10100 net.cpp:395] bn5b_branch2a -> res5b_branch2a (in-place)
I0305 13:43:26.306396 10100 net.cpp:150] Setting up bn5b_branch2a
I0305 13:43:26.306403 10100 net.cpp:157] Top shape: 32 512 7 7 (802816)
I0305 13:43:26.306407 10100 net.cpp:165] Memory required for data: 7218921600
I0305 13:43:26.306416 10100 layer_factory.hpp:77] Creating layer scale5b_branch2a
I0305 13:43:26.306424 10100 net.cpp:100] Creating Layer scale5b_branch2a
I0305 13:43:26.306429 10100 net.cpp:434] scale5b_branch2a <- res5b_branch2a
I0305 13:43:26.306434 10100 net.cpp:395] scale5b_branch2a -> res5b_branch2a (in-place)
I0305 13:43:26.306478 10100 layer_factory.hpp:77] Creating layer scale5b_branch2a
I0305 13:43:26.306584 10100 net.cpp:150] Setting up scale5b_branch2a
I0305 13:43:26.306591 10100 net.cpp:157] Top shape: 32 512 7 7 (802816)
I0305 13:43:26.306596 10100 net.cpp:165] Memory required for data: 7222132864
I0305 13:43:26.306602 10100 layer_factory.hpp:77] Creating layer res5b_branch2a_relu
I0305 13:43:26.306609 10100 net.cpp:100] Creating Layer res5b_branch2a_relu
I0305 13:43:26.306614 10100 net.cpp:434] res5b_branch2a_relu <- res5b_branch2a
I0305 13:43:26.306619 10100 net.cpp:395] res5b_branch2a_relu -> res5b_branch2a (in-place)
I0305 13:43:26.306751 10100 net.cpp:150] Setting up res5b_branch2a_relu
I0305 13:43:26.306759 10100 net.cpp:157] Top shape: 32 512 7 7 (802816)
I0305 13:43:26.306762 10100 net.cpp:165] Memory required for data: 7225344128
I0305 13:43:26.306766 10100 layer_factory.hpp:77] Creating layer res5b_branch2b
I0305 13:43:26.306777 10100 net.cpp:100] Creating Layer res5b_branch2b
I0305 13:43:26.306782 10100 net.cpp:434] res5b_branch2b <- res5b_branch2a
I0305 13:43:26.306788 10100 net.cpp:408] res5b_branch2b -> res5b_branch2b
I0305 13:43:26.310883 10100 net.cpp:150] Setting up res5b_branch2b
I0305 13:43:26.310912 10100 net.cpp:157] Top shape: 32 512 7 7 (802816)
I0305 13:43:26.310917 10100 net.cpp:165] Memory required for data: 7228555392
I0305 13:43:26.310925 10100 layer_factory.hpp:77] Creating layer bn5b_branch2b
I0305 13:43:26.310940 10100 net.cpp:100] Creating Layer bn5b_branch2b
I0305 13:43:26.310945 10100 net.cpp:434] bn5b_branch2b <- res5b_branch2b
I0305 13:43:26.310953 10100 net.cpp:395] bn5b_branch2b -> res5b_branch2b (in-place)
I0305 13:43:26.311161 10100 net.cpp:150] Setting up bn5b_branch2b
I0305 13:43:26.311169 10100 net.cpp:157] Top shape: 32 512 7 7 (802816)
I0305 13:43:26.311172 10100 net.cpp:165] Memory required for data: 7231766656
I0305 13:43:26.311182 10100 layer_factory.hpp:77] Creating layer scale5b_branch2b
I0305 13:43:26.311190 10100 net.cpp:100] Creating Layer scale5b_branch2b
I0305 13:43:26.311194 10100 net.cpp:434] scale5b_branch2b <- res5b_branch2b
I0305 13:43:26.311202 10100 net.cpp:395] scale5b_branch2b -> res5b_branch2b (in-place)
I0305 13:43:26.311247 10100 layer_factory.hpp:77] Creating layer scale5b_branch2b
I0305 13:43:26.311367 10100 net.cpp:150] Setting up scale5b_branch2b
I0305 13:43:26.311375 10100 net.cpp:157] Top shape: 32 512 7 7 (802816)
I0305 13:43:26.311378 10100 net.cpp:165] Memory required for data: 7234977920
I0305 13:43:26.311386 10100 layer_factory.hpp:77] Creating layer res5b_branch2b_relu
I0305 13:43:26.311393 10100 net.cpp:100] Creating Layer res5b_branch2b_relu
I0305 13:43:26.311398 10100 net.cpp:434] res5b_branch2b_relu <- res5b_branch2b
I0305 13:43:26.311403 10100 net.cpp:395] res5b_branch2b_relu -> res5b_branch2b (in-place)
I0305 13:43:26.311652 10100 net.cpp:150] Setting up res5b_branch2b_relu
I0305 13:43:26.311661 10100 net.cpp:157] Top shape: 32 512 7 7 (802816)
I0305 13:43:26.311666 10100 net.cpp:165] Memory required for data: 7238189184
I0305 13:43:26.311669 10100 layer_factory.hpp:77] Creating layer res5b_branch2c
I0305 13:43:26.311681 10100 net.cpp:100] Creating Layer res5b_branch2c
I0305 13:43:26.311686 10100 net.cpp:434] res5b_branch2c <- res5b_branch2b
I0305 13:43:26.311691 10100 net.cpp:408] res5b_branch2c -> res5b_branch2c
I0305 13:43:26.313648 10100 net.cpp:150] Setting up res5b_branch2c
I0305 13:43:26.313659 10100 net.cpp:157] Top shape: 32 2048 7 7 (3211264)
I0305 13:43:26.313663 10100 net.cpp:165] Memory required for data: 7251034240
I0305 13:43:26.313669 10100 layer_factory.hpp:77] Creating layer bn5b_branch2c
I0305 13:43:26.313678 10100 net.cpp:100] Creating Layer bn5b_branch2c
I0305 13:43:26.313683 10100 net.cpp:434] bn5b_branch2c <- res5b_branch2c
I0305 13:43:26.313689 10100 net.cpp:395] bn5b_branch2c -> res5b_branch2c (in-place)
I0305 13:43:26.313884 10100 net.cpp:150] Setting up bn5b_branch2c
I0305 13:43:26.313891 10100 net.cpp:157] Top shape: 32 2048 7 7 (3211264)
I0305 13:43:26.313894 10100 net.cpp:165] Memory required for data: 7263879296
I0305 13:43:26.313913 10100 layer_factory.hpp:77] Creating layer scale5b_branch2c
I0305 13:43:26.313920 10100 net.cpp:100] Creating Layer scale5b_branch2c
I0305 13:43:26.313927 10100 net.cpp:434] scale5b_branch2c <- res5b_branch2c
I0305 13:43:26.313935 10100 net.cpp:395] scale5b_branch2c -> res5b_branch2c (in-place)
I0305 13:43:26.313987 10100 layer_factory.hpp:77] Creating layer scale5b_branch2c
I0305 13:43:26.314126 10100 net.cpp:150] Setting up scale5b_branch2c
I0305 13:43:26.314134 10100 net.cpp:157] Top shape: 32 2048 7 7 (3211264)
I0305 13:43:26.314138 10100 net.cpp:165] Memory required for data: 7276724352
I0305 13:43:26.314155 10100 layer_factory.hpp:77] Creating layer res5b
I0305 13:43:26.314162 10100 net.cpp:100] Creating Layer res5b
I0305 13:43:26.314168 10100 net.cpp:434] res5b <- res5a_res5a_relu_0_split_1
I0305 13:43:26.314173 10100 net.cpp:434] res5b <- res5b_branch2c
I0305 13:43:26.314179 10100 net.cpp:408] res5b -> res5b
I0305 13:43:26.314218 10100 net.cpp:150] Setting up res5b
I0305 13:43:26.314234 10100 net.cpp:157] Top shape: 32 2048 7 7 (3211264)
I0305 13:43:26.314237 10100 net.cpp:165] Memory required for data: 7289569408
I0305 13:43:26.314250 10100 layer_factory.hpp:77] Creating layer res5b_relu
I0305 13:43:26.314256 10100 net.cpp:100] Creating Layer res5b_relu
I0305 13:43:26.314270 10100 net.cpp:434] res5b_relu <- res5b
I0305 13:43:26.314290 10100 net.cpp:395] res5b_relu -> res5b (in-place)
I0305 13:43:26.314532 10100 net.cpp:150] Setting up res5b_relu
I0305 13:43:26.314540 10100 net.cpp:157] Top shape: 32 2048 7 7 (3211264)
I0305 13:43:26.314544 10100 net.cpp:165] Memory required for data: 7302414464
I0305 13:43:26.314558 10100 layer_factory.hpp:77] Creating layer res5b_res5b_relu_0_split
I0305 13:43:26.314564 10100 net.cpp:100] Creating Layer res5b_res5b_relu_0_split
I0305 13:43:26.314568 10100 net.cpp:434] res5b_res5b_relu_0_split <- res5b
I0305 13:43:26.314576 10100 net.cpp:408] res5b_res5b_relu_0_split -> res5b_res5b_relu_0_split_0
I0305 13:43:26.314584 10100 net.cpp:408] res5b_res5b_relu_0_split -> res5b_res5b_relu_0_split_1
I0305 13:43:26.314636 10100 net.cpp:150] Setting up res5b_res5b_relu_0_split
I0305 13:43:26.314643 10100 net.cpp:157] Top shape: 32 2048 7 7 (3211264)
I0305 13:43:26.314647 10100 net.cpp:157] Top shape: 32 2048 7 7 (3211264)
I0305 13:43:26.314661 10100 net.cpp:165] Memory required for data: 7328104576
I0305 13:43:26.314664 10100 layer_factory.hpp:77] Creating layer res5c_branch2a
I0305 13:43:26.314674 10100 net.cpp:100] Creating Layer res5c_branch2a
I0305 13:43:26.314689 10100 net.cpp:434] res5c_branch2a <- res5b_res5b_relu_0_split_0
I0305 13:43:26.314694 10100 net.cpp:408] res5c_branch2a -> res5c_branch2a
I0305 13:43:26.316766 10100 net.cpp:150] Setting up res5c_branch2a
I0305 13:43:26.316786 10100 net.cpp:157] Top shape: 32 512 7 7 (802816)
I0305 13:43:26.316789 10100 net.cpp:165] Memory required for data: 7331315840
I0305 13:43:26.316795 10100 layer_factory.hpp:77] Creating layer bn5c_branch2a
I0305 13:43:26.316807 10100 net.cpp:100] Creating Layer bn5c_branch2a
I0305 13:43:26.316812 10100 net.cpp:434] bn5c_branch2a <- res5c_branch2a
I0305 13:43:26.316817 10100 net.cpp:395] bn5c_branch2a -> res5c_branch2a (in-place)
I0305 13:43:26.317010 10100 net.cpp:150] Setting up bn5c_branch2a
I0305 13:43:26.317018 10100 net.cpp:157] Top shape: 32 512 7 7 (802816)
I0305 13:43:26.317021 10100 net.cpp:165] Memory required for data: 7334527104
I0305 13:43:26.317039 10100 layer_factory.hpp:77] Creating layer scale5c_branch2a
I0305 13:43:26.317054 10100 net.cpp:100] Creating Layer scale5c_branch2a
I0305 13:43:26.317059 10100 net.cpp:434] scale5c_branch2a <- res5c_branch2a
I0305 13:43:26.317073 10100 net.cpp:395] scale5c_branch2a -> res5c_branch2a (in-place)
I0305 13:43:26.317137 10100 layer_factory.hpp:77] Creating layer scale5c_branch2a
I0305 13:43:26.317263 10100 net.cpp:150] Setting up scale5c_branch2a
I0305 13:43:26.317270 10100 net.cpp:157] Top shape: 32 512 7 7 (802816)
I0305 13:43:26.317275 10100 net.cpp:165] Memory required for data: 7337738368
I0305 13:43:26.317291 10100 layer_factory.hpp:77] Creating layer res5c_branch2a_relu
I0305 13:43:26.317302 10100 net.cpp:100] Creating Layer res5c_branch2a_relu
I0305 13:43:26.317307 10100 net.cpp:434] res5c_branch2a_relu <- res5c_branch2a
I0305 13:43:26.317313 10100 net.cpp:395] res5c_branch2a_relu -> res5c_branch2a (in-place)
I0305 13:43:26.317452 10100 net.cpp:150] Setting up res5c_branch2a_relu
I0305 13:43:26.317459 10100 net.cpp:157] Top shape: 32 512 7 7 (802816)
I0305 13:43:26.317463 10100 net.cpp:165] Memory required for data: 7340949632
I0305 13:43:26.317477 10100 layer_factory.hpp:77] Creating layer res5c_branch2b
I0305 13:43:26.317487 10100 net.cpp:100] Creating Layer res5c_branch2b
I0305 13:43:26.317492 10100 net.cpp:434] res5c_branch2b <- res5c_branch2a
I0305 13:43:26.317498 10100 net.cpp:408] res5c_branch2b -> res5c_branch2b
I0305 13:43:26.321540 10100 net.cpp:150] Setting up res5c_branch2b
I0305 13:43:26.321568 10100 net.cpp:157] Top shape: 32 512 7 7 (802816)
I0305 13:43:26.321573 10100 net.cpp:165] Memory required for data: 7344160896
I0305 13:43:26.321581 10100 layer_factory.hpp:77] Creating layer bn5c_branch2b
I0305 13:43:26.321594 10100 net.cpp:100] Creating Layer bn5c_branch2b
I0305 13:43:26.321600 10100 net.cpp:434] bn5c_branch2b <- res5c_branch2b
I0305 13:43:26.321607 10100 net.cpp:395] bn5c_branch2b -> res5c_branch2b (in-place)
I0305 13:43:26.321807 10100 net.cpp:150] Setting up bn5c_branch2b
I0305 13:43:26.321815 10100 net.cpp:157] Top shape: 32 512 7 7 (802816)
I0305 13:43:26.321818 10100 net.cpp:165] Memory required for data: 7347372160
I0305 13:43:26.321826 10100 layer_factory.hpp:77] Creating layer scale5c_branch2b
I0305 13:43:26.321835 10100 net.cpp:100] Creating Layer scale5c_branch2b
I0305 13:43:26.321840 10100 net.cpp:434] scale5c_branch2b <- res5c_branch2b
I0305 13:43:26.321846 10100 net.cpp:395] scale5c_branch2b -> res5c_branch2b (in-place)
I0305 13:43:26.321902 10100 layer_factory.hpp:77] Creating layer scale5c_branch2b
I0305 13:43:26.322013 10100 net.cpp:150] Setting up scale5c_branch2b
I0305 13:43:26.322021 10100 net.cpp:157] Top shape: 32 512 7 7 (802816)
I0305 13:43:26.322024 10100 net.cpp:165] Memory required for data: 7350583424
I0305 13:43:26.322031 10100 layer_factory.hpp:77] Creating layer res5c_branch2b_relu
I0305 13:43:26.322038 10100 net.cpp:100] Creating Layer res5c_branch2b_relu
I0305 13:43:26.322044 10100 net.cpp:434] res5c_branch2b_relu <- res5c_branch2b
I0305 13:43:26.322049 10100 net.cpp:395] res5c_branch2b_relu -> res5c_branch2b (in-place)
I0305 13:43:26.322286 10100 net.cpp:150] Setting up res5c_branch2b_relu
I0305 13:43:26.322296 10100 net.cpp:157] Top shape: 32 512 7 7 (802816)
I0305 13:43:26.322300 10100 net.cpp:165] Memory required for data: 7353794688
I0305 13:43:26.322304 10100 layer_factory.hpp:77] Creating layer res5c_branch2c
I0305 13:43:26.322315 10100 net.cpp:100] Creating Layer res5c_branch2c
I0305 13:43:26.322321 10100 net.cpp:434] res5c_branch2c <- res5c_branch2b
I0305 13:43:26.322327 10100 net.cpp:408] res5c_branch2c -> res5c_branch2c
I0305 13:43:26.324311 10100 net.cpp:150] Setting up res5c_branch2c
I0305 13:43:26.324322 10100 net.cpp:157] Top shape: 32 2048 7 7 (3211264)
I0305 13:43:26.324326 10100 net.cpp:165] Memory required for data: 7366639744
I0305 13:43:26.324333 10100 layer_factory.hpp:77] Creating layer bn5c_branch2c
I0305 13:43:26.324343 10100 net.cpp:100] Creating Layer bn5c_branch2c
I0305 13:43:26.324348 10100 net.cpp:434] bn5c_branch2c <- res5c_branch2c
I0305 13:43:26.324355 10100 net.cpp:395] bn5c_branch2c -> res5c_branch2c (in-place)
I0305 13:43:26.324553 10100 net.cpp:150] Setting up bn5c_branch2c
I0305 13:43:26.324560 10100 net.cpp:157] Top shape: 32 2048 7 7 (3211264)
I0305 13:43:26.324564 10100 net.cpp:165] Memory required for data: 7379484800
I0305 13:43:26.324573 10100 layer_factory.hpp:77] Creating layer scale5c_branch2c
I0305 13:43:26.324580 10100 net.cpp:100] Creating Layer scale5c_branch2c
I0305 13:43:26.324586 10100 net.cpp:434] scale5c_branch2c <- res5c_branch2c
I0305 13:43:26.324592 10100 net.cpp:395] scale5c_branch2c -> res5c_branch2c (in-place)
I0305 13:43:26.324640 10100 layer_factory.hpp:77] Creating layer scale5c_branch2c
I0305 13:43:26.324753 10100 net.cpp:150] Setting up scale5c_branch2c
I0305 13:43:26.324760 10100 net.cpp:157] Top shape: 32 2048 7 7 (3211264)
I0305 13:43:26.324764 10100 net.cpp:165] Memory required for data: 7392329856
I0305 13:43:26.324770 10100 layer_factory.hpp:77] Creating layer res5c
I0305 13:43:26.324777 10100 net.cpp:100] Creating Layer res5c
I0305 13:43:26.324781 10100 net.cpp:434] res5c <- res5b_res5b_relu_0_split_1
I0305 13:43:26.324786 10100 net.cpp:434] res5c <- res5c_branch2c
I0305 13:43:26.324793 10100 net.cpp:408] res5c -> res5c
I0305 13:43:26.324825 10100 net.cpp:150] Setting up res5c
I0305 13:43:26.324831 10100 net.cpp:157] Top shape: 32 2048 7 7 (3211264)
I0305 13:43:26.324834 10100 net.cpp:165] Memory required for data: 7405174912
I0305 13:43:26.324838 10100 layer_factory.hpp:77] Creating layer res5c_relu
I0305 13:43:26.324844 10100 net.cpp:100] Creating Layer res5c_relu
I0305 13:43:26.324854 10100 net.cpp:434] res5c_relu <- res5c
I0305 13:43:26.324859 10100 net.cpp:395] res5c_relu -> res5c (in-place)
I0305 13:43:26.325083 10100 net.cpp:150] Setting up res5c_relu
I0305 13:43:26.325093 10100 net.cpp:157] Top shape: 32 2048 7 7 (3211264)
I0305 13:43:26.325101 10100 net.cpp:165] Memory required for data: 7418019968
I0305 13:43:26.325105 10100 layer_factory.hpp:77] Creating layer pool5
I0305 13:43:26.325114 10100 net.cpp:100] Creating Layer pool5
I0305 13:43:26.325119 10100 net.cpp:434] pool5 <- res5c
I0305 13:43:26.325126 10100 net.cpp:408] pool5 -> pool5
I0305 13:43:26.325387 10100 net.cpp:150] Setting up pool5
I0305 13:43:26.325397 10100 net.cpp:157] Top shape: 32 2048 1 1 (65536)
I0305 13:43:26.325400 10100 net.cpp:165] Memory required for data: 7418282112
I0305 13:43:26.325404 10100 layer_factory.hpp:77] Creating layer drop5
I0305 13:43:26.325412 10100 net.cpp:100] Creating Layer drop5
I0305 13:43:26.325417 10100 net.cpp:434] drop5 <- pool5
I0305 13:43:26.325423 10100 net.cpp:395] drop5 -> pool5 (in-place)
I0305 13:43:26.325464 10100 net.cpp:150] Setting up drop5
I0305 13:43:26.325470 10100 net.cpp:157] Top shape: 32 2048 1 1 (65536)
I0305 13:43:26.325474 10100 net.cpp:165] Memory required for data: 7418544256
I0305 13:43:26.325486 10100 layer_factory.hpp:77] Creating layer fc8_
I0305 13:43:26.325497 10100 net.cpp:100] Creating Layer fc8_
I0305 13:43:26.325501 10100 net.cpp:434] fc8_ <- pool5
I0305 13:43:26.325508 10100 net.cpp:408] fc8_ -> fc8_
I0305 13:43:26.356508 10100 net.cpp:150] Setting up fc8_
I0305 13:43:26.356529 10100 net.cpp:157] Top shape: 32 730 (23360)
I0305 13:43:26.356534 10100 net.cpp:165] Memory required for data: 7418637696
I0305 13:43:26.356551 10100 layer_factory.hpp:77] Creating layer loss
I0305 13:43:26.356562 10100 net.cpp:100] Creating Layer loss
I0305 13:43:26.356569 10100 net.cpp:434] loss <- fc8_
I0305 13:43:26.356575 10100 net.cpp:434] loss <- label
I0305 13:43:26.356581 10100 net.cpp:408] loss -> loss
I0305 13:43:26.356597 10100 layer_factory.hpp:77] Creating layer loss
…
