…
I0305 19:53:15.743829 18660 net.cpp:58] Initializing net from parameters: 
name: "Res50-IDE"
state {
  phase: TRAIN
  level: 0
  stage: ""
}
layer {
  name: "data"
  type: "ImageData"
  top: "data"
  top: "label"
  include {
    phase: TRAIN
  }
  transform_param {
    mirror: true
    crop_size: 224
    mean_value: 104
    mean_value: 117
    mean_value: 124
  }
  image_data_param {
    source: "evaluation/data/CUHK03/train_cuhk03_labeled.txt"
    batch_size: 32
    shuffle: true
    new_height: 256
    new_width: 256
    is_color: true
    root_folder: "evaluation/data/CUHK03/"
  }
}
layer {
  name: "conv1"
  type: "Convolution"
  bottom: "data"
  top: "conv1"
  convolution_param {
    num_output: 64
    pad: 3
    kernel_size: 7
    stride: 2
  }
}
layer {
  name: "bn_conv1"
  type: "BatchNorm"
  bottom: "conv1"
  top: "conv1"
  batch_norm_param {
    use_global_stats: true
  }
}
layer {
  name: "scale_conv1"
  type: "Scale"
  bottom: "conv1"
  top: "conv1"
  scale_param {
    bias_term: true
  }
}
layer {
  name: "conv1_relu"
  type: "ReLU"
  bottom: "conv1"
  top: "conv1"
}
layer {
  name: "pool1"
  type: "Pooling"
  bottom: "conv1"
  top: "pool1"
  pooling_param {
    pool: MAX
    kernel_size: 3
    stride: 2
  }
}
layer {
  name: "res2a_branch1"
  type: "Convolution"
  bottom: "pool1"
  top: "res2a_branch1"
  convolution_param {
    num_output: 256
    bias_term: false
    pad: 0
    kernel_size: 1
    stride: 1
  }
}
layer {
  name: "bn2a_branch1"
  type: "BatchNorm"
  bottom: "res2a_branch1"
  top: "res2a_branch1"
  batch_norm_param {
    use_global_stats: true
  }
}
layer {
  name: "scale2a_branch1"
  type: "Scale"
  bottom: "res2a_branch1"
  top: "res2a_branch1"
  scale_param {
    bias_term: true
  }
}
layer {
  name: "res2a_branch2a"
  type: "Convolution"
  bottom: "pool1"
  top: "res2a_branch2a"
  convolution_param {
    num_output: 64
    bias_term: false
    pad: 0
    kernel_size: 1
    stride: 1
  }
}
layer {
  name: "bn2a_branch2a"
  type: "BatchNorm"
  bottom: "res2a_branch2a"
  top: "res2a_branch2a"
  batch_norm_param {
    use_global_stats: true
  }
}
layer {
  name: "scale2a_branch2a"
  type: "Scale"
  bottom: "res2a_branch2a"
  top: "res2a_branch2a"
  scale_param {
    bias_term: true
  }
}
layer {
  name: "res2a_branch2a_relu"
  type: "ReLU"
  bottom: "res2a_branch2a"
  top: "res2a_branch2a"
}
layer {
  name: "res2a_branch2b"
  type: "Convolution"
  bottom: "res2a_branch2a"
  top: "res2a_branch2b"
  convolution_param {
    num_output: 64
    bias_term: false
    pad: 1
    kernel_size: 3
    stride: 1
  }
}
layer {
  name: "bn2a_branch2b"
  type: "BatchNorm"
  bottom: "res2a_branch2b"
  top: "res2a_branch2b"
  batch_norm_param {
    use_global_stats: true
  }
}
layer {
  name: "scale2a_branch2b"
  type: "Scale"
  bottom: "res2a_branch2b"
  top: "res2a_branch2b"
  scale_param {
    bias_term: true
  }
}
layer {
  name: "res2a_branch2b_relu"
  type: "ReLU"
  bottom: "res2a_branch2b"
  top: "res2a_branch2b"
}
layer {
  name: "res2a_branch2c"
  type: "Convolution"
  bottom: "res2a_branch2b"
  top: "res2a_branch2c"
  convolution_param {
    num_output: 256
    bias_term: false
    pad: 0
    kernel_size: 1
    stride: 1
  }
}
layer {
  name: "bn2a_branch2c"
  type: "BatchNorm"
  bottom: "res2a_branch2c"
  top: "res2a_branch2c"
  batch_norm_param {
    use_global_stats: true
  }
}
layer {
  name: "scale2a_branch2c"
  type: "Scale"
  bottom: "res2a_branch2c"
  top: "res2a_branch2c"
  scale_param {
    bias_term: true
  }
}
layer {
  name: "res2a"
  type: "Eltwise"
  bottom: "res2a_branch1"
  bottom: "res2a_branch2c"
  top: "res2a"
}
layer {
  name: "res2a_relu"
  type: "ReLU"
  bottom: "res2a"
  top: "res2a"
}
layer {
  name: "res2b_branch2a"
  type: "Convolution"
  bottom: "res2a"
  top: "res2b_branch2a"
  convolution_param {
    num_output: 64
    bias_term: false
    pad: 0
    kernel_size: 1
    stride: 1
  }
}
layer {
  name: "bn2b_branch2a"
  type: "BatchNorm"
  bottom: "res2b_branch2a"
  top: "res2b_branch2a"
  batch_norm_param {
    use_global_stats: true
  }
}
layer {
  name: "scale2b_branch2a"
  type: "Scale"
  bottom: "res2b_branch2a"
  top: "res2b_branch2a"
  scale_param {
    bias_term: true
  }
}
layer {
  name: "res2b_branch2a_relu"
  type: "ReLU"
  bottom: "res2b_branch2a"
  top: "res2b_branch2a"
}
layer {
  name: "res2b_branch2b"
  type: "Convolution"
  bottom: "res2b_branch2a"
  top: "res2b_branch2b"
  convolution_param {
    num_output: 64
    bias_term: false
    pad: 1
    kernel_size: 3
    stride: 1
  }
}
layer {
  name: "bn2b_branch2b"
  type: "BatchNorm"
  bottom: "res2b_branch2b"
  top: "res2b_branch2b"
  batch_norm_param {
    use_global_stats: true
  }
}
layer {
  name: "scale2b_branch2b"
  type: "Scale"
  bottom: "res2b_branch2b"
  top: "res2b_branch2b"
  scale_param {
    bias_term: true
  }
}
layer {
  name: "res2b_branch2b_relu"
  type: "ReLU"
  bottom: "res2b_branch2b"
  top: "res2b_branch2b"
}
layer {
  name: "res2b_branch2c"
  type: "Convolution"
  bottom: "res2b_branch2b"
  top: "res2b_branch2c"
  convolution_param {
    num_output: 256
    bias_term: false
    pad: 0
    kernel_size: 1
    stride: 1
  }
}
layer {
  name: "bn2b_branch2c"
  type: "BatchNorm"
  bottom: "res2b_branch2c"
  top: "res2b_branch2c"
  batch_norm_param {
    use_global_stats: true
  }
}
layer {
  name: "scale2b_branch2c"
  type: "Scale"
  bottom: "res2b_branch2c"
  top: "res2b_branch2c"
  scale_param {
    bias_term: true
  }
}
layer {
  name: "res2b"
  type: "Eltwise"
  bottom: "res2a"
  bottom: "res2b_branch2c"
  top: "res2b"
}
layer {
  name: "res2b_relu"
  type: "ReLU"
  bottom: "res2b"
  top: "res2b"
}
layer {
  name: "res2c_branch2a"
  type: "Convolution"
  bottom: "res2b"
  top: "res2c_branch2a"
  convolution_param {
    num_output: 64
    bias_term: false
    pad: 0
    kernel_size: 1
    stride: 1
  }
}
layer {
  name: "bn2c_branch2a"
  type: "BatchNorm"
  bottom: "res2c_branch2a"
  top: "res2c_branch2a"
  batch_norm_param {
    use_global_stats: true
  }
}
layer {
  name: "scale2c_branch2a"
  type: "Scale"
  bottom: "res2c_branch2a"
  top: "res2c_branch2a"
  scale_param {
    bias_term: true
  }
}
layer {
  name: "res2c_branch2a_relu"
  type: "ReLU"
  bottom: "res2c_branch2a"
  top: "res2c_branch2a"
}
layer {
  name: "res2c_branch2b"
  type: "Convolution"
  bottom: "res2c_branch2a"
  top: "res2c_branch2b"
  convolution_param {
    num_output: 64
    bias_term: false
    pad: 1
    kernel_size: 3
    stride: 1
  }
}
layer {
  name: "bn2c_branch2b"
  type: "BatchNorm"
  bottom: "res2c_branch2b"
  top: "res2c_branch2b"
  batch_norm_param {
    use_global_stats: true
  }
}
layer {
  name: "scale2c_branch2b"
  type: "Scale"
  bottom: "res2c_branch2b"
  top: "res2c_branch2b"
  scale_param {
    bias_term: true
  }
}
layer {
  name: "res2c_branch2b_relu"
  type: "ReLU"
  bottom: "res2c_branch2b"
  top: "res2c_branch2b"
}
layer {
  name: "res2c_branch2c"
  type: "Convolution"
  bottom: "res2c_branch2b"
  top: "res2c_branch2c"
  convolution_param {
    num_output: 256
    bias_term: false
    pad: 0
    kernel_size: 1
    stride: 1
  }
}
layer {
  name: "bn2c_branch2c"
  type: "BatchNorm"
  bottom: "res2c_branch2c"
  top: "res2c_branch2c"
  batch_norm_param {
    use_global_stats: true
  }
}
layer {
  name: "scale2c_branch2c"
  type: "Scale"
  bottom: "res2c_branch2c"
  top: "res2c_branch2c"
  scale_param {
    bias_term: true
  }
}
layer {
  name: "res2c"
  type: "Eltwise"
  bottom: "res2b"
  bottom: "res2c_branch2c"
  top: "res2c"
}
layer {
  name: "res2c_relu"
  type: "ReLU"
  bottom: "res2c"
  top: "res2c"
}
layer {
  name: "res3a_branch1"
  type: "Convolution"
  bottom: "res2c"
  top: "res3a_branch1"
  convolution_param {
    num_output: 512
    bias_term: false
    pad: 0
    kernel_size: 1
    stride: 2
  }
}
layer {
  name: "bn3a_branch1"
  type: "BatchNorm"
  bottom: "res3a_branch1"
  top: "res3a_branch1"
  batch_norm_param {
    use_global_stats: true
  }
}
layer {
  name: "scale3a_branch1"
  type: "Scale"
  bottom: "res3a_branch1"
  top: "res3a_branch1"
  scale_param {
    bias_term: true
  }
}
layer {
  name: "res3a_branch2a"
  type: "Convolution"
  bottom: "res2c"
  top: "res3a_branch2a"
  convolution_param {
    num_output: 128
    bias_term: false
    pad: 0
    kernel_size: 1
    stride: 2
  }
}
layer {
  name: "bn3a_branch2a"
  type: "BatchNorm"
  bottom: "res3a_branch2a"
  top: "res3a_branch2a"
  batch_norm_param {
    use_global_stats: true
  }
}
layer {
  name: "scale3a_branch2a"
  type: "Scale"
  bottom: "res3a_branch2a"
  top: "res3a_branch2a"
  scale_param {
    bias_term: true
  }
}
layer {
  name: "res3a_branch2a_relu"
  type: "ReLU"
  bottom: "res3a_branch2a"
  top: "res3a_branch2a"
}
layer {
  name: "res3a_branch2b"
  type: "Convolution"
  bottom: "res3a_branch2a"
  top: "res3a_branch2b"
  convolution_param {
    num_output: 128
    bias_term: false
    pad: 1
    kernel_size: 3
    stride: 1
  }
}
layer {
  name: "bn3a_branch2b"
  type: "BatchNorm"
  bottom: "res3a_branch2b"
  top: "res3a_branch2b"
  batch_norm_param {
    use_global_stats: true
  }
}
layer {
  name: "scale3a_branch2b"
  type: "Scale"
  bottom: "res3a_branch2b"
  top: "res3a_branch2b"
  scale_param {
    bias_term: true
  }
}
layer {
  name: "res3a_branch2b_relu"
  type: "ReLU"
  bottom: "res3a_branch2b"
  top: "res3a_branch2b"
}
layer {
  name: "res3a_branch2c"
  type: "Convolution"
  bottom: "res3a_branch2b"
  top: "res3a_branch2c"
  convolution_param {
    num_output: 512
    bias_term: false
    pad: 0
    kernel_size: 1
    stride: 1
  }
}
layer {
  name: "bn3a_branch2c"
  type: "BatchNorm"
  bottom: "res3a_branch2c"
  top: "res3a_branch2c"
  batch_norm_param {
    use_global_stats: true
  }
}
layer {
  name: "scale3a_branch2c"
  type: "Scale"
  bottom: "res3a_branch2c"
  top: "res3a_branch2c"
  scale_param {
    bias_term: true
  }
}
layer {
  name: "res3a"
  type: "Eltwise"
  bottom: "res3a_branch1"
  bottom: "res3a_branch2c"
  top: "res3a"
}
layer {
  name: "res3a_relu"
  type: "ReLU"
  bottom: "res3a"
  top: "res3a"
}
layer {
  name: "res3b_branch2a"
  type: "Convolution"
  bottom: "res3a"
  top: "res3b_branch2a"
  convolution_param {
    num_output: 128
    bias_term: false
    pad: 0
    kernel_size: 1
    stride: 1
  }
}
layer {
  name: "bn3b_branch2a"
  type: "BatchNorm"
  bottom: "res3b_branch2a"
  top: "res3b_branch2a"
  batch_norm_param {
    use_global_stats: true
  }
}
layer {
  name: "scale3b_branch2a"
  type: "Scale"
  bottom: "res3b_branch2a"
  top: "res3b_branch2a"
  scale_param {
    bias_term: true
  }
}
layer {
  name: "res3b_branch2a_relu"
  type: "ReLU"
  bottom: "res3b_branch2a"
  top: "res3b_branch2a"
}
layer {
  name: "res3b_branch2b"
  type: "Convolution"
  bottom: "res3b_branch2a"
  top: "res3b_branch2b"
  convolution_param {
    num_output: 128
    bias_term: false
    pad: 1
    kernel_size: 3
    stride: 1
  }
}
layer {
  name: "bn3b_branch2b"
  type: "BatchNorm"
  bottom: "res3b_branch2b"
  top: "res3b_branch2b"
  batch_norm_param {
    use_global_stats: true
  }
}
layer {
  name: "scale3b_branch2b"
  type: "Scale"
  bottom: "res3b_branch2b"
  top: "res3b_branch2b"
  scale_param {
    bias_term: true
  }
}
layer {
  name: "res3b_branch2b_relu"
  type: "ReLU"
  bottom: "res3b_branch2b"
  top: "res3b_branch2b"
}
layer {
  name: "res3b_branch2c"
  type: "Convolution"
  bottom: "res3b_branch2b"
  top: "res3b_branch2c"
  convolution_param {
    num_output: 512
    bias_term: false
    pad: 0
    kernel_size: 1
    stride: 1
  }
}
layer {
  name: "bn3b_branch2c"
  type: "BatchNorm"
  bottom: "res3b_branch2c"
  top: "res3b_branch2c"
  batch_norm_param {
    use_global_stats: true
  }
}
layer {
  name: "scale3b_branch2c"
  type: "Scale"
  bottom: "res3b_branch2c"
  top: "res3b_branch2c"
  scale_param {
    bias_term: true
  }
}
layer {
  name: "res3b"
  type: "Eltwise"
  bottom: "res3a"
  bottom: "res3b_branch2c"
  top: "res3b"
}
layer {
  name: "res3b_relu"
  type: "ReLU"
  bottom: "res3b"
  top: "res3b"
}
layer {
  name: "res3c_branch2a"
  type: "Convolution"
  bottom: "res3b"
  top: "res3c_branch2a"
  convolution_param {
    num_output: 128
    bias_term: false
    pad: 0
    kernel_size: 1
    stride: 1
  }
}
layer {
  name: "bn3c_branch2a"
  type: "BatchNorm"
  bottom: "res3c_branch2a"
  top: "res3c_branch2a"
  batch_norm_param {
    use_global_stats: true
  }
}
layer {
  name: "scale3c_branch2a"
  type: "Scale"
  bottom: "res3c_branch2a"
  top: "res3c_branch2a"
  scale_param {
    bias_term: true
  }
}
layer {
  name: "res3c_branch2a_relu"
  type: "ReLU"
  bottom: "res3c_branch2a"
  top: "res3c_branch2a"
}
layer {
  name: "res3c_branch2b"
  type: "Convolution"
  bottom: "res3c_branch2a"
  top: "res3c_branch2b"
  convolution_param {
    num_output: 128
    bias_term: false
    pad: 1
    kernel_size: 3
    stride: 1
  }
}
layer {
  name: "bn3c_branch2b"
  type: "BatchNorm"
  bottom: "res3c_branch2b"
  top: "res3c_branch2b"
  batch_norm_param {
    use_global_stats: true
  }
}
layer {
  name: "scale3c_branch2b"
  type: "Scale"
  bottom: "res3c_branch2b"
  top: "res3c_branch2b"
  scale_param {
    bias_term: true
  }
}
layer {
  name: "res3c_branch2b_relu"
  type: "ReLU"
  bottom: "res3c_branch2b"
  top: "res3c_branch2b"
}
layer {
  name: "res3c_branch2c"
  type: "Convolution"
  bottom: "res3c_branch2b"
  top: "res3c_branch2c"
  convolution_param {
    num_output: 512
    bias_term: false
    pad: 0
    kernel_size: 1
    stride: 1
  }
}
layer {
  name: "bn3c_branch2c"
  type: "BatchNorm"
  bottom: "res3c_branch2c"
  top: "res3c_branch2c"
  batch_norm_param {
    use_global_stats: true
  }
}
layer {
  name: "scale3c_branch2c"
  type: "Scale"
  bottom: "res3c_branch2c"
  top: "res3c_branch2c"
  scale_param {
    bias_term: true
  }
}
layer {
  name: "res3c"
  type: "Eltwise"
  bottom: "res3b"
  bottom: "res3c_branch2c"
  top: "res3c"
}
layer {
  name: "res3c_relu"
  type: "ReLU"
  bottom: "res3c"
  top: "res3c"
}
layer {
  name: "res3d_branch2a"
  type: "Convolution"
  bottom: "res3c"
  top: "res3d_branch2a"
  convolution_param {
    num_output: 128
    bias_term: false
    pad: 0
    kernel_size: 1
    stride: 1
  }
}
layer {
  name: "bn3d_branch2a"
  type: "BatchNorm"
  bottom: "res3d_branch2a"
  top: "res3d_branch2a"
  batch_norm_param {
    use_global_stats: true
  }
}
layer {
  name: "scale3d_branch2a"
  type: "Scale"
  bottom: "res3d_branch2a"
  top: "res3d_branch2a"
  scale_param {
    bias_term: true
  }
}
layer {
  name: "res3d_branch2a_relu"
  type: "ReLU"
  bottom: "res3d_branch2a"
  top: "res3d_branch2a"
}
layer {
  name: "res3d_branch2b"
  type: "Convolution"
  bottom: "res3d_branch2a"
  top: "res3d_branch2b"
  convolution_param {
    num_output: 128
    bias_term: false
    pad: 1
    kernel_size: 3
    stride: 1
  }
}
layer {
  name: "bn3d_branch2b"
  type: "BatchNorm"
  bottom: "res3d_branch2b"
  top: "res3d_branch2b"
  batch_norm_param {
    use_global_stats: true
  }
}
layer {
  name: "scale3d_branch2b"
  type: "Scale"
  bottom: "res3d_branch2b"
  top: "res3d_branch2b"
  scale_param {
    bias_term: true
  }
}
layer {
  name: "res3d_branch2b_relu"
  type: "ReLU"
  bottom: "res3d_branch2b"
  top: "res3d_branch2b"
}
layer {
  name: "res3d_branch2c"
  type: "Convolution"
  bottom: "res3d_branch2b"
  top: "res3d_branch2c"
  convolution_param {
    num_output: 512
    bias_term: false
    pad: 0
    kernel_size: 1
    stride: 1
  }
}
layer {
  name: "bn3d_branch2c"
  type: "BatchNorm"
  bottom: "res3d_branch2c"
  top: "res3d_branch2c"
  batch_norm_param {
    use_global_stats: true
  }
}
layer {
  name: "scale3d_branch2c"
  type: "Scale"
  bottom: "res3d_branch2c"
  top: "res3d_branch2c"
  scale_param {
    bias_term: true
  }
}
layer {
  name: "res3d"
  type: "Eltwise"
  bottom: "res3c"
  bottom: "res3d_branch2c"
  top: "res3d"
}
layer {
  name: "res3d_relu"
  type: "ReLU"
  bottom: "res3d"
  top: "res3d"
}
layer {
  name: "res4a_branch1"
  type: "Convolution"
  bottom: "res3d"
  top: "res4a_branch1"
  convolution_param {
    num_output: 1024
    bias_term: false
    pad: 0
    kernel_size: 1
    stride: 2
  }
}
layer {
  name: "bn4a_branch1"
  type: "BatchNorm"
  bottom: "res4a_branch1"
  top: "res4a_branch1"
  batch_norm_param {
    use_global_stats: true
  }
}
layer {
  name: "scale4a_branch1"
  type: "Scale"
  bottom: "res4a_branch1"
  top: "res4a_branch1"
  scale_param {
    bias_term: true
  }
}
layer {
  name: "res4a_branch2a"
  type: "Convolution"
  bottom: "res3d"
  top: "res4a_branch2a"
  convolution_param {
    num_output: 256
    bias_term: false
    pad: 0
    kernel_size: 1
    stride: 2
  }
}
layer {
  name: "bn4a_branch2a"
  type: "BatchNorm"
  bottom: "res4a_branch2a"
  top: "res4a_branch2a"
  batch_norm_param {
    use_global_stats: true
  }
}
layer {
  name: "scale4a_branch2a"
  type: "Scale"
  bottom: "res4a_branch2a"
  top: "res4a_branch2a"
  scale_param {
    bias_term: true
  }
}
layer {
  name: "res4a_branch2a_relu"
  type: "ReLU"
  bottom: "res4a_branch2a"
  top: "res4a_branch2a"
}
layer {
  name: "res4a_branch2b"
  type: "Convolution"
  bottom: "res4a_branch2a"
  top: "res4a_branch2b"
  convolution_param {
    num_output: 256
    bias_term: false
    pad: 1
    kernel_size: 3
    stride: 1
  }
}
layer {
  name: "bn4a_branch2b"
  type: "BatchNorm"
  bottom: "res4a_branch2b"
  top: "res4a_branch2b"
  batch_norm_param {
    use_global_stats: true
  }
}
layer {
  name: "scale4a_branch2b"
  type: "Scale"
  bottom: "res4a_branch2b"
  top: "res4a_branch2b"
  scale_param {
    bias_term: true
  }
}
layer {
  name: "res4a_branch2b_relu"
  type: "ReLU"
  bottom: "res4a_branch2b"
  top: "res4a_branch2b"
}
layer {
  name: "res4a_branch2c"
  type: "Convolution"
  bottom: "res4a_branch2b"
  top: "res4a_branch2c"
  convolution_param {
    num_output: 1024
    bias_term: false
    pad: 0
    kernel_size: 1
    stride: 1
  }
}
layer {
  name: "bn4a_branch2c"
  type: "BatchNorm"
  bottom: "res4a_branch2c"
  top: "res4a_branch2c"
  batch_norm_param {
    use_global_stats: true
  }
}
layer {
  name: "scale4a_branch2c"
  type: "Scale"
  bottom: "res4a_branch2c"
  top: "res4a_branch2c"
  scale_param {
    bias_term: true
  }
}
layer {
  name: "res4a"
  type: "Eltwise"
  bottom: "res4a_branch1"
  bottom: "res4a_branch2c"
  top: "res4a"
}
layer {
  name: "res4a_relu"
  type: "ReLU"
  bottom: "res4a"
  top: "res4a"
}
layer {
  name: "res4b_branch2a"
  type: "Convolution"
  bottom: "res4a"
  top: "res4b_branch2a"
  convolution_param {
    num_output: 256
    bias_term: false
    pad: 0
    kernel_size: 1
    stride: 1
  }
}
layer {
  name: "bn4b_branch2a"
  type: "BatchNorm"
  bottom: "res4b_branch2a"
  top: "res4b_branch2a"
  batch_norm_param {
    use_global_stats: true
  }
}
layer {
  name: "scale4b_branch2a"
  type: "Scale"
  bottom: "res4b_branch2a"
  top: "res4b_branch2a"
  scale_param {
    bias_term: true
  }
}
layer {
  name: "res4b_branch2a_relu"
  type: "ReLU"
  bottom: "res4b_branch2a"
  top: "res4b_branch2a"
}
layer {
  name: "res4b_branch2b"
  type: "Convolution"
  bottom: "res4b_branch2a"
  top: "res4b_branch2b"
  convolution_param {
    num_output: 256
    bias_term: false
    pad: 1
    kernel_size: 3
    stride: 1
  }
}
layer {
  name: "bn4b_branch2b"
  type: "BatchNorm"
  bottom: "res4b_branch2b"
  top: "res4b_branch2b"
  batch_norm_param {
    use_global_stats: true
  }
}
layer {
  name: "scale4b_branch2b"
  type: "Scale"
  bottom: "res4b_branch2b"
  top: "res4b_branch2b"
  scale_param {
    bias_term: true
  }
}
layer {
  name: "res4b_branch2b_relu"
  type: "ReLU"
  bottom: "res4b_branch2b"
  top: "res4b_branch2b"
}
layer {
  name: "res4b_branch2c"
  type: "Convolution"
  bottom: "res4b_branch2b"
  top: "res4b_branch2c"
  convolution_param {
    num_output: 1024
    bias_term: false
    pad: 0
    kernel_size: 1
    stride: 1
  }
}
layer {
  name: "bn4b_branch2c"
  type: "BatchNorm"
  bottom: "res4b_branch2c"
  top: "res4b_branch2c"
  batch_norm_param {
    use_global_stats: true
  }
}
layer {
  name: "scale4b_branch2c"
  type: "Scale"
  bottom: "res4b_branch2c"
  top: "res4b_branch2c"
  scale_param {
    bias_term: true
  }
}
layer {
  name: "res4b"
  type: "Eltwise"
  bottom: "res4a"
  bottom: "res4b_branch2c"
  top: "res4b"
}
layer {
  name: "res4b_relu"
  type: "ReLU"
  bottom: "res4b"
  top: "res4b"
}
layer {
  name: "res4c_branch2a"
  type: "Convolution"
  bottom: "res4b"
  top: "res4c_branch2a"
  convolution_param {
    num_output: 256
    bias_term: false
    pad: 0
    kernel_size: 1
    stride: 1
  }
}
layer {
  name: "bn4c_branch2a"
  type: "BatchNorm"
  bottom: "res4c_branch2a"
  top: "res4c_branch2a"
  batch_norm_param {
    use_global_stats: true
  }
}
layer {
  name: "scale4c_branch2a"
  type: "Scale"
  bottom: "res4c_branch2a"
  top: "res4c_branch2a"
  scale_param {
    bias_term: true
  }
}
layer {
  name: "res4c_branch2a_relu"
  type: "ReLU"
  bottom: "res4c_branch2a"
  top: "res4c_branch2a"
}
layer {
  name: "res4c_branch2b"
  type: "Convolution"
  bottom: "res4c_branch2a"
  top: "res4c_branch2b"
  convolution_param {
    num_output: 256
    bias_term: false
    pad: 1
    kernel_size: 3
    stride: 1
  }
}
layer {
  name: "bn4c_branch2b"
  type: "BatchNorm"
  bottom: "res4c_branch2b"
  top: "res4c_branch2b"
  batch_norm_param {
    use_global_stats: true
  }
}
layer {
  name: "scale4c_branch2b"
  type: "Scale"
  bottom: "res4c_branch2b"
  top: "res4c_branch2b"
  scale_param {
    bias_term: true
  }
}
layer {
  name: "res4c_branch2b_relu"
  type: "ReLU"
  bottom: "res4c_branch2b"
  top: "res4c_branch2b"
}
layer {
  name: "res4c_branch2c"
  type: "Convolution"
  bottom: "res4c_branch2b"
  top: "res4c_branch2c"
  convolution_param {
    num_output: 1024
    bias_term: false
    pad: 0
    kernel_size: 1
    stride: 1
  }
}
layer {
  name: "bn4c_branch2c"
  type: "BatchNorm"
  bottom: "res4c_branch2c"
  top: "res4c_branch2c"
  batch_norm_param {
    use_global_stats: true
  }
}
layer {
  name: "scale4c_branch2c"
  type: "Scale"
  bottom: "res4c_branch2c"
  top: "res4c_branch2c"
  scale_param {
    bias_term: true
  }
}
layer {
  name: "res4c"
  type: "Eltwise"
  bottom: "res4b"
  bottom: "res4c_branch2c"
  top: "res4c"
}
layer {
  name: "res4c_relu"
  type: "ReLU"
  bottom: "res4c"
  top: "res4c"
}
layer {
  name: "res4d_branch2a"
  type: "Convolution"
  bottom: "res4c"
  top: "res4d_branch2a"
  convolution_param {
    num_output: 256
    bias_term: false
    pad: 0
    kernel_size: 1
    stride: 1
  }
}
layer {
  name: "bn4d_branch2a"
  type: "BatchNorm"
  bottom: "res4d_branch2a"
  top: "res4d_branch2a"
  batch_norm_param {
    use_global_stats: true
  }
}
layer {
  name: "scale4d_branch2a"
  type: "Scale"
  bottom: "res4d_branch2a"
  top: "res4d_branch2a"
  scale_param {
    bias_term: true
  }
}
layer {
  name: "res4d_branch2a_relu"
  type: "ReLU"
  bottom: "res4d_branch2a"
  top: "res4d_branch2a"
}
layer {
  name: "res4d_branch2b"
  type: "Convolution"
  bottom: "res4d_branch2a"
  top: "res4d_branch2b"
  convolution_param {
    num_output: 256
    bias_term: false
    pad: 1
    kernel_size: 3
    stride: 1
  }
}
layer {
  name: "bn4d_branch2b"
  type: "BatchNorm"
  bottom: "res4d_branch2b"
  top: "res4d_branch2b"
  batch_norm_param {
    use_global_stats: true
  }
}
layer {
  name: "scale4d_branch2b"
  type: "Scale"
  bottom: "res4d_branch2b"
  top: "res4d_branch2b"
  scale_param {
    bias_term: true
  }
}
layer {
  name: "res4d_branch2b_relu"
  type: "ReLU"
  bottom: "res4d_branch2b"
  top: "res4d_branch2b"
}
layer {
  name: "res4d_branch2c"
  type: "Convolution"
  bottom: "res4d_branch2b"
  top: "res4d_branch2c"
  convolution_param {
    num_output: 1024
    bias_term: false
    pad: 0
    kernel_size: 1
    stride: 1
  }
}
layer {
  name: "bn4d_branch2c"
  type: "BatchNorm"
  bottom: "res4d_branch2c"
  top: "res4d_branch2c"
  batch_norm_param {
    use_global_stats: true
  }
}
layer {
  name: "scale4d_branch2c"
  type: "Scale"
  bottom: "res4d_branch2c"
  top: "res4d_branch2c"
  scale_param {
    bias_term: true
  }
}
layer {
  name: "res4d"
  type: "Eltwise"
  bottom: "res4c"
  bottom: "res4d_branch2c"
  top: "res4d"
}
layer {
  name: "res4d_relu"
  type: "ReLU"
  bottom: "res4d"
  top: "res4d"
}
layer {
  name: "res4e_branch2a"
  type: "Convolution"
  bottom: "res4d"
  top: "res4e_branch2a"
  convolution_param {
    num_output: 256
    bias_term: false
    pad: 0
    kernel_size: 1
    stride: 1
  }
}
layer {
  name: "bn4e_branch2a"
  type: "BatchNorm"
  bottom: "res4e_branch2a"
  top: "res4e_branch2a"
  batch_norm_param {
    use_global_stats: true
  }
}
layer {
  name: "scale4e_branch2a"
  type: "Scale"
  bottom: "res4e_branch2a"
  top: "res4e_branch2a"
  scale_param {
    bias_term: true
  }
}
layer {
  name: "res4e_branch2a_relu"
  type: "ReLU"
  bottom: "res4e_branch2a"
  top: "res4e_branch2a"
}
layer {
  name: "res4e_branch2b"
  type: "Convolution"
  bottom: "res4e_branch2a"
  top: "res4e_branch2b"
  convolution_param {
    num_output: 256
    bias_term: false
    pad: 1
    kernel_size: 3
    stride: 1
  }
}
layer {
  name: "bn4e_branch2b"
  type: "BatchNorm"
  bottom: "res4e_branch2b"
  top: "res4e_branch2b"
  batch_norm_param {
    use_global_stats: true
  }
}
layer {
  name: "scale4e_branch2b"
  type: "Scale"
  bottom: "res4e_branch2b"
  top: "res4e_branch2b"
  scale_param {
    bias_term: true
  }
}
layer {
  name: "res4e_branch2b_relu"
  type: "ReLU"
  bottom: "res4e_branch2b"
  top: "res4e_branch2b"
}
layer {
  name: "res4e_branch2c"
  type: "Convolution"
  bottom: "res4e_branch2b"
  top: "res4e_branch2c"
  convolution_param {
    num_output: 1024
    bias_term: false
    pad: 0
    kernel_size: 1
    stride: 1
  }
}
layer {
  name: "bn4e_branch2c"
  type: "BatchNorm"
  bottom: "res4e_branch2c"
  top: "res4e_branch2c"
  batch_norm_param {
    use_global_stats: true
  }
}
layer {
  name: "scale4e_branch2c"
  type: "Scale"
  bottom: "res4e_branch2c"
  top: "res4e_branch2c"
  scale_param {
    bias_term: true
  }
}
layer {
  name: "res4e"
  type: "Eltwise"
  bottom: "res4d"
  bottom: "res4e_branch2c"
  top: "res4e"
}
layer {
  name: "res4e_relu"
  type: "ReLU"
  bottom: "res4e"
  top: "res4e"
}
layer {
  name: "res4f_branch2a"
  type: "Convolution"
  bottom: "res4e"
  top: "res4f_branch2a"
  convolution_param {
    num_output: 256
    bias_term: false
    pad: 0
    kernel_size: 1
    stride: 1
  }
}
layer {
  name: "bn4f_branch2a"
  type: "BatchNorm"
  bottom: "res4f_branch2a"
  top: "res4f_branch2a"
  batch_norm_param {
    use_global_stats: true
  }
}
layer {
  name: "scale4f_branch2a"
  type: "Scale"
  bottom: "res4f_branch2a"
  top: "res4f_branch2a"
  scale_param {
    bias_term: true
  }
}
layer {
  name: "res4f_branch2a_relu"
  type: "ReLU"
  bottom: "res4f_branch2a"
  top: "res4f_branch2a"
}
layer {
  name: "res4f_branch2b"
  type: "Convolution"
  bottom: "res4f_branch2a"
  top: "res4f_branch2b"
  convolution_param {
    num_output: 256
    bias_term: false
    pad: 1
    kernel_size: 3
    stride: 1
  }
}
layer {
  name: "bn4f_branch2b"
  type: "BatchNorm"
  bottom: "res4f_branch2b"
  top: "res4f_branch2b"
  batch_norm_param {
    use_global_stats: true
  }
}
layer {
  name: "scale4f_branch2b"
  type: "Scale"
  bottom: "res4f_branch2b"
  top: "res4f_branch2b"
  scale_param {
    bias_term: true
  }
}
layer {
  name: "res4f_branch2b_relu"
  type: "ReLU"
  bottom: "res4f_branch2b"
  top: "res4f_branch2b"
}
layer {
  name: "res4f_branch2c"
  type: "Convolution"
  bottom: "res4f_branch2b"
  top: "res4f_branch2c"
  convolution_param {
    num_output: 1024
    bias_term: false
    pad: 0
    kernel_size: 1
    stride: 1
  }
}
layer {
  name: "bn4f_branch2c"
  type: "BatchNorm"
  bottom: "res4f_branch2c"
  top: "res4f_branch2c"
  batch_norm_param {
    use_global_stats: true
  }
}
layer {
  name: "scale4f_branch2c"
  type: "Scale"
  bottom: "res4f_branch2c"
  top: "res4f_branch2c"
  scale_param {
    bias_term: true
  }
}
layer {
  name: "res4f"
  type: "Eltwise"
  bottom: "res4e"
  bottom: "res4f_branch2c"
  top: "res4f"
}
layer {
  name: "res4f_relu"
  type: "ReLU"
  bottom: "res4f"
  top: "res4f"
}
layer {
  name: "res5a_branch1"
  type: "Convolution"
  bottom: "res4f"
  top: "res5a_branch1"
  convolution_param {
    num_output: 2048
    bias_term: false
    pad: 0
    kernel_size: 1
    stride: 2
  }
}
layer {
  name: "bn5a_branch1"
  type: "BatchNorm"
  bottom: "res5a_branch1"
  top: "res5a_branch1"
  batch_norm_param {
    use_global_stats: true
  }
}
layer {
  name: "scale5a_branch1"
  type: "Scale"
  bottom: "res5a_branch1"
  top: "res5a_branch1"
  scale_param {
    bias_term: true
  }
}
layer {
  name: "res5a_branch2a"
  type: "Convolution"
  bottom: "res4f"
  top: "res5a_branch2a"
  convolution_param {
    num_output: 512
    bias_term: false
    pad: 0
    kernel_size: 1
    stride: 2
  }
}
layer {
  name: "bn5a_branch2a"
  type: "BatchNorm"
  bottom: "res5a_branch2a"
  top: "res5a_branch2a"
  batch_norm_param {
    use_global_stats: true
  }
}
layer {
  name: "scale5a_branch2a"
  type: "Scale"
  bottom: "res5a_branch2a"
  top: "res5a_branch2a"
  scale_param {
    bias_term: true
  }
}
layer {
  name: "res5a_branch2a_relu"
  type: "ReLU"
  bottom: "res5a_branch2a"
  top: "res5a_branch2a"
}
layer {
  name: "res5a_branch2b"
  type: "Convolution"
  bottom: "res5a_branch2a"
  top: "res5a_branch2b"
  convolution_param {
    num_output: 512
    bias_term: false
    pad: 1
    kernel_size: 3
    stride: 1
  }
}
layer {
  name: "bn5a_branch2b"
  type: "BatchNorm"
  bottom: "res5a_branch2b"
  top: "res5a_branch2b"
  batch_norm_param {
    use_global_stats: true
  }
}
layer {
  name: "scale5a_branch2b"
  type: "Scale"
  bottom: "res5a_branch2b"
  top: "res5a_branch2b"
  scale_param {
    bias_term: true
  }
}
layer {
  name: "res5a_branch2b_relu"
  type: "ReLU"
  bottom: "res5a_branch2b"
  top: "res5a_branch2b"
}
layer {
  name: "res5a_branch2c"
  type: "Convolution"
  bottom: "res5a_branch2b"
  top: "res5a_branch2c"
  convolution_param {
    num_output: 2048
    bias_term: false
    pad
I0305 19:53:15.744448 18660 layer_factory.hpp:77] Creating layer data
I0305 19:53:15.744488 18660 net.cpp:100] Creating Layer data
I0305 19:53:15.744493 18660 net.cpp:408] data -> data
I0305 19:53:15.744510 18660 net.cpp:408] data -> label
I0305 19:53:15.744875 18660 image_data_layer.cpp:40] Opening file evaluation/data/CUHK03/train_cuhk03_labeled.txt
I0305 19:53:15.746139 18660 image_data_layer.cpp:55] Shuffling data
I0305 19:53:15.746935 18660 image_data_layer.cpp:60] A total of 7012 images.
I0305 19:53:15.757257 18660 image_data_layer.cpp:87] output data size: 32,3,224,224
I0305 19:53:15.777813 18660 net.cpp:150] Setting up data
I0305 19:53:15.777853 18660 net.cpp:157] Top shape: 32 3 224 224 (4816896)
I0305 19:53:15.777858 18660 net.cpp:157] Top shape: 32 (32)
I0305 19:53:15.777859 18660 net.cpp:165] Memory required for data: 19267712
I0305 19:53:15.777865 18660 layer_factory.hpp:77] Creating layer conv1
I0305 19:53:15.777891 18660 net.cpp:100] Creating Layer conv1
I0305 19:53:15.777905 18660 net.cpp:434] conv1 <- data
I0305 19:53:15.777914 18660 net.cpp:408] conv1 -> conv1
I0305 19:53:15.902915 18660 net.cpp:150] Setting up conv1
I0305 19:53:15.902945 18660 net.cpp:157] Top shape: 32 64 112 112 (25690112)
I0305 19:53:15.902950 18660 net.cpp:165] Memory required for data: 122028160
I0305 19:53:15.902962 18660 layer_factory.hpp:77] Creating layer bn_conv1
I0305 19:53:15.902973 18660 net.cpp:100] Creating Layer bn_conv1
I0305 19:53:15.902976 18660 net.cpp:434] bn_conv1 <- conv1
I0305 19:53:15.902979 18660 net.cpp:395] bn_conv1 -> conv1 (in-place)
I0305 19:53:15.903107 18660 net.cpp:150] Setting up bn_conv1
I0305 19:53:15.903113 18660 net.cpp:157] Top shape: 32 64 112 112 (25690112)
I0305 19:53:15.903125 18660 net.cpp:165] Memory required for data: 224788608
I0305 19:53:15.903131 18660 layer_factory.hpp:77] Creating layer scale_conv1
I0305 19:53:15.903137 18660 net.cpp:100] Creating Layer scale_conv1
I0305 19:53:15.903141 18660 net.cpp:434] scale_conv1 <- conv1
I0305 19:53:15.903143 18660 net.cpp:395] scale_conv1 -> conv1 (in-place)
I0305 19:53:15.903168 18660 layer_factory.hpp:77] Creating layer scale_conv1
I0305 19:53:15.903292 18660 net.cpp:150] Setting up scale_conv1
I0305 19:53:15.903297 18660 net.cpp:157] Top shape: 32 64 112 112 (25690112)
I0305 19:53:15.903300 18660 net.cpp:165] Memory required for data: 327549056
I0305 19:53:15.903314 18660 layer_factory.hpp:77] Creating layer conv1_relu
I0305 19:53:15.903329 18660 net.cpp:100] Creating Layer conv1_relu
I0305 19:53:15.903331 18660 net.cpp:434] conv1_relu <- conv1
I0305 19:53:15.903334 18660 net.cpp:395] conv1_relu -> conv1 (in-place)
I0305 19:53:15.903542 18660 net.cpp:150] Setting up conv1_relu
I0305 19:53:15.903561 18660 net.cpp:157] Top shape: 32 64 112 112 (25690112)
I0305 19:53:15.903563 18660 net.cpp:165] Memory required for data: 430309504
I0305 19:53:15.903566 18660 layer_factory.hpp:77] Creating layer pool1
I0305 19:53:15.903573 18660 net.cpp:100] Creating Layer pool1
I0305 19:53:15.903575 18660 net.cpp:434] pool1 <- conv1
I0305 19:53:15.903578 18660 net.cpp:408] pool1 -> pool1
I0305 19:53:15.903610 18660 net.cpp:150] Setting up pool1
I0305 19:53:15.903615 18660 net.cpp:157] Top shape: 32 64 56 56 (6422528)
I0305 19:53:15.903617 18660 net.cpp:165] Memory required for data: 455999616
I0305 19:53:15.903620 18660 layer_factory.hpp:77] Creating layer pool1_pool1_0_split
I0305 19:53:15.903625 18660 net.cpp:100] Creating Layer pool1_pool1_0_split
I0305 19:53:15.903627 18660 net.cpp:434] pool1_pool1_0_split <- pool1
I0305 19:53:15.903630 18660 net.cpp:408] pool1_pool1_0_split -> pool1_pool1_0_split_0
I0305 19:53:15.903635 18660 net.cpp:408] pool1_pool1_0_split -> pool1_pool1_0_split_1
I0305 19:53:15.903654 18660 net.cpp:150] Setting up pool1_pool1_0_split
I0305 19:53:15.903659 18660 net.cpp:157] Top shape: 32 64 56 56 (6422528)
I0305 19:53:15.903661 18660 net.cpp:157] Top shape: 32 64 56 56 (6422528)
I0305 19:53:15.903663 18660 net.cpp:165] Memory required for data: 507379840
I0305 19:53:15.903666 18660 layer_factory.hpp:77] Creating layer res2a_branch1
I0305 19:53:15.903671 18660 net.cpp:100] Creating Layer res2a_branch1
I0305 19:53:15.903673 18660 net.cpp:434] res2a_branch1 <- pool1_pool1_0_split_0
I0305 19:53:15.903676 18660 net.cpp:408] res2a_branch1 -> res2a_branch1
I0305 19:53:15.904382 18660 net.cpp:150] Setting up res2a_branch1
I0305 19:53:15.904400 18660 net.cpp:157] Top shape: 32 256 56 56 (25690112)
I0305 19:53:15.904402 18660 net.cpp:165] Memory required for data: 610140288
I0305 19:53:15.904407 18660 layer_factory.hpp:77] Creating layer bn2a_branch1
I0305 19:53:15.904422 18660 net.cpp:100] Creating Layer bn2a_branch1
I0305 19:53:15.904424 18660 net.cpp:434] bn2a_branch1 <- res2a_branch1
I0305 19:53:15.904428 18660 net.cpp:395] bn2a_branch1 -> res2a_branch1 (in-place)
I0305 19:53:15.904808 18660 net.cpp:150] Setting up bn2a_branch1
I0305 19:53:15.904816 18660 net.cpp:157] Top shape: 32 256 56 56 (25690112)
I0305 19:53:15.904829 18660 net.cpp:165] Memory required for data: 712900736
I0305 19:53:15.904836 18660 layer_factory.hpp:77] Creating layer scale2a_branch1
I0305 19:53:15.904840 18660 net.cpp:100] Creating Layer scale2a_branch1
I0305 19:53:15.904842 18660 net.cpp:434] scale2a_branch1 <- res2a_branch1
I0305 19:53:15.904845 18660 net.cpp:395] scale2a_branch1 -> res2a_branch1 (in-place)
I0305 19:53:15.904870 18660 layer_factory.hpp:77] Creating layer scale2a_branch1
I0305 19:53:15.904942 18660 net.cpp:150] Setting up scale2a_branch1
I0305 19:53:15.904947 18660 net.cpp:157] Top shape: 32 256 56 56 (25690112)
I0305 19:53:15.904958 18660 net.cpp:165] Memory required for data: 815661184
I0305 19:53:15.904963 18660 layer_factory.hpp:77] Creating layer res2a_branch2a
I0305 19:53:15.904968 18660 net.cpp:100] Creating Layer res2a_branch2a
I0305 19:53:15.904970 18660 net.cpp:434] res2a_branch2a <- pool1_pool1_0_split_1
I0305 19:53:15.904973 18660 net.cpp:408] res2a_branch2a -> res2a_branch2a
I0305 19:53:15.905522 18660 net.cpp:150] Setting up res2a_branch2a
I0305 19:53:15.905530 18660 net.cpp:157] Top shape: 32 64 56 56 (6422528)
I0305 19:53:15.905544 18660 net.cpp:165] Memory required for data: 841351296
I0305 19:53:15.905546 18660 layer_factory.hpp:77] Creating layer bn2a_branch2a
I0305 19:53:15.905550 18660 net.cpp:100] Creating Layer bn2a_branch2a
I0305 19:53:15.905553 18660 net.cpp:434] bn2a_branch2a <- res2a_branch2a
I0305 19:53:15.905557 18660 net.cpp:395] bn2a_branch2a -> res2a_branch2a (in-place)
I0305 19:53:15.905717 18660 net.cpp:150] Setting up bn2a_branch2a
I0305 19:53:15.905721 18660 net.cpp:157] Top shape: 32 64 56 56 (6422528)
I0305 19:53:15.905733 18660 net.cpp:165] Memory required for data: 867041408
I0305 19:53:15.905740 18660 layer_factory.hpp:77] Creating layer scale2a_branch2a
I0305 19:53:15.905745 18660 net.cpp:100] Creating Layer scale2a_branch2a
I0305 19:53:15.905746 18660 net.cpp:434] scale2a_branch2a <- res2a_branch2a
I0305 19:53:15.905751 18660 net.cpp:395] scale2a_branch2a -> res2a_branch2a (in-place)
I0305 19:53:15.905772 18660 layer_factory.hpp:77] Creating layer scale2a_branch2a
I0305 19:53:15.905848 18660 net.cpp:150] Setting up scale2a_branch2a
I0305 19:53:15.905853 18660 net.cpp:157] Top shape: 32 64 56 56 (6422528)
I0305 19:53:15.905864 18660 net.cpp:165] Memory required for data: 892731520
I0305 19:53:15.905867 18660 layer_factory.hpp:77] Creating layer res2a_branch2a_relu
I0305 19:53:15.905871 18660 net.cpp:100] Creating Layer res2a_branch2a_relu
I0305 19:53:15.905874 18660 net.cpp:434] res2a_branch2a_relu <- res2a_branch2a
I0305 19:53:15.905876 18660 net.cpp:395] res2a_branch2a_relu -> res2a_branch2a (in-place)
I0305 19:53:15.906075 18660 net.cpp:150] Setting up res2a_branch2a_relu
I0305 19:53:15.906082 18660 net.cpp:157] Top shape: 32 64 56 56 (6422528)
I0305 19:53:15.906095 18660 net.cpp:165] Memory required for data: 918421632
I0305 19:53:15.906096 18660 layer_factory.hpp:77] Creating layer res2a_branch2b
I0305 19:53:15.906101 18660 net.cpp:100] Creating Layer res2a_branch2b
I0305 19:53:15.906103 18660 net.cpp:434] res2a_branch2b <- res2a_branch2a
I0305 19:53:15.906107 18660 net.cpp:408] res2a_branch2b -> res2a_branch2b
I0305 19:53:15.907102 18660 net.cpp:150] Setting up res2a_branch2b
I0305 19:53:15.907111 18660 net.cpp:157] Top shape: 32 64 56 56 (6422528)
I0305 19:53:15.907124 18660 net.cpp:165] Memory required for data: 944111744
I0305 19:53:15.907127 18660 layer_factory.hpp:77] Creating layer bn2a_branch2b
I0305 19:53:15.907132 18660 net.cpp:100] Creating Layer bn2a_branch2b
I0305 19:53:15.907135 18660 net.cpp:434] bn2a_branch2b <- res2a_branch2b
I0305 19:53:15.907137 18660 net.cpp:395] bn2a_branch2b -> res2a_branch2b (in-place)
I0305 19:53:15.907272 18660 net.cpp:150] Setting up bn2a_branch2b
I0305 19:53:15.907279 18660 net.cpp:157] Top shape: 32 64 56 56 (6422528)
I0305 19:53:15.907290 18660 net.cpp:165] Memory required for data: 969801856
I0305 19:53:15.907295 18660 layer_factory.hpp:77] Creating layer scale2a_branch2b
I0305 19:53:15.907300 18660 net.cpp:100] Creating Layer scale2a_branch2b
I0305 19:53:15.907302 18660 net.cpp:434] scale2a_branch2b <- res2a_branch2b
I0305 19:53:15.907305 18660 net.cpp:395] scale2a_branch2b -> res2a_branch2b (in-place)
I0305 19:53:15.907330 18660 layer_factory.hpp:77] Creating layer scale2a_branch2b
I0305 19:53:15.907428 18660 net.cpp:150] Setting up scale2a_branch2b
I0305 19:53:15.907433 18660 net.cpp:157] Top shape: 32 64 56 56 (6422528)
I0305 19:53:15.907434 18660 net.cpp:165] Memory required for data: 995491968
I0305 19:53:15.907449 18660 layer_factory.hpp:77] Creating layer res2a_branch2b_relu
I0305 19:53:15.907452 18660 net.cpp:100] Creating Layer res2a_branch2b_relu
I0305 19:53:15.907454 18660 net.cpp:434] res2a_branch2b_relu <- res2a_branch2b
I0305 19:53:15.907456 18660 net.cpp:395] res2a_branch2b_relu -> res2a_branch2b (in-place)
I0305 19:53:15.907567 18660 net.cpp:150] Setting up res2a_branch2b_relu
I0305 19:53:15.907573 18660 net.cpp:157] Top shape: 32 64 56 56 (6422528)
I0305 19:53:15.907577 18660 net.cpp:165] Memory required for data: 1021182080
I0305 19:53:15.907578 18660 layer_factory.hpp:77] Creating layer res2a_branch2c
I0305 19:53:15.907582 18660 net.cpp:100] Creating Layer res2a_branch2c
I0305 19:53:15.907584 18660 net.cpp:434] res2a_branch2c <- res2a_branch2b
I0305 19:53:15.907598 18660 net.cpp:408] res2a_branch2c -> res2a_branch2c
I0305 19:53:15.908260 18660 net.cpp:150] Setting up res2a_branch2c
I0305 19:53:15.908269 18660 net.cpp:157] Top shape: 32 256 56 56 (25690112)
I0305 19:53:15.908282 18660 net.cpp:165] Memory required for data: 1123942528
I0305 19:53:15.908284 18660 layer_factory.hpp:77] Creating layer bn2a_branch2c
I0305 19:53:15.908289 18660 net.cpp:100] Creating Layer bn2a_branch2c
I0305 19:53:15.908293 18660 net.cpp:434] bn2a_branch2c <- res2a_branch2c
I0305 19:53:15.908296 18660 net.cpp:395] bn2a_branch2c -> res2a_branch2c (in-place)
I0305 19:53:15.908435 18660 net.cpp:150] Setting up bn2a_branch2c
I0305 19:53:15.908439 18660 net.cpp:157] Top shape: 32 256 56 56 (25690112)
I0305 19:53:15.908452 18660 net.cpp:165] Memory required for data: 1226702976
I0305 19:53:15.908455 18660 layer_factory.hpp:77] Creating layer scale2a_branch2c
I0305 19:53:15.908460 18660 net.cpp:100] Creating Layer scale2a_branch2c
I0305 19:53:15.908463 18660 net.cpp:434] scale2a_branch2c <- res2a_branch2c
I0305 19:53:15.908465 18660 net.cpp:395] scale2a_branch2c -> res2a_branch2c (in-place)
I0305 19:53:15.908489 18660 layer_factory.hpp:77] Creating layer scale2a_branch2c
I0305 19:53:15.908558 18660 net.cpp:150] Setting up scale2a_branch2c
I0305 19:53:15.908563 18660 net.cpp:157] Top shape: 32 256 56 56 (25690112)
I0305 19:53:15.908565 18660 net.cpp:165] Memory required for data: 1329463424
I0305 19:53:15.908568 18660 layer_factory.hpp:77] Creating layer res2a
I0305 19:53:15.908573 18660 net.cpp:100] Creating Layer res2a
I0305 19:53:15.908576 18660 net.cpp:434] res2a <- res2a_branch1
I0305 19:53:15.908578 18660 net.cpp:434] res2a <- res2a_branch2c
I0305 19:53:15.908581 18660 net.cpp:408] res2a -> res2a
I0305 19:53:15.908599 18660 net.cpp:150] Setting up res2a
I0305 19:53:15.908603 18660 net.cpp:157] Top shape: 32 256 56 56 (25690112)
I0305 19:53:15.908605 18660 net.cpp:165] Memory required for data: 1432223872
I0305 19:53:15.908607 18660 layer_factory.hpp:77] Creating layer res2a_relu
I0305 19:53:15.908610 18660 net.cpp:100] Creating Layer res2a_relu
I0305 19:53:15.908612 18660 net.cpp:434] res2a_relu <- res2a
I0305 19:53:15.908615 18660 net.cpp:395] res2a_relu -> res2a (in-place)
I0305 19:53:15.908855 18660 net.cpp:150] Setting up res2a_relu
I0305 19:53:15.908864 18660 net.cpp:157] Top shape: 32 256 56 56 (25690112)
I0305 19:53:15.908874 18660 net.cpp:165] Memory required for data: 1534984320
I0305 19:53:15.908877 18660 layer_factory.hpp:77] Creating layer res2a_res2a_relu_0_split
I0305 19:53:15.908880 18660 net.cpp:100] Creating Layer res2a_res2a_relu_0_split
I0305 19:53:15.908882 18660 net.cpp:434] res2a_res2a_relu_0_split <- res2a
I0305 19:53:15.908887 18660 net.cpp:408] res2a_res2a_relu_0_split -> res2a_res2a_relu_0_split_0
I0305 19:53:15.908892 18660 net.cpp:408] res2a_res2a_relu_0_split -> res2a_res2a_relu_0_split_1
I0305 19:53:15.908918 18660 net.cpp:150] Setting up res2a_res2a_relu_0_split
I0305 19:53:15.908932 18660 net.cpp:157] Top shape: 32 256 56 56 (25690112)
I0305 19:53:15.908936 18660 net.cpp:157] Top shape: 32 256 56 56 (25690112)
I0305 19:53:15.908937 18660 net.cpp:165] Memory required for data: 1740505216
I0305 19:53:15.908948 18660 layer_factory.hpp:77] Creating layer res2b_branch2a
I0305 19:53:15.908953 18660 net.cpp:100] Creating Layer res2b_branch2a
I0305 19:53:15.908956 18660 net.cpp:434] res2b_branch2a <- res2a_res2a_relu_0_split_0
I0305 19:53:15.908958 18660 net.cpp:408] res2b_branch2a -> res2b_branch2a
I0305 19:53:15.909549 18660 net.cpp:150] Setting up res2b_branch2a
I0305 19:53:15.909560 18660 net.cpp:157] Top shape: 32 64 56 56 (6422528)
I0305 19:53:15.909572 18660 net.cpp:165] Memory required for data: 1766195328
I0305 19:53:15.909575 18660 layer_factory.hpp:77] Creating layer bn2b_branch2a
I0305 19:53:15.909579 18660 net.cpp:100] Creating Layer bn2b_branch2a
I0305 19:53:15.909581 18660 net.cpp:434] bn2b_branch2a <- res2b_branch2a
I0305 19:53:15.909586 18660 net.cpp:395] bn2b_branch2a -> res2b_branch2a (in-place)
I0305 19:53:15.909711 18660 net.cpp:150] Setting up bn2b_branch2a
I0305 19:53:15.909716 18660 net.cpp:157] Top shape: 32 64 56 56 (6422528)
I0305 19:53:15.909729 18660 net.cpp:165] Memory required for data: 1791885440
I0305 19:53:15.909736 18660 layer_factory.hpp:77] Creating layer scale2b_branch2a
I0305 19:53:15.909741 18660 net.cpp:100] Creating Layer scale2b_branch2a
I0305 19:53:15.909744 18660 net.cpp:434] scale2b_branch2a <- res2b_branch2a
I0305 19:53:15.909746 18660 net.cpp:395] scale2b_branch2a -> res2b_branch2a (in-place)
I0305 19:53:15.909770 18660 layer_factory.hpp:77] Creating layer scale2b_branch2a
I0305 19:53:15.909869 18660 net.cpp:150] Setting up scale2b_branch2a
I0305 19:53:15.909873 18660 net.cpp:157] Top shape: 32 64 56 56 (6422528)
I0305 19:53:15.909884 18660 net.cpp:165] Memory required for data: 1817575552
I0305 19:53:15.909888 18660 layer_factory.hpp:77] Creating layer res2b_branch2a_relu
I0305 19:53:15.909893 18660 net.cpp:100] Creating Layer res2b_branch2a_relu
I0305 19:53:15.909894 18660 net.cpp:434] res2b_branch2a_relu <- res2b_branch2a
I0305 19:53:15.909898 18660 net.cpp:395] res2b_branch2a_relu -> res2b_branch2a (in-place)
I0305 19:53:15.910177 18660 net.cpp:150] Setting up res2b_branch2a_relu
I0305 19:53:15.910184 18660 net.cpp:157] Top shape: 32 64 56 56 (6422528)
I0305 19:53:15.910187 18660 net.cpp:165] Memory required for data: 1843265664
I0305 19:53:15.910189 18660 layer_factory.hpp:77] Creating layer res2b_branch2b
I0305 19:53:15.910194 18660 net.cpp:100] Creating Layer res2b_branch2b
I0305 19:53:15.910197 18660 net.cpp:434] res2b_branch2b <- res2b_branch2a
I0305 19:53:15.910200 18660 net.cpp:408] res2b_branch2b -> res2b_branch2b
I0305 19:53:15.910925 18660 net.cpp:150] Setting up res2b_branch2b
I0305 19:53:15.910934 18660 net.cpp:157] Top shape: 32 64 56 56 (6422528)
I0305 19:53:15.910936 18660 net.cpp:165] Memory required for data: 1868955776
I0305 19:53:15.910940 18660 layer_factory.hpp:77] Creating layer bn2b_branch2b
I0305 19:53:15.910945 18660 net.cpp:100] Creating Layer bn2b_branch2b
I0305 19:53:15.910948 18660 net.cpp:434] bn2b_branch2b <- res2b_branch2b
I0305 19:53:15.910950 18660 net.cpp:395] bn2b_branch2b -> res2b_branch2b (in-place)
I0305 19:53:15.911074 18660 net.cpp:150] Setting up bn2b_branch2b
I0305 19:53:15.911079 18660 net.cpp:157] Top shape: 32 64 56 56 (6422528)
I0305 19:53:15.911082 18660 net.cpp:165] Memory required for data: 1894645888
I0305 19:53:15.911085 18660 layer_factory.hpp:77] Creating layer scale2b_branch2b
I0305 19:53:15.911089 18660 net.cpp:100] Creating Layer scale2b_branch2b
I0305 19:53:15.911092 18660 net.cpp:434] scale2b_branch2b <- res2b_branch2b
I0305 19:53:15.911094 18660 net.cpp:395] scale2b_branch2b -> res2b_branch2b (in-place)
I0305 19:53:15.911119 18660 layer_factory.hpp:77] Creating layer scale2b_branch2b
I0305 19:53:15.911192 18660 net.cpp:150] Setting up scale2b_branch2b
I0305 19:53:15.911197 18660 net.cpp:157] Top shape: 32 64 56 56 (6422528)
I0305 19:53:15.911200 18660 net.cpp:165] Memory required for data: 1920336000
I0305 19:53:15.911203 18660 layer_factory.hpp:77] Creating layer res2b_branch2b_relu
I0305 19:53:15.911206 18660 net.cpp:100] Creating Layer res2b_branch2b_relu
I0305 19:53:15.911208 18660 net.cpp:434] res2b_branch2b_relu <- res2b_branch2b
I0305 19:53:15.911211 18660 net.cpp:395] res2b_branch2b_relu -> res2b_branch2b (in-place)
I0305 19:53:15.911320 18660 net.cpp:150] Setting up res2b_branch2b_relu
I0305 19:53:15.911326 18660 net.cpp:157] Top shape: 32 64 56 56 (6422528)
I0305 19:53:15.911329 18660 net.cpp:165] Memory required for data: 1946026112
I0305 19:53:15.911331 18660 layer_factory.hpp:77] Creating layer res2b_branch2c
I0305 19:53:15.911339 18660 net.cpp:100] Creating Layer res2b_branch2c
I0305 19:53:15.911341 18660 net.cpp:434] res2b_branch2c <- res2b_branch2b
I0305 19:53:15.911345 18660 net.cpp:408] res2b_branch2c -> res2b_branch2c
I0305 19:53:15.911972 18660 net.cpp:150] Setting up res2b_branch2c
I0305 19:53:15.911980 18660 net.cpp:157] Top shape: 32 256 56 56 (25690112)
I0305 19:53:15.911983 18660 net.cpp:165] Memory required for data: 2048786560
I0305 19:53:15.911986 18660 layer_factory.hpp:77] Creating layer bn2b_branch2c
I0305 19:53:15.911990 18660 net.cpp:100] Creating Layer bn2b_branch2c
I0305 19:53:15.911993 18660 net.cpp:434] bn2b_branch2c <- res2b_branch2c
I0305 19:53:15.911995 18660 net.cpp:395] bn2b_branch2c -> res2b_branch2c (in-place)
I0305 19:53:15.912122 18660 net.cpp:150] Setting up bn2b_branch2c
I0305 19:53:15.912128 18660 net.cpp:157] Top shape: 32 256 56 56 (25690112)
I0305 19:53:15.912130 18660 net.cpp:165] Memory required for data: 2151547008
I0305 19:53:15.912135 18660 layer_factory.hpp:77] Creating layer scale2b_branch2c
I0305 19:53:15.912138 18660 net.cpp:100] Creating Layer scale2b_branch2c
I0305 19:53:15.912140 18660 net.cpp:434] scale2b_branch2c <- res2b_branch2c
I0305 19:53:15.912143 18660 net.cpp:395] scale2b_branch2c -> res2b_branch2c (in-place)
I0305 19:53:15.912168 18660 layer_factory.hpp:77] Creating layer scale2b_branch2c
I0305 19:53:15.912236 18660 net.cpp:150] Setting up scale2b_branch2c
I0305 19:53:15.912240 18660 net.cpp:157] Top shape: 32 256 56 56 (25690112)
I0305 19:53:15.912242 18660 net.cpp:165] Memory required for data: 2254307456
I0305 19:53:15.912246 18660 layer_factory.hpp:77] Creating layer res2b
I0305 19:53:15.912250 18660 net.cpp:100] Creating Layer res2b
I0305 19:53:15.912252 18660 net.cpp:434] res2b <- res2a_res2a_relu_0_split_1
I0305 19:53:15.912256 18660 net.cpp:434] res2b <- res2b_branch2c
I0305 19:53:15.912258 18660 net.cpp:408] res2b -> res2b
I0305 19:53:15.912273 18660 net.cpp:150] Setting up res2b
I0305 19:53:15.912277 18660 net.cpp:157] Top shape: 32 256 56 56 (25690112)
I0305 19:53:15.912279 18660 net.cpp:165] Memory required for data: 2357067904
I0305 19:53:15.912281 18660 layer_factory.hpp:77] Creating layer res2b_relu
I0305 19:53:15.912286 18660 net.cpp:100] Creating Layer res2b_relu
I0305 19:53:15.912287 18660 net.cpp:434] res2b_relu <- res2b
I0305 19:53:15.912291 18660 net.cpp:395] res2b_relu -> res2b (in-place)
I0305 19:53:15.912485 18660 net.cpp:150] Setting up res2b_relu
I0305 19:53:15.912493 18660 net.cpp:157] Top shape: 32 256 56 56 (25690112)
I0305 19:53:15.912495 18660 net.cpp:165] Memory required for data: 2459828352
I0305 19:53:15.912497 18660 layer_factory.hpp:77] Creating layer res2b_res2b_relu_0_split
I0305 19:53:15.912502 18660 net.cpp:100] Creating Layer res2b_res2b_relu_0_split
I0305 19:53:15.912503 18660 net.cpp:434] res2b_res2b_relu_0_split <- res2b
I0305 19:53:15.912508 18660 net.cpp:408] res2b_res2b_relu_0_split -> res2b_res2b_relu_0_split_0
I0305 19:53:15.912511 18660 net.cpp:408] res2b_res2b_relu_0_split -> res2b_res2b_relu_0_split_1
I0305 19:53:15.912536 18660 net.cpp:150] Setting up res2b_res2b_relu_0_split
I0305 19:53:15.912540 18660 net.cpp:157] Top shape: 32 256 56 56 (25690112)
I0305 19:53:15.912544 18660 net.cpp:157] Top shape: 32 256 56 56 (25690112)
I0305 19:53:15.912545 18660 net.cpp:165] Memory required for data: 2665349248
I0305 19:53:15.912547 18660 layer_factory.hpp:77] Creating layer res2c_branch2a
I0305 19:53:15.912551 18660 net.cpp:100] Creating Layer res2c_branch2a
I0305 19:53:15.912554 18660 net.cpp:434] res2c_branch2a <- res2b_res2b_relu_0_split_0
I0305 19:53:15.912557 18660 net.cpp:408] res2c_branch2a -> res2c_branch2a
I0305 19:53:15.913107 18660 net.cpp:150] Setting up res2c_branch2a
I0305 19:53:15.913116 18660 net.cpp:157] Top shape: 32 64 56 56 (6422528)
I0305 19:53:15.913120 18660 net.cpp:165] Memory required for data: 2691039360
I0305 19:53:15.913123 18660 layer_factory.hpp:77] Creating layer bn2c_branch2a
I0305 19:53:15.913128 18660 net.cpp:100] Creating Layer bn2c_branch2a
I0305 19:53:15.913130 18660 net.cpp:434] bn2c_branch2a <- res2c_branch2a
I0305 19:53:15.913135 18660 net.cpp:395] bn2c_branch2a -> res2c_branch2a (in-place)
I0305 19:53:15.913259 18660 net.cpp:150] Setting up bn2c_branch2a
I0305 19:53:15.913264 18660 net.cpp:157] Top shape: 32 64 56 56 (6422528)
I0305 19:53:15.913265 18660 net.cpp:165] Memory required for data: 2716729472
I0305 19:53:15.913271 18660 layer_factory.hpp:77] Creating layer scale2c_branch2a
I0305 19:53:15.913275 18660 net.cpp:100] Creating Layer scale2c_branch2a
I0305 19:53:15.913277 18660 net.cpp:434] scale2c_branch2a <- res2c_branch2a
I0305 19:53:15.913280 18660 net.cpp:395] scale2c_branch2a -> res2c_branch2a (in-place)
I0305 19:53:15.913305 18660 layer_factory.hpp:77] Creating layer scale2c_branch2a
I0305 19:53:15.913378 18660 net.cpp:150] Setting up scale2c_branch2a
I0305 19:53:15.913381 18660 net.cpp:157] Top shape: 32 64 56 56 (6422528)
I0305 19:53:15.913383 18660 net.cpp:165] Memory required for data: 2742419584
I0305 19:53:15.913388 18660 layer_factory.hpp:77] Creating layer res2c_branch2a_relu
I0305 19:53:15.913390 18660 net.cpp:100] Creating Layer res2c_branch2a_relu
I0305 19:53:15.913393 18660 net.cpp:434] res2c_branch2a_relu <- res2c_branch2a
I0305 19:53:15.913395 18660 net.cpp:395] res2c_branch2a_relu -> res2c_branch2a (in-place)
I0305 19:53:15.913592 18660 net.cpp:150] Setting up res2c_branch2a_relu
I0305 19:53:15.913599 18660 net.cpp:157] Top shape: 32 64 56 56 (6422528)
I0305 19:53:15.913602 18660 net.cpp:165] Memory required for data: 2768109696
I0305 19:53:15.913604 18660 layer_factory.hpp:77] Creating layer res2c_branch2b
I0305 19:53:15.913609 18660 net.cpp:100] Creating Layer res2c_branch2b
I0305 19:53:15.913611 18660 net.cpp:434] res2c_branch2b <- res2c_branch2a
I0305 19:53:15.913615 18660 net.cpp:408] res2c_branch2b -> res2c_branch2b
I0305 19:53:15.914346 18660 net.cpp:150] Setting up res2c_branch2b
I0305 19:53:15.914355 18660 net.cpp:157] Top shape: 32 64 56 56 (6422528)
I0305 19:53:15.914356 18660 net.cpp:165] Memory required for data: 2793799808
I0305 19:53:15.914361 18660 layer_factory.hpp:77] Creating layer bn2c_branch2b
I0305 19:53:15.914366 18660 net.cpp:100] Creating Layer bn2c_branch2b
I0305 19:53:15.914368 18660 net.cpp:434] bn2c_branch2b <- res2c_branch2b
I0305 19:53:15.914371 18660 net.cpp:395] bn2c_branch2b -> res2c_branch2b (in-place)
I0305 19:53:15.914496 18660 net.cpp:150] Setting up bn2c_branch2b
I0305 19:53:15.914501 18660 net.cpp:157] Top shape: 32 64 56 56 (6422528)
I0305 19:53:15.914504 18660 net.cpp:165] Memory required for data: 2819489920
I0305 19:53:15.914508 18660 layer_factory.hpp:77] Creating layer scale2c_branch2b
I0305 19:53:15.914513 18660 net.cpp:100] Creating Layer scale2c_branch2b
I0305 19:53:15.914515 18660 net.cpp:434] scale2c_branch2b <- res2c_branch2b
I0305 19:53:15.914518 18660 net.cpp:395] scale2c_branch2b -> res2c_branch2b (in-place)
I0305 19:53:15.914542 18660 layer_factory.hpp:77] Creating layer scale2c_branch2b
I0305 19:53:15.914618 18660 net.cpp:150] Setting up scale2c_branch2b
I0305 19:53:15.914623 18660 net.cpp:157] Top shape: 32 64 56 56 (6422528)
I0305 19:53:15.914625 18660 net.cpp:165] Memory required for data: 2845180032
I0305 19:53:15.914628 18660 layer_factory.hpp:77] Creating layer res2c_branch2b_relu
I0305 19:53:15.914633 18660 net.cpp:100] Creating Layer res2c_branch2b_relu
I0305 19:53:15.914634 18660 net.cpp:434] res2c_branch2b_relu <- res2c_branch2b
I0305 19:53:15.914638 18660 net.cpp:395] res2c_branch2b_relu -> res2c_branch2b (in-place)
I0305 19:53:15.914752 18660 net.cpp:150] Setting up res2c_branch2b_relu
I0305 19:53:15.914757 18660 net.cpp:157] Top shape: 32 64 56 56 (6422528)
I0305 19:53:15.914759 18660 net.cpp:165] Memory required for data: 2870870144
I0305 19:53:15.914762 18660 layer_factory.hpp:77] Creating layer res2c_branch2c
I0305 19:53:15.914767 18660 net.cpp:100] Creating Layer res2c_branch2c
I0305 19:53:15.914768 18660 net.cpp:434] res2c_branch2c <- res2c_branch2b
I0305 19:53:15.914772 18660 net.cpp:408] res2c_branch2c -> res2c_branch2c
I0305 19:53:15.915401 18660 net.cpp:150] Setting up res2c_branch2c
I0305 19:53:15.915410 18660 net.cpp:157] Top shape: 32 256 56 56 (25690112)
I0305 19:53:15.915412 18660 net.cpp:165] Memory required for data: 2973630592
I0305 19:53:15.915416 18660 layer_factory.hpp:77] Creating layer bn2c_branch2c
I0305 19:53:15.915421 18660 net.cpp:100] Creating Layer bn2c_branch2c
I0305 19:53:15.915423 18660 net.cpp:434] bn2c_branch2c <- res2c_branch2c
I0305 19:53:15.915426 18660 net.cpp:395] bn2c_branch2c -> res2c_branch2c (in-place)
I0305 19:53:15.915544 18660 net.cpp:150] Setting up bn2c_branch2c
I0305 19:53:15.915549 18660 net.cpp:157] Top shape: 32 256 56 56 (25690112)
I0305 19:53:15.915550 18660 net.cpp:165] Memory required for data: 3076391040
I0305 19:53:15.915560 18660 layer_factory.hpp:77] Creating layer scale2c_branch2c
I0305 19:53:15.915565 18660 net.cpp:100] Creating Layer scale2c_branch2c
I0305 19:53:15.915567 18660 net.cpp:434] scale2c_branch2c <- res2c_branch2c
I0305 19:53:15.915570 18660 net.cpp:395] scale2c_branch2c -> res2c_branch2c (in-place)
I0305 19:53:15.915596 18660 layer_factory.hpp:77] Creating layer scale2c_branch2c
I0305 19:53:15.915675 18660 net.cpp:150] Setting up scale2c_branch2c
I0305 19:53:15.915690 18660 net.cpp:157] Top shape: 32 256 56 56 (25690112)
I0305 19:53:15.915691 18660 net.cpp:165] Memory required for data: 3179151488
I0305 19:53:15.915695 18660 layer_factory.hpp:77] Creating layer res2c
I0305 19:53:15.915699 18660 net.cpp:100] Creating Layer res2c
I0305 19:53:15.915701 18660 net.cpp:434] res2c <- res2b_res2b_relu_0_split_1
I0305 19:53:15.915704 18660 net.cpp:434] res2c <- res2c_branch2c
I0305 19:53:15.915706 18660 net.cpp:408] res2c -> res2c
I0305 19:53:15.915721 18660 net.cpp:150] Setting up res2c
I0305 19:53:15.915725 18660 net.cpp:157] Top shape: 32 256 56 56 (25690112)
I0305 19:53:15.915727 18660 net.cpp:165] Memory required for data: 3281911936
I0305 19:53:15.915735 18660 layer_factory.hpp:77] Creating layer res2c_relu
I0305 19:53:15.915740 18660 net.cpp:100] Creating Layer res2c_relu
I0305 19:53:15.915741 18660 net.cpp:434] res2c_relu <- res2c
I0305 19:53:15.915745 18660 net.cpp:395] res2c_relu -> res2c (in-place)
I0305 19:53:15.915946 18660 net.cpp:150] Setting up res2c_relu
I0305 19:53:15.915953 18660 net.cpp:157] Top shape: 32 256 56 56 (25690112)
I0305 19:53:15.915956 18660 net.cpp:165] Memory required for data: 3384672384
I0305 19:53:15.915957 18660 layer_factory.hpp:77] Creating layer res2c_res2c_relu_0_split
I0305 19:53:15.915962 18660 net.cpp:100] Creating Layer res2c_res2c_relu_0_split
I0305 19:53:15.915964 18660 net.cpp:434] res2c_res2c_relu_0_split <- res2c
I0305 19:53:15.915967 18660 net.cpp:408] res2c_res2c_relu_0_split -> res2c_res2c_relu_0_split_0
I0305 19:53:15.915971 18660 net.cpp:408] res2c_res2c_relu_0_split -> res2c_res2c_relu_0_split_1
I0305 19:53:15.915997 18660 net.cpp:150] Setting up res2c_res2c_relu_0_split
I0305 19:53:15.916002 18660 net.cpp:157] Top shape: 32 256 56 56 (25690112)
I0305 19:53:15.916004 18660 net.cpp:157] Top shape: 32 256 56 56 (25690112)
I0305 19:53:15.916007 18660 net.cpp:165] Memory required for data: 3590193280
I0305 19:53:15.916008 18660 layer_factory.hpp:77] Creating layer res3a_branch1
I0305 19:53:15.916013 18660 net.cpp:100] Creating Layer res3a_branch1
I0305 19:53:15.916015 18660 net.cpp:434] res3a_branch1 <- res2c_res2c_relu_0_split_0
I0305 19:53:15.916018 18660 net.cpp:408] res3a_branch1 -> res3a_branch1
I0305 19:53:15.916962 18660 net.cpp:150] Setting up res3a_branch1
I0305 19:53:15.916971 18660 net.cpp:157] Top shape: 32 512 28 28 (12845056)
I0305 19:53:15.916973 18660 net.cpp:165] Memory required for data: 3641573504
I0305 19:53:15.916977 18660 layer_factory.hpp:77] Creating layer bn3a_branch1
I0305 19:53:15.916982 18660 net.cpp:100] Creating Layer bn3a_branch1
I0305 19:53:15.916985 18660 net.cpp:434] bn3a_branch1 <- res3a_branch1
I0305 19:53:15.916987 18660 net.cpp:395] bn3a_branch1 -> res3a_branch1 (in-place)
I0305 19:53:15.917340 18660 net.cpp:150] Setting up bn3a_branch1
I0305 19:53:15.917348 18660 net.cpp:157] Top shape: 32 512 28 28 (12845056)
I0305 19:53:15.917351 18660 net.cpp:165] Memory required for data: 3692953728
I0305 19:53:15.917356 18660 layer_factory.hpp:77] Creating layer scale3a_branch1
I0305 19:53:15.917359 18660 net.cpp:100] Creating Layer scale3a_branch1
I0305 19:53:15.917361 18660 net.cpp:434] scale3a_branch1 <- res3a_branch1
I0305 19:53:15.917364 18660 net.cpp:395] scale3a_branch1 -> res3a_branch1 (in-place)
I0305 19:53:15.917392 18660 layer_factory.hpp:77] Creating layer scale3a_branch1
I0305 19:53:15.917456 18660 net.cpp:150] Setting up scale3a_branch1
I0305 19:53:15.917461 18660 net.cpp:157] Top shape: 32 512 28 28 (12845056)
I0305 19:53:15.917464 18660 net.cpp:165] Memory required for data: 3744333952
I0305 19:53:15.917467 18660 layer_factory.hpp:77] Creating layer res3a_branch2a
I0305 19:53:15.917472 18660 net.cpp:100] Creating Layer res3a_branch2a
I0305 19:53:15.917474 18660 net.cpp:434] res3a_branch2a <- res2c_res2c_relu_0_split_1
I0305 19:53:15.917479 18660 net.cpp:408] res3a_branch2a -> res3a_branch2a
I0305 19:53:15.918220 18660 net.cpp:150] Setting up res3a_branch2a
I0305 19:53:15.918228 18660 net.cpp:157] Top shape: 32 128 28 28 (3211264)
I0305 19:53:15.918231 18660 net.cpp:165] Memory required for data: 3757179008
I0305 19:53:15.918233 18660 layer_factory.hpp:77] Creating layer bn3a_branch2a
I0305 19:53:15.918237 18660 net.cpp:100] Creating Layer bn3a_branch2a
I0305 19:53:15.918241 18660 net.cpp:434] bn3a_branch2a <- res3a_branch2a
I0305 19:53:15.918244 18660 net.cpp:395] bn3a_branch2a -> res3a_branch2a (in-place)
I0305 19:53:15.918372 18660 net.cpp:150] Setting up bn3a_branch2a
I0305 19:53:15.918380 18660 net.cpp:157] Top shape: 32 128 28 28 (3211264)
I0305 19:53:15.918382 18660 net.cpp:165] Memory required for data: 3770024064
I0305 19:53:15.918390 18660 layer_factory.hpp:77] Creating layer scale3a_branch2a
I0305 19:53:15.918396 18660 net.cpp:100] Creating Layer scale3a_branch2a
I0305 19:53:15.918401 18660 net.cpp:434] scale3a_branch2a <- res3a_branch2a
I0305 19:53:15.918406 18660 net.cpp:395] scale3a_branch2a -> res3a_branch2a (in-place)
I0305 19:53:15.918445 18660 layer_factory.hpp:77] Creating layer scale3a_branch2a
I0305 19:53:15.918517 18660 net.cpp:150] Setting up scale3a_branch2a
I0305 19:53:15.918522 18660 net.cpp:157] Top shape: 32 128 28 28 (3211264)
I0305 19:53:15.918524 18660 net.cpp:165] Memory required for data: 3782869120
I0305 19:53:15.918529 18660 layer_factory.hpp:77] Creating layer res3a_branch2a_relu
I0305 19:53:15.918532 18660 net.cpp:100] Creating Layer res3a_branch2a_relu
I0305 19:53:15.918534 18660 net.cpp:434] res3a_branch2a_relu <- res3a_branch2a
I0305 19:53:15.918537 18660 net.cpp:395] res3a_branch2a_relu -> res3a_branch2a (in-place)
I0305 19:53:15.918742 18660 net.cpp:150] Setting up res3a_branch2a_relu
I0305 19:53:15.918751 18660 net.cpp:157] Top shape: 32 128 28 28 (3211264)
I0305 19:53:15.918752 18660 net.cpp:165] Memory required for data: 3795714176
I0305 19:53:15.918754 18660 layer_factory.hpp:77] Creating layer res3a_branch2b
I0305 19:53:15.918759 18660 net.cpp:100] Creating Layer res3a_branch2b
I0305 19:53:15.918762 18660 net.cpp:434] res3a_branch2b <- res3a_branch2a
I0305 19:53:15.918766 18660 net.cpp:408] res3a_branch2b -> res3a_branch2b
I0305 19:53:15.919760 18660 net.cpp:150] Setting up res3a_branch2b
I0305 19:53:15.919770 18660 net.cpp:157] Top shape: 32 128 28 28 (3211264)
I0305 19:53:15.919771 18660 net.cpp:165] Memory required for data: 3808559232
I0305 19:53:15.919775 18660 layer_factory.hpp:77] Creating layer bn3a_branch2b
I0305 19:53:15.919780 18660 net.cpp:100] Creating Layer bn3a_branch2b
I0305 19:53:15.919782 18660 net.cpp:434] bn3a_branch2b <- res3a_branch2b
I0305 19:53:15.919786 18660 net.cpp:395] bn3a_branch2b -> res3a_branch2b (in-place)
I0305 19:53:15.919910 18660 net.cpp:150] Setting up bn3a_branch2b
I0305 19:53:15.919915 18660 net.cpp:157] Top shape: 32 128 28 28 (3211264)
I0305 19:53:15.919917 18660 net.cpp:165] Memory required for data: 3821404288
I0305 19:53:15.919922 18660 layer_factory.hpp:77] Creating layer scale3a_branch2b
I0305 19:53:15.919926 18660 net.cpp:100] Creating Layer scale3a_branch2b
I0305 19:53:15.919929 18660 net.cpp:434] scale3a_branch2b <- res3a_branch2b
I0305 19:53:15.919931 18660 net.cpp:395] scale3a_branch2b -> res3a_branch2b (in-place)
I0305 19:53:15.919956 18660 layer_factory.hpp:77] Creating layer scale3a_branch2b
I0305 19:53:15.920032 18660 net.cpp:150] Setting up scale3a_branch2b
I0305 19:53:15.920037 18660 net.cpp:157] Top shape: 32 128 28 28 (3211264)
I0305 19:53:15.920038 18660 net.cpp:165] Memory required for data: 3834249344
I0305 19:53:15.920042 18660 layer_factory.hpp:77] Creating layer res3a_branch2b_relu
I0305 19:53:15.920047 18660 net.cpp:100] Creating Layer res3a_branch2b_relu
I0305 19:53:15.920048 18660 net.cpp:434] res3a_branch2b_relu <- res3a_branch2b
I0305 19:53:15.920052 18660 net.cpp:395] res3a_branch2b_relu -> res3a_branch2b (in-place)
I0305 19:53:15.920203 18660 net.cpp:150] Setting up res3a_branch2b_relu
I0305 19:53:15.920210 18660 net.cpp:157] Top shape: 32 128 28 28 (3211264)
I0305 19:53:15.920213 18660 net.cpp:165] Memory required for data: 3847094400
I0305 19:53:15.920215 18660 layer_factory.hpp:77] Creating layer res3a_branch2c
I0305 19:53:15.920220 18660 net.cpp:100] Creating Layer res3a_branch2c
I0305 19:53:15.920223 18660 net.cpp:434] res3a_branch2c <- res3a_branch2b
I0305 19:53:15.920227 18660 net.cpp:408] res3a_branch2c -> res3a_branch2c
I0305 19:53:15.920924 18660 net.cpp:150] Setting up res3a_branch2c
I0305 19:53:15.920933 18660 net.cpp:157] Top shape: 32 512 28 28 (12845056)
I0305 19:53:15.920935 18660 net.cpp:165] Memory required for data: 3898474624
I0305 19:53:15.920938 18660 layer_factory.hpp:77] Creating layer bn3a_branch2c
I0305 19:53:15.920948 18660 net.cpp:100] Creating Layer bn3a_branch2c
I0305 19:53:15.920950 18660 net.cpp:434] bn3a_branch2c <- res3a_branch2c
I0305 19:53:15.920953 18660 net.cpp:395] bn3a_branch2c -> res3a_branch2c (in-place)
I0305 19:53:15.921083 18660 net.cpp:150] Setting up bn3a_branch2c
I0305 19:53:15.921089 18660 net.cpp:157] Top shape: 32 512 28 28 (12845056)
I0305 19:53:15.921092 18660 net.cpp:165] Memory required for data: 3949854848
I0305 19:53:15.921097 18660 layer_factory.hpp:77] Creating layer scale3a_branch2c
I0305 19:53:15.921100 18660 net.cpp:100] Creating Layer scale3a_branch2c
I0305 19:53:15.921103 18660 net.cpp:434] scale3a_branch2c <- res3a_branch2c
I0305 19:53:15.921105 18660 net.cpp:395] scale3a_branch2c -> res3a_branch2c (in-place)
I0305 19:53:15.921131 18660 layer_factory.hpp:77] Creating layer scale3a_branch2c
I0305 19:53:15.921201 18660 net.cpp:150] Setting up scale3a_branch2c
I0305 19:53:15.921205 18660 net.cpp:157] Top shape: 32 512 28 28 (12845056)
I0305 19:53:15.921207 18660 net.cpp:165] Memory required for data: 4001235072
I0305 19:53:15.921211 18660 layer_factory.hpp:77] Creating layer res3a
I0305 19:53:15.921216 18660 net.cpp:100] Creating Layer res3a
I0305 19:53:15.921217 18660 net.cpp:434] res3a <- res3a_branch1
I0305 19:53:15.921221 18660 net.cpp:434] res3a <- res3a_branch2c
I0305 19:53:15.921224 18660 net.cpp:408] res3a -> res3a
I0305 19:53:15.921238 18660 net.cpp:150] Setting up res3a
I0305 19:53:15.921244 18660 net.cpp:157] Top shape: 32 512 28 28 (12845056)
I0305 19:53:15.921247 18660 net.cpp:165] Memory required for data: 4052615296
I0305 19:53:15.921248 18660 layer_factory.hpp:77] Creating layer res3a_relu
I0305 19:53:15.921252 18660 net.cpp:100] Creating Layer res3a_relu
I0305 19:53:15.921254 18660 net.cpp:434] res3a_relu <- res3a
I0305 19:53:15.921257 18660 net.cpp:395] res3a_relu -> res3a (in-place)
I0305 19:53:15.921378 18660 net.cpp:150] Setting up res3a_relu
I0305 19:53:15.921385 18660 net.cpp:157] Top shape: 32 512 28 28 (12845056)
I0305 19:53:15.921386 18660 net.cpp:165] Memory required for data: 4103995520
I0305 19:53:15.921389 18660 layer_factory.hpp:77] Creating layer res3a_res3a_relu_0_split
I0305 19:53:15.921393 18660 net.cpp:100] Creating Layer res3a_res3a_relu_0_split
I0305 19:53:15.921396 18660 net.cpp:434] res3a_res3a_relu_0_split <- res3a
I0305 19:53:15.921398 18660 net.cpp:408] res3a_res3a_relu_0_split -> res3a_res3a_relu_0_split_0
I0305 19:53:15.921402 18660 net.cpp:408] res3a_res3a_relu_0_split -> res3a_res3a_relu_0_split_1
I0305 19:53:15.921427 18660 net.cpp:150] Setting up res3a_res3a_relu_0_split
I0305 19:53:15.921432 18660 net.cpp:157] Top shape: 32 512 28 28 (12845056)
I0305 19:53:15.921434 18660 net.cpp:157] Top shape: 32 512 28 28 (12845056)
I0305 19:53:15.921437 18660 net.cpp:165] Memory required for data: 4206755968
I0305 19:53:15.921438 18660 layer_factory.hpp:77] Creating layer res3b_branch2a
I0305 19:53:15.921443 18660 net.cpp:100] Creating Layer res3b_branch2a
I0305 19:53:15.921447 18660 net.cpp:434] res3b_branch2a <- res3a_res3a_relu_0_split_0
I0305 19:53:15.921449 18660 net.cpp:408] res3b_branch2a -> res3b_branch2a
I0305 19:53:15.922343 18660 net.cpp:150] Setting up res3b_branch2a
I0305 19:53:15.922351 18660 net.cpp:157] Top shape: 32 128 28 28 (3211264)
I0305 19:53:15.922354 18660 net.cpp:165] Memory required for data: 4219601024
I0305 19:53:15.922358 18660 layer_factory.hpp:77] Creating layer bn3b_branch2a
I0305 19:53:15.922363 18660 net.cpp:100] Creating Layer bn3b_branch2a
I0305 19:53:15.922364 18660 net.cpp:434] bn3b_branch2a <- res3b_branch2a
I0305 19:53:15.922368 18660 net.cpp:395] bn3b_branch2a -> res3b_branch2a (in-place)
I0305 19:53:15.922490 18660 net.cpp:150] Setting up bn3b_branch2a
I0305 19:53:15.922495 18660 net.cpp:157] Top shape: 32 128 28 28 (3211264)
I0305 19:53:15.922497 18660 net.cpp:165] Memory required for data: 4232446080
I0305 19:53:15.922503 18660 layer_factory.hpp:77] Creating layer scale3b_branch2a
I0305 19:53:15.922507 18660 net.cpp:100] Creating Layer scale3b_branch2a
I0305 19:53:15.922509 18660 net.cpp:434] scale3b_branch2a <- res3b_branch2a
I0305 19:53:15.922511 18660 net.cpp:395] scale3b_branch2a -> res3b_branch2a (in-place)
I0305 19:53:15.922538 18660 layer_factory.hpp:77] Creating layer scale3b_branch2a
I0305 19:53:15.922607 18660 net.cpp:150] Setting up scale3b_branch2a
I0305 19:53:15.922611 18660 net.cpp:157] Top shape: 32 128 28 28 (3211264)
I0305 19:53:15.922613 18660 net.cpp:165] Memory required for data: 4245291136
I0305 19:53:15.922617 18660 layer_factory.hpp:77] Creating layer res3b_branch2a_relu
I0305 19:53:15.922621 18660 net.cpp:100] Creating Layer res3b_branch2a_relu
I0305 19:53:15.922623 18660 net.cpp:434] res3b_branch2a_relu <- res3b_branch2a
I0305 19:53:15.922626 18660 net.cpp:395] res3b_branch2a_relu -> res3b_branch2a (in-place)
I0305 19:53:15.922830 18660 net.cpp:150] Setting up res3b_branch2a_relu
I0305 19:53:15.922839 18660 net.cpp:157] Top shape: 32 128 28 28 (3211264)
I0305 19:53:15.922842 18660 net.cpp:165] Memory required for data: 4258136192
I0305 19:53:15.922843 18660 layer_factory.hpp:77] Creating layer res3b_branch2b
I0305 19:53:15.922848 18660 net.cpp:100] Creating Layer res3b_branch2b
I0305 19:53:15.922850 18660 net.cpp:434] res3b_branch2b <- res3b_branch2a
I0305 19:53:15.922854 18660 net.cpp:408] res3b_branch2b -> res3b_branch2b
I0305 19:53:15.923876 18660 net.cpp:150] Setting up res3b_branch2b
I0305 19:53:15.923884 18660 net.cpp:157] Top shape: 32 128 28 28 (3211264)
I0305 19:53:15.923887 18660 net.cpp:165] Memory required for data: 4270981248
I0305 19:53:15.923890 18660 layer_factory.hpp:77] Creating layer bn3b_branch2b
I0305 19:53:15.923895 18660 net.cpp:100] Creating Layer bn3b_branch2b
I0305 19:53:15.923897 18660 net.cpp:434] bn3b_branch2b <- res3b_branch2b
I0305 19:53:15.923902 18660 net.cpp:395] bn3b_branch2b -> res3b_branch2b (in-place)
I0305 19:53:15.924049 18660 net.cpp:150] Setting up bn3b_branch2b
I0305 19:53:15.924054 18660 net.cpp:157] Top shape: 32 128 28 28 (3211264)
I0305 19:53:15.924057 18660 net.cpp:165] Memory required for data: 4283826304
I0305 19:53:15.924062 18660 layer_factory.hpp:77] Creating layer scale3b_branch2b
I0305 19:53:15.924073 18660 net.cpp:100] Creating Layer scale3b_branch2b
I0305 19:53:15.924075 18660 net.cpp:434] scale3b_branch2b <- res3b_branch2b
I0305 19:53:15.924078 18660 net.cpp:395] scale3b_branch2b -> res3b_branch2b (in-place)
I0305 19:53:15.924105 18660 layer_factory.hpp:77] Creating layer scale3b_branch2b
I0305 19:53:15.924190 18660 net.cpp:150] Setting up scale3b_branch2b
I0305 19:53:15.924196 18660 net.cpp:157] Top shape: 32 128 28 28 (3211264)
I0305 19:53:15.924198 18660 net.cpp:165] Memory required for data: 4296671360
I0305 19:53:15.924202 18660 layer_factory.hpp:77] Creating layer res3b_branch2b_relu
I0305 19:53:15.924206 18660 net.cpp:100] Creating Layer res3b_branch2b_relu
I0305 19:53:15.924207 18660 net.cpp:434] res3b_branch2b_relu <- res3b_branch2b
I0305 19:53:15.924211 18660 net.cpp:395] res3b_branch2b_relu -> res3b_branch2b (in-place)
I0305 19:53:15.924329 18660 net.cpp:150] Setting up res3b_branch2b_relu
I0305 19:53:15.924334 18660 net.cpp:157] Top shape: 32 128 28 28 (3211264)
I0305 19:53:15.924336 18660 net.cpp:165] Memory required for data: 4309516416
I0305 19:53:15.924338 18660 layer_factory.hpp:77] Creating layer res3b_branch2c
I0305 19:53:15.924345 18660 net.cpp:100] Creating Layer res3b_branch2c
I0305 19:53:15.924347 18660 net.cpp:434] res3b_branch2c <- res3b_branch2b
I0305 19:53:15.924351 18660 net.cpp:408] res3b_branch2c -> res3b_branch2c
I0305 19:53:15.925024 18660 net.cpp:150] Setting up res3b_branch2c
I0305 19:53:15.925032 18660 net.cpp:157] Top shape: 32 512 28 28 (12845056)
I0305 19:53:15.925034 18660 net.cpp:165] Memory required for data: 4360896640
I0305 19:53:15.925038 18660 layer_factory.hpp:77] Creating layer bn3b_branch2c
I0305 19:53:15.925043 18660 net.cpp:100] Creating Layer bn3b_branch2c
I0305 19:53:15.925045 18660 net.cpp:434] bn3b_branch2c <- res3b_branch2c
I0305 19:53:15.925048 18660 net.cpp:395] bn3b_branch2c -> res3b_branch2c (in-place)
I0305 19:53:15.925175 18660 net.cpp:150] Setting up bn3b_branch2c
I0305 19:53:15.925180 18660 net.cpp:157] Top shape: 32 512 28 28 (12845056)
I0305 19:53:15.925182 18660 net.cpp:165] Memory required for data: 4412276864
I0305 19:53:15.925187 18660 layer_factory.hpp:77] Creating layer scale3b_branch2c
I0305 19:53:15.925191 18660 net.cpp:100] Creating Layer scale3b_branch2c
I0305 19:53:15.925194 18660 net.cpp:434] scale3b_branch2c <- res3b_branch2c
I0305 19:53:15.925196 18660 net.cpp:395] scale3b_branch2c -> res3b_branch2c (in-place)
I0305 19:53:15.925222 18660 layer_factory.hpp:77] Creating layer scale3b_branch2c
I0305 19:53:15.925290 18660 net.cpp:150] Setting up scale3b_branch2c
I0305 19:53:15.925295 18660 net.cpp:157] Top shape: 32 512 28 28 (12845056)
I0305 19:53:15.925297 18660 net.cpp:165] Memory required for data: 4463657088
I0305 19:53:15.925300 18660 layer_factory.hpp:77] Creating layer res3b
I0305 19:53:15.925304 18660 net.cpp:100] Creating Layer res3b
I0305 19:53:15.925307 18660 net.cpp:434] res3b <- res3a_res3a_relu_0_split_1
I0305 19:53:15.925309 18660 net.cpp:434] res3b <- res3b_branch2c
I0305 19:53:15.925313 18660 net.cpp:408] res3b -> res3b
I0305 19:53:15.925328 18660 net.cpp:150] Setting up res3b
I0305 19:53:15.925333 18660 net.cpp:157] Top shape: 32 512 28 28 (12845056)
I0305 19:53:15.925334 18660 net.cpp:165] Memory required for data: 4515037312
I0305 19:53:15.925335 18660 layer_factory.hpp:77] Creating layer res3b_relu
I0305 19:53:15.925339 18660 net.cpp:100] Creating Layer res3b_relu
I0305 19:53:15.925341 18660 net.cpp:434] res3b_relu <- res3b
I0305 19:53:15.925344 18660 net.cpp:395] res3b_relu -> res3b (in-place)
I0305 19:53:15.925453 18660 net.cpp:150] Setting up res3b_relu
I0305 19:53:15.925458 18660 net.cpp:157] Top shape: 32 512 28 28 (12845056)
I0305 19:53:15.925460 18660 net.cpp:165] Memory required for data: 4566417536
I0305 19:53:15.925463 18660 layer_factory.hpp:77] Creating layer res3b_res3b_relu_0_split
I0305 19:53:15.925468 18660 net.cpp:100] Creating Layer res3b_res3b_relu_0_split
I0305 19:53:15.925472 18660 net.cpp:434] res3b_res3b_relu_0_split <- res3b
I0305 19:53:15.925474 18660 net.cpp:408] res3b_res3b_relu_0_split -> res3b_res3b_relu_0_split_0
I0305 19:53:15.925479 18660 net.cpp:408] res3b_res3b_relu_0_split -> res3b_res3b_relu_0_split_1
I0305 19:53:15.925506 18660 net.cpp:150] Setting up res3b_res3b_relu_0_split
I0305 19:53:15.925511 18660 net.cpp:157] Top shape: 32 512 28 28 (12845056)
I0305 19:53:15.925513 18660 net.cpp:157] Top shape: 32 512 28 28 (12845056)
I0305 19:53:15.925515 18660 net.cpp:165] Memory required for data: 4669177984
I0305 19:53:15.925518 18660 layer_factory.hpp:77] Creating layer res3c_branch2a
I0305 19:53:15.925523 18660 net.cpp:100] Creating Layer res3c_branch2a
I0305 19:53:15.925524 18660 net.cpp:434] res3c_branch2a <- res3b_res3b_relu_0_split_0
I0305 19:53:15.925528 18660 net.cpp:408] res3c_branch2a -> res3c_branch2a
I0305 19:53:15.926195 18660 net.cpp:150] Setting up res3c_branch2a
I0305 19:53:15.926203 18660 net.cpp:157] Top shape: 32 128 28 28 (3211264)
I0305 19:53:15.926205 18660 net.cpp:165] Memory required for data: 4682023040
I0305 19:53:15.926209 18660 layer_factory.hpp:77] Creating layer bn3c_branch2a
I0305 19:53:15.926214 18660 net.cpp:100] Creating Layer bn3c_branch2a
I0305 19:53:15.926216 18660 net.cpp:434] bn3c_branch2a <- res3c_branch2a
I0305 19:53:15.926220 18660 net.cpp:395] bn3c_branch2a -> res3c_branch2a (in-place)
I0305 19:53:15.926345 18660 net.cpp:150] Setting up bn3c_branch2a
I0305 19:53:15.926350 18660 net.cpp:157] Top shape: 32 128 28 28 (3211264)
I0305 19:53:15.926352 18660 net.cpp:165] Memory required for data: 4694868096
I0305 19:53:15.926357 18660 layer_factory.hpp:77] Creating layer scale3c_branch2a
I0305 19:53:15.926360 18660 net.cpp:100] Creating Layer scale3c_branch2a
I0305 19:53:15.926362 18660 net.cpp:434] scale3c_branch2a <- res3c_branch2a
I0305 19:53:15.926367 18660 net.cpp:395] scale3c_branch2a -> res3c_branch2a (in-place)
I0305 19:53:15.926393 18660 layer_factory.hpp:77] Creating layer scale3c_branch2a
I0305 19:53:15.926465 18660 net.cpp:150] Setting up scale3c_branch2a
I0305 19:53:15.926470 18660 net.cpp:157] Top shape: 32 128 28 28 (3211264)
I0305 19:53:15.926471 18660 net.cpp:165] Memory required for data: 4707713152
I0305 19:53:15.926475 18660 layer_factory.hpp:77] Creating layer res3c_branch2a_relu
I0305 19:53:15.926478 18660 net.cpp:100] Creating Layer res3c_branch2a_relu
I0305 19:53:15.926481 18660 net.cpp:434] res3c_branch2a_relu <- res3c_branch2a
I0305 19:53:15.926482 18660 net.cpp:395] res3c_branch2a_relu -> res3c_branch2a (in-place)
I0305 19:53:15.926686 18660 net.cpp:150] Setting up res3c_branch2a_relu
I0305 19:53:15.926693 18660 net.cpp:157] Top shape: 32 128 28 28 (3211264)
I0305 19:53:15.926695 18660 net.cpp:165] Memory required for data: 4720558208
I0305 19:53:15.926697 18660 layer_factory.hpp:77] Creating layer res3c_branch2b
I0305 19:53:15.926703 18660 net.cpp:100] Creating Layer res3c_branch2b
I0305 19:53:15.926705 18660 net.cpp:434] res3c_branch2b <- res3c_branch2a
I0305 19:53:15.926709 18660 net.cpp:408] res3c_branch2b -> res3c_branch2b
I0305 19:53:15.927722 18660 net.cpp:150] Setting up res3c_branch2b
I0305 19:53:15.927731 18660 net.cpp:157] Top shape: 32 128 28 28 (3211264)
I0305 19:53:15.927733 18660 net.cpp:165] Memory required for data: 4733403264
I0305 19:53:15.927737 18660 layer_factory.hpp:77] Creating layer bn3c_branch2b
I0305 19:53:15.927752 18660 net.cpp:100] Creating Layer bn3c_branch2b
I0305 19:53:15.927753 18660 net.cpp:434] bn3c_branch2b <- res3c_branch2b
I0305 19:53:15.927757 18660 net.cpp:395] bn3c_branch2b -> res3c_branch2b (in-place)
I0305 19:53:15.927899 18660 net.cpp:150] Setting up bn3c_branch2b
I0305 19:53:15.927906 18660 net.cpp:157] Top shape: 32 128 28 28 (3211264)
I0305 19:53:15.927907 18660 net.cpp:165] Memory required for data: 4746248320
I0305 19:53:15.927911 18660 layer_factory.hpp:77] Creating layer scale3c_branch2b
I0305 19:53:15.927916 18660 net.cpp:100] Creating Layer scale3c_branch2b
I0305 19:53:15.927917 18660 net.cpp:434] scale3c_branch2b <- res3c_branch2b
I0305 19:53:15.927920 18660 net.cpp:395] scale3c_branch2b -> res3c_branch2b (in-place)
I0305 19:53:15.927947 18660 layer_factory.hpp:77] Creating layer scale3c_branch2b
I0305 19:53:15.928038 18660 net.cpp:150] Setting up scale3c_branch2b
I0305 19:53:15.928043 18660 net.cpp:157] Top shape: 32 128 28 28 (3211264)
I0305 19:53:15.928045 18660 net.cpp:165] Memory required for data: 4759093376
I0305 19:53:15.928048 18660 layer_factory.hpp:77] Creating layer res3c_branch2b_relu
I0305 19:53:15.928052 18660 net.cpp:100] Creating Layer res3c_branch2b_relu
I0305 19:53:15.928055 18660 net.cpp:434] res3c_branch2b_relu <- res3c_branch2b
I0305 19:53:15.928057 18660 net.cpp:395] res3c_branch2b_relu -> res3c_branch2b (in-place)
I0305 19:53:15.928261 18660 net.cpp:150] Setting up res3c_branch2b_relu
I0305 19:53:15.928269 18660 net.cpp:157] Top shape: 32 128 28 28 (3211264)
I0305 19:53:15.928272 18660 net.cpp:165] Memory required for data: 4771938432
I0305 19:53:15.928273 18660 layer_factory.hpp:77] Creating layer res3c_branch2c
I0305 19:53:15.928292 18660 net.cpp:100] Creating Layer res3c_branch2c
I0305 19:53:15.928297 18660 net.cpp:434] res3c_branch2c <- res3c_branch2b
I0305 19:53:15.928302 18660 net.cpp:408] res3c_branch2c -> res3c_branch2c
I0305 19:53:15.929231 18660 net.cpp:150] Setting up res3c_branch2c
I0305 19:53:15.929241 18660 net.cpp:157] Top shape: 32 512 28 28 (12845056)
I0305 19:53:15.929244 18660 net.cpp:165] Memory required for data: 4823318656
I0305 19:53:15.929257 18660 layer_factory.hpp:77] Creating layer bn3c_branch2c
I0305 19:53:15.929262 18660 net.cpp:100] Creating Layer bn3c_branch2c
I0305 19:53:15.929265 18660 net.cpp:434] bn3c_branch2c <- res3c_branch2c
I0305 19:53:15.929268 18660 net.cpp:395] bn3c_branch2c -> res3c_branch2c (in-place)
I0305 19:53:15.929407 18660 net.cpp:150] Setting up bn3c_branch2c
I0305 19:53:15.929412 18660 net.cpp:157] Top shape: 32 512 28 28 (12845056)
I0305 19:53:15.929414 18660 net.cpp:165] Memory required for data: 4874698880
I0305 19:53:15.929430 18660 layer_factory.hpp:77] Creating layer scale3c_branch2c
I0305 19:53:15.929433 18660 net.cpp:100] Creating Layer scale3c_branch2c
I0305 19:53:15.929435 18660 net.cpp:434] scale3c_branch2c <- res3c_branch2c
I0305 19:53:15.929438 18660 net.cpp:395] scale3c_branch2c -> res3c_branch2c (in-place)
I0305 19:53:15.929476 18660 layer_factory.hpp:77] Creating layer scale3c_branch2c
I0305 19:53:15.929569 18660 net.cpp:150] Setting up scale3c_branch2c
I0305 19:53:15.929574 18660 net.cpp:157] Top shape: 32 512 28 28 (12845056)
I0305 19:53:15.929575 18660 net.cpp:165] Memory required for data: 4926079104
I0305 19:53:15.929589 18660 layer_factory.hpp:77] Creating layer res3c
I0305 19:53:15.929594 18660 net.cpp:100] Creating Layer res3c
I0305 19:53:15.929597 18660 net.cpp:434] res3c <- res3b_res3b_relu_0_split_1
I0305 19:53:15.929600 18660 net.cpp:434] res3c <- res3c_branch2c
I0305 19:53:15.929603 18660 net.cpp:408] res3c -> res3c
I0305 19:53:15.929618 18660 net.cpp:150] Setting up res3c
I0305 19:53:15.929622 18660 net.cpp:157] Top shape: 32 512 28 28 (12845056)
I0305 19:53:15.929625 18660 net.cpp:165] Memory required for data: 4977459328
I0305 19:53:15.929636 18660 layer_factory.hpp:77] Creating layer res3c_relu
I0305 19:53:15.929641 18660 net.cpp:100] Creating Layer res3c_relu
I0305 19:53:15.929642 18660 net.cpp:434] res3c_relu <- res3c
I0305 19:53:15.929654 18660 net.cpp:395] res3c_relu -> res3c (in-place)
I0305 19:53:15.929775 18660 net.cpp:150] Setting up res3c_relu
I0305 19:53:15.929781 18660 net.cpp:157] Top shape: 32 512 28 28 (12845056)
I0305 19:53:15.929783 18660 net.cpp:165] Memory required for data: 5028839552
I0305 19:53:15.929795 18660 layer_factory.hpp:77] Creating layer res3c_res3c_relu_0_split
I0305 19:53:15.929800 18660 net.cpp:100] Creating Layer res3c_res3c_relu_0_split
I0305 19:53:15.929801 18660 net.cpp:434] res3c_res3c_relu_0_split <- res3c
I0305 19:53:15.929805 18660 net.cpp:408] res3c_res3c_relu_0_split -> res3c_res3c_relu_0_split_0
I0305 19:53:15.929808 18660 net.cpp:408] res3c_res3c_relu_0_split -> res3c_res3c_relu_0_split_1
I0305 19:53:15.929846 18660 net.cpp:150] Setting up res3c_res3c_relu_0_split
I0305 19:53:15.929850 18660 net.cpp:157] Top shape: 32 512 28 28 (12845056)
I0305 19:53:15.929852 18660 net.cpp:157] Top shape: 32 512 28 28 (12845056)
I0305 19:53:15.929863 18660 net.cpp:165] Memory required for data: 5131600000
I0305 19:53:15.929865 18660 layer_factory.hpp:77] Creating layer res3d_branch2a
I0305 19:53:15.929870 18660 net.cpp:100] Creating Layer res3d_branch2a
I0305 19:53:15.929873 18660 net.cpp:434] res3d_branch2a <- res3c_res3c_relu_0_split_0
I0305 19:53:15.929877 18660 net.cpp:408] res3d_branch2a -> res3d_branch2a
I0305 19:53:15.930793 18660 net.cpp:150] Setting up res3d_branch2a
I0305 19:53:15.930801 18660 net.cpp:157] Top shape: 32 128 28 28 (3211264)
I0305 19:53:15.930804 18660 net.cpp:165] Memory required for data: 5144445056
I0305 19:53:15.930807 18660 layer_factory.hpp:77] Creating layer bn3d_branch2a
I0305 19:53:15.930811 18660 net.cpp:100] Creating Layer bn3d_branch2a
I0305 19:53:15.930814 18660 net.cpp:434] bn3d_branch2a <- res3d_branch2a
I0305 19:53:15.930817 18660 net.cpp:395] bn3d_branch2a -> res3d_branch2a (in-place)
I0305 19:53:15.930958 18660 net.cpp:150] Setting up bn3d_branch2a
I0305 19:53:15.930963 18660 net.cpp:157] Top shape: 32 128 28 28 (3211264)
I0305 19:53:15.930965 18660 net.cpp:165] Memory required for data: 5157290112
I0305 19:53:15.930992 18660 layer_factory.hpp:77] Creating layer scale3d_branch2a
I0305 19:53:15.931007 18660 net.cpp:100] Creating Layer scale3d_branch2a
I0305 19:53:15.931010 18660 net.cpp:434] scale3d_branch2a <- res3d_branch2a
I0305 19:53:15.931012 18660 net.cpp:395] scale3d_branch2a -> res3d_branch2a (in-place)
I0305 19:53:15.931061 18660 layer_factory.hpp:77] Creating layer scale3d_branch2a
I0305 19:53:15.931152 18660 net.cpp:150] Setting up scale3d_branch2a
I0305 19:53:15.931157 18660 net.cpp:157] Top shape: 32 128 28 28 (3211264)
I0305 19:53:15.931159 18660 net.cpp:165] Memory required for data: 5170135168
I0305 19:53:15.931172 18660 layer_factory.hpp:77] Creating layer res3d_branch2a_relu
I0305 19:53:15.931176 18660 net.cpp:100] Creating Layer res3d_branch2a_relu
I0305 19:53:15.931179 18660 net.cpp:434] res3d_branch2a_relu <- res3d_branch2a
I0305 19:53:15.931181 18660 net.cpp:395] res3d_branch2a_relu -> res3d_branch2a (in-place)
I0305 19:53:15.931391 18660 net.cpp:150] Setting up res3d_branch2a_relu
I0305 19:53:15.931398 18660 net.cpp:157] Top shape: 32 128 28 28 (3211264)
I0305 19:53:15.931401 18660 net.cpp:165] Memory required for data: 5182980224
I0305 19:53:15.931402 18660 layer_factory.hpp:77] Creating layer res3d_branch2b
I0305 19:53:15.931408 18660 net.cpp:100] Creating Layer res3d_branch2b
I0305 19:53:15.931411 18660 net.cpp:434] res3d_branch2b <- res3d_branch2a
I0305 19:53:15.931414 18660 net.cpp:408] res3d_branch2b -> res3d_branch2b
I0305 19:53:15.932466 18660 net.cpp:150] Setting up res3d_branch2b
I0305 19:53:15.932476 18660 net.cpp:157] Top shape: 32 128 28 28 (3211264)
I0305 19:53:15.932477 18660 net.cpp:165] Memory required for data: 5195825280
I0305 19:53:15.932482 18660 layer_factory.hpp:77] Creating layer bn3d_branch2b
I0305 19:53:15.932487 18660 net.cpp:100] Creating Layer bn3d_branch2b
I0305 19:53:15.932490 18660 net.cpp:434] bn3d_branch2b <- res3d_branch2b
I0305 19:53:15.932494 18660 net.cpp:395] bn3d_branch2b -> res3d_branch2b (in-place)
I0305 19:53:15.932636 18660 net.cpp:150] Setting up bn3d_branch2b
I0305 19:53:15.932641 18660 net.cpp:157] Top shape: 32 128 28 28 (3211264)
I0305 19:53:15.932643 18660 net.cpp:165] Memory required for data: 5208670336
I0305 19:53:15.932657 18660 layer_factory.hpp:77] Creating layer scale3d_branch2b
I0305 19:53:15.932662 18660 net.cpp:100] Creating Layer scale3d_branch2b
I0305 19:53:15.932665 18660 net.cpp:434] scale3d_branch2b <- res3d_branch2b
I0305 19:53:15.932668 18660 net.cpp:395] scale3d_branch2b -> res3d_branch2b (in-place)
I0305 19:53:15.932705 18660 layer_factory.hpp:77] Creating layer scale3d_branch2b
I0305 19:53:15.932806 18660 net.cpp:150] Setting up scale3d_branch2b
I0305 19:53:15.932811 18660 net.cpp:157] Top shape: 32 128 28 28 (3211264)
I0305 19:53:15.932812 18660 net.cpp:165] Memory required for data: 5221515392
I0305 19:53:15.932826 18660 layer_factory.hpp:77] Creating layer res3d_branch2b_relu
I0305 19:53:15.932828 18660 net.cpp:100] Creating Layer res3d_branch2b_relu
I0305 19:53:15.932831 18660 net.cpp:434] res3d_branch2b_relu <- res3d_branch2b
I0305 19:53:15.932833 18660 net.cpp:395] res3d_branch2b_relu -> res3d_branch2b (in-place)
I0305 19:53:15.932962 18660 net.cpp:150] Setting up res3d_branch2b_relu
I0305 19:53:15.932970 18660 net.cpp:157] Top shape: 32 128 28 28 (3211264)
I0305 19:53:15.932971 18660 net.cpp:165] Memory required for data: 5234360448
I0305 19:53:15.932982 18660 layer_factory.hpp:77] Creating layer res3d_branch2c
I0305 19:53:15.932988 18660 net.cpp:100] Creating Layer res3d_branch2c
I0305 19:53:15.932991 18660 net.cpp:434] res3d_branch2c <- res3d_branch2b
I0305 19:53:15.932994 18660 net.cpp:408] res3d_branch2c -> res3d_branch2c
I0305 19:53:15.933693 18660 net.cpp:150] Setting up res3d_branch2c
I0305 19:53:15.933702 18660 net.cpp:157] Top shape: 32 512 28 28 (12845056)
I0305 19:53:15.933704 18660 net.cpp:165] Memory required for data: 5285740672
I0305 19:53:15.933708 18660 layer_factory.hpp:77] Creating layer bn3d_branch2c
I0305 19:53:15.933713 18660 net.cpp:100] Creating Layer bn3d_branch2c
I0305 19:53:15.933717 18660 net.cpp:434] bn3d_branch2c <- res3d_branch2c
I0305 19:53:15.933719 18660 net.cpp:395] bn3d_branch2c -> res3d_branch2c (in-place)
I0305 19:53:15.933862 18660 net.cpp:150] Setting up bn3d_branch2c
I0305 19:53:15.933867 18660 net.cpp:157] Top shape: 32 512 28 28 (12845056)
I0305 19:53:15.933869 18660 net.cpp:165] Memory required for data: 5337120896
I0305 19:53:15.933884 18660 layer_factory.hpp:77] Creating layer scale3d_branch2c
I0305 19:53:15.933888 18660 net.cpp:100] Creating Layer scale3d_branch2c
I0305 19:53:15.933890 18660 net.cpp:434] scale3d_branch2c <- res3d_branch2c
I0305 19:53:15.933893 18660 net.cpp:395] scale3d_branch2c -> res3d_branch2c (in-place)
I0305 19:53:15.933921 18660 layer_factory.hpp:77] Creating layer scale3d_branch2c
I0305 19:53:15.933995 18660 net.cpp:150] Setting up scale3d_branch2c
I0305 19:53:15.934000 18660 net.cpp:157] Top shape: 32 512 28 28 (12845056)
I0305 19:53:15.934002 18660 net.cpp:165] Memory required for data: 5388501120
I0305 19:53:15.934006 18660 layer_factory.hpp:77] Creating layer res3d
I0305 19:53:15.934010 18660 net.cpp:100] Creating Layer res3d
I0305 19:53:15.934012 18660 net.cpp:434] res3d <- res3c_res3c_relu_0_split_1
I0305 19:53:15.934015 18660 net.cpp:434] res3d <- res3d_branch2c
I0305 19:53:15.934018 18660 net.cpp:408] res3d -> res3d
I0305 19:53:15.934036 18660 net.cpp:150] Setting up res3d
I0305 19:53:15.934039 18660 net.cpp:157] Top shape: 32 512 28 28 (12845056)
I0305 19:53:15.934041 18660 net.cpp:165] Memory required for data: 5439881344
I0305 19:53:15.934043 18660 layer_factory.hpp:77] Creating layer res3d_relu
I0305 19:53:15.934046 18660 net.cpp:100] Creating Layer res3d_relu
I0305 19:53:15.934048 18660 net.cpp:434] res3d_relu <- res3d
I0305 19:53:15.934052 18660 net.cpp:395] res3d_relu -> res3d (in-place)
I0305 19:53:15.934175 18660 net.cpp:150] Setting up res3d_relu
I0305 19:53:15.934181 18660 net.cpp:157] Top shape: 32 512 28 28 (12845056)
I0305 19:53:15.934183 18660 net.cpp:165] Memory required for data: 5491261568
I0305 19:53:15.934185 18660 layer_factory.hpp:77] Creating layer res3d_res3d_relu_0_split
I0305 19:53:15.934201 18660 net.cpp:100] Creating Layer res3d_res3d_relu_0_split
I0305 19:53:15.934203 18660 net.cpp:434] res3d_res3d_relu_0_split <- res3d
I0305 19:53:15.934206 18660 net.cpp:408] res3d_res3d_relu_0_split -> res3d_res3d_relu_0_split_0
I0305 19:53:15.934209 18660 net.cpp:408] res3d_res3d_relu_0_split -> res3d_res3d_relu_0_split_1
I0305 19:53:15.934248 18660 net.cpp:150] Setting up res3d_res3d_relu_0_split
I0305 19:53:15.934252 18660 net.cpp:157] Top shape: 32 512 28 28 (12845056)
I0305 19:53:15.934255 18660 net.cpp:157] Top shape: 32 512 28 28 (12845056)
I0305 19:53:15.934257 18660 net.cpp:165] Memory required for data: 5594022016
I0305 19:53:15.934268 18660 layer_factory.hpp:77] Creating layer res4a_branch1
I0305 19:53:15.934273 18660 net.cpp:100] Creating Layer res4a_branch1
I0305 19:53:15.934275 18660 net.cpp:434] res4a_branch1 <- res3d_res3d_relu_0_split_0
I0305 19:53:15.934278 18660 net.cpp:408] res4a_branch1 -> res4a_branch1
I0305 19:53:15.935606 18660 net.cpp:150] Setting up res4a_branch1
I0305 19:53:15.935614 18660 net.cpp:157] Top shape: 32 1024 14 14 (6422528)
I0305 19:53:15.935616 18660 net.cpp:165] Memory required for data: 5619712128
I0305 19:53:15.935631 18660 layer_factory.hpp:77] Creating layer bn4a_branch1
I0305 19:53:15.935636 18660 net.cpp:100] Creating Layer bn4a_branch1
I0305 19:53:15.935638 18660 net.cpp:434] bn4a_branch1 <- res4a_branch1
I0305 19:53:15.935642 18660 net.cpp:395] bn4a_branch1 -> res4a_branch1 (in-place)
I0305 19:53:15.935794 18660 net.cpp:150] Setting up bn4a_branch1
I0305 19:53:15.935799 18660 net.cpp:157] Top shape: 32 1024 14 14 (6422528)
I0305 19:53:15.935801 18660 net.cpp:165] Memory required for data: 5645402240
I0305 19:53:15.935816 18660 layer_factory.hpp:77] Creating layer scale4a_branch1
I0305 19:53:15.935822 18660 net.cpp:100] Creating Layer scale4a_branch1
I0305 19:53:15.935823 18660 net.cpp:434] scale4a_branch1 <- res4a_branch1
I0305 19:53:15.935827 18660 net.cpp:395] scale4a_branch1 -> res4a_branch1 (in-place)
I0305 19:53:15.935863 18660 layer_factory.hpp:77] Creating layer scale4a_branch1
I0305 19:53:15.935958 18660 net.cpp:150] Setting up scale4a_branch1
I0305 19:53:15.935963 18660 net.cpp:157] Top shape: 32 1024 14 14 (6422528)
I0305 19:53:15.935966 18660 net.cpp:165] Memory required for data: 5671092352
I0305 19:53:15.935979 18660 layer_factory.hpp:77] Creating layer res4a_branch2a
I0305 19:53:15.935984 18660 net.cpp:100] Creating Layer res4a_branch2a
I0305 19:53:15.935987 18660 net.cpp:434] res4a_branch2a <- res3d_res3d_relu_0_split_1
I0305 19:53:15.935991 18660 net.cpp:408] res4a_branch2a -> res4a_branch2a
I0305 19:53:15.936772 18660 net.cpp:150] Setting up res4a_branch2a
I0305 19:53:15.936781 18660 net.cpp:157] Top shape: 32 256 14 14 (1605632)
I0305 19:53:15.936784 18660 net.cpp:165] Memory required for data: 5677514880
I0305 19:53:15.936796 18660 layer_factory.hpp:77] Creating layer bn4a_branch2a
I0305 19:53:15.936801 18660 net.cpp:100] Creating Layer bn4a_branch2a
I0305 19:53:15.936803 18660 net.cpp:434] bn4a_branch2a <- res4a_branch2a
I0305 19:53:15.936807 18660 net.cpp:395] bn4a_branch2a -> res4a_branch2a (in-place)
I0305 19:53:15.936949 18660 net.cpp:150] Setting up bn4a_branch2a
I0305 19:53:15.936954 18660 net.cpp:157] Top shape: 32 256 14 14 (1605632)
I0305 19:53:15.936955 18660 net.cpp:165] Memory required for data: 5683937408
I0305 19:53:15.936969 18660 layer_factory.hpp:77] Creating layer scale4a_branch2a
I0305 19:53:15.936974 18660 net.cpp:100] Creating Layer scale4a_branch2a
I0305 19:53:15.936975 18660 net.cpp:434] scale4a_branch2a <- res4a_branch2a
I0305 19:53:15.936978 18660 net.cpp:395] scale4a_branch2a -> res4a_branch2a (in-place)
I0305 19:53:15.937016 18660 layer_factory.hpp:77] Creating layer scale4a_branch2a
I0305 19:53:15.937108 18660 net.cpp:150] Setting up scale4a_branch2a
I0305 19:53:15.937113 18660 net.cpp:157] Top shape: 32 256 14 14 (1605632)
I0305 19:53:15.937114 18660 net.cpp:165] Memory required for data: 5690359936
I0305 19:53:15.937127 18660 layer_factory.hpp:77] Creating layer res4a_branch2a_relu
I0305 19:53:15.937131 18660 net.cpp:100] Creating Layer res4a_branch2a_relu
I0305 19:53:15.937134 18660 net.cpp:434] res4a_branch2a_relu <- res4a_branch2a
I0305 19:53:15.937136 18660 net.cpp:395] res4a_branch2a_relu -> res4a_branch2a (in-place)
I0305 19:53:15.937350 18660 net.cpp:150] Setting up res4a_branch2a_relu
I0305 19:53:15.937357 18660 net.cpp:157] Top shape: 32 256 14 14 (1605632)
I0305 19:53:15.937360 18660 net.cpp:165] Memory required for data: 5696782464
I0305 19:53:15.937371 18660 layer_factory.hpp:77] Creating layer res4a_branch2b
I0305 19:53:15.937376 18660 net.cpp:100] Creating Layer res4a_branch2b
I0305 19:53:15.937379 18660 net.cpp:434] res4a_branch2b <- res4a_branch2a
I0305 19:53:15.937384 18660 net.cpp:408] res4a_branch2b -> res4a_branch2b
I0305 19:53:15.938742 18660 net.cpp:150] Setting up res4a_branch2b
I0305 19:53:15.938752 18660 net.cpp:157] Top shape: 32 256 14 14 (1605632)
I0305 19:53:15.938755 18660 net.cpp:165] Memory required for data: 5703204992
I0305 19:53:15.938768 18660 layer_factory.hpp:77] Creating layer bn4a_branch2b
I0305 19:53:15.938774 18660 net.cpp:100] Creating Layer bn4a_branch2b
I0305 19:53:15.938776 18660 net.cpp:434] bn4a_branch2b <- res4a_branch2b
I0305 19:53:15.938781 18660 net.cpp:395] bn4a_branch2b -> res4a_branch2b (in-place)
I0305 19:53:15.938925 18660 net.cpp:150] Setting up bn4a_branch2b
I0305 19:53:15.938930 18660 net.cpp:157] Top shape: 32 256 14 14 (1605632)
I0305 19:53:15.938932 18660 net.cpp:165] Memory required for data: 5709627520
I0305 19:53:15.938947 18660 layer_factory.hpp:77] Creating layer scale4a_branch2b
I0305 19:53:15.938951 18660 net.cpp:100] Creating Layer scale4a_branch2b
I0305 19:53:15.938953 18660 net.cpp:434] scale4a_branch2b <- res4a_branch2b
I0305 19:53:15.938957 18660 net.cpp:395] scale4a_branch2b -> res4a_branch2b (in-place)
I0305 19:53:15.938995 18660 layer_factory.hpp:77] Creating layer scale4a_branch2b
I0305 19:53:15.939090 18660 net.cpp:150] Setting up scale4a_branch2b
I0305 19:53:15.939095 18660 net.cpp:157] Top shape: 32 256 14 14 (1605632)
I0305 19:53:15.939097 18660 net.cpp:165] Memory required for data: 5716050048
I0305 19:53:15.939110 18660 layer_factory.hpp:77] Creating layer res4a_branch2b_relu
I0305 19:53:15.939113 18660 net.cpp:100] Creating Layer res4a_branch2b_relu
I0305 19:53:15.939116 18660 net.cpp:434] res4a_branch2b_relu <- res4a_branch2b
I0305 19:53:15.939119 18660 net.cpp:395] res4a_branch2b_relu -> res4a_branch2b (in-place)
I0305 19:53:15.939328 18660 net.cpp:150] Setting up res4a_branch2b_relu
I0305 19:53:15.939337 18660 net.cpp:157] Top shape: 32 256 14 14 (1605632)
I0305 19:53:15.939338 18660 net.cpp:165] Memory required for data: 5722472576
I0305 19:53:15.939342 18660 layer_factory.hpp:77] Creating layer res4a_branch2c
I0305 19:53:15.939347 18660 net.cpp:100] Creating Layer res4a_branch2c
I0305 19:53:15.939349 18660 net.cpp:434] res4a_branch2c <- res4a_branch2b
I0305 19:53:15.939354 18660 net.cpp:408] res4a_branch2c -> res4a_branch2c
I0305 19:53:15.940413 18660 net.cpp:150] Setting up res4a_branch2c
I0305 19:53:15.940423 18660 net.cpp:157] Top shape: 32 1024 14 14 (6422528)
I0305 19:53:15.940425 18660 net.cpp:165] Memory required for data: 5748162688
I0305 19:53:15.940428 18660 layer_factory.hpp:77] Creating layer bn4a_branch2c
I0305 19:53:15.940434 18660 net.cpp:100] Creating Layer bn4a_branch2c
I0305 19:53:15.940436 18660 net.cpp:434] bn4a_branch2c <- res4a_branch2c
I0305 19:53:15.940439 18660 net.cpp:395] bn4a_branch2c -> res4a_branch2c (in-place)
I0305 19:53:15.940590 18660 net.cpp:150] Setting up bn4a_branch2c
I0305 19:53:15.940595 18660 net.cpp:157] Top shape: 32 1024 14 14 (6422528)
I0305 19:53:15.940598 18660 net.cpp:165] Memory required for data: 5773852800
I0305 19:53:15.940613 18660 layer_factory.hpp:77] Creating layer scale4a_branch2c
I0305 19:53:15.940616 18660 net.cpp:100] Creating Layer scale4a_branch2c
I0305 19:53:15.940618 18660 net.cpp:434] scale4a_branch2c <- res4a_branch2c
I0305 19:53:15.940623 18660 net.cpp:395] scale4a_branch2c -> res4a_branch2c (in-place)
I0305 19:53:15.940660 18660 layer_factory.hpp:77] Creating layer scale4a_branch2c
I0305 19:53:15.940758 18660 net.cpp:150] Setting up scale4a_branch2c
I0305 19:53:15.940763 18660 net.cpp:157] Top shape: 32 1024 14 14 (6422528)
I0305 19:53:15.940765 18660 net.cpp:165] Memory required for data: 5799542912
I0305 19:53:15.940778 18660 layer_factory.hpp:77] Creating layer res4a
I0305 19:53:15.940783 18660 net.cpp:100] Creating Layer res4a
I0305 19:53:15.940784 18660 net.cpp:434] res4a <- res4a_branch1
I0305 19:53:15.940788 18660 net.cpp:434] res4a <- res4a_branch2c
I0305 19:53:15.940790 18660 net.cpp:408] res4a -> res4a
I0305 19:53:15.940807 18660 net.cpp:150] Setting up res4a
I0305 19:53:15.940822 18660 net.cpp:157] Top shape: 32 1024 14 14 (6422528)
I0305 19:53:15.940824 18660 net.cpp:165] Memory required for data: 5825233024
I0305 19:53:15.940825 18660 layer_factory.hpp:77] Creating layer res4a_relu
I0305 19:53:15.940829 18660 net.cpp:100] Creating Layer res4a_relu
I0305 19:53:15.940841 18660 net.cpp:434] res4a_relu <- res4a
I0305 19:53:15.940843 18660 net.cpp:395] res4a_relu -> res4a (in-place)
I0305 19:53:15.940968 18660 net.cpp:150] Setting up res4a_relu
I0305 19:53:15.940974 18660 net.cpp:157] Top shape: 32 1024 14 14 (6422528)
I0305 19:53:15.940976 18660 net.cpp:165] Memory required for data: 5850923136
I0305 19:53:15.940989 18660 layer_factory.hpp:77] Creating layer res4a_res4a_relu_0_split
I0305 19:53:15.940992 18660 net.cpp:100] Creating Layer res4a_res4a_relu_0_split
I0305 19:53:15.940994 18660 net.cpp:434] res4a_res4a_relu_0_split <- res4a
I0305 19:53:15.940997 18660 net.cpp:408] res4a_res4a_relu_0_split -> res4a_res4a_relu_0_split_0
I0305 19:53:15.941001 18660 net.cpp:408] res4a_res4a_relu_0_split -> res4a_res4a_relu_0_split_1
I0305 19:53:15.941031 18660 net.cpp:150] Setting up res4a_res4a_relu_0_split
I0305 19:53:15.941035 18660 net.cpp:157] Top shape: 32 1024 14 14 (6422528)
I0305 19:53:15.941037 18660 net.cpp:157] Top shape: 32 1024 14 14 (6422528)
I0305 19:53:15.941040 18660 net.cpp:165] Memory required for data: 5902303360
I0305 19:53:15.941041 18660 layer_factory.hpp:77] Creating layer res4b_branch2a
I0305 19:53:15.941056 18660 net.cpp:100] Creating Layer res4b_branch2a
I0305 19:53:15.941059 18660 net.cpp:434] res4b_branch2a <- res4a_res4a_relu_0_split_0
I0305 19:53:15.941062 18660 net.cpp:408] res4b_branch2a -> res4b_branch2a
I0305 19:53:15.943704 18660 net.cpp:150] Setting up res4b_branch2a
I0305 19:53:15.943714 18660 net.cpp:157] Top shape: 32 256 14 14 (1605632)
I0305 19:53:15.943717 18660 net.cpp:165] Memory required for data: 5908725888
I0305 19:53:15.943730 18660 layer_factory.hpp:77] Creating layer bn4b_branch2a
I0305 19:53:15.943734 18660 net.cpp:100] Creating Layer bn4b_branch2a
I0305 19:53:15.943737 18660 net.cpp:434] bn4b_branch2a <- res4b_branch2a
I0305 19:53:15.943740 18660 net.cpp:395] bn4b_branch2a -> res4b_branch2a (in-place)
I0305 19:53:15.943886 18660 net.cpp:150] Setting up bn4b_branch2a
I0305 19:53:15.943892 18660 net.cpp:157] Top shape: 32 256 14 14 (1605632)
I0305 19:53:15.943893 18660 net.cpp:165] Memory required for data: 5915148416
I0305 19:53:15.943907 18660 layer_factory.hpp:77] Creating layer scale4b_branch2a
I0305 19:53:15.943912 18660 net.cpp:100] Creating Layer scale4b_branch2a
I0305 19:53:15.943915 18660 net.cpp:434] scale4b_branch2a <- res4b_branch2a
I0305 19:53:15.943918 18660 net.cpp:395] scale4b_branch2a -> res4b_branch2a (in-place)
I0305 19:53:15.943956 18660 layer_factory.hpp:77] Creating layer scale4b_branch2a
I0305 19:53:15.944042 18660 net.cpp:150] Setting up scale4b_branch2a
I0305 19:53:15.944047 18660 net.cpp:157] Top shape: 32 256 14 14 (1605632)
I0305 19:53:15.944049 18660 net.cpp:165] Memory required for data: 5921570944
I0305 19:53:15.944053 18660 layer_factory.hpp:77] Creating layer res4b_branch2a_relu
I0305 19:53:15.944057 18660 net.cpp:100] Creating Layer res4b_branch2a_relu
I0305 19:53:15.944059 18660 net.cpp:434] res4b_branch2a_relu <- res4b_branch2a
I0305 19:53:15.944062 18660 net.cpp:395] res4b_branch2a_relu -> res4b_branch2a (in-place)
I0305 19:53:15.944283 18660 net.cpp:150] Setting up res4b_branch2a_relu
I0305 19:53:15.944290 18660 net.cpp:157] Top shape: 32 256 14 14 (1605632)
I0305 19:53:15.944293 18660 net.cpp:165] Memory required for data: 5927993472
I0305 19:53:15.944295 18660 layer_factory.hpp:77] Creating layer res4b_branch2b
I0305 19:53:15.944300 18660 net.cpp:100] Creating Layer res4b_branch2b
I0305 19:53:15.944303 18660 net.cpp:434] res4b_branch2b <- res4b_branch2a
I0305 19:53:15.944306 18660 net.cpp:408] res4b_branch2b -> res4b_branch2b
I0305 19:53:15.945672 18660 net.cpp:150] Setting up res4b_branch2b
I0305 19:53:15.945682 18660 net.cpp:157] Top shape: 32 256 14 14 (1605632)
I0305 19:53:15.945693 18660 net.cpp:165] Memory required for data: 5934416000
I0305 19:53:15.945698 18660 layer_factory.hpp:77] Creating layer bn4b_branch2b
I0305 19:53:15.945711 18660 net.cpp:100] Creating Layer bn4b_branch2b
I0305 19:53:15.945714 18660 net.cpp:434] bn4b_branch2b <- res4b_branch2b
I0305 19:53:15.945718 18660 net.cpp:395] bn4b_branch2b -> res4b_branch2b (in-place)
I0305 19:53:15.945864 18660 net.cpp:150] Setting up bn4b_branch2b
I0305 19:53:15.945879 18660 net.cpp:157] Top shape: 32 256 14 14 (1605632)
I0305 19:53:15.945881 18660 net.cpp:165] Memory required for data: 5940838528
I0305 19:53:15.945895 18660 layer_factory.hpp:77] Creating layer scale4b_branch2b
I0305 19:53:15.945901 18660 net.cpp:100] Creating Layer scale4b_branch2b
I0305 19:53:15.945912 18660 net.cpp:434] scale4b_branch2b <- res4b_branch2b
I0305 19:53:15.945916 18660 net.cpp:395] scale4b_branch2b -> res4b_branch2b (in-place)
I0305 19:53:15.945955 18660 layer_factory.hpp:77] Creating layer scale4b_branch2b
I0305 19:53:15.946079 18660 net.cpp:150] Setting up scale4b_branch2b
I0305 19:53:15.946084 18660 net.cpp:157] Top shape: 32 256 14 14 (1605632)
I0305 19:53:15.946085 18660 net.cpp:165] Memory required for data: 5947261056
I0305 19:53:15.946099 18660 layer_factory.hpp:77] Creating layer res4b_branch2b_relu
I0305 19:53:15.946101 18660 net.cpp:100] Creating Layer res4b_branch2b_relu
I0305 19:53:15.946104 18660 net.cpp:434] res4b_branch2b_relu <- res4b_branch2b
I0305 19:53:15.946116 18660 net.cpp:395] res4b_branch2b_relu -> res4b_branch2b (in-place)
I0305 19:53:15.946351 18660 net.cpp:150] Setting up res4b_branch2b_relu
I0305 19:53:15.946357 18660 net.cpp:157] Top shape: 32 256 14 14 (1605632)
I0305 19:53:15.946369 18660 net.cpp:165] Memory required for data: 5953683584
I0305 19:53:15.946372 18660 layer_factory.hpp:77] Creating layer res4b_branch2c
I0305 19:53:15.946377 18660 net.cpp:100] Creating Layer res4b_branch2c
I0305 19:53:15.946379 18660 net.cpp:434] res4b_branch2c <- res4b_branch2b
I0305 19:53:15.946382 18660 net.cpp:408] res4b_branch2c -> res4b_branch2c
I0305 19:53:15.947427 18660 net.cpp:150] Setting up res4b_branch2c
I0305 19:53:15.947435 18660 net.cpp:157] Top shape: 32 1024 14 14 (6422528)
I0305 19:53:15.947448 18660 net.cpp:165] Memory required for data: 5979373696
I0305 19:53:15.947451 18660 layer_factory.hpp:77] Creating layer bn4b_branch2c
I0305 19:53:15.947465 18660 net.cpp:100] Creating Layer bn4b_branch2c
I0305 19:53:15.947468 18660 net.cpp:434] bn4b_branch2c <- res4b_branch2c
I0305 19:53:15.947471 18660 net.cpp:395] bn4b_branch2c -> res4b_branch2c (in-place)
I0305 19:53:15.947635 18660 net.cpp:150] Setting up bn4b_branch2c
I0305 19:53:15.947640 18660 net.cpp:157] Top shape: 32 1024 14 14 (6422528)
I0305 19:53:15.947652 18660 net.cpp:165] Memory required for data: 6005063808
I0305 19:53:15.947657 18660 layer_factory.hpp:77] Creating layer scale4b_branch2c
I0305 19:53:15.947670 18660 net.cpp:100] Creating Layer scale4b_branch2c
I0305 19:53:15.947674 18660 net.cpp:434] scale4b_branch2c <- res4b_branch2c
I0305 19:53:15.947676 18660 net.cpp:395] scale4b_branch2c -> res4b_branch2c (in-place)
I0305 19:53:15.947715 18660 layer_factory.hpp:77] Creating layer scale4b_branch2c
I0305 19:53:15.947824 18660 net.cpp:150] Setting up scale4b_branch2c
I0305 19:53:15.947829 18660 net.cpp:157] Top shape: 32 1024 14 14 (6422528)
I0305 19:53:15.947830 18660 net.cpp:165] Memory required for data: 6030753920
I0305 19:53:15.947844 18660 layer_factory.hpp:77] Creating layer res4b
I0305 19:53:15.947849 18660 net.cpp:100] Creating Layer res4b
I0305 19:53:15.947850 18660 net.cpp:434] res4b <- res4a_res4a_relu_0_split_1
I0305 19:53:15.947854 18660 net.cpp:434] res4b <- res4b_branch2c
I0305 19:53:15.947865 18660 net.cpp:408] res4b -> res4b
I0305 19:53:15.947883 18660 net.cpp:150] Setting up res4b
I0305 19:53:15.947887 18660 net.cpp:157] Top shape: 32 1024 14 14 (6422528)
I0305 19:53:15.947890 18660 net.cpp:165] Memory required for data: 6056444032
I0305 19:53:15.947891 18660 layer_factory.hpp:77] Creating layer res4b_relu
I0305 19:53:15.947904 18660 net.cpp:100] Creating Layer res4b_relu
I0305 19:53:15.947906 18660 net.cpp:434] res4b_relu <- res4b
I0305 19:53:15.947911 18660 net.cpp:395] res4b_relu -> res4b (in-place)
I0305 19:53:15.948088 18660 net.cpp:150] Setting up res4b_relu
I0305 19:53:15.948096 18660 net.cpp:157] Top shape: 32 1024 14 14 (6422528)
I0305 19:53:15.948107 18660 net.cpp:165] Memory required for data: 6082134144
I0305 19:53:15.948108 18660 layer_factory.hpp:77] Creating layer res4b_res4b_relu_0_split
I0305 19:53:15.948113 18660 net.cpp:100] Creating Layer res4b_res4b_relu_0_split
I0305 19:53:15.948125 18660 net.cpp:434] res4b_res4b_relu_0_split <- res4b
I0305 19:53:15.948128 18660 net.cpp:408] res4b_res4b_relu_0_split -> res4b_res4b_relu_0_split_0
I0305 19:53:15.948132 18660 net.cpp:408] res4b_res4b_relu_0_split -> res4b_res4b_relu_0_split_1
I0305 19:53:15.948182 18660 net.cpp:150] Setting up res4b_res4b_relu_0_split
I0305 19:53:15.948195 18660 net.cpp:157] Top shape: 32 1024 14 14 (6422528)
I0305 19:53:15.948199 18660 net.cpp:157] Top shape: 32 1024 14 14 (6422528)
I0305 19:53:15.948200 18660 net.cpp:165] Memory required for data: 6133514368
I0305 19:53:15.948211 18660 layer_factory.hpp:77] Creating layer res4c_branch2a
I0305 19:53:15.948216 18660 net.cpp:100] Creating Layer res4c_branch2a
I0305 19:53:15.948218 18660 net.cpp:434] res4c_branch2a <- res4b_res4b_relu_0_split_0
I0305 19:53:15.948231 18660 net.cpp:408] res4c_branch2a -> res4c_branch2a
I0305 19:53:15.949281 18660 net.cpp:150] Setting up res4c_branch2a
I0305 19:53:15.949290 18660 net.cpp:157] Top shape: 32 256 14 14 (1605632)
I0305 19:53:15.949301 18660 net.cpp:165] Memory required for data: 6139936896
I0305 19:53:15.949306 18660 layer_factory.hpp:77] Creating layer bn4c_branch2a
I0305 19:53:15.949321 18660 net.cpp:100] Creating Layer bn4c_branch2a
I0305 19:53:15.949323 18660 net.cpp:434] bn4c_branch2a <- res4c_branch2a
I0305 19:53:15.949326 18660 net.cpp:395] bn4c_branch2a -> res4c_branch2a (in-place)
I0305 19:53:15.949481 18660 net.cpp:150] Setting up bn4c_branch2a
I0305 19:53:15.949486 18660 net.cpp:157] Top shape: 32 256 14 14 (1605632)
I0305 19:53:15.949498 18660 net.cpp:165] Memory required for data: 6146359424
I0305 19:53:15.949504 18660 layer_factory.hpp:77] Creating layer scale4c_branch2a
I0305 19:53:15.949517 18660 net.cpp:100] Creating Layer scale4c_branch2a
I0305 19:53:15.949519 18660 net.cpp:434] scale4c_branch2a <- res4c_branch2a
I0305 19:53:15.949522 18660 net.cpp:395] scale4c_branch2a -> res4c_branch2a (in-place)
I0305 19:53:15.949570 18660 layer_factory.hpp:77] Creating layer scale4c_branch2a
I0305 19:53:15.949687 18660 net.cpp:150] Setting up scale4c_branch2a
I0305 19:53:15.949692 18660 net.cpp:157] Top shape: 32 256 14 14 (1605632)
I0305 19:53:15.949693 18660 net.cpp:165] Memory required for data: 6152781952
I0305 19:53:15.949707 18660 layer_factory.hpp:77] Creating layer res4c_branch2a_relu
I0305 19:53:15.949712 18660 net.cpp:100] Creating Layer res4c_branch2a_relu
I0305 19:53:15.949723 18660 net.cpp:434] res4c_branch2a_relu <- res4c_branch2a
I0305 19:53:15.949725 18660 net.cpp:395] res4c_branch2a_relu -> res4c_branch2a (in-place)
I0305 19:53:15.949965 18660 net.cpp:150] Setting up res4c_branch2a_relu
I0305 19:53:15.949973 18660 net.cpp:157] Top shape: 32 256 14 14 (1605632)
I0305 19:53:15.949985 18660 net.cpp:165] Memory required for data: 6159204480
I0305 19:53:15.949988 18660 layer_factory.hpp:77] Creating layer res4c_branch2b
I0305 19:53:15.949992 18660 net.cpp:100] Creating Layer res4c_branch2b
I0305 19:53:15.950004 18660 net.cpp:434] res4c_branch2b <- res4c_branch2a
I0305 19:53:15.950008 18660 net.cpp:408] res4c_branch2b -> res4c_branch2b
I0305 19:53:15.951441 18660 net.cpp:150] Setting up res4c_branch2b
I0305 19:53:15.951450 18660 net.cpp:157] Top shape: 32 256 14 14 (1605632)
I0305 19:53:15.951453 18660 net.cpp:165] Memory required for data: 6165627008
I0305 19:53:15.951457 18660 layer_factory.hpp:77] Creating layer bn4c_branch2b
I0305 19:53:15.951462 18660 net.cpp:100] Creating Layer bn4c_branch2b
I0305 19:53:15.951464 18660 net.cpp:434] bn4c_branch2b <- res4c_branch2b
I0305 19:53:15.951477 18660 net.cpp:395] bn4c_branch2b -> res4c_branch2b (in-place)
I0305 19:53:15.951632 18660 net.cpp:150] Setting up bn4c_branch2b
I0305 19:53:15.951637 18660 net.cpp:157] Top shape: 32 256 14 14 (1605632)
I0305 19:53:15.951639 18660 net.cpp:165] Memory required for data: 6172049536
I0305 19:53:15.951644 18660 layer_factory.hpp:77] Creating layer scale4c_branch2b
I0305 19:53:15.951647 18660 net.cpp:100] Creating Layer scale4c_branch2b
I0305 19:53:15.951650 18660 net.cpp:434] scale4c_branch2b <- res4c_branch2b
I0305 19:53:15.951663 18660 net.cpp:395] scale4c_branch2b -> res4c_branch2b (in-place)
I0305 19:53:15.951702 18660 layer_factory.hpp:77] Creating layer scale4c_branch2b
I0305 19:53:15.951800 18660 net.cpp:150] Setting up scale4c_branch2b
I0305 19:53:15.951805 18660 net.cpp:157] Top shape: 32 256 14 14 (1605632)
I0305 19:53:15.951807 18660 net.cpp:165] Memory required for data: 6178472064
I0305 19:53:15.951812 18660 layer_factory.hpp:77] Creating layer res4c_branch2b_relu
I0305 19:53:15.951814 18660 net.cpp:100] Creating Layer res4c_branch2b_relu
I0305 19:53:15.951817 18660 net.cpp:434] res4c_branch2b_relu <- res4c_branch2b
I0305 19:53:15.951819 18660 net.cpp:395] res4c_branch2b_relu -> res4c_branch2b (in-place)
I0305 19:53:15.952049 18660 net.cpp:150] Setting up res4c_branch2b_relu
I0305 19:53:15.952056 18660 net.cpp:157] Top shape: 32 256 14 14 (1605632)
I0305 19:53:15.952059 18660 net.cpp:165] Memory required for data: 6184894592
I0305 19:53:15.952060 18660 layer_factory.hpp:77] Creating layer res4c_branch2c
I0305 19:53:15.952074 18660 net.cpp:100] Creating Layer res4c_branch2c
I0305 19:53:15.952086 18660 net.cpp:434] res4c_branch2c <- res4c_branch2b
I0305 19:53:15.952091 18660 net.cpp:408] res4c_branch2c -> res4c_branch2c
I0305 19:53:15.953120 18660 net.cpp:150] Setting up res4c_branch2c
I0305 19:53:15.953130 18660 net.cpp:157] Top shape: 32 1024 14 14 (6422528)
I0305 19:53:15.953131 18660 net.cpp:165] Memory required for data: 6210584704
I0305 19:53:15.953135 18660 layer_factory.hpp:77] Creating layer bn4c_branch2c
I0305 19:53:15.953140 18660 net.cpp:100] Creating Layer bn4c_branch2c
I0305 19:53:15.953142 18660 net.cpp:434] bn4c_branch2c <- res4c_branch2c
I0305 19:53:15.953155 18660 net.cpp:395] bn4c_branch2c -> res4c_branch2c (in-place)
I0305 19:53:15.953310 18660 net.cpp:150] Setting up bn4c_branch2c
I0305 19:53:15.953316 18660 net.cpp:157] Top shape: 32 1024 14 14 (6422528)
I0305 19:53:15.953318 18660 net.cpp:165] Memory required for data: 6236274816
I0305 19:53:15.953332 18660 layer_factory.hpp:77] Creating layer scale4c_branch2c
I0305 19:53:15.953337 18660 net.cpp:100] Creating Layer scale4c_branch2c
I0305 19:53:15.953339 18660 net.cpp:434] scale4c_branch2c <- res4c_branch2c
I0305 19:53:15.953342 18660 net.cpp:395] scale4c_branch2c -> res4c_branch2c (in-place)
I0305 19:53:15.953378 18660 layer_factory.hpp:77] Creating layer scale4c_branch2c
I0305 19:53:15.953485 18660 net.cpp:150] Setting up scale4c_branch2c
I0305 19:53:15.953490 18660 net.cpp:157] Top shape: 32 1024 14 14 (6422528)
I0305 19:53:15.953491 18660 net.cpp:165] Memory required for data: 6261964928
I0305 19:53:15.953495 18660 layer_factory.hpp:77] Creating layer res4c
I0305 19:53:15.953498 18660 net.cpp:100] Creating Layer res4c
I0305 19:53:15.953501 18660 net.cpp:434] res4c <- res4b_res4b_relu_0_split_1
I0305 19:53:15.953503 18660 net.cpp:434] res4c <- res4c_branch2c
I0305 19:53:15.953517 18660 net.cpp:408] res4c -> res4c
I0305 19:53:15.953536 18660 net.cpp:150] Setting up res4c
I0305 19:53:15.953541 18660 net.cpp:157] Top shape: 32 1024 14 14 (6422528)
I0305 19:53:15.953542 18660 net.cpp:165] Memory required for data: 6287655040
I0305 19:53:15.953554 18660 layer_factory.hpp:77] Creating layer res4c_relu
I0305 19:53:15.953557 18660 net.cpp:100] Creating Layer res4c_relu
I0305 19:53:15.953559 18660 net.cpp:434] res4c_relu <- res4c
I0305 19:53:15.953572 18660 net.cpp:395] res4c_relu -> res4c (in-place)
I0305 19:53:15.953697 18660 net.cpp:150] Setting up res4c_relu
I0305 19:53:15.953704 18660 net.cpp:157] Top shape: 32 1024 14 14 (6422528)
I0305 19:53:15.953707 18660 net.cpp:165] Memory required for data: 6313345152
I0305 19:53:15.953709 18660 layer_factory.hpp:77] Creating layer res4c_res4c_relu_0_split
I0305 19:53:15.953722 18660 net.cpp:100] Creating Layer res4c_res4c_relu_0_split
I0305 19:53:15.953724 18660 net.cpp:434] res4c_res4c_relu_0_split <- res4c
I0305 19:53:15.953727 18660 net.cpp:408] res4c_res4c_relu_0_split -> res4c_res4c_relu_0_split_0
I0305 19:53:15.953732 18660 net.cpp:408] res4c_res4c_relu_0_split -> res4c_res4c_relu_0_split_1
I0305 19:53:15.953773 18660 net.cpp:150] Setting up res4c_res4c_relu_0_split
I0305 19:53:15.953776 18660 net.cpp:157] Top shape: 32 1024 14 14 (6422528)
I0305 19:53:15.953779 18660 net.cpp:157] Top shape: 32 1024 14 14 (6422528)
I0305 19:53:15.953780 18660 net.cpp:165] Memory required for data: 6364725376
I0305 19:53:15.953793 18660 layer_factory.hpp:77] Creating layer res4d_branch2a
I0305 19:53:15.953797 18660 net.cpp:100] Creating Layer res4d_branch2a
I0305 19:53:15.953799 18660 net.cpp:434] res4d_branch2a <- res4c_res4c_relu_0_split_0
I0305 19:53:15.953804 18660 net.cpp:408] res4d_branch2a -> res4d_branch2a
I0305 19:53:15.954859 18660 net.cpp:150] Setting up res4d_branch2a
I0305 19:53:15.954867 18660 net.cpp:157] Top shape: 32 256 14 14 (1605632)
I0305 19:53:15.954869 18660 net.cpp:165] Memory required for data: 6371147904
I0305 19:53:15.954882 18660 layer_factory.hpp:77] Creating layer bn4d_branch2a
I0305 19:53:15.954888 18660 net.cpp:100] Creating Layer bn4d_branch2a
I0305 19:53:15.954890 18660 net.cpp:434] bn4d_branch2a <- res4d_branch2a
I0305 19:53:15.954895 18660 net.cpp:395] bn4d_branch2a -> res4d_branch2a (in-place)
I0305 19:53:15.955049 18660 net.cpp:150] Setting up bn4d_branch2a
I0305 19:53:15.955054 18660 net.cpp:157] Top shape: 32 256 14 14 (1605632)
I0305 19:53:15.955055 18660 net.cpp:165] Memory required for data: 6377570432
I0305 19:53:15.955060 18660 layer_factory.hpp:77] Creating layer scale4d_branch2a
I0305 19:53:15.955065 18660 net.cpp:100] Creating Layer scale4d_branch2a
I0305 19:53:15.955067 18660 net.cpp:434] scale4d_branch2a <- res4d_branch2a
I0305 19:53:15.955080 18660 net.cpp:395] scale4d_branch2a -> res4d_branch2a (in-place)
I0305 19:53:15.955121 18660 layer_factory.hpp:77] Creating layer scale4d_branch2a
I0305 19:53:15.955224 18660 net.cpp:150] Setting up scale4d_branch2a
I0305 19:53:15.955229 18660 net.cpp:157] Top shape: 32 256 14 14 (1605632)
I0305 19:53:15.955230 18660 net.cpp:165] Memory required for data: 6383992960
I0305 19:53:15.955234 18660 layer_factory.hpp:77] Creating layer res4d_branch2a_relu
I0305 19:53:15.955237 18660 net.cpp:100] Creating Layer res4d_branch2a_relu
I0305 19:53:15.955240 18660 net.cpp:434] res4d_branch2a_relu <- res4d_branch2a
I0305 19:53:15.955241 18660 net.cpp:395] res4d_branch2a_relu -> res4d_branch2a (in-place)
I0305 19:53:15.955468 18660 net.cpp:150] Setting up res4d_branch2a_relu
I0305 19:53:15.955476 18660 net.cpp:157] Top shape: 32 256 14 14 (1605632)
I0305 19:53:15.955478 18660 net.cpp:165] Memory required for data: 6390415488
I0305 19:53:15.955489 18660 layer_factory.hpp:77] Creating layer res4d_branch2b
I0305 19:53:15.955497 18660 net.cpp:100] Creating Layer res4d_branch2b
I0305 19:53:15.955499 18660 net.cpp:434] res4d_branch2b <- res4d_branch2a
I0305 19:53:15.955503 18660 net.cpp:408] res4d_branch2b -> res4d_branch2b
I0305 19:53:15.956883 18660 net.cpp:150] Setting up res4d_branch2b
I0305 19:53:15.956893 18660 net.cpp:157] Top shape: 32 256 14 14 (1605632)
I0305 19:53:15.956895 18660 net.cpp:165] Memory required for data: 6396838016
I0305 19:53:15.956899 18660 layer_factory.hpp:77] Creating layer bn4d_branch2b
I0305 19:53:15.956904 18660 net.cpp:100] Creating Layer bn4d_branch2b
I0305 19:53:15.956907 18660 net.cpp:434] bn4d_branch2b <- res4d_branch2b
I0305 19:53:15.956920 18660 net.cpp:395] bn4d_branch2b -> res4d_branch2b (in-place)
I0305 19:53:15.957077 18660 net.cpp:150] Setting up bn4d_branch2b
I0305 19:53:15.957082 18660 net.cpp:157] Top shape: 32 256 14 14 (1605632)
I0305 19:53:15.957084 18660 net.cpp:165] Memory required for data: 6403260544
I0305 19:53:15.957089 18660 layer_factory.hpp:77] Creating layer scale4d_branch2b
I0305 19:53:15.957093 18660 net.cpp:100] Creating Layer scale4d_branch2b
I0305 19:53:15.957095 18660 net.cpp:434] scale4d_branch2b <- res4d_branch2b
I0305 19:53:15.957098 18660 net.cpp:395] scale4d_branch2b -> res4d_branch2b (in-place)
I0305 19:53:15.957149 18660 layer_factory.hpp:77] Creating layer scale4d_branch2b
I0305 19:53:15.957254 18660 net.cpp:150] Setting up scale4d_branch2b
I0305 19:53:15.957258 18660 net.cpp:157] Top shape: 32 256 14 14 (1605632)
I0305 19:53:15.957260 18660 net.cpp:165] Memory required for data: 6409683072
I0305 19:53:15.957264 18660 layer_factory.hpp:77] Creating layer res4d_branch2b_relu
I0305 19:53:15.957267 18660 net.cpp:100] Creating Layer res4d_branch2b_relu
I0305 19:53:15.957269 18660 net.cpp:434] res4d_branch2b_relu <- res4d_branch2b
I0305 19:53:15.957273 18660 net.cpp:395] res4d_branch2b_relu -> res4d_branch2b (in-place)
I0305 19:53:15.957499 18660 net.cpp:150] Setting up res4d_branch2b_relu
I0305 19:53:15.957506 18660 net.cpp:157] Top shape: 32 256 14 14 (1605632)
I0305 19:53:15.957509 18660 net.cpp:165] Memory required for data: 6416105600
I0305 19:53:15.957511 18660 layer_factory.hpp:77] Creating layer res4d_branch2c
I0305 19:53:15.957516 18660 net.cpp:100] Creating Layer res4d_branch2c
I0305 19:53:15.957518 18660 net.cpp:434] res4d_branch2c <- res4d_branch2b
I0305 19:53:15.957532 18660 net.cpp:408] res4d_branch2c -> res4d_branch2c
I0305 19:53:15.958647 18660 net.cpp:150] Setting up res4d_branch2c
I0305 19:53:15.958657 18660 net.cpp:157] Top shape: 32 1024 14 14 (6422528)
I0305 19:53:15.958659 18660 net.cpp:165] Memory required for data: 6441795712
I0305 19:53:15.958662 18660 layer_factory.hpp:77] Creating layer bn4d_branch2c
I0305 19:53:15.958667 18660 net.cpp:100] Creating Layer bn4d_branch2c
I0305 19:53:15.958669 18660 net.cpp:434] bn4d_branch2c <- res4d_branch2c
I0305 19:53:15.958683 18660 net.cpp:395] bn4d_branch2c -> res4d_branch2c (in-place)
I0305 19:53:15.958842 18660 net.cpp:150] Setting up bn4d_branch2c
I0305 19:53:15.958848 18660 net.cpp:157] Top shape: 32 1024 14 14 (6422528)
I0305 19:53:15.958850 18660 net.cpp:165] Memory required for data: 6467485824
I0305 19:53:15.958854 18660 layer_factory.hpp:77] Creating layer scale4d_branch2c
I0305 19:53:15.958859 18660 net.cpp:100] Creating Layer scale4d_branch2c
I0305 19:53:15.958861 18660 net.cpp:434] scale4d_branch2c <- res4d_branch2c
I0305 19:53:15.958873 18660 net.cpp:395] scale4d_branch2c -> res4d_branch2c (in-place)
I0305 19:53:15.958911 18660 layer_factory.hpp:77] Creating layer scale4d_branch2c
I0305 19:53:15.959017 18660 net.cpp:150] Setting up scale4d_branch2c
I0305 19:53:15.959022 18660 net.cpp:157] Top shape: 32 1024 14 14 (6422528)
I0305 19:53:15.959023 18660 net.cpp:165] Memory required for data: 6493175936
I0305 19:53:15.959026 18660 layer_factory.hpp:77] Creating layer res4d
I0305 19:53:15.959030 18660 net.cpp:100] Creating Layer res4d
I0305 19:53:15.959033 18660 net.cpp:434] res4d <- res4c_res4c_relu_0_split_1
I0305 19:53:15.959035 18660 net.cpp:434] res4d <- res4d_branch2c
I0305 19:53:15.959048 18660 net.cpp:408] res4d -> res4d
I0305 19:53:15.959066 18660 net.cpp:150] Setting up res4d
I0305 19:53:15.959081 18660 net.cpp:157] Top shape: 32 1024 14 14 (6422528)
I0305 19:53:15.959084 18660 net.cpp:165] Memory required for data: 6518866048
I0305 19:53:15.959085 18660 layer_factory.hpp:77] Creating layer res4d_relu
I0305 19:53:15.959089 18660 net.cpp:100] Creating Layer res4d_relu
I0305 19:53:15.959091 18660 net.cpp:434] res4d_relu <- res4d
I0305 19:53:15.959095 18660 net.cpp:395] res4d_relu -> res4d (in-place)
I0305 19:53:15.959228 18660 net.cpp:150] Setting up res4d_relu
I0305 19:53:15.959234 18660 net.cpp:157] Top shape: 32 1024 14 14 (6422528)
I0305 19:53:15.959236 18660 net.cpp:165] Memory required for data: 6544556160
I0305 19:53:15.959239 18660 layer_factory.hpp:77] Creating layer res4d_res4d_relu_0_split
I0305 19:53:15.959244 18660 net.cpp:100] Creating Layer res4d_res4d_relu_0_split
I0305 19:53:15.959245 18660 net.cpp:434] res4d_res4d_relu_0_split <- res4d
I0305 19:53:15.959249 18660 net.cpp:408] res4d_res4d_relu_0_split -> res4d_res4d_relu_0_split_0
I0305 19:53:15.959262 18660 net.cpp:408] res4d_res4d_relu_0_split -> res4d_res4d_relu_0_split_1
I0305 19:53:15.959303 18660 net.cpp:150] Setting up res4d_res4d_relu_0_split
I0305 19:53:15.959307 18660 net.cpp:157] Top shape: 32 1024 14 14 (6422528)
I0305 19:53:15.959311 18660 net.cpp:157] Top shape: 32 1024 14 14 (6422528)
I0305 19:53:15.959312 18660 net.cpp:165] Memory required for data: 6595936384
I0305 19:53:15.959314 18660 layer_factory.hpp:77] Creating layer res4e_branch2a
I0305 19:53:15.959318 18660 net.cpp:100] Creating Layer res4e_branch2a
I0305 19:53:15.959321 18660 net.cpp:434] res4e_branch2a <- res4d_res4d_relu_0_split_0
I0305 19:53:15.959333 18660 net.cpp:408] res4e_branch2a -> res4e_branch2a
I0305 19:53:15.960374 18660 net.cpp:150] Setting up res4e_branch2a
I0305 19:53:15.960383 18660 net.cpp:157] Top shape: 32 256 14 14 (1605632)
I0305 19:53:15.960386 18660 net.cpp:165] Memory required for data: 6602358912
I0305 19:53:15.960389 18660 layer_factory.hpp:77] Creating layer bn4e_branch2a
I0305 19:53:15.960403 18660 net.cpp:100] Creating Layer bn4e_branch2a
I0305 19:53:15.960405 18660 net.cpp:434] bn4e_branch2a <- res4e_branch2a
I0305 19:53:15.960408 18660 net.cpp:395] bn4e_branch2a -> res4e_branch2a (in-place)
I0305 19:53:15.960569 18660 net.cpp:150] Setting up bn4e_branch2a
I0305 19:53:15.960575 18660 net.cpp:157] Top shape: 32 256 14 14 (1605632)
I0305 19:53:15.960577 18660 net.cpp:165] Memory required for data: 6608781440
I0305 19:53:15.960582 18660 layer_factory.hpp:77] Creating layer scale4e_branch2a
I0305 19:53:15.960585 18660 net.cpp:100] Creating Layer scale4e_branch2a
I0305 19:53:15.960587 18660 net.cpp:434] scale4e_branch2a <- res4e_branch2a
I0305 19:53:15.960599 18660 net.cpp:395] scale4e_branch2a -> res4e_branch2a (in-place)
I0305 19:53:15.960642 18660 layer_factory.hpp:77] Creating layer scale4e_branch2a
I0305 19:53:15.960744 18660 net.cpp:150] Setting up scale4e_branch2a
I0305 19:53:15.960749 18660 net.cpp:157] Top shape: 32 256 14 14 (1605632)
I0305 19:53:15.960752 18660 net.cpp:165] Memory required for data: 6615203968
I0305 19:53:15.960764 18660 layer_factory.hpp:77] Creating layer res4e_branch2a_relu
I0305 19:53:15.960768 18660 net.cpp:100] Creating Layer res4e_branch2a_relu
I0305 19:53:15.960770 18660 net.cpp:434] res4e_branch2a_relu <- res4e_branch2a
I0305 19:53:15.960773 18660 net.cpp:395] res4e_branch2a_relu -> res4e_branch2a (in-place)
I0305 19:53:15.960991 18660 net.cpp:150] Setting up res4e_branch2a_relu
I0305 19:53:15.960999 18660 net.cpp:157] Top shape: 32 256 14 14 (1605632)
I0305 19:53:15.961001 18660 net.cpp:165] Memory required for data: 6621626496
I0305 19:53:15.961014 18660 layer_factory.hpp:77] Creating layer res4e_branch2b
I0305 19:53:15.961019 18660 net.cpp:100] Creating Layer res4e_branch2b
I0305 19:53:15.961020 18660 net.cpp:434] res4e_branch2b <- res4e_branch2a
I0305 19:53:15.961024 18660 net.cpp:408] res4e_branch2b -> res4e_branch2b
I0305 19:53:15.962396 18660 net.cpp:150] Setting up res4e_branch2b
I0305 19:53:15.962405 18660 net.cpp:157] Top shape: 32 256 14 14 (1605632)
I0305 19:53:15.962407 18660 net.cpp:165] Memory required for data: 6628049024
I0305 19:53:15.962410 18660 layer_factory.hpp:77] Creating layer bn4e_branch2b
I0305 19:53:15.962415 18660 net.cpp:100] Creating Layer bn4e_branch2b
I0305 19:53:15.962417 18660 net.cpp:434] bn4e_branch2b <- res4e_branch2b
I0305 19:53:15.962431 18660 net.cpp:395] bn4e_branch2b -> res4e_branch2b (in-place)
I0305 19:53:15.962594 18660 net.cpp:150] Setting up bn4e_branch2b
I0305 19:53:15.962599 18660 net.cpp:157] Top shape: 32 256 14 14 (1605632)
I0305 19:53:15.962600 18660 net.cpp:165] Memory required for data: 6634471552
I0305 19:53:15.962605 18660 layer_factory.hpp:77] Creating layer scale4e_branch2b
I0305 19:53:15.962610 18660 net.cpp:100] Creating Layer scale4e_branch2b
I0305 19:53:15.962611 18660 net.cpp:434] scale4e_branch2b <- res4e_branch2b
I0305 19:53:15.962623 18660 net.cpp:395] scale4e_branch2b -> res4e_branch2b (in-place)
I0305 19:53:15.962666 18660 layer_factory.hpp:77] Creating layer scale4e_branch2b
I0305 19:53:15.962769 18660 net.cpp:150] Setting up scale4e_branch2b
I0305 19:53:15.962774 18660 net.cpp:157] Top shape: 32 256 14 14 (1605632)
I0305 19:53:15.962775 18660 net.cpp:165] Memory required for data: 6640894080
I0305 19:53:15.962779 18660 layer_factory.hpp:77] Creating layer res4e_branch2b_relu
I0305 19:53:15.962782 18660 net.cpp:100] Creating Layer res4e_branch2b_relu
I0305 19:53:15.962785 18660 net.cpp:434] res4e_branch2b_relu <- res4e_branch2b
I0305 19:53:15.962787 18660 net.cpp:395] res4e_branch2b_relu -> res4e_branch2b (in-place)
I0305 19:53:15.963039 18660 net.cpp:150] Setting up res4e_branch2b_relu
I0305 19:53:15.963047 18660 net.cpp:157] Top shape: 32 256 14 14 (1605632)
I0305 19:53:15.963058 18660 net.cpp:165] Memory required for data: 6647316608
I0305 19:53:15.963062 18660 layer_factory.hpp:77] Creating layer res4e_branch2c
I0305 19:53:15.963066 18660 net.cpp:100] Creating Layer res4e_branch2c
I0305 19:53:15.963069 18660 net.cpp:434] res4e_branch2c <- res4e_branch2b
I0305 19:53:15.963073 18660 net.cpp:408] res4e_branch2c -> res4e_branch2c
I0305 19:53:15.964148 18660 net.cpp:150] Setting up res4e_branch2c
I0305 19:53:15.964157 18660 net.cpp:157] Top shape: 32 1024 14 14 (6422528)
I0305 19:53:15.964159 18660 net.cpp:165] Memory required for data: 6673006720
I0305 19:53:15.964164 18660 layer_factory.hpp:77] Creating layer bn4e_branch2c
I0305 19:53:15.964169 18660 net.cpp:100] Creating Layer bn4e_branch2c
I0305 19:53:15.964170 18660 net.cpp:434] bn4e_branch2c <- res4e_branch2c
I0305 19:53:15.964184 18660 net.cpp:395] bn4e_branch2c -> res4e_branch2c (in-place)
I0305 19:53:15.964349 18660 net.cpp:150] Setting up bn4e_branch2c
I0305 19:53:15.964354 18660 net.cpp:157] Top shape: 32 1024 14 14 (6422528)
I0305 19:53:15.964355 18660 net.cpp:165] Memory required for data: 6698696832
I0305 19:53:15.964360 18660 layer_factory.hpp:77] Creating layer scale4e_branch2c
I0305 19:53:15.964365 18660 net.cpp:100] Creating Layer scale4e_branch2c
I0305 19:53:15.964366 18660 net.cpp:434] scale4e_branch2c <- res4e_branch2c
I0305 19:53:15.964380 18660 net.cpp:395] scale4e_branch2c -> res4e_branch2c (in-place)
I0305 19:53:15.964417 18660 layer_factory.hpp:77] Creating layer scale4e_branch2c
I0305 19:53:15.964524 18660 net.cpp:150] Setting up scale4e_branch2c
I0305 19:53:15.964529 18660 net.cpp:157] Top shape: 32 1024 14 14 (6422528)
I0305 19:53:15.964531 18660 net.cpp:165] Memory required for data: 6724386944
I0305 19:53:15.964545 18660 layer_factory.hpp:77] Creating layer res4e
I0305 19:53:15.964550 18660 net.cpp:100] Creating Layer res4e
I0305 19:53:15.964552 18660 net.cpp:434] res4e <- res4d_res4d_relu_0_split_1
I0305 19:53:15.964555 18660 net.cpp:434] res4e <- res4e_branch2c
I0305 19:53:15.964557 18660 net.cpp:408] res4e -> res4e
I0305 19:53:15.964577 18660 net.cpp:150] Setting up res4e
I0305 19:53:15.964591 18660 net.cpp:157] Top shape: 32 1024 14 14 (6422528)
I0305 19:53:15.964593 18660 net.cpp:165] Memory required for data: 6750077056
I0305 19:53:15.964596 18660 layer_factory.hpp:77] Creating layer res4e_relu
I0305 19:53:15.964598 18660 net.cpp:100] Creating Layer res4e_relu
I0305 19:53:15.964610 18660 net.cpp:434] res4e_relu <- res4e
I0305 19:53:15.964613 18660 net.cpp:395] res4e_relu -> res4e (in-place)
I0305 19:53:15.964738 18660 net.cpp:150] Setting up res4e_relu
I0305 19:53:15.964745 18660 net.cpp:157] Top shape: 32 1024 14 14 (6422528)
I0305 19:53:15.964746 18660 net.cpp:165] Memory required for data: 6775767168
I0305 19:53:15.964748 18660 layer_factory.hpp:77] Creating layer res4e_res4e_relu_0_split
I0305 19:53:15.964753 18660 net.cpp:100] Creating Layer res4e_res4e_relu_0_split
I0305 19:53:15.964756 18660 net.cpp:434] res4e_res4e_relu_0_split <- res4e
I0305 19:53:15.964758 18660 net.cpp:408] res4e_res4e_relu_0_split -> res4e_res4e_relu_0_split_0
I0305 19:53:15.964772 18660 net.cpp:408] res4e_res4e_relu_0_split -> res4e_res4e_relu_0_split_1
I0305 19:53:15.964813 18660 net.cpp:150] Setting up res4e_res4e_relu_0_split
I0305 19:53:15.964818 18660 net.cpp:157] Top shape: 32 1024 14 14 (6422528)
I0305 19:53:15.964821 18660 net.cpp:157] Top shape: 32 1024 14 14 (6422528)
I0305 19:53:15.964823 18660 net.cpp:165] Memory required for data: 6827147392
I0305 19:53:15.964834 18660 layer_factory.hpp:77] Creating layer res4f_branch2a
I0305 19:53:15.964838 18660 net.cpp:100] Creating Layer res4f_branch2a
I0305 19:53:15.964841 18660 net.cpp:434] res4f_branch2a <- res4e_res4e_relu_0_split_0
I0305 19:53:15.964844 18660 net.cpp:408] res4f_branch2a -> res4f_branch2a
I0305 19:53:15.965878 18660 net.cpp:150] Setting up res4f_branch2a
I0305 19:53:15.965886 18660 net.cpp:157] Top shape: 32 256 14 14 (1605632)
I0305 19:53:15.965898 18660 net.cpp:165] Memory required for data: 6833569920
I0305 19:53:15.965903 18660 layer_factory.hpp:77] Creating layer bn4f_branch2a
I0305 19:53:15.965906 18660 net.cpp:100] Creating Layer bn4f_branch2a
I0305 19:53:15.965909 18660 net.cpp:434] bn4f_branch2a <- res4f_branch2a
I0305 19:53:15.965912 18660 net.cpp:395] bn4f_branch2a -> res4f_branch2a (in-place)
I0305 19:53:15.966075 18660 net.cpp:150] Setting up bn4f_branch2a
I0305 19:53:15.966081 18660 net.cpp:157] Top shape: 32 256 14 14 (1605632)
I0305 19:53:15.966084 18660 net.cpp:165] Memory required for data: 6839992448
I0305 19:53:15.966097 18660 layer_factory.hpp:77] Creating layer scale4f_branch2a
I0305 19:53:15.966101 18660 net.cpp:100] Creating Layer scale4f_branch2a
I0305 19:53:15.966104 18660 net.cpp:434] scale4f_branch2a <- res4f_branch2a
I0305 19:53:15.966106 18660 net.cpp:395] scale4f_branch2a -> res4f_branch2a (in-place)
I0305 19:53:15.966147 18660 layer_factory.hpp:77] Creating layer scale4f_branch2a
I0305 19:53:15.966253 18660 net.cpp:150] Setting up scale4f_branch2a
I0305 19:53:15.966258 18660 net.cpp:157] Top shape: 32 256 14 14 (1605632)
I0305 19:53:15.966259 18660 net.cpp:165] Memory required for data: 6846414976
I0305 19:53:15.966264 18660 layer_factory.hpp:77] Creating layer res4f_branch2a_relu
I0305 19:53:15.966266 18660 net.cpp:100] Creating Layer res4f_branch2a_relu
I0305 19:53:15.966269 18660 net.cpp:434] res4f_branch2a_relu <- res4f_branch2a
I0305 19:53:15.966272 18660 net.cpp:395] res4f_branch2a_relu -> res4f_branch2a (in-place)
I0305 19:53:15.966501 18660 net.cpp:150] Setting up res4f_branch2a_relu
I0305 19:53:15.966509 18660 net.cpp:157] Top shape: 32 256 14 14 (1605632)
I0305 19:53:15.966511 18660 net.cpp:165] Memory required for data: 6852837504
I0305 19:53:15.966513 18660 layer_factory.hpp:77] Creating layer res4f_branch2b
I0305 19:53:15.966519 18660 net.cpp:100] Creating Layer res4f_branch2b
I0305 19:53:15.966521 18660 net.cpp:434] res4f_branch2b <- res4f_branch2a
I0305 19:53:15.966534 18660 net.cpp:408] res4f_branch2b -> res4f_branch2b
I0305 19:53:15.968098 18660 net.cpp:150] Setting up res4f_branch2b
I0305 19:53:15.968109 18660 net.cpp:157] Top shape: 32 256 14 14 (1605632)
I0305 19:53:15.968122 18660 net.cpp:165] Memory required for data: 6859260032
I0305 19:53:15.968125 18660 layer_factory.hpp:77] Creating layer bn4f_branch2b
I0305 19:53:15.968140 18660 net.cpp:100] Creating Layer bn4f_branch2b
I0305 19:53:15.968143 18660 net.cpp:434] bn4f_branch2b <- res4f_branch2b
I0305 19:53:15.968156 18660 net.cpp:395] bn4f_branch2b -> res4f_branch2b (in-place)
I0305 19:53:15.968327 18660 net.cpp:150] Setting up bn4f_branch2b
I0305 19:53:15.968333 18660 net.cpp:157] Top shape: 32 256 14 14 (1605632)
I0305 19:53:15.968334 18660 net.cpp:165] Memory required for data: 6865682560
I0305 19:53:15.968339 18660 layer_factory.hpp:77] Creating layer scale4f_branch2b
I0305 19:53:15.968343 18660 net.cpp:100] Creating Layer scale4f_branch2b
I0305 19:53:15.968345 18660 net.cpp:434] scale4f_branch2b <- res4f_branch2b
I0305 19:53:15.968358 18660 net.cpp:395] scale4f_branch2b -> res4f_branch2b (in-place)
I0305 19:53:15.968402 18660 layer_factory.hpp:77] Creating layer scale4f_branch2b
I0305 19:53:15.968508 18660 net.cpp:150] Setting up scale4f_branch2b
I0305 19:53:15.968514 18660 net.cpp:157] Top shape: 32 256 14 14 (1605632)
I0305 19:53:15.968516 18660 net.cpp:165] Memory required for data: 6872105088
I0305 19:53:15.968519 18660 layer_factory.hpp:77] Creating layer res4f_branch2b_relu
I0305 19:53:15.968523 18660 net.cpp:100] Creating Layer res4f_branch2b_relu
I0305 19:53:15.968525 18660 net.cpp:434] res4f_branch2b_relu <- res4f_branch2b
I0305 19:53:15.968528 18660 net.cpp:395] res4f_branch2b_relu -> res4f_branch2b (in-place)
I0305 19:53:15.968762 18660 net.cpp:150] Setting up res4f_branch2b_relu
I0305 19:53:15.968770 18660 net.cpp:157] Top shape: 32 256 14 14 (1605632)
I0305 19:53:15.968772 18660 net.cpp:165] Memory required for data: 6878527616
I0305 19:53:15.968775 18660 layer_factory.hpp:77] Creating layer res4f_branch2c
I0305 19:53:15.968780 18660 net.cpp:100] Creating Layer res4f_branch2c
I0305 19:53:15.968783 18660 net.cpp:434] res4f_branch2c <- res4f_branch2b
I0305 19:53:15.968796 18660 net.cpp:408] res4f_branch2c -> res4f_branch2c
I0305 19:53:15.969859 18660 net.cpp:150] Setting up res4f_branch2c
I0305 19:53:15.969868 18660 net.cpp:157] Top shape: 32 1024 14 14 (6422528)
I0305 19:53:15.969871 18660 net.cpp:165] Memory required for data: 6904217728
I0305 19:53:15.969874 18660 layer_factory.hpp:77] Creating layer bn4f_branch2c
I0305 19:53:15.969879 18660 net.cpp:100] Creating Layer bn4f_branch2c
I0305 19:53:15.969882 18660 net.cpp:434] bn4f_branch2c <- res4f_branch2c
I0305 19:53:15.969895 18660 net.cpp:395] bn4f_branch2c -> res4f_branch2c (in-place)
I0305 19:53:15.970063 18660 net.cpp:150] Setting up bn4f_branch2c
I0305 19:53:15.970068 18660 net.cpp:157] Top shape: 32 1024 14 14 (6422528)
I0305 19:53:15.970070 18660 net.cpp:165] Memory required for data: 6929907840
I0305 19:53:15.970104 18660 layer_factory.hpp:77] Creating layer scale4f_branch2c
I0305 19:53:15.970122 18660 net.cpp:100] Creating Layer scale4f_branch2c
I0305 19:53:15.970124 18660 net.cpp:434] scale4f_branch2c <- res4f_branch2c
I0305 19:53:15.970127 18660 net.cpp:395] scale4f_branch2c -> res4f_branch2c (in-place)
I0305 19:53:15.970180 18660 layer_factory.hpp:77] Creating layer scale4f_branch2c
I0305 19:53:15.970293 18660 net.cpp:150] Setting up scale4f_branch2c
I0305 19:53:15.970298 18660 net.cpp:157] Top shape: 32 1024 14 14 (6422528)
I0305 19:53:15.970299 18660 net.cpp:165] Memory required for data: 6955597952
I0305 19:53:15.970314 18660 layer_factory.hpp:77] Creating layer res4f
I0305 19:53:15.970316 18660 net.cpp:100] Creating Layer res4f
I0305 19:53:15.970319 18660 net.cpp:434] res4f <- res4e_res4e_relu_0_split_1
I0305 19:53:15.970321 18660 net.cpp:434] res4f <- res4f_branch2c
I0305 19:53:15.970325 18660 net.cpp:408] res4f -> res4f
I0305 19:53:15.970345 18660 net.cpp:150] Setting up res4f
I0305 19:53:15.970360 18660 net.cpp:157] Top shape: 32 1024 14 14 (6422528)
I0305 19:53:15.970361 18660 net.cpp:165] Memory required for data: 6981288064
I0305 19:53:15.970363 18660 layer_factory.hpp:77] Creating layer res4f_relu
I0305 19:53:15.970367 18660 net.cpp:100] Creating Layer res4f_relu
I0305 19:53:15.970379 18660 net.cpp:434] res4f_relu <- res4f
I0305 19:53:15.970381 18660 net.cpp:395] res4f_relu -> res4f (in-place)
I0305 19:53:15.970510 18660 net.cpp:150] Setting up res4f_relu
I0305 19:53:15.970515 18660 net.cpp:157] Top shape: 32 1024 14 14 (6422528)
I0305 19:53:15.970517 18660 net.cpp:165] Memory required for data: 7006978176
I0305 19:53:15.970530 18660 layer_factory.hpp:77] Creating layer res4f_res4f_relu_0_split
I0305 19:53:15.970535 18660 net.cpp:100] Creating Layer res4f_res4f_relu_0_split
I0305 19:53:15.970537 18660 net.cpp:434] res4f_res4f_relu_0_split <- res4f
I0305 19:53:15.970541 18660 net.cpp:408] res4f_res4f_relu_0_split -> res4f_res4f_relu_0_split_0
I0305 19:53:15.970546 18660 net.cpp:408] res4f_res4f_relu_0_split -> res4f_res4f_relu_0_split_1
I0305 19:53:15.970588 18660 net.cpp:150] Setting up res4f_res4f_relu_0_split
I0305 19:53:15.970592 18660 net.cpp:157] Top shape: 32 1024 14 14 (6422528)
I0305 19:53:15.970595 18660 net.cpp:157] Top shape: 32 1024 14 14 (6422528)
I0305 19:53:15.970597 18660 net.cpp:165] Memory required for data: 7058358400
I0305 19:53:15.970608 18660 layer_factory.hpp:77] Creating layer res5a_branch1
I0305 19:53:15.970613 18660 net.cpp:100] Creating Layer res5a_branch1
I0305 19:53:15.970615 18660 net.cpp:434] res5a_branch1 <- res4f_res4f_relu_0_split_0
I0305 19:53:15.970619 18660 net.cpp:408] res5a_branch1 -> res5a_branch1
I0305 19:53:15.974086 18660 net.cpp:150] Setting up res5a_branch1
I0305 19:53:15.974112 18660 net.cpp:157] Top shape: 32 2048 7 7 (3211264)
I0305 19:53:15.974115 18660 net.cpp:165] Memory required for data: 7071203456
I0305 19:53:15.974122 18660 layer_factory.hpp:77] Creating layer bn5a_branch1
I0305 19:53:15.974140 18660 net.cpp:100] Creating Layer bn5a_branch1
I0305 19:53:15.974144 18660 net.cpp:434] bn5a_branch1 <- res5a_branch1
I0305 19:53:15.974148 18660 net.cpp:395] bn5a_branch1 -> res5a_branch1 (in-place)
I0305 19:53:15.974340 18660 net.cpp:150] Setting up bn5a_branch1
I0305 19:53:15.974345 18660 net.cpp:157] Top shape: 32 2048 7 7 (3211264)
I0305 19:53:15.974347 18660 net.cpp:165] Memory required for data: 7084048512
I0305 19:53:15.974362 18660 layer_factory.hpp:77] Creating layer scale5a_branch1
I0305 19:53:15.974367 18660 net.cpp:100] Creating Layer scale5a_branch1
I0305 19:53:15.974370 18660 net.cpp:434] scale5a_branch1 <- res5a_branch1
I0305 19:53:15.974372 18660 net.cpp:395] scale5a_branch1 -> res5a_branch1 (in-place)
I0305 19:53:15.974419 18660 layer_factory.hpp:77] Creating layer scale5a_branch1
I0305 19:53:15.974536 18660 net.cpp:150] Setting up scale5a_branch1
I0305 19:53:15.974541 18660 net.cpp:157] Top shape: 32 2048 7 7 (3211264)
I0305 19:53:15.974542 18660 net.cpp:165] Memory required for data: 7096893568
I0305 19:53:15.974556 18660 layer_factory.hpp:77] Creating layer res5a_branch2a
I0305 19:53:15.974563 18660 net.cpp:100] Creating Layer res5a_branch2a
I0305 19:53:15.974567 18660 net.cpp:434] res5a_branch2a <- res4f_res4f_relu_0_split_1
I0305 19:53:15.974570 18660 net.cpp:408] res5a_branch2a -> res5a_branch2a
I0305 19:53:15.976017 18660 net.cpp:150] Setting up res5a_branch2a
I0305 19:53:15.976027 18660 net.cpp:157] Top shape: 32 512 7 7 (802816)
I0305 19:53:15.976029 18660 net.cpp:165] Memory required for data: 7100104832
I0305 19:53:15.976042 18660 layer_factory.hpp:77] Creating layer bn5a_branch2a
I0305 19:53:15.976047 18660 net.cpp:100] Creating Layer bn5a_branch2a
I0305 19:53:15.976049 18660 net.cpp:434] bn5a_branch2a <- res5a_branch2a
I0305 19:53:15.976053 18660 net.cpp:395] bn5a_branch2a -> res5a_branch2a (in-place)
I0305 19:53:15.976239 18660 net.cpp:150] Setting up bn5a_branch2a
I0305 19:53:15.976245 18660 net.cpp:157] Top shape: 32 512 7 7 (802816)
I0305 19:53:15.976248 18660 net.cpp:165] Memory required for data: 7103316096
I0305 19:53:15.976253 18660 layer_factory.hpp:77] Creating layer scale5a_branch2a
I0305 19:53:15.976256 18660 net.cpp:100] Creating Layer scale5a_branch2a
I0305 19:53:15.976258 18660 net.cpp:434] scale5a_branch2a <- res5a_branch2a
I0305 19:53:15.976261 18660 net.cpp:395] scale5a_branch2a -> res5a_branch2a (in-place)
I0305 19:53:15.976312 18660 layer_factory.hpp:77] Creating layer scale5a_branch2a
I0305 19:53:15.976424 18660 net.cpp:150] Setting up scale5a_branch2a
I0305 19:53:15.976429 18660 net.cpp:157] Top shape: 32 512 7 7 (802816)
I0305 19:53:15.976431 18660 net.cpp:165] Memory required for data: 7106527360
I0305 19:53:15.976435 18660 layer_factory.hpp:77] Creating layer res5a_branch2a_relu
I0305 19:53:15.976438 18660 net.cpp:100] Creating Layer res5a_branch2a_relu
I0305 19:53:15.976441 18660 net.cpp:434] res5a_branch2a_relu <- res5a_branch2a
I0305 19:53:15.976444 18660 net.cpp:395] res5a_branch2a_relu -> res5a_branch2a (in-place)
I0305 19:53:15.976584 18660 net.cpp:150] Setting up res5a_branch2a_relu
I0305 19:53:15.976590 18660 net.cpp:157] Top shape: 32 512 7 7 (802816)
I0305 19:53:15.976593 18660 net.cpp:165] Memory required for data: 7109738624
I0305 19:53:15.976594 18660 layer_factory.hpp:77] Creating layer res5a_branch2b
I0305 19:53:15.976599 18660 net.cpp:100] Creating Layer res5a_branch2b
I0305 19:53:15.976603 18660 net.cpp:434] res5a_branch2b <- res5a_branch2a
I0305 19:53:15.976615 18660 net.cpp:408] res5a_branch2b -> res5a_branch2b
I0305 19:53:15.980634 18660 net.cpp:150] Setting up res5a_branch2b
I0305 19:53:15.980659 18660 net.cpp:157] Top shape: 32 512 7 7 (802816)
I0305 19:53:15.980661 18660 net.cpp:165] Memory required for data: 7112949888
I0305 19:53:15.980667 18660 layer_factory.hpp:77] Creating layer bn5a_branch2b
I0305 19:53:15.980676 18660 net.cpp:100] Creating Layer bn5a_branch2b
I0305 19:53:15.980690 18660 net.cpp:434] bn5a_branch2b <- res5a_branch2b
I0305 19:53:15.980693 18660 net.cpp:395] bn5a_branch2b -> res5a_branch2b (in-place)
I0305 19:53:15.980881 18660 net.cpp:150] Setting up bn5a_branch2b
I0305 19:53:15.980886 18660 net.cpp:157] Top shape: 32 512 7 7 (802816)
I0305 19:53:15.980888 18660 net.cpp:165] Memory required for data: 7116161152
I0305 19:53:15.980893 18660 layer_factory.hpp:77] Creating layer scale5a_branch2b
I0305 19:53:15.980900 18660 net.cpp:100] Creating Layer scale5a_branch2b
I0305 19:53:15.980901 18660 net.cpp:434] scale5a_branch2b <- res5a_branch2b
I0305 19:53:15.980904 18660 net.cpp:395] scale5a_branch2b -> res5a_branch2b (in-place)
I0305 19:53:15.980969 18660 layer_factory.hpp:77] Creating layer scale5a_branch2b
I0305 19:53:15.981078 18660 net.cpp:150] Setting up scale5a_branch2b
I0305 19:53:15.981082 18660 net.cpp:157] Top shape: 32 512 7 7 (802816)
I0305 19:53:15.981084 18660 net.cpp:165] Memory required for data: 7119372416
I0305 19:53:15.981088 18660 layer_factory.hpp:77] Creating layer res5a_branch2b_relu
I0305 19:53:15.981093 18660 net.cpp:100] Creating Layer res5a_branch2b_relu
I0305 19:53:15.981096 18660 net.cpp:434] res5a_branch2b_relu <- res5a_branch2b
I0305 19:53:15.981098 18660 net.cpp:395] res5a_branch2b_relu -> res5a_branch2b (in-place)
I0305 19:53:15.981359 18660 net.cpp:150] Setting up res5a_branch2b_relu
I0305 19:53:15.981367 18660 net.cpp:157] Top shape: 32 512 7 7 (802816)
I0305 19:53:15.981379 18660 net.cpp:165] Memory required for data: 7122583680
I0305 19:53:15.981381 18660 layer_factory.hpp:77] Creating layer res5a_branch2c
I0305 19:53:15.981397 18660 net.cpp:100] Creating Layer res5a_branch2c
I0305 19:53:15.981400 18660 net.cpp:434] res5a_branch2c <- res5a_branch2b
I0305 19:53:15.981405 18660 net.cpp:408] res5a_branch2c -> res5a_branch2c
I0305 19:53:15.983230 18660 net.cpp:150] Setting up res5a_branch2c
I0305 19:53:15.983260 18660 net.cpp:157] Top shape: 32 2048 7 7 (3211264)
I0305 19:53:15.983263 18660 net.cpp:165] Memory required for data: 7135428736
I0305 19:53:15.983266 18660 layer_factory.hpp:77] Creating layer bn5a_branch2c
I0305 19:53:15.983281 18660 net.cpp:100] Creating Layer bn5a_branch2c
I0305 19:53:15.983284 18660 net.cpp:434] bn5a_branch2c <- res5a_branch2c
I0305 19:53:15.983288 18660 net.cpp:395] bn5a_branch2c -> res5a_branch2c (in-place)
I0305 19:53:15.983479 18660 net.cpp:150] Setting up bn5a_branch2c
I0305 19:53:15.983484 18660 net.cpp:157] Top shape: 32 2048 7 7 (3211264)
I0305 19:53:15.983495 18660 net.cpp:165] Memory required for data: 7148273792
I0305 19:53:15.983500 18660 layer_factory.hpp:77] Creating layer scale5a_branch2c
I0305 19:53:15.983515 18660 net.cpp:100] Creating Layer scale5a_branch2c
I0305 19:53:15.983517 18660 net.cpp:434] scale5a_branch2c <- res5a_branch2c
I0305 19:53:15.983520 18660 net.cpp:395] scale5a_branch2c -> res5a_branch2c (in-place)
I0305 19:53:15.983563 18660 layer_factory.hpp:77] Creating layer scale5a_branch2c
I0305 19:53:15.983710 18660 net.cpp:150] Setting up scale5a_branch2c
I0305 19:53:15.983713 18660 net.cpp:157] Top shape: 32 2048 7 7 (3211264)
I0305 19:53:15.983716 18660 net.cpp:165] Memory required for data: 7161118848
I0305 19:53:15.983729 18660 layer_factory.hpp:77] Creating layer res5a
I0305 19:53:15.983733 18660 net.cpp:100] Creating Layer res5a
I0305 19:53:15.983746 18660 net.cpp:434] res5a <- res5a_branch1
I0305 19:53:15.983747 18660 net.cpp:434] res5a <- res5a_branch2c
I0305 19:53:15.983752 18660 net.cpp:408] res5a -> res5a
I0305 19:53:15.983783 18660 net.cpp:150] Setting up res5a
I0305 19:53:15.983788 18660 net.cpp:157] Top shape: 32 2048 7 7 (3211264)
I0305 19:53:15.983788 18660 net.cpp:165] Memory required for data: 7173963904
I0305 19:53:15.983800 18660 layer_factory.hpp:77] Creating layer res5a_relu
I0305 19:53:15.983803 18660 net.cpp:100] Creating Layer res5a_relu
I0305 19:53:15.983806 18660 net.cpp:434] res5a_relu <- res5a
I0305 19:53:15.983817 18660 net.cpp:395] res5a_relu -> res5a (in-place)
I0305 19:53:15.984081 18660 net.cpp:150] Setting up res5a_relu
I0305 19:53:15.984088 18660 net.cpp:157] Top shape: 32 2048 7 7 (3211264)
I0305 19:53:15.984099 18660 net.cpp:165] Memory required for data: 7186808960
I0305 19:53:15.984102 18660 layer_factory.hpp:77] Creating layer res5a_res5a_relu_0_split
I0305 19:53:15.984107 18660 net.cpp:100] Creating Layer res5a_res5a_relu_0_split
I0305 19:53:15.984119 18660 net.cpp:434] res5a_res5a_relu_0_split <- res5a
I0305 19:53:15.984123 18660 net.cpp:408] res5a_res5a_relu_0_split -> res5a_res5a_relu_0_split_0
I0305 19:53:15.984127 18660 net.cpp:408] res5a_res5a_relu_0_split -> res5a_res5a_relu_0_split_1
I0305 19:53:15.984182 18660 net.cpp:150] Setting up res5a_res5a_relu_0_split
I0305 19:53:15.984186 18660 net.cpp:157] Top shape: 32 2048 7 7 (3211264)
I0305 19:53:15.984200 18660 net.cpp:157] Top shape: 32 2048 7 7 (3211264)
I0305 19:53:15.984201 18660 net.cpp:165] Memory required for data: 7212499072
I0305 19:53:15.984203 18660 layer_factory.hpp:77] Creating layer res5b_branch2a
I0305 19:53:15.984217 18660 net.cpp:100] Creating Layer res5b_branch2a
I0305 19:53:15.984220 18660 net.cpp:434] res5b_branch2a <- res5a_res5a_relu_0_split_0
I0305 19:53:15.984223 18660 net.cpp:408] res5b_branch2a -> res5b_branch2a
I0305 19:53:15.986326 18660 net.cpp:150] Setting up res5b_branch2a
I0305 19:53:15.986354 18660 net.cpp:157] Top shape: 32 512 7 7 (802816)
I0305 19:53:15.986357 18660 net.cpp:165] Memory required for data: 7215710336
I0305 19:53:15.986361 18660 layer_factory.hpp:77] Creating layer bn5b_branch2a
I0305 19:53:15.986378 18660 net.cpp:100] Creating Layer bn5b_branch2a
I0305 19:53:15.986382 18660 net.cpp:434] bn5b_branch2a <- res5b_branch2a
I0305 19:53:15.986387 18660 net.cpp:395] bn5b_branch2a -> res5b_branch2a (in-place)
I0305 19:53:15.986577 18660 net.cpp:150] Setting up bn5b_branch2a
I0305 19:53:15.986582 18660 net.cpp:157] Top shape: 32 512 7 7 (802816)
I0305 19:53:15.986594 18660 net.cpp:165] Memory required for data: 7218921600
I0305 19:53:15.986599 18660 layer_factory.hpp:77] Creating layer scale5b_branch2a
I0305 19:53:15.986613 18660 net.cpp:100] Creating Layer scale5b_branch2a
I0305 19:53:15.986616 18660 net.cpp:434] scale5b_branch2a <- res5b_branch2a
I0305 19:53:15.986619 18660 net.cpp:395] scale5b_branch2a -> res5b_branch2a (in-place)
I0305 19:53:15.986673 18660 layer_factory.hpp:77] Creating layer scale5b_branch2a
I0305 19:53:15.986829 18660 net.cpp:150] Setting up scale5b_branch2a
I0305 19:53:15.986834 18660 net.cpp:157] Top shape: 32 512 7 7 (802816)
I0305 19:53:15.986845 18660 net.cpp:165] Memory required for data: 7222132864
I0305 19:53:15.986848 18660 layer_factory.hpp:77] Creating layer res5b_branch2a_relu
I0305 19:53:15.986852 18660 net.cpp:100] Creating Layer res5b_branch2a_relu
I0305 19:53:15.986865 18660 net.cpp:434] res5b_branch2a_relu <- res5b_branch2a
I0305 19:53:15.986868 18660 net.cpp:395] res5b_branch2a_relu -> res5b_branch2a (in-place)
I0305 19:53:15.987027 18660 net.cpp:150] Setting up res5b_branch2a_relu
I0305 19:53:15.987033 18660 net.cpp:157] Top shape: 32 512 7 7 (802816)
I0305 19:53:15.987046 18660 net.cpp:165] Memory required for data: 7225344128
I0305 19:53:15.987047 18660 layer_factory.hpp:77] Creating layer res5b_branch2b
I0305 19:53:15.987063 18660 net.cpp:100] Creating Layer res5b_branch2b
I0305 19:53:15.987066 18660 net.cpp:434] res5b_branch2b <- res5b_branch2a
I0305 19:53:15.987069 18660 net.cpp:408] res5b_branch2b -> res5b_branch2b
I0305 19:53:15.991060 18660 net.cpp:150] Setting up res5b_branch2b
I0305 19:53:15.991093 18660 net.cpp:157] Top shape: 32 512 7 7 (802816)
I0305 19:53:15.991096 18660 net.cpp:165] Memory required for data: 7228555392
I0305 19:53:15.991102 18660 layer_factory.hpp:77] Creating layer bn5b_branch2b
I0305 19:53:15.991120 18660 net.cpp:100] Creating Layer bn5b_branch2b
I0305 19:53:15.991124 18660 net.cpp:434] bn5b_branch2b <- res5b_branch2b
I0305 19:53:15.991129 18660 net.cpp:395] bn5b_branch2b -> res5b_branch2b (in-place)
I0305 19:53:15.991328 18660 net.cpp:150] Setting up bn5b_branch2b
I0305 19:53:15.991333 18660 net.cpp:157] Top shape: 32 512 7 7 (802816)
I0305 19:53:15.991345 18660 net.cpp:165] Memory required for data: 7231766656
I0305 19:53:15.991350 18660 layer_factory.hpp:77] Creating layer scale5b_branch2b
I0305 19:53:15.991365 18660 net.cpp:100] Creating Layer scale5b_branch2b
I0305 19:53:15.991367 18660 net.cpp:434] scale5b_branch2b <- res5b_branch2b
I0305 19:53:15.991370 18660 net.cpp:395] scale5b_branch2b -> res5b_branch2b (in-place)
I0305 19:53:15.991418 18660 layer_factory.hpp:77] Creating layer scale5b_branch2b
I0305 19:53:15.991544 18660 net.cpp:150] Setting up scale5b_branch2b
I0305 19:53:15.991549 18660 net.cpp:157] Top shape: 32 512 7 7 (802816)
I0305 19:53:15.991560 18660 net.cpp:165] Memory required for data: 7234977920
I0305 19:53:15.991564 18660 layer_factory.hpp:77] Creating layer res5b_branch2b_relu
I0305 19:53:15.991569 18660 net.cpp:100] Creating Layer res5b_branch2b_relu
I0305 19:53:15.991580 18660 net.cpp:434] res5b_branch2b_relu <- res5b_branch2b
I0305 19:53:15.991582 18660 net.cpp:395] res5b_branch2b_relu -> res5b_branch2b (in-place)
I0305 19:53:15.991838 18660 net.cpp:150] Setting up res5b_branch2b_relu
I0305 19:53:15.991845 18660 net.cpp:157] Top shape: 32 512 7 7 (802816)
I0305 19:53:15.991858 18660 net.cpp:165] Memory required for data: 7238189184
I0305 19:53:15.991860 18660 layer_factory.hpp:77] Creating layer res5b_branch2c
I0305 19:53:15.991875 18660 net.cpp:100] Creating Layer res5b_branch2c
I0305 19:53:15.991878 18660 net.cpp:434] res5b_branch2c <- res5b_branch2b
I0305 19:53:15.991883 18660 net.cpp:408] res5b_branch2c -> res5b_branch2c
I0305 19:53:15.993734 18660 net.cpp:150] Setting up res5b_branch2c
I0305 19:53:15.993757 18660 net.cpp:157] Top shape: 32 2048 7 7 (3211264)
I0305 19:53:15.993759 18660 net.cpp:165] Memory required for data: 7251034240
I0305 19:53:15.993763 18660 layer_factory.hpp:77] Creating layer bn5b_branch2c
I0305 19:53:15.993778 18660 net.cpp:100] Creating Layer bn5b_branch2c
I0305 19:53:15.993782 18660 net.cpp:434] bn5b_branch2c <- res5b_branch2c
I0305 19:53:15.993787 18660 net.cpp:395] bn5b_branch2c -> res5b_branch2c (in-place)
I0305 19:53:15.993999 18660 net.cpp:150] Setting up bn5b_branch2c
I0305 19:53:15.994004 18660 net.cpp:157] Top shape: 32 2048 7 7 (3211264)
I0305 19:53:15.994015 18660 net.cpp:165] Memory required for data: 7263879296
I0305 19:53:15.994020 18660 layer_factory.hpp:77] Creating layer scale5b_branch2c
I0305 19:53:15.994035 18660 net.cpp:100] Creating Layer scale5b_branch2c
I0305 19:53:15.994036 18660 net.cpp:434] scale5b_branch2c <- res5b_branch2c
I0305 19:53:15.994040 18660 net.cpp:395] scale5b_branch2c -> res5b_branch2c (in-place)
I0305 19:53:15.994093 18660 layer_factory.hpp:77] Creating layer scale5b_branch2c
I0305 19:53:15.994223 18660 net.cpp:150] Setting up scale5b_branch2c
I0305 19:53:15.994228 18660 net.cpp:157] Top shape: 32 2048 7 7 (3211264)
I0305 19:53:15.994230 18660 net.cpp:165] Memory required for data: 7276724352
I0305 19:53:15.994244 18660 layer_factory.hpp:77] Creating layer res5b
I0305 19:53:15.994247 18660 net.cpp:100] Creating Layer res5b
I0305 19:53:15.994251 18660 net.cpp:434] res5b <- res5a_res5a_relu_0_split_1
I0305 19:53:15.994253 18660 net.cpp:434] res5b <- res5b_branch2c
I0305 19:53:15.994256 18660 net.cpp:408] res5b -> res5b
I0305 19:53:15.994278 18660 net.cpp:150] Setting up res5b
I0305 19:53:15.994293 18660 net.cpp:157] Top shape: 32 2048 7 7 (3211264)
I0305 19:53:15.994295 18660 net.cpp:165] Memory required for data: 7289569408
I0305 19:53:15.994297 18660 layer_factory.hpp:77] Creating layer res5b_relu
I0305 19:53:15.994300 18660 net.cpp:100] Creating Layer res5b_relu
I0305 19:53:15.994313 18660 net.cpp:434] res5b_relu <- res5b
I0305 19:53:15.994314 18660 net.cpp:395] res5b_relu -> res5b (in-place)
I0305 19:53:15.994570 18660 net.cpp:150] Setting up res5b_relu
I0305 19:53:15.994576 18660 net.cpp:157] Top shape: 32 2048 7 7 (3211264)
I0305 19:53:15.994588 18660 net.cpp:165] Memory required for data: 7302414464
I0305 19:53:15.994590 18660 layer_factory.hpp:77] Creating layer res5b_res5b_relu_0_split
I0305 19:53:15.994596 18660 net.cpp:100] Creating Layer res5b_res5b_relu_0_split
I0305 19:53:15.994607 18660 net.cpp:434] res5b_res5b_relu_0_split <- res5b
I0305 19:53:15.994611 18660 net.cpp:408] res5b_res5b_relu_0_split -> res5b_res5b_relu_0_split_0
I0305 19:53:15.994616 18660 net.cpp:408] res5b_res5b_relu_0_split -> res5b_res5b_relu_0_split_1
I0305 19:53:15.994671 18660 net.cpp:150] Setting up res5b_res5b_relu_0_split
I0305 19:53:15.994676 18660 net.cpp:157] Top shape: 32 2048 7 7 (3211264)
I0305 19:53:15.994688 18660 net.cpp:157] Top shape: 32 2048 7 7 (3211264)
I0305 19:53:15.994690 18660 net.cpp:165] Memory required for data: 7328104576
I0305 19:53:15.994693 18660 layer_factory.hpp:77] Creating layer res5c_branch2a
I0305 19:53:15.994706 18660 net.cpp:100] Creating Layer res5c_branch2a
I0305 19:53:15.994709 18660 net.cpp:434] res5c_branch2a <- res5b_res5b_relu_0_split_0
I0305 19:53:15.994714 18660 net.cpp:408] res5c_branch2a -> res5c_branch2a
I0305 19:53:15.996912 18660 net.cpp:150] Setting up res5c_branch2a
I0305 19:53:15.996935 18660 net.cpp:157] Top shape: 32 512 7 7 (802816)
I0305 19:53:15.996938 18660 net.cpp:165] Memory required for data: 7331315840
I0305 19:53:15.996943 18660 layer_factory.hpp:77] Creating layer bn5c_branch2a
I0305 19:53:15.996959 18660 net.cpp:100] Creating Layer bn5c_branch2a
I0305 19:53:15.996963 18660 net.cpp:434] bn5c_branch2a <- res5c_branch2a
I0305 19:53:15.996965 18660 net.cpp:395] bn5c_branch2a -> res5c_branch2a (in-place)
I0305 19:53:15.997155 18660 net.cpp:150] Setting up bn5c_branch2a
I0305 19:53:15.997161 18660 net.cpp:157] Top shape: 32 512 7 7 (802816)
I0305 19:53:15.997164 18660 net.cpp:165] Memory required for data: 7334527104
I0305 19:53:15.997177 18660 layer_factory.hpp:77] Creating layer scale5c_branch2a
I0305 19:53:15.997182 18660 net.cpp:100] Creating Layer scale5c_branch2a
I0305 19:53:15.997185 18660 net.cpp:434] scale5c_branch2a <- res5c_branch2a
I0305 19:53:15.997189 18660 net.cpp:395] scale5c_branch2a -> res5c_branch2a (in-place)
I0305 19:53:15.997233 18660 layer_factory.hpp:77] Creating layer scale5c_branch2a
I0305 19:53:15.997354 18660 net.cpp:150] Setting up scale5c_branch2a
I0305 19:53:15.997359 18660 net.cpp:157] Top shape: 32 512 7 7 (802816)
I0305 19:53:15.997360 18660 net.cpp:165] Memory required for data: 7337738368
I0305 19:53:15.997373 18660 layer_factory.hpp:77] Creating layer res5c_branch2a_relu
I0305 19:53:15.997378 18660 net.cpp:100] Creating Layer res5c_branch2a_relu
I0305 19:53:15.997380 18660 net.cpp:434] res5c_branch2a_relu <- res5c_branch2a
I0305 19:53:15.997383 18660 net.cpp:395] res5c_branch2a_relu -> res5c_branch2a (in-place)
I0305 19:53:15.997519 18660 net.cpp:150] Setting up res5c_branch2a_relu
I0305 19:53:15.997524 18660 net.cpp:157] Top shape: 32 512 7 7 (802816)
I0305 19:53:15.997526 18660 net.cpp:165] Memory required for data: 7340949632
I0305 19:53:15.997537 18660 layer_factory.hpp:77] Creating layer res5c_branch2b
I0305 19:53:15.997545 18660 net.cpp:100] Creating Layer res5c_branch2b
I0305 19:53:15.997546 18660 net.cpp:434] res5c_branch2b <- res5c_branch2a
I0305 19:53:15.997550 18660 net.cpp:408] res5c_branch2b -> res5c_branch2b
I0305 19:53:16.001596 18660 net.cpp:150] Setting up res5c_branch2b
I0305 19:53:16.001621 18660 net.cpp:157] Top shape: 32 512 7 7 (802816)
I0305 19:53:16.001624 18660 net.cpp:165] Memory required for data: 7344160896
I0305 19:53:16.001631 18660 layer_factory.hpp:77] Creating layer bn5c_branch2b
I0305 19:53:16.001641 18660 net.cpp:100] Creating Layer bn5c_branch2b
I0305 19:53:16.001654 18660 net.cpp:434] bn5c_branch2b <- res5c_branch2b
I0305 19:53:16.001659 18660 net.cpp:395] bn5c_branch2b -> res5c_branch2b (in-place)
I0305 19:53:16.001858 18660 net.cpp:150] Setting up bn5c_branch2b
I0305 19:53:16.001864 18660 net.cpp:157] Top shape: 32 512 7 7 (802816)
I0305 19:53:16.001866 18660 net.cpp:165] Memory required for data: 7347372160
I0305 19:53:16.001871 18660 layer_factory.hpp:77] Creating layer scale5c_branch2b
I0305 19:53:16.001878 18660 net.cpp:100] Creating Layer scale5c_branch2b
I0305 19:53:16.001879 18660 net.cpp:434] scale5c_branch2b <- res5c_branch2b
I0305 19:53:16.001893 18660 net.cpp:395] scale5c_branch2b -> res5c_branch2b (in-place)
I0305 19:53:16.001942 18660 layer_factory.hpp:77] Creating layer scale5c_branch2b
I0305 19:53:16.002068 18660 net.cpp:150] Setting up scale5c_branch2b
I0305 19:53:16.002073 18660 net.cpp:157] Top shape: 32 512 7 7 (802816)
I0305 19:53:16.002074 18660 net.cpp:165] Memory required for data: 7350583424
I0305 19:53:16.002079 18660 layer_factory.hpp:77] Creating layer res5c_branch2b_relu
I0305 19:53:16.002082 18660 net.cpp:100] Creating Layer res5c_branch2b_relu
I0305 19:53:16.002084 18660 net.cpp:434] res5c_branch2b_relu <- res5c_branch2b
I0305 19:53:16.002087 18660 net.cpp:395] res5c_branch2b_relu -> res5c_branch2b (in-place)
I0305 19:53:16.002329 18660 net.cpp:150] Setting up res5c_branch2b_relu
I0305 19:53:16.002337 18660 net.cpp:157] Top shape: 32 512 7 7 (802816)
I0305 19:53:16.002339 18660 net.cpp:165] Memory required for data: 7353794688
I0305 19:53:16.002341 18660 layer_factory.hpp:77] Creating layer res5c_branch2c
I0305 19:53:16.002348 18660 net.cpp:100] Creating Layer res5c_branch2c
I0305 19:53:16.002351 18660 net.cpp:434] res5c_branch2c <- res5c_branch2b
I0305 19:53:16.002363 18660 net.cpp:408] res5c_branch2c -> res5c_branch2c
I0305 19:53:16.004284 18660 net.cpp:150] Setting up res5c_branch2c
I0305 19:53:16.004295 18660 net.cpp:157] Top shape: 32 2048 7 7 (3211264)
I0305 19:53:16.004298 18660 net.cpp:165] Memory required for data: 7366639744
I0305 19:53:16.004302 18660 layer_factory.hpp:77] Creating layer bn5c_branch2c
I0305 19:53:16.004307 18660 net.cpp:100] Creating Layer bn5c_branch2c
I0305 19:53:16.004320 18660 net.cpp:434] bn5c_branch2c <- res5c_branch2c
I0305 19:53:16.004323 18660 net.cpp:395] bn5c_branch2c -> res5c_branch2c (in-place)
I0305 19:53:16.004510 18660 net.cpp:150] Setting up bn5c_branch2c
I0305 19:53:16.004515 18660 net.cpp:157] Top shape: 32 2048 7 7 (3211264)
I0305 19:53:16.004518 18660 net.cpp:165] Memory required for data: 7379484800
I0305 19:53:16.004523 18660 layer_factory.hpp:77] Creating layer scale5c_branch2c
I0305 19:53:16.004526 18660 net.cpp:100] Creating Layer scale5c_branch2c
I0305 19:53:16.004529 18660 net.cpp:434] scale5c_branch2c <- res5c_branch2c
I0305 19:53:16.004541 18660 net.cpp:395] scale5c_branch2c -> res5c_branch2c (in-place)
I0305 19:53:16.004598 18660 layer_factory.hpp:77] Creating layer scale5c_branch2c
I0305 19:53:16.004732 18660 net.cpp:150] Setting up scale5c_branch2c
I0305 19:53:16.004737 18660 net.cpp:157] Top shape: 32 2048 7 7 (3211264)
I0305 19:53:16.004739 18660 net.cpp:165] Memory required for data: 7392329856
I0305 19:53:16.004743 18660 layer_factory.hpp:77] Creating layer res5c
I0305 19:53:16.004747 18660 net.cpp:100] Creating Layer res5c
I0305 19:53:16.004750 18660 net.cpp:434] res5c <- res5b_res5b_relu_0_split_1
I0305 19:53:16.004752 18660 net.cpp:434] res5c <- res5c_branch2c
I0305 19:53:16.004765 18660 net.cpp:408] res5c -> res5c
I0305 19:53:16.004799 18660 net.cpp:150] Setting up res5c
I0305 19:53:16.004804 18660 net.cpp:157] Top shape: 32 2048 7 7 (3211264)
I0305 19:53:16.004806 18660 net.cpp:165] Memory required for data: 7405174912
I0305 19:53:16.004807 18660 layer_factory.hpp:77] Creating layer res5c_relu
I0305 19:53:16.004812 18660 net.cpp:100] Creating Layer res5c_relu
I0305 19:53:16.004813 18660 net.cpp:434] res5c_relu <- res5c
I0305 19:53:16.004817 18660 net.cpp:395] res5c_relu -> res5c (in-place)
I0305 19:53:16.005053 18660 net.cpp:150] Setting up res5c_relu
I0305 19:53:16.005060 18660 net.cpp:157] Top shape: 32 2048 7 7 (3211264)
I0305 19:53:16.005062 18660 net.cpp:165] Memory required for data: 7418019968
I0305 19:53:16.005064 18660 layer_factory.hpp:77] Creating layer pool5
I0305 19:53:16.005069 18660 net.cpp:100] Creating Layer pool5
I0305 19:53:16.005072 18660 net.cpp:434] pool5 <- res5c
I0305 19:53:16.005076 18660 net.cpp:408] pool5 -> pool5
I0305 19:53:16.005339 18660 net.cpp:150] Setting up pool5
I0305 19:53:16.005347 18660 net.cpp:157] Top shape: 32 2048 1 1 (65536)
I0305 19:53:16.005349 18660 net.cpp:165] Memory required for data: 7418282112
I0305 19:53:16.005352 18660 layer_factory.hpp:77] Creating layer drop5
I0305 19:53:16.005357 18660 net.cpp:100] Creating Layer drop5
I0305 19:53:16.005359 18660 net.cpp:434] drop5 <- pool5
I0305 19:53:16.005373 18660 net.cpp:395] drop5 -> pool5 (in-place)
I0305 19:53:16.005409 18660 net.cpp:150] Setting up drop5
I0305 19:53:16.005414 18660 net.cpp:157] Top shape: 32 2048 1 1 (65536)
I0305 19:53:16.005415 18660 net.cpp:165] Memory required for data: 7418544256
I0305 19:53:16.005417 18660 layer_factory.hpp:77] Creating layer fc8_
I0305 19:53:16.005439 18660 net.cpp:100] Creating Layer fc8_
I0305 19:53:16.005441 18660 net.cpp:434] fc8_ <- pool5
I0305 19:53:16.005445 18660 net.cpp:408] fc8_ -> fc8_
I0305 19:53:16.036234 18660 net.cpp:150] Setting up fc8_
I0305 19:53:16.036267 18660 net.cpp:157] Top shape: 32 730 (23360)
I0305 19:53:16.036269 18660 net.cpp:165] Memory required for data: 7418637696
I0305 19:53:16.036275 18660 layer_factory.hpp:77] Creating layer loss
I0305 19:53:16.036285 18660 net.cpp:100] Creating Layer loss
I0305 19:53:16.036289 18660 net.cpp:434] loss <- fc8_
I0305 19:53:16.036293 18660 net.cpp:434] loss <- label
I0305 19:53:16.036298 18660 net.cpp:408] loss -> loss
I0305 19:53:16.036309 18660 layer_factory.hpp:77] Creating layer loss
…
