…
I0304 20:18:26.635257 23191 net.cpp:58] Initializing net from parameters: 
name: "Res50-IDE"
state {
  phase: TRAIN
  level: 0
  stage: ""
}
layer {
  name: "data"
  type: "ImageData"
  top: "data"
  top: "label"
  include {
    phase: TRAIN
  }
  transform_param {
    mirror: true
    crop_size: 224
    mean_value: 104
    mean_value: 117
    mean_value: 124
  }
  image_data_param {
    source: "evaluation/data/CUHK03/train_cuhk03_detected.txt"
    batch_size: 16
    shuffle: true
    new_height: 224
    new_width: 224
    is_color: true
    root_folder: "evaluation/data/CUHK03/"
  }
}
layer {
  name: "conv1"
  type: "Convolution"
  bottom: "data"
  top: "conv1"
  convolution_param {
    num_output: 64
    pad: 3
    kernel_size: 7
    stride: 2
  }
}
layer {
  name: "bn_conv1"
  type: "BatchNorm"
  bottom: "conv1"
  top: "conv1"
  batch_norm_param {
    use_global_stats: true
  }
}
layer {
  name: "scale_conv1"
  type: "Scale"
  bottom: "conv1"
  top: "conv1"
  scale_param {
    bias_term: true
  }
}
layer {
  name: "conv1_relu"
  type: "ReLU"
  bottom: "conv1"
  top: "conv1"
}
layer {
  name: "pool1"
  type: "Pooling"
  bottom: "conv1"
  top: "pool1"
  pooling_param {
    pool: MAX
    kernel_size: 3
    stride: 2
  }
}
layer {
  name: "res2a_branch1"
  type: "Convolution"
  bottom: "pool1"
  top: "res2a_branch1"
  convolution_param {
    num_output: 256
    bias_term: false
    pad: 0
    kernel_size: 1
    stride: 1
  }
}
layer {
  name: "bn2a_branch1"
  type: "BatchNorm"
  bottom: "res2a_branch1"
  top: "res2a_branch1"
  batch_norm_param {
    use_global_stats: true
  }
}
layer {
  name: "scale2a_branch1"
  type: "Scale"
  bottom: "res2a_branch1"
  top: "res2a_branch1"
  scale_param {
    bias_term: true
  }
}
layer {
  name: "res2a_branch2a"
  type: "Convolution"
  bottom: "pool1"
  top: "res2a_branch2a"
  convolution_param {
    num_output: 64
    bias_term: false
    pad: 0
    kernel_size: 1
    stride: 1
  }
}
layer {
  name: "bn2a_branch2a"
  type: "BatchNorm"
  bottom: "res2a_branch2a"
  top: "res2a_branch2a"
  batch_norm_param {
    use_global_stats: true
  }
}
layer {
  name: "scale2a_branch2a"
  type: "Scale"
  bottom: "res2a_branch2a"
  top: "res2a_branch2a"
  scale_param {
    bias_term: true
  }
}
layer {
  name: "res2a_branch2a_relu"
  type: "ReLU"
  bottom: "res2a_branch2a"
  top: "res2a_branch2a"
}
layer {
  name: "res2a_branch2b"
  type: "Convolution"
  bottom: "res2a_branch2a"
  top: "res2a_branch2b"
  convolution_param {
    num_output: 64
    bias_term: false
    pad: 1
    kernel_size: 3
    stride: 1
  }
}
layer {
  name: "bn2a_branch2b"
  type: "BatchNorm"
  bottom: "res2a_branch2b"
  top: "res2a_branch2b"
  batch_norm_param {
    use_global_stats: true
  }
}
layer {
  name: "scale2a_branch2b"
  type: "Scale"
  bottom: "res2a_branch2b"
  top: "res2a_branch2b"
  scale_param {
    bias_term: true
  }
}
layer {
  name: "res2a_branch2b_relu"
  type: "ReLU"
  bottom: "res2a_branch2b"
  top: "res2a_branch2b"
}
layer {
  name: "res2a_branch2c"
  type: "Convolution"
  bottom: "res2a_branch2b"
  top: "res2a_branch2c"
  convolution_param {
    num_output: 256
    bias_term: false
    pad: 0
    kernel_size: 1
    stride: 1
  }
}
layer {
  name: "bn2a_branch2c"
  type: "BatchNorm"
  bottom: "res2a_branch2c"
  top: "res2a_branch2c"
  batch_norm_param {
    use_global_stats: true
  }
}
layer {
  name: "scale2a_branch2c"
  type: "Scale"
  bottom: "res2a_branch2c"
  top: "res2a_branch2c"
  scale_param {
    bias_term: true
  }
}
layer {
  name: "res2a"
  type: "Eltwise"
  bottom: "res2a_branch1"
  bottom: "res2a_branch2c"
  top: "res2a"
}
layer {
  name: "res2a_relu"
  type: "ReLU"
  bottom: "res2a"
  top: "res2a"
}
layer {
  name: "res2b_branch2a"
  type: "Convolution"
  bottom: "res2a"
  top: "res2b_branch2a"
  convolution_param {
    num_output: 64
    bias_term: false
    pad: 0
    kernel_size: 1
    stride: 1
  }
}
layer {
  name: "bn2b_branch2a"
  type: "BatchNorm"
  bottom: "res2b_branch2a"
  top: "res2b_branch2a"
  batch_norm_param {
    use_global_stats: true
  }
}
layer {
  name: "scale2b_branch2a"
  type: "Scale"
  bottom: "res2b_branch2a"
  top: "res2b_branch2a"
  scale_param {
    bias_term: true
  }
}
layer {
  name: "res2b_branch2a_relu"
  type: "ReLU"
  bottom: "res2b_branch2a"
  top: "res2b_branch2a"
}
layer {
  name: "res2b_branch2b"
  type: "Convolution"
  bottom: "res2b_branch2a"
  top: "res2b_branch2b"
  convolution_param {
    num_output: 64
    bias_term: false
    pad: 1
    kernel_size: 3
    stride: 1
  }
}
layer {
  name: "bn2b_branch2b"
  type: "BatchNorm"
  bottom: "res2b_branch2b"
  top: "res2b_branch2b"
  batch_norm_param {
    use_global_stats: true
  }
}
layer {
  name: "scale2b_branch2b"
  type: "Scale"
  bottom: "res2b_branch2b"
  top: "res2b_branch2b"
  scale_param {
    bias_term: true
  }
}
layer {
  name: "res2b_branch2b_relu"
  type: "ReLU"
  bottom: "res2b_branch2b"
  top: "res2b_branch2b"
}
layer {
  name: "res2b_branch2c"
  type: "Convolution"
  bottom: "res2b_branch2b"
  top: "res2b_branch2c"
  convolution_param {
    num_output: 256
    bias_term: false
    pad: 0
    kernel_size: 1
    stride: 1
  }
}
layer {
  name: "bn2b_branch2c"
  type: "BatchNorm"
  bottom: "res2b_branch2c"
  top: "res2b_branch2c"
  batch_norm_param {
    use_global_stats: true
  }
}
layer {
  name: "scale2b_branch2c"
  type: "Scale"
  bottom: "res2b_branch2c"
  top: "res2b_branch2c"
  scale_param {
    bias_term: true
  }
}
layer {
  name: "res2b"
  type: "Eltwise"
  bottom: "res2a"
  bottom: "res2b_branch2c"
  top: "res2b"
}
layer {
  name: "res2b_relu"
  type: "ReLU"
  bottom: "res2b"
  top: "res2b"
}
layer {
  name: "res2c_branch2a"
  type: "Convolution"
  bottom: "res2b"
  top: "res2c_branch2a"
  convolution_param {
    num_output: 64
    bias_term: false
    pad: 0
    kernel_size: 1
    stride: 1
  }
}
layer {
  name: "bn2c_branch2a"
  type: "BatchNorm"
  bottom: "res2c_branch2a"
  top: "res2c_branch2a"
  batch_norm_param {
    use_global_stats: true
  }
}
layer {
  name: "scale2c_branch2a"
  type: "Scale"
  bottom: "res2c_branch2a"
  top: "res2c_branch2a"
  scale_param {
    bias_term: true
  }
}
layer {
  name: "res2c_branch2a_relu"
  type: "ReLU"
  bottom: "res2c_branch2a"
  top: "res2c_branch2a"
}
layer {
  name: "res2c_branch2b"
  type: "Convolution"
  bottom: "res2c_branch2a"
  top: "res2c_branch2b"
  convolution_param {
    num_output: 64
    bias_term: false
    pad: 1
    kernel_size: 3
    stride: 1
  }
}
layer {
  name: "bn2c_branch2b"
  type: "BatchNorm"
  bottom: "res2c_branch2b"
  top: "res2c_branch2b"
  batch_norm_param {
    use_global_stats: true
  }
}
layer {
  name: "scale2c_branch2b"
  type: "Scale"
  bottom: "res2c_branch2b"
  top: "res2c_branch2b"
  scale_param {
    bias_term: true
  }
}
layer {
  name: "res2c_branch2b_relu"
  type: "ReLU"
  bottom: "res2c_branch2b"
  top: "res2c_branch2b"
}
layer {
  name: "res2c_branch2c"
  type: "Convolution"
  bottom: "res2c_branch2b"
  top: "res2c_branch2c"
  convolution_param {
    num_output: 256
    bias_term: false
    pad: 0
    kernel_size: 1
    stride: 1
  }
}
layer {
  name: "bn2c_branch2c"
  type: "BatchNorm"
  bottom: "res2c_branch2c"
  top: "res2c_branch2c"
  batch_norm_param {
    use_global_stats: true
  }
}
layer {
  name: "scale2c_branch2c"
  type: "Scale"
  bottom: "res2c_branch2c"
  top: "res2c_branch2c"
  scale_param {
    bias_term: true
  }
}
layer {
  name: "res2c"
  type: "Eltwise"
  bottom: "res2b"
  bottom: "res2c_branch2c"
  top: "res2c"
}
layer {
  name: "res2c_relu"
  type: "ReLU"
  bottom: "res2c"
  top: "res2c"
}
layer {
  name: "res3a_branch1"
  type: "Convolution"
  bottom: "res2c"
  top: "res3a_branch1"
  convolution_param {
    num_output: 512
    bias_term: false
    pad: 0
    kernel_size: 1
    stride: 2
  }
}
layer {
  name: "bn3a_branch1"
  type: "BatchNorm"
  bottom: "res3a_branch1"
  top: "res3a_branch1"
  batch_norm_param {
    use_global_stats: true
  }
}
layer {
  name: "scale3a_branch1"
  type: "Scale"
  bottom: "res3a_branch1"
  top: "res3a_branch1"
  scale_param {
    bias_term: true
  }
}
layer {
  name: "res3a_branch2a"
  type: "Convolution"
  bottom: "res2c"
  top: "res3a_branch2a"
  convolution_param {
    num_output: 128
    bias_term: false
    pad: 0
    kernel_size: 1
    stride: 2
  }
}
layer {
  name: "bn3a_branch2a"
  type: "BatchNorm"
  bottom: "res3a_branch2a"
  top: "res3a_branch2a"
  batch_norm_param {
    use_global_stats: true
  }
}
layer {
  name: "scale3a_branch2a"
  type: "Scale"
  bottom: "res3a_branch2a"
  top: "res3a_branch2a"
  scale_param {
    bias_term: true
  }
}
layer {
  name: "res3a_branch2a_relu"
  type: "ReLU"
  bottom: "res3a_branch2a"
  top: "res3a_branch2a"
}
layer {
  name: "res3a_branch2b"
  type: "Convolution"
  bottom: "res3a_branch2a"
  top: "res3a_branch2b"
  convolution_param {
    num_output: 128
    bias_term: false
    pad: 1
    kernel_size: 3
    stride: 1
  }
}
layer {
  name: "bn3a_branch2b"
  type: "BatchNorm"
  bottom: "res3a_branch2b"
  top: "res3a_branch2b"
  batch_norm_param {
    use_global_stats: true
  }
}
layer {
  name: "scale3a_branch2b"
  type: "Scale"
  bottom: "res3a_branch2b"
  top: "res3a_branch2b"
  scale_param {
    bias_term: true
  }
}
layer {
  name: "res3a_branch2b_relu"
  type: "ReLU"
  bottom: "res3a_branch2b"
  top: "res3a_branch2b"
}
layer {
  name: "res3a_branch2c"
  type: "Convolution"
  bottom: "res3a_branch2b"
  top: "res3a_branch2c"
  convolution_param {
    num_output: 512
    bias_term: false
    pad: 0
    kernel_size: 1
    stride: 1
  }
}
layer {
  name: "bn3a_branch2c"
  type: "BatchNorm"
  bottom: "res3a_branch2c"
  top: "res3a_branch2c"
  batch_norm_param {
    use_global_stats: true
  }
}
layer {
  name: "scale3a_branch2c"
  type: "Scale"
  bottom: "res3a_branch2c"
  top: "res3a_branch2c"
  scale_param {
    bias_term: true
  }
}
layer {
  name: "res3a"
  type: "Eltwise"
  bottom: "res3a_branch1"
  bottom: "res3a_branch2c"
  top: "res3a"
}
layer {
  name: "res3a_relu"
  type: "ReLU"
  bottom: "res3a"
  top: "res3a"
}
layer {
  name: "res3b_branch2a"
  type: "Convolution"
  bottom: "res3a"
  top: "res3b_branch2a"
  convolution_param {
    num_output: 128
    bias_term: false
    pad: 0
    kernel_size: 1
    stride: 1
  }
}
layer {
  name: "bn3b_branch2a"
  type: "BatchNorm"
  bottom: "res3b_branch2a"
  top: "res3b_branch2a"
  batch_norm_param {
    use_global_stats: true
  }
}
layer {
  name: "scale3b_branch2a"
  type: "Scale"
  bottom: "res3b_branch2a"
  top: "res3b_branch2a"
  scale_param {
    bias_term: true
  }
}
layer {
  name: "res3b_branch2a_relu"
  type: "ReLU"
  bottom: "res3b_branch2a"
  top: "res3b_branch2a"
}
layer {
  name: "res3b_branch2b"
  type: "Convolution"
  bottom: "res3b_branch2a"
  top: "res3b_branch2b"
  convolution_param {
    num_output: 128
    bias_term: false
    pad: 1
    kernel_size: 3
    stride: 1
  }
}
layer {
  name: "bn3b_branch2b"
  type: "BatchNorm"
  bottom: "res3b_branch2b"
  top: "res3b_branch2b"
  batch_norm_param {
    use_global_stats: true
  }
}
layer {
  name: "scale3b_branch2b"
  type: "Scale"
  bottom: "res3b_branch2b"
  top: "res3b_branch2b"
  scale_param {
    bias_term: true
  }
}
layer {
  name: "res3b_branch2b_relu"
  type: "ReLU"
  bottom: "res3b_branch2b"
  top: "res3b_branch2b"
}
layer {
  name: "res3b_branch2c"
  type: "Convolution"
  bottom: "res3b_branch2b"
  top: "res3b_branch2c"
  convolution_param {
    num_output: 512
    bias_term: false
    pad: 0
    kernel_size: 1
    stride: 1
  }
}
layer {
  name: "bn3b_branch2c"
  type: "BatchNorm"
  bottom: "res3b_branch2c"
  top: "res3b_branch2c"
  batch_norm_param {
    use_global_stats: true
  }
}
layer {
  name: "scale3b_branch2c"
  type: "Scale"
  bottom: "res3b_branch2c"
  top: "res3b_branch2c"
  scale_param {
    bias_term: true
  }
}
layer {
  name: "res3b"
  type: "Eltwise"
  bottom: "res3a"
  bottom: "res3b_branch2c"
  top: "res3b"
}
layer {
  name: "res3b_relu"
  type: "ReLU"
  bottom: "res3b"
  top: "res3b"
}
layer {
  name: "res3c_branch2a"
  type: "Convolution"
  bottom: "res3b"
  top: "res3c_branch2a"
  convolution_param {
    num_output: 128
    bias_term: false
    pad: 0
    kernel_size: 1
    stride: 1
  }
}
layer {
  name: "bn3c_branch2a"
  type: "BatchNorm"
  bottom: "res3c_branch2a"
  top: "res3c_branch2a"
  batch_norm_param {
    use_global_stats: true
  }
}
layer {
  name: "scale3c_branch2a"
  type: "Scale"
  bottom: "res3c_branch2a"
  top: "res3c_branch2a"
  scale_param {
    bias_term: true
  }
}
layer {
  name: "res3c_branch2a_relu"
  type: "ReLU"
  bottom: "res3c_branch2a"
  top: "res3c_branch2a"
}
layer {
  name: "res3c_branch2b"
  type: "Convolution"
  bottom: "res3c_branch2a"
  top: "res3c_branch2b"
  convolution_param {
    num_output: 128
    bias_term: false
    pad: 1
    kernel_size: 3
    stride: 1
  }
}
layer {
  name: "bn3c_branch2b"
  type: "BatchNorm"
  bottom: "res3c_branch2b"
  top: "res3c_branch2b"
  batch_norm_param {
    use_global_stats: true
  }
}
layer {
  name: "scale3c_branch2b"
  type: "Scale"
  bottom: "res3c_branch2b"
  top: "res3c_branch2b"
  scale_param {
    bias_term: true
  }
}
layer {
  name: "res3c_branch2b_relu"
  type: "ReLU"
  bottom: "res3c_branch2b"
  top: "res3c_branch2b"
}
layer {
  name: "res3c_branch2c"
  type: "Convolution"
  bottom: "res3c_branch2b"
  top: "res3c_branch2c"
  convolution_param {
    num_output: 512
    bias_term: false
    pad: 0
    kernel_size: 1
    stride: 1
  }
}
layer {
  name: "bn3c_branch2c"
  type: "BatchNorm"
  bottom: "res3c_branch2c"
  top: "res3c_branch2c"
  batch_norm_param {
    use_global_stats: true
  }
}
layer {
  name: "scale3c_branch2c"
  type: "Scale"
  bottom: "res3c_branch2c"
  top: "res3c_branch2c"
  scale_param {
    bias_term: true
  }
}
layer {
  name: "res3c"
  type: "Eltwise"
  bottom: "res3b"
  bottom: "res3c_branch2c"
  top: "res3c"
}
layer {
  name: "res3c_relu"
  type: "ReLU"
  bottom: "res3c"
  top: "res3c"
}
layer {
  name: "res3d_branch2a"
  type: "Convolution"
  bottom: "res3c"
  top: "res3d_branch2a"
  convolution_param {
    num_output: 128
    bias_term: false
    pad: 0
    kernel_size: 1
    stride: 1
  }
}
layer {
  name: "bn3d_branch2a"
  type: "BatchNorm"
  bottom: "res3d_branch2a"
  top: "res3d_branch2a"
  batch_norm_param {
    use_global_stats: true
  }
}
layer {
  name: "scale3d_branch2a"
  type: "Scale"
  bottom: "res3d_branch2a"
  top: "res3d_branch2a"
  scale_param {
    bias_term: true
  }
}
layer {
  name: "res3d_branch2a_relu"
  type: "ReLU"
  bottom: "res3d_branch2a"
  top: "res3d_branch2a"
}
layer {
  name: "res3d_branch2b"
  type: "Convolution"
  bottom: "res3d_branch2a"
  top: "res3d_branch2b"
  convolution_param {
    num_output: 128
    bias_term: false
    pad: 1
    kernel_size: 3
    stride: 1
  }
}
layer {
  name: "bn3d_branch2b"
  type: "BatchNorm"
  bottom: "res3d_branch2b"
  top: "res3d_branch2b"
  batch_norm_param {
    use_global_stats: true
  }
}
layer {
  name: "scale3d_branch2b"
  type: "Scale"
  bottom: "res3d_branch2b"
  top: "res3d_branch2b"
  scale_param {
    bias_term: true
  }
}
layer {
  name: "res3d_branch2b_relu"
  type: "ReLU"
  bottom: "res3d_branch2b"
  top: "res3d_branch2b"
}
layer {
  name: "res3d_branch2c"
  type: "Convolution"
  bottom: "res3d_branch2b"
  top: "res3d_branch2c"
  convolution_param {
    num_output: 512
    bias_term: false
    pad: 0
    kernel_size: 1
    stride: 1
  }
}
layer {
  name: "bn3d_branch2c"
  type: "BatchNorm"
  bottom: "res3d_branch2c"
  top: "res3d_branch2c"
  batch_norm_param {
    use_global_stats: true
  }
}
layer {
  name: "scale3d_branch2c"
  type: "Scale"
  bottom: "res3d_branch2c"
  top: "res3d_branch2c"
  scale_param {
    bias_term: true
  }
}
layer {
  name: "res3d"
  type: "Eltwise"
  bottom: "res3c"
  bottom: "res3d_branch2c"
  top: "res3d"
}
layer {
  name: "res3d_relu"
  type: "ReLU"
  bottom: "res3d"
  top: "res3d"
}
layer {
  name: "res4a_branch1"
  type: "Convolution"
  bottom: "res3d"
  top: "res4a_branch1"
  convolution_param {
    num_output: 1024
    bias_term: false
    pad: 0
    kernel_size: 1
    stride: 2
  }
}
layer {
  name: "bn4a_branch1"
  type: "BatchNorm"
  bottom: "res4a_branch1"
  top: "res4a_branch1"
  batch_norm_param {
    use_global_stats: true
  }
}
layer {
  name: "scale4a_branch1"
  type: "Scale"
  bottom: "res4a_branch1"
  top: "res4a_branch1"
  scale_param {
    bias_term: true
  }
}
layer {
  name: "res4a_branch2a"
  type: "Convolution"
  bottom: "res3d"
  top: "res4a_branch2a"
  convolution_param {
    num_output: 256
    bias_term: false
    pad: 0
    kernel_size: 1
    stride: 2
  }
}
layer {
  name: "bn4a_branch2a"
  type: "BatchNorm"
  bottom: "res4a_branch2a"
  top: "res4a_branch2a"
  batch_norm_param {
    use_global_stats: true
  }
}
layer {
  name: "scale4a_branch2a"
  type: "Scale"
  bottom: "res4a_branch2a"
  top: "res4a_branch2a"
  scale_param {
    bias_term: true
  }
}
layer {
  name: "res4a_branch2a_relu"
  type: "ReLU"
  bottom: "res4a_branch2a"
  top: "res4a_branch2a"
}
layer {
  name: "res4a_branch2b"
  type: "Convolution"
  bottom: "res4a_branch2a"
  top: "res4a_branch2b"
  convolution_param {
    num_output: 256
    bias_term: false
    pad: 1
    kernel_size: 3
    stride: 1
  }
}
layer {
  name: "bn4a_branch2b"
  type: "BatchNorm"
  bottom: "res4a_branch2b"
  top: "res4a_branch2b"
  batch_norm_param {
    use_global_stats: true
  }
}
layer {
  name: "scale4a_branch2b"
  type: "Scale"
  bottom: "res4a_branch2b"
  top: "res4a_branch2b"
  scale_param {
    bias_term: true
  }
}
layer {
  name: "res4a_branch2b_relu"
  type: "ReLU"
  bottom: "res4a_branch2b"
  top: "res4a_branch2b"
}
layer {
  name: "res4a_branch2c"
  type: "Convolution"
  bottom: "res4a_branch2b"
  top: "res4a_branch2c"
  convolution_param {
    num_output: 1024
    bias_term: false
    pad: 0
    kernel_size: 1
    stride: 1
  }
}
layer {
  name: "bn4a_branch2c"
  type: "BatchNorm"
  bottom: "res4a_branch2c"
  top: "res4a_branch2c"
  batch_norm_param {
    use_global_stats: true
  }
}
layer {
  name: "scale4a_branch2c"
  type: "Scale"
  bottom: "res4a_branch2c"
  top: "res4a_branch2c"
  scale_param {
    bias_term: true
  }
}
layer {
  name: "res4a"
  type: "Eltwise"
  bottom: "res4a_branch1"
  bottom: "res4a_branch2c"
  top: "res4a"
}
layer {
  name: "res4a_relu"
  type: "ReLU"
  bottom: "res4a"
  top: "res4a"
}
layer {
  name: "res4b_branch2a"
  type: "Convolution"
  bottom: "res4a"
  top: "res4b_branch2a"
  convolution_param {
    num_output: 256
    bias_term: false
    pad: 0
    kernel_size: 1
    stride: 1
  }
}
layer {
  name: "bn4b_branch2a"
  type: "BatchNorm"
  bottom: "res4b_branch2a"
  top: "res4b_branch2a"
  batch_norm_param {
    use_global_stats: true
  }
}
layer {
  name: "scale4b_branch2a"
  type: "Scale"
  bottom: "res4b_branch2a"
  top: "res4b_branch2a"
  scale_param {
    bias_term: true
  }
}
layer {
  name: "res4b_branch2a_relu"
  type: "ReLU"
  bottom: "res4b_branch2a"
  top: "res4b_branch2a"
}
layer {
  name: "res4b_branch2b"
  type: "Convolution"
  bottom: "res4b_branch2a"
  top: "res4b_branch2b"
  convolution_param {
    num_output: 256
    bias_term: false
    pad: 1
    kernel_size: 3
    stride: 1
  }
}
layer {
  name: "bn4b_branch2b"
  type: "BatchNorm"
  bottom: "res4b_branch2b"
  top: "res4b_branch2b"
  batch_norm_param {
    use_global_stats: true
  }
}
layer {
  name: "scale4b_branch2b"
  type: "Scale"
  bottom: "res4b_branch2b"
  top: "res4b_branch2b"
  scale_param {
    bias_term: true
  }
}
layer {
  name: "res4b_branch2b_relu"
  type: "ReLU"
  bottom: "res4b_branch2b"
  top: "res4b_branch2b"
}
layer {
  name: "res4b_branch2c"
  type: "Convolution"
  bottom: "res4b_branch2b"
  top: "res4b_branch2c"
  convolution_param {
    num_output: 1024
    bias_term: false
    pad: 0
    kernel_size: 1
    stride: 1
  }
}
layer {
  name: "bn4b_branch2c"
  type: "BatchNorm"
  bottom: "res4b_branch2c"
  top: "res4b_branch2c"
  batch_norm_param {
    use_global_stats: true
  }
}
layer {
  name: "scale4b_branch2c"
  type: "Scale"
  bottom: "res4b_branch2c"
  top: "res4b_branch2c"
  scale_param {
    bias_term: true
  }
}
layer {
  name: "res4b"
  type: "Eltwise"
  bottom: "res4a"
  bottom: "res4b_branch2c"
  top: "res4b"
}
layer {
  name: "res4b_relu"
  type: "ReLU"
  bottom: "res4b"
  top: "res4b"
}
layer {
  name: "res4c_branch2a"
  type: "Convolution"
  bottom: "res4b"
  top: "res4c_branch2a"
  convolution_param {
    num_output: 256
    bias_term: false
    pad: 0
    kernel_size: 1
    stride: 1
  }
}
layer {
  name: "bn4c_branch2a"
  type: "BatchNorm"
  bottom: "res4c_branch2a"
  top: "res4c_branch2a"
  batch_norm_param {
    use_global_stats: true
  }
}
layer {
  name: "scale4c_branch2a"
  type: "Scale"
  bottom: "res4c_branch2a"
  top: "res4c_branch2a"
  scale_param {
    bias_term: true
  }
}
layer {
  name: "res4c_branch2a_relu"
  type: "ReLU"
  bottom: "res4c_branch2a"
  top: "res4c_branch2a"
}
layer {
  name: "res4c_branch2b"
  type: "Convolution"
  bottom: "res4c_branch2a"
  top: "res4c_branch2b"
  convolution_param {
    num_output: 256
    bias_term: false
    pad: 1
    kernel_size: 3
    stride: 1
  }
}
layer {
  name: "bn4c_branch2b"
  type: "BatchNorm"
  bottom: "res4c_branch2b"
  top: "res4c_branch2b"
  batch_norm_param {
    use_global_stats: true
  }
}
layer {
  name: "scale4c_branch2b"
  type: "Scale"
  bottom: "res4c_branch2b"
  top: "res4c_branch2b"
  scale_param {
    bias_term: true
  }
}
layer {
  name: "res4c_branch2b_relu"
  type: "ReLU"
  bottom: "res4c_branch2b"
  top: "res4c_branch2b"
}
layer {
  name: "res4c_branch2c"
  type: "Convolution"
  bottom: "res4c_branch2b"
  top: "res4c_branch2c"
  convolution_param {
    num_output: 1024
    bias_term: false
    pad: 0
    kernel_size: 1
    stride: 1
  }
}
layer {
  name: "bn4c_branch2c"
  type: "BatchNorm"
  bottom: "res4c_branch2c"
  top: "res4c_branch2c"
  batch_norm_param {
    use_global_stats: true
  }
}
layer {
  name: "scale4c_branch2c"
  type: "Scale"
  bottom: "res4c_branch2c"
  top: "res4c_branch2c"
  scale_param {
    bias_term: true
  }
}
layer {
  name: "res4c"
  type: "Eltwise"
  bottom: "res4b"
  bottom: "res4c_branch2c"
  top: "res4c"
}
layer {
  name: "res4c_relu"
  type: "ReLU"
  bottom: "res4c"
  top: "res4c"
}
layer {
  name: "res4d_branch2a"
  type: "Convolution"
  bottom: "res4c"
  top: "res4d_branch2a"
  convolution_param {
    num_output: 256
    bias_term: false
    pad: 0
    kernel_size: 1
    stride: 1
  }
}
layer {
  name: "bn4d_branch2a"
  type: "BatchNorm"
  bottom: "res4d_branch2a"
  top: "res4d_branch2a"
  batch_norm_param {
    use_global_stats: true
  }
}
layer {
  name: "scale4d_branch2a"
  type: "Scale"
  bottom: "res4d_branch2a"
  top: "res4d_branch2a"
  scale_param {
    bias_term: true
  }
}
layer {
  name: "res4d_branch2a_relu"
  type: "ReLU"
  bottom: "res4d_branch2a"
  top: "res4d_branch2a"
}
layer {
  name: "res4d_branch2b"
  type: "Convolution"
  bottom: "res4d_branch2a"
  top: "res4d_branch2b"
  convolution_param {
    num_output: 256
    bias_term: false
    pad: 1
    kernel_size: 3
    stride: 1
  }
}
layer {
  name: "bn4d_branch2b"
  type: "BatchNorm"
  bottom: "res4d_branch2b"
  top: "res4d_branch2b"
  batch_norm_param {
    use_global_stats: true
  }
}
layer {
  name: "scale4d_branch2b"
  type: "Scale"
  bottom: "res4d_branch2b"
  top: "res4d_branch2b"
  scale_param {
    bias_term: true
  }
}
layer {
  name: "res4d_branch2b_relu"
  type: "ReLU"
  bottom: "res4d_branch2b"
  top: "res4d_branch2b"
}
layer {
  name: "res4d_branch2c"
  type: "Convolution"
  bottom: "res4d_branch2b"
  top: "res4d_branch2c"
  convolution_param {
    num_output: 1024
    bias_term: false
    pad: 0
    kernel_size: 1
    stride: 1
  }
}
layer {
  name: "bn4d_branch2c"
  type: "BatchNorm"
  bottom: "res4d_branch2c"
  top: "res4d_branch2c"
  batch_norm_param {
    use_global_stats: true
  }
}
layer {
  name: "scale4d_branch2c"
  type: "Scale"
  bottom: "res4d_branch2c"
  top: "res4d_branch2c"
  scale_param {
    bias_term: true
  }
}
layer {
  name: "res4d"
  type: "Eltwise"
  bottom: "res4c"
  bottom: "res4d_branch2c"
  top: "res4d"
}
layer {
  name: "res4d_relu"
  type: "ReLU"
  bottom: "res4d"
  top: "res4d"
}
layer {
  name: "res4e_branch2a"
  type: "Convolution"
  bottom: "res4d"
  top: "res4e_branch2a"
  convolution_param {
    num_output: 256
    bias_term: false
    pad: 0
    kernel_size: 1
    stride: 1
  }
}
layer {
  name: "bn4e_branch2a"
  type: "BatchNorm"
  bottom: "res4e_branch2a"
  top: "res4e_branch2a"
  batch_norm_param {
    use_global_stats: true
  }
}
layer {
  name: "scale4e_branch2a"
  type: "Scale"
  bottom: "res4e_branch2a"
  top: "res4e_branch2a"
  scale_param {
    bias_term: true
  }
}
layer {
  name: "res4e_branch2a_relu"
  type: "ReLU"
  bottom: "res4e_branch2a"
  top: "res4e_branch2a"
}
layer {
  name: "res4e_branch2b"
  type: "Convolution"
  bottom: "res4e_branch2a"
  top: "res4e_branch2b"
  convolution_param {
    num_output: 256
    bias_term: false
    pad: 1
    kernel_size: 3
    stride: 1
  }
}
layer {
  name: "bn4e_branch2b"
  type: "BatchNorm"
  bottom: "res4e_branch2b"
  top: "res4e_branch2b"
  batch_norm_param {
    use_global_stats: true
  }
}
layer {
  name: "scale4e_branch2b"
  type: "Scale"
  bottom: "res4e_branch2b"
  top: "res4e_branch2b"
  scale_param {
    bias_term: true
  }
}
layer {
  name: "res4e_branch2b_relu"
  type: "ReLU"
  bottom: "res4e_branch2b"
  top: "res4e_branch2b"
}
layer {
  name: "res4e_branch2c"
  type: "Convolution"
  bottom: "res4e_branch2b"
  top: "res4e_branch2c"
  convolution_param {
    num_output: 1024
    bias_term: false
    pad: 0
    kernel_size: 1
    stride: 1
  }
}
layer {
  name: "bn4e_branch2c"
  type: "BatchNorm"
  bottom: "res4e_branch2c"
  top: "res4e_branch2c"
  batch_norm_param {
    use_global_stats: true
  }
}
layer {
  name: "scale4e_branch2c"
  type: "Scale"
  bottom: "res4e_branch2c"
  top: "res4e_branch2c"
  scale_param {
    bias_term: true
  }
}
layer {
  name: "res4e"
  type: "Eltwise"
  bottom: "res4d"
  bottom: "res4e_branch2c"
  top: "res4e"
}
layer {
  name: "res4e_relu"
  type: "ReLU"
  bottom: "res4e"
  top: "res4e"
}
layer {
  name: "res4f_branch2a"
  type: "Convolution"
  bottom: "res4e"
  top: "res4f_branch2a"
  convolution_param {
    num_output: 256
    bias_term: false
    pad: 0
    kernel_size: 1
    stride: 1
  }
}
layer {
  name: "bn4f_branch2a"
  type: "BatchNorm"
  bottom: "res4f_branch2a"
  top: "res4f_branch2a"
  batch_norm_param {
    use_global_stats: true
  }
}
layer {
  name: "scale4f_branch2a"
  type: "Scale"
  bottom: "res4f_branch2a"
  top: "res4f_branch2a"
  scale_param {
    bias_term: true
  }
}
layer {
  name: "res4f_branch2a_relu"
  type: "ReLU"
  bottom: "res4f_branch2a"
  top: "res4f_branch2a"
}
layer {
  name: "res4f_branch2b"
  type: "Convolution"
  bottom: "res4f_branch2a"
  top: "res4f_branch2b"
  convolution_param {
    num_output: 256
    bias_term: false
    pad: 1
    kernel_size: 3
    stride: 1
  }
}
layer {
  name: "bn4f_branch2b"
  type: "BatchNorm"
  bottom: "res4f_branch2b"
  top: "res4f_branch2b"
  batch_norm_param {
    use_global_stats: true
  }
}
layer {
  name: "scale4f_branch2b"
  type: "Scale"
  bottom: "res4f_branch2b"
  top: "res4f_branch2b"
  scale_param {
    bias_term: true
  }
}
layer {
  name: "res4f_branch2b_relu"
  type: "ReLU"
  bottom: "res4f_branch2b"
  top: "res4f_branch2b"
}
layer {
  name: "res4f_branch2c"
  type: "Convolution"
  bottom: "res4f_branch2b"
  top: "res4f_branch2c"
  convolution_param {
    num_output: 1024
    bias_term: false
    pad: 0
    kernel_size: 1
    stride: 1
  }
}
layer {
  name: "bn4f_branch2c"
  type: "BatchNorm"
  bottom: "res4f_branch2c"
  top: "res4f_branch2c"
  batch_norm_param {
    use_global_stats: true
  }
}
layer {
  name: "scale4f_branch2c"
  type: "Scale"
  bottom: "res4f_branch2c"
  top: "res4f_branch2c"
  scale_param {
    bias_term: true
  }
}
layer {
  name: "res4f"
  type: "Eltwise"
  bottom: "res4e"
  bottom: "res4f_branch2c"
  top: "res4f"
}
layer {
  name: "res4f_relu"
  type: "ReLU"
  bottom: "res4f"
  top: "res4f"
}
layer {
  name: "res5a_branch1"
  type: "Convolution"
  bottom: "res4f"
  top: "res5a_branch1"
  convolution_param {
    num_output: 2048
    bias_term: false
    pad: 0
    kernel_size: 1
    stride: 2
  }
}
layer {
  name: "bn5a_branch1"
  type: "BatchNorm"
  bottom: "res5a_branch1"
  top: "res5a_branch1"
  batch_norm_param {
    use_global_stats: true
  }
}
layer {
  name: "scale5a_branch1"
  type: "Scale"
  bottom: "res5a_branch1"
  top: "res5a_branch1"
  scale_param {
    bias_term: true
  }
}
layer {
  name: "res5a_branch2a"
  type: "Convolution"
  bottom: "res4f"
  top: "res5a_branch2a"
  convolution_param {
    num_output: 512
    bias_term: false
    pad: 0
    kernel_size: 1
    stride: 2
  }
}
layer {
  name: "bn5a_branch2a"
  type: "BatchNorm"
  bottom: "res5a_branch2a"
  top: "res5a_branch2a"
  batch_norm_param {
    use_global_stats: true
  }
}
layer {
  name: "scale5a_branch2a"
  type: "Scale"
  bottom: "res5a_branch2a"
  top: "res5a_branch2a"
  scale_param {
    bias_term: true
  }
}
layer {
  name: "res5a_branch2a_relu"
  type: "ReLU"
  bottom: "res5a_branch2a"
  top: "res5a_branch2a"
}
layer {
  name: "res5a_branch2b"
  type: "Convolution"
  bottom: "res5a_branch2a"
  top: "res5a_branch2b"
  convolution_param {
    num_output: 512
    bias_term: false
    pad: 1
    kernel_size: 3
    stride: 1
  }
}
layer {
  name: "bn5a_branch2b"
  type: "BatchNorm"
  bottom: "res5a_branch2b"
  top: "res5a_branch2b"
  batch_norm_param {
    use_global_stats: true
  }
}
layer {
  name: "scale5a_branch2b"
  type: "Scale"
  bottom: "res5a_branch2b"
  top: "res5a_branch2b"
  scale_param {
    bias_term: true
  }
}
layer {
  name: "res5a_branch2b_relu"
  type: "ReLU"
  bottom: "res5a_branch2b"
  top: "res5a_branch2b"
}
layer {
  name: "res5a_branch2c"
  type: "Convolution"
  bottom: "res5a_branch2b"
  top: "res5a_branch2c"
  convolution_param {
    num_output: 2048
    bias_term: false
    pa
I0304 20:18:26.635710 23191 layer_factory.hpp:77] Creating layer data
I0304 20:18:26.635733 23191 net.cpp:100] Creating Layer data
I0304 20:18:26.635738 23191 net.cpp:408] data -> data
I0304 20:18:26.635754 23191 net.cpp:408] data -> label
I0304 20:18:26.636049 23191 image_data_layer.cpp:40] Opening file evaluation/data/CUHK03/train_cuhk03_detected.txt
I0304 20:18:26.637194 23191 image_data_layer.cpp:55] Shuffling data
I0304 20:18:26.637918 23191 image_data_layer.cpp:60] A total of 7009 images.
I0304 20:18:26.648030 23191 image_data_layer.cpp:87] output data size: 16,3,224,224
I0304 20:18:26.658074 23191 net.cpp:150] Setting up data
I0304 20:18:26.658114 23191 net.cpp:157] Top shape: 16 3 224 224 (2408448)
I0304 20:18:26.658118 23191 net.cpp:157] Top shape: 16 (16)
I0304 20:18:26.658120 23191 net.cpp:165] Memory required for data: 9633856
I0304 20:18:26.658125 23191 layer_factory.hpp:77] Creating layer conv1
I0304 20:18:26.658139 23191 net.cpp:100] Creating Layer conv1
I0304 20:18:26.658144 23191 net.cpp:434] conv1 <- data
I0304 20:18:26.658152 23191 net.cpp:408] conv1 -> conv1
I0304 20:18:26.777380 23191 net.cpp:150] Setting up conv1
I0304 20:18:26.777402 23191 net.cpp:157] Top shape: 16 64 112 112 (12845056)
I0304 20:18:26.777405 23191 net.cpp:165] Memory required for data: 61014080
I0304 20:18:26.777417 23191 layer_factory.hpp:77] Creating layer bn_conv1
I0304 20:18:26.777427 23191 net.cpp:100] Creating Layer bn_conv1
I0304 20:18:26.777431 23191 net.cpp:434] bn_conv1 <- conv1
I0304 20:18:26.777433 23191 net.cpp:395] bn_conv1 -> conv1 (in-place)
I0304 20:18:26.777593 23191 net.cpp:150] Setting up bn_conv1
I0304 20:18:26.777600 23191 net.cpp:157] Top shape: 16 64 112 112 (12845056)
I0304 20:18:26.777601 23191 net.cpp:165] Memory required for data: 112394304
I0304 20:18:26.777608 23191 layer_factory.hpp:77] Creating layer scale_conv1
I0304 20:18:26.777614 23191 net.cpp:100] Creating Layer scale_conv1
I0304 20:18:26.777616 23191 net.cpp:434] scale_conv1 <- conv1
I0304 20:18:26.777619 23191 net.cpp:395] scale_conv1 -> conv1 (in-place)
I0304 20:18:26.777664 23191 layer_factory.hpp:77] Creating layer scale_conv1
I0304 20:18:26.777766 23191 net.cpp:150] Setting up scale_conv1
I0304 20:18:26.777770 23191 net.cpp:157] Top shape: 16 64 112 112 (12845056)
I0304 20:18:26.777772 23191 net.cpp:165] Memory required for data: 163774528
I0304 20:18:26.777776 23191 layer_factory.hpp:77] Creating layer conv1_relu
I0304 20:18:26.777781 23191 net.cpp:100] Creating Layer conv1_relu
I0304 20:18:26.777783 23191 net.cpp:434] conv1_relu <- conv1
I0304 20:18:26.777787 23191 net.cpp:395] conv1_relu -> conv1 (in-place)
I0304 20:18:26.777998 23191 net.cpp:150] Setting up conv1_relu
I0304 20:18:26.778007 23191 net.cpp:157] Top shape: 16 64 112 112 (12845056)
I0304 20:18:26.778008 23191 net.cpp:165] Memory required for data: 215154752
I0304 20:18:26.778010 23191 layer_factory.hpp:77] Creating layer pool1
I0304 20:18:26.778017 23191 net.cpp:100] Creating Layer pool1
I0304 20:18:26.778018 23191 net.cpp:434] pool1 <- conv1
I0304 20:18:26.778023 23191 net.cpp:408] pool1 -> pool1
I0304 20:18:26.778074 23191 net.cpp:150] Setting up pool1
I0304 20:18:26.778077 23191 net.cpp:157] Top shape: 16 64 56 56 (3211264)
I0304 20:18:26.778079 23191 net.cpp:165] Memory required for data: 227999808
I0304 20:18:26.778092 23191 layer_factory.hpp:77] Creating layer pool1_pool1_0_split
I0304 20:18:26.778097 23191 net.cpp:100] Creating Layer pool1_pool1_0_split
I0304 20:18:26.778100 23191 net.cpp:434] pool1_pool1_0_split <- pool1
I0304 20:18:26.778110 23191 net.cpp:408] pool1_pool1_0_split -> pool1_pool1_0_split_0
I0304 20:18:26.778115 23191 net.cpp:408] pool1_pool1_0_split -> pool1_pool1_0_split_1
I0304 20:18:26.778156 23191 net.cpp:150] Setting up pool1_pool1_0_split
I0304 20:18:26.778168 23191 net.cpp:157] Top shape: 16 64 56 56 (3211264)
I0304 20:18:26.778172 23191 net.cpp:157] Top shape: 16 64 56 56 (3211264)
I0304 20:18:26.778174 23191 net.cpp:165] Memory required for data: 253689920
I0304 20:18:26.778177 23191 layer_factory.hpp:77] Creating layer res2a_branch1
I0304 20:18:26.778192 23191 net.cpp:100] Creating Layer res2a_branch1
I0304 20:18:26.778195 23191 net.cpp:434] res2a_branch1 <- pool1_pool1_0_split_0
I0304 20:18:26.778198 23191 net.cpp:408] res2a_branch1 -> res2a_branch1
I0304 20:18:26.778798 23191 net.cpp:150] Setting up res2a_branch1
I0304 20:18:26.778807 23191 net.cpp:157] Top shape: 16 256 56 56 (12845056)
I0304 20:18:26.778810 23191 net.cpp:165] Memory required for data: 305070144
I0304 20:18:26.778812 23191 layer_factory.hpp:77] Creating layer bn2a_branch1
I0304 20:18:26.778818 23191 net.cpp:100] Creating Layer bn2a_branch1
I0304 20:18:26.778820 23191 net.cpp:434] bn2a_branch1 <- res2a_branch1
I0304 20:18:26.778823 23191 net.cpp:395] bn2a_branch1 -> res2a_branch1 (in-place)
I0304 20:18:26.779191 23191 net.cpp:150] Setting up bn2a_branch1
I0304 20:18:26.779197 23191 net.cpp:157] Top shape: 16 256 56 56 (12845056)
I0304 20:18:26.779199 23191 net.cpp:165] Memory required for data: 356450368
I0304 20:18:26.779206 23191 layer_factory.hpp:77] Creating layer scale2a_branch1
I0304 20:18:26.779209 23191 net.cpp:100] Creating Layer scale2a_branch1
I0304 20:18:26.779211 23191 net.cpp:434] scale2a_branch1 <- res2a_branch1
I0304 20:18:26.779216 23191 net.cpp:395] scale2a_branch1 -> res2a_branch1 (in-place)
I0304 20:18:26.779258 23191 layer_factory.hpp:77] Creating layer scale2a_branch1
I0304 20:18:26.779341 23191 net.cpp:150] Setting up scale2a_branch1
I0304 20:18:26.779346 23191 net.cpp:157] Top shape: 16 256 56 56 (12845056)
I0304 20:18:26.779347 23191 net.cpp:165] Memory required for data: 407830592
I0304 20:18:26.779351 23191 layer_factory.hpp:77] Creating layer res2a_branch2a
I0304 20:18:26.779356 23191 net.cpp:100] Creating Layer res2a_branch2a
I0304 20:18:26.779358 23191 net.cpp:434] res2a_branch2a <- pool1_pool1_0_split_1
I0304 20:18:26.779361 23191 net.cpp:408] res2a_branch2a -> res2a_branch2a
I0304 20:18:26.779851 23191 net.cpp:150] Setting up res2a_branch2a
I0304 20:18:26.779860 23191 net.cpp:157] Top shape: 16 64 56 56 (3211264)
I0304 20:18:26.779862 23191 net.cpp:165] Memory required for data: 420675648
I0304 20:18:26.779865 23191 layer_factory.hpp:77] Creating layer bn2a_branch2a
I0304 20:18:26.779870 23191 net.cpp:100] Creating Layer bn2a_branch2a
I0304 20:18:26.779872 23191 net.cpp:434] bn2a_branch2a <- res2a_branch2a
I0304 20:18:26.779876 23191 net.cpp:395] bn2a_branch2a -> res2a_branch2a (in-place)
I0304 20:18:26.779980 23191 net.cpp:150] Setting up bn2a_branch2a
I0304 20:18:26.779984 23191 net.cpp:157] Top shape: 16 64 56 56 (3211264)
I0304 20:18:26.779986 23191 net.cpp:165] Memory required for data: 433520704
I0304 20:18:26.779994 23191 layer_factory.hpp:77] Creating layer scale2a_branch2a
I0304 20:18:26.779997 23191 net.cpp:100] Creating Layer scale2a_branch2a
I0304 20:18:26.779999 23191 net.cpp:434] scale2a_branch2a <- res2a_branch2a
I0304 20:18:26.780001 23191 net.cpp:395] scale2a_branch2a -> res2a_branch2a (in-place)
I0304 20:18:26.780025 23191 layer_factory.hpp:77] Creating layer scale2a_branch2a
I0304 20:18:26.780097 23191 net.cpp:150] Setting up scale2a_branch2a
I0304 20:18:26.780102 23191 net.cpp:157] Top shape: 16 64 56 56 (3211264)
I0304 20:18:26.780103 23191 net.cpp:165] Memory required for data: 446365760
I0304 20:18:26.780107 23191 layer_factory.hpp:77] Creating layer res2a_branch2a_relu
I0304 20:18:26.780110 23191 net.cpp:100] Creating Layer res2a_branch2a_relu
I0304 20:18:26.780112 23191 net.cpp:434] res2a_branch2a_relu <- res2a_branch2a
I0304 20:18:26.780115 23191 net.cpp:395] res2a_branch2a_relu -> res2a_branch2a (in-place)
I0304 20:18:26.780300 23191 net.cpp:150] Setting up res2a_branch2a_relu
I0304 20:18:26.780308 23191 net.cpp:157] Top shape: 16 64 56 56 (3211264)
I0304 20:18:26.780309 23191 net.cpp:165] Memory required for data: 459210816
I0304 20:18:26.780311 23191 layer_factory.hpp:77] Creating layer res2a_branch2b
I0304 20:18:26.780318 23191 net.cpp:100] Creating Layer res2a_branch2b
I0304 20:18:26.780319 23191 net.cpp:434] res2a_branch2b <- res2a_branch2a
I0304 20:18:26.780323 23191 net.cpp:408] res2a_branch2b -> res2a_branch2b
I0304 20:18:26.781260 23191 net.cpp:150] Setting up res2a_branch2b
I0304 20:18:26.781270 23191 net.cpp:157] Top shape: 16 64 56 56 (3211264)
I0304 20:18:26.781282 23191 net.cpp:165] Memory required for data: 472055872
I0304 20:18:26.781286 23191 layer_factory.hpp:77] Creating layer bn2a_branch2b
I0304 20:18:26.781289 23191 net.cpp:100] Creating Layer bn2a_branch2b
I0304 20:18:26.781291 23191 net.cpp:434] bn2a_branch2b <- res2a_branch2b
I0304 20:18:26.781296 23191 net.cpp:395] bn2a_branch2b -> res2a_branch2b (in-place)
I0304 20:18:26.781462 23191 net.cpp:150] Setting up bn2a_branch2b
I0304 20:18:26.781467 23191 net.cpp:157] Top shape: 16 64 56 56 (3211264)
I0304 20:18:26.781479 23191 net.cpp:165] Memory required for data: 484900928
I0304 20:18:26.781483 23191 layer_factory.hpp:77] Creating layer scale2a_branch2b
I0304 20:18:26.781488 23191 net.cpp:100] Creating Layer scale2a_branch2b
I0304 20:18:26.781491 23191 net.cpp:434] scale2a_branch2b <- res2a_branch2b
I0304 20:18:26.781493 23191 net.cpp:395] scale2a_branch2b -> res2a_branch2b (in-place)
I0304 20:18:26.781559 23191 layer_factory.hpp:77] Creating layer scale2a_branch2b
I0304 20:18:26.781639 23191 net.cpp:150] Setting up scale2a_branch2b
I0304 20:18:26.781646 23191 net.cpp:157] Top shape: 16 64 56 56 (3211264)
I0304 20:18:26.781649 23191 net.cpp:165] Memory required for data: 497745984
I0304 20:18:26.781656 23191 layer_factory.hpp:77] Creating layer res2a_branch2b_relu
I0304 20:18:26.781663 23191 net.cpp:100] Creating Layer res2a_branch2b_relu
I0304 20:18:26.781666 23191 net.cpp:434] res2a_branch2b_relu <- res2a_branch2b
I0304 20:18:26.781669 23191 net.cpp:395] res2a_branch2b_relu -> res2a_branch2b (in-place)
I0304 20:18:26.781779 23191 net.cpp:150] Setting up res2a_branch2b_relu
I0304 20:18:26.781785 23191 net.cpp:157] Top shape: 16 64 56 56 (3211264)
I0304 20:18:26.781786 23191 net.cpp:165] Memory required for data: 510591040
I0304 20:18:26.781788 23191 layer_factory.hpp:77] Creating layer res2a_branch2c
I0304 20:18:26.781792 23191 net.cpp:100] Creating Layer res2a_branch2c
I0304 20:18:26.781795 23191 net.cpp:434] res2a_branch2c <- res2a_branch2b
I0304 20:18:26.781798 23191 net.cpp:408] res2a_branch2c -> res2a_branch2c
I0304 20:18:26.782394 23191 net.cpp:150] Setting up res2a_branch2c
I0304 20:18:26.782402 23191 net.cpp:157] Top shape: 16 256 56 56 (12845056)
I0304 20:18:26.782404 23191 net.cpp:165] Memory required for data: 561971264
I0304 20:18:26.782408 23191 layer_factory.hpp:77] Creating layer bn2a_branch2c
I0304 20:18:26.782413 23191 net.cpp:100] Creating Layer bn2a_branch2c
I0304 20:18:26.782414 23191 net.cpp:434] bn2a_branch2c <- res2a_branch2c
I0304 20:18:26.782418 23191 net.cpp:395] bn2a_branch2c -> res2a_branch2c (in-place)
I0304 20:18:26.782527 23191 net.cpp:150] Setting up bn2a_branch2c
I0304 20:18:26.782531 23191 net.cpp:157] Top shape: 16 256 56 56 (12845056)
I0304 20:18:26.782533 23191 net.cpp:165] Memory required for data: 613351488
I0304 20:18:26.782537 23191 layer_factory.hpp:77] Creating layer scale2a_branch2c
I0304 20:18:26.782541 23191 net.cpp:100] Creating Layer scale2a_branch2c
I0304 20:18:26.782543 23191 net.cpp:434] scale2a_branch2c <- res2a_branch2c
I0304 20:18:26.782546 23191 net.cpp:395] scale2a_branch2c -> res2a_branch2c (in-place)
I0304 20:18:26.782590 23191 layer_factory.hpp:77] Creating layer scale2a_branch2c
I0304 20:18:26.782655 23191 net.cpp:150] Setting up scale2a_branch2c
I0304 20:18:26.782658 23191 net.cpp:157] Top shape: 16 256 56 56 (12845056)
I0304 20:18:26.782660 23191 net.cpp:165] Memory required for data: 664731712
I0304 20:18:26.782663 23191 layer_factory.hpp:77] Creating layer res2a
I0304 20:18:26.782668 23191 net.cpp:100] Creating Layer res2a
I0304 20:18:26.782671 23191 net.cpp:434] res2a <- res2a_branch1
I0304 20:18:26.782673 23191 net.cpp:434] res2a <- res2a_branch2c
I0304 20:18:26.782676 23191 net.cpp:408] res2a -> res2a
I0304 20:18:26.782691 23191 net.cpp:150] Setting up res2a
I0304 20:18:26.782696 23191 net.cpp:157] Top shape: 16 256 56 56 (12845056)
I0304 20:18:26.782697 23191 net.cpp:165] Memory required for data: 716111936
I0304 20:18:26.782699 23191 layer_factory.hpp:77] Creating layer res2a_relu
I0304 20:18:26.782703 23191 net.cpp:100] Creating Layer res2a_relu
I0304 20:18:26.782706 23191 net.cpp:434] res2a_relu <- res2a
I0304 20:18:26.782708 23191 net.cpp:395] res2a_relu -> res2a (in-place)
I0304 20:18:26.782897 23191 net.cpp:150] Setting up res2a_relu
I0304 20:18:26.782904 23191 net.cpp:157] Top shape: 16 256 56 56 (12845056)
I0304 20:18:26.782907 23191 net.cpp:165] Memory required for data: 767492160
I0304 20:18:26.782908 23191 layer_factory.hpp:77] Creating layer res2a_res2a_relu_0_split
I0304 20:18:26.782912 23191 net.cpp:100] Creating Layer res2a_res2a_relu_0_split
I0304 20:18:26.782914 23191 net.cpp:434] res2a_res2a_relu_0_split <- res2a
I0304 20:18:26.782917 23191 net.cpp:408] res2a_res2a_relu_0_split -> res2a_res2a_relu_0_split_0
I0304 20:18:26.782922 23191 net.cpp:408] res2a_res2a_relu_0_split -> res2a_res2a_relu_0_split_1
I0304 20:18:26.782968 23191 net.cpp:150] Setting up res2a_res2a_relu_0_split
I0304 20:18:26.782973 23191 net.cpp:157] Top shape: 16 256 56 56 (12845056)
I0304 20:18:26.782974 23191 net.cpp:157] Top shape: 16 256 56 56 (12845056)
I0304 20:18:26.782976 23191 net.cpp:165] Memory required for data: 870252608
I0304 20:18:26.782979 23191 layer_factory.hpp:77] Creating layer res2b_branch2a
I0304 20:18:26.782984 23191 net.cpp:100] Creating Layer res2b_branch2a
I0304 20:18:26.782985 23191 net.cpp:434] res2b_branch2a <- res2a_res2a_relu_0_split_0
I0304 20:18:26.782989 23191 net.cpp:408] res2b_branch2a -> res2b_branch2a
I0304 20:18:26.783500 23191 net.cpp:150] Setting up res2b_branch2a
I0304 20:18:26.783509 23191 net.cpp:157] Top shape: 16 64 56 56 (3211264)
I0304 20:18:26.783510 23191 net.cpp:165] Memory required for data: 883097664
I0304 20:18:26.783514 23191 layer_factory.hpp:77] Creating layer bn2b_branch2a
I0304 20:18:26.783519 23191 net.cpp:100] Creating Layer bn2b_branch2a
I0304 20:18:26.783520 23191 net.cpp:434] bn2b_branch2a <- res2b_branch2a
I0304 20:18:26.783524 23191 net.cpp:395] bn2b_branch2a -> res2b_branch2a (in-place)
I0304 20:18:26.783633 23191 net.cpp:150] Setting up bn2b_branch2a
I0304 20:18:26.783638 23191 net.cpp:157] Top shape: 16 64 56 56 (3211264)
I0304 20:18:26.783640 23191 net.cpp:165] Memory required for data: 895942720
I0304 20:18:26.783648 23191 layer_factory.hpp:77] Creating layer scale2b_branch2a
I0304 20:18:26.783653 23191 net.cpp:100] Creating Layer scale2b_branch2a
I0304 20:18:26.783654 23191 net.cpp:434] scale2b_branch2a <- res2b_branch2a
I0304 20:18:26.783658 23191 net.cpp:395] scale2b_branch2a -> res2b_branch2a (in-place)
I0304 20:18:26.783679 23191 layer_factory.hpp:77] Creating layer scale2b_branch2a
I0304 20:18:26.783747 23191 net.cpp:150] Setting up scale2b_branch2a
I0304 20:18:26.783752 23191 net.cpp:157] Top shape: 16 64 56 56 (3211264)
I0304 20:18:26.783753 23191 net.cpp:165] Memory required for data: 908787776
I0304 20:18:26.783757 23191 layer_factory.hpp:77] Creating layer res2b_branch2a_relu
I0304 20:18:26.783761 23191 net.cpp:100] Creating Layer res2b_branch2a_relu
I0304 20:18:26.783762 23191 net.cpp:434] res2b_branch2a_relu <- res2b_branch2a
I0304 20:18:26.783766 23191 net.cpp:395] res2b_branch2a_relu -> res2b_branch2a (in-place)
I0304 20:18:26.784024 23191 net.cpp:150] Setting up res2b_branch2a_relu
I0304 20:18:26.784032 23191 net.cpp:157] Top shape: 16 64 56 56 (3211264)
I0304 20:18:26.784034 23191 net.cpp:165] Memory required for data: 921632832
I0304 20:18:26.784036 23191 layer_factory.hpp:77] Creating layer res2b_branch2b
I0304 20:18:26.784041 23191 net.cpp:100] Creating Layer res2b_branch2b
I0304 20:18:26.784044 23191 net.cpp:434] res2b_branch2b <- res2b_branch2a
I0304 20:18:26.784047 23191 net.cpp:408] res2b_branch2b -> res2b_branch2b
I0304 20:18:26.784729 23191 net.cpp:150] Setting up res2b_branch2b
I0304 20:18:26.784739 23191 net.cpp:157] Top shape: 16 64 56 56 (3211264)
I0304 20:18:26.784740 23191 net.cpp:165] Memory required for data: 934477888
I0304 20:18:26.784744 23191 layer_factory.hpp:77] Creating layer bn2b_branch2b
I0304 20:18:26.784749 23191 net.cpp:100] Creating Layer bn2b_branch2b
I0304 20:18:26.784750 23191 net.cpp:434] bn2b_branch2b <- res2b_branch2b
I0304 20:18:26.784754 23191 net.cpp:395] bn2b_branch2b -> res2b_branch2b (in-place)
I0304 20:18:26.784873 23191 net.cpp:150] Setting up bn2b_branch2b
I0304 20:18:26.784878 23191 net.cpp:157] Top shape: 16 64 56 56 (3211264)
I0304 20:18:26.784879 23191 net.cpp:165] Memory required for data: 947322944
I0304 20:18:26.784884 23191 layer_factory.hpp:77] Creating layer scale2b_branch2b
I0304 20:18:26.784888 23191 net.cpp:100] Creating Layer scale2b_branch2b
I0304 20:18:26.784890 23191 net.cpp:434] scale2b_branch2b <- res2b_branch2b
I0304 20:18:26.784893 23191 net.cpp:395] scale2b_branch2b -> res2b_branch2b (in-place)
I0304 20:18:26.784915 23191 layer_factory.hpp:77] Creating layer scale2b_branch2b
I0304 20:18:26.784988 23191 net.cpp:150] Setting up scale2b_branch2b
I0304 20:18:26.784992 23191 net.cpp:157] Top shape: 16 64 56 56 (3211264)
I0304 20:18:26.784994 23191 net.cpp:165] Memory required for data: 960168000
I0304 20:18:26.784997 23191 layer_factory.hpp:77] Creating layer res2b_branch2b_relu
I0304 20:18:26.785001 23191 net.cpp:100] Creating Layer res2b_branch2b_relu
I0304 20:18:26.785003 23191 net.cpp:434] res2b_branch2b_relu <- res2b_branch2b
I0304 20:18:26.785006 23191 net.cpp:395] res2b_branch2b_relu -> res2b_branch2b (in-place)
I0304 20:18:26.785111 23191 net.cpp:150] Setting up res2b_branch2b_relu
I0304 20:18:26.785117 23191 net.cpp:157] Top shape: 16 64 56 56 (3211264)
I0304 20:18:26.785120 23191 net.cpp:165] Memory required for data: 973013056
I0304 20:18:26.785121 23191 layer_factory.hpp:77] Creating layer res2b_branch2c
I0304 20:18:26.785127 23191 net.cpp:100] Creating Layer res2b_branch2c
I0304 20:18:26.785130 23191 net.cpp:434] res2b_branch2c <- res2b_branch2b
I0304 20:18:26.785133 23191 net.cpp:408] res2b_branch2c -> res2b_branch2c
I0304 20:18:26.785735 23191 net.cpp:150] Setting up res2b_branch2c
I0304 20:18:26.785743 23191 net.cpp:157] Top shape: 16 256 56 56 (12845056)
I0304 20:18:26.785745 23191 net.cpp:165] Memory required for data: 1024393280
I0304 20:18:26.785748 23191 layer_factory.hpp:77] Creating layer bn2b_branch2c
I0304 20:18:26.785753 23191 net.cpp:100] Creating Layer bn2b_branch2c
I0304 20:18:26.785755 23191 net.cpp:434] bn2b_branch2c <- res2b_branch2c
I0304 20:18:26.785758 23191 net.cpp:395] bn2b_branch2c -> res2b_branch2c (in-place)
I0304 20:18:26.785869 23191 net.cpp:150] Setting up bn2b_branch2c
I0304 20:18:26.785874 23191 net.cpp:157] Top shape: 16 256 56 56 (12845056)
I0304 20:18:26.785876 23191 net.cpp:165] Memory required for data: 1075773504
I0304 20:18:26.785881 23191 layer_factory.hpp:77] Creating layer scale2b_branch2c
I0304 20:18:26.785884 23191 net.cpp:100] Creating Layer scale2b_branch2c
I0304 20:18:26.785887 23191 net.cpp:434] scale2b_branch2c <- res2b_branch2c
I0304 20:18:26.785889 23191 net.cpp:395] scale2b_branch2c -> res2b_branch2c (in-place)
I0304 20:18:26.785912 23191 layer_factory.hpp:77] Creating layer scale2b_branch2c
I0304 20:18:26.785977 23191 net.cpp:150] Setting up scale2b_branch2c
I0304 20:18:26.785981 23191 net.cpp:157] Top shape: 16 256 56 56 (12845056)
I0304 20:18:26.785984 23191 net.cpp:165] Memory required for data: 1127153728
I0304 20:18:26.785986 23191 layer_factory.hpp:77] Creating layer res2b
I0304 20:18:26.785990 23191 net.cpp:100] Creating Layer res2b
I0304 20:18:26.785992 23191 net.cpp:434] res2b <- res2a_res2a_relu_0_split_1
I0304 20:18:26.785995 23191 net.cpp:434] res2b <- res2b_branch2c
I0304 20:18:26.785998 23191 net.cpp:408] res2b -> res2b
I0304 20:18:26.786012 23191 net.cpp:150] Setting up res2b
I0304 20:18:26.786017 23191 net.cpp:157] Top shape: 16 256 56 56 (12845056)
I0304 20:18:26.786020 23191 net.cpp:165] Memory required for data: 1178533952
I0304 20:18:26.786021 23191 layer_factory.hpp:77] Creating layer res2b_relu
I0304 20:18:26.786025 23191 net.cpp:100] Creating Layer res2b_relu
I0304 20:18:26.786026 23191 net.cpp:434] res2b_relu <- res2b
I0304 20:18:26.786028 23191 net.cpp:395] res2b_relu -> res2b (in-place)
I0304 20:18:26.786217 23191 net.cpp:150] Setting up res2b_relu
I0304 20:18:26.786226 23191 net.cpp:157] Top shape: 16 256 56 56 (12845056)
I0304 20:18:26.786227 23191 net.cpp:165] Memory required for data: 1229914176
I0304 20:18:26.786229 23191 layer_factory.hpp:77] Creating layer res2b_res2b_relu_0_split
I0304 20:18:26.786232 23191 net.cpp:100] Creating Layer res2b_res2b_relu_0_split
I0304 20:18:26.786234 23191 net.cpp:434] res2b_res2b_relu_0_split <- res2b
I0304 20:18:26.786238 23191 net.cpp:408] res2b_res2b_relu_0_split -> res2b_res2b_relu_0_split_0
I0304 20:18:26.786242 23191 net.cpp:408] res2b_res2b_relu_0_split -> res2b_res2b_relu_0_split_1
I0304 20:18:26.786267 23191 net.cpp:150] Setting up res2b_res2b_relu_0_split
I0304 20:18:26.786272 23191 net.cpp:157] Top shape: 16 256 56 56 (12845056)
I0304 20:18:26.786273 23191 net.cpp:157] Top shape: 16 256 56 56 (12845056)
I0304 20:18:26.786275 23191 net.cpp:165] Memory required for data: 1332674624
I0304 20:18:26.786276 23191 layer_factory.hpp:77] Creating layer res2c_branch2a
I0304 20:18:26.786281 23191 net.cpp:100] Creating Layer res2c_branch2a
I0304 20:18:26.786283 23191 net.cpp:434] res2c_branch2a <- res2b_res2b_relu_0_split_0
I0304 20:18:26.786286 23191 net.cpp:408] res2c_branch2a -> res2c_branch2a
I0304 20:18:26.786798 23191 net.cpp:150] Setting up res2c_branch2a
I0304 20:18:26.786806 23191 net.cpp:157] Top shape: 16 64 56 56 (3211264)
I0304 20:18:26.786808 23191 net.cpp:165] Memory required for data: 1345519680
I0304 20:18:26.786811 23191 layer_factory.hpp:77] Creating layer bn2c_branch2a
I0304 20:18:26.786815 23191 net.cpp:100] Creating Layer bn2c_branch2a
I0304 20:18:26.786818 23191 net.cpp:434] bn2c_branch2a <- res2c_branch2a
I0304 20:18:26.786821 23191 net.cpp:395] bn2c_branch2a -> res2c_branch2a (in-place)
I0304 20:18:26.786937 23191 net.cpp:150] Setting up bn2c_branch2a
I0304 20:18:26.786942 23191 net.cpp:157] Top shape: 16 64 56 56 (3211264)
I0304 20:18:26.786943 23191 net.cpp:165] Memory required for data: 1358364736
I0304 20:18:26.786948 23191 layer_factory.hpp:77] Creating layer scale2c_branch2a
I0304 20:18:26.786952 23191 net.cpp:100] Creating Layer scale2c_branch2a
I0304 20:18:26.786953 23191 net.cpp:434] scale2c_branch2a <- res2c_branch2a
I0304 20:18:26.786957 23191 net.cpp:395] scale2c_branch2a -> res2c_branch2a (in-place)
I0304 20:18:26.786978 23191 layer_factory.hpp:77] Creating layer scale2c_branch2a
I0304 20:18:26.787047 23191 net.cpp:150] Setting up scale2c_branch2a
I0304 20:18:26.787051 23191 net.cpp:157] Top shape: 16 64 56 56 (3211264)
I0304 20:18:26.787052 23191 net.cpp:165] Memory required for data: 1371209792
I0304 20:18:26.787056 23191 layer_factory.hpp:77] Creating layer res2c_branch2a_relu
I0304 20:18:26.787060 23191 net.cpp:100] Creating Layer res2c_branch2a_relu
I0304 20:18:26.787061 23191 net.cpp:434] res2c_branch2a_relu <- res2c_branch2a
I0304 20:18:26.787065 23191 net.cpp:395] res2c_branch2a_relu -> res2c_branch2a (in-place)
I0304 20:18:26.787256 23191 net.cpp:150] Setting up res2c_branch2a_relu
I0304 20:18:26.787264 23191 net.cpp:157] Top shape: 16 64 56 56 (3211264)
I0304 20:18:26.787266 23191 net.cpp:165] Memory required for data: 1384054848
I0304 20:18:26.787268 23191 layer_factory.hpp:77] Creating layer res2c_branch2b
I0304 20:18:26.787273 23191 net.cpp:100] Creating Layer res2c_branch2b
I0304 20:18:26.787276 23191 net.cpp:434] res2c_branch2b <- res2c_branch2a
I0304 20:18:26.787279 23191 net.cpp:408] res2c_branch2b -> res2c_branch2b
I0304 20:18:26.787961 23191 net.cpp:150] Setting up res2c_branch2b
I0304 20:18:26.787969 23191 net.cpp:157] Top shape: 16 64 56 56 (3211264)
I0304 20:18:26.787971 23191 net.cpp:165] Memory required for data: 1396899904
I0304 20:18:26.787974 23191 layer_factory.hpp:77] Creating layer bn2c_branch2b
I0304 20:18:26.787978 23191 net.cpp:100] Creating Layer bn2c_branch2b
I0304 20:18:26.787981 23191 net.cpp:434] bn2c_branch2b <- res2c_branch2b
I0304 20:18:26.787984 23191 net.cpp:395] bn2c_branch2b -> res2c_branch2b (in-place)
I0304 20:18:26.788110 23191 net.cpp:150] Setting up bn2c_branch2b
I0304 20:18:26.788115 23191 net.cpp:157] Top shape: 16 64 56 56 (3211264)
I0304 20:18:26.788116 23191 net.cpp:165] Memory required for data: 1409744960
I0304 20:18:26.788120 23191 layer_factory.hpp:77] Creating layer scale2c_branch2b
I0304 20:18:26.788125 23191 net.cpp:100] Creating Layer scale2c_branch2b
I0304 20:18:26.788126 23191 net.cpp:434] scale2c_branch2b <- res2c_branch2b
I0304 20:18:26.788130 23191 net.cpp:395] scale2c_branch2b -> res2c_branch2b (in-place)
I0304 20:18:26.788152 23191 layer_factory.hpp:77] Creating layer scale2c_branch2b
I0304 20:18:26.788223 23191 net.cpp:150] Setting up scale2c_branch2b
I0304 20:18:26.788228 23191 net.cpp:157] Top shape: 16 64 56 56 (3211264)
I0304 20:18:26.788229 23191 net.cpp:165] Memory required for data: 1422590016
I0304 20:18:26.788233 23191 layer_factory.hpp:77] Creating layer res2c_branch2b_relu
I0304 20:18:26.788235 23191 net.cpp:100] Creating Layer res2c_branch2b_relu
I0304 20:18:26.788238 23191 net.cpp:434] res2c_branch2b_relu <- res2c_branch2b
I0304 20:18:26.788240 23191 net.cpp:395] res2c_branch2b_relu -> res2c_branch2b (in-place)
I0304 20:18:26.788352 23191 net.cpp:150] Setting up res2c_branch2b_relu
I0304 20:18:26.788357 23191 net.cpp:157] Top shape: 16 64 56 56 (3211264)
I0304 20:18:26.788359 23191 net.cpp:165] Memory required for data: 1435435072
I0304 20:18:26.788362 23191 layer_factory.hpp:77] Creating layer res2c_branch2c
I0304 20:18:26.788367 23191 net.cpp:100] Creating Layer res2c_branch2c
I0304 20:18:26.788368 23191 net.cpp:434] res2c_branch2c <- res2c_branch2b
I0304 20:18:26.788372 23191 net.cpp:408] res2c_branch2c -> res2c_branch2c
I0304 20:18:26.788987 23191 net.cpp:150] Setting up res2c_branch2c
I0304 20:18:26.788995 23191 net.cpp:157] Top shape: 16 256 56 56 (12845056)
I0304 20:18:26.788998 23191 net.cpp:165] Memory required for data: 1486815296
I0304 20:18:26.789002 23191 layer_factory.hpp:77] Creating layer bn2c_branch2c
I0304 20:18:26.789006 23191 net.cpp:100] Creating Layer bn2c_branch2c
I0304 20:18:26.789008 23191 net.cpp:434] bn2c_branch2c <- res2c_branch2c
I0304 20:18:26.789011 23191 net.cpp:395] bn2c_branch2c -> res2c_branch2c (in-place)
I0304 20:18:26.789125 23191 net.cpp:150] Setting up bn2c_branch2c
I0304 20:18:26.789129 23191 net.cpp:157] Top shape: 16 256 56 56 (12845056)
I0304 20:18:26.789131 23191 net.cpp:165] Memory required for data: 1538195520
I0304 20:18:26.789140 23191 layer_factory.hpp:77] Creating layer scale2c_branch2c
I0304 20:18:26.789144 23191 net.cpp:100] Creating Layer scale2c_branch2c
I0304 20:18:26.789147 23191 net.cpp:434] scale2c_branch2c <- res2c_branch2c
I0304 20:18:26.789150 23191 net.cpp:395] scale2c_branch2c -> res2c_branch2c (in-place)
I0304 20:18:26.789175 23191 layer_factory.hpp:77] Creating layer scale2c_branch2c
I0304 20:18:26.789242 23191 net.cpp:150] Setting up scale2c_branch2c
I0304 20:18:26.789247 23191 net.cpp:157] Top shape: 16 256 56 56 (12845056)
I0304 20:18:26.789248 23191 net.cpp:165] Memory required for data: 1589575744
I0304 20:18:26.789252 23191 layer_factory.hpp:77] Creating layer res2c
I0304 20:18:26.789255 23191 net.cpp:100] Creating Layer res2c
I0304 20:18:26.789258 23191 net.cpp:434] res2c <- res2b_res2b_relu_0_split_1
I0304 20:18:26.789260 23191 net.cpp:434] res2c <- res2c_branch2c
I0304 20:18:26.789263 23191 net.cpp:408] res2c -> res2c
I0304 20:18:26.789275 23191 net.cpp:150] Setting up res2c
I0304 20:18:26.789279 23191 net.cpp:157] Top shape: 16 256 56 56 (12845056)
I0304 20:18:26.789281 23191 net.cpp:165] Memory required for data: 1640955968
I0304 20:18:26.789283 23191 layer_factory.hpp:77] Creating layer res2c_relu
I0304 20:18:26.789286 23191 net.cpp:100] Creating Layer res2c_relu
I0304 20:18:26.789288 23191 net.cpp:434] res2c_relu <- res2c
I0304 20:18:26.789291 23191 net.cpp:395] res2c_relu -> res2c (in-place)
I0304 20:18:26.789480 23191 net.cpp:150] Setting up res2c_relu
I0304 20:18:26.789489 23191 net.cpp:157] Top shape: 16 256 56 56 (12845056)
I0304 20:18:26.789490 23191 net.cpp:165] Memory required for data: 1692336192
I0304 20:18:26.789492 23191 layer_factory.hpp:77] Creating layer res2c_res2c_relu_0_split
I0304 20:18:26.789496 23191 net.cpp:100] Creating Layer res2c_res2c_relu_0_split
I0304 20:18:26.789499 23191 net.cpp:434] res2c_res2c_relu_0_split <- res2c
I0304 20:18:26.789501 23191 net.cpp:408] res2c_res2c_relu_0_split -> res2c_res2c_relu_0_split_0
I0304 20:18:26.789505 23191 net.cpp:408] res2c_res2c_relu_0_split -> res2c_res2c_relu_0_split_1
I0304 20:18:26.789530 23191 net.cpp:150] Setting up res2c_res2c_relu_0_split
I0304 20:18:26.789533 23191 net.cpp:157] Top shape: 16 256 56 56 (12845056)
I0304 20:18:26.789535 23191 net.cpp:157] Top shape: 16 256 56 56 (12845056)
I0304 20:18:26.789537 23191 net.cpp:165] Memory required for data: 1795096640
I0304 20:18:26.789538 23191 layer_factory.hpp:77] Creating layer res3a_branch1
I0304 20:18:26.789544 23191 net.cpp:100] Creating Layer res3a_branch1
I0304 20:18:26.789546 23191 net.cpp:434] res3a_branch1 <- res2c_res2c_relu_0_split_0
I0304 20:18:26.789549 23191 net.cpp:408] res3a_branch1 -> res3a_branch1
I0304 20:18:26.790452 23191 net.cpp:150] Setting up res3a_branch1
I0304 20:18:26.790460 23191 net.cpp:157] Top shape: 16 512 28 28 (6422528)
I0304 20:18:26.790463 23191 net.cpp:165] Memory required for data: 1820786752
I0304 20:18:26.790467 23191 layer_factory.hpp:77] Creating layer bn3a_branch1
I0304 20:18:26.790472 23191 net.cpp:100] Creating Layer bn3a_branch1
I0304 20:18:26.790474 23191 net.cpp:434] bn3a_branch1 <- res3a_branch1
I0304 20:18:26.790477 23191 net.cpp:395] bn3a_branch1 -> res3a_branch1 (in-place)
I0304 20:18:26.790823 23191 net.cpp:150] Setting up bn3a_branch1
I0304 20:18:26.790830 23191 net.cpp:157] Top shape: 16 512 28 28 (6422528)
I0304 20:18:26.790832 23191 net.cpp:165] Memory required for data: 1846476864
I0304 20:18:26.790838 23191 layer_factory.hpp:77] Creating layer scale3a_branch1
I0304 20:18:26.790843 23191 net.cpp:100] Creating Layer scale3a_branch1
I0304 20:18:26.790844 23191 net.cpp:434] scale3a_branch1 <- res3a_branch1
I0304 20:18:26.790848 23191 net.cpp:395] scale3a_branch1 -> res3a_branch1 (in-place)
I0304 20:18:26.790873 23191 layer_factory.hpp:77] Creating layer scale3a_branch1
I0304 20:18:26.790935 23191 net.cpp:150] Setting up scale3a_branch1
I0304 20:18:26.790940 23191 net.cpp:157] Top shape: 16 512 28 28 (6422528)
I0304 20:18:26.790940 23191 net.cpp:165] Memory required for data: 1872166976
I0304 20:18:26.790944 23191 layer_factory.hpp:77] Creating layer res3a_branch2a
I0304 20:18:26.790949 23191 net.cpp:100] Creating Layer res3a_branch2a
I0304 20:18:26.790951 23191 net.cpp:434] res3a_branch2a <- res2c_res2c_relu_0_split_1
I0304 20:18:26.790954 23191 net.cpp:408] res3a_branch2a -> res3a_branch2a
I0304 20:18:26.791658 23191 net.cpp:150] Setting up res3a_branch2a
I0304 20:18:26.791666 23191 net.cpp:157] Top shape: 16 128 28 28 (1605632)
I0304 20:18:26.791669 23191 net.cpp:165] Memory required for data: 1878589504
I0304 20:18:26.791672 23191 layer_factory.hpp:77] Creating layer bn3a_branch2a
I0304 20:18:26.791677 23191 net.cpp:100] Creating Layer bn3a_branch2a
I0304 20:18:26.791681 23191 net.cpp:434] bn3a_branch2a <- res3a_branch2a
I0304 20:18:26.791683 23191 net.cpp:395] bn3a_branch2a -> res3a_branch2a (in-place)
I0304 20:18:26.791797 23191 net.cpp:150] Setting up bn3a_branch2a
I0304 20:18:26.791802 23191 net.cpp:157] Top shape: 16 128 28 28 (1605632)
I0304 20:18:26.791805 23191 net.cpp:165] Memory required for data: 1885012032
I0304 20:18:26.791808 23191 layer_factory.hpp:77] Creating layer scale3a_branch2a
I0304 20:18:26.791812 23191 net.cpp:100] Creating Layer scale3a_branch2a
I0304 20:18:26.791815 23191 net.cpp:434] scale3a_branch2a <- res3a_branch2a
I0304 20:18:26.791817 23191 net.cpp:395] scale3a_branch2a -> res3a_branch2a (in-place)
I0304 20:18:26.791841 23191 layer_factory.hpp:77] Creating layer scale3a_branch2a
I0304 20:18:26.791905 23191 net.cpp:150] Setting up scale3a_branch2a
I0304 20:18:26.791909 23191 net.cpp:157] Top shape: 16 128 28 28 (1605632)
I0304 20:18:26.791911 23191 net.cpp:165] Memory required for data: 1891434560
I0304 20:18:26.791914 23191 layer_factory.hpp:77] Creating layer res3a_branch2a_relu
I0304 20:18:26.791918 23191 net.cpp:100] Creating Layer res3a_branch2a_relu
I0304 20:18:26.791919 23191 net.cpp:434] res3a_branch2a_relu <- res3a_branch2a
I0304 20:18:26.791923 23191 net.cpp:395] res3a_branch2a_relu -> res3a_branch2a (in-place)
I0304 20:18:26.792124 23191 net.cpp:150] Setting up res3a_branch2a_relu
I0304 20:18:26.792132 23191 net.cpp:157] Top shape: 16 128 28 28 (1605632)
I0304 20:18:26.792135 23191 net.cpp:165] Memory required for data: 1897857088
I0304 20:18:26.792136 23191 layer_factory.hpp:77] Creating layer res3a_branch2b
I0304 20:18:26.792142 23191 net.cpp:100] Creating Layer res3a_branch2b
I0304 20:18:26.792145 23191 net.cpp:434] res3a_branch2b <- res3a_branch2a
I0304 20:18:26.792147 23191 net.cpp:408] res3a_branch2b -> res3a_branch2b
I0304 20:18:26.793120 23191 net.cpp:150] Setting up res3a_branch2b
I0304 20:18:26.793128 23191 net.cpp:157] Top shape: 16 128 28 28 (1605632)
I0304 20:18:26.793130 23191 net.cpp:165] Memory required for data: 1904279616
I0304 20:18:26.793133 23191 layer_factory.hpp:77] Creating layer bn3a_branch2b
I0304 20:18:26.793138 23191 net.cpp:100] Creating Layer bn3a_branch2b
I0304 20:18:26.793140 23191 net.cpp:434] bn3a_branch2b <- res3a_branch2b
I0304 20:18:26.793143 23191 net.cpp:395] bn3a_branch2b -> res3a_branch2b (in-place)
I0304 20:18:26.793263 23191 net.cpp:150] Setting up bn3a_branch2b
I0304 20:18:26.793268 23191 net.cpp:157] Top shape: 16 128 28 28 (1605632)
I0304 20:18:26.793270 23191 net.cpp:165] Memory required for data: 1910702144
I0304 20:18:26.793274 23191 layer_factory.hpp:77] Creating layer scale3a_branch2b
I0304 20:18:26.793278 23191 net.cpp:100] Creating Layer scale3a_branch2b
I0304 20:18:26.793280 23191 net.cpp:434] scale3a_branch2b <- res3a_branch2b
I0304 20:18:26.793283 23191 net.cpp:395] scale3a_branch2b -> res3a_branch2b (in-place)
I0304 20:18:26.793306 23191 layer_factory.hpp:77] Creating layer scale3a_branch2b
I0304 20:18:26.793371 23191 net.cpp:150] Setting up scale3a_branch2b
I0304 20:18:26.793376 23191 net.cpp:157] Top shape: 16 128 28 28 (1605632)
I0304 20:18:26.793377 23191 net.cpp:165] Memory required for data: 1917124672
I0304 20:18:26.793381 23191 layer_factory.hpp:77] Creating layer res3a_branch2b_relu
I0304 20:18:26.793385 23191 net.cpp:100] Creating Layer res3a_branch2b_relu
I0304 20:18:26.793386 23191 net.cpp:434] res3a_branch2b_relu <- res3a_branch2b
I0304 20:18:26.793390 23191 net.cpp:395] res3a_branch2b_relu -> res3a_branch2b (in-place)
I0304 20:18:26.793500 23191 net.cpp:150] Setting up res3a_branch2b_relu
I0304 20:18:26.793507 23191 net.cpp:157] Top shape: 16 128 28 28 (1605632)
I0304 20:18:26.793509 23191 net.cpp:165] Memory required for data: 1923547200
I0304 20:18:26.793511 23191 layer_factory.hpp:77] Creating layer res3a_branch2c
I0304 20:18:26.793515 23191 net.cpp:100] Creating Layer res3a_branch2c
I0304 20:18:26.793517 23191 net.cpp:434] res3a_branch2c <- res3a_branch2b
I0304 20:18:26.793521 23191 net.cpp:408] res3a_branch2c -> res3a_branch2c
I0304 20:18:26.794178 23191 net.cpp:150] Setting up res3a_branch2c
I0304 20:18:26.794185 23191 net.cpp:157] Top shape: 16 512 28 28 (6422528)
I0304 20:18:26.794188 23191 net.cpp:165] Memory required for data: 1949237312
I0304 20:18:26.794190 23191 layer_factory.hpp:77] Creating layer bn3a_branch2c
I0304 20:18:26.794198 23191 net.cpp:100] Creating Layer bn3a_branch2c
I0304 20:18:26.794200 23191 net.cpp:434] bn3a_branch2c <- res3a_branch2c
I0304 20:18:26.794203 23191 net.cpp:395] bn3a_branch2c -> res3a_branch2c (in-place)
I0304 20:18:26.794320 23191 net.cpp:150] Setting up bn3a_branch2c
I0304 20:18:26.794325 23191 net.cpp:157] Top shape: 16 512 28 28 (6422528)
I0304 20:18:26.794327 23191 net.cpp:165] Memory required for data: 1974927424
I0304 20:18:26.794332 23191 layer_factory.hpp:77] Creating layer scale3a_branch2c
I0304 20:18:26.794335 23191 net.cpp:100] Creating Layer scale3a_branch2c
I0304 20:18:26.794337 23191 net.cpp:434] scale3a_branch2c <- res3a_branch2c
I0304 20:18:26.794340 23191 net.cpp:395] scale3a_branch2c -> res3a_branch2c (in-place)
I0304 20:18:26.794364 23191 layer_factory.hpp:77] Creating layer scale3a_branch2c
I0304 20:18:26.794428 23191 net.cpp:150] Setting up scale3a_branch2c
I0304 20:18:26.794432 23191 net.cpp:157] Top shape: 16 512 28 28 (6422528)
I0304 20:18:26.794435 23191 net.cpp:165] Memory required for data: 2000617536
I0304 20:18:26.794437 23191 layer_factory.hpp:77] Creating layer res3a
I0304 20:18:26.794441 23191 net.cpp:100] Creating Layer res3a
I0304 20:18:26.794443 23191 net.cpp:434] res3a <- res3a_branch1
I0304 20:18:26.794445 23191 net.cpp:434] res3a <- res3a_branch2c
I0304 20:18:26.794450 23191 net.cpp:408] res3a -> res3a
I0304 20:18:26.794462 23191 net.cpp:150] Setting up res3a
I0304 20:18:26.794466 23191 net.cpp:157] Top shape: 16 512 28 28 (6422528)
I0304 20:18:26.794468 23191 net.cpp:165] Memory required for data: 2026307648
I0304 20:18:26.794469 23191 layer_factory.hpp:77] Creating layer res3a_relu
I0304 20:18:26.794473 23191 net.cpp:100] Creating Layer res3a_relu
I0304 20:18:26.794476 23191 net.cpp:434] res3a_relu <- res3a
I0304 20:18:26.794477 23191 net.cpp:395] res3a_relu -> res3a (in-place)
I0304 20:18:26.794592 23191 net.cpp:150] Setting up res3a_relu
I0304 20:18:26.794598 23191 net.cpp:157] Top shape: 16 512 28 28 (6422528)
I0304 20:18:26.794600 23191 net.cpp:165] Memory required for data: 2051997760
I0304 20:18:26.794602 23191 layer_factory.hpp:77] Creating layer res3a_res3a_relu_0_split
I0304 20:18:26.794606 23191 net.cpp:100] Creating Layer res3a_res3a_relu_0_split
I0304 20:18:26.794608 23191 net.cpp:434] res3a_res3a_relu_0_split <- res3a
I0304 20:18:26.794611 23191 net.cpp:408] res3a_res3a_relu_0_split -> res3a_res3a_relu_0_split_0
I0304 20:18:26.794615 23191 net.cpp:408] res3a_res3a_relu_0_split -> res3a_res3a_relu_0_split_1
I0304 20:18:26.794639 23191 net.cpp:150] Setting up res3a_res3a_relu_0_split
I0304 20:18:26.794643 23191 net.cpp:157] Top shape: 16 512 28 28 (6422528)
I0304 20:18:26.794646 23191 net.cpp:157] Top shape: 16 512 28 28 (6422528)
I0304 20:18:26.794647 23191 net.cpp:165] Memory required for data: 2103377984
I0304 20:18:26.794649 23191 layer_factory.hpp:77] Creating layer res3b_branch2a
I0304 20:18:26.794653 23191 net.cpp:100] Creating Layer res3b_branch2a
I0304 20:18:26.794656 23191 net.cpp:434] res3b_branch2a <- res3a_res3a_relu_0_split_0
I0304 20:18:26.794658 23191 net.cpp:408] res3b_branch2a -> res3b_branch2a
I0304 20:18:26.795516 23191 net.cpp:150] Setting up res3b_branch2a
I0304 20:18:26.795523 23191 net.cpp:157] Top shape: 16 128 28 28 (1605632)
I0304 20:18:26.795526 23191 net.cpp:165] Memory required for data: 2109800512
I0304 20:18:26.795529 23191 layer_factory.hpp:77] Creating layer bn3b_branch2a
I0304 20:18:26.795533 23191 net.cpp:100] Creating Layer bn3b_branch2a
I0304 20:18:26.795536 23191 net.cpp:434] bn3b_branch2a <- res3b_branch2a
I0304 20:18:26.795538 23191 net.cpp:395] bn3b_branch2a -> res3b_branch2a (in-place)
I0304 20:18:26.795658 23191 net.cpp:150] Setting up bn3b_branch2a
I0304 20:18:26.795663 23191 net.cpp:157] Top shape: 16 128 28 28 (1605632)
I0304 20:18:26.795665 23191 net.cpp:165] Memory required for data: 2116223040
I0304 20:18:26.795670 23191 layer_factory.hpp:77] Creating layer scale3b_branch2a
I0304 20:18:26.795672 23191 net.cpp:100] Creating Layer scale3b_branch2a
I0304 20:18:26.795675 23191 net.cpp:434] scale3b_branch2a <- res3b_branch2a
I0304 20:18:26.795678 23191 net.cpp:395] scale3b_branch2a -> res3b_branch2a (in-place)
I0304 20:18:26.795701 23191 layer_factory.hpp:77] Creating layer scale3b_branch2a
I0304 20:18:26.795768 23191 net.cpp:150] Setting up scale3b_branch2a
I0304 20:18:26.795773 23191 net.cpp:157] Top shape: 16 128 28 28 (1605632)
I0304 20:18:26.795774 23191 net.cpp:165] Memory required for data: 2122645568
I0304 20:18:26.795778 23191 layer_factory.hpp:77] Creating layer res3b_branch2a_relu
I0304 20:18:26.795780 23191 net.cpp:100] Creating Layer res3b_branch2a_relu
I0304 20:18:26.795783 23191 net.cpp:434] res3b_branch2a_relu <- res3b_branch2a
I0304 20:18:26.795785 23191 net.cpp:395] res3b_branch2a_relu -> res3b_branch2a (in-place)
I0304 20:18:26.795981 23191 net.cpp:150] Setting up res3b_branch2a_relu
I0304 20:18:26.795989 23191 net.cpp:157] Top shape: 16 128 28 28 (1605632)
I0304 20:18:26.795990 23191 net.cpp:165] Memory required for data: 2129068096
I0304 20:18:26.795992 23191 layer_factory.hpp:77] Creating layer res3b_branch2b
I0304 20:18:26.796015 23191 net.cpp:100] Creating Layer res3b_branch2b
I0304 20:18:26.796017 23191 net.cpp:434] res3b_branch2b <- res3b_branch2a
I0304 20:18:26.796020 23191 net.cpp:408] res3b_branch2b -> res3b_branch2b
I0304 20:18:26.797116 23191 net.cpp:150] Setting up res3b_branch2b
I0304 20:18:26.797125 23191 net.cpp:157] Top shape: 16 128 28 28 (1605632)
I0304 20:18:26.797128 23191 net.cpp:165] Memory required for data: 2135490624
I0304 20:18:26.797132 23191 layer_factory.hpp:77] Creating layer bn3b_branch2b
I0304 20:18:26.797135 23191 net.cpp:100] Creating Layer bn3b_branch2b
I0304 20:18:26.797137 23191 net.cpp:434] bn3b_branch2b <- res3b_branch2b
I0304 20:18:26.797142 23191 net.cpp:395] bn3b_branch2b -> res3b_branch2b (in-place)
I0304 20:18:26.797266 23191 net.cpp:150] Setting up bn3b_branch2b
I0304 20:18:26.797269 23191 net.cpp:157] Top shape: 16 128 28 28 (1605632)
I0304 20:18:26.797271 23191 net.cpp:165] Memory required for data: 2141913152
I0304 20:18:26.797276 23191 layer_factory.hpp:77] Creating layer scale3b_branch2b
I0304 20:18:26.797279 23191 net.cpp:100] Creating Layer scale3b_branch2b
I0304 20:18:26.797281 23191 net.cpp:434] scale3b_branch2b <- res3b_branch2b
I0304 20:18:26.797283 23191 net.cpp:395] scale3b_branch2b -> res3b_branch2b (in-place)
I0304 20:18:26.797307 23191 layer_factory.hpp:77] Creating layer scale3b_branch2b
I0304 20:18:26.797374 23191 net.cpp:150] Setting up scale3b_branch2b
I0304 20:18:26.797379 23191 net.cpp:157] Top shape: 16 128 28 28 (1605632)
I0304 20:18:26.797380 23191 net.cpp:165] Memory required for data: 2148335680
I0304 20:18:26.797384 23191 layer_factory.hpp:77] Creating layer res3b_branch2b_relu
I0304 20:18:26.797386 23191 net.cpp:100] Creating Layer res3b_branch2b_relu
I0304 20:18:26.797389 23191 net.cpp:434] res3b_branch2b_relu <- res3b_branch2b
I0304 20:18:26.797391 23191 net.cpp:395] res3b_branch2b_relu -> res3b_branch2b (in-place)
I0304 20:18:26.797503 23191 net.cpp:150] Setting up res3b_branch2b_relu
I0304 20:18:26.797508 23191 net.cpp:157] Top shape: 16 128 28 28 (1605632)
I0304 20:18:26.797510 23191 net.cpp:165] Memory required for data: 2154758208
I0304 20:18:26.797513 23191 layer_factory.hpp:77] Creating layer res3b_branch2c
I0304 20:18:26.797518 23191 net.cpp:100] Creating Layer res3b_branch2c
I0304 20:18:26.797519 23191 net.cpp:434] res3b_branch2c <- res3b_branch2b
I0304 20:18:26.797523 23191 net.cpp:408] res3b_branch2c -> res3b_branch2c
I0304 20:18:26.798166 23191 net.cpp:150] Setting up res3b_branch2c
I0304 20:18:26.798174 23191 net.cpp:157] Top shape: 16 512 28 28 (6422528)
I0304 20:18:26.798177 23191 net.cpp:165] Memory required for data: 2180448320
I0304 20:18:26.798180 23191 layer_factory.hpp:77] Creating layer bn3b_branch2c
I0304 20:18:26.798184 23191 net.cpp:100] Creating Layer bn3b_branch2c
I0304 20:18:26.798187 23191 net.cpp:434] bn3b_branch2c <- res3b_branch2c
I0304 20:18:26.798190 23191 net.cpp:395] bn3b_branch2c -> res3b_branch2c (in-place)
I0304 20:18:26.798310 23191 net.cpp:150] Setting up bn3b_branch2c
I0304 20:18:26.798316 23191 net.cpp:157] Top shape: 16 512 28 28 (6422528)
I0304 20:18:26.798317 23191 net.cpp:165] Memory required for data: 2206138432
I0304 20:18:26.798321 23191 layer_factory.hpp:77] Creating layer scale3b_branch2c
I0304 20:18:26.798326 23191 net.cpp:100] Creating Layer scale3b_branch2c
I0304 20:18:26.798327 23191 net.cpp:434] scale3b_branch2c <- res3b_branch2c
I0304 20:18:26.798331 23191 net.cpp:395] scale3b_branch2c -> res3b_branch2c (in-place)
I0304 20:18:26.798353 23191 layer_factory.hpp:77] Creating layer scale3b_branch2c
I0304 20:18:26.798421 23191 net.cpp:150] Setting up scale3b_branch2c
I0304 20:18:26.798425 23191 net.cpp:157] Top shape: 16 512 28 28 (6422528)
I0304 20:18:26.798427 23191 net.cpp:165] Memory required for data: 2231828544
I0304 20:18:26.798430 23191 layer_factory.hpp:77] Creating layer res3b
I0304 20:18:26.798434 23191 net.cpp:100] Creating Layer res3b
I0304 20:18:26.798435 23191 net.cpp:434] res3b <- res3a_res3a_relu_0_split_1
I0304 20:18:26.798439 23191 net.cpp:434] res3b <- res3b_branch2c
I0304 20:18:26.798440 23191 net.cpp:408] res3b -> res3b
I0304 20:18:26.798456 23191 net.cpp:150] Setting up res3b
I0304 20:18:26.798460 23191 net.cpp:157] Top shape: 16 512 28 28 (6422528)
I0304 20:18:26.798462 23191 net.cpp:165] Memory required for data: 2257518656
I0304 20:18:26.798465 23191 layer_factory.hpp:77] Creating layer res3b_relu
I0304 20:18:26.798467 23191 net.cpp:100] Creating Layer res3b_relu
I0304 20:18:26.798470 23191 net.cpp:434] res3b_relu <- res3b
I0304 20:18:26.798471 23191 net.cpp:395] res3b_relu -> res3b (in-place)
I0304 20:18:26.798579 23191 net.cpp:150] Setting up res3b_relu
I0304 20:18:26.798585 23191 net.cpp:157] Top shape: 16 512 28 28 (6422528)
I0304 20:18:26.798588 23191 net.cpp:165] Memory required for data: 2283208768
I0304 20:18:26.798589 23191 layer_factory.hpp:77] Creating layer res3b_res3b_relu_0_split
I0304 20:18:26.798593 23191 net.cpp:100] Creating Layer res3b_res3b_relu_0_split
I0304 20:18:26.798595 23191 net.cpp:434] res3b_res3b_relu_0_split <- res3b
I0304 20:18:26.798598 23191 net.cpp:408] res3b_res3b_relu_0_split -> res3b_res3b_relu_0_split_0
I0304 20:18:26.798601 23191 net.cpp:408] res3b_res3b_relu_0_split -> res3b_res3b_relu_0_split_1
I0304 20:18:26.798626 23191 net.cpp:150] Setting up res3b_res3b_relu_0_split
I0304 20:18:26.798629 23191 net.cpp:157] Top shape: 16 512 28 28 (6422528)
I0304 20:18:26.798632 23191 net.cpp:157] Top shape: 16 512 28 28 (6422528)
I0304 20:18:26.798633 23191 net.cpp:165] Memory required for data: 2334588992
I0304 20:18:26.798635 23191 layer_factory.hpp:77] Creating layer res3c_branch2a
I0304 20:18:26.798640 23191 net.cpp:100] Creating Layer res3c_branch2a
I0304 20:18:26.798642 23191 net.cpp:434] res3c_branch2a <- res3b_res3b_relu_0_split_0
I0304 20:18:26.798645 23191 net.cpp:408] res3c_branch2a -> res3c_branch2a
I0304 20:18:26.799279 23191 net.cpp:150] Setting up res3c_branch2a
I0304 20:18:26.799288 23191 net.cpp:157] Top shape: 16 128 28 28 (1605632)
I0304 20:18:26.799290 23191 net.cpp:165] Memory required for data: 2341011520
I0304 20:18:26.799293 23191 layer_factory.hpp:77] Creating layer bn3c_branch2a
I0304 20:18:26.799298 23191 net.cpp:100] Creating Layer bn3c_branch2a
I0304 20:18:26.799299 23191 net.cpp:434] bn3c_branch2a <- res3c_branch2a
I0304 20:18:26.799302 23191 net.cpp:395] bn3c_branch2a -> res3c_branch2a (in-place)
I0304 20:18:26.799424 23191 net.cpp:150] Setting up bn3c_branch2a
I0304 20:18:26.799429 23191 net.cpp:157] Top shape: 16 128 28 28 (1605632)
I0304 20:18:26.799432 23191 net.cpp:165] Memory required for data: 2347434048
I0304 20:18:26.799435 23191 layer_factory.hpp:77] Creating layer scale3c_branch2a
I0304 20:18:26.799438 23191 net.cpp:100] Creating Layer scale3c_branch2a
I0304 20:18:26.799440 23191 net.cpp:434] scale3c_branch2a <- res3c_branch2a
I0304 20:18:26.799443 23191 net.cpp:395] scale3c_branch2a -> res3c_branch2a (in-place)
I0304 20:18:26.799468 23191 layer_factory.hpp:77] Creating layer scale3c_branch2a
I0304 20:18:26.799535 23191 net.cpp:150] Setting up scale3c_branch2a
I0304 20:18:26.799540 23191 net.cpp:157] Top shape: 16 128 28 28 (1605632)
I0304 20:18:26.799540 23191 net.cpp:165] Memory required for data: 2353856576
I0304 20:18:26.799545 23191 layer_factory.hpp:77] Creating layer res3c_branch2a_relu
I0304 20:18:26.799547 23191 net.cpp:100] Creating Layer res3c_branch2a_relu
I0304 20:18:26.799549 23191 net.cpp:434] res3c_branch2a_relu <- res3c_branch2a
I0304 20:18:26.799552 23191 net.cpp:395] res3c_branch2a_relu -> res3c_branch2a (in-place)
I0304 20:18:26.799747 23191 net.cpp:150] Setting up res3c_branch2a_relu
I0304 20:18:26.799754 23191 net.cpp:157] Top shape: 16 128 28 28 (1605632)
I0304 20:18:26.799757 23191 net.cpp:165] Memory required for data: 2360279104
I0304 20:18:26.799758 23191 layer_factory.hpp:77] Creating layer res3c_branch2b
I0304 20:18:26.799764 23191 net.cpp:100] Creating Layer res3c_branch2b
I0304 20:18:26.799767 23191 net.cpp:434] res3c_branch2b <- res3c_branch2a
I0304 20:18:26.799769 23191 net.cpp:408] res3c_branch2b -> res3c_branch2b
I0304 20:18:26.800753 23191 net.cpp:150] Setting up res3c_branch2b
I0304 20:18:26.800761 23191 net.cpp:157] Top shape: 16 128 28 28 (1605632)
I0304 20:18:26.800765 23191 net.cpp:165] Memory required for data: 2366701632
I0304 20:18:26.800767 23191 layer_factory.hpp:77] Creating layer bn3c_branch2b
I0304 20:18:26.800772 23191 net.cpp:100] Creating Layer bn3c_branch2b
I0304 20:18:26.800775 23191 net.cpp:434] bn3c_branch2b <- res3c_branch2b
I0304 20:18:26.800777 23191 net.cpp:395] bn3c_branch2b -> res3c_branch2b (in-place)
I0304 20:18:26.800901 23191 net.cpp:150] Setting up bn3c_branch2b
I0304 20:18:26.800906 23191 net.cpp:157] Top shape: 16 128 28 28 (1605632)
I0304 20:18:26.800909 23191 net.cpp:165] Memory required for data: 2373124160
I0304 20:18:26.800912 23191 layer_factory.hpp:77] Creating layer scale3c_branch2b
I0304 20:18:26.800916 23191 net.cpp:100] Creating Layer scale3c_branch2b
I0304 20:18:26.800918 23191 net.cpp:434] scale3c_branch2b <- res3c_branch2b
I0304 20:18:26.800921 23191 net.cpp:395] scale3c_branch2b -> res3c_branch2b (in-place)
I0304 20:18:26.800945 23191 layer_factory.hpp:77] Creating layer scale3c_branch2b
I0304 20:18:26.801014 23191 net.cpp:150] Setting up scale3c_branch2b
I0304 20:18:26.801019 23191 net.cpp:157] Top shape: 16 128 28 28 (1605632)
I0304 20:18:26.801020 23191 net.cpp:165] Memory required for data: 2379546688
I0304 20:18:26.801024 23191 layer_factory.hpp:77] Creating layer res3c_branch2b_relu
I0304 20:18:26.801028 23191 net.cpp:100] Creating Layer res3c_branch2b_relu
I0304 20:18:26.801029 23191 net.cpp:434] res3c_branch2b_relu <- res3c_branch2b
I0304 20:18:26.801033 23191 net.cpp:395] res3c_branch2b_relu -> res3c_branch2b (in-place)
I0304 20:18:26.801146 23191 net.cpp:150] Setting up res3c_branch2b_relu
I0304 20:18:26.801151 23191 net.cpp:157] Top shape: 16 128 28 28 (1605632)
I0304 20:18:26.801153 23191 net.cpp:165] Memory required for data: 2385969216
I0304 20:18:26.801156 23191 layer_factory.hpp:77] Creating layer res3c_branch2c
I0304 20:18:26.801161 23191 net.cpp:100] Creating Layer res3c_branch2c
I0304 20:18:26.801162 23191 net.cpp:434] res3c_branch2c <- res3c_branch2b
I0304 20:18:26.801165 23191 net.cpp:408] res3c_branch2c -> res3c_branch2c
I0304 20:18:26.801918 23191 net.cpp:150] Setting up res3c_branch2c
I0304 20:18:26.801925 23191 net.cpp:157] Top shape: 16 512 28 28 (6422528)
I0304 20:18:26.801928 23191 net.cpp:165] Memory required for data: 2411659328
I0304 20:18:26.801931 23191 layer_factory.hpp:77] Creating layer bn3c_branch2c
I0304 20:18:26.801935 23191 net.cpp:100] Creating Layer bn3c_branch2c
I0304 20:18:26.801939 23191 net.cpp:434] bn3c_branch2c <- res3c_branch2c
I0304 20:18:26.801940 23191 net.cpp:395] bn3c_branch2c -> res3c_branch2c (in-place)
I0304 20:18:26.802067 23191 net.cpp:150] Setting up bn3c_branch2c
I0304 20:18:26.802070 23191 net.cpp:157] Top shape: 16 512 28 28 (6422528)
I0304 20:18:26.802073 23191 net.cpp:165] Memory required for data: 2437349440
I0304 20:18:26.802086 23191 layer_factory.hpp:77] Creating layer scale3c_branch2c
I0304 20:18:26.802090 23191 net.cpp:100] Creating Layer scale3c_branch2c
I0304 20:18:26.802093 23191 net.cpp:434] scale3c_branch2c <- res3c_branch2c
I0304 20:18:26.802096 23191 net.cpp:395] scale3c_branch2c -> res3c_branch2c (in-place)
I0304 20:18:26.802130 23191 layer_factory.hpp:77] Creating layer scale3c_branch2c
I0304 20:18:26.802242 23191 net.cpp:150] Setting up scale3c_branch2c
I0304 20:18:26.802248 23191 net.cpp:157] Top shape: 16 512 28 28 (6422528)
I0304 20:18:26.802259 23191 net.cpp:165] Memory required for data: 2463039552
I0304 20:18:26.802263 23191 layer_factory.hpp:77] Creating layer res3c
I0304 20:18:26.802266 23191 net.cpp:100] Creating Layer res3c
I0304 20:18:26.802268 23191 net.cpp:434] res3c <- res3b_res3b_relu_0_split_1
I0304 20:18:26.802270 23191 net.cpp:434] res3c <- res3c_branch2c
I0304 20:18:26.802273 23191 net.cpp:408] res3c -> res3c
I0304 20:18:26.802314 23191 net.cpp:150] Setting up res3c
I0304 20:18:26.802322 23191 net.cpp:157] Top shape: 16 512 28 28 (6422528)
I0304 20:18:26.802326 23191 net.cpp:165] Memory required for data: 2488729664
I0304 20:18:26.802328 23191 layer_factory.hpp:77] Creating layer res3c_relu
I0304 20:18:26.802332 23191 net.cpp:100] Creating Layer res3c_relu
I0304 20:18:26.802345 23191 net.cpp:434] res3c_relu <- res3c
I0304 20:18:26.802346 23191 net.cpp:395] res3c_relu -> res3c (in-place)
I0304 20:18:26.802455 23191 net.cpp:150] Setting up res3c_relu
I0304 20:18:26.802461 23191 net.cpp:157] Top shape: 16 512 28 28 (6422528)
I0304 20:18:26.802464 23191 net.cpp:165] Memory required for data: 2514419776
I0304 20:18:26.802465 23191 layer_factory.hpp:77] Creating layer res3c_res3c_relu_0_split
I0304 20:18:26.802469 23191 net.cpp:100] Creating Layer res3c_res3c_relu_0_split
I0304 20:18:26.802470 23191 net.cpp:434] res3c_res3c_relu_0_split <- res3c
I0304 20:18:26.802474 23191 net.cpp:408] res3c_res3c_relu_0_split -> res3c_res3c_relu_0_split_0
I0304 20:18:26.802476 23191 net.cpp:408] res3c_res3c_relu_0_split -> res3c_res3c_relu_0_split_1
I0304 20:18:26.802502 23191 net.cpp:150] Setting up res3c_res3c_relu_0_split
I0304 20:18:26.802506 23191 net.cpp:157] Top shape: 16 512 28 28 (6422528)
I0304 20:18:26.802510 23191 net.cpp:157] Top shape: 16 512 28 28 (6422528)
I0304 20:18:26.802510 23191 net.cpp:165] Memory required for data: 2565800000
I0304 20:18:26.802512 23191 layer_factory.hpp:77] Creating layer res3d_branch2a
I0304 20:18:26.802517 23191 net.cpp:100] Creating Layer res3d_branch2a
I0304 20:18:26.802518 23191 net.cpp:434] res3d_branch2a <- res3c_res3c_relu_0_split_0
I0304 20:18:26.802522 23191 net.cpp:408] res3d_branch2a -> res3d_branch2a
I0304 20:18:26.803390 23191 net.cpp:150] Setting up res3d_branch2a
I0304 20:18:26.803398 23191 net.cpp:157] Top shape: 16 128 28 28 (1605632)
I0304 20:18:26.803400 23191 net.cpp:165] Memory required for data: 2572222528
I0304 20:18:26.803405 23191 layer_factory.hpp:77] Creating layer bn3d_branch2a
I0304 20:18:26.803408 23191 net.cpp:100] Creating Layer bn3d_branch2a
I0304 20:18:26.803411 23191 net.cpp:434] bn3d_branch2a <- res3d_branch2a
I0304 20:18:26.803413 23191 net.cpp:395] bn3d_branch2a -> res3d_branch2a (in-place)
I0304 20:18:26.803540 23191 net.cpp:150] Setting up bn3d_branch2a
I0304 20:18:26.803545 23191 net.cpp:157] Top shape: 16 128 28 28 (1605632)
I0304 20:18:26.803547 23191 net.cpp:165] Memory required for data: 2578645056
I0304 20:18:26.803562 23191 layer_factory.hpp:77] Creating layer scale3d_branch2a
I0304 20:18:26.803567 23191 net.cpp:100] Creating Layer scale3d_branch2a
I0304 20:18:26.803570 23191 net.cpp:434] scale3d_branch2a <- res3d_branch2a
I0304 20:18:26.803572 23191 net.cpp:395] scale3d_branch2a -> res3d_branch2a (in-place)
I0304 20:18:26.803599 23191 layer_factory.hpp:77] Creating layer scale3d_branch2a
I0304 20:18:26.803669 23191 net.cpp:150] Setting up scale3d_branch2a
I0304 20:18:26.803674 23191 net.cpp:157] Top shape: 16 128 28 28 (1605632)
I0304 20:18:26.803676 23191 net.cpp:165] Memory required for data: 2585067584
I0304 20:18:26.803679 23191 layer_factory.hpp:77] Creating layer res3d_branch2a_relu
I0304 20:18:26.803683 23191 net.cpp:100] Creating Layer res3d_branch2a_relu
I0304 20:18:26.803684 23191 net.cpp:434] res3d_branch2a_relu <- res3d_branch2a
I0304 20:18:26.803688 23191 net.cpp:395] res3d_branch2a_relu -> res3d_branch2a (in-place)
I0304 20:18:26.803886 23191 net.cpp:150] Setting up res3d_branch2a_relu
I0304 20:18:26.803894 23191 net.cpp:157] Top shape: 16 128 28 28 (1605632)
I0304 20:18:26.803895 23191 net.cpp:165] Memory required for data: 2591490112
I0304 20:18:26.803897 23191 layer_factory.hpp:77] Creating layer res3d_branch2b
I0304 20:18:26.803902 23191 net.cpp:100] Creating Layer res3d_branch2b
I0304 20:18:26.803905 23191 net.cpp:434] res3d_branch2b <- res3d_branch2a
I0304 20:18:26.803908 23191 net.cpp:408] res3d_branch2b -> res3d_branch2b
I0304 20:18:26.804908 23191 net.cpp:150] Setting up res3d_branch2b
I0304 20:18:26.804919 23191 net.cpp:157] Top shape: 16 128 28 28 (1605632)
I0304 20:18:26.804920 23191 net.cpp:165] Memory required for data: 2597912640
I0304 20:18:26.804924 23191 layer_factory.hpp:77] Creating layer bn3d_branch2b
I0304 20:18:26.804929 23191 net.cpp:100] Creating Layer bn3d_branch2b
I0304 20:18:26.804930 23191 net.cpp:434] bn3d_branch2b <- res3d_branch2b
I0304 20:18:26.804934 23191 net.cpp:395] bn3d_branch2b -> res3d_branch2b (in-place)
I0304 20:18:26.805063 23191 net.cpp:150] Setting up bn3d_branch2b
I0304 20:18:26.805068 23191 net.cpp:157] Top shape: 16 128 28 28 (1605632)
I0304 20:18:26.805070 23191 net.cpp:165] Memory required for data: 2604335168
I0304 20:18:26.805074 23191 layer_factory.hpp:77] Creating layer scale3d_branch2b
I0304 20:18:26.805078 23191 net.cpp:100] Creating Layer scale3d_branch2b
I0304 20:18:26.805080 23191 net.cpp:434] scale3d_branch2b <- res3d_branch2b
I0304 20:18:26.805083 23191 net.cpp:395] scale3d_branch2b -> res3d_branch2b (in-place)
I0304 20:18:26.805109 23191 layer_factory.hpp:77] Creating layer scale3d_branch2b
I0304 20:18:26.805181 23191 net.cpp:150] Setting up scale3d_branch2b
I0304 20:18:26.805186 23191 net.cpp:157] Top shape: 16 128 28 28 (1605632)
I0304 20:18:26.805187 23191 net.cpp:165] Memory required for data: 2610757696
I0304 20:18:26.805191 23191 layer_factory.hpp:77] Creating layer res3d_branch2b_relu
I0304 20:18:26.805193 23191 net.cpp:100] Creating Layer res3d_branch2b_relu
I0304 20:18:26.805196 23191 net.cpp:434] res3d_branch2b_relu <- res3d_branch2b
I0304 20:18:26.805198 23191 net.cpp:395] res3d_branch2b_relu -> res3d_branch2b (in-place)
I0304 20:18:26.805311 23191 net.cpp:150] Setting up res3d_branch2b_relu
I0304 20:18:26.805317 23191 net.cpp:157] Top shape: 16 128 28 28 (1605632)
I0304 20:18:26.805320 23191 net.cpp:165] Memory required for data: 2617180224
I0304 20:18:26.805321 23191 layer_factory.hpp:77] Creating layer res3d_branch2c
I0304 20:18:26.805326 23191 net.cpp:100] Creating Layer res3d_branch2c
I0304 20:18:26.805328 23191 net.cpp:434] res3d_branch2c <- res3d_branch2b
I0304 20:18:26.805331 23191 net.cpp:408] res3d_branch2c -> res3d_branch2c
I0304 20:18:26.805989 23191 net.cpp:150] Setting up res3d_branch2c
I0304 20:18:26.805996 23191 net.cpp:157] Top shape: 16 512 28 28 (6422528)
I0304 20:18:26.805999 23191 net.cpp:165] Memory required for data: 2642870336
I0304 20:18:26.806002 23191 layer_factory.hpp:77] Creating layer bn3d_branch2c
I0304 20:18:26.806006 23191 net.cpp:100] Creating Layer bn3d_branch2c
I0304 20:18:26.806010 23191 net.cpp:434] bn3d_branch2c <- res3d_branch2c
I0304 20:18:26.806011 23191 net.cpp:395] bn3d_branch2c -> res3d_branch2c (in-place)
I0304 20:18:26.806140 23191 net.cpp:150] Setting up bn3d_branch2c
I0304 20:18:26.806144 23191 net.cpp:157] Top shape: 16 512 28 28 (6422528)
I0304 20:18:26.806146 23191 net.cpp:165] Memory required for data: 2668560448
I0304 20:18:26.806151 23191 layer_factory.hpp:77] Creating layer scale3d_branch2c
I0304 20:18:26.806154 23191 net.cpp:100] Creating Layer scale3d_branch2c
I0304 20:18:26.806156 23191 net.cpp:434] scale3d_branch2c <- res3d_branch2c
I0304 20:18:26.806159 23191 net.cpp:395] scale3d_branch2c -> res3d_branch2c (in-place)
I0304 20:18:26.806185 23191 layer_factory.hpp:77] Creating layer scale3d_branch2c
I0304 20:18:26.806255 23191 net.cpp:150] Setting up scale3d_branch2c
I0304 20:18:26.806260 23191 net.cpp:157] Top shape: 16 512 28 28 (6422528)
I0304 20:18:26.806262 23191 net.cpp:165] Memory required for data: 2694250560
I0304 20:18:26.806265 23191 layer_factory.hpp:77] Creating layer res3d
I0304 20:18:26.806268 23191 net.cpp:100] Creating Layer res3d
I0304 20:18:26.806270 23191 net.cpp:434] res3d <- res3c_res3c_relu_0_split_1
I0304 20:18:26.806273 23191 net.cpp:434] res3d <- res3d_branch2c
I0304 20:18:26.806275 23191 net.cpp:408] res3d -> res3d
I0304 20:18:26.806291 23191 net.cpp:150] Setting up res3d
I0304 20:18:26.806295 23191 net.cpp:157] Top shape: 16 512 28 28 (6422528)
I0304 20:18:26.806298 23191 net.cpp:165] Memory required for data: 2719940672
I0304 20:18:26.806299 23191 layer_factory.hpp:77] Creating layer res3d_relu
I0304 20:18:26.806303 23191 net.cpp:100] Creating Layer res3d_relu
I0304 20:18:26.806304 23191 net.cpp:434] res3d_relu <- res3d
I0304 20:18:26.806308 23191 net.cpp:395] res3d_relu -> res3d (in-place)
I0304 20:18:26.806414 23191 net.cpp:150] Setting up res3d_relu
I0304 20:18:26.806421 23191 net.cpp:157] Top shape: 16 512 28 28 (6422528)
I0304 20:18:26.806422 23191 net.cpp:165] Memory required for data: 2745630784
I0304 20:18:26.806424 23191 layer_factory.hpp:77] Creating layer res3d_res3d_relu_0_split
I0304 20:18:26.806427 23191 net.cpp:100] Creating Layer res3d_res3d_relu_0_split
I0304 20:18:26.806429 23191 net.cpp:434] res3d_res3d_relu_0_split <- res3d
I0304 20:18:26.806432 23191 net.cpp:408] res3d_res3d_relu_0_split -> res3d_res3d_relu_0_split_0
I0304 20:18:26.806437 23191 net.cpp:408] res3d_res3d_relu_0_split -> res3d_res3d_relu_0_split_1
I0304 20:18:26.806463 23191 net.cpp:150] Setting up res3d_res3d_relu_0_split
I0304 20:18:26.806466 23191 net.cpp:157] Top shape: 16 512 28 28 (6422528)
I0304 20:18:26.806468 23191 net.cpp:157] Top shape: 16 512 28 28 (6422528)
I0304 20:18:26.806470 23191 net.cpp:165] Memory required for data: 2797011008
I0304 20:18:26.806473 23191 layer_factory.hpp:77] Creating layer res4a_branch1
I0304 20:18:26.806478 23191 net.cpp:100] Creating Layer res4a_branch1
I0304 20:18:26.806479 23191 net.cpp:434] res4a_branch1 <- res3d_res3d_relu_0_split_0
I0304 20:18:26.806483 23191 net.cpp:408] res4a_branch1 -> res4a_branch1
I0304 20:18:26.807833 23191 net.cpp:150] Setting up res4a_branch1
I0304 20:18:26.807843 23191 net.cpp:157] Top shape: 16 1024 14 14 (3211264)
I0304 20:18:26.807845 23191 net.cpp:165] Memory required for data: 2809856064
I0304 20:18:26.807848 23191 layer_factory.hpp:77] Creating layer bn4a_branch1
I0304 20:18:26.807853 23191 net.cpp:100] Creating Layer bn4a_branch1
I0304 20:18:26.807855 23191 net.cpp:434] bn4a_branch1 <- res4a_branch1
I0304 20:18:26.807858 23191 net.cpp:395] bn4a_branch1 -> res4a_branch1 (in-place)
I0304 20:18:26.807994 23191 net.cpp:150] Setting up bn4a_branch1
I0304 20:18:26.807999 23191 net.cpp:157] Top shape: 16 1024 14 14 (3211264)
I0304 20:18:26.808001 23191 net.cpp:165] Memory required for data: 2822701120
I0304 20:18:26.808006 23191 layer_factory.hpp:77] Creating layer scale4a_branch1
I0304 20:18:26.808009 23191 net.cpp:100] Creating Layer scale4a_branch1
I0304 20:18:26.808012 23191 net.cpp:434] scale4a_branch1 <- res4a_branch1
I0304 20:18:26.808014 23191 net.cpp:395] scale4a_branch1 -> res4a_branch1 (in-place)
I0304 20:18:26.808037 23191 layer_factory.hpp:77] Creating layer scale4a_branch1
I0304 20:18:26.808115 23191 net.cpp:150] Setting up scale4a_branch1
I0304 20:18:26.808120 23191 net.cpp:157] Top shape: 16 1024 14 14 (3211264)
I0304 20:18:26.808122 23191 net.cpp:165] Memory required for data: 2835546176
I0304 20:18:26.808125 23191 layer_factory.hpp:77] Creating layer res4a_branch2a
I0304 20:18:26.808131 23191 net.cpp:100] Creating Layer res4a_branch2a
I0304 20:18:26.808133 23191 net.cpp:434] res4a_branch2a <- res3d_res3d_relu_0_split_1
I0304 20:18:26.808136 23191 net.cpp:408] res4a_branch2a -> res4a_branch2a
I0304 20:18:26.808847 23191 net.cpp:150] Setting up res4a_branch2a
I0304 20:18:26.808856 23191 net.cpp:157] Top shape: 16 256 14 14 (802816)
I0304 20:18:26.808858 23191 net.cpp:165] Memory required for data: 2838757440
I0304 20:18:26.808861 23191 layer_factory.hpp:77] Creating layer bn4a_branch2a
I0304 20:18:26.808866 23191 net.cpp:100] Creating Layer bn4a_branch2a
I0304 20:18:26.808868 23191 net.cpp:434] bn4a_branch2a <- res4a_branch2a
I0304 20:18:26.808871 23191 net.cpp:395] bn4a_branch2a -> res4a_branch2a (in-place)
I0304 20:18:26.809000 23191 net.cpp:150] Setting up bn4a_branch2a
I0304 20:18:26.809005 23191 net.cpp:157] Top shape: 16 256 14 14 (802816)
I0304 20:18:26.809006 23191 net.cpp:165] Memory required for data: 2841968704
I0304 20:18:26.809011 23191 layer_factory.hpp:77] Creating layer scale4a_branch2a
I0304 20:18:26.809015 23191 net.cpp:100] Creating Layer scale4a_branch2a
I0304 20:18:26.809017 23191 net.cpp:434] scale4a_branch2a <- res4a_branch2a
I0304 20:18:26.809020 23191 net.cpp:395] scale4a_branch2a -> res4a_branch2a (in-place)
I0304 20:18:26.809046 23191 layer_factory.hpp:77] Creating layer scale4a_branch2a
I0304 20:18:26.809118 23191 net.cpp:150] Setting up scale4a_branch2a
I0304 20:18:26.809121 23191 net.cpp:157] Top shape: 16 256 14 14 (802816)
I0304 20:18:26.809123 23191 net.cpp:165] Memory required for data: 2845179968
I0304 20:18:26.809126 23191 layer_factory.hpp:77] Creating layer res4a_branch2a_relu
I0304 20:18:26.809129 23191 net.cpp:100] Creating Layer res4a_branch2a_relu
I0304 20:18:26.809131 23191 net.cpp:434] res4a_branch2a_relu <- res4a_branch2a
I0304 20:18:26.809134 23191 net.cpp:395] res4a_branch2a_relu -> res4a_branch2a (in-place)
I0304 20:18:26.809330 23191 net.cpp:150] Setting up res4a_branch2a_relu
I0304 20:18:26.809339 23191 net.cpp:157] Top shape: 16 256 14 14 (802816)
I0304 20:18:26.809340 23191 net.cpp:165] Memory required for data: 2848391232
I0304 20:18:26.809342 23191 layer_factory.hpp:77] Creating layer res4a_branch2b
I0304 20:18:26.809347 23191 net.cpp:100] Creating Layer res4a_branch2b
I0304 20:18:26.809350 23191 net.cpp:434] res4a_branch2b <- res4a_branch2a
I0304 20:18:26.809353 23191 net.cpp:408] res4a_branch2b -> res4a_branch2b
I0304 20:18:26.810672 23191 net.cpp:150] Setting up res4a_branch2b
I0304 20:18:26.810680 23191 net.cpp:157] Top shape: 16 256 14 14 (802816)
I0304 20:18:26.810683 23191 net.cpp:165] Memory required for data: 2851602496
I0304 20:18:26.810686 23191 layer_factory.hpp:77] Creating layer bn4a_branch2b
I0304 20:18:26.810693 23191 net.cpp:100] Creating Layer bn4a_branch2b
I0304 20:18:26.810695 23191 net.cpp:434] bn4a_branch2b <- res4a_branch2b
I0304 20:18:26.810698 23191 net.cpp:395] bn4a_branch2b -> res4a_branch2b (in-place)
I0304 20:18:26.810830 23191 net.cpp:150] Setting up bn4a_branch2b
I0304 20:18:26.810835 23191 net.cpp:157] Top shape: 16 256 14 14 (802816)
I0304 20:18:26.810837 23191 net.cpp:165] Memory required for data: 2854813760
I0304 20:18:26.810842 23191 layer_factory.hpp:77] Creating layer scale4a_branch2b
I0304 20:18:26.810845 23191 net.cpp:100] Creating Layer scale4a_branch2b
I0304 20:18:26.810847 23191 net.cpp:434] scale4a_branch2b <- res4a_branch2b
I0304 20:18:26.810849 23191 net.cpp:395] scale4a_branch2b -> res4a_branch2b (in-place)
I0304 20:18:26.810876 23191 layer_factory.hpp:77] Creating layer scale4a_branch2b
I0304 20:18:26.810948 23191 net.cpp:150] Setting up scale4a_branch2b
I0304 20:18:26.810952 23191 net.cpp:157] Top shape: 16 256 14 14 (802816)
I0304 20:18:26.810955 23191 net.cpp:165] Memory required for data: 2858025024
I0304 20:18:26.810957 23191 layer_factory.hpp:77] Creating layer res4a_branch2b_relu
I0304 20:18:26.810961 23191 net.cpp:100] Creating Layer res4a_branch2b_relu
I0304 20:18:26.810963 23191 net.cpp:434] res4a_branch2b_relu <- res4a_branch2b
I0304 20:18:26.810966 23191 net.cpp:395] res4a_branch2b_relu -> res4a_branch2b (in-place)
I0304 20:18:26.811164 23191 net.cpp:150] Setting up res4a_branch2b_relu
I0304 20:18:26.811172 23191 net.cpp:157] Top shape: 16 256 14 14 (802816)
I0304 20:18:26.811175 23191 net.cpp:165] Memory required for data: 2861236288
I0304 20:18:26.811177 23191 layer_factory.hpp:77] Creating layer res4a_branch2c
I0304 20:18:26.811182 23191 net.cpp:100] Creating Layer res4a_branch2c
I0304 20:18:26.811183 23191 net.cpp:434] res4a_branch2c <- res4a_branch2b
I0304 20:18:26.811187 23191 net.cpp:408] res4a_branch2c -> res4a_branch2c
I0304 20:18:26.812193 23191 net.cpp:150] Setting up res4a_branch2c
I0304 20:18:26.812213 23191 net.cpp:157] Top shape: 16 1024 14 14 (3211264)
I0304 20:18:26.812216 23191 net.cpp:165] Memory required for data: 2874081344
I0304 20:18:26.812219 23191 layer_factory.hpp:77] Creating layer bn4a_branch2c
I0304 20:18:26.812224 23191 net.cpp:100] Creating Layer bn4a_branch2c
I0304 20:18:26.812227 23191 net.cpp:434] bn4a_branch2c <- res4a_branch2c
I0304 20:18:26.812230 23191 net.cpp:395] bn4a_branch2c -> res4a_branch2c (in-place)
I0304 20:18:26.812408 23191 net.cpp:150] Setting up bn4a_branch2c
I0304 20:18:26.812413 23191 net.cpp:157] Top shape: 16 1024 14 14 (3211264)
I0304 20:18:26.812415 23191 net.cpp:165] Memory required for data: 2886926400
I0304 20:18:26.812430 23191 layer_factory.hpp:77] Creating layer scale4a_branch2c
I0304 20:18:26.812434 23191 net.cpp:100] Creating Layer scale4a_branch2c
I0304 20:18:26.812436 23191 net.cpp:434] scale4a_branch2c <- res4a_branch2c
I0304 20:18:26.812439 23191 net.cpp:395] scale4a_branch2c -> res4a_branch2c (in-place)
I0304 20:18:26.812474 23191 layer_factory.hpp:77] Creating layer scale4a_branch2c
I0304 20:18:26.812573 23191 net.cpp:150] Setting up scale4a_branch2c
I0304 20:18:26.812578 23191 net.cpp:157] Top shape: 16 1024 14 14 (3211264)
I0304 20:18:26.812580 23191 net.cpp:165] Memory required for data: 2899771456
I0304 20:18:26.812583 23191 layer_factory.hpp:77] Creating layer res4a
I0304 20:18:26.812589 23191 net.cpp:100] Creating Layer res4a
I0304 20:18:26.812592 23191 net.cpp:434] res4a <- res4a_branch1
I0304 20:18:26.812594 23191 net.cpp:434] res4a <- res4a_branch2c
I0304 20:18:26.812611 23191 net.cpp:408] res4a -> res4a
I0304 20:18:26.812638 23191 net.cpp:150] Setting up res4a
I0304 20:18:26.812641 23191 net.cpp:157] Top shape: 16 1024 14 14 (3211264)
I0304 20:18:26.812644 23191 net.cpp:165] Memory required for data: 2912616512
I0304 20:18:26.812645 23191 layer_factory.hpp:77] Creating layer res4a_relu
I0304 20:18:26.812649 23191 net.cpp:100] Creating Layer res4a_relu
I0304 20:18:26.812651 23191 net.cpp:434] res4a_relu <- res4a
I0304 20:18:26.812655 23191 net.cpp:395] res4a_relu -> res4a (in-place)
I0304 20:18:26.812819 23191 net.cpp:150] Setting up res4a_relu
I0304 20:18:26.812824 23191 net.cpp:157] Top shape: 16 1024 14 14 (3211264)
I0304 20:18:26.812836 23191 net.cpp:165] Memory required for data: 2925461568
I0304 20:18:26.812839 23191 layer_factory.hpp:77] Creating layer res4a_res4a_relu_0_split
I0304 20:18:26.812844 23191 net.cpp:100] Creating Layer res4a_res4a_relu_0_split
I0304 20:18:26.812845 23191 net.cpp:434] res4a_res4a_relu_0_split <- res4a
I0304 20:18:26.812849 23191 net.cpp:408] res4a_res4a_relu_0_split -> res4a_res4a_relu_0_split_0
I0304 20:18:26.812851 23191 net.cpp:408] res4a_res4a_relu_0_split -> res4a_res4a_relu_0_split_1
I0304 20:18:26.812921 23191 net.cpp:150] Setting up res4a_res4a_relu_0_split
I0304 20:18:26.812924 23191 net.cpp:157] Top shape: 16 1024 14 14 (3211264)
I0304 20:18:26.812937 23191 net.cpp:157] Top shape: 16 1024 14 14 (3211264)
I0304 20:18:26.812937 23191 net.cpp:165] Memory required for data: 2951151680
I0304 20:18:26.812939 23191 layer_factory.hpp:77] Creating layer res4b_branch2a
I0304 20:18:26.812963 23191 net.cpp:100] Creating Layer res4b_branch2a
I0304 20:18:26.812966 23191 net.cpp:434] res4b_branch2a <- res4a_res4a_relu_0_split_0
I0304 20:18:26.812969 23191 net.cpp:408] res4b_branch2a -> res4b_branch2a
I0304 20:18:26.814054 23191 net.cpp:150] Setting up res4b_branch2a
I0304 20:18:26.814062 23191 net.cpp:157] Top shape: 16 256 14 14 (802816)
I0304 20:18:26.814065 23191 net.cpp:165] Memory required for data: 2954362944
I0304 20:18:26.814069 23191 layer_factory.hpp:77] Creating layer bn4b_branch2a
I0304 20:18:26.814072 23191 net.cpp:100] Creating Layer bn4b_branch2a
I0304 20:18:26.814075 23191 net.cpp:434] bn4b_branch2a <- res4b_branch2a
I0304 20:18:26.814079 23191 net.cpp:395] bn4b_branch2a -> res4b_branch2a (in-place)
I0304 20:18:26.814214 23191 net.cpp:150] Setting up bn4b_branch2a
I0304 20:18:26.814218 23191 net.cpp:157] Top shape: 16 256 14 14 (802816)
I0304 20:18:26.814220 23191 net.cpp:165] Memory required for data: 2957574208
I0304 20:18:26.814224 23191 layer_factory.hpp:77] Creating layer scale4b_branch2a
I0304 20:18:26.814229 23191 net.cpp:100] Creating Layer scale4b_branch2a
I0304 20:18:26.814230 23191 net.cpp:434] scale4b_branch2a <- res4b_branch2a
I0304 20:18:26.814234 23191 net.cpp:395] scale4b_branch2a -> res4b_branch2a (in-place)
I0304 20:18:26.814260 23191 layer_factory.hpp:77] Creating layer scale4b_branch2a
I0304 20:18:26.814334 23191 net.cpp:150] Setting up scale4b_branch2a
I0304 20:18:26.814338 23191 net.cpp:157] Top shape: 16 256 14 14 (802816)
I0304 20:18:26.814340 23191 net.cpp:165] Memory required for data: 2960785472
I0304 20:18:26.814343 23191 layer_factory.hpp:77] Creating layer res4b_branch2a_relu
I0304 20:18:26.814347 23191 net.cpp:100] Creating Layer res4b_branch2a_relu
I0304 20:18:26.814349 23191 net.cpp:434] res4b_branch2a_relu <- res4b_branch2a
I0304 20:18:26.814352 23191 net.cpp:395] res4b_branch2a_relu -> res4b_branch2a (in-place)
I0304 20:18:26.814574 23191 net.cpp:150] Setting up res4b_branch2a_relu
I0304 20:18:26.814580 23191 net.cpp:157] Top shape: 16 256 14 14 (802816)
I0304 20:18:26.814584 23191 net.cpp:165] Memory required for data: 2963996736
I0304 20:18:26.814585 23191 layer_factory.hpp:77] Creating layer res4b_branch2b
I0304 20:18:26.814590 23191 net.cpp:100] Creating Layer res4b_branch2b
I0304 20:18:26.814592 23191 net.cpp:434] res4b_branch2b <- res4b_branch2a
I0304 20:18:26.814596 23191 net.cpp:408] res4b_branch2b -> res4b_branch2b
I0304 20:18:26.815907 23191 net.cpp:150] Setting up res4b_branch2b
I0304 20:18:26.815915 23191 net.cpp:157] Top shape: 16 256 14 14 (802816)
I0304 20:18:26.815917 23191 net.cpp:165] Memory required for data: 2967208000
I0304 20:18:26.815922 23191 layer_factory.hpp:77] Creating layer bn4b_branch2b
I0304 20:18:26.815925 23191 net.cpp:100] Creating Layer bn4b_branch2b
I0304 20:18:26.815927 23191 net.cpp:434] bn4b_branch2b <- res4b_branch2b
I0304 20:18:26.815930 23191 net.cpp:395] bn4b_branch2b -> res4b_branch2b (in-place)
I0304 20:18:26.816076 23191 net.cpp:150] Setting up bn4b_branch2b
I0304 20:18:26.816083 23191 net.cpp:157] Top shape: 16 256 14 14 (802816)
I0304 20:18:26.816085 23191 net.cpp:165] Memory required for data: 2970419264
I0304 20:18:26.816089 23191 layer_factory.hpp:77] Creating layer scale4b_branch2b
I0304 20:18:26.816093 23191 net.cpp:100] Creating Layer scale4b_branch2b
I0304 20:18:26.816095 23191 net.cpp:434] scale4b_branch2b <- res4b_branch2b
I0304 20:18:26.816098 23191 net.cpp:395] scale4b_branch2b -> res4b_branch2b (in-place)
I0304 20:18:26.816128 23191 layer_factory.hpp:77] Creating layer scale4b_branch2b
I0304 20:18:26.816200 23191 net.cpp:150] Setting up scale4b_branch2b
I0304 20:18:26.816205 23191 net.cpp:157] Top shape: 16 256 14 14 (802816)
I0304 20:18:26.816206 23191 net.cpp:165] Memory required for data: 2973630528
I0304 20:18:26.816210 23191 layer_factory.hpp:77] Creating layer res4b_branch2b_relu
I0304 20:18:26.816215 23191 net.cpp:100] Creating Layer res4b_branch2b_relu
I0304 20:18:26.816216 23191 net.cpp:434] res4b_branch2b_relu <- res4b_branch2b
I0304 20:18:26.816218 23191 net.cpp:395] res4b_branch2b_relu -> res4b_branch2b (in-place)
I0304 20:18:26.816417 23191 net.cpp:150] Setting up res4b_branch2b_relu
I0304 20:18:26.816426 23191 net.cpp:157] Top shape: 16 256 14 14 (802816)
I0304 20:18:26.816427 23191 net.cpp:165] Memory required for data: 2976841792
I0304 20:18:26.816429 23191 layer_factory.hpp:77] Creating layer res4b_branch2c
I0304 20:18:26.816434 23191 net.cpp:100] Creating Layer res4b_branch2c
I0304 20:18:26.816437 23191 net.cpp:434] res4b_branch2c <- res4b_branch2b
I0304 20:18:26.816440 23191 net.cpp:408] res4b_branch2c -> res4b_branch2c
I0304 20:18:26.817484 23191 net.cpp:150] Setting up res4b_branch2c
I0304 20:18:26.817492 23191 net.cpp:157] Top shape: 16 1024 14 14 (3211264)
I0304 20:18:26.817495 23191 net.cpp:165] Memory required for data: 2989686848
I0304 20:18:26.817498 23191 layer_factory.hpp:77] Creating layer bn4b_branch2c
I0304 20:18:26.817503 23191 net.cpp:100] Creating Layer bn4b_branch2c
I0304 20:18:26.817505 23191 net.cpp:434] bn4b_branch2c <- res4b_branch2c
I0304 20:18:26.817508 23191 net.cpp:395] bn4b_branch2c -> res4b_branch2c (in-place)
I0304 20:18:26.817670 23191 net.cpp:150] Setting up bn4b_branch2c
I0304 20:18:26.817675 23191 net.cpp:157] Top shape: 16 1024 14 14 (3211264)
I0304 20:18:26.817677 23191 net.cpp:165] Memory required for data: 3002531904
I0304 20:18:26.817682 23191 layer_factory.hpp:77] Creating layer scale4b_branch2c
I0304 20:18:26.817685 23191 net.cpp:100] Creating Layer scale4b_branch2c
I0304 20:18:26.817687 23191 net.cpp:434] scale4b_branch2c <- res4b_branch2c
I0304 20:18:26.817690 23191 net.cpp:395] scale4b_branch2c -> res4b_branch2c (in-place)
I0304 20:18:26.817714 23191 layer_factory.hpp:77] Creating layer scale4b_branch2c
I0304 20:18:26.817793 23191 net.cpp:150] Setting up scale4b_branch2c
I0304 20:18:26.817798 23191 net.cpp:157] Top shape: 16 1024 14 14 (3211264)
I0304 20:18:26.817800 23191 net.cpp:165] Memory required for data: 3015376960
I0304 20:18:26.817803 23191 layer_factory.hpp:77] Creating layer res4b
I0304 20:18:26.817806 23191 net.cpp:100] Creating Layer res4b
I0304 20:18:26.817808 23191 net.cpp:434] res4b <- res4a_res4a_relu_0_split_1
I0304 20:18:26.817811 23191 net.cpp:434] res4b <- res4b_branch2c
I0304 20:18:26.817814 23191 net.cpp:408] res4b -> res4b
I0304 20:18:26.817831 23191 net.cpp:150] Setting up res4b
I0304 20:18:26.817836 23191 net.cpp:157] Top shape: 16 1024 14 14 (3211264)
I0304 20:18:26.817837 23191 net.cpp:165] Memory required for data: 3028222016
I0304 20:18:26.817839 23191 layer_factory.hpp:77] Creating layer res4b_relu
I0304 20:18:26.817842 23191 net.cpp:100] Creating Layer res4b_relu
I0304 20:18:26.817844 23191 net.cpp:434] res4b_relu <- res4b
I0304 20:18:26.817847 23191 net.cpp:395] res4b_relu -> res4b (in-place)
I0304 20:18:26.817956 23191 net.cpp:150] Setting up res4b_relu
I0304 20:18:26.817962 23191 net.cpp:157] Top shape: 16 1024 14 14 (3211264)
I0304 20:18:26.817965 23191 net.cpp:165] Memory required for data: 3041067072
I0304 20:18:26.817967 23191 layer_factory.hpp:77] Creating layer res4b_res4b_relu_0_split
I0304 20:18:26.817970 23191 net.cpp:100] Creating Layer res4b_res4b_relu_0_split
I0304 20:18:26.817973 23191 net.cpp:434] res4b_res4b_relu_0_split <- res4b
I0304 20:18:26.817975 23191 net.cpp:408] res4b_res4b_relu_0_split -> res4b_res4b_relu_0_split_0
I0304 20:18:26.817980 23191 net.cpp:408] res4b_res4b_relu_0_split -> res4b_res4b_relu_0_split_1
I0304 20:18:26.818008 23191 net.cpp:150] Setting up res4b_res4b_relu_0_split
I0304 20:18:26.818013 23191 net.cpp:157] Top shape: 16 1024 14 14 (3211264)
I0304 20:18:26.818015 23191 net.cpp:157] Top shape: 16 1024 14 14 (3211264)
I0304 20:18:26.818017 23191 net.cpp:165] Memory required for data: 3066757184
I0304 20:18:26.818019 23191 layer_factory.hpp:77] Creating layer res4c_branch2a
I0304 20:18:26.818023 23191 net.cpp:100] Creating Layer res4c_branch2a
I0304 20:18:26.818027 23191 net.cpp:434] res4c_branch2a <- res4b_res4b_relu_0_split_0
I0304 20:18:26.818029 23191 net.cpp:408] res4c_branch2a -> res4c_branch2a
I0304 20:18:26.819000 23191 net.cpp:150] Setting up res4c_branch2a
I0304 20:18:26.819010 23191 net.cpp:157] Top shape: 16 256 14 14 (802816)
I0304 20:18:26.819011 23191 net.cpp:165] Memory required for data: 3069968448
I0304 20:18:26.819015 23191 layer_factory.hpp:77] Creating layer bn4c_branch2a
I0304 20:18:26.819020 23191 net.cpp:100] Creating Layer bn4c_branch2a
I0304 20:18:26.819022 23191 net.cpp:434] bn4c_branch2a <- res4c_branch2a
I0304 20:18:26.819025 23191 net.cpp:395] bn4c_branch2a -> res4c_branch2a (in-place)
I0304 20:18:26.819159 23191 net.cpp:150] Setting up bn4c_branch2a
I0304 20:18:26.819164 23191 net.cpp:157] Top shape: 16 256 14 14 (802816)
I0304 20:18:26.819166 23191 net.cpp:165] Memory required for data: 3073179712
I0304 20:18:26.819170 23191 layer_factory.hpp:77] Creating layer scale4c_branch2a
I0304 20:18:26.819175 23191 net.cpp:100] Creating Layer scale4c_branch2a
I0304 20:18:26.819176 23191 net.cpp:434] scale4c_branch2a <- res4c_branch2a
I0304 20:18:26.819180 23191 net.cpp:395] scale4c_branch2a -> res4c_branch2a (in-place)
I0304 20:18:26.819206 23191 layer_factory.hpp:77] Creating layer scale4c_branch2a
I0304 20:18:26.819280 23191 net.cpp:150] Setting up scale4c_branch2a
I0304 20:18:26.819285 23191 net.cpp:157] Top shape: 16 256 14 14 (802816)
I0304 20:18:26.819288 23191 net.cpp:165] Memory required for data: 3076390976
I0304 20:18:26.819290 23191 layer_factory.hpp:77] Creating layer res4c_branch2a_relu
I0304 20:18:26.819294 23191 net.cpp:100] Creating Layer res4c_branch2a_relu
I0304 20:18:26.819296 23191 net.cpp:434] res4c_branch2a_relu <- res4c_branch2a
I0304 20:18:26.819298 23191 net.cpp:395] res4c_branch2a_relu -> res4c_branch2a (in-place)
I0304 20:18:26.819497 23191 net.cpp:150] Setting up res4c_branch2a_relu
I0304 20:18:26.819504 23191 net.cpp:157] Top shape: 16 256 14 14 (802816)
I0304 20:18:26.819506 23191 net.cpp:165] Memory required for data: 3079602240
I0304 20:18:26.819509 23191 layer_factory.hpp:77] Creating layer res4c_branch2b
I0304 20:18:26.819514 23191 net.cpp:100] Creating Layer res4c_branch2b
I0304 20:18:26.819517 23191 net.cpp:434] res4c_branch2b <- res4c_branch2a
I0304 20:18:26.819520 23191 net.cpp:408] res4c_branch2b -> res4c_branch2b
I0304 20:18:26.820828 23191 net.cpp:150] Setting up res4c_branch2b
I0304 20:18:26.820837 23191 net.cpp:157] Top shape: 16 256 14 14 (802816)
I0304 20:18:26.820839 23191 net.cpp:165] Memory required for data: 3082813504
I0304 20:18:26.820842 23191 layer_factory.hpp:77] Creating layer bn4c_branch2b
I0304 20:18:26.820847 23191 net.cpp:100] Creating Layer bn4c_branch2b
I0304 20:18:26.820849 23191 net.cpp:434] bn4c_branch2b <- res4c_branch2b
I0304 20:18:26.820852 23191 net.cpp:395] bn4c_branch2b -> res4c_branch2b (in-place)
I0304 20:18:26.820993 23191 net.cpp:150] Setting up bn4c_branch2b
I0304 20:18:26.820996 23191 net.cpp:157] Top shape: 16 256 14 14 (802816)
I0304 20:18:26.820998 23191 net.cpp:165] Memory required for data: 3086024768
I0304 20:18:26.821005 23191 layer_factory.hpp:77] Creating layer scale4c_branch2b
I0304 20:18:26.821008 23191 net.cpp:100] Creating Layer scale4c_branch2b
I0304 20:18:26.821010 23191 net.cpp:434] scale4c_branch2b <- res4c_branch2b
I0304 20:18:26.821013 23191 net.cpp:395] scale4c_branch2b -> res4c_branch2b (in-place)
I0304 20:18:26.821041 23191 layer_factory.hpp:77] Creating layer scale4c_branch2b
I0304 20:18:26.821116 23191 net.cpp:150] Setting up scale4c_branch2b
I0304 20:18:26.821120 23191 net.cpp:157] Top shape: 16 256 14 14 (802816)
I0304 20:18:26.821121 23191 net.cpp:165] Memory required for data: 3089236032
I0304 20:18:26.821125 23191 layer_factory.hpp:77] Creating layer res4c_branch2b_relu
I0304 20:18:26.821128 23191 net.cpp:100] Creating Layer res4c_branch2b_relu
I0304 20:18:26.821130 23191 net.cpp:434] res4c_branch2b_relu <- res4c_branch2b
I0304 20:18:26.821133 23191 net.cpp:395] res4c_branch2b_relu -> res4c_branch2b (in-place)
I0304 20:18:26.821331 23191 net.cpp:150] Setting up res4c_branch2b_relu
I0304 20:18:26.821336 23191 net.cpp:157] Top shape: 16 256 14 14 (802816)
I0304 20:18:26.821338 23191 net.cpp:165] Memory required for data: 3092447296
I0304 20:18:26.821341 23191 layer_factory.hpp:77] Creating layer res4c_branch2c
I0304 20:18:26.821346 23191 net.cpp:100] Creating Layer res4c_branch2c
I0304 20:18:26.821347 23191 net.cpp:434] res4c_branch2c <- res4c_branch2b
I0304 20:18:26.821352 23191 net.cpp:408] res4c_branch2c -> res4c_branch2c
I0304 20:18:26.822336 23191 net.cpp:150] Setting up res4c_branch2c
I0304 20:18:26.822345 23191 net.cpp:157] Top shape: 16 1024 14 14 (3211264)
I0304 20:18:26.822347 23191 net.cpp:165] Memory required for data: 3105292352
I0304 20:18:26.822351 23191 layer_factory.hpp:77] Creating layer bn4c_branch2c
I0304 20:18:26.822355 23191 net.cpp:100] Creating Layer bn4c_branch2c
I0304 20:18:26.822357 23191 net.cpp:434] bn4c_branch2c <- res4c_branch2c
I0304 20:18:26.822360 23191 net.cpp:395] bn4c_branch2c -> res4c_branch2c (in-place)
I0304 20:18:26.822499 23191 net.cpp:150] Setting up bn4c_branch2c
I0304 20:18:26.822502 23191 net.cpp:157] Top shape: 16 1024 14 14 (3211264)
I0304 20:18:26.822504 23191 net.cpp:165] Memory required for data: 3118137408
I0304 20:18:26.822509 23191 layer_factory.hpp:77] Creating layer scale4c_branch2c
I0304 20:18:26.822511 23191 net.cpp:100] Creating Layer scale4c_branch2c
I0304 20:18:26.822513 23191 net.cpp:434] scale4c_branch2c <- res4c_branch2c
I0304 20:18:26.822516 23191 net.cpp:395] scale4c_branch2c -> res4c_branch2c (in-place)
I0304 20:18:26.822541 23191 layer_factory.hpp:77] Creating layer scale4c_branch2c
I0304 20:18:26.822620 23191 net.cpp:150] Setting up scale4c_branch2c
I0304 20:18:26.822623 23191 net.cpp:157] Top shape: 16 1024 14 14 (3211264)
I0304 20:18:26.822625 23191 net.cpp:165] Memory required for data: 3130982464
I0304 20:18:26.822628 23191 layer_factory.hpp:77] Creating layer res4c
I0304 20:18:26.822633 23191 net.cpp:100] Creating Layer res4c
I0304 20:18:26.822634 23191 net.cpp:434] res4c <- res4b_res4b_relu_0_split_1
I0304 20:18:26.822636 23191 net.cpp:434] res4c <- res4c_branch2c
I0304 20:18:26.822640 23191 net.cpp:408] res4c -> res4c
I0304 20:18:26.822656 23191 net.cpp:150] Setting up res4c
I0304 20:18:26.822660 23191 net.cpp:157] Top shape: 16 1024 14 14 (3211264)
I0304 20:18:26.822661 23191 net.cpp:165] Memory required for data: 3143827520
I0304 20:18:26.822664 23191 layer_factory.hpp:77] Creating layer res4c_relu
I0304 20:18:26.822667 23191 net.cpp:100] Creating Layer res4c_relu
I0304 20:18:26.822669 23191 net.cpp:434] res4c_relu <- res4c
I0304 20:18:26.822671 23191 net.cpp:395] res4c_relu -> res4c (in-place)
I0304 20:18:26.822782 23191 net.cpp:150] Setting up res4c_relu
I0304 20:18:26.822787 23191 net.cpp:157] Top shape: 16 1024 14 14 (3211264)
I0304 20:18:26.822788 23191 net.cpp:165] Memory required for data: 3156672576
I0304 20:18:26.822790 23191 layer_factory.hpp:77] Creating layer res4c_res4c_relu_0_split
I0304 20:18:26.822795 23191 net.cpp:100] Creating Layer res4c_res4c_relu_0_split
I0304 20:18:26.822798 23191 net.cpp:434] res4c_res4c_relu_0_split <- res4c
I0304 20:18:26.822800 23191 net.cpp:408] res4c_res4c_relu_0_split -> res4c_res4c_relu_0_split_0
I0304 20:18:26.822804 23191 net.cpp:408] res4c_res4c_relu_0_split -> res4c_res4c_relu_0_split_1
I0304 20:18:26.822831 23191 net.cpp:150] Setting up res4c_res4c_relu_0_split
I0304 20:18:26.822834 23191 net.cpp:157] Top shape: 16 1024 14 14 (3211264)
I0304 20:18:26.822837 23191 net.cpp:157] Top shape: 16 1024 14 14 (3211264)
I0304 20:18:26.822839 23191 net.cpp:165] Memory required for data: 3182362688
I0304 20:18:26.822840 23191 layer_factory.hpp:77] Creating layer res4d_branch2a
I0304 20:18:26.822845 23191 net.cpp:100] Creating Layer res4d_branch2a
I0304 20:18:26.822847 23191 net.cpp:434] res4d_branch2a <- res4c_res4c_relu_0_split_0
I0304 20:18:26.822850 23191 net.cpp:408] res4d_branch2a -> res4d_branch2a
I0304 20:18:26.823824 23191 net.cpp:150] Setting up res4d_branch2a
I0304 20:18:26.823832 23191 net.cpp:157] Top shape: 16 256 14 14 (802816)
I0304 20:18:26.823835 23191 net.cpp:165] Memory required for data: 3185573952
I0304 20:18:26.823838 23191 layer_factory.hpp:77] Creating layer bn4d_branch2a
I0304 20:18:26.823842 23191 net.cpp:100] Creating Layer bn4d_branch2a
I0304 20:18:26.823844 23191 net.cpp:434] bn4d_branch2a <- res4d_branch2a
I0304 20:18:26.823846 23191 net.cpp:395] bn4d_branch2a -> res4d_branch2a (in-place)
I0304 20:18:26.823983 23191 net.cpp:150] Setting up bn4d_branch2a
I0304 20:18:26.823987 23191 net.cpp:157] Top shape: 16 256 14 14 (802816)
I0304 20:18:26.823989 23191 net.cpp:165] Memory required for data: 3188785216
I0304 20:18:26.823993 23191 layer_factory.hpp:77] Creating layer scale4d_branch2a
I0304 20:18:26.823997 23191 net.cpp:100] Creating Layer scale4d_branch2a
I0304 20:18:26.823999 23191 net.cpp:434] scale4d_branch2a <- res4d_branch2a
I0304 20:18:26.824002 23191 net.cpp:395] scale4d_branch2a -> res4d_branch2a (in-place)
I0304 20:18:26.824028 23191 layer_factory.hpp:77] Creating layer scale4d_branch2a
I0304 20:18:26.824110 23191 net.cpp:150] Setting up scale4d_branch2a
I0304 20:18:26.824115 23191 net.cpp:157] Top shape: 16 256 14 14 (802816)
I0304 20:18:26.824116 23191 net.cpp:165] Memory required for data: 3191996480
I0304 20:18:26.824120 23191 layer_factory.hpp:77] Creating layer res4d_branch2a_relu
I0304 20:18:26.824122 23191 net.cpp:100] Creating Layer res4d_branch2a_relu
I0304 20:18:26.824125 23191 net.cpp:434] res4d_branch2a_relu <- res4d_branch2a
I0304 20:18:26.824127 23191 net.cpp:395] res4d_branch2a_relu -> res4d_branch2a (in-place)
I0304 20:18:26.824367 23191 net.cpp:150] Setting up res4d_branch2a_relu
I0304 20:18:26.824375 23191 net.cpp:157] Top shape: 16 256 14 14 (802816)
I0304 20:18:26.824379 23191 net.cpp:165] Memory required for data: 3195207744
I0304 20:18:26.824383 23191 layer_factory.hpp:77] Creating layer res4d_branch2b
I0304 20:18:26.824390 23191 net.cpp:100] Creating Layer res4d_branch2b
I0304 20:18:26.824393 23191 net.cpp:434] res4d_branch2b <- res4d_branch2a
I0304 20:18:26.824399 23191 net.cpp:408] res4d_branch2b -> res4d_branch2b
I0304 20:18:26.825826 23191 net.cpp:150] Setting up res4d_branch2b
I0304 20:18:26.825835 23191 net.cpp:157] Top shape: 16 256 14 14 (802816)
I0304 20:18:26.825837 23191 net.cpp:165] Memory required for data: 3198419008
I0304 20:18:26.825841 23191 layer_factory.hpp:77] Creating layer bn4d_branch2b
I0304 20:18:26.825845 23191 net.cpp:100] Creating Layer bn4d_branch2b
I0304 20:18:26.825847 23191 net.cpp:434] bn4d_branch2b <- res4d_branch2b
I0304 20:18:26.825850 23191 net.cpp:395] bn4d_branch2b -> res4d_branch2b (in-place)
I0304 20:18:26.825990 23191 net.cpp:150] Setting up bn4d_branch2b
I0304 20:18:26.825994 23191 net.cpp:157] Top shape: 16 256 14 14 (802816)
I0304 20:18:26.825996 23191 net.cpp:165] Memory required for data: 3201630272
I0304 20:18:26.826000 23191 layer_factory.hpp:77] Creating layer scale4d_branch2b
I0304 20:18:26.826004 23191 net.cpp:100] Creating Layer scale4d_branch2b
I0304 20:18:26.826006 23191 net.cpp:434] scale4d_branch2b <- res4d_branch2b
I0304 20:18:26.826009 23191 net.cpp:395] scale4d_branch2b -> res4d_branch2b (in-place)
I0304 20:18:26.826038 23191 layer_factory.hpp:77] Creating layer scale4d_branch2b
I0304 20:18:26.826114 23191 net.cpp:150] Setting up scale4d_branch2b
I0304 20:18:26.826118 23191 net.cpp:157] Top shape: 16 256 14 14 (802816)
I0304 20:18:26.826120 23191 net.cpp:165] Memory required for data: 3204841536
I0304 20:18:26.826123 23191 layer_factory.hpp:77] Creating layer res4d_branch2b_relu
I0304 20:18:26.826126 23191 net.cpp:100] Creating Layer res4d_branch2b_relu
I0304 20:18:26.826128 23191 net.cpp:434] res4d_branch2b_relu <- res4d_branch2b
I0304 20:18:26.826131 23191 net.cpp:395] res4d_branch2b_relu -> res4d_branch2b (in-place)
I0304 20:18:26.826330 23191 net.cpp:150] Setting up res4d_branch2b_relu
I0304 20:18:26.826336 23191 net.cpp:157] Top shape: 16 256 14 14 (802816)
I0304 20:18:26.826339 23191 net.cpp:165] Memory required for data: 3208052800
I0304 20:18:26.826341 23191 layer_factory.hpp:77] Creating layer res4d_branch2c
I0304 20:18:26.826345 23191 net.cpp:100] Creating Layer res4d_branch2c
I0304 20:18:26.826347 23191 net.cpp:434] res4d_branch2c <- res4d_branch2b
I0304 20:18:26.826351 23191 net.cpp:408] res4d_branch2c -> res4d_branch2c
I0304 20:18:26.827421 23191 net.cpp:150] Setting up res4d_branch2c
I0304 20:18:26.827428 23191 net.cpp:157] Top shape: 16 1024 14 14 (3211264)
I0304 20:18:26.827430 23191 net.cpp:165] Memory required for data: 3220897856
I0304 20:18:26.827435 23191 layer_factory.hpp:77] Creating layer bn4d_branch2c
I0304 20:18:26.827438 23191 net.cpp:100] Creating Layer bn4d_branch2c
I0304 20:18:26.827441 23191 net.cpp:434] bn4d_branch2c <- res4d_branch2c
I0304 20:18:26.827445 23191 net.cpp:395] bn4d_branch2c -> res4d_branch2c (in-place)
I0304 20:18:26.827587 23191 net.cpp:150] Setting up bn4d_branch2c
I0304 20:18:26.827591 23191 net.cpp:157] Top shape: 16 1024 14 14 (3211264)
I0304 20:18:26.827594 23191 net.cpp:165] Memory required for data: 3233742912
I0304 20:18:26.827597 23191 layer_factory.hpp:77] Creating layer scale4d_branch2c
I0304 20:18:26.827602 23191 net.cpp:100] Creating Layer scale4d_branch2c
I0304 20:18:26.827605 23191 net.cpp:434] scale4d_branch2c <- res4d_branch2c
I0304 20:18:26.827606 23191 net.cpp:395] scale4d_branch2c -> res4d_branch2c (in-place)
I0304 20:18:26.827631 23191 layer_factory.hpp:77] Creating layer scale4d_branch2c
I0304 20:18:26.827713 23191 net.cpp:150] Setting up scale4d_branch2c
I0304 20:18:26.827715 23191 net.cpp:157] Top shape: 16 1024 14 14 (3211264)
I0304 20:18:26.827718 23191 net.cpp:165] Memory required for data: 3246587968
I0304 20:18:26.827721 23191 layer_factory.hpp:77] Creating layer res4d
I0304 20:18:26.827724 23191 net.cpp:100] Creating Layer res4d
I0304 20:18:26.827726 23191 net.cpp:434] res4d <- res4c_res4c_relu_0_split_1
I0304 20:18:26.827729 23191 net.cpp:434] res4d <- res4d_branch2c
I0304 20:18:26.827733 23191 net.cpp:408] res4d -> res4d
I0304 20:18:26.827750 23191 net.cpp:150] Setting up res4d
I0304 20:18:26.827754 23191 net.cpp:157] Top shape: 16 1024 14 14 (3211264)
I0304 20:18:26.827755 23191 net.cpp:165] Memory required for data: 3259433024
I0304 20:18:26.827757 23191 layer_factory.hpp:77] Creating layer res4d_relu
I0304 20:18:26.827760 23191 net.cpp:100] Creating Layer res4d_relu
I0304 20:18:26.827762 23191 net.cpp:434] res4d_relu <- res4d
I0304 20:18:26.827764 23191 net.cpp:395] res4d_relu -> res4d (in-place)
I0304 20:18:26.827877 23191 net.cpp:150] Setting up res4d_relu
I0304 20:18:26.827882 23191 net.cpp:157] Top shape: 16 1024 14 14 (3211264)
I0304 20:18:26.827883 23191 net.cpp:165] Memory required for data: 3272278080
I0304 20:18:26.827885 23191 layer_factory.hpp:77] Creating layer res4d_res4d_relu_0_split
I0304 20:18:26.827889 23191 net.cpp:100] Creating Layer res4d_res4d_relu_0_split
I0304 20:18:26.827890 23191 net.cpp:434] res4d_res4d_relu_0_split <- res4d
I0304 20:18:26.827894 23191 net.cpp:408] res4d_res4d_relu_0_split -> res4d_res4d_relu_0_split_0
I0304 20:18:26.827898 23191 net.cpp:408] res4d_res4d_relu_0_split -> res4d_res4d_relu_0_split_1
I0304 20:18:26.827926 23191 net.cpp:150] Setting up res4d_res4d_relu_0_split
I0304 20:18:26.827930 23191 net.cpp:157] Top shape: 16 1024 14 14 (3211264)
I0304 20:18:26.827932 23191 net.cpp:157] Top shape: 16 1024 14 14 (3211264)
I0304 20:18:26.827934 23191 net.cpp:165] Memory required for data: 3297968192
I0304 20:18:26.827935 23191 layer_factory.hpp:77] Creating layer res4e_branch2a
I0304 20:18:26.827940 23191 net.cpp:100] Creating Layer res4e_branch2a
I0304 20:18:26.827942 23191 net.cpp:434] res4e_branch2a <- res4d_res4d_relu_0_split_0
I0304 20:18:26.827945 23191 net.cpp:408] res4e_branch2a -> res4e_branch2a
I0304 20:18:26.828949 23191 net.cpp:150] Setting up res4e_branch2a
I0304 20:18:26.828958 23191 net.cpp:157] Top shape: 16 256 14 14 (802816)
I0304 20:18:26.828959 23191 net.cpp:165] Memory required for data: 3301179456
I0304 20:18:26.828963 23191 layer_factory.hpp:77] Creating layer bn4e_branch2a
I0304 20:18:26.828968 23191 net.cpp:100] Creating Layer bn4e_branch2a
I0304 20:18:26.828969 23191 net.cpp:434] bn4e_branch2a <- res4e_branch2a
I0304 20:18:26.828972 23191 net.cpp:395] bn4e_branch2a -> res4e_branch2a (in-place)
I0304 20:18:26.829115 23191 net.cpp:150] Setting up bn4e_branch2a
I0304 20:18:26.829119 23191 net.cpp:157] Top shape: 16 256 14 14 (802816)
I0304 20:18:26.829121 23191 net.cpp:165] Memory required for data: 3304390720
I0304 20:18:26.829126 23191 layer_factory.hpp:77] Creating layer scale4e_branch2a
I0304 20:18:26.829129 23191 net.cpp:100] Creating Layer scale4e_branch2a
I0304 20:18:26.829131 23191 net.cpp:434] scale4e_branch2a <- res4e_branch2a
I0304 20:18:26.829135 23191 net.cpp:395] scale4e_branch2a -> res4e_branch2a (in-place)
I0304 20:18:26.829162 23191 layer_factory.hpp:77] Creating layer scale4e_branch2a
I0304 20:18:26.829241 23191 net.cpp:150] Setting up scale4e_branch2a
I0304 20:18:26.829246 23191 net.cpp:157] Top shape: 16 256 14 14 (802816)
I0304 20:18:26.829246 23191 net.cpp:165] Memory required for data: 3307601984
I0304 20:18:26.829251 23191 layer_factory.hpp:77] Creating layer res4e_branch2a_relu
I0304 20:18:26.829253 23191 net.cpp:100] Creating Layer res4e_branch2a_relu
I0304 20:18:26.829255 23191 net.cpp:434] res4e_branch2a_relu <- res4e_branch2a
I0304 20:18:26.829257 23191 net.cpp:395] res4e_branch2a_relu -> res4e_branch2a (in-place)
I0304 20:18:26.829457 23191 net.cpp:150] Setting up res4e_branch2a_relu
I0304 20:18:26.829463 23191 net.cpp:157] Top shape: 16 256 14 14 (802816)
I0304 20:18:26.829465 23191 net.cpp:165] Memory required for data: 3310813248
I0304 20:18:26.829468 23191 layer_factory.hpp:77] Creating layer res4e_branch2b
I0304 20:18:26.829473 23191 net.cpp:100] Creating Layer res4e_branch2b
I0304 20:18:26.829476 23191 net.cpp:434] res4e_branch2b <- res4e_branch2a
I0304 20:18:26.829479 23191 net.cpp:408] res4e_branch2b -> res4e_branch2b
I0304 20:18:26.830785 23191 net.cpp:150] Setting up res4e_branch2b
I0304 20:18:26.830791 23191 net.cpp:157] Top shape: 16 256 14 14 (802816)
I0304 20:18:26.830793 23191 net.cpp:165] Memory required for data: 3314024512
I0304 20:18:26.830797 23191 layer_factory.hpp:77] Creating layer bn4e_branch2b
I0304 20:18:26.830802 23191 net.cpp:100] Creating Layer bn4e_branch2b
I0304 20:18:26.830804 23191 net.cpp:434] bn4e_branch2b <- res4e_branch2b
I0304 20:18:26.830807 23191 net.cpp:395] bn4e_branch2b -> res4e_branch2b (in-place)
I0304 20:18:26.830953 23191 net.cpp:150] Setting up bn4e_branch2b
I0304 20:18:26.830957 23191 net.cpp:157] Top shape: 16 256 14 14 (802816)
I0304 20:18:26.830960 23191 net.cpp:165] Memory required for data: 3317235776
I0304 20:18:26.830963 23191 layer_factory.hpp:77] Creating layer scale4e_branch2b
I0304 20:18:26.830967 23191 net.cpp:100] Creating Layer scale4e_branch2b
I0304 20:18:26.830970 23191 net.cpp:434] scale4e_branch2b <- res4e_branch2b
I0304 20:18:26.830971 23191 net.cpp:395] scale4e_branch2b -> res4e_branch2b (in-place)
I0304 20:18:26.831001 23191 layer_factory.hpp:77] Creating layer scale4e_branch2b
I0304 20:18:26.831081 23191 net.cpp:150] Setting up scale4e_branch2b
I0304 20:18:26.831085 23191 net.cpp:157] Top shape: 16 256 14 14 (802816)
I0304 20:18:26.831087 23191 net.cpp:165] Memory required for data: 3320447040
I0304 20:18:26.831090 23191 layer_factory.hpp:77] Creating layer res4e_branch2b_relu
I0304 20:18:26.831094 23191 net.cpp:100] Creating Layer res4e_branch2b_relu
I0304 20:18:26.831096 23191 net.cpp:434] res4e_branch2b_relu <- res4e_branch2b
I0304 20:18:26.831099 23191 net.cpp:395] res4e_branch2b_relu -> res4e_branch2b (in-place)
I0304 20:18:26.831300 23191 net.cpp:150] Setting up res4e_branch2b_relu
I0304 20:18:26.831305 23191 net.cpp:157] Top shape: 16 256 14 14 (802816)
I0304 20:18:26.831307 23191 net.cpp:165] Memory required for data: 3323658304
I0304 20:18:26.831310 23191 layer_factory.hpp:77] Creating layer res4e_branch2c
I0304 20:18:26.831315 23191 net.cpp:100] Creating Layer res4e_branch2c
I0304 20:18:26.831316 23191 net.cpp:434] res4e_branch2c <- res4e_branch2b
I0304 20:18:26.831320 23191 net.cpp:408] res4e_branch2c -> res4e_branch2c
I0304 20:18:26.832324 23191 net.cpp:150] Setting up res4e_branch2c
I0304 20:18:26.832331 23191 net.cpp:157] Top shape: 16 1024 14 14 (3211264)
I0304 20:18:26.832334 23191 net.cpp:165] Memory required for data: 3336503360
I0304 20:18:26.832336 23191 layer_factory.hpp:77] Creating layer bn4e_branch2c
I0304 20:18:26.832341 23191 net.cpp:100] Creating Layer bn4e_branch2c
I0304 20:18:26.832343 23191 net.cpp:434] bn4e_branch2c <- res4e_branch2c
I0304 20:18:26.832346 23191 net.cpp:395] bn4e_branch2c -> res4e_branch2c (in-place)
I0304 20:18:26.832496 23191 net.cpp:150] Setting up bn4e_branch2c
I0304 20:18:26.832500 23191 net.cpp:157] Top shape: 16 1024 14 14 (3211264)
I0304 20:18:26.832502 23191 net.cpp:165] Memory required for data: 3349348416
I0304 20:18:26.832506 23191 layer_factory.hpp:77] Creating layer scale4e_branch2c
I0304 20:18:26.832511 23191 net.cpp:100] Creating Layer scale4e_branch2c
I0304 20:18:26.832514 23191 net.cpp:434] scale4e_branch2c <- res4e_branch2c
I0304 20:18:26.832515 23191 net.cpp:395] scale4e_branch2c -> res4e_branch2c (in-place)
I0304 20:18:26.832542 23191 layer_factory.hpp:77] Creating layer scale4e_branch2c
I0304 20:18:26.832626 23191 net.cpp:150] Setting up scale4e_branch2c
I0304 20:18:26.832630 23191 net.cpp:157] Top shape: 16 1024 14 14 (3211264)
I0304 20:18:26.832633 23191 net.cpp:165] Memory required for data: 3362193472
I0304 20:18:26.832635 23191 layer_factory.hpp:77] Creating layer res4e
I0304 20:18:26.832639 23191 net.cpp:100] Creating Layer res4e
I0304 20:18:26.832643 23191 net.cpp:434] res4e <- res4d_res4d_relu_0_split_1
I0304 20:18:26.832644 23191 net.cpp:434] res4e <- res4e_branch2c
I0304 20:18:26.832648 23191 net.cpp:408] res4e -> res4e
I0304 20:18:26.832665 23191 net.cpp:150] Setting up res4e
I0304 20:18:26.832669 23191 net.cpp:157] Top shape: 16 1024 14 14 (3211264)
I0304 20:18:26.832670 23191 net.cpp:165] Memory required for data: 3375038528
I0304 20:18:26.832672 23191 layer_factory.hpp:77] Creating layer res4e_relu
I0304 20:18:26.832675 23191 net.cpp:100] Creating Layer res4e_relu
I0304 20:18:26.832677 23191 net.cpp:434] res4e_relu <- res4e
I0304 20:18:26.832680 23191 net.cpp:395] res4e_relu -> res4e (in-place)
I0304 20:18:26.832793 23191 net.cpp:150] Setting up res4e_relu
I0304 20:18:26.832798 23191 net.cpp:157] Top shape: 16 1024 14 14 (3211264)
I0304 20:18:26.832800 23191 net.cpp:165] Memory required for data: 3387883584
I0304 20:18:26.832803 23191 layer_factory.hpp:77] Creating layer res4e_res4e_relu_0_split
I0304 20:18:26.832805 23191 net.cpp:100] Creating Layer res4e_res4e_relu_0_split
I0304 20:18:26.832808 23191 net.cpp:434] res4e_res4e_relu_0_split <- res4e
I0304 20:18:26.832811 23191 net.cpp:408] res4e_res4e_relu_0_split -> res4e_res4e_relu_0_split_0
I0304 20:18:26.832814 23191 net.cpp:408] res4e_res4e_relu_0_split -> res4e_res4e_relu_0_split_1
I0304 20:18:26.832845 23191 net.cpp:150] Setting up res4e_res4e_relu_0_split
I0304 20:18:26.832849 23191 net.cpp:157] Top shape: 16 1024 14 14 (3211264)
I0304 20:18:26.832851 23191 net.cpp:157] Top shape: 16 1024 14 14 (3211264)
I0304 20:18:26.832852 23191 net.cpp:165] Memory required for data: 3413573696
I0304 20:18:26.832854 23191 layer_factory.hpp:77] Creating layer res4f_branch2a
I0304 20:18:26.832859 23191 net.cpp:100] Creating Layer res4f_branch2a
I0304 20:18:26.832861 23191 net.cpp:434] res4f_branch2a <- res4e_res4e_relu_0_split_0
I0304 20:18:26.832864 23191 net.cpp:408] res4f_branch2a -> res4f_branch2a
I0304 20:18:26.833855 23191 net.cpp:150] Setting up res4f_branch2a
I0304 20:18:26.833863 23191 net.cpp:157] Top shape: 16 256 14 14 (802816)
I0304 20:18:26.833865 23191 net.cpp:165] Memory required for data: 3416784960
I0304 20:18:26.833868 23191 layer_factory.hpp:77] Creating layer bn4f_branch2a
I0304 20:18:26.833873 23191 net.cpp:100] Creating Layer bn4f_branch2a
I0304 20:18:26.833875 23191 net.cpp:434] bn4f_branch2a <- res4f_branch2a
I0304 20:18:26.833878 23191 net.cpp:395] bn4f_branch2a -> res4f_branch2a (in-place)
I0304 20:18:26.834024 23191 net.cpp:150] Setting up bn4f_branch2a
I0304 20:18:26.834028 23191 net.cpp:157] Top shape: 16 256 14 14 (802816)
I0304 20:18:26.834030 23191 net.cpp:165] Memory required for data: 3419996224
I0304 20:18:26.834034 23191 layer_factory.hpp:77] Creating layer scale4f_branch2a
I0304 20:18:26.834039 23191 net.cpp:100] Creating Layer scale4f_branch2a
I0304 20:18:26.834041 23191 net.cpp:434] scale4f_branch2a <- res4f_branch2a
I0304 20:18:26.834043 23191 net.cpp:395] scale4f_branch2a -> res4f_branch2a (in-place)
I0304 20:18:26.834072 23191 layer_factory.hpp:77] Creating layer scale4f_branch2a
I0304 20:18:26.834152 23191 net.cpp:150] Setting up scale4f_branch2a
I0304 20:18:26.834156 23191 net.cpp:157] Top shape: 16 256 14 14 (802816)
I0304 20:18:26.834158 23191 net.cpp:165] Memory required for data: 3423207488
I0304 20:18:26.834161 23191 layer_factory.hpp:77] Creating layer res4f_branch2a_relu
I0304 20:18:26.834164 23191 net.cpp:100] Creating Layer res4f_branch2a_relu
I0304 20:18:26.834167 23191 net.cpp:434] res4f_branch2a_relu <- res4f_branch2a
I0304 20:18:26.834169 23191 net.cpp:395] res4f_branch2a_relu -> res4f_branch2a (in-place)
I0304 20:18:26.834372 23191 net.cpp:150] Setting up res4f_branch2a_relu
I0304 20:18:26.834378 23191 net.cpp:157] Top shape: 16 256 14 14 (802816)
I0304 20:18:26.834379 23191 net.cpp:165] Memory required for data: 3426418752
I0304 20:18:26.834381 23191 layer_factory.hpp:77] Creating layer res4f_branch2b
I0304 20:18:26.834386 23191 net.cpp:100] Creating Layer res4f_branch2b
I0304 20:18:26.834388 23191 net.cpp:434] res4f_branch2b <- res4f_branch2a
I0304 20:18:26.834391 23191 net.cpp:408] res4f_branch2b -> res4f_branch2b
I0304 20:18:26.835770 23191 net.cpp:150] Setting up res4f_branch2b
I0304 20:18:26.835778 23191 net.cpp:157] Top shape: 16 256 14 14 (802816)
I0304 20:18:26.835780 23191 net.cpp:165] Memory required for data: 3429630016
I0304 20:18:26.835784 23191 layer_factory.hpp:77] Creating layer bn4f_branch2b
I0304 20:18:26.835788 23191 net.cpp:100] Creating Layer bn4f_branch2b
I0304 20:18:26.835791 23191 net.cpp:434] bn4f_branch2b <- res4f_branch2b
I0304 20:18:26.835793 23191 net.cpp:395] bn4f_branch2b -> res4f_branch2b (in-place)
I0304 20:18:26.835947 23191 net.cpp:150] Setting up bn4f_branch2b
I0304 20:18:26.835952 23191 net.cpp:157] Top shape: 16 256 14 14 (802816)
I0304 20:18:26.835953 23191 net.cpp:165] Memory required for data: 3432841280
I0304 20:18:26.835958 23191 layer_factory.hpp:77] Creating layer scale4f_branch2b
I0304 20:18:26.835961 23191 net.cpp:100] Creating Layer scale4f_branch2b
I0304 20:18:26.835963 23191 net.cpp:434] scale4f_branch2b <- res4f_branch2b
I0304 20:18:26.835966 23191 net.cpp:395] scale4f_branch2b -> res4f_branch2b (in-place)
I0304 20:18:26.835999 23191 layer_factory.hpp:77] Creating layer scale4f_branch2b
I0304 20:18:26.836087 23191 net.cpp:150] Setting up scale4f_branch2b
I0304 20:18:26.836092 23191 net.cpp:157] Top shape: 16 256 14 14 (802816)
I0304 20:18:26.836094 23191 net.cpp:165] Memory required for data: 3436052544
I0304 20:18:26.836097 23191 layer_factory.hpp:77] Creating layer res4f_branch2b_relu
I0304 20:18:26.836102 23191 net.cpp:100] Creating Layer res4f_branch2b_relu
I0304 20:18:26.836103 23191 net.cpp:434] res4f_branch2b_relu <- res4f_branch2b
I0304 20:18:26.836105 23191 net.cpp:395] res4f_branch2b_relu -> res4f_branch2b (in-place)
I0304 20:18:26.836319 23191 net.cpp:150] Setting up res4f_branch2b_relu
I0304 20:18:26.836326 23191 net.cpp:157] Top shape: 16 256 14 14 (802816)
I0304 20:18:26.836328 23191 net.cpp:165] Memory required for data: 3439263808
I0304 20:18:26.836330 23191 layer_factory.hpp:77] Creating layer res4f_branch2c
I0304 20:18:26.836335 23191 net.cpp:100] Creating Layer res4f_branch2c
I0304 20:18:26.836338 23191 net.cpp:434] res4f_branch2c <- res4f_branch2b
I0304 20:18:26.836341 23191 net.cpp:408] res4f_branch2c -> res4f_branch2c
I0304 20:18:26.837353 23191 net.cpp:150] Setting up res4f_branch2c
I0304 20:18:26.837362 23191 net.cpp:157] Top shape: 16 1024 14 14 (3211264)
I0304 20:18:26.837363 23191 net.cpp:165] Memory required for data: 3452108864
I0304 20:18:26.837366 23191 layer_factory.hpp:77] Creating layer bn4f_branch2c
I0304 20:18:26.837371 23191 net.cpp:100] Creating Layer bn4f_branch2c
I0304 20:18:26.837373 23191 net.cpp:434] bn4f_branch2c <- res4f_branch2c
I0304 20:18:26.837376 23191 net.cpp:395] bn4f_branch2c -> res4f_branch2c (in-place)
I0304 20:18:26.837530 23191 net.cpp:150] Setting up bn4f_branch2c
I0304 20:18:26.837534 23191 net.cpp:157] Top shape: 16 1024 14 14 (3211264)
I0304 20:18:26.837537 23191 net.cpp:165] Memory required for data: 3464953920
I0304 20:18:26.837563 23191 layer_factory.hpp:77] Creating layer scale4f_branch2c
I0304 20:18:26.837568 23191 net.cpp:100] Creating Layer scale4f_branch2c
I0304 20:18:26.837569 23191 net.cpp:434] scale4f_branch2c <- res4f_branch2c
I0304 20:18:26.837573 23191 net.cpp:395] scale4f_branch2c -> res4f_branch2c (in-place)
I0304 20:18:26.837601 23191 layer_factory.hpp:77] Creating layer scale4f_branch2c
I0304 20:18:26.837687 23191 net.cpp:150] Setting up scale4f_branch2c
I0304 20:18:26.837692 23191 net.cpp:157] Top shape: 16 1024 14 14 (3211264)
I0304 20:18:26.837692 23191 net.cpp:165] Memory required for data: 3477798976
I0304 20:18:26.837697 23191 layer_factory.hpp:77] Creating layer res4f
I0304 20:18:26.837699 23191 net.cpp:100] Creating Layer res4f
I0304 20:18:26.837702 23191 net.cpp:434] res4f <- res4e_res4e_relu_0_split_1
I0304 20:18:26.837704 23191 net.cpp:434] res4f <- res4f_branch2c
I0304 20:18:26.837707 23191 net.cpp:408] res4f -> res4f
I0304 20:18:26.837725 23191 net.cpp:150] Setting up res4f
I0304 20:18:26.837729 23191 net.cpp:157] Top shape: 16 1024 14 14 (3211264)
I0304 20:18:26.837731 23191 net.cpp:165] Memory required for data: 3490644032
I0304 20:18:26.837733 23191 layer_factory.hpp:77] Creating layer res4f_relu
I0304 20:18:26.837736 23191 net.cpp:100] Creating Layer res4f_relu
I0304 20:18:26.837738 23191 net.cpp:434] res4f_relu <- res4f
I0304 20:18:26.837740 23191 net.cpp:395] res4f_relu -> res4f (in-place)
I0304 20:18:26.837855 23191 net.cpp:150] Setting up res4f_relu
I0304 20:18:26.837860 23191 net.cpp:157] Top shape: 16 1024 14 14 (3211264)
I0304 20:18:26.837862 23191 net.cpp:165] Memory required for data: 3503489088
I0304 20:18:26.837864 23191 layer_factory.hpp:77] Creating layer res4f_res4f_relu_0_split
I0304 20:18:26.837867 23191 net.cpp:100] Creating Layer res4f_res4f_relu_0_split
I0304 20:18:26.837869 23191 net.cpp:434] res4f_res4f_relu_0_split <- res4f
I0304 20:18:26.837872 23191 net.cpp:408] res4f_res4f_relu_0_split -> res4f_res4f_relu_0_split_0
I0304 20:18:26.837877 23191 net.cpp:408] res4f_res4f_relu_0_split -> res4f_res4f_relu_0_split_1
I0304 20:18:26.837908 23191 net.cpp:150] Setting up res4f_res4f_relu_0_split
I0304 20:18:26.837911 23191 net.cpp:157] Top shape: 16 1024 14 14 (3211264)
I0304 20:18:26.837913 23191 net.cpp:157] Top shape: 16 1024 14 14 (3211264)
I0304 20:18:26.837915 23191 net.cpp:165] Memory required for data: 3529179200
I0304 20:18:26.837918 23191 layer_factory.hpp:77] Creating layer res5a_branch1
I0304 20:18:26.837921 23191 net.cpp:100] Creating Layer res5a_branch1
I0304 20:18:26.837924 23191 net.cpp:434] res5a_branch1 <- res4f_res4f_relu_0_split_0
I0304 20:18:26.837927 23191 net.cpp:408] res5a_branch1 -> res5a_branch1
I0304 20:18:26.841287 23191 net.cpp:150] Setting up res5a_branch1
I0304 20:18:26.841310 23191 net.cpp:157] Top shape: 16 2048 7 7 (1605632)
I0304 20:18:26.841312 23191 net.cpp:165] Memory required for data: 3535601728
I0304 20:18:26.841317 23191 layer_factory.hpp:77] Creating layer bn5a_branch1
I0304 20:18:26.841325 23191 net.cpp:100] Creating Layer bn5a_branch1
I0304 20:18:26.841330 23191 net.cpp:434] bn5a_branch1 <- res5a_branch1
I0304 20:18:26.841332 23191 net.cpp:395] bn5a_branch1 -> res5a_branch1 (in-place)
I0304 20:18:26.841506 23191 net.cpp:150] Setting up bn5a_branch1
I0304 20:18:26.841511 23191 net.cpp:157] Top shape: 16 2048 7 7 (1605632)
I0304 20:18:26.841512 23191 net.cpp:165] Memory required for data: 3542024256
I0304 20:18:26.841516 23191 layer_factory.hpp:77] Creating layer scale5a_branch1
I0304 20:18:26.841522 23191 net.cpp:100] Creating Layer scale5a_branch1
I0304 20:18:26.841524 23191 net.cpp:434] scale5a_branch1 <- res5a_branch1
I0304 20:18:26.841527 23191 net.cpp:395] scale5a_branch1 -> res5a_branch1 (in-place)
I0304 20:18:26.841560 23191 layer_factory.hpp:77] Creating layer scale5a_branch1
I0304 20:18:26.841650 23191 net.cpp:150] Setting up scale5a_branch1
I0304 20:18:26.841653 23191 net.cpp:157] Top shape: 16 2048 7 7 (1605632)
I0304 20:18:26.841655 23191 net.cpp:165] Memory required for data: 3548446784
I0304 20:18:26.841658 23191 layer_factory.hpp:77] Creating layer res5a_branch2a
I0304 20:18:26.841665 23191 net.cpp:100] Creating Layer res5a_branch2a
I0304 20:18:26.841667 23191 net.cpp:434] res5a_branch2a <- res4f_res4f_relu_0_split_1
I0304 20:18:26.841670 23191 net.cpp:408] res5a_branch2a -> res5a_branch2a
I0304 20:18:26.843112 23191 net.cpp:150] Setting up res5a_branch2a
I0304 20:18:26.843121 23191 net.cpp:157] Top shape: 16 512 7 7 (401408)
I0304 20:18:26.843122 23191 net.cpp:165] Memory required for data: 3550052416
I0304 20:18:26.843125 23191 layer_factory.hpp:77] Creating layer bn5a_branch2a
I0304 20:18:26.843130 23191 net.cpp:100] Creating Layer bn5a_branch2a
I0304 20:18:26.843132 23191 net.cpp:434] bn5a_branch2a <- res5a_branch2a
I0304 20:18:26.843137 23191 net.cpp:395] bn5a_branch2a -> res5a_branch2a (in-place)
I0304 20:18:26.843307 23191 net.cpp:150] Setting up bn5a_branch2a
I0304 20:18:26.843312 23191 net.cpp:157] Top shape: 16 512 7 7 (401408)
I0304 20:18:26.843314 23191 net.cpp:165] Memory required for data: 3551658048
I0304 20:18:26.843318 23191 layer_factory.hpp:77] Creating layer scale5a_branch2a
I0304 20:18:26.843322 23191 net.cpp:100] Creating Layer scale5a_branch2a
I0304 20:18:26.843325 23191 net.cpp:434] scale5a_branch2a <- res5a_branch2a
I0304 20:18:26.843336 23191 net.cpp:395] scale5a_branch2a -> res5a_branch2a (in-place)
I0304 20:18:26.843365 23191 layer_factory.hpp:77] Creating layer scale5a_branch2a
I0304 20:18:26.843453 23191 net.cpp:150] Setting up scale5a_branch2a
I0304 20:18:26.843457 23191 net.cpp:157] Top shape: 16 512 7 7 (401408)
I0304 20:18:26.843459 23191 net.cpp:165] Memory required for data: 3553263680
I0304 20:18:26.843462 23191 layer_factory.hpp:77] Creating layer res5a_branch2a_relu
I0304 20:18:26.843466 23191 net.cpp:100] Creating Layer res5a_branch2a_relu
I0304 20:18:26.843468 23191 net.cpp:434] res5a_branch2a_relu <- res5a_branch2a
I0304 20:18:26.843472 23191 net.cpp:395] res5a_branch2a_relu -> res5a_branch2a (in-place)
I0304 20:18:26.843607 23191 net.cpp:150] Setting up res5a_branch2a_relu
I0304 20:18:26.843622 23191 net.cpp:157] Top shape: 16 512 7 7 (401408)
I0304 20:18:26.843624 23191 net.cpp:165] Memory required for data: 3554869312
I0304 20:18:26.843626 23191 layer_factory.hpp:77] Creating layer res5a_branch2b
I0304 20:18:26.843631 23191 net.cpp:100] Creating Layer res5a_branch2b
I0304 20:18:26.843633 23191 net.cpp:434] res5a_branch2b <- res5a_branch2a
I0304 20:18:26.843637 23191 net.cpp:408] res5a_branch2b -> res5a_branch2b
I0304 20:18:26.847512 23191 net.cpp:150] Setting up res5a_branch2b
I0304 20:18:26.847535 23191 net.cpp:157] Top shape: 16 512 7 7 (401408)
I0304 20:18:26.847537 23191 net.cpp:165] Memory required for data: 3556474944
I0304 20:18:26.847543 23191 layer_factory.hpp:77] Creating layer bn5a_branch2b
I0304 20:18:26.847550 23191 net.cpp:100] Creating Layer bn5a_branch2b
I0304 20:18:26.847554 23191 net.cpp:434] bn5a_branch2b <- res5a_branch2b
I0304 20:18:26.847559 23191 net.cpp:395] bn5a_branch2b -> res5a_branch2b (in-place)
I0304 20:18:26.847728 23191 net.cpp:150] Setting up bn5a_branch2b
I0304 20:18:26.847731 23191 net.cpp:157] Top shape: 16 512 7 7 (401408)
I0304 20:18:26.847733 23191 net.cpp:165] Memory required for data: 3558080576
I0304 20:18:26.847738 23191 layer_factory.hpp:77] Creating layer scale5a_branch2b
I0304 20:18:26.847743 23191 net.cpp:100] Creating Layer scale5a_branch2b
I0304 20:18:26.847744 23191 net.cpp:434] scale5a_branch2b <- res5a_branch2b
I0304 20:18:26.847748 23191 net.cpp:395] scale5a_branch2b -> res5a_branch2b (in-place)
I0304 20:18:26.847780 23191 layer_factory.hpp:77] Creating layer scale5a_branch2b
I0304 20:18:26.847868 23191 net.cpp:150] Setting up scale5a_branch2b
I0304 20:18:26.847872 23191 net.cpp:157] Top shape: 16 512 7 7 (401408)
I0304 20:18:26.847873 23191 net.cpp:165] Memory required for data: 3559686208
I0304 20:18:26.847877 23191 layer_factory.hpp:77] Creating layer res5a_branch2b_relu
I0304 20:18:26.847882 23191 net.cpp:100] Creating Layer res5a_branch2b_relu
I0304 20:18:26.847883 23191 net.cpp:434] res5a_branch2b_relu <- res5a_branch2b
I0304 20:18:26.847887 23191 net.cpp:395] res5a_branch2b_relu -> res5a_branch2b (in-place)
I0304 20:18:26.848117 23191 net.cpp:150] Setting up res5a_branch2b_relu
I0304 20:18:26.848124 23191 net.cpp:157] Top shape: 16 512 7 7 (401408)
I0304 20:18:26.848126 23191 net.cpp:165] Memory required for data: 3561291840
I0304 20:18:26.848129 23191 layer_factory.hpp:77] Creating layer res5a_branch2c
I0304 20:18:26.848134 23191 net.cpp:100] Creating Layer res5a_branch2c
I0304 20:18:26.848136 23191 net.cpp:434] res5a_branch2c <- res5a_branch2b
I0304 20:18:26.848141 23191 net.cpp:408] res5a_branch2c -> res5a_branch2c
I0304 20:18:26.849869 23191 net.cpp:150] Setting up res5a_branch2c
I0304 20:18:26.849876 23191 net.cpp:157] Top shape: 16 2048 7 7 (1605632)
I0304 20:18:26.849879 23191 net.cpp:165] Memory required for data: 3567714368
I0304 20:18:26.849881 23191 layer_factory.hpp:77] Creating layer bn5a_branch2c
I0304 20:18:26.849885 23191 net.cpp:100] Creating Layer bn5a_branch2c
I0304 20:18:26.849889 23191 net.cpp:434] bn5a_branch2c <- res5a_branch2c
I0304 20:18:26.849891 23191 net.cpp:395] bn5a_branch2c -> res5a_branch2c (in-place)
I0304 20:18:26.850057 23191 net.cpp:150] Setting up bn5a_branch2c
I0304 20:18:26.850061 23191 net.cpp:157] Top shape: 16 2048 7 7 (1605632)
I0304 20:18:26.850062 23191 net.cpp:165] Memory required for data: 3574136896
I0304 20:18:26.850067 23191 layer_factory.hpp:77] Creating layer scale5a_branch2c
I0304 20:18:26.850071 23191 net.cpp:100] Creating Layer scale5a_branch2c
I0304 20:18:26.850073 23191 net.cpp:434] scale5a_branch2c <- res5a_branch2c
I0304 20:18:26.850076 23191 net.cpp:395] scale5a_branch2c -> res5a_branch2c (in-place)
I0304 20:18:26.850106 23191 layer_factory.hpp:77] Creating layer scale5a_branch2c
I0304 20:18:26.850198 23191 net.cpp:150] Setting up scale5a_branch2c
I0304 20:18:26.850200 23191 net.cpp:157] Top shape: 16 2048 7 7 (1605632)
I0304 20:18:26.850203 23191 net.cpp:165] Memory required for data: 3580559424
I0304 20:18:26.850206 23191 layer_factory.hpp:77] Creating layer res5a
I0304 20:18:26.850210 23191 net.cpp:100] Creating Layer res5a
I0304 20:18:26.850213 23191 net.cpp:434] res5a <- res5a_branch1
I0304 20:18:26.850215 23191 net.cpp:434] res5a <- res5a_branch2c
I0304 20:18:26.850217 23191 net.cpp:408] res5a -> res5a
I0304 20:18:26.850236 23191 net.cpp:150] Setting up res5a
I0304 20:18:26.850239 23191 net.cpp:157] Top shape: 16 2048 7 7 (1605632)
I0304 20:18:26.850241 23191 net.cpp:165] Memory required for data: 3586981952
I0304 20:18:26.850244 23191 layer_factory.hpp:77] Creating layer res5a_relu
I0304 20:18:26.850247 23191 net.cpp:100] Creating Layer res5a_relu
I0304 20:18:26.850250 23191 net.cpp:434] res5a_relu <- res5a
I0304 20:18:26.850252 23191 net.cpp:395] res5a_relu -> res5a (in-place)
I0304 20:18:26.850458 23191 net.cpp:150] Setting up res5a_relu
I0304 20:18:26.850464 23191 net.cpp:157] Top shape: 16 2048 7 7 (1605632)
I0304 20:18:26.850466 23191 net.cpp:165] Memory required for data: 3593404480
I0304 20:18:26.850468 23191 layer_factory.hpp:77] Creating layer res5a_res5a_relu_0_split
I0304 20:18:26.850472 23191 net.cpp:100] Creating Layer res5a_res5a_relu_0_split
I0304 20:18:26.850474 23191 net.cpp:434] res5a_res5a_relu_0_split <- res5a
I0304 20:18:26.850477 23191 net.cpp:408] res5a_res5a_relu_0_split -> res5a_res5a_relu_0_split_0
I0304 20:18:26.850482 23191 net.cpp:408] res5a_res5a_relu_0_split -> res5a_res5a_relu_0_split_1
I0304 20:18:26.850514 23191 net.cpp:150] Setting up res5a_res5a_relu_0_split
I0304 20:18:26.850518 23191 net.cpp:157] Top shape: 16 2048 7 7 (1605632)
I0304 20:18:26.850520 23191 net.cpp:157] Top shape: 16 2048 7 7 (1605632)
I0304 20:18:26.850522 23191 net.cpp:165] Memory required for data: 3606249536
I0304 20:18:26.850524 23191 layer_factory.hpp:77] Creating layer res5b_branch2a
I0304 20:18:26.850529 23191 net.cpp:100] Creating Layer res5b_branch2a
I0304 20:18:26.850531 23191 net.cpp:434] res5b_branch2a <- res5a_res5a_relu_0_split_0
I0304 20:18:26.850535 23191 net.cpp:408] res5b_branch2a -> res5b_branch2a
I0304 20:18:26.852493 23191 net.cpp:150] Setting up res5b_branch2a
I0304 20:18:26.852509 23191 net.cpp:157] Top shape: 16 512 7 7 (401408)
I0304 20:18:26.852510 23191 net.cpp:165] Memory required for data: 3607855168
I0304 20:18:26.852515 23191 layer_factory.hpp:77] Creating layer bn5b_branch2a
I0304 20:18:26.852521 23191 net.cpp:100] Creating Layer bn5b_branch2a
I0304 20:18:26.852524 23191 net.cpp:434] bn5b_branch2a <- res5b_branch2a
I0304 20:18:26.852529 23191 net.cpp:395] bn5b_branch2a -> res5b_branch2a (in-place)
I0304 20:18:26.852694 23191 net.cpp:150] Setting up bn5b_branch2a
I0304 20:18:26.852697 23191 net.cpp:157] Top shape: 16 512 7 7 (401408)
I0304 20:18:26.852699 23191 net.cpp:165] Memory required for data: 3609460800
I0304 20:18:26.852705 23191 layer_factory.hpp:77] Creating layer scale5b_branch2a
I0304 20:18:26.852708 23191 net.cpp:100] Creating Layer scale5b_branch2a
I0304 20:18:26.852711 23191 net.cpp:434] scale5b_branch2a <- res5b_branch2a
I0304 20:18:26.852713 23191 net.cpp:395] scale5b_branch2a -> res5b_branch2a (in-place)
I0304 20:18:26.852746 23191 layer_factory.hpp:77] Creating layer scale5b_branch2a
I0304 20:18:26.852838 23191 net.cpp:150] Setting up scale5b_branch2a
I0304 20:18:26.852841 23191 net.cpp:157] Top shape: 16 512 7 7 (401408)
I0304 20:18:26.852843 23191 net.cpp:165] Memory required for data: 3611066432
I0304 20:18:26.852847 23191 layer_factory.hpp:77] Creating layer res5b_branch2a_relu
I0304 20:18:26.852850 23191 net.cpp:100] Creating Layer res5b_branch2a_relu
I0304 20:18:26.852854 23191 net.cpp:434] res5b_branch2a_relu <- res5b_branch2a
I0304 20:18:26.852857 23191 net.cpp:395] res5b_branch2a_relu -> res5b_branch2a (in-place)
I0304 20:18:26.852975 23191 net.cpp:150] Setting up res5b_branch2a_relu
I0304 20:18:26.852980 23191 net.cpp:157] Top shape: 16 512 7 7 (401408)
I0304 20:18:26.852982 23191 net.cpp:165] Memory required for data: 3612672064
I0304 20:18:26.852983 23191 layer_factory.hpp:77] Creating layer res5b_branch2b
I0304 20:18:26.852989 23191 net.cpp:100] Creating Layer res5b_branch2b
I0304 20:18:26.852991 23191 net.cpp:434] res5b_branch2b <- res5b_branch2a
I0304 20:18:26.852995 23191 net.cpp:408] res5b_branch2b -> res5b_branch2b
I0304 20:18:26.856878 23191 net.cpp:150] Setting up res5b_branch2b
I0304 20:18:26.856900 23191 net.cpp:157] Top shape: 16 512 7 7 (401408)
I0304 20:18:26.856904 23191 net.cpp:165] Memory required for data: 3614277696
I0304 20:18:26.856909 23191 layer_factory.hpp:77] Creating layer bn5b_branch2b
I0304 20:18:26.856915 23191 net.cpp:100] Creating Layer bn5b_branch2b
I0304 20:18:26.856920 23191 net.cpp:434] bn5b_branch2b <- res5b_branch2b
I0304 20:18:26.856925 23191 net.cpp:395] bn5b_branch2b -> res5b_branch2b (in-place)
I0304 20:18:26.857097 23191 net.cpp:150] Setting up bn5b_branch2b
I0304 20:18:26.857101 23191 net.cpp:157] Top shape: 16 512 7 7 (401408)
I0304 20:18:26.857103 23191 net.cpp:165] Memory required for data: 3615883328
I0304 20:18:26.857107 23191 layer_factory.hpp:77] Creating layer scale5b_branch2b
I0304 20:18:26.857112 23191 net.cpp:100] Creating Layer scale5b_branch2b
I0304 20:18:26.857115 23191 net.cpp:434] scale5b_branch2b <- res5b_branch2b
I0304 20:18:26.857116 23191 net.cpp:395] scale5b_branch2b -> res5b_branch2b (in-place)
I0304 20:18:26.857151 23191 layer_factory.hpp:77] Creating layer scale5b_branch2b
I0304 20:18:26.857242 23191 net.cpp:150] Setting up scale5b_branch2b
I0304 20:18:26.857246 23191 net.cpp:157] Top shape: 16 512 7 7 (401408)
I0304 20:18:26.857249 23191 net.cpp:165] Memory required for data: 3617488960
I0304 20:18:26.857252 23191 layer_factory.hpp:77] Creating layer res5b_branch2b_relu
I0304 20:18:26.857256 23191 net.cpp:100] Creating Layer res5b_branch2b_relu
I0304 20:18:26.857259 23191 net.cpp:434] res5b_branch2b_relu <- res5b_branch2b
I0304 20:18:26.857261 23191 net.cpp:395] res5b_branch2b_relu -> res5b_branch2b (in-place)
I0304 20:18:26.857478 23191 net.cpp:150] Setting up res5b_branch2b_relu
I0304 20:18:26.857484 23191 net.cpp:157] Top shape: 16 512 7 7 (401408)
I0304 20:18:26.857486 23191 net.cpp:165] Memory required for data: 3619094592
I0304 20:18:26.857488 23191 layer_factory.hpp:77] Creating layer res5b_branch2c
I0304 20:18:26.857494 23191 net.cpp:100] Creating Layer res5b_branch2c
I0304 20:18:26.857496 23191 net.cpp:434] res5b_branch2c <- res5b_branch2b
I0304 20:18:26.857501 23191 net.cpp:408] res5b_branch2c -> res5b_branch2c
I0304 20:18:26.859241 23191 net.cpp:150] Setting up res5b_branch2c
I0304 20:18:26.859249 23191 net.cpp:157] Top shape: 16 2048 7 7 (1605632)
I0304 20:18:26.859251 23191 net.cpp:165] Memory required for data: 3625517120
I0304 20:18:26.859254 23191 layer_factory.hpp:77] Creating layer bn5b_branch2c
I0304 20:18:26.859258 23191 net.cpp:100] Creating Layer bn5b_branch2c
I0304 20:18:26.859261 23191 net.cpp:434] bn5b_branch2c <- res5b_branch2c
I0304 20:18:26.859264 23191 net.cpp:395] bn5b_branch2c -> res5b_branch2c (in-place)
I0304 20:18:26.859432 23191 net.cpp:150] Setting up bn5b_branch2c
I0304 20:18:26.859436 23191 net.cpp:157] Top shape: 16 2048 7 7 (1605632)
I0304 20:18:26.859438 23191 net.cpp:165] Memory required for data: 3631939648
I0304 20:18:26.859442 23191 layer_factory.hpp:77] Creating layer scale5b_branch2c
I0304 20:18:26.859447 23191 net.cpp:100] Creating Layer scale5b_branch2c
I0304 20:18:26.859448 23191 net.cpp:434] scale5b_branch2c <- res5b_branch2c
I0304 20:18:26.859450 23191 net.cpp:395] scale5b_branch2c -> res5b_branch2c (in-place)
I0304 20:18:26.859482 23191 layer_factory.hpp:77] Creating layer scale5b_branch2c
I0304 20:18:26.859575 23191 net.cpp:150] Setting up scale5b_branch2c
I0304 20:18:26.859578 23191 net.cpp:157] Top shape: 16 2048 7 7 (1605632)
I0304 20:18:26.859580 23191 net.cpp:165] Memory required for data: 3638362176
I0304 20:18:26.859583 23191 layer_factory.hpp:77] Creating layer res5b
I0304 20:18:26.859587 23191 net.cpp:100] Creating Layer res5b
I0304 20:18:26.859591 23191 net.cpp:434] res5b <- res5a_res5a_relu_0_split_1
I0304 20:18:26.859592 23191 net.cpp:434] res5b <- res5b_branch2c
I0304 20:18:26.859596 23191 net.cpp:408] res5b -> res5b
I0304 20:18:26.859616 23191 net.cpp:150] Setting up res5b
I0304 20:18:26.859618 23191 net.cpp:157] Top shape: 16 2048 7 7 (1605632)
I0304 20:18:26.859621 23191 net.cpp:165] Memory required for data: 3644784704
I0304 20:18:26.859622 23191 layer_factory.hpp:77] Creating layer res5b_relu
I0304 20:18:26.859625 23191 net.cpp:100] Creating Layer res5b_relu
I0304 20:18:26.859628 23191 net.cpp:434] res5b_relu <- res5b
I0304 20:18:26.859630 23191 net.cpp:395] res5b_relu -> res5b (in-place)
I0304 20:18:26.859838 23191 net.cpp:150] Setting up res5b_relu
I0304 20:18:26.859844 23191 net.cpp:157] Top shape: 16 2048 7 7 (1605632)
I0304 20:18:26.859846 23191 net.cpp:165] Memory required for data: 3651207232
I0304 20:18:26.859848 23191 layer_factory.hpp:77] Creating layer res5b_res5b_relu_0_split
I0304 20:18:26.859853 23191 net.cpp:100] Creating Layer res5b_res5b_relu_0_split
I0304 20:18:26.859854 23191 net.cpp:434] res5b_res5b_relu_0_split <- res5b
I0304 20:18:26.859858 23191 net.cpp:408] res5b_res5b_relu_0_split -> res5b_res5b_relu_0_split_0
I0304 20:18:26.859861 23191 net.cpp:408] res5b_res5b_relu_0_split -> res5b_res5b_relu_0_split_1
I0304 20:18:26.859896 23191 net.cpp:150] Setting up res5b_res5b_relu_0_split
I0304 20:18:26.859899 23191 net.cpp:157] Top shape: 16 2048 7 7 (1605632)
I0304 20:18:26.859901 23191 net.cpp:157] Top shape: 16 2048 7 7 (1605632)
I0304 20:18:26.859904 23191 net.cpp:165] Memory required for data: 3664052288
I0304 20:18:26.859905 23191 layer_factory.hpp:77] Creating layer res5c_branch2a
I0304 20:18:26.859910 23191 net.cpp:100] Creating Layer res5c_branch2a
I0304 20:18:26.859912 23191 net.cpp:434] res5c_branch2a <- res5b_res5b_relu_0_split_0
I0304 20:18:26.859915 23191 net.cpp:408] res5c_branch2a -> res5c_branch2a
I0304 20:18:26.861860 23191 net.cpp:150] Setting up res5c_branch2a
I0304 20:18:26.861876 23191 net.cpp:157] Top shape: 16 512 7 7 (401408)
I0304 20:18:26.861878 23191 net.cpp:165] Memory required for data: 3665657920
I0304 20:18:26.861882 23191 layer_factory.hpp:77] Creating layer bn5c_branch2a
I0304 20:18:26.861888 23191 net.cpp:100] Creating Layer bn5c_branch2a
I0304 20:18:26.861891 23191 net.cpp:434] bn5c_branch2a <- res5c_branch2a
I0304 20:18:26.861896 23191 net.cpp:395] bn5c_branch2a -> res5c_branch2a (in-place)
I0304 20:18:26.862066 23191 net.cpp:150] Setting up bn5c_branch2a
I0304 20:18:26.862069 23191 net.cpp:157] Top shape: 16 512 7 7 (401408)
I0304 20:18:26.862071 23191 net.cpp:165] Memory required for data: 3667263552
I0304 20:18:26.862076 23191 layer_factory.hpp:77] Creating layer scale5c_branch2a
I0304 20:18:26.862082 23191 net.cpp:100] Creating Layer scale5c_branch2a
I0304 20:18:26.862083 23191 net.cpp:434] scale5c_branch2a <- res5c_branch2a
I0304 20:18:26.862085 23191 net.cpp:395] scale5c_branch2a -> res5c_branch2a (in-place)
I0304 20:18:26.862119 23191 layer_factory.hpp:77] Creating layer scale5c_branch2a
I0304 20:18:26.862212 23191 net.cpp:150] Setting up scale5c_branch2a
I0304 20:18:26.862216 23191 net.cpp:157] Top shape: 16 512 7 7 (401408)
I0304 20:18:26.862217 23191 net.cpp:165] Memory required for data: 3668869184
I0304 20:18:26.862221 23191 layer_factory.hpp:77] Creating layer res5c_branch2a_relu
I0304 20:18:26.862224 23191 net.cpp:100] Creating Layer res5c_branch2a_relu
I0304 20:18:26.862226 23191 net.cpp:434] res5c_branch2a_relu <- res5c_branch2a
I0304 20:18:26.862229 23191 net.cpp:395] res5c_branch2a_relu -> res5c_branch2a (in-place)
I0304 20:18:26.862347 23191 net.cpp:150] Setting up res5c_branch2a_relu
I0304 20:18:26.862352 23191 net.cpp:157] Top shape: 16 512 7 7 (401408)
I0304 20:18:26.862354 23191 net.cpp:165] Memory required for data: 3670474816
I0304 20:18:26.862356 23191 layer_factory.hpp:77] Creating layer res5c_branch2b
I0304 20:18:26.862361 23191 net.cpp:100] Creating Layer res5c_branch2b
I0304 20:18:26.862365 23191 net.cpp:434] res5c_branch2b <- res5c_branch2a
I0304 20:18:26.862367 23191 net.cpp:408] res5c_branch2b -> res5c_branch2b
I0304 20:18:26.866480 23191 net.cpp:150] Setting up res5c_branch2b
I0304 20:18:26.866508 23191 net.cpp:157] Top shape: 16 512 7 7 (401408)
I0304 20:18:26.866511 23191 net.cpp:165] Memory required for data: 3672080448
I0304 20:18:26.866518 23191 layer_factory.hpp:77] Creating layer bn5c_branch2b
I0304 20:18:26.866528 23191 net.cpp:100] Creating Layer bn5c_branch2b
I0304 20:18:26.866533 23191 net.cpp:434] bn5c_branch2b <- res5c_branch2b
I0304 20:18:26.866541 23191 net.cpp:395] bn5c_branch2b -> res5c_branch2b (in-place)
I0304 20:18:26.866740 23191 net.cpp:150] Setting up bn5c_branch2b
I0304 20:18:26.866745 23191 net.cpp:157] Top shape: 16 512 7 7 (401408)
I0304 20:18:26.866747 23191 net.cpp:165] Memory required for data: 3673686080
I0304 20:18:26.866752 23191 layer_factory.hpp:77] Creating layer scale5c_branch2b
I0304 20:18:26.866757 23191 net.cpp:100] Creating Layer scale5c_branch2b
I0304 20:18:26.866760 23191 net.cpp:434] scale5c_branch2b <- res5c_branch2b
I0304 20:18:26.866762 23191 net.cpp:395] scale5c_branch2b -> res5c_branch2b (in-place)
I0304 20:18:26.866797 23191 layer_factory.hpp:77] Creating layer scale5c_branch2b
I0304 20:18:26.866891 23191 net.cpp:150] Setting up scale5c_branch2b
I0304 20:18:26.866895 23191 net.cpp:157] Top shape: 16 512 7 7 (401408)
I0304 20:18:26.866897 23191 net.cpp:165] Memory required for data: 3675291712
I0304 20:18:26.866900 23191 layer_factory.hpp:77] Creating layer res5c_branch2b_relu
I0304 20:18:26.866904 23191 net.cpp:100] Creating Layer res5c_branch2b_relu
I0304 20:18:26.866906 23191 net.cpp:434] res5c_branch2b_relu <- res5c_branch2b
I0304 20:18:26.866909 23191 net.cpp:395] res5c_branch2b_relu -> res5c_branch2b (in-place)
I0304 20:18:26.867128 23191 net.cpp:150] Setting up res5c_branch2b_relu
I0304 20:18:26.867136 23191 net.cpp:157] Top shape: 16 512 7 7 (401408)
I0304 20:18:26.867137 23191 net.cpp:165] Memory required for data: 3676897344
I0304 20:18:26.867139 23191 layer_factory.hpp:77] Creating layer res5c_branch2c
I0304 20:18:26.867146 23191 net.cpp:100] Creating Layer res5c_branch2c
I0304 20:18:26.867147 23191 net.cpp:434] res5c_branch2c <- res5c_branch2b
I0304 20:18:26.867151 23191 net.cpp:408] res5c_branch2c -> res5c_branch2c
I0304 20:18:26.869010 23191 net.cpp:150] Setting up res5c_branch2c
I0304 20:18:26.869019 23191 net.cpp:157] Top shape: 16 2048 7 7 (1605632)
I0304 20:18:26.869020 23191 net.cpp:165] Memory required for data: 3683319872
I0304 20:18:26.869024 23191 layer_factory.hpp:77] Creating layer bn5c_branch2c
I0304 20:18:26.869029 23191 net.cpp:100] Creating Layer bn5c_branch2c
I0304 20:18:26.869031 23191 net.cpp:434] bn5c_branch2c <- res5c_branch2c
I0304 20:18:26.869035 23191 net.cpp:395] bn5c_branch2c -> res5c_branch2c (in-place)
I0304 20:18:26.869205 23191 net.cpp:150] Setting up bn5c_branch2c
I0304 20:18:26.869210 23191 net.cpp:157] Top shape: 16 2048 7 7 (1605632)
I0304 20:18:26.869211 23191 net.cpp:165] Memory required for data: 3689742400
I0304 20:18:26.869215 23191 layer_factory.hpp:77] Creating layer scale5c_branch2c
I0304 20:18:26.869220 23191 net.cpp:100] Creating Layer scale5c_branch2c
I0304 20:18:26.869221 23191 net.cpp:434] scale5c_branch2c <- res5c_branch2c
I0304 20:18:26.869225 23191 net.cpp:395] scale5c_branch2c -> res5c_branch2c (in-place)
I0304 20:18:26.869254 23191 layer_factory.hpp:77] Creating layer scale5c_branch2c
I0304 20:18:26.869350 23191 net.cpp:150] Setting up scale5c_branch2c
I0304 20:18:26.869355 23191 net.cpp:157] Top shape: 16 2048 7 7 (1605632)
I0304 20:18:26.869356 23191 net.cpp:165] Memory required for data: 3696164928
I0304 20:18:26.869360 23191 layer_factory.hpp:77] Creating layer res5c
I0304 20:18:26.869364 23191 net.cpp:100] Creating Layer res5c
I0304 20:18:26.869366 23191 net.cpp:434] res5c <- res5b_res5b_relu_0_split_1
I0304 20:18:26.869369 23191 net.cpp:434] res5c <- res5c_branch2c
I0304 20:18:26.869371 23191 net.cpp:408] res5c -> res5c
I0304 20:18:26.869391 23191 net.cpp:150] Setting up res5c
I0304 20:18:26.869395 23191 net.cpp:157] Top shape: 16 2048 7 7 (1605632)
I0304 20:18:26.869397 23191 net.cpp:165] Memory required for data: 3702587456
I0304 20:18:26.869398 23191 layer_factory.hpp:77] Creating layer res5c_relu
I0304 20:18:26.869402 23191 net.cpp:100] Creating Layer res5c_relu
I0304 20:18:26.869405 23191 net.cpp:434] res5c_relu <- res5c
I0304 20:18:26.869407 23191 net.cpp:395] res5c_relu -> res5c (in-place)
I0304 20:18:26.869613 23191 net.cpp:150] Setting up res5c_relu
I0304 20:18:26.869621 23191 net.cpp:157] Top shape: 16 2048 7 7 (1605632)
I0304 20:18:26.869622 23191 net.cpp:165] Memory required for data: 3709009984
I0304 20:18:26.869624 23191 layer_factory.hpp:77] Creating layer pool5
I0304 20:18:26.869629 23191 net.cpp:100] Creating Layer pool5
I0304 20:18:26.869632 23191 net.cpp:434] pool5 <- res5c
I0304 20:18:26.869635 23191 net.cpp:408] pool5 -> pool5
I0304 20:18:26.869866 23191 net.cpp:150] Setting up pool5
I0304 20:18:26.869874 23191 net.cpp:157] Top shape: 16 2048 1 1 (32768)
I0304 20:18:26.869875 23191 net.cpp:165] Memory required for data: 3709141056
I0304 20:18:26.869877 23191 layer_factory.hpp:77] Creating layer drop5
I0304 20:18:26.869884 23191 net.cpp:100] Creating Layer drop5
I0304 20:18:26.869886 23191 net.cpp:434] drop5 <- pool5
I0304 20:18:26.869889 23191 net.cpp:395] drop5 -> pool5 (in-place)
I0304 20:18:26.869913 23191 net.cpp:150] Setting up drop5
I0304 20:18:26.869917 23191 net.cpp:157] Top shape: 16 2048 1 1 (32768)
I0304 20:18:26.869918 23191 net.cpp:165] Memory required for data: 3709272128
I0304 20:18:26.869920 23191 layer_factory.hpp:77] Creating layer fc8_
I0304 20:18:26.869926 23191 net.cpp:100] Creating Layer fc8_
I0304 20:18:26.869928 23191 net.cpp:434] fc8_ <- pool5
I0304 20:18:26.869932 23191 net.cpp:408] fc8_ -> fc8_
I0304 20:18:26.900562 23191 net.cpp:150] Setting up fc8_
I0304 20:18:26.900581 23191 net.cpp:157] Top shape: 16 730 (11680)
I0304 20:18:26.900583 23191 net.cpp:165] Memory required for data: 3709318848
I0304 20:18:26.900589 23191 layer_factory.hpp:77] Creating layer loss
I0304 20:18:26.900598 23191 net.cpp:100] Creating Layer loss
I0304 20:18:26.900601 23191 net.cpp:434] loss <- fc8_
I0304 20:18:26.900604 23191 net.cpp:434] loss <- label
I0304 20:18:26.900609 23191 net.cpp:408] loss -> loss
I0304 20:18:26.900619 23191 layer_factory.hpp:77] Creating layer loss
…
