…
I0305 18:55:06.725692 16471 net.cpp:58] Initializing net from parameters: 
name: "Res50-IDE"
state {
  phase: TRAIN
  level: 0
  stage: ""
}
layer {
  name: "data"
  type: "ImageData"
  top: "data"
  top: "label"
  include {
    phase: TRAIN
  }
  transform_param {
    mirror: true
    crop_size: 224
    mean_value: 104
    mean_value: 117
    mean_value: 124
  }
  image_data_param {
    source: "evaluation/data/CUHK03/train_cuhk03_labeled.txt"
    batch_size: 32
    shuffle: true
    new_height: 256
    new_width: 256
    is_color: true
    root_folder: "evaluation/data/CUHK03/"
  }
}
layer {
  name: "conv1"
  type: "Convolution"
  bottom: "data"
  top: "conv1"
  convolution_param {
    num_output: 64
    pad: 3
    kernel_size: 7
    stride: 2
  }
}
layer {
  name: "bn_conv1"
  type: "BatchNorm"
  bottom: "conv1"
  top: "conv1"
  batch_norm_param {
    use_global_stats: true
  }
}
layer {
  name: "scale_conv1"
  type: "Scale"
  bottom: "conv1"
  top: "conv1"
  scale_param {
    bias_term: true
  }
}
layer {
  name: "conv1_relu"
  type: "ReLU"
  bottom: "conv1"
  top: "conv1"
}
layer {
  name: "pool1"
  type: "Pooling"
  bottom: "conv1"
  top: "pool1"
  pooling_param {
    pool: MAX
    kernel_size: 3
    stride: 2
  }
}
layer {
  name: "res2a_branch1"
  type: "Convolution"
  bottom: "pool1"
  top: "res2a_branch1"
  convolution_param {
    num_output: 256
    bias_term: false
    pad: 0
    kernel_size: 1
    stride: 1
  }
}
layer {
  name: "bn2a_branch1"
  type: "BatchNorm"
  bottom: "res2a_branch1"
  top: "res2a_branch1"
  batch_norm_param {
    use_global_stats: true
  }
}
layer {
  name: "scale2a_branch1"
  type: "Scale"
  bottom: "res2a_branch1"
  top: "res2a_branch1"
  scale_param {
    bias_term: true
  }
}
layer {
  name: "res2a_branch2a"
  type: "Convolution"
  bottom: "pool1"
  top: "res2a_branch2a"
  convolution_param {
    num_output: 64
    bias_term: false
    pad: 0
    kernel_size: 1
    stride: 1
  }
}
layer {
  name: "bn2a_branch2a"
  type: "BatchNorm"
  bottom: "res2a_branch2a"
  top: "res2a_branch2a"
  batch_norm_param {
    use_global_stats: true
  }
}
layer {
  name: "scale2a_branch2a"
  type: "Scale"
  bottom: "res2a_branch2a"
  top: "res2a_branch2a"
  scale_param {
    bias_term: true
  }
}
layer {
  name: "res2a_branch2a_relu"
  type: "ReLU"
  bottom: "res2a_branch2a"
  top: "res2a_branch2a"
}
layer {
  name: "res2a_branch2b"
  type: "Convolution"
  bottom: "res2a_branch2a"
  top: "res2a_branch2b"
  convolution_param {
    num_output: 64
    bias_term: false
    pad: 1
    kernel_size: 3
    stride: 1
  }
}
layer {
  name: "bn2a_branch2b"
  type: "BatchNorm"
  bottom: "res2a_branch2b"
  top: "res2a_branch2b"
  batch_norm_param {
    use_global_stats: true
  }
}
layer {
  name: "scale2a_branch2b"
  type: "Scale"
  bottom: "res2a_branch2b"
  top: "res2a_branch2b"
  scale_param {
    bias_term: true
  }
}
layer {
  name: "res2a_branch2b_relu"
  type: "ReLU"
  bottom: "res2a_branch2b"
  top: "res2a_branch2b"
}
layer {
  name: "res2a_branch2c"
  type: "Convolution"
  bottom: "res2a_branch2b"
  top: "res2a_branch2c"
  convolution_param {
    num_output: 256
    bias_term: false
    pad: 0
    kernel_size: 1
    stride: 1
  }
}
layer {
  name: "bn2a_branch2c"
  type: "BatchNorm"
  bottom: "res2a_branch2c"
  top: "res2a_branch2c"
  batch_norm_param {
    use_global_stats: true
  }
}
layer {
  name: "scale2a_branch2c"
  type: "Scale"
  bottom: "res2a_branch2c"
  top: "res2a_branch2c"
  scale_param {
    bias_term: true
  }
}
layer {
  name: "res2a"
  type: "Eltwise"
  bottom: "res2a_branch1"
  bottom: "res2a_branch2c"
  top: "res2a"
}
layer {
  name: "res2a_relu"
  type: "ReLU"
  bottom: "res2a"
  top: "res2a"
}
layer {
  name: "res2b_branch2a"
  type: "Convolution"
  bottom: "res2a"
  top: "res2b_branch2a"
  convolution_param {
    num_output: 64
    bias_term: false
    pad: 0
    kernel_size: 1
    stride: 1
  }
}
layer {
  name: "bn2b_branch2a"
  type: "BatchNorm"
  bottom: "res2b_branch2a"
  top: "res2b_branch2a"
  batch_norm_param {
    use_global_stats: true
  }
}
layer {
  name: "scale2b_branch2a"
  type: "Scale"
  bottom: "res2b_branch2a"
  top: "res2b_branch2a"
  scale_param {
    bias_term: true
  }
}
layer {
  name: "res2b_branch2a_relu"
  type: "ReLU"
  bottom: "res2b_branch2a"
  top: "res2b_branch2a"
}
layer {
  name: "res2b_branch2b"
  type: "Convolution"
  bottom: "res2b_branch2a"
  top: "res2b_branch2b"
  convolution_param {
    num_output: 64
    bias_term: false
    pad: 1
    kernel_size: 3
    stride: 1
  }
}
layer {
  name: "bn2b_branch2b"
  type: "BatchNorm"
  bottom: "res2b_branch2b"
  top: "res2b_branch2b"
  batch_norm_param {
    use_global_stats: true
  }
}
layer {
  name: "scale2b_branch2b"
  type: "Scale"
  bottom: "res2b_branch2b"
  top: "res2b_branch2b"
  scale_param {
    bias_term: true
  }
}
layer {
  name: "res2b_branch2b_relu"
  type: "ReLU"
  bottom: "res2b_branch2b"
  top: "res2b_branch2b"
}
layer {
  name: "res2b_branch2c"
  type: "Convolution"
  bottom: "res2b_branch2b"
  top: "res2b_branch2c"
  convolution_param {
    num_output: 256
    bias_term: false
    pad: 0
    kernel_size: 1
    stride: 1
  }
}
layer {
  name: "bn2b_branch2c"
  type: "BatchNorm"
  bottom: "res2b_branch2c"
  top: "res2b_branch2c"
  batch_norm_param {
    use_global_stats: true
  }
}
layer {
  name: "scale2b_branch2c"
  type: "Scale"
  bottom: "res2b_branch2c"
  top: "res2b_branch2c"
  scale_param {
    bias_term: true
  }
}
layer {
  name: "res2b"
  type: "Eltwise"
  bottom: "res2a"
  bottom: "res2b_branch2c"
  top: "res2b"
}
layer {
  name: "res2b_relu"
  type: "ReLU"
  bottom: "res2b"
  top: "res2b"
}
layer {
  name: "res2c_branch2a"
  type: "Convolution"
  bottom: "res2b"
  top: "res2c_branch2a"
  convolution_param {
    num_output: 64
    bias_term: false
    pad: 0
    kernel_size: 1
    stride: 1
  }
}
layer {
  name: "bn2c_branch2a"
  type: "BatchNorm"
  bottom: "res2c_branch2a"
  top: "res2c_branch2a"
  batch_norm_param {
    use_global_stats: true
  }
}
layer {
  name: "scale2c_branch2a"
  type: "Scale"
  bottom: "res2c_branch2a"
  top: "res2c_branch2a"
  scale_param {
    bias_term: true
  }
}
layer {
  name: "res2c_branch2a_relu"
  type: "ReLU"
  bottom: "res2c_branch2a"
  top: "res2c_branch2a"
}
layer {
  name: "res2c_branch2b"
  type: "Convolution"
  bottom: "res2c_branch2a"
  top: "res2c_branch2b"
  convolution_param {
    num_output: 64
    bias_term: false
    pad: 1
    kernel_size: 3
    stride: 1
  }
}
layer {
  name: "bn2c_branch2b"
  type: "BatchNorm"
  bottom: "res2c_branch2b"
  top: "res2c_branch2b"
  batch_norm_param {
    use_global_stats: true
  }
}
layer {
  name: "scale2c_branch2b"
  type: "Scale"
  bottom: "res2c_branch2b"
  top: "res2c_branch2b"
  scale_param {
    bias_term: true
  }
}
layer {
  name: "res2c_branch2b_relu"
  type: "ReLU"
  bottom: "res2c_branch2b"
  top: "res2c_branch2b"
}
layer {
  name: "res2c_branch2c"
  type: "Convolution"
  bottom: "res2c_branch2b"
  top: "res2c_branch2c"
  convolution_param {
    num_output: 256
    bias_term: false
    pad: 0
    kernel_size: 1
    stride: 1
  }
}
layer {
  name: "bn2c_branch2c"
  type: "BatchNorm"
  bottom: "res2c_branch2c"
  top: "res2c_branch2c"
  batch_norm_param {
    use_global_stats: true
  }
}
layer {
  name: "scale2c_branch2c"
  type: "Scale"
  bottom: "res2c_branch2c"
  top: "res2c_branch2c"
  scale_param {
    bias_term: true
  }
}
layer {
  name: "res2c"
  type: "Eltwise"
  bottom: "res2b"
  bottom: "res2c_branch2c"
  top: "res2c"
}
layer {
  name: "res2c_relu"
  type: "ReLU"
  bottom: "res2c"
  top: "res2c"
}
layer {
  name: "res3a_branch1"
  type: "Convolution"
  bottom: "res2c"
  top: "res3a_branch1"
  convolution_param {
    num_output: 512
    bias_term: false
    pad: 0
    kernel_size: 1
    stride: 2
  }
}
layer {
  name: "bn3a_branch1"
  type: "BatchNorm"
  bottom: "res3a_branch1"
  top: "res3a_branch1"
  batch_norm_param {
    use_global_stats: true
  }
}
layer {
  name: "scale3a_branch1"
  type: "Scale"
  bottom: "res3a_branch1"
  top: "res3a_branch1"
  scale_param {
    bias_term: true
  }
}
layer {
  name: "res3a_branch2a"
  type: "Convolution"
  bottom: "res2c"
  top: "res3a_branch2a"
  convolution_param {
    num_output: 128
    bias_term: false
    pad: 0
    kernel_size: 1
    stride: 2
  }
}
layer {
  name: "bn3a_branch2a"
  type: "BatchNorm"
  bottom: "res3a_branch2a"
  top: "res3a_branch2a"
  batch_norm_param {
    use_global_stats: true
  }
}
layer {
  name: "scale3a_branch2a"
  type: "Scale"
  bottom: "res3a_branch2a"
  top: "res3a_branch2a"
  scale_param {
    bias_term: true
  }
}
layer {
  name: "res3a_branch2a_relu"
  type: "ReLU"
  bottom: "res3a_branch2a"
  top: "res3a_branch2a"
}
layer {
  name: "res3a_branch2b"
  type: "Convolution"
  bottom: "res3a_branch2a"
  top: "res3a_branch2b"
  convolution_param {
    num_output: 128
    bias_term: false
    pad: 1
    kernel_size: 3
    stride: 1
  }
}
layer {
  name: "bn3a_branch2b"
  type: "BatchNorm"
  bottom: "res3a_branch2b"
  top: "res3a_branch2b"
  batch_norm_param {
    use_global_stats: true
  }
}
layer {
  name: "scale3a_branch2b"
  type: "Scale"
  bottom: "res3a_branch2b"
  top: "res3a_branch2b"
  scale_param {
    bias_term: true
  }
}
layer {
  name: "res3a_branch2b_relu"
  type: "ReLU"
  bottom: "res3a_branch2b"
  top: "res3a_branch2b"
}
layer {
  name: "res3a_branch2c"
  type: "Convolution"
  bottom: "res3a_branch2b"
  top: "res3a_branch2c"
  convolution_param {
    num_output: 512
    bias_term: false
    pad: 0
    kernel_size: 1
    stride: 1
  }
}
layer {
  name: "bn3a_branch2c"
  type: "BatchNorm"
  bottom: "res3a_branch2c"
  top: "res3a_branch2c"
  batch_norm_param {
    use_global_stats: true
  }
}
layer {
  name: "scale3a_branch2c"
  type: "Scale"
  bottom: "res3a_branch2c"
  top: "res3a_branch2c"
  scale_param {
    bias_term: true
  }
}
layer {
  name: "res3a"
  type: "Eltwise"
  bottom: "res3a_branch1"
  bottom: "res3a_branch2c"
  top: "res3a"
}
layer {
  name: "res3a_relu"
  type: "ReLU"
  bottom: "res3a"
  top: "res3a"
}
layer {
  name: "res3b_branch2a"
  type: "Convolution"
  bottom: "res3a"
  top: "res3b_branch2a"
  convolution_param {
    num_output: 128
    bias_term: false
    pad: 0
    kernel_size: 1
    stride: 1
  }
}
layer {
  name: "bn3b_branch2a"
  type: "BatchNorm"
  bottom: "res3b_branch2a"
  top: "res3b_branch2a"
  batch_norm_param {
    use_global_stats: true
  }
}
layer {
  name: "scale3b_branch2a"
  type: "Scale"
  bottom: "res3b_branch2a"
  top: "res3b_branch2a"
  scale_param {
    bias_term: true
  }
}
layer {
  name: "res3b_branch2a_relu"
  type: "ReLU"
  bottom: "res3b_branch2a"
  top: "res3b_branch2a"
}
layer {
  name: "res3b_branch2b"
  type: "Convolution"
  bottom: "res3b_branch2a"
  top: "res3b_branch2b"
  convolution_param {
    num_output: 128
    bias_term: false
    pad: 1
    kernel_size: 3
    stride: 1
  }
}
layer {
  name: "bn3b_branch2b"
  type: "BatchNorm"
  bottom: "res3b_branch2b"
  top: "res3b_branch2b"
  batch_norm_param {
    use_global_stats: true
  }
}
layer {
  name: "scale3b_branch2b"
  type: "Scale"
  bottom: "res3b_branch2b"
  top: "res3b_branch2b"
  scale_param {
    bias_term: true
  }
}
layer {
  name: "res3b_branch2b_relu"
  type: "ReLU"
  bottom: "res3b_branch2b"
  top: "res3b_branch2b"
}
layer {
  name: "res3b_branch2c"
  type: "Convolution"
  bottom: "res3b_branch2b"
  top: "res3b_branch2c"
  convolution_param {
    num_output: 512
    bias_term: false
    pad: 0
    kernel_size: 1
    stride: 1
  }
}
layer {
  name: "bn3b_branch2c"
  type: "BatchNorm"
  bottom: "res3b_branch2c"
  top: "res3b_branch2c"
  batch_norm_param {
    use_global_stats: true
  }
}
layer {
  name: "scale3b_branch2c"
  type: "Scale"
  bottom: "res3b_branch2c"
  top: "res3b_branch2c"
  scale_param {
    bias_term: true
  }
}
layer {
  name: "res3b"
  type: "Eltwise"
  bottom: "res3a"
  bottom: "res3b_branch2c"
  top: "res3b"
}
layer {
  name: "res3b_relu"
  type: "ReLU"
  bottom: "res3b"
  top: "res3b"
}
layer {
  name: "res3c_branch2a"
  type: "Convolution"
  bottom: "res3b"
  top: "res3c_branch2a"
  convolution_param {
    num_output: 128
    bias_term: false
    pad: 0
    kernel_size: 1
    stride: 1
  }
}
layer {
  name: "bn3c_branch2a"
  type: "BatchNorm"
  bottom: "res3c_branch2a"
  top: "res3c_branch2a"
  batch_norm_param {
    use_global_stats: true
  }
}
layer {
  name: "scale3c_branch2a"
  type: "Scale"
  bottom: "res3c_branch2a"
  top: "res3c_branch2a"
  scale_param {
    bias_term: true
  }
}
layer {
  name: "res3c_branch2a_relu"
  type: "ReLU"
  bottom: "res3c_branch2a"
  top: "res3c_branch2a"
}
layer {
  name: "res3c_branch2b"
  type: "Convolution"
  bottom: "res3c_branch2a"
  top: "res3c_branch2b"
  convolution_param {
    num_output: 128
    bias_term: false
    pad: 1
    kernel_size: 3
    stride: 1
  }
}
layer {
  name: "bn3c_branch2b"
  type: "BatchNorm"
  bottom: "res3c_branch2b"
  top: "res3c_branch2b"
  batch_norm_param {
    use_global_stats: true
  }
}
layer {
  name: "scale3c_branch2b"
  type: "Scale"
  bottom: "res3c_branch2b"
  top: "res3c_branch2b"
  scale_param {
    bias_term: true
  }
}
layer {
  name: "res3c_branch2b_relu"
  type: "ReLU"
  bottom: "res3c_branch2b"
  top: "res3c_branch2b"
}
layer {
  name: "res3c_branch2c"
  type: "Convolution"
  bottom: "res3c_branch2b"
  top: "res3c_branch2c"
  convolution_param {
    num_output: 512
    bias_term: false
    pad: 0
    kernel_size: 1
    stride: 1
  }
}
layer {
  name: "bn3c_branch2c"
  type: "BatchNorm"
  bottom: "res3c_branch2c"
  top: "res3c_branch2c"
  batch_norm_param {
    use_global_stats: true
  }
}
layer {
  name: "scale3c_branch2c"
  type: "Scale"
  bottom: "res3c_branch2c"
  top: "res3c_branch2c"
  scale_param {
    bias_term: true
  }
}
layer {
  name: "res3c"
  type: "Eltwise"
  bottom: "res3b"
  bottom: "res3c_branch2c"
  top: "res3c"
}
layer {
  name: "res3c_relu"
  type: "ReLU"
  bottom: "res3c"
  top: "res3c"
}
layer {
  name: "res3d_branch2a"
  type: "Convolution"
  bottom: "res3c"
  top: "res3d_branch2a"
  convolution_param {
    num_output: 128
    bias_term: false
    pad: 0
    kernel_size: 1
    stride: 1
  }
}
layer {
  name: "bn3d_branch2a"
  type: "BatchNorm"
  bottom: "res3d_branch2a"
  top: "res3d_branch2a"
  batch_norm_param {
    use_global_stats: true
  }
}
layer {
  name: "scale3d_branch2a"
  type: "Scale"
  bottom: "res3d_branch2a"
  top: "res3d_branch2a"
  scale_param {
    bias_term: true
  }
}
layer {
  name: "res3d_branch2a_relu"
  type: "ReLU"
  bottom: "res3d_branch2a"
  top: "res3d_branch2a"
}
layer {
  name: "res3d_branch2b"
  type: "Convolution"
  bottom: "res3d_branch2a"
  top: "res3d_branch2b"
  convolution_param {
    num_output: 128
    bias_term: false
    pad: 1
    kernel_size: 3
    stride: 1
  }
}
layer {
  name: "bn3d_branch2b"
  type: "BatchNorm"
  bottom: "res3d_branch2b"
  top: "res3d_branch2b"
  batch_norm_param {
    use_global_stats: true
  }
}
layer {
  name: "scale3d_branch2b"
  type: "Scale"
  bottom: "res3d_branch2b"
  top: "res3d_branch2b"
  scale_param {
    bias_term: true
  }
}
layer {
  name: "res3d_branch2b_relu"
  type: "ReLU"
  bottom: "res3d_branch2b"
  top: "res3d_branch2b"
}
layer {
  name: "res3d_branch2c"
  type: "Convolution"
  bottom: "res3d_branch2b"
  top: "res3d_branch2c"
  convolution_param {
    num_output: 512
    bias_term: false
    pad: 0
    kernel_size: 1
    stride: 1
  }
}
layer {
  name: "bn3d_branch2c"
  type: "BatchNorm"
  bottom: "res3d_branch2c"
  top: "res3d_branch2c"
  batch_norm_param {
    use_global_stats: true
  }
}
layer {
  name: "scale3d_branch2c"
  type: "Scale"
  bottom: "res3d_branch2c"
  top: "res3d_branch2c"
  scale_param {
    bias_term: true
  }
}
layer {
  name: "res3d"
  type: "Eltwise"
  bottom: "res3c"
  bottom: "res3d_branch2c"
  top: "res3d"
}
layer {
  name: "res3d_relu"
  type: "ReLU"
  bottom: "res3d"
  top: "res3d"
}
layer {
  name: "res4a_branch1"
  type: "Convolution"
  bottom: "res3d"
  top: "res4a_branch1"
  convolution_param {
    num_output: 1024
    bias_term: false
    pad: 0
    kernel_size: 1
    stride: 2
  }
}
layer {
  name: "bn4a_branch1"
  type: "BatchNorm"
  bottom: "res4a_branch1"
  top: "res4a_branch1"
  batch_norm_param {
    use_global_stats: true
  }
}
layer {
  name: "scale4a_branch1"
  type: "Scale"
  bottom: "res4a_branch1"
  top: "res4a_branch1"
  scale_param {
    bias_term: true
  }
}
layer {
  name: "res4a_branch2a"
  type: "Convolution"
  bottom: "res3d"
  top: "res4a_branch2a"
  convolution_param {
    num_output: 256
    bias_term: false
    pad: 0
    kernel_size: 1
    stride: 2
  }
}
layer {
  name: "bn4a_branch2a"
  type: "BatchNorm"
  bottom: "res4a_branch2a"
  top: "res4a_branch2a"
  batch_norm_param {
    use_global_stats: true
  }
}
layer {
  name: "scale4a_branch2a"
  type: "Scale"
  bottom: "res4a_branch2a"
  top: "res4a_branch2a"
  scale_param {
    bias_term: true
  }
}
layer {
  name: "res4a_branch2a_relu"
  type: "ReLU"
  bottom: "res4a_branch2a"
  top: "res4a_branch2a"
}
layer {
  name: "res4a_branch2b"
  type: "Convolution"
  bottom: "res4a_branch2a"
  top: "res4a_branch2b"
  convolution_param {
    num_output: 256
    bias_term: false
    pad: 1
    kernel_size: 3
    stride: 1
  }
}
layer {
  name: "bn4a_branch2b"
  type: "BatchNorm"
  bottom: "res4a_branch2b"
  top: "res4a_branch2b"
  batch_norm_param {
    use_global_stats: true
  }
}
layer {
  name: "scale4a_branch2b"
  type: "Scale"
  bottom: "res4a_branch2b"
  top: "res4a_branch2b"
  scale_param {
    bias_term: true
  }
}
layer {
  name: "res4a_branch2b_relu"
  type: "ReLU"
  bottom: "res4a_branch2b"
  top: "res4a_branch2b"
}
layer {
  name: "res4a_branch2c"
  type: "Convolution"
  bottom: "res4a_branch2b"
  top: "res4a_branch2c"
  convolution_param {
    num_output: 1024
    bias_term: false
    pad: 0
    kernel_size: 1
    stride: 1
  }
}
layer {
  name: "bn4a_branch2c"
  type: "BatchNorm"
  bottom: "res4a_branch2c"
  top: "res4a_branch2c"
  batch_norm_param {
    use_global_stats: true
  }
}
layer {
  name: "scale4a_branch2c"
  type: "Scale"
  bottom: "res4a_branch2c"
  top: "res4a_branch2c"
  scale_param {
    bias_term: true
  }
}
layer {
  name: "res4a"
  type: "Eltwise"
  bottom: "res4a_branch1"
  bottom: "res4a_branch2c"
  top: "res4a"
}
layer {
  name: "res4a_relu"
  type: "ReLU"
  bottom: "res4a"
  top: "res4a"
}
layer {
  name: "res4b_branch2a"
  type: "Convolution"
  bottom: "res4a"
  top: "res4b_branch2a"
  convolution_param {
    num_output: 256
    bias_term: false
    pad: 0
    kernel_size: 1
    stride: 1
  }
}
layer {
  name: "bn4b_branch2a"
  type: "BatchNorm"
  bottom: "res4b_branch2a"
  top: "res4b_branch2a"
  batch_norm_param {
    use_global_stats: true
  }
}
layer {
  name: "scale4b_branch2a"
  type: "Scale"
  bottom: "res4b_branch2a"
  top: "res4b_branch2a"
  scale_param {
    bias_term: true
  }
}
layer {
  name: "res4b_branch2a_relu"
  type: "ReLU"
  bottom: "res4b_branch2a"
  top: "res4b_branch2a"
}
layer {
  name: "res4b_branch2b"
  type: "Convolution"
  bottom: "res4b_branch2a"
  top: "res4b_branch2b"
  convolution_param {
    num_output: 256
    bias_term: false
    pad: 1
    kernel_size: 3
    stride: 1
  }
}
layer {
  name: "bn4b_branch2b"
  type: "BatchNorm"
  bottom: "res4b_branch2b"
  top: "res4b_branch2b"
  batch_norm_param {
    use_global_stats: true
  }
}
layer {
  name: "scale4b_branch2b"
  type: "Scale"
  bottom: "res4b_branch2b"
  top: "res4b_branch2b"
  scale_param {
    bias_term: true
  }
}
layer {
  name: "res4b_branch2b_relu"
  type: "ReLU"
  bottom: "res4b_branch2b"
  top: "res4b_branch2b"
}
layer {
  name: "res4b_branch2c"
  type: "Convolution"
  bottom: "res4b_branch2b"
  top: "res4b_branch2c"
  convolution_param {
    num_output: 1024
    bias_term: false
    pad: 0
    kernel_size: 1
    stride: 1
  }
}
layer {
  name: "bn4b_branch2c"
  type: "BatchNorm"
  bottom: "res4b_branch2c"
  top: "res4b_branch2c"
  batch_norm_param {
    use_global_stats: true
  }
}
layer {
  name: "scale4b_branch2c"
  type: "Scale"
  bottom: "res4b_branch2c"
  top: "res4b_branch2c"
  scale_param {
    bias_term: true
  }
}
layer {
  name: "res4b"
  type: "Eltwise"
  bottom: "res4a"
  bottom: "res4b_branch2c"
  top: "res4b"
}
layer {
  name: "res4b_relu"
  type: "ReLU"
  bottom: "res4b"
  top: "res4b"
}
layer {
  name: "res4c_branch2a"
  type: "Convolution"
  bottom: "res4b"
  top: "res4c_branch2a"
  convolution_param {
    num_output: 256
    bias_term: false
    pad: 0
    kernel_size: 1
    stride: 1
  }
}
layer {
  name: "bn4c_branch2a"
  type: "BatchNorm"
  bottom: "res4c_branch2a"
  top: "res4c_branch2a"
  batch_norm_param {
    use_global_stats: true
  }
}
layer {
  name: "scale4c_branch2a"
  type: "Scale"
  bottom: "res4c_branch2a"
  top: "res4c_branch2a"
  scale_param {
    bias_term: true
  }
}
layer {
  name: "res4c_branch2a_relu"
  type: "ReLU"
  bottom: "res4c_branch2a"
  top: "res4c_branch2a"
}
layer {
  name: "res4c_branch2b"
  type: "Convolution"
  bottom: "res4c_branch2a"
  top: "res4c_branch2b"
  convolution_param {
    num_output: 256
    bias_term: false
    pad: 1
    kernel_size: 3
    stride: 1
  }
}
layer {
  name: "bn4c_branch2b"
  type: "BatchNorm"
  bottom: "res4c_branch2b"
  top: "res4c_branch2b"
  batch_norm_param {
    use_global_stats: true
  }
}
layer {
  name: "scale4c_branch2b"
  type: "Scale"
  bottom: "res4c_branch2b"
  top: "res4c_branch2b"
  scale_param {
    bias_term: true
  }
}
layer {
  name: "res4c_branch2b_relu"
  type: "ReLU"
  bottom: "res4c_branch2b"
  top: "res4c_branch2b"
}
layer {
  name: "res4c_branch2c"
  type: "Convolution"
  bottom: "res4c_branch2b"
  top: "res4c_branch2c"
  convolution_param {
    num_output: 1024
    bias_term: false
    pad: 0
    kernel_size: 1
    stride: 1
  }
}
layer {
  name: "bn4c_branch2c"
  type: "BatchNorm"
  bottom: "res4c_branch2c"
  top: "res4c_branch2c"
  batch_norm_param {
    use_global_stats: true
  }
}
layer {
  name: "scale4c_branch2c"
  type: "Scale"
  bottom: "res4c_branch2c"
  top: "res4c_branch2c"
  scale_param {
    bias_term: true
  }
}
layer {
  name: "res4c"
  type: "Eltwise"
  bottom: "res4b"
  bottom: "res4c_branch2c"
  top: "res4c"
}
layer {
  name: "res4c_relu"
  type: "ReLU"
  bottom: "res4c"
  top: "res4c"
}
layer {
  name: "res4d_branch2a"
  type: "Convolution"
  bottom: "res4c"
  top: "res4d_branch2a"
  convolution_param {
    num_output: 256
    bias_term: false
    pad: 0
    kernel_size: 1
    stride: 1
  }
}
layer {
  name: "bn4d_branch2a"
  type: "BatchNorm"
  bottom: "res4d_branch2a"
  top: "res4d_branch2a"
  batch_norm_param {
    use_global_stats: true
  }
}
layer {
  name: "scale4d_branch2a"
  type: "Scale"
  bottom: "res4d_branch2a"
  top: "res4d_branch2a"
  scale_param {
    bias_term: true
  }
}
layer {
  name: "res4d_branch2a_relu"
  type: "ReLU"
  bottom: "res4d_branch2a"
  top: "res4d_branch2a"
}
layer {
  name: "res4d_branch2b"
  type: "Convolution"
  bottom: "res4d_branch2a"
  top: "res4d_branch2b"
  convolution_param {
    num_output: 256
    bias_term: false
    pad: 1
    kernel_size: 3
    stride: 1
  }
}
layer {
  name: "bn4d_branch2b"
  type: "BatchNorm"
  bottom: "res4d_branch2b"
  top: "res4d_branch2b"
  batch_norm_param {
    use_global_stats: true
  }
}
layer {
  name: "scale4d_branch2b"
  type: "Scale"
  bottom: "res4d_branch2b"
  top: "res4d_branch2b"
  scale_param {
    bias_term: true
  }
}
layer {
  name: "res4d_branch2b_relu"
  type: "ReLU"
  bottom: "res4d_branch2b"
  top: "res4d_branch2b"
}
layer {
  name: "res4d_branch2c"
  type: "Convolution"
  bottom: "res4d_branch2b"
  top: "res4d_branch2c"
  convolution_param {
    num_output: 1024
    bias_term: false
    pad: 0
    kernel_size: 1
    stride: 1
  }
}
layer {
  name: "bn4d_branch2c"
  type: "BatchNorm"
  bottom: "res4d_branch2c"
  top: "res4d_branch2c"
  batch_norm_param {
    use_global_stats: true
  }
}
layer {
  name: "scale4d_branch2c"
  type: "Scale"
  bottom: "res4d_branch2c"
  top: "res4d_branch2c"
  scale_param {
    bias_term: true
  }
}
layer {
  name: "res4d"
  type: "Eltwise"
  bottom: "res4c"
  bottom: "res4d_branch2c"
  top: "res4d"
}
layer {
  name: "res4d_relu"
  type: "ReLU"
  bottom: "res4d"
  top: "res4d"
}
layer {
  name: "res4e_branch2a"
  type: "Convolution"
  bottom: "res4d"
  top: "res4e_branch2a"
  convolution_param {
    num_output: 256
    bias_term: false
    pad: 0
    kernel_size: 1
    stride: 1
  }
}
layer {
  name: "bn4e_branch2a"
  type: "BatchNorm"
  bottom: "res4e_branch2a"
  top: "res4e_branch2a"
  batch_norm_param {
    use_global_stats: true
  }
}
layer {
  name: "scale4e_branch2a"
  type: "Scale"
  bottom: "res4e_branch2a"
  top: "res4e_branch2a"
  scale_param {
    bias_term: true
  }
}
layer {
  name: "res4e_branch2a_relu"
  type: "ReLU"
  bottom: "res4e_branch2a"
  top: "res4e_branch2a"
}
layer {
  name: "res4e_branch2b"
  type: "Convolution"
  bottom: "res4e_branch2a"
  top: "res4e_branch2b"
  convolution_param {
    num_output: 256
    bias_term: false
    pad: 1
    kernel_size: 3
    stride: 1
  }
}
layer {
  name: "bn4e_branch2b"
  type: "BatchNorm"
  bottom: "res4e_branch2b"
  top: "res4e_branch2b"
  batch_norm_param {
    use_global_stats: true
  }
}
layer {
  name: "scale4e_branch2b"
  type: "Scale"
  bottom: "res4e_branch2b"
  top: "res4e_branch2b"
  scale_param {
    bias_term: true
  }
}
layer {
  name: "res4e_branch2b_relu"
  type: "ReLU"
  bottom: "res4e_branch2b"
  top: "res4e_branch2b"
}
layer {
  name: "res4e_branch2c"
  type: "Convolution"
  bottom: "res4e_branch2b"
  top: "res4e_branch2c"
  convolution_param {
    num_output: 1024
    bias_term: false
    pad: 0
    kernel_size: 1
    stride: 1
  }
}
layer {
  name: "bn4e_branch2c"
  type: "BatchNorm"
  bottom: "res4e_branch2c"
  top: "res4e_branch2c"
  batch_norm_param {
    use_global_stats: true
  }
}
layer {
  name: "scale4e_branch2c"
  type: "Scale"
  bottom: "res4e_branch2c"
  top: "res4e_branch2c"
  scale_param {
    bias_term: true
  }
}
layer {
  name: "res4e"
  type: "Eltwise"
  bottom: "res4d"
  bottom: "res4e_branch2c"
  top: "res4e"
}
layer {
  name: "res4e_relu"
  type: "ReLU"
  bottom: "res4e"
  top: "res4e"
}
layer {
  name: "res4f_branch2a"
  type: "Convolution"
  bottom: "res4e"
  top: "res4f_branch2a"
  convolution_param {
    num_output: 256
    bias_term: false
    pad: 0
    kernel_size: 1
    stride: 1
  }
}
layer {
  name: "bn4f_branch2a"
  type: "BatchNorm"
  bottom: "res4f_branch2a"
  top: "res4f_branch2a"
  batch_norm_param {
    use_global_stats: true
  }
}
layer {
  name: "scale4f_branch2a"
  type: "Scale"
  bottom: "res4f_branch2a"
  top: "res4f_branch2a"
  scale_param {
    bias_term: true
  }
}
layer {
  name: "res4f_branch2a_relu"
  type: "ReLU"
  bottom: "res4f_branch2a"
  top: "res4f_branch2a"
}
layer {
  name: "res4f_branch2b"
  type: "Convolution"
  bottom: "res4f_branch2a"
  top: "res4f_branch2b"
  convolution_param {
    num_output: 256
    bias_term: false
    pad: 1
    kernel_size: 3
    stride: 1
  }
}
layer {
  name: "bn4f_branch2b"
  type: "BatchNorm"
  bottom: "res4f_branch2b"
  top: "res4f_branch2b"
  batch_norm_param {
    use_global_stats: true
  }
}
layer {
  name: "scale4f_branch2b"
  type: "Scale"
  bottom: "res4f_branch2b"
  top: "res4f_branch2b"
  scale_param {
    bias_term: true
  }
}
layer {
  name: "res4f_branch2b_relu"
  type: "ReLU"
  bottom: "res4f_branch2b"
  top: "res4f_branch2b"
}
layer {
  name: "res4f_branch2c"
  type: "Convolution"
  bottom: "res4f_branch2b"
  top: "res4f_branch2c"
  convolution_param {
    num_output: 1024
    bias_term: false
    pad: 0
    kernel_size: 1
    stride: 1
  }
}
layer {
  name: "bn4f_branch2c"
  type: "BatchNorm"
  bottom: "res4f_branch2c"
  top: "res4f_branch2c"
  batch_norm_param {
    use_global_stats: true
  }
}
layer {
  name: "scale4f_branch2c"
  type: "Scale"
  bottom: "res4f_branch2c"
  top: "res4f_branch2c"
  scale_param {
    bias_term: true
  }
}
layer {
  name: "res4f"
  type: "Eltwise"
  bottom: "res4e"
  bottom: "res4f_branch2c"
  top: "res4f"
}
layer {
  name: "res4f_relu"
  type: "ReLU"
  bottom: "res4f"
  top: "res4f"
}
layer {
  name: "res5a_branch1"
  type: "Convolution"
  bottom: "res4f"
  top: "res5a_branch1"
  convolution_param {
    num_output: 2048
    bias_term: false
    pad: 0
    kernel_size: 1
    stride: 2
  }
}
layer {
  name: "bn5a_branch1"
  type: "BatchNorm"
  bottom: "res5a_branch1"
  top: "res5a_branch1"
  batch_norm_param {
    use_global_stats: true
  }
}
layer {
  name: "scale5a_branch1"
  type: "Scale"
  bottom: "res5a_branch1"
  top: "res5a_branch1"
  scale_param {
    bias_term: true
  }
}
layer {
  name: "res5a_branch2a"
  type: "Convolution"
  bottom: "res4f"
  top: "res5a_branch2a"
  convolution_param {
    num_output: 512
    bias_term: false
    pad: 0
    kernel_size: 1
    stride: 2
  }
}
layer {
  name: "bn5a_branch2a"
  type: "BatchNorm"
  bottom: "res5a_branch2a"
  top: "res5a_branch2a"
  batch_norm_param {
    use_global_stats: true
  }
}
layer {
  name: "scale5a_branch2a"
  type: "Scale"
  bottom: "res5a_branch2a"
  top: "res5a_branch2a"
  scale_param {
    bias_term: true
  }
}
layer {
  name: "res5a_branch2a_relu"
  type: "ReLU"
  bottom: "res5a_branch2a"
  top: "res5a_branch2a"
}
layer {
  name: "res5a_branch2b"
  type: "Convolution"
  bottom: "res5a_branch2a"
  top: "res5a_branch2b"
  convolution_param {
    num_output: 512
    bias_term: false
    pad: 1
    kernel_size: 3
    stride: 1
  }
}
layer {
  name: "bn5a_branch2b"
  type: "BatchNorm"
  bottom: "res5a_branch2b"
  top: "res5a_branch2b"
  batch_norm_param {
    use_global_stats: true
  }
}
layer {
  name: "scale5a_branch2b"
  type: "Scale"
  bottom: "res5a_branch2b"
  top: "res5a_branch2b"
  scale_param {
    bias_term: true
  }
}
layer {
  name: "res5a_branch2b_relu"
  type: "ReLU"
  bottom: "res5a_branch2b"
  top: "res5a_branch2b"
}
layer {
  name: "res5a_branch2c"
  type: "Convolution"
  bottom: "res5a_branch2b"
  top: "res5a_branch2c"
  convolution_param {
    num_output: 2048
    bias_term: false
    pad
I0305 18:55:06.726163 16471 layer_factory.hpp:77] Creating layer data
I0305 18:55:06.726191 16471 net.cpp:100] Creating Layer data
I0305 18:55:06.726196 16471 net.cpp:408] data -> data
I0305 18:55:06.726215 16471 net.cpp:408] data -> label
I0305 18:55:06.726523 16471 image_data_layer.cpp:40] Opening file evaluation/data/CUHK03/train_cuhk03_labeled.txt
I0305 18:55:06.727689 16471 image_data_layer.cpp:55] Shuffling data
I0305 18:55:06.728438 16471 image_data_layer.cpp:60] A total of 7012 images.
I0305 18:55:06.739254 16471 image_data_layer.cpp:87] output data size: 32,3,224,224
I0305 18:55:06.759145 16471 net.cpp:150] Setting up data
I0305 18:55:06.759176 16471 net.cpp:157] Top shape: 32 3 224 224 (4816896)
I0305 18:55:06.759181 16471 net.cpp:157] Top shape: 32 (32)
I0305 18:55:06.759182 16471 net.cpp:165] Memory required for data: 19267712
I0305 18:55:06.759188 16471 layer_factory.hpp:77] Creating layer conv1
I0305 18:55:06.759202 16471 net.cpp:100] Creating Layer conv1
I0305 18:55:06.759207 16471 net.cpp:434] conv1 <- data
I0305 18:55:06.759225 16471 net.cpp:408] conv1 -> conv1
I0305 18:55:06.887639 16471 net.cpp:150] Setting up conv1
I0305 18:55:06.887668 16471 net.cpp:157] Top shape: 32 64 112 112 (25690112)
I0305 18:55:06.887671 16471 net.cpp:165] Memory required for data: 122028160
I0305 18:55:06.887683 16471 layer_factory.hpp:77] Creating layer bn_conv1
I0305 18:55:06.887694 16471 net.cpp:100] Creating Layer bn_conv1
I0305 18:55:06.887699 16471 net.cpp:434] bn_conv1 <- conv1
I0305 18:55:06.887713 16471 net.cpp:395] bn_conv1 -> conv1 (in-place)
I0305 18:55:06.887852 16471 net.cpp:150] Setting up bn_conv1
I0305 18:55:06.887857 16471 net.cpp:157] Top shape: 32 64 112 112 (25690112)
I0305 18:55:06.887869 16471 net.cpp:165] Memory required for data: 224788608
I0305 18:55:06.887876 16471 layer_factory.hpp:77] Creating layer scale_conv1
I0305 18:55:06.887882 16471 net.cpp:100] Creating Layer scale_conv1
I0305 18:55:06.887886 16471 net.cpp:434] scale_conv1 <- conv1
I0305 18:55:06.887899 16471 net.cpp:395] scale_conv1 -> conv1 (in-place)
I0305 18:55:06.887934 16471 layer_factory.hpp:77] Creating layer scale_conv1
I0305 18:55:06.888049 16471 net.cpp:150] Setting up scale_conv1
I0305 18:55:06.888054 16471 net.cpp:157] Top shape: 32 64 112 112 (25690112)
I0305 18:55:06.888073 16471 net.cpp:165] Memory required for data: 327549056
I0305 18:55:06.888078 16471 layer_factory.hpp:77] Creating layer conv1_relu
I0305 18:55:06.888095 16471 net.cpp:100] Creating Layer conv1_relu
I0305 18:55:06.888098 16471 net.cpp:434] conv1_relu <- conv1
I0305 18:55:06.888103 16471 net.cpp:395] conv1_relu -> conv1 (in-place)
I0305 18:55:06.888329 16471 net.cpp:150] Setting up conv1_relu
I0305 18:55:06.888336 16471 net.cpp:157] Top shape: 32 64 112 112 (25690112)
I0305 18:55:06.888350 16471 net.cpp:165] Memory required for data: 430309504
I0305 18:55:06.888351 16471 layer_factory.hpp:77] Creating layer pool1
I0305 18:55:06.888358 16471 net.cpp:100] Creating Layer pool1
I0305 18:55:06.888360 16471 net.cpp:434] pool1 <- conv1
I0305 18:55:06.888365 16471 net.cpp:408] pool1 -> pool1
I0305 18:55:06.888417 16471 net.cpp:150] Setting up pool1
I0305 18:55:06.888422 16471 net.cpp:157] Top shape: 32 64 56 56 (6422528)
I0305 18:55:06.888424 16471 net.cpp:165] Memory required for data: 455999616
I0305 18:55:06.888427 16471 layer_factory.hpp:77] Creating layer pool1_pool1_0_split
I0305 18:55:06.888432 16471 net.cpp:100] Creating Layer pool1_pool1_0_split
I0305 18:55:06.888433 16471 net.cpp:434] pool1_pool1_0_split <- pool1
I0305 18:55:06.888435 16471 net.cpp:408] pool1_pool1_0_split -> pool1_pool1_0_split_0
I0305 18:55:06.888440 16471 net.cpp:408] pool1_pool1_0_split -> pool1_pool1_0_split_1
I0305 18:55:06.888471 16471 net.cpp:150] Setting up pool1_pool1_0_split
I0305 18:55:06.888475 16471 net.cpp:157] Top shape: 32 64 56 56 (6422528)
I0305 18:55:06.888478 16471 net.cpp:157] Top shape: 32 64 56 56 (6422528)
I0305 18:55:06.888479 16471 net.cpp:165] Memory required for data: 507379840
I0305 18:55:06.888481 16471 layer_factory.hpp:77] Creating layer res2a_branch1
I0305 18:55:06.888487 16471 net.cpp:100] Creating Layer res2a_branch1
I0305 18:55:06.888490 16471 net.cpp:434] res2a_branch1 <- pool1_pool1_0_split_0
I0305 18:55:06.888494 16471 net.cpp:408] res2a_branch1 -> res2a_branch1
I0305 18:55:06.889119 16471 net.cpp:150] Setting up res2a_branch1
I0305 18:55:06.889127 16471 net.cpp:157] Top shape: 32 256 56 56 (25690112)
I0305 18:55:06.889139 16471 net.cpp:165] Memory required for data: 610140288
I0305 18:55:06.889143 16471 layer_factory.hpp:77] Creating layer bn2a_branch1
I0305 18:55:06.889149 16471 net.cpp:100] Creating Layer bn2a_branch1
I0305 18:55:06.889152 16471 net.cpp:434] bn2a_branch1 <- res2a_branch1
I0305 18:55:06.889156 16471 net.cpp:395] bn2a_branch1 -> res2a_branch1 (in-place)
I0305 18:55:06.889539 16471 net.cpp:150] Setting up bn2a_branch1
I0305 18:55:06.889546 16471 net.cpp:157] Top shape: 32 256 56 56 (25690112)
I0305 18:55:06.889559 16471 net.cpp:165] Memory required for data: 712900736
I0305 18:55:06.889565 16471 layer_factory.hpp:77] Creating layer scale2a_branch1
I0305 18:55:06.889569 16471 net.cpp:100] Creating Layer scale2a_branch1
I0305 18:55:06.889572 16471 net.cpp:434] scale2a_branch1 <- res2a_branch1
I0305 18:55:06.889575 16471 net.cpp:395] scale2a_branch1 -> res2a_branch1 (in-place)
I0305 18:55:06.889611 16471 layer_factory.hpp:77] Creating layer scale2a_branch1
I0305 18:55:06.889730 16471 net.cpp:150] Setting up scale2a_branch1
I0305 18:55:06.889744 16471 net.cpp:157] Top shape: 32 256 56 56 (25690112)
I0305 18:55:06.889745 16471 net.cpp:165] Memory required for data: 815661184
I0305 18:55:06.889749 16471 layer_factory.hpp:77] Creating layer res2a_branch2a
I0305 18:55:06.889765 16471 net.cpp:100] Creating Layer res2a_branch2a
I0305 18:55:06.889766 16471 net.cpp:434] res2a_branch2a <- pool1_pool1_0_split_1
I0305 18:55:06.889770 16471 net.cpp:408] res2a_branch2a -> res2a_branch2a
I0305 18:55:06.890321 16471 net.cpp:150] Setting up res2a_branch2a
I0305 18:55:06.890328 16471 net.cpp:157] Top shape: 32 64 56 56 (6422528)
I0305 18:55:06.890341 16471 net.cpp:165] Memory required for data: 841351296
I0305 18:55:06.890344 16471 layer_factory.hpp:77] Creating layer bn2a_branch2a
I0305 18:55:06.890348 16471 net.cpp:100] Creating Layer bn2a_branch2a
I0305 18:55:06.890350 16471 net.cpp:434] bn2a_branch2a <- res2a_branch2a
I0305 18:55:06.890354 16471 net.cpp:395] bn2a_branch2a -> res2a_branch2a (in-place)
I0305 18:55:06.890493 16471 net.cpp:150] Setting up bn2a_branch2a
I0305 18:55:06.890497 16471 net.cpp:157] Top shape: 32 64 56 56 (6422528)
I0305 18:55:06.890499 16471 net.cpp:165] Memory required for data: 867041408
I0305 18:55:06.890516 16471 layer_factory.hpp:77] Creating layer scale2a_branch2a
I0305 18:55:06.890548 16471 net.cpp:100] Creating Layer scale2a_branch2a
I0305 18:55:06.890552 16471 net.cpp:434] scale2a_branch2a <- res2a_branch2a
I0305 18:55:06.890563 16471 net.cpp:395] scale2a_branch2a -> res2a_branch2a (in-place)
I0305 18:55:06.890606 16471 layer_factory.hpp:77] Creating layer scale2a_branch2a
I0305 18:55:06.890700 16471 net.cpp:150] Setting up scale2a_branch2a
I0305 18:55:06.890704 16471 net.cpp:157] Top shape: 32 64 56 56 (6422528)
I0305 18:55:06.890717 16471 net.cpp:165] Memory required for data: 892731520
I0305 18:55:06.890719 16471 layer_factory.hpp:77] Creating layer res2a_branch2a_relu
I0305 18:55:06.890724 16471 net.cpp:100] Creating Layer res2a_branch2a_relu
I0305 18:55:06.890727 16471 net.cpp:434] res2a_branch2a_relu <- res2a_branch2a
I0305 18:55:06.890739 16471 net.cpp:395] res2a_branch2a_relu -> res2a_branch2a (in-place)
I0305 18:55:06.890954 16471 net.cpp:150] Setting up res2a_branch2a_relu
I0305 18:55:06.890962 16471 net.cpp:157] Top shape: 32 64 56 56 (6422528)
I0305 18:55:06.890974 16471 net.cpp:165] Memory required for data: 918421632
I0305 18:55:06.890976 16471 layer_factory.hpp:77] Creating layer res2a_branch2b
I0305 18:55:06.890981 16471 net.cpp:100] Creating Layer res2a_branch2b
I0305 18:55:06.890993 16471 net.cpp:434] res2a_branch2b <- res2a_branch2a
I0305 18:55:06.890997 16471 net.cpp:408] res2a_branch2b -> res2a_branch2b
I0305 18:55:06.891950 16471 net.cpp:150] Setting up res2a_branch2b
I0305 18:55:06.891959 16471 net.cpp:157] Top shape: 32 64 56 56 (6422528)
I0305 18:55:06.891971 16471 net.cpp:165] Memory required for data: 944111744
I0305 18:55:06.891975 16471 layer_factory.hpp:77] Creating layer bn2a_branch2b
I0305 18:55:06.891990 16471 net.cpp:100] Creating Layer bn2a_branch2b
I0305 18:55:06.891993 16471 net.cpp:434] bn2a_branch2b <- res2a_branch2b
I0305 18:55:06.891996 16471 net.cpp:395] bn2a_branch2b -> res2a_branch2b (in-place)
I0305 18:55:06.892161 16471 net.cpp:150] Setting up bn2a_branch2b
I0305 18:55:06.892168 16471 net.cpp:157] Top shape: 32 64 56 56 (6422528)
I0305 18:55:06.892179 16471 net.cpp:165] Memory required for data: 969801856
I0305 18:55:06.892184 16471 layer_factory.hpp:77] Creating layer scale2a_branch2b
I0305 18:55:06.892199 16471 net.cpp:100] Creating Layer scale2a_branch2b
I0305 18:55:06.892201 16471 net.cpp:434] scale2a_branch2b <- res2a_branch2b
I0305 18:55:06.892204 16471 net.cpp:395] scale2a_branch2b -> res2a_branch2b (in-place)
I0305 18:55:06.892237 16471 layer_factory.hpp:77] Creating layer scale2a_branch2b
I0305 18:55:06.892357 16471 net.cpp:150] Setting up scale2a_branch2b
I0305 18:55:06.892361 16471 net.cpp:157] Top shape: 32 64 56 56 (6422528)
I0305 18:55:06.892374 16471 net.cpp:165] Memory required for data: 995491968
I0305 18:55:06.892376 16471 layer_factory.hpp:77] Creating layer res2a_branch2b_relu
I0305 18:55:06.892380 16471 net.cpp:100] Creating Layer res2a_branch2b_relu
I0305 18:55:06.892392 16471 net.cpp:434] res2a_branch2b_relu <- res2a_branch2b
I0305 18:55:06.892396 16471 net.cpp:395] res2a_branch2b_relu -> res2a_branch2b (in-place)
I0305 18:55:06.892524 16471 net.cpp:150] Setting up res2a_branch2b_relu
I0305 18:55:06.892531 16471 net.cpp:157] Top shape: 32 64 56 56 (6422528)
I0305 18:55:06.892542 16471 net.cpp:165] Memory required for data: 1021182080
I0305 18:55:06.892544 16471 layer_factory.hpp:77] Creating layer res2a_branch2c
I0305 18:55:06.892549 16471 net.cpp:100] Creating Layer res2a_branch2c
I0305 18:55:06.892561 16471 net.cpp:434] res2a_branch2c <- res2a_branch2b
I0305 18:55:06.892565 16471 net.cpp:408] res2a_branch2c -> res2a_branch2c
I0305 18:55:06.893189 16471 net.cpp:150] Setting up res2a_branch2c
I0305 18:55:06.893198 16471 net.cpp:157] Top shape: 32 256 56 56 (25690112)
I0305 18:55:06.893209 16471 net.cpp:165] Memory required for data: 1123942528
I0305 18:55:06.893213 16471 layer_factory.hpp:77] Creating layer bn2a_branch2c
I0305 18:55:06.893239 16471 net.cpp:100] Creating Layer bn2a_branch2c
I0305 18:55:06.893242 16471 net.cpp:434] bn2a_branch2c <- res2a_branch2c
I0305 18:55:06.893245 16471 net.cpp:395] bn2a_branch2c -> res2a_branch2c (in-place)
I0305 18:55:06.893378 16471 net.cpp:150] Setting up bn2a_branch2c
I0305 18:55:06.893383 16471 net.cpp:157] Top shape: 32 256 56 56 (25690112)
I0305 18:55:06.893393 16471 net.cpp:165] Memory required for data: 1226702976
I0305 18:55:06.893398 16471 layer_factory.hpp:77] Creating layer scale2a_branch2c
I0305 18:55:06.893412 16471 net.cpp:100] Creating Layer scale2a_branch2c
I0305 18:55:06.893414 16471 net.cpp:434] scale2a_branch2c <- res2a_branch2c
I0305 18:55:06.893417 16471 net.cpp:395] scale2a_branch2c -> res2a_branch2c (in-place)
I0305 18:55:06.893452 16471 layer_factory.hpp:77] Creating layer scale2a_branch2c
I0305 18:55:06.893570 16471 net.cpp:150] Setting up scale2a_branch2c
I0305 18:55:06.893575 16471 net.cpp:157] Top shape: 32 256 56 56 (25690112)
I0305 18:55:06.893586 16471 net.cpp:165] Memory required for data: 1329463424
I0305 18:55:06.893590 16471 layer_factory.hpp:77] Creating layer res2a
I0305 18:55:06.893595 16471 net.cpp:100] Creating Layer res2a
I0305 18:55:06.893607 16471 net.cpp:434] res2a <- res2a_branch1
I0305 18:55:06.893610 16471 net.cpp:434] res2a <- res2a_branch2c
I0305 18:55:06.893613 16471 net.cpp:408] res2a -> res2a
I0305 18:55:06.893631 16471 net.cpp:150] Setting up res2a
I0305 18:55:06.893645 16471 net.cpp:157] Top shape: 32 256 56 56 (25690112)
I0305 18:55:06.893646 16471 net.cpp:165] Memory required for data: 1432223872
I0305 18:55:06.893648 16471 layer_factory.hpp:77] Creating layer res2a_relu
I0305 18:55:06.893661 16471 net.cpp:100] Creating Layer res2a_relu
I0305 18:55:06.893663 16471 net.cpp:434] res2a_relu <- res2a
I0305 18:55:06.893666 16471 net.cpp:395] res2a_relu -> res2a (in-place)
I0305 18:55:06.893903 16471 net.cpp:150] Setting up res2a_relu
I0305 18:55:06.893910 16471 net.cpp:157] Top shape: 32 256 56 56 (25690112)
I0305 18:55:06.893923 16471 net.cpp:165] Memory required for data: 1534984320
I0305 18:55:06.893924 16471 layer_factory.hpp:77] Creating layer res2a_res2a_relu_0_split
I0305 18:55:06.893929 16471 net.cpp:100] Creating Layer res2a_res2a_relu_0_split
I0305 18:55:06.893941 16471 net.cpp:434] res2a_res2a_relu_0_split <- res2a
I0305 18:55:06.893945 16471 net.cpp:408] res2a_res2a_relu_0_split -> res2a_res2a_relu_0_split_0
I0305 18:55:06.893950 16471 net.cpp:408] res2a_res2a_relu_0_split -> res2a_res2a_relu_0_split_1
I0305 18:55:06.893987 16471 net.cpp:150] Setting up res2a_res2a_relu_0_split
I0305 18:55:06.894001 16471 net.cpp:157] Top shape: 32 256 56 56 (25690112)
I0305 18:55:06.894004 16471 net.cpp:157] Top shape: 32 256 56 56 (25690112)
I0305 18:55:06.894006 16471 net.cpp:165] Memory required for data: 1740505216
I0305 18:55:06.894017 16471 layer_factory.hpp:77] Creating layer res2b_branch2a
I0305 18:55:06.894021 16471 net.cpp:100] Creating Layer res2b_branch2a
I0305 18:55:06.894023 16471 net.cpp:434] res2b_branch2a <- res2a_res2a_relu_0_split_0
I0305 18:55:06.894037 16471 net.cpp:408] res2b_branch2a -> res2b_branch2a
I0305 18:55:06.894580 16471 net.cpp:150] Setting up res2b_branch2a
I0305 18:55:06.894588 16471 net.cpp:157] Top shape: 32 64 56 56 (6422528)
I0305 18:55:06.894600 16471 net.cpp:165] Memory required for data: 1766195328
I0305 18:55:06.894603 16471 layer_factory.hpp:77] Creating layer bn2b_branch2a
I0305 18:55:06.894608 16471 net.cpp:100] Creating Layer bn2b_branch2a
I0305 18:55:06.894619 16471 net.cpp:434] bn2b_branch2a <- res2b_branch2a
I0305 18:55:06.894624 16471 net.cpp:395] bn2b_branch2a -> res2b_branch2a (in-place)
I0305 18:55:06.894757 16471 net.cpp:150] Setting up bn2b_branch2a
I0305 18:55:06.894762 16471 net.cpp:157] Top shape: 32 64 56 56 (6422528)
I0305 18:55:06.894773 16471 net.cpp:165] Memory required for data: 1791885440
I0305 18:55:06.894781 16471 layer_factory.hpp:77] Creating layer scale2b_branch2a
I0305 18:55:06.894794 16471 net.cpp:100] Creating Layer scale2b_branch2a
I0305 18:55:06.894796 16471 net.cpp:434] scale2b_branch2a <- res2b_branch2a
I0305 18:55:06.894799 16471 net.cpp:395] scale2b_branch2a -> res2b_branch2a (in-place)
I0305 18:55:06.894831 16471 layer_factory.hpp:77] Creating layer scale2b_branch2a
I0305 18:55:06.894940 16471 net.cpp:150] Setting up scale2b_branch2a
I0305 18:55:06.894945 16471 net.cpp:157] Top shape: 32 64 56 56 (6422528)
I0305 18:55:06.894948 16471 net.cpp:165] Memory required for data: 1817575552
I0305 18:55:06.894960 16471 layer_factory.hpp:77] Creating layer res2b_branch2a_relu
I0305 18:55:06.894963 16471 net.cpp:100] Creating Layer res2b_branch2a_relu
I0305 18:55:06.894965 16471 net.cpp:434] res2b_branch2a_relu <- res2b_branch2a
I0305 18:55:06.894979 16471 net.cpp:395] res2b_branch2a_relu -> res2b_branch2a (in-place)
I0305 18:55:06.895279 16471 net.cpp:150] Setting up res2b_branch2a_relu
I0305 18:55:06.895297 16471 net.cpp:157] Top shape: 32 64 56 56 (6422528)
I0305 18:55:06.895298 16471 net.cpp:165] Memory required for data: 1843265664
I0305 18:55:06.895300 16471 layer_factory.hpp:77] Creating layer res2b_branch2b
I0305 18:55:06.895315 16471 net.cpp:100] Creating Layer res2b_branch2b
I0305 18:55:06.895318 16471 net.cpp:434] res2b_branch2b <- res2b_branch2a
I0305 18:55:06.895321 16471 net.cpp:408] res2b_branch2b -> res2b_branch2b
I0305 18:55:06.896075 16471 net.cpp:150] Setting up res2b_branch2b
I0305 18:55:06.896085 16471 net.cpp:157] Top shape: 32 64 56 56 (6422528)
I0305 18:55:06.896096 16471 net.cpp:165] Memory required for data: 1868955776
I0305 18:55:06.896100 16471 layer_factory.hpp:77] Creating layer bn2b_branch2b
I0305 18:55:06.896118 16471 net.cpp:100] Creating Layer bn2b_branch2b
I0305 18:55:06.896121 16471 net.cpp:434] bn2b_branch2b <- res2b_branch2b
I0305 18:55:06.896126 16471 net.cpp:395] bn2b_branch2b -> res2b_branch2b (in-place)
I0305 18:55:06.896266 16471 net.cpp:150] Setting up bn2b_branch2b
I0305 18:55:06.896270 16471 net.cpp:157] Top shape: 32 64 56 56 (6422528)
I0305 18:55:06.896282 16471 net.cpp:165] Memory required for data: 1894645888
I0305 18:55:06.896287 16471 layer_factory.hpp:77] Creating layer scale2b_branch2b
I0305 18:55:06.896291 16471 net.cpp:100] Creating Layer scale2b_branch2b
I0305 18:55:06.896302 16471 net.cpp:434] scale2b_branch2b <- res2b_branch2b
I0305 18:55:06.896306 16471 net.cpp:395] scale2b_branch2b -> res2b_branch2b (in-place)
I0305 18:55:06.896339 16471 layer_factory.hpp:77] Creating layer scale2b_branch2b
I0305 18:55:06.896476 16471 net.cpp:150] Setting up scale2b_branch2b
I0305 18:55:06.896482 16471 net.cpp:157] Top shape: 32 64 56 56 (6422528)
I0305 18:55:06.896493 16471 net.cpp:165] Memory required for data: 1920336000
I0305 18:55:06.896497 16471 layer_factory.hpp:77] Creating layer res2b_branch2b_relu
I0305 18:55:06.896502 16471 net.cpp:100] Creating Layer res2b_branch2b_relu
I0305 18:55:06.896512 16471 net.cpp:434] res2b_branch2b_relu <- res2b_branch2b
I0305 18:55:06.896515 16471 net.cpp:395] res2b_branch2b_relu -> res2b_branch2b (in-place)
I0305 18:55:06.896649 16471 net.cpp:150] Setting up res2b_branch2b_relu
I0305 18:55:06.896654 16471 net.cpp:157] Top shape: 32 64 56 56 (6422528)
I0305 18:55:06.896667 16471 net.cpp:165] Memory required for data: 1946026112
I0305 18:55:06.896668 16471 layer_factory.hpp:77] Creating layer res2b_branch2c
I0305 18:55:06.896685 16471 net.cpp:100] Creating Layer res2b_branch2c
I0305 18:55:06.896688 16471 net.cpp:434] res2b_branch2c <- res2b_branch2b
I0305 18:55:06.896692 16471 net.cpp:408] res2b_branch2c -> res2b_branch2c
I0305 18:55:06.897362 16471 net.cpp:150] Setting up res2b_branch2c
I0305 18:55:06.897380 16471 net.cpp:157] Top shape: 32 256 56 56 (25690112)
I0305 18:55:06.897383 16471 net.cpp:165] Memory required for data: 2048786560
I0305 18:55:06.897387 16471 layer_factory.hpp:77] Creating layer bn2b_branch2c
I0305 18:55:06.897399 16471 net.cpp:100] Creating Layer bn2b_branch2c
I0305 18:55:06.897403 16471 net.cpp:434] bn2b_branch2c <- res2b_branch2c
I0305 18:55:06.897405 16471 net.cpp:395] bn2b_branch2c -> res2b_branch2c (in-place)
I0305 18:55:06.897541 16471 net.cpp:150] Setting up bn2b_branch2c
I0305 18:55:06.897545 16471 net.cpp:157] Top shape: 32 256 56 56 (25690112)
I0305 18:55:06.897557 16471 net.cpp:165] Memory required for data: 2151547008
I0305 18:55:06.897562 16471 layer_factory.hpp:77] Creating layer scale2b_branch2c
I0305 18:55:06.897565 16471 net.cpp:100] Creating Layer scale2b_branch2c
I0305 18:55:06.897578 16471 net.cpp:434] scale2b_branch2c <- res2b_branch2c
I0305 18:55:06.897579 16471 net.cpp:395] scale2b_branch2c -> res2b_branch2c (in-place)
I0305 18:55:06.897616 16471 layer_factory.hpp:77] Creating layer scale2b_branch2c
I0305 18:55:06.897744 16471 net.cpp:150] Setting up scale2b_branch2c
I0305 18:55:06.897749 16471 net.cpp:157] Top shape: 32 256 56 56 (25690112)
I0305 18:55:06.897761 16471 net.cpp:165] Memory required for data: 2254307456
I0305 18:55:06.897765 16471 layer_factory.hpp:77] Creating layer res2b
I0305 18:55:06.897768 16471 net.cpp:100] Creating Layer res2b
I0305 18:55:06.897780 16471 net.cpp:434] res2b <- res2a_res2a_relu_0_split_1
I0305 18:55:06.897783 16471 net.cpp:434] res2b <- res2b_branch2c
I0305 18:55:06.897786 16471 net.cpp:408] res2b -> res2b
I0305 18:55:06.897801 16471 net.cpp:150] Setting up res2b
I0305 18:55:06.897816 16471 net.cpp:157] Top shape: 32 256 56 56 (25690112)
I0305 18:55:06.897819 16471 net.cpp:165] Memory required for data: 2357067904
I0305 18:55:06.897820 16471 layer_factory.hpp:77] Creating layer res2b_relu
I0305 18:55:06.897825 16471 net.cpp:100] Creating Layer res2b_relu
I0305 18:55:06.897826 16471 net.cpp:434] res2b_relu <- res2b
I0305 18:55:06.897830 16471 net.cpp:395] res2b_relu -> res2b (in-place)
I0305 18:55:06.898051 16471 net.cpp:150] Setting up res2b_relu
I0305 18:55:06.898057 16471 net.cpp:157] Top shape: 32 256 56 56 (25690112)
I0305 18:55:06.898069 16471 net.cpp:165] Memory required for data: 2459828352
I0305 18:55:06.898072 16471 layer_factory.hpp:77] Creating layer res2b_res2b_relu_0_split
I0305 18:55:06.898075 16471 net.cpp:100] Creating Layer res2b_res2b_relu_0_split
I0305 18:55:06.898077 16471 net.cpp:434] res2b_res2b_relu_0_split <- res2b
I0305 18:55:06.898082 16471 net.cpp:408] res2b_res2b_relu_0_split -> res2b_res2b_relu_0_split_0
I0305 18:55:06.898085 16471 net.cpp:408] res2b_res2b_relu_0_split -> res2b_res2b_relu_0_split_1
I0305 18:55:06.898119 16471 net.cpp:150] Setting up res2b_res2b_relu_0_split
I0305 18:55:06.898123 16471 net.cpp:157] Top shape: 32 256 56 56 (25690112)
I0305 18:55:06.898135 16471 net.cpp:157] Top shape: 32 256 56 56 (25690112)
I0305 18:55:06.898138 16471 net.cpp:165] Memory required for data: 2665349248
I0305 18:55:06.898139 16471 layer_factory.hpp:77] Creating layer res2c_branch2a
I0305 18:55:06.898144 16471 net.cpp:100] Creating Layer res2c_branch2a
I0305 18:55:06.898147 16471 net.cpp:434] res2c_branch2a <- res2b_res2b_relu_0_split_0
I0305 18:55:06.898149 16471 net.cpp:408] res2c_branch2a -> res2c_branch2a
I0305 18:55:06.898712 16471 net.cpp:150] Setting up res2c_branch2a
I0305 18:55:06.898720 16471 net.cpp:157] Top shape: 32 64 56 56 (6422528)
I0305 18:55:06.898732 16471 net.cpp:165] Memory required for data: 2691039360
I0305 18:55:06.898736 16471 layer_factory.hpp:77] Creating layer bn2c_branch2a
I0305 18:55:06.898741 16471 net.cpp:100] Creating Layer bn2c_branch2a
I0305 18:55:06.898742 16471 net.cpp:434] bn2c_branch2a <- res2c_branch2a
I0305 18:55:06.898746 16471 net.cpp:395] bn2c_branch2a -> res2c_branch2a (in-place)
I0305 18:55:06.898887 16471 net.cpp:150] Setting up bn2c_branch2a
I0305 18:55:06.898892 16471 net.cpp:157] Top shape: 32 64 56 56 (6422528)
I0305 18:55:06.898905 16471 net.cpp:165] Memory required for data: 2716729472
I0305 18:55:06.898910 16471 layer_factory.hpp:77] Creating layer scale2c_branch2a
I0305 18:55:06.898922 16471 net.cpp:100] Creating Layer scale2c_branch2a
I0305 18:55:06.898924 16471 net.cpp:434] scale2c_branch2a <- res2c_branch2a
I0305 18:55:06.898927 16471 net.cpp:395] scale2c_branch2a -> res2c_branch2a (in-place)
I0305 18:55:06.898960 16471 layer_factory.hpp:77] Creating layer scale2c_branch2a
I0305 18:55:06.899094 16471 net.cpp:150] Setting up scale2c_branch2a
I0305 18:55:06.899101 16471 net.cpp:157] Top shape: 32 64 56 56 (6422528)
I0305 18:55:06.899111 16471 net.cpp:165] Memory required for data: 2742419584
I0305 18:55:06.899116 16471 layer_factory.hpp:77] Creating layer res2c_branch2a_relu
I0305 18:55:06.899119 16471 net.cpp:100] Creating Layer res2c_branch2a_relu
I0305 18:55:06.899132 16471 net.cpp:434] res2c_branch2a_relu <- res2c_branch2a
I0305 18:55:06.899134 16471 net.cpp:395] res2c_branch2a_relu -> res2c_branch2a (in-place)
I0305 18:55:06.899358 16471 net.cpp:150] Setting up res2c_branch2a_relu
I0305 18:55:06.899364 16471 net.cpp:157] Top shape: 32 64 56 56 (6422528)
I0305 18:55:06.899376 16471 net.cpp:165] Memory required for data: 2768109696
I0305 18:55:06.899379 16471 layer_factory.hpp:77] Creating layer res2c_branch2b
I0305 18:55:06.899384 16471 net.cpp:100] Creating Layer res2c_branch2b
I0305 18:55:06.899395 16471 net.cpp:434] res2c_branch2b <- res2c_branch2a
I0305 18:55:06.899399 16471 net.cpp:408] res2c_branch2b -> res2c_branch2b
I0305 18:55:06.900255 16471 net.cpp:150] Setting up res2c_branch2b
I0305 18:55:06.900264 16471 net.cpp:157] Top shape: 32 64 56 56 (6422528)
I0305 18:55:06.900276 16471 net.cpp:165] Memory required for data: 2793799808
I0305 18:55:06.900279 16471 layer_factory.hpp:77] Creating layer bn2c_branch2b
I0305 18:55:06.900285 16471 net.cpp:100] Creating Layer bn2c_branch2b
I0305 18:55:06.900287 16471 net.cpp:434] bn2c_branch2b <- res2c_branch2b
I0305 18:55:06.900291 16471 net.cpp:395] bn2c_branch2b -> res2c_branch2b (in-place)
I0305 18:55:06.900424 16471 net.cpp:150] Setting up bn2c_branch2b
I0305 18:55:06.900429 16471 net.cpp:157] Top shape: 32 64 56 56 (6422528)
I0305 18:55:06.900431 16471 net.cpp:165] Memory required for data: 2819489920
I0305 18:55:06.900446 16471 layer_factory.hpp:77] Creating layer scale2c_branch2b
I0305 18:55:06.900450 16471 net.cpp:100] Creating Layer scale2c_branch2b
I0305 18:55:06.900451 16471 net.cpp:434] scale2c_branch2b <- res2c_branch2b
I0305 18:55:06.900454 16471 net.cpp:395] scale2c_branch2b -> res2c_branch2b (in-place)
I0305 18:55:06.900488 16471 layer_factory.hpp:77] Creating layer scale2c_branch2b
I0305 18:55:06.900586 16471 net.cpp:150] Setting up scale2c_branch2b
I0305 18:55:06.900591 16471 net.cpp:157] Top shape: 32 64 56 56 (6422528)
I0305 18:55:06.900593 16471 net.cpp:165] Memory required for data: 2845180032
I0305 18:55:06.900606 16471 layer_factory.hpp:77] Creating layer res2c_branch2b_relu
I0305 18:55:06.900610 16471 net.cpp:100] Creating Layer res2c_branch2b_relu
I0305 18:55:06.900612 16471 net.cpp:434] res2c_branch2b_relu <- res2c_branch2b
I0305 18:55:06.900616 16471 net.cpp:395] res2c_branch2b_relu -> res2c_branch2b (in-place)
I0305 18:55:06.900748 16471 net.cpp:150] Setting up res2c_branch2b_relu
I0305 18:55:06.900754 16471 net.cpp:157] Top shape: 32 64 56 56 (6422528)
I0305 18:55:06.900766 16471 net.cpp:165] Memory required for data: 2870870144
I0305 18:55:06.900768 16471 layer_factory.hpp:77] Creating layer res2c_branch2c
I0305 18:55:06.900774 16471 net.cpp:100] Creating Layer res2c_branch2c
I0305 18:55:06.900785 16471 net.cpp:434] res2c_branch2c <- res2c_branch2b
I0305 18:55:06.900789 16471 net.cpp:408] res2c_branch2c -> res2c_branch2c
I0305 18:55:06.901448 16471 net.cpp:150] Setting up res2c_branch2c
I0305 18:55:06.901455 16471 net.cpp:157] Top shape: 32 256 56 56 (25690112)
I0305 18:55:06.901468 16471 net.cpp:165] Memory required for data: 2973630592
I0305 18:55:06.901471 16471 layer_factory.hpp:77] Creating layer bn2c_branch2c
I0305 18:55:06.901485 16471 net.cpp:100] Creating Layer bn2c_branch2c
I0305 18:55:06.901487 16471 net.cpp:434] bn2c_branch2c <- res2c_branch2c
I0305 18:55:06.901491 16471 net.cpp:395] bn2c_branch2c -> res2c_branch2c (in-place)
I0305 18:55:06.901626 16471 net.cpp:150] Setting up bn2c_branch2c
I0305 18:55:06.901630 16471 net.cpp:157] Top shape: 32 256 56 56 (25690112)
I0305 18:55:06.901643 16471 net.cpp:165] Memory required for data: 3076391040
I0305 18:55:06.901660 16471 layer_factory.hpp:77] Creating layer scale2c_branch2c
I0305 18:55:06.901666 16471 net.cpp:100] Creating Layer scale2c_branch2c
I0305 18:55:06.901669 16471 net.cpp:434] scale2c_branch2c <- res2c_branch2c
I0305 18:55:06.901671 16471 net.cpp:395] scale2c_branch2c -> res2c_branch2c (in-place)
I0305 18:55:06.901718 16471 layer_factory.hpp:77] Creating layer scale2c_branch2c
I0305 18:55:06.901836 16471 net.cpp:150] Setting up scale2c_branch2c
I0305 18:55:06.901842 16471 net.cpp:157] Top shape: 32 256 56 56 (25690112)
I0305 18:55:06.901854 16471 net.cpp:165] Memory required for data: 3179151488
I0305 18:55:06.901859 16471 layer_factory.hpp:77] Creating layer res2c
I0305 18:55:06.901861 16471 net.cpp:100] Creating Layer res2c
I0305 18:55:06.901873 16471 net.cpp:434] res2c <- res2b_res2b_relu_0_split_1
I0305 18:55:06.901876 16471 net.cpp:434] res2c <- res2c_branch2c
I0305 18:55:06.901880 16471 net.cpp:408] res2c -> res2c
I0305 18:55:06.901895 16471 net.cpp:150] Setting up res2c
I0305 18:55:06.901911 16471 net.cpp:157] Top shape: 32 256 56 56 (25690112)
I0305 18:55:06.901912 16471 net.cpp:165] Memory required for data: 3281911936
I0305 18:55:06.901913 16471 layer_factory.hpp:77] Creating layer res2c_relu
I0305 18:55:06.901916 16471 net.cpp:100] Creating Layer res2c_relu
I0305 18:55:06.901918 16471 net.cpp:434] res2c_relu <- res2c
I0305 18:55:06.901921 16471 net.cpp:395] res2c_relu -> res2c (in-place)
I0305 18:55:06.902153 16471 net.cpp:150] Setting up res2c_relu
I0305 18:55:06.902159 16471 net.cpp:157] Top shape: 32 256 56 56 (25690112)
I0305 18:55:06.902171 16471 net.cpp:165] Memory required for data: 3384672384
I0305 18:55:06.902173 16471 layer_factory.hpp:77] Creating layer res2c_res2c_relu_0_split
I0305 18:55:06.902179 16471 net.cpp:100] Creating Layer res2c_res2c_relu_0_split
I0305 18:55:06.902189 16471 net.cpp:434] res2c_res2c_relu_0_split <- res2c
I0305 18:55:06.902192 16471 net.cpp:408] res2c_res2c_relu_0_split -> res2c_res2c_relu_0_split_0
I0305 18:55:06.902196 16471 net.cpp:408] res2c_res2c_relu_0_split -> res2c_res2c_relu_0_split_1
I0305 18:55:06.902232 16471 net.cpp:150] Setting up res2c_res2c_relu_0_split
I0305 18:55:06.902245 16471 net.cpp:157] Top shape: 32 256 56 56 (25690112)
I0305 18:55:06.902248 16471 net.cpp:157] Top shape: 32 256 56 56 (25690112)
I0305 18:55:06.902250 16471 net.cpp:165] Memory required for data: 3590193280
I0305 18:55:06.902251 16471 layer_factory.hpp:77] Creating layer res3a_branch1
I0305 18:55:06.902266 16471 net.cpp:100] Creating Layer res3a_branch1
I0305 18:55:06.902268 16471 net.cpp:434] res3a_branch1 <- res2c_res2c_relu_0_split_0
I0305 18:55:06.902281 16471 net.cpp:408] res3a_branch1 -> res3a_branch1
I0305 18:55:06.903224 16471 net.cpp:150] Setting up res3a_branch1
I0305 18:55:06.903234 16471 net.cpp:157] Top shape: 32 512 28 28 (12845056)
I0305 18:55:06.903244 16471 net.cpp:165] Memory required for data: 3641573504
I0305 18:55:06.903249 16471 layer_factory.hpp:77] Creating layer bn3a_branch1
I0305 18:55:06.903262 16471 net.cpp:100] Creating Layer bn3a_branch1
I0305 18:55:06.903264 16471 net.cpp:434] bn3a_branch1 <- res3a_branch1
I0305 18:55:06.903267 16471 net.cpp:395] bn3a_branch1 -> res3a_branch1 (in-place)
I0305 18:55:06.903645 16471 net.cpp:150] Setting up bn3a_branch1
I0305 18:55:06.903652 16471 net.cpp:157] Top shape: 32 512 28 28 (12845056)
I0305 18:55:06.903664 16471 net.cpp:165] Memory required for data: 3692953728
I0305 18:55:06.903669 16471 layer_factory.hpp:77] Creating layer scale3a_branch1
I0305 18:55:06.903683 16471 net.cpp:100] Creating Layer scale3a_branch1
I0305 18:55:06.903686 16471 net.cpp:434] scale3a_branch1 <- res3a_branch1
I0305 18:55:06.903689 16471 net.cpp:395] scale3a_branch1 -> res3a_branch1 (in-place)
I0305 18:55:06.903726 16471 layer_factory.hpp:77] Creating layer scale3a_branch1
I0305 18:55:06.903838 16471 net.cpp:150] Setting up scale3a_branch1
I0305 18:55:06.903843 16471 net.cpp:157] Top shape: 32 512 28 28 (12845056)
I0305 18:55:06.903856 16471 net.cpp:165] Memory required for data: 3744333952
I0305 18:55:06.903859 16471 layer_factory.hpp:77] Creating layer res3a_branch2a
I0305 18:55:06.903873 16471 net.cpp:100] Creating Layer res3a_branch2a
I0305 18:55:06.903875 16471 net.cpp:434] res3a_branch2a <- res2c_res2c_relu_0_split_1
I0305 18:55:06.903879 16471 net.cpp:408] res3a_branch2a -> res3a_branch2a
I0305 18:55:06.904655 16471 net.cpp:150] Setting up res3a_branch2a
I0305 18:55:06.904664 16471 net.cpp:157] Top shape: 32 128 28 28 (3211264)
I0305 18:55:06.904676 16471 net.cpp:165] Memory required for data: 3757179008
I0305 18:55:06.904680 16471 layer_factory.hpp:77] Creating layer bn3a_branch2a
I0305 18:55:06.904693 16471 net.cpp:100] Creating Layer bn3a_branch2a
I0305 18:55:06.904695 16471 net.cpp:434] bn3a_branch2a <- res3a_branch2a
I0305 18:55:06.904700 16471 net.cpp:395] bn3a_branch2a -> res3a_branch2a (in-place)
I0305 18:55:06.904835 16471 net.cpp:150] Setting up bn3a_branch2a
I0305 18:55:06.904840 16471 net.cpp:157] Top shape: 32 128 28 28 (3211264)
I0305 18:55:06.904842 16471 net.cpp:165] Memory required for data: 3770024064
I0305 18:55:06.904856 16471 layer_factory.hpp:77] Creating layer scale3a_branch2a
I0305 18:55:06.904860 16471 net.cpp:100] Creating Layer scale3a_branch2a
I0305 18:55:06.904871 16471 net.cpp:434] scale3a_branch2a <- res3a_branch2a
I0305 18:55:06.904875 16471 net.cpp:395] scale3a_branch2a -> res3a_branch2a (in-place)
I0305 18:55:06.904907 16471 layer_factory.hpp:77] Creating layer scale3a_branch2a
I0305 18:55:06.905030 16471 net.cpp:150] Setting up scale3a_branch2a
I0305 18:55:06.905035 16471 net.cpp:157] Top shape: 32 128 28 28 (3211264)
I0305 18:55:06.905047 16471 net.cpp:165] Memory required for data: 3782869120
I0305 18:55:06.905051 16471 layer_factory.hpp:77] Creating layer res3a_branch2a_relu
I0305 18:55:06.905055 16471 net.cpp:100] Creating Layer res3a_branch2a_relu
I0305 18:55:06.905067 16471 net.cpp:434] res3a_branch2a_relu <- res3a_branch2a
I0305 18:55:06.905069 16471 net.cpp:395] res3a_branch2a_relu -> res3a_branch2a (in-place)
I0305 18:55:06.905294 16471 net.cpp:150] Setting up res3a_branch2a_relu
I0305 18:55:06.905302 16471 net.cpp:157] Top shape: 32 128 28 28 (3211264)
I0305 18:55:06.905313 16471 net.cpp:165] Memory required for data: 3795714176
I0305 18:55:06.905315 16471 layer_factory.hpp:77] Creating layer res3a_branch2b
I0305 18:55:06.905320 16471 net.cpp:100] Creating Layer res3a_branch2b
I0305 18:55:06.905333 16471 net.cpp:434] res3a_branch2b <- res3a_branch2a
I0305 18:55:06.905336 16471 net.cpp:408] res3a_branch2b -> res3a_branch2b
I0305 18:55:06.906370 16471 net.cpp:150] Setting up res3a_branch2b
I0305 18:55:06.906379 16471 net.cpp:157] Top shape: 32 128 28 28 (3211264)
I0305 18:55:06.906391 16471 net.cpp:165] Memory required for data: 3808559232
I0305 18:55:06.906394 16471 layer_factory.hpp:77] Creating layer bn3a_branch2b
I0305 18:55:06.906409 16471 net.cpp:100] Creating Layer bn3a_branch2b
I0305 18:55:06.906411 16471 net.cpp:434] bn3a_branch2b <- res3a_branch2b
I0305 18:55:06.906414 16471 net.cpp:395] bn3a_branch2b -> res3a_branch2b (in-place)
I0305 18:55:06.906558 16471 net.cpp:150] Setting up bn3a_branch2b
I0305 18:55:06.906561 16471 net.cpp:157] Top shape: 32 128 28 28 (3211264)
I0305 18:55:06.906574 16471 net.cpp:165] Memory required for data: 3821404288
I0305 18:55:06.906579 16471 layer_factory.hpp:77] Creating layer scale3a_branch2b
I0305 18:55:06.906594 16471 net.cpp:100] Creating Layer scale3a_branch2b
I0305 18:55:06.906595 16471 net.cpp:434] scale3a_branch2b <- res3a_branch2b
I0305 18:55:06.906599 16471 net.cpp:395] scale3a_branch2b -> res3a_branch2b (in-place)
I0305 18:55:06.906633 16471 layer_factory.hpp:77] Creating layer scale3a_branch2b
I0305 18:55:06.906754 16471 net.cpp:150] Setting up scale3a_branch2b
I0305 18:55:06.906759 16471 net.cpp:157] Top shape: 32 128 28 28 (3211264)
I0305 18:55:06.906770 16471 net.cpp:165] Memory required for data: 3834249344
I0305 18:55:06.906774 16471 layer_factory.hpp:77] Creating layer res3a_branch2b_relu
I0305 18:55:06.906779 16471 net.cpp:100] Creating Layer res3a_branch2b_relu
I0305 18:55:06.906790 16471 net.cpp:434] res3a_branch2b_relu <- res3a_branch2b
I0305 18:55:06.906792 16471 net.cpp:395] res3a_branch2b_relu -> res3a_branch2b (in-place)
I0305 18:55:06.906929 16471 net.cpp:150] Setting up res3a_branch2b_relu
I0305 18:55:06.906934 16471 net.cpp:157] Top shape: 32 128 28 28 (3211264)
I0305 18:55:06.906945 16471 net.cpp:165] Memory required for data: 3847094400
I0305 18:55:06.906947 16471 layer_factory.hpp:77] Creating layer res3a_branch2c
I0305 18:55:06.906954 16471 net.cpp:100] Creating Layer res3a_branch2c
I0305 18:55:06.906965 16471 net.cpp:434] res3a_branch2c <- res3a_branch2b
I0305 18:55:06.906967 16471 net.cpp:408] res3a_branch2c -> res3a_branch2c
I0305 18:55:06.907667 16471 net.cpp:150] Setting up res3a_branch2c
I0305 18:55:06.907675 16471 net.cpp:157] Top shape: 32 512 28 28 (12845056)
I0305 18:55:06.907687 16471 net.cpp:165] Memory required for data: 3898474624
I0305 18:55:06.907691 16471 layer_factory.hpp:77] Creating layer bn3a_branch2c
I0305 18:55:06.907709 16471 net.cpp:100] Creating Layer bn3a_branch2c
I0305 18:55:06.907712 16471 net.cpp:434] bn3a_branch2c <- res3a_branch2c
I0305 18:55:06.907716 16471 net.cpp:395] bn3a_branch2c -> res3a_branch2c (in-place)
I0305 18:55:06.907856 16471 net.cpp:150] Setting up bn3a_branch2c
I0305 18:55:06.907861 16471 net.cpp:157] Top shape: 32 512 28 28 (12845056)
I0305 18:55:06.907863 16471 net.cpp:165] Memory required for data: 3949854848
I0305 18:55:06.907877 16471 layer_factory.hpp:77] Creating layer scale3a_branch2c
I0305 18:55:06.907881 16471 net.cpp:100] Creating Layer scale3a_branch2c
I0305 18:55:06.907893 16471 net.cpp:434] scale3a_branch2c <- res3a_branch2c
I0305 18:55:06.907896 16471 net.cpp:395] scale3a_branch2c -> res3a_branch2c (in-place)
I0305 18:55:06.907930 16471 layer_factory.hpp:77] Creating layer scale3a_branch2c
I0305 18:55:06.908058 16471 net.cpp:150] Setting up scale3a_branch2c
I0305 18:55:06.908083 16471 net.cpp:157] Top shape: 32 512 28 28 (12845056)
I0305 18:55:06.908097 16471 net.cpp:165] Memory required for data: 4001235072
I0305 18:55:06.908102 16471 layer_factory.hpp:77] Creating layer res3a
I0305 18:55:06.908107 16471 net.cpp:100] Creating Layer res3a
I0305 18:55:06.908108 16471 net.cpp:434] res3a <- res3a_branch1
I0305 18:55:06.908112 16471 net.cpp:434] res3a <- res3a_branch2c
I0305 18:55:06.908115 16471 net.cpp:408] res3a -> res3a
I0305 18:55:06.908131 16471 net.cpp:150] Setting up res3a
I0305 18:55:06.908146 16471 net.cpp:157] Top shape: 32 512 28 28 (12845056)
I0305 18:55:06.908149 16471 net.cpp:165] Memory required for data: 4052615296
I0305 18:55:06.908150 16471 layer_factory.hpp:77] Creating layer res3a_relu
I0305 18:55:06.908164 16471 net.cpp:100] Creating Layer res3a_relu
I0305 18:55:06.908165 16471 net.cpp:434] res3a_relu <- res3a
I0305 18:55:06.908167 16471 net.cpp:395] res3a_relu -> res3a (in-place)
I0305 18:55:06.908329 16471 net.cpp:150] Setting up res3a_relu
I0305 18:55:06.908334 16471 net.cpp:157] Top shape: 32 512 28 28 (12845056)
I0305 18:55:06.908346 16471 net.cpp:165] Memory required for data: 4103995520
I0305 18:55:06.908349 16471 layer_factory.hpp:77] Creating layer res3a_res3a_relu_0_split
I0305 18:55:06.908351 16471 net.cpp:100] Creating Layer res3a_res3a_relu_0_split
I0305 18:55:06.908354 16471 net.cpp:434] res3a_res3a_relu_0_split <- res3a
I0305 18:55:06.908366 16471 net.cpp:408] res3a_res3a_relu_0_split -> res3a_res3a_relu_0_split_0
I0305 18:55:06.908370 16471 net.cpp:408] res3a_res3a_relu_0_split -> res3a_res3a_relu_0_split_1
I0305 18:55:06.908407 16471 net.cpp:150] Setting up res3a_res3a_relu_0_split
I0305 18:55:06.908421 16471 net.cpp:157] Top shape: 32 512 28 28 (12845056)
I0305 18:55:06.908423 16471 net.cpp:157] Top shape: 32 512 28 28 (12845056)
I0305 18:55:06.908426 16471 net.cpp:165] Memory required for data: 4206755968
I0305 18:55:06.908427 16471 layer_factory.hpp:77] Creating layer res3b_branch2a
I0305 18:55:06.908442 16471 net.cpp:100] Creating Layer res3b_branch2a
I0305 18:55:06.908443 16471 net.cpp:434] res3b_branch2a <- res3a_res3a_relu_0_split_0
I0305 18:55:06.908447 16471 net.cpp:408] res3b_branch2a -> res3b_branch2a
I0305 18:55:06.909374 16471 net.cpp:150] Setting up res3b_branch2a
I0305 18:55:06.909384 16471 net.cpp:157] Top shape: 32 128 28 28 (3211264)
I0305 18:55:06.909386 16471 net.cpp:165] Memory required for data: 4219601024
I0305 18:55:06.909389 16471 layer_factory.hpp:77] Creating layer bn3b_branch2a
I0305 18:55:06.909394 16471 net.cpp:100] Creating Layer bn3b_branch2a
I0305 18:55:06.909397 16471 net.cpp:434] bn3b_branch2a <- res3b_branch2a
I0305 18:55:06.909410 16471 net.cpp:395] bn3b_branch2a -> res3b_branch2a (in-place)
I0305 18:55:06.909548 16471 net.cpp:150] Setting up bn3b_branch2a
I0305 18:55:06.909553 16471 net.cpp:157] Top shape: 32 128 28 28 (3211264)
I0305 18:55:06.909554 16471 net.cpp:165] Memory required for data: 4232446080
I0305 18:55:06.909559 16471 layer_factory.hpp:77] Creating layer scale3b_branch2a
I0305 18:55:06.909564 16471 net.cpp:100] Creating Layer scale3b_branch2a
I0305 18:55:06.909565 16471 net.cpp:434] scale3b_branch2a <- res3b_branch2a
I0305 18:55:06.909577 16471 net.cpp:395] scale3b_branch2a -> res3b_branch2a (in-place)
I0305 18:55:06.909615 16471 layer_factory.hpp:77] Creating layer scale3b_branch2a
I0305 18:55:06.909708 16471 net.cpp:150] Setting up scale3b_branch2a
I0305 18:55:06.909713 16471 net.cpp:157] Top shape: 32 128 28 28 (3211264)
I0305 18:55:06.909715 16471 net.cpp:165] Memory required for data: 4245291136
I0305 18:55:06.909719 16471 layer_factory.hpp:77] Creating layer res3b_branch2a_relu
I0305 18:55:06.909723 16471 net.cpp:100] Creating Layer res3b_branch2a_relu
I0305 18:55:06.909725 16471 net.cpp:434] res3b_branch2a_relu <- res3b_branch2a
I0305 18:55:06.909728 16471 net.cpp:395] res3b_branch2a_relu -> res3b_branch2a (in-place)
I0305 18:55:06.909966 16471 net.cpp:150] Setting up res3b_branch2a_relu
I0305 18:55:06.909974 16471 net.cpp:157] Top shape: 32 128 28 28 (3211264)
I0305 18:55:06.909986 16471 net.cpp:165] Memory required for data: 4258136192
I0305 18:55:06.909987 16471 layer_factory.hpp:77] Creating layer res3b_branch2b
I0305 18:55:06.909993 16471 net.cpp:100] Creating Layer res3b_branch2b
I0305 18:55:06.910004 16471 net.cpp:434] res3b_branch2b <- res3b_branch2a
I0305 18:55:06.910008 16471 net.cpp:408] res3b_branch2b -> res3b_branch2b
I0305 18:55:06.911037 16471 net.cpp:150] Setting up res3b_branch2b
I0305 18:55:06.911046 16471 net.cpp:157] Top shape: 32 128 28 28 (3211264)
I0305 18:55:06.911048 16471 net.cpp:165] Memory required for data: 4270981248
I0305 18:55:06.911052 16471 layer_factory.hpp:77] Creating layer bn3b_branch2b
I0305 18:55:06.911056 16471 net.cpp:100] Creating Layer bn3b_branch2b
I0305 18:55:06.911058 16471 net.cpp:434] bn3b_branch2b <- res3b_branch2b
I0305 18:55:06.911072 16471 net.cpp:395] bn3b_branch2b -> res3b_branch2b (in-place)
I0305 18:55:06.911209 16471 net.cpp:150] Setting up bn3b_branch2b
I0305 18:55:06.911214 16471 net.cpp:157] Top shape: 32 128 28 28 (3211264)
I0305 18:55:06.911216 16471 net.cpp:165] Memory required for data: 4283826304
I0305 18:55:06.911221 16471 layer_factory.hpp:77] Creating layer scale3b_branch2b
I0305 18:55:06.911224 16471 net.cpp:100] Creating Layer scale3b_branch2b
I0305 18:55:06.911226 16471 net.cpp:434] scale3b_branch2b <- res3b_branch2b
I0305 18:55:06.911238 16471 net.cpp:395] scale3b_branch2b -> res3b_branch2b (in-place)
I0305 18:55:06.911280 16471 layer_factory.hpp:77] Creating layer scale3b_branch2b
I0305 18:55:06.911378 16471 net.cpp:150] Setting up scale3b_branch2b
I0305 18:55:06.911383 16471 net.cpp:157] Top shape: 32 128 28 28 (3211264)
I0305 18:55:06.911386 16471 net.cpp:165] Memory required for data: 4296671360
I0305 18:55:06.911388 16471 layer_factory.hpp:77] Creating layer res3b_branch2b_relu
I0305 18:55:06.911392 16471 net.cpp:100] Creating Layer res3b_branch2b_relu
I0305 18:55:06.911394 16471 net.cpp:434] res3b_branch2b_relu <- res3b_branch2b
I0305 18:55:06.911397 16471 net.cpp:395] res3b_branch2b_relu -> res3b_branch2b (in-place)
I0305 18:55:06.911548 16471 net.cpp:150] Setting up res3b_branch2b_relu
I0305 18:55:06.911556 16471 net.cpp:157] Top shape: 32 128 28 28 (3211264)
I0305 18:55:06.911557 16471 net.cpp:165] Memory required for data: 4309516416
I0305 18:55:06.911559 16471 layer_factory.hpp:77] Creating layer res3b_branch2c
I0305 18:55:06.911566 16471 net.cpp:100] Creating Layer res3b_branch2c
I0305 18:55:06.911568 16471 net.cpp:434] res3b_branch2c <- res3b_branch2b
I0305 18:55:06.911581 16471 net.cpp:408] res3b_branch2c -> res3b_branch2c
I0305 18:55:06.912286 16471 net.cpp:150] Setting up res3b_branch2c
I0305 18:55:06.912294 16471 net.cpp:157] Top shape: 32 512 28 28 (12845056)
I0305 18:55:06.912297 16471 net.cpp:165] Memory required for data: 4360896640
I0305 18:55:06.912300 16471 layer_factory.hpp:77] Creating layer bn3b_branch2c
I0305 18:55:06.912304 16471 net.cpp:100] Creating Layer bn3b_branch2c
I0305 18:55:06.912307 16471 net.cpp:434] bn3b_branch2c <- res3b_branch2c
I0305 18:55:06.912320 16471 net.cpp:395] bn3b_branch2c -> res3b_branch2c (in-place)
I0305 18:55:06.912457 16471 net.cpp:150] Setting up bn3b_branch2c
I0305 18:55:06.912462 16471 net.cpp:157] Top shape: 32 512 28 28 (12845056)
I0305 18:55:06.912464 16471 net.cpp:165] Memory required for data: 4412276864
I0305 18:55:06.912469 16471 layer_factory.hpp:77] Creating layer scale3b_branch2c
I0305 18:55:06.912472 16471 net.cpp:100] Creating Layer scale3b_branch2c
I0305 18:55:06.912474 16471 net.cpp:434] scale3b_branch2c <- res3b_branch2c
I0305 18:55:06.912477 16471 net.cpp:395] scale3b_branch2c -> res3b_branch2c (in-place)
I0305 18:55:06.912528 16471 layer_factory.hpp:77] Creating layer scale3b_branch2c
I0305 18:55:06.912619 16471 net.cpp:150] Setting up scale3b_branch2c
I0305 18:55:06.912623 16471 net.cpp:157] Top shape: 32 512 28 28 (12845056)
I0305 18:55:06.912626 16471 net.cpp:165] Memory required for data: 4463657088
I0305 18:55:06.912628 16471 layer_factory.hpp:77] Creating layer res3b
I0305 18:55:06.912633 16471 net.cpp:100] Creating Layer res3b
I0305 18:55:06.912636 16471 net.cpp:434] res3b <- res3a_res3a_relu_0_split_1
I0305 18:55:06.912637 16471 net.cpp:434] res3b <- res3b_branch2c
I0305 18:55:06.912650 16471 net.cpp:408] res3b -> res3b
I0305 18:55:06.912665 16471 net.cpp:150] Setting up res3b
I0305 18:55:06.912669 16471 net.cpp:157] Top shape: 32 512 28 28 (12845056)
I0305 18:55:06.912672 16471 net.cpp:165] Memory required for data: 4515037312
I0305 18:55:06.912674 16471 layer_factory.hpp:77] Creating layer res3b_relu
I0305 18:55:06.912688 16471 net.cpp:100] Creating Layer res3b_relu
I0305 18:55:06.912689 16471 net.cpp:434] res3b_relu <- res3b
I0305 18:55:06.912693 16471 net.cpp:395] res3b_relu -> res3b (in-place)
I0305 18:55:06.912820 16471 net.cpp:150] Setting up res3b_relu
I0305 18:55:06.912827 16471 net.cpp:157] Top shape: 32 512 28 28 (12845056)
I0305 18:55:06.912828 16471 net.cpp:165] Memory required for data: 4566417536
I0305 18:55:06.912830 16471 layer_factory.hpp:77] Creating layer res3b_res3b_relu_0_split
I0305 18:55:06.912834 16471 net.cpp:100] Creating Layer res3b_res3b_relu_0_split
I0305 18:55:06.912837 16471 net.cpp:434] res3b_res3b_relu_0_split <- res3b
I0305 18:55:06.912839 16471 net.cpp:408] res3b_res3b_relu_0_split -> res3b_res3b_relu_0_split_0
I0305 18:55:06.912853 16471 net.cpp:408] res3b_res3b_relu_0_split -> res3b_res3b_relu_0_split_1
I0305 18:55:06.912889 16471 net.cpp:150] Setting up res3b_res3b_relu_0_split
I0305 18:55:06.912892 16471 net.cpp:157] Top shape: 32 512 28 28 (12845056)
I0305 18:55:06.912894 16471 net.cpp:157] Top shape: 32 512 28 28 (12845056)
I0305 18:55:06.912896 16471 net.cpp:165] Memory required for data: 4669177984
I0305 18:55:06.912899 16471 layer_factory.hpp:77] Creating layer res3c_branch2a
I0305 18:55:06.912902 16471 net.cpp:100] Creating Layer res3c_branch2a
I0305 18:55:06.912904 16471 net.cpp:434] res3c_branch2a <- res3b_res3b_relu_0_split_0
I0305 18:55:06.912909 16471 net.cpp:408] res3c_branch2a -> res3c_branch2a
I0305 18:55:06.913599 16471 net.cpp:150] Setting up res3c_branch2a
I0305 18:55:06.913609 16471 net.cpp:157] Top shape: 32 128 28 28 (3211264)
I0305 18:55:06.913610 16471 net.cpp:165] Memory required for data: 4682023040
I0305 18:55:06.913614 16471 layer_factory.hpp:77] Creating layer bn3c_branch2a
I0305 18:55:06.913619 16471 net.cpp:100] Creating Layer bn3c_branch2a
I0305 18:55:06.913620 16471 net.cpp:434] bn3c_branch2a <- res3c_branch2a
I0305 18:55:06.913635 16471 net.cpp:395] bn3c_branch2a -> res3c_branch2a (in-place)
I0305 18:55:06.913769 16471 net.cpp:150] Setting up bn3c_branch2a
I0305 18:55:06.913774 16471 net.cpp:157] Top shape: 32 128 28 28 (3211264)
I0305 18:55:06.913775 16471 net.cpp:165] Memory required for data: 4694868096
I0305 18:55:06.913779 16471 layer_factory.hpp:77] Creating layer scale3c_branch2a
I0305 18:55:06.913785 16471 net.cpp:100] Creating Layer scale3c_branch2a
I0305 18:55:06.913787 16471 net.cpp:434] scale3c_branch2a <- res3c_branch2a
I0305 18:55:06.913800 16471 net.cpp:395] scale3c_branch2a -> res3c_branch2a (in-place)
I0305 18:55:06.913836 16471 layer_factory.hpp:77] Creating layer scale3c_branch2a
I0305 18:55:06.913930 16471 net.cpp:150] Setting up scale3c_branch2a
I0305 18:55:06.913935 16471 net.cpp:157] Top shape: 32 128 28 28 (3211264)
I0305 18:55:06.913936 16471 net.cpp:165] Memory required for data: 4707713152
I0305 18:55:06.913940 16471 layer_factory.hpp:77] Creating layer res3c_branch2a_relu
I0305 18:55:06.913944 16471 net.cpp:100] Creating Layer res3c_branch2a_relu
I0305 18:55:06.913945 16471 net.cpp:434] res3c_branch2a_relu <- res3c_branch2a
I0305 18:55:06.913949 16471 net.cpp:395] res3c_branch2a_relu -> res3c_branch2a (in-place)
I0305 18:55:06.914189 16471 net.cpp:150] Setting up res3c_branch2a_relu
I0305 18:55:06.914197 16471 net.cpp:157] Top shape: 32 128 28 28 (3211264)
I0305 18:55:06.914199 16471 net.cpp:165] Memory required for data: 4720558208
I0305 18:55:06.914201 16471 layer_factory.hpp:77] Creating layer res3c_branch2b
I0305 18:55:06.914206 16471 net.cpp:100] Creating Layer res3c_branch2b
I0305 18:55:06.914209 16471 net.cpp:434] res3c_branch2b <- res3c_branch2a
I0305 18:55:06.914222 16471 net.cpp:408] res3c_branch2b -> res3c_branch2b
I0305 18:55:06.915262 16471 net.cpp:150] Setting up res3c_branch2b
I0305 18:55:06.915271 16471 net.cpp:157] Top shape: 32 128 28 28 (3211264)
I0305 18:55:06.915274 16471 net.cpp:165] Memory required for data: 4733403264
I0305 18:55:06.915277 16471 layer_factory.hpp:77] Creating layer bn3c_branch2b
I0305 18:55:06.915282 16471 net.cpp:100] Creating Layer bn3c_branch2b
I0305 18:55:06.915284 16471 net.cpp:434] bn3c_branch2b <- res3c_branch2b
I0305 18:55:06.915297 16471 net.cpp:395] bn3c_branch2b -> res3c_branch2b (in-place)
I0305 18:55:06.915442 16471 net.cpp:150] Setting up bn3c_branch2b
I0305 18:55:06.915447 16471 net.cpp:157] Top shape: 32 128 28 28 (3211264)
I0305 18:55:06.915449 16471 net.cpp:165] Memory required for data: 4746248320
I0305 18:55:06.915453 16471 layer_factory.hpp:77] Creating layer scale3c_branch2b
I0305 18:55:06.915457 16471 net.cpp:100] Creating Layer scale3c_branch2b
I0305 18:55:06.915459 16471 net.cpp:434] scale3c_branch2b <- res3c_branch2b
I0305 18:55:06.915462 16471 net.cpp:395] scale3c_branch2b -> res3c_branch2b (in-place)
I0305 18:55:06.915508 16471 layer_factory.hpp:77] Creating layer scale3c_branch2b
I0305 18:55:06.915602 16471 net.cpp:150] Setting up scale3c_branch2b
I0305 18:55:06.915607 16471 net.cpp:157] Top shape: 32 128 28 28 (3211264)
I0305 18:55:06.915609 16471 net.cpp:165] Memory required for data: 4759093376
I0305 18:55:06.915612 16471 layer_factory.hpp:77] Creating layer res3c_branch2b_relu
I0305 18:55:06.915616 16471 net.cpp:100] Creating Layer res3c_branch2b_relu
I0305 18:55:06.915618 16471 net.cpp:434] res3c_branch2b_relu <- res3c_branch2b
I0305 18:55:06.915621 16471 net.cpp:395] res3c_branch2b_relu -> res3c_branch2b (in-place)
I0305 18:55:06.915760 16471 net.cpp:150] Setting up res3c_branch2b_relu
I0305 18:55:06.915766 16471 net.cpp:157] Top shape: 32 128 28 28 (3211264)
I0305 18:55:06.915768 16471 net.cpp:165] Memory required for data: 4771938432
I0305 18:55:06.915771 16471 layer_factory.hpp:77] Creating layer res3c_branch2c
I0305 18:55:06.915774 16471 net.cpp:100] Creating Layer res3c_branch2c
I0305 18:55:06.915776 16471 net.cpp:434] res3c_branch2c <- res3c_branch2b
I0305 18:55:06.915791 16471 net.cpp:408] res3c_branch2c -> res3c_branch2c
I0305 18:55:06.916622 16471 net.cpp:150] Setting up res3c_branch2c
I0305 18:55:06.916645 16471 net.cpp:157] Top shape: 32 512 28 28 (12845056)
I0305 18:55:06.916657 16471 net.cpp:165] Memory required for data: 4823318656
I0305 18:55:06.916661 16471 layer_factory.hpp:77] Creating layer bn3c_branch2c
I0305 18:55:06.916666 16471 net.cpp:100] Creating Layer bn3c_branch2c
I0305 18:55:06.916669 16471 net.cpp:434] bn3c_branch2c <- res3c_branch2c
I0305 18:55:06.916672 16471 net.cpp:395] bn3c_branch2c -> res3c_branch2c (in-place)
I0305 18:55:06.916811 16471 net.cpp:150] Setting up bn3c_branch2c
I0305 18:55:06.916816 16471 net.cpp:157] Top shape: 32 512 28 28 (12845056)
I0305 18:55:06.916818 16471 net.cpp:165] Memory required for data: 4874698880
I0305 18:55:06.916823 16471 layer_factory.hpp:77] Creating layer scale3c_branch2c
I0305 18:55:06.916827 16471 net.cpp:100] Creating Layer scale3c_branch2c
I0305 18:55:06.916829 16471 net.cpp:434] scale3c_branch2c <- res3c_branch2c
I0305 18:55:06.916831 16471 net.cpp:395] scale3c_branch2c -> res3c_branch2c (in-place)
I0305 18:55:06.916879 16471 layer_factory.hpp:77] Creating layer scale3c_branch2c
I0305 18:55:06.916980 16471 net.cpp:150] Setting up scale3c_branch2c
I0305 18:55:06.916985 16471 net.cpp:157] Top shape: 32 512 28 28 (12845056)
I0305 18:55:06.916985 16471 net.cpp:165] Memory required for data: 4926079104
I0305 18:55:06.916990 16471 layer_factory.hpp:77] Creating layer res3c
I0305 18:55:06.916993 16471 net.cpp:100] Creating Layer res3c
I0305 18:55:06.916996 16471 net.cpp:434] res3c <- res3b_res3b_relu_0_split_1
I0305 18:55:06.916998 16471 net.cpp:434] res3c <- res3c_branch2c
I0305 18:55:06.917011 16471 net.cpp:408] res3c -> res3c
I0305 18:55:06.917026 16471 net.cpp:150] Setting up res3c
I0305 18:55:06.917032 16471 net.cpp:157] Top shape: 32 512 28 28 (12845056)
I0305 18:55:06.917033 16471 net.cpp:165] Memory required for data: 4977459328
I0305 18:55:06.917044 16471 layer_factory.hpp:77] Creating layer res3c_relu
I0305 18:55:06.917048 16471 net.cpp:100] Creating Layer res3c_relu
I0305 18:55:06.917050 16471 net.cpp:434] res3c_relu <- res3c
I0305 18:55:06.917052 16471 net.cpp:395] res3c_relu -> res3c (in-place)
I0305 18:55:06.917207 16471 net.cpp:150] Setting up res3c_relu
I0305 18:55:06.917213 16471 net.cpp:157] Top shape: 32 512 28 28 (12845056)
I0305 18:55:06.917215 16471 net.cpp:165] Memory required for data: 5028839552
I0305 18:55:06.917217 16471 layer_factory.hpp:77] Creating layer res3c_res3c_relu_0_split
I0305 18:55:06.917222 16471 net.cpp:100] Creating Layer res3c_res3c_relu_0_split
I0305 18:55:06.917223 16471 net.cpp:434] res3c_res3c_relu_0_split <- res3c
I0305 18:55:06.917227 16471 net.cpp:408] res3c_res3c_relu_0_split -> res3c_res3c_relu_0_split_0
I0305 18:55:06.917240 16471 net.cpp:408] res3c_res3c_relu_0_split -> res3c_res3c_relu_0_split_1
I0305 18:55:06.917276 16471 net.cpp:150] Setting up res3c_res3c_relu_0_split
I0305 18:55:06.917280 16471 net.cpp:157] Top shape: 32 512 28 28 (12845056)
I0305 18:55:06.917282 16471 net.cpp:157] Top shape: 32 512 28 28 (12845056)
I0305 18:55:06.917284 16471 net.cpp:165] Memory required for data: 5131600000
I0305 18:55:06.917286 16471 layer_factory.hpp:77] Creating layer res3d_branch2a
I0305 18:55:06.917291 16471 net.cpp:100] Creating Layer res3d_branch2a
I0305 18:55:06.917294 16471 net.cpp:434] res3d_branch2a <- res3c_res3c_relu_0_split_0
I0305 18:55:06.917306 16471 net.cpp:408] res3d_branch2a -> res3d_branch2a
I0305 18:55:06.918222 16471 net.cpp:150] Setting up res3d_branch2a
I0305 18:55:06.918231 16471 net.cpp:157] Top shape: 32 128 28 28 (3211264)
I0305 18:55:06.918233 16471 net.cpp:165] Memory required for data: 5144445056
I0305 18:55:06.918236 16471 layer_factory.hpp:77] Creating layer bn3d_branch2a
I0305 18:55:06.918241 16471 net.cpp:100] Creating Layer bn3d_branch2a
I0305 18:55:06.918243 16471 net.cpp:434] bn3d_branch2a <- res3d_branch2a
I0305 18:55:06.918256 16471 net.cpp:395] bn3d_branch2a -> res3d_branch2a (in-place)
I0305 18:55:06.918395 16471 net.cpp:150] Setting up bn3d_branch2a
I0305 18:55:06.918400 16471 net.cpp:157] Top shape: 32 128 28 28 (3211264)
I0305 18:55:06.918401 16471 net.cpp:165] Memory required for data: 5157290112
I0305 18:55:06.918429 16471 layer_factory.hpp:77] Creating layer scale3d_branch2a
I0305 18:55:06.918434 16471 net.cpp:100] Creating Layer scale3d_branch2a
I0305 18:55:06.918447 16471 net.cpp:434] scale3d_branch2a <- res3d_branch2a
I0305 18:55:06.918449 16471 net.cpp:395] scale3d_branch2a -> res3d_branch2a (in-place)
I0305 18:55:06.918488 16471 layer_factory.hpp:77] Creating layer scale3d_branch2a
I0305 18:55:06.918593 16471 net.cpp:150] Setting up scale3d_branch2a
I0305 18:55:06.918598 16471 net.cpp:157] Top shape: 32 128 28 28 (3211264)
I0305 18:55:06.918601 16471 net.cpp:165] Memory required for data: 5170135168
I0305 18:55:06.918603 16471 layer_factory.hpp:77] Creating layer res3d_branch2a_relu
I0305 18:55:06.918607 16471 net.cpp:100] Creating Layer res3d_branch2a_relu
I0305 18:55:06.918609 16471 net.cpp:434] res3d_branch2a_relu <- res3d_branch2a
I0305 18:55:06.918612 16471 net.cpp:395] res3d_branch2a_relu -> res3d_branch2a (in-place)
I0305 18:55:06.918839 16471 net.cpp:150] Setting up res3d_branch2a_relu
I0305 18:55:06.918848 16471 net.cpp:157] Top shape: 32 128 28 28 (3211264)
I0305 18:55:06.918849 16471 net.cpp:165] Memory required for data: 5182980224
I0305 18:55:06.918851 16471 layer_factory.hpp:77] Creating layer res3d_branch2b
I0305 18:55:06.918874 16471 net.cpp:100] Creating Layer res3d_branch2b
I0305 18:55:06.918875 16471 net.cpp:434] res3d_branch2b <- res3d_branch2a
I0305 18:55:06.918879 16471 net.cpp:408] res3d_branch2b -> res3d_branch2b
I0305 18:55:06.919965 16471 net.cpp:150] Setting up res3d_branch2b
I0305 18:55:06.919975 16471 net.cpp:157] Top shape: 32 128 28 28 (3211264)
I0305 18:55:06.919977 16471 net.cpp:165] Memory required for data: 5195825280
I0305 18:55:06.919981 16471 layer_factory.hpp:77] Creating layer bn3d_branch2b
I0305 18:55:06.919986 16471 net.cpp:100] Creating Layer bn3d_branch2b
I0305 18:55:06.919988 16471 net.cpp:434] bn3d_branch2b <- res3d_branch2b
I0305 18:55:06.920001 16471 net.cpp:395] bn3d_branch2b -> res3d_branch2b (in-place)
I0305 18:55:06.920157 16471 net.cpp:150] Setting up bn3d_branch2b
I0305 18:55:06.920164 16471 net.cpp:157] Top shape: 32 128 28 28 (3211264)
I0305 18:55:06.920166 16471 net.cpp:165] Memory required for data: 5208670336
I0305 18:55:06.920171 16471 layer_factory.hpp:77] Creating layer scale3d_branch2b
I0305 18:55:06.920176 16471 net.cpp:100] Creating Layer scale3d_branch2b
I0305 18:55:06.920177 16471 net.cpp:434] scale3d_branch2b <- res3d_branch2b
I0305 18:55:06.920189 16471 net.cpp:395] scale3d_branch2b -> res3d_branch2b (in-place)
I0305 18:55:06.920230 16471 layer_factory.hpp:77] Creating layer scale3d_branch2b
I0305 18:55:06.920334 16471 net.cpp:150] Setting up scale3d_branch2b
I0305 18:55:06.920339 16471 net.cpp:157] Top shape: 32 128 28 28 (3211264)
I0305 18:55:06.920341 16471 net.cpp:165] Memory required for data: 5221515392
I0305 18:55:06.920344 16471 layer_factory.hpp:77] Creating layer res3d_branch2b_relu
I0305 18:55:06.920348 16471 net.cpp:100] Creating Layer res3d_branch2b_relu
I0305 18:55:06.920351 16471 net.cpp:434] res3d_branch2b_relu <- res3d_branch2b
I0305 18:55:06.920364 16471 net.cpp:395] res3d_branch2b_relu -> res3d_branch2b (in-place)
I0305 18:55:06.920497 16471 net.cpp:150] Setting up res3d_branch2b_relu
I0305 18:55:06.920503 16471 net.cpp:157] Top shape: 32 128 28 28 (3211264)
I0305 18:55:06.920506 16471 net.cpp:165] Memory required for data: 5234360448
I0305 18:55:06.920507 16471 layer_factory.hpp:77] Creating layer res3d_branch2c
I0305 18:55:06.920513 16471 net.cpp:100] Creating Layer res3d_branch2c
I0305 18:55:06.920516 16471 net.cpp:434] res3d_branch2c <- res3d_branch2b
I0305 18:55:06.920528 16471 net.cpp:408] res3d_branch2c -> res3d_branch2c
I0305 18:55:06.921238 16471 net.cpp:150] Setting up res3d_branch2c
I0305 18:55:06.921247 16471 net.cpp:157] Top shape: 32 512 28 28 (12845056)
I0305 18:55:06.921249 16471 net.cpp:165] Memory required for data: 5285740672
I0305 18:55:06.921252 16471 layer_factory.hpp:77] Creating layer bn3d_branch2c
I0305 18:55:06.921257 16471 net.cpp:100] Creating Layer bn3d_branch2c
I0305 18:55:06.921259 16471 net.cpp:434] bn3d_branch2c <- res3d_branch2c
I0305 18:55:06.921272 16471 net.cpp:395] bn3d_branch2c -> res3d_branch2c (in-place)
I0305 18:55:06.921424 16471 net.cpp:150] Setting up bn3d_branch2c
I0305 18:55:06.921429 16471 net.cpp:157] Top shape: 32 512 28 28 (12845056)
I0305 18:55:06.921432 16471 net.cpp:165] Memory required for data: 5337120896
I0305 18:55:06.921437 16471 layer_factory.hpp:77] Creating layer scale3d_branch2c
I0305 18:55:06.921440 16471 net.cpp:100] Creating Layer scale3d_branch2c
I0305 18:55:06.921442 16471 net.cpp:434] scale3d_branch2c <- res3d_branch2c
I0305 18:55:06.921454 16471 net.cpp:395] scale3d_branch2c -> res3d_branch2c (in-place)
I0305 18:55:06.921494 16471 layer_factory.hpp:77] Creating layer scale3d_branch2c
I0305 18:55:06.921586 16471 net.cpp:150] Setting up scale3d_branch2c
I0305 18:55:06.921591 16471 net.cpp:157] Top shape: 32 512 28 28 (12845056)
I0305 18:55:06.921592 16471 net.cpp:165] Memory required for data: 5388501120
I0305 18:55:06.921596 16471 layer_factory.hpp:77] Creating layer res3d
I0305 18:55:06.921599 16471 net.cpp:100] Creating Layer res3d
I0305 18:55:06.921602 16471 net.cpp:434] res3d <- res3c_res3c_relu_0_split_1
I0305 18:55:06.921604 16471 net.cpp:434] res3d <- res3d_branch2c
I0305 18:55:06.921617 16471 net.cpp:408] res3d -> res3d
I0305 18:55:06.921638 16471 net.cpp:150] Setting up res3d
I0305 18:55:06.921651 16471 net.cpp:157] Top shape: 32 512 28 28 (12845056)
I0305 18:55:06.921654 16471 net.cpp:165] Memory required for data: 5439881344
I0305 18:55:06.921656 16471 layer_factory.hpp:77] Creating layer res3d_relu
I0305 18:55:06.921659 16471 net.cpp:100] Creating Layer res3d_relu
I0305 18:55:06.921661 16471 net.cpp:434] res3d_relu <- res3d
I0305 18:55:06.921667 16471 net.cpp:395] res3d_relu -> res3d (in-place)
I0305 18:55:06.921802 16471 net.cpp:150] Setting up res3d_relu
I0305 18:55:06.921808 16471 net.cpp:157] Top shape: 32 512 28 28 (12845056)
I0305 18:55:06.921809 16471 net.cpp:165] Memory required for data: 5491261568
I0305 18:55:06.921811 16471 layer_factory.hpp:77] Creating layer res3d_res3d_relu_0_split
I0305 18:55:06.921816 16471 net.cpp:100] Creating Layer res3d_res3d_relu_0_split
I0305 18:55:06.921818 16471 net.cpp:434] res3d_res3d_relu_0_split <- res3d
I0305 18:55:06.921821 16471 net.cpp:408] res3d_res3d_relu_0_split -> res3d_res3d_relu_0_split_0
I0305 18:55:06.921834 16471 net.cpp:408] res3d_res3d_relu_0_split -> res3d_res3d_relu_0_split_1
I0305 18:55:06.921872 16471 net.cpp:150] Setting up res3d_res3d_relu_0_split
I0305 18:55:06.921877 16471 net.cpp:157] Top shape: 32 512 28 28 (12845056)
I0305 18:55:06.921883 16471 net.cpp:157] Top shape: 32 512 28 28 (12845056)
I0305 18:55:06.921885 16471 net.cpp:165] Memory required for data: 5594022016
I0305 18:55:06.921886 16471 layer_factory.hpp:77] Creating layer res4a_branch1
I0305 18:55:06.921891 16471 net.cpp:100] Creating Layer res4a_branch1
I0305 18:55:06.921893 16471 net.cpp:434] res4a_branch1 <- res3d_res3d_relu_0_split_0
I0305 18:55:06.921906 16471 net.cpp:408] res4a_branch1 -> res4a_branch1
I0305 18:55:06.924638 16471 net.cpp:150] Setting up res4a_branch1
I0305 18:55:06.924646 16471 net.cpp:157] Top shape: 32 1024 14 14 (6422528)
I0305 18:55:06.924649 16471 net.cpp:165] Memory required for data: 5619712128
I0305 18:55:06.924652 16471 layer_factory.hpp:77] Creating layer bn4a_branch1
I0305 18:55:06.924656 16471 net.cpp:100] Creating Layer bn4a_branch1
I0305 18:55:06.924659 16471 net.cpp:434] bn4a_branch1 <- res4a_branch1
I0305 18:55:06.924662 16471 net.cpp:395] bn4a_branch1 -> res4a_branch1 (in-place)
I0305 18:55:06.924801 16471 net.cpp:150] Setting up bn4a_branch1
I0305 18:55:06.924806 16471 net.cpp:157] Top shape: 32 1024 14 14 (6422528)
I0305 18:55:06.924808 16471 net.cpp:165] Memory required for data: 5645402240
I0305 18:55:06.924813 16471 layer_factory.hpp:77] Creating layer scale4a_branch1
I0305 18:55:06.924816 16471 net.cpp:100] Creating Layer scale4a_branch1
I0305 18:55:06.924818 16471 net.cpp:434] scale4a_branch1 <- res4a_branch1
I0305 18:55:06.924821 16471 net.cpp:395] scale4a_branch1 -> res4a_branch1 (in-place)
I0305 18:55:06.924845 16471 layer_factory.hpp:77] Creating layer scale4a_branch1
I0305 18:55:06.924926 16471 net.cpp:150] Setting up scale4a_branch1
I0305 18:55:06.924932 16471 net.cpp:157] Top shape: 32 1024 14 14 (6422528)
I0305 18:55:06.924933 16471 net.cpp:165] Memory required for data: 5671092352
I0305 18:55:06.924937 16471 layer_factory.hpp:77] Creating layer res4a_branch2a
I0305 18:55:06.924942 16471 net.cpp:100] Creating Layer res4a_branch2a
I0305 18:55:06.924944 16471 net.cpp:434] res4a_branch2a <- res3d_res3d_relu_0_split_1
I0305 18:55:06.924947 16471 net.cpp:408] res4a_branch2a -> res4a_branch2a
I0305 18:55:06.925688 16471 net.cpp:150] Setting up res4a_branch2a
I0305 18:55:06.925696 16471 net.cpp:157] Top shape: 32 256 14 14 (1605632)
I0305 18:55:06.925699 16471 net.cpp:165] Memory required for data: 5677514880
I0305 18:55:06.925703 16471 layer_factory.hpp:77] Creating layer bn4a_branch2a
I0305 18:55:06.925706 16471 net.cpp:100] Creating Layer bn4a_branch2a
I0305 18:55:06.925709 16471 net.cpp:434] bn4a_branch2a <- res4a_branch2a
I0305 18:55:06.925712 16471 net.cpp:395] bn4a_branch2a -> res4a_branch2a (in-place)
I0305 18:55:06.925843 16471 net.cpp:150] Setting up bn4a_branch2a
I0305 18:55:06.925848 16471 net.cpp:157] Top shape: 32 256 14 14 (1605632)
I0305 18:55:06.925850 16471 net.cpp:165] Memory required for data: 5683937408
I0305 18:55:06.925854 16471 layer_factory.hpp:77] Creating layer scale4a_branch2a
I0305 18:55:06.925858 16471 net.cpp:100] Creating Layer scale4a_branch2a
I0305 18:55:06.925860 16471 net.cpp:434] scale4a_branch2a <- res4a_branch2a
I0305 18:55:06.925863 16471 net.cpp:395] scale4a_branch2a -> res4a_branch2a (in-place)
I0305 18:55:06.925889 16471 layer_factory.hpp:77] Creating layer scale4a_branch2a
I0305 18:55:06.925972 16471 net.cpp:150] Setting up scale4a_branch2a
I0305 18:55:06.925978 16471 net.cpp:157] Top shape: 32 256 14 14 (1605632)
I0305 18:55:06.925981 16471 net.cpp:165] Memory required for data: 5690359936
I0305 18:55:06.925983 16471 layer_factory.hpp:77] Creating layer res4a_branch2a_relu
I0305 18:55:06.925987 16471 net.cpp:100] Creating Layer res4a_branch2a_relu
I0305 18:55:06.925989 16471 net.cpp:434] res4a_branch2a_relu <- res4a_branch2a
I0305 18:55:06.925992 16471 net.cpp:395] res4a_branch2a_relu -> res4a_branch2a (in-place)
I0305 18:55:06.926204 16471 net.cpp:150] Setting up res4a_branch2a_relu
I0305 18:55:06.926213 16471 net.cpp:157] Top shape: 32 256 14 14 (1605632)
I0305 18:55:06.926214 16471 net.cpp:165] Memory required for data: 5696782464
I0305 18:55:06.926216 16471 layer_factory.hpp:77] Creating layer res4a_branch2b
I0305 18:55:06.926221 16471 net.cpp:100] Creating Layer res4a_branch2b
I0305 18:55:06.926224 16471 net.cpp:434] res4a_branch2b <- res4a_branch2a
I0305 18:55:06.926229 16471 net.cpp:408] res4a_branch2b -> res4a_branch2b
I0305 18:55:06.927603 16471 net.cpp:150] Setting up res4a_branch2b
I0305 18:55:06.927613 16471 net.cpp:157] Top shape: 32 256 14 14 (1605632)
I0305 18:55:06.927614 16471 net.cpp:165] Memory required for data: 5703204992
I0305 18:55:06.927618 16471 layer_factory.hpp:77] Creating layer bn4a_branch2b
I0305 18:55:06.927623 16471 net.cpp:100] Creating Layer bn4a_branch2b
I0305 18:55:06.927625 16471 net.cpp:434] bn4a_branch2b <- res4a_branch2b
I0305 18:55:06.927629 16471 net.cpp:395] bn4a_branch2b -> res4a_branch2b (in-place)
I0305 18:55:06.927762 16471 net.cpp:150] Setting up bn4a_branch2b
I0305 18:55:06.927767 16471 net.cpp:157] Top shape: 32 256 14 14 (1605632)
I0305 18:55:06.927769 16471 net.cpp:165] Memory required for data: 5709627520
I0305 18:55:06.927773 16471 layer_factory.hpp:77] Creating layer scale4a_branch2b
I0305 18:55:06.927778 16471 net.cpp:100] Creating Layer scale4a_branch2b
I0305 18:55:06.927779 16471 net.cpp:434] scale4a_branch2b <- res4a_branch2b
I0305 18:55:06.927783 16471 net.cpp:395] scale4a_branch2b -> res4a_branch2b (in-place)
I0305 18:55:06.927809 16471 layer_factory.hpp:77] Creating layer scale4a_branch2b
I0305 18:55:06.927888 16471 net.cpp:150] Setting up scale4a_branch2b
I0305 18:55:06.927893 16471 net.cpp:157] Top shape: 32 256 14 14 (1605632)
I0305 18:55:06.927894 16471 net.cpp:165] Memory required for data: 5716050048
I0305 18:55:06.927898 16471 layer_factory.hpp:77] Creating layer res4a_branch2b_relu
I0305 18:55:06.927901 16471 net.cpp:100] Creating Layer res4a_branch2b_relu
I0305 18:55:06.927903 16471 net.cpp:434] res4a_branch2b_relu <- res4a_branch2b
I0305 18:55:06.927906 16471 net.cpp:395] res4a_branch2b_relu -> res4a_branch2b (in-place)
I0305 18:55:06.928123 16471 net.cpp:150] Setting up res4a_branch2b_relu
I0305 18:55:06.928135 16471 net.cpp:157] Top shape: 32 256 14 14 (1605632)
I0305 18:55:06.928138 16471 net.cpp:165] Memory required for data: 5722472576
I0305 18:55:06.928139 16471 layer_factory.hpp:77] Creating layer res4a_branch2c
I0305 18:55:06.928144 16471 net.cpp:100] Creating Layer res4a_branch2c
I0305 18:55:06.928148 16471 net.cpp:434] res4a_branch2c <- res4a_branch2b
I0305 18:55:06.928151 16471 net.cpp:408] res4a_branch2c -> res4a_branch2c
I0305 18:55:06.929172 16471 net.cpp:150] Setting up res4a_branch2c
I0305 18:55:06.929181 16471 net.cpp:157] Top shape: 32 1024 14 14 (6422528)
I0305 18:55:06.929184 16471 net.cpp:165] Memory required for data: 5748162688
I0305 18:55:06.929188 16471 layer_factory.hpp:77] Creating layer bn4a_branch2c
I0305 18:55:06.929193 16471 net.cpp:100] Creating Layer bn4a_branch2c
I0305 18:55:06.929194 16471 net.cpp:434] bn4a_branch2c <- res4a_branch2c
I0305 18:55:06.929198 16471 net.cpp:395] bn4a_branch2c -> res4a_branch2c (in-place)
I0305 18:55:06.929345 16471 net.cpp:150] Setting up bn4a_branch2c
I0305 18:55:06.929350 16471 net.cpp:157] Top shape: 32 1024 14 14 (6422528)
I0305 18:55:06.929352 16471 net.cpp:165] Memory required for data: 5773852800
I0305 18:55:06.929358 16471 layer_factory.hpp:77] Creating layer scale4a_branch2c
I0305 18:55:06.929360 16471 net.cpp:100] Creating Layer scale4a_branch2c
I0305 18:55:06.929363 16471 net.cpp:434] scale4a_branch2c <- res4a_branch2c
I0305 18:55:06.929368 16471 net.cpp:395] scale4a_branch2c -> res4a_branch2c (in-place)
I0305 18:55:06.929394 16471 layer_factory.hpp:77] Creating layer scale4a_branch2c
I0305 18:55:06.929476 16471 net.cpp:150] Setting up scale4a_branch2c
I0305 18:55:06.929481 16471 net.cpp:157] Top shape: 32 1024 14 14 (6422528)
I0305 18:55:06.929482 16471 net.cpp:165] Memory required for data: 5799542912
I0305 18:55:06.929486 16471 layer_factory.hpp:77] Creating layer res4a
I0305 18:55:06.929491 16471 net.cpp:100] Creating Layer res4a
I0305 18:55:06.929492 16471 net.cpp:434] res4a <- res4a_branch1
I0305 18:55:06.929494 16471 net.cpp:434] res4a <- res4a_branch2c
I0305 18:55:06.929497 16471 net.cpp:408] res4a -> res4a
I0305 18:55:06.929514 16471 net.cpp:150] Setting up res4a
I0305 18:55:06.929519 16471 net.cpp:157] Top shape: 32 1024 14 14 (6422528)
I0305 18:55:06.929520 16471 net.cpp:165] Memory required for data: 5825233024
I0305 18:55:06.929522 16471 layer_factory.hpp:77] Creating layer res4a_relu
I0305 18:55:06.929527 16471 net.cpp:100] Creating Layer res4a_relu
I0305 18:55:06.929529 16471 net.cpp:434] res4a_relu <- res4a
I0305 18:55:06.929533 16471 net.cpp:395] res4a_relu -> res4a (in-place)
I0305 18:55:06.929646 16471 net.cpp:150] Setting up res4a_relu
I0305 18:55:06.929652 16471 net.cpp:157] Top shape: 32 1024 14 14 (6422528)
I0305 18:55:06.929656 16471 net.cpp:165] Memory required for data: 5850923136
I0305 18:55:06.929657 16471 layer_factory.hpp:77] Creating layer res4a_res4a_relu_0_split
I0305 18:55:06.929661 16471 net.cpp:100] Creating Layer res4a_res4a_relu_0_split
I0305 18:55:06.929663 16471 net.cpp:434] res4a_res4a_relu_0_split <- res4a
I0305 18:55:06.929666 16471 net.cpp:408] res4a_res4a_relu_0_split -> res4a_res4a_relu_0_split_0
I0305 18:55:06.929669 16471 net.cpp:408] res4a_res4a_relu_0_split -> res4a_res4a_relu_0_split_1
I0305 18:55:06.929698 16471 net.cpp:150] Setting up res4a_res4a_relu_0_split
I0305 18:55:06.929702 16471 net.cpp:157] Top shape: 32 1024 14 14 (6422528)
I0305 18:55:06.929705 16471 net.cpp:157] Top shape: 32 1024 14 14 (6422528)
I0305 18:55:06.929708 16471 net.cpp:165] Memory required for data: 5902303360
I0305 18:55:06.929708 16471 layer_factory.hpp:77] Creating layer res4b_branch2a
I0305 18:55:06.929723 16471 net.cpp:100] Creating Layer res4b_branch2a
I0305 18:55:06.929728 16471 net.cpp:434] res4b_branch2a <- res4a_res4a_relu_0_split_0
I0305 18:55:06.929733 16471 net.cpp:408] res4b_branch2a -> res4b_branch2a
I0305 18:55:06.930878 16471 net.cpp:150] Setting up res4b_branch2a
I0305 18:55:06.930896 16471 net.cpp:157] Top shape: 32 256 14 14 (1605632)
I0305 18:55:06.930897 16471 net.cpp:165] Memory required for data: 5908725888
I0305 18:55:06.930902 16471 layer_factory.hpp:77] Creating layer bn4b_branch2a
I0305 18:55:06.930907 16471 net.cpp:100] Creating Layer bn4b_branch2a
I0305 18:55:06.930908 16471 net.cpp:434] bn4b_branch2a <- res4b_branch2a
I0305 18:55:06.930922 16471 net.cpp:395] bn4b_branch2a -> res4b_branch2a (in-place)
I0305 18:55:06.931066 16471 net.cpp:150] Setting up bn4b_branch2a
I0305 18:55:06.931071 16471 net.cpp:157] Top shape: 32 256 14 14 (1605632)
I0305 18:55:06.931073 16471 net.cpp:165] Memory required for data: 5915148416
I0305 18:55:06.931077 16471 layer_factory.hpp:77] Creating layer scale4b_branch2a
I0305 18:55:06.931082 16471 net.cpp:100] Creating Layer scale4b_branch2a
I0305 18:55:06.931084 16471 net.cpp:434] scale4b_branch2a <- res4b_branch2a
I0305 18:55:06.931097 16471 net.cpp:395] scale4b_branch2a -> res4b_branch2a (in-place)
I0305 18:55:06.931138 16471 layer_factory.hpp:77] Creating layer scale4b_branch2a
I0305 18:55:06.931237 16471 net.cpp:150] Setting up scale4b_branch2a
I0305 18:55:06.931242 16471 net.cpp:157] Top shape: 32 256 14 14 (1605632)
I0305 18:55:06.931244 16471 net.cpp:165] Memory required for data: 5921570944
I0305 18:55:06.931247 16471 layer_factory.hpp:77] Creating layer res4b_branch2a_relu
I0305 18:55:06.931252 16471 net.cpp:100] Creating Layer res4b_branch2a_relu
I0305 18:55:06.931253 16471 net.cpp:434] res4b_branch2a_relu <- res4b_branch2a
I0305 18:55:06.931257 16471 net.cpp:395] res4b_branch2a_relu -> res4b_branch2a (in-place)
I0305 18:55:06.931485 16471 net.cpp:150] Setting up res4b_branch2a_relu
I0305 18:55:06.931493 16471 net.cpp:157] Top shape: 32 256 14 14 (1605632)
I0305 18:55:06.931495 16471 net.cpp:165] Memory required for data: 5927993472
I0305 18:55:06.931498 16471 layer_factory.hpp:77] Creating layer res4b_branch2b
I0305 18:55:06.931502 16471 net.cpp:100] Creating Layer res4b_branch2b
I0305 18:55:06.931504 16471 net.cpp:434] res4b_branch2b <- res4b_branch2a
I0305 18:55:06.931519 16471 net.cpp:408] res4b_branch2b -> res4b_branch2b
I0305 18:55:06.932878 16471 net.cpp:150] Setting up res4b_branch2b
I0305 18:55:06.932888 16471 net.cpp:157] Top shape: 32 256 14 14 (1605632)
I0305 18:55:06.932890 16471 net.cpp:165] Memory required for data: 5934416000
I0305 18:55:06.932894 16471 layer_factory.hpp:77] Creating layer bn4b_branch2b
I0305 18:55:06.932898 16471 net.cpp:100] Creating Layer bn4b_branch2b
I0305 18:55:06.932901 16471 net.cpp:434] bn4b_branch2b <- res4b_branch2b
I0305 18:55:06.932904 16471 net.cpp:395] bn4b_branch2b -> res4b_branch2b (in-place)
I0305 18:55:06.933061 16471 net.cpp:150] Setting up bn4b_branch2b
I0305 18:55:06.933066 16471 net.cpp:157] Top shape: 32 256 14 14 (1605632)
I0305 18:55:06.933068 16471 net.cpp:165] Memory required for data: 5940838528
I0305 18:55:06.933073 16471 layer_factory.hpp:77] Creating layer scale4b_branch2b
I0305 18:55:06.933076 16471 net.cpp:100] Creating Layer scale4b_branch2b
I0305 18:55:06.933079 16471 net.cpp:434] scale4b_branch2b <- res4b_branch2b
I0305 18:55:06.933092 16471 net.cpp:395] scale4b_branch2b -> res4b_branch2b (in-place)
I0305 18:55:06.933130 16471 layer_factory.hpp:77] Creating layer scale4b_branch2b
I0305 18:55:06.933228 16471 net.cpp:150] Setting up scale4b_branch2b
I0305 18:55:06.933233 16471 net.cpp:157] Top shape: 32 256 14 14 (1605632)
I0305 18:55:06.933235 16471 net.cpp:165] Memory required for data: 5947261056
I0305 18:55:06.933238 16471 layer_factory.hpp:77] Creating layer res4b_branch2b_relu
I0305 18:55:06.933243 16471 net.cpp:100] Creating Layer res4b_branch2b_relu
I0305 18:55:06.933245 16471 net.cpp:434] res4b_branch2b_relu <- res4b_branch2b
I0305 18:55:06.933248 16471 net.cpp:395] res4b_branch2b_relu -> res4b_branch2b (in-place)
I0305 18:55:06.933478 16471 net.cpp:150] Setting up res4b_branch2b_relu
I0305 18:55:06.933486 16471 net.cpp:157] Top shape: 32 256 14 14 (1605632)
I0305 18:55:06.933488 16471 net.cpp:165] Memory required for data: 5953683584
I0305 18:55:06.933490 16471 layer_factory.hpp:77] Creating layer res4b_branch2c
I0305 18:55:06.933496 16471 net.cpp:100] Creating Layer res4b_branch2c
I0305 18:55:06.933498 16471 net.cpp:434] res4b_branch2c <- res4b_branch2b
I0305 18:55:06.933511 16471 net.cpp:408] res4b_branch2c -> res4b_branch2c
I0305 18:55:06.934537 16471 net.cpp:150] Setting up res4b_branch2c
I0305 18:55:06.934546 16471 net.cpp:157] Top shape: 32 1024 14 14 (6422528)
I0305 18:55:06.934548 16471 net.cpp:165] Memory required for data: 5979373696
I0305 18:55:06.934551 16471 layer_factory.hpp:77] Creating layer bn4b_branch2c
I0305 18:55:06.934556 16471 net.cpp:100] Creating Layer bn4b_branch2c
I0305 18:55:06.934558 16471 net.cpp:434] bn4b_branch2c <- res4b_branch2c
I0305 18:55:06.934571 16471 net.cpp:395] bn4b_branch2c -> res4b_branch2c (in-place)
I0305 18:55:06.934723 16471 net.cpp:150] Setting up bn4b_branch2c
I0305 18:55:06.934729 16471 net.cpp:157] Top shape: 32 1024 14 14 (6422528)
I0305 18:55:06.934731 16471 net.cpp:165] Memory required for data: 6005063808
I0305 18:55:06.934736 16471 layer_factory.hpp:77] Creating layer scale4b_branch2c
I0305 18:55:06.934738 16471 net.cpp:100] Creating Layer scale4b_branch2c
I0305 18:55:06.934741 16471 net.cpp:434] scale4b_branch2c <- res4b_branch2c
I0305 18:55:06.934753 16471 net.cpp:395] scale4b_branch2c -> res4b_branch2c (in-place)
I0305 18:55:06.934790 16471 layer_factory.hpp:77] Creating layer scale4b_branch2c
I0305 18:55:06.934895 16471 net.cpp:150] Setting up scale4b_branch2c
I0305 18:55:06.934900 16471 net.cpp:157] Top shape: 32 1024 14 14 (6422528)
I0305 18:55:06.934901 16471 net.cpp:165] Memory required for data: 6030753920
I0305 18:55:06.934906 16471 layer_factory.hpp:77] Creating layer res4b
I0305 18:55:06.934911 16471 net.cpp:100] Creating Layer res4b
I0305 18:55:06.934912 16471 net.cpp:434] res4b <- res4a_res4a_relu_0_split_1
I0305 18:55:06.934916 16471 net.cpp:434] res4b <- res4b_branch2c
I0305 18:55:06.934927 16471 net.cpp:408] res4b -> res4b
I0305 18:55:06.934944 16471 net.cpp:150] Setting up res4b
I0305 18:55:06.934948 16471 net.cpp:157] Top shape: 32 1024 14 14 (6422528)
I0305 18:55:06.934950 16471 net.cpp:165] Memory required for data: 6056444032
I0305 18:55:06.934962 16471 layer_factory.hpp:77] Creating layer res4b_relu
I0305 18:55:06.934964 16471 net.cpp:100] Creating Layer res4b_relu
I0305 18:55:06.934967 16471 net.cpp:434] res4b_relu <- res4b
I0305 18:55:06.934970 16471 net.cpp:395] res4b_relu -> res4b (in-place)
I0305 18:55:06.935108 16471 net.cpp:150] Setting up res4b_relu
I0305 18:55:06.935114 16471 net.cpp:157] Top shape: 32 1024 14 14 (6422528)
I0305 18:55:06.935117 16471 net.cpp:165] Memory required for data: 6082134144
I0305 18:55:06.935118 16471 layer_factory.hpp:77] Creating layer res4b_res4b_relu_0_split
I0305 18:55:06.935122 16471 net.cpp:100] Creating Layer res4b_res4b_relu_0_split
I0305 18:55:06.935124 16471 net.cpp:434] res4b_res4b_relu_0_split <- res4b
I0305 18:55:06.935127 16471 net.cpp:408] res4b_res4b_relu_0_split -> res4b_res4b_relu_0_split_0
I0305 18:55:06.935140 16471 net.cpp:408] res4b_res4b_relu_0_split -> res4b_res4b_relu_0_split_1
I0305 18:55:06.935179 16471 net.cpp:150] Setting up res4b_res4b_relu_0_split
I0305 18:55:06.935184 16471 net.cpp:157] Top shape: 32 1024 14 14 (6422528)
I0305 18:55:06.935186 16471 net.cpp:157] Top shape: 32 1024 14 14 (6422528)
I0305 18:55:06.935187 16471 net.cpp:165] Memory required for data: 6133514368
I0305 18:55:06.935189 16471 layer_factory.hpp:77] Creating layer res4c_branch2a
I0305 18:55:06.935194 16471 net.cpp:100] Creating Layer res4c_branch2a
I0305 18:55:06.935196 16471 net.cpp:434] res4c_branch2a <- res4b_res4b_relu_0_split_0
I0305 18:55:06.935209 16471 net.cpp:408] res4c_branch2a -> res4c_branch2a
I0305 18:55:06.936238 16471 net.cpp:150] Setting up res4c_branch2a
I0305 18:55:06.936246 16471 net.cpp:157] Top shape: 32 256 14 14 (1605632)
I0305 18:55:06.936249 16471 net.cpp:165] Memory required for data: 6139936896
I0305 18:55:06.936252 16471 layer_factory.hpp:77] Creating layer bn4c_branch2a
I0305 18:55:06.936256 16471 net.cpp:100] Creating Layer bn4c_branch2a
I0305 18:55:06.936259 16471 net.cpp:434] bn4c_branch2a <- res4c_branch2a
I0305 18:55:06.936271 16471 net.cpp:395] bn4c_branch2a -> res4c_branch2a (in-place)
I0305 18:55:06.936419 16471 net.cpp:150] Setting up bn4c_branch2a
I0305 18:55:06.936424 16471 net.cpp:157] Top shape: 32 256 14 14 (1605632)
I0305 18:55:06.936425 16471 net.cpp:165] Memory required for data: 6146359424
I0305 18:55:06.936429 16471 layer_factory.hpp:77] Creating layer scale4c_branch2a
I0305 18:55:06.936434 16471 net.cpp:100] Creating Layer scale4c_branch2a
I0305 18:55:06.936435 16471 net.cpp:434] scale4c_branch2a <- res4c_branch2a
I0305 18:55:06.936447 16471 net.cpp:395] scale4c_branch2a -> res4c_branch2a (in-place)
I0305 18:55:06.936488 16471 layer_factory.hpp:77] Creating layer scale4c_branch2a
I0305 18:55:06.936589 16471 net.cpp:150] Setting up scale4c_branch2a
I0305 18:55:06.936594 16471 net.cpp:157] Top shape: 32 256 14 14 (1605632)
I0305 18:55:06.936594 16471 net.cpp:165] Memory required for data: 6152781952
I0305 18:55:06.936599 16471 layer_factory.hpp:77] Creating layer res4c_branch2a_relu
I0305 18:55:06.936602 16471 net.cpp:100] Creating Layer res4c_branch2a_relu
I0305 18:55:06.936604 16471 net.cpp:434] res4c_branch2a_relu <- res4c_branch2a
I0305 18:55:06.936606 16471 net.cpp:395] res4c_branch2a_relu -> res4c_branch2a (in-place)
I0305 18:55:06.936836 16471 net.cpp:150] Setting up res4c_branch2a_relu
I0305 18:55:06.936846 16471 net.cpp:157] Top shape: 32 256 14 14 (1605632)
I0305 18:55:06.936847 16471 net.cpp:165] Memory required for data: 6159204480
I0305 18:55:06.936849 16471 layer_factory.hpp:77] Creating layer res4c_branch2b
I0305 18:55:06.936853 16471 net.cpp:100] Creating Layer res4c_branch2b
I0305 18:55:06.936856 16471 net.cpp:434] res4c_branch2b <- res4c_branch2a
I0305 18:55:06.936869 16471 net.cpp:408] res4c_branch2b -> res4c_branch2b
I0305 18:55:06.938223 16471 net.cpp:150] Setting up res4c_branch2b
I0305 18:55:06.938233 16471 net.cpp:157] Top shape: 32 256 14 14 (1605632)
I0305 18:55:06.938235 16471 net.cpp:165] Memory required for data: 6165627008
I0305 18:55:06.938238 16471 layer_factory.hpp:77] Creating layer bn4c_branch2b
I0305 18:55:06.938243 16471 net.cpp:100] Creating Layer bn4c_branch2b
I0305 18:55:06.938246 16471 net.cpp:434] bn4c_branch2b <- res4c_branch2b
I0305 18:55:06.938258 16471 net.cpp:395] bn4c_branch2b -> res4c_branch2b (in-place)
I0305 18:55:06.938410 16471 net.cpp:150] Setting up bn4c_branch2b
I0305 18:55:06.938416 16471 net.cpp:157] Top shape: 32 256 14 14 (1605632)
I0305 18:55:06.938417 16471 net.cpp:165] Memory required for data: 6172049536
I0305 18:55:06.938421 16471 layer_factory.hpp:77] Creating layer scale4c_branch2b
I0305 18:55:06.938426 16471 net.cpp:100] Creating Layer scale4c_branch2b
I0305 18:55:06.938427 16471 net.cpp:434] scale4c_branch2b <- res4c_branch2b
I0305 18:55:06.938441 16471 net.cpp:395] scale4c_branch2b -> res4c_branch2b (in-place)
I0305 18:55:06.938479 16471 layer_factory.hpp:77] Creating layer scale4c_branch2b
I0305 18:55:06.938580 16471 net.cpp:150] Setting up scale4c_branch2b
I0305 18:55:06.938585 16471 net.cpp:157] Top shape: 32 256 14 14 (1605632)
I0305 18:55:06.938587 16471 net.cpp:165] Memory required for data: 6178472064
I0305 18:55:06.938591 16471 layer_factory.hpp:77] Creating layer res4c_branch2b_relu
I0305 18:55:06.938593 16471 net.cpp:100] Creating Layer res4c_branch2b_relu
I0305 18:55:06.938596 16471 net.cpp:434] res4c_branch2b_relu <- res4c_branch2b
I0305 18:55:06.938598 16471 net.cpp:395] res4c_branch2b_relu -> res4c_branch2b (in-place)
I0305 18:55:06.938834 16471 net.cpp:150] Setting up res4c_branch2b_relu
I0305 18:55:06.938841 16471 net.cpp:157] Top shape: 32 256 14 14 (1605632)
I0305 18:55:06.938843 16471 net.cpp:165] Memory required for data: 6184894592
I0305 18:55:06.938845 16471 layer_factory.hpp:77] Creating layer res4c_branch2c
I0305 18:55:06.938851 16471 net.cpp:100] Creating Layer res4c_branch2c
I0305 18:55:06.938853 16471 net.cpp:434] res4c_branch2c <- res4c_branch2b
I0305 18:55:06.938866 16471 net.cpp:408] res4c_branch2c -> res4c_branch2c
I0305 18:55:06.939887 16471 net.cpp:150] Setting up res4c_branch2c
I0305 18:55:06.939894 16471 net.cpp:157] Top shape: 32 1024 14 14 (6422528)
I0305 18:55:06.939896 16471 net.cpp:165] Memory required for data: 6210584704
I0305 18:55:06.939900 16471 layer_factory.hpp:77] Creating layer bn4c_branch2c
I0305 18:55:06.939904 16471 net.cpp:100] Creating Layer bn4c_branch2c
I0305 18:55:06.939908 16471 net.cpp:434] bn4c_branch2c <- res4c_branch2c
I0305 18:55:06.939920 16471 net.cpp:395] bn4c_branch2c -> res4c_branch2c (in-place)
I0305 18:55:06.940080 16471 net.cpp:150] Setting up bn4c_branch2c
I0305 18:55:06.940085 16471 net.cpp:157] Top shape: 32 1024 14 14 (6422528)
I0305 18:55:06.940088 16471 net.cpp:165] Memory required for data: 6236274816
I0305 18:55:06.940093 16471 layer_factory.hpp:77] Creating layer scale4c_branch2c
I0305 18:55:06.940096 16471 net.cpp:100] Creating Layer scale4c_branch2c
I0305 18:55:06.940099 16471 net.cpp:434] scale4c_branch2c <- res4c_branch2c
I0305 18:55:06.940111 16471 net.cpp:395] scale4c_branch2c -> res4c_branch2c (in-place)
I0305 18:55:06.940148 16471 layer_factory.hpp:77] Creating layer scale4c_branch2c
I0305 18:55:06.940261 16471 net.cpp:150] Setting up scale4c_branch2c
I0305 18:55:06.940268 16471 net.cpp:157] Top shape: 32 1024 14 14 (6422528)
I0305 18:55:06.940268 16471 net.cpp:165] Memory required for data: 6261964928
I0305 18:55:06.940273 16471 layer_factory.hpp:77] Creating layer res4c
I0305 18:55:06.940275 16471 net.cpp:100] Creating Layer res4c
I0305 18:55:06.940279 16471 net.cpp:434] res4c <- res4b_res4b_relu_0_split_1
I0305 18:55:06.940280 16471 net.cpp:434] res4c <- res4c_branch2c
I0305 18:55:06.940294 16471 net.cpp:408] res4c -> res4c
I0305 18:55:06.940311 16471 net.cpp:150] Setting up res4c
I0305 18:55:06.940328 16471 net.cpp:157] Top shape: 32 1024 14 14 (6422528)
I0305 18:55:06.940330 16471 net.cpp:165] Memory required for data: 6287655040
I0305 18:55:06.940332 16471 layer_factory.hpp:77] Creating layer res4c_relu
I0305 18:55:06.940335 16471 net.cpp:100] Creating Layer res4c_relu
I0305 18:55:06.940337 16471 net.cpp:434] res4c_relu <- res4c
I0305 18:55:06.940340 16471 net.cpp:395] res4c_relu -> res4c (in-place)
I0305 18:55:06.940479 16471 net.cpp:150] Setting up res4c_relu
I0305 18:55:06.940485 16471 net.cpp:157] Top shape: 32 1024 14 14 (6422528)
I0305 18:55:06.940486 16471 net.cpp:165] Memory required for data: 6313345152
I0305 18:55:06.940488 16471 layer_factory.hpp:77] Creating layer res4c_res4c_relu_0_split
I0305 18:55:06.940491 16471 net.cpp:100] Creating Layer res4c_res4c_relu_0_split
I0305 18:55:06.940493 16471 net.cpp:434] res4c_res4c_relu_0_split <- res4c
I0305 18:55:06.940496 16471 net.cpp:408] res4c_res4c_relu_0_split -> res4c_res4c_relu_0_split_0
I0305 18:55:06.940511 16471 net.cpp:408] res4c_res4c_relu_0_split -> res4c_res4c_relu_0_split_1
I0305 18:55:06.940553 16471 net.cpp:150] Setting up res4c_res4c_relu_0_split
I0305 18:55:06.940557 16471 net.cpp:157] Top shape: 32 1024 14 14 (6422528)
I0305 18:55:06.940560 16471 net.cpp:157] Top shape: 32 1024 14 14 (6422528)
I0305 18:55:06.940562 16471 net.cpp:165] Memory required for data: 6364725376
I0305 18:55:06.940563 16471 layer_factory.hpp:77] Creating layer res4d_branch2a
I0305 18:55:06.940568 16471 net.cpp:100] Creating Layer res4d_branch2a
I0305 18:55:06.940570 16471 net.cpp:434] res4d_branch2a <- res4c_res4c_relu_0_split_0
I0305 18:55:06.940584 16471 net.cpp:408] res4d_branch2a -> res4d_branch2a
I0305 18:55:06.941615 16471 net.cpp:150] Setting up res4d_branch2a
I0305 18:55:06.941624 16471 net.cpp:157] Top shape: 32 256 14 14 (1605632)
I0305 18:55:06.941627 16471 net.cpp:165] Memory required for data: 6371147904
I0305 18:55:06.941630 16471 layer_factory.hpp:77] Creating layer bn4d_branch2a
I0305 18:55:06.941634 16471 net.cpp:100] Creating Layer bn4d_branch2a
I0305 18:55:06.941637 16471 net.cpp:434] bn4d_branch2a <- res4d_branch2a
I0305 18:55:06.941650 16471 net.cpp:395] bn4d_branch2a -> res4d_branch2a (in-place)
I0305 18:55:06.941803 16471 net.cpp:150] Setting up bn4d_branch2a
I0305 18:55:06.941808 16471 net.cpp:157] Top shape: 32 256 14 14 (1605632)
I0305 18:55:06.941810 16471 net.cpp:165] Memory required for data: 6377570432
I0305 18:55:06.941814 16471 layer_factory.hpp:77] Creating layer scale4d_branch2a
I0305 18:55:06.941818 16471 net.cpp:100] Creating Layer scale4d_branch2a
I0305 18:55:06.941820 16471 net.cpp:434] scale4d_branch2a <- res4d_branch2a
I0305 18:55:06.941833 16471 net.cpp:395] scale4d_branch2a -> res4d_branch2a (in-place)
I0305 18:55:06.941874 16471 layer_factory.hpp:77] Creating layer scale4d_branch2a
I0305 18:55:06.941977 16471 net.cpp:150] Setting up scale4d_branch2a
I0305 18:55:06.941982 16471 net.cpp:157] Top shape: 32 256 14 14 (1605632)
I0305 18:55:06.941982 16471 net.cpp:165] Memory required for data: 6383992960
I0305 18:55:06.941987 16471 layer_factory.hpp:77] Creating layer res4d_branch2a_relu
I0305 18:55:06.941989 16471 net.cpp:100] Creating Layer res4d_branch2a_relu
I0305 18:55:06.941992 16471 net.cpp:434] res4d_branch2a_relu <- res4d_branch2a
I0305 18:55:06.941994 16471 net.cpp:395] res4d_branch2a_relu -> res4d_branch2a (in-place)
I0305 18:55:06.942231 16471 net.cpp:150] Setting up res4d_branch2a_relu
I0305 18:55:06.942239 16471 net.cpp:157] Top shape: 32 256 14 14 (1605632)
I0305 18:55:06.942240 16471 net.cpp:165] Memory required for data: 6390415488
I0305 18:55:06.942242 16471 layer_factory.hpp:77] Creating layer res4d_branch2b
I0305 18:55:06.942248 16471 net.cpp:100] Creating Layer res4d_branch2b
I0305 18:55:06.942250 16471 net.cpp:434] res4d_branch2b <- res4d_branch2a
I0305 18:55:06.942263 16471 net.cpp:408] res4d_branch2b -> res4d_branch2b
I0305 18:55:06.943625 16471 net.cpp:150] Setting up res4d_branch2b
I0305 18:55:06.943634 16471 net.cpp:157] Top shape: 32 256 14 14 (1605632)
I0305 18:55:06.943636 16471 net.cpp:165] Memory required for data: 6396838016
I0305 18:55:06.943639 16471 layer_factory.hpp:77] Creating layer bn4d_branch2b
I0305 18:55:06.943645 16471 net.cpp:100] Creating Layer bn4d_branch2b
I0305 18:55:06.943646 16471 net.cpp:434] bn4d_branch2b <- res4d_branch2b
I0305 18:55:06.943660 16471 net.cpp:395] bn4d_branch2b -> res4d_branch2b (in-place)
I0305 18:55:06.943816 16471 net.cpp:150] Setting up bn4d_branch2b
I0305 18:55:06.943820 16471 net.cpp:157] Top shape: 32 256 14 14 (1605632)
I0305 18:55:06.943822 16471 net.cpp:165] Memory required for data: 6403260544
I0305 18:55:06.943826 16471 layer_factory.hpp:77] Creating layer scale4d_branch2b
I0305 18:55:06.943831 16471 net.cpp:100] Creating Layer scale4d_branch2b
I0305 18:55:06.943833 16471 net.cpp:434] scale4d_branch2b <- res4d_branch2b
I0305 18:55:06.943845 16471 net.cpp:395] scale4d_branch2b -> res4d_branch2b (in-place)
I0305 18:55:06.943886 16471 layer_factory.hpp:77] Creating layer scale4d_branch2b
I0305 18:55:06.943990 16471 net.cpp:150] Setting up scale4d_branch2b
I0305 18:55:06.943994 16471 net.cpp:157] Top shape: 32 256 14 14 (1605632)
I0305 18:55:06.943996 16471 net.cpp:165] Memory required for data: 6409683072
I0305 18:55:06.944000 16471 layer_factory.hpp:77] Creating layer res4d_branch2b_relu
I0305 18:55:06.944003 16471 net.cpp:100] Creating Layer res4d_branch2b_relu
I0305 18:55:06.944005 16471 net.cpp:434] res4d_branch2b_relu <- res4d_branch2b
I0305 18:55:06.944008 16471 net.cpp:395] res4d_branch2b_relu -> res4d_branch2b (in-place)
I0305 18:55:06.944254 16471 net.cpp:150] Setting up res4d_branch2b_relu
I0305 18:55:06.944262 16471 net.cpp:157] Top shape: 32 256 14 14 (1605632)
I0305 18:55:06.944264 16471 net.cpp:165] Memory required for data: 6416105600
I0305 18:55:06.944267 16471 layer_factory.hpp:77] Creating layer res4d_branch2c
I0305 18:55:06.944272 16471 net.cpp:100] Creating Layer res4d_branch2c
I0305 18:55:06.944275 16471 net.cpp:434] res4d_branch2c <- res4d_branch2b
I0305 18:55:06.944288 16471 net.cpp:408] res4d_branch2c -> res4d_branch2c
I0305 18:55:06.945408 16471 net.cpp:150] Setting up res4d_branch2c
I0305 18:55:06.945417 16471 net.cpp:157] Top shape: 32 1024 14 14 (6422528)
I0305 18:55:06.945420 16471 net.cpp:165] Memory required for data: 6441795712
I0305 18:55:06.945423 16471 layer_factory.hpp:77] Creating layer bn4d_branch2c
I0305 18:55:06.945427 16471 net.cpp:100] Creating Layer bn4d_branch2c
I0305 18:55:06.945430 16471 net.cpp:434] bn4d_branch2c <- res4d_branch2c
I0305 18:55:06.945442 16471 net.cpp:395] bn4d_branch2c -> res4d_branch2c (in-place)
I0305 18:55:06.945600 16471 net.cpp:150] Setting up bn4d_branch2c
I0305 18:55:06.945605 16471 net.cpp:157] Top shape: 32 1024 14 14 (6422528)
I0305 18:55:06.945606 16471 net.cpp:165] Memory required for data: 6467485824
I0305 18:55:06.945611 16471 layer_factory.hpp:77] Creating layer scale4d_branch2c
I0305 18:55:06.945614 16471 net.cpp:100] Creating Layer scale4d_branch2c
I0305 18:55:06.945616 16471 net.cpp:434] scale4d_branch2c <- res4d_branch2c
I0305 18:55:06.945618 16471 net.cpp:395] scale4d_branch2c -> res4d_branch2c (in-place)
I0305 18:55:06.945667 16471 layer_factory.hpp:77] Creating layer scale4d_branch2c
I0305 18:55:06.945775 16471 net.cpp:150] Setting up scale4d_branch2c
I0305 18:55:06.945778 16471 net.cpp:157] Top shape: 32 1024 14 14 (6422528)
I0305 18:55:06.945780 16471 net.cpp:165] Memory required for data: 6493175936
I0305 18:55:06.945783 16471 layer_factory.hpp:77] Creating layer res4d
I0305 18:55:06.945787 16471 net.cpp:100] Creating Layer res4d
I0305 18:55:06.945789 16471 net.cpp:434] res4d <- res4c_res4c_relu_0_split_1
I0305 18:55:06.945792 16471 net.cpp:434] res4d <- res4d_branch2c
I0305 18:55:06.945806 16471 net.cpp:408] res4d -> res4d
I0305 18:55:06.945823 16471 net.cpp:150] Setting up res4d
I0305 18:55:06.945837 16471 net.cpp:157] Top shape: 32 1024 14 14 (6422528)
I0305 18:55:06.945838 16471 net.cpp:165] Memory required for data: 6518866048
I0305 18:55:06.945840 16471 layer_factory.hpp:77] Creating layer res4d_relu
I0305 18:55:06.945844 16471 net.cpp:100] Creating Layer res4d_relu
I0305 18:55:06.945847 16471 net.cpp:434] res4d_relu <- res4d
I0305 18:55:06.945849 16471 net.cpp:395] res4d_relu -> res4d (in-place)
I0305 18:55:06.945994 16471 net.cpp:150] Setting up res4d_relu
I0305 18:55:06.946000 16471 net.cpp:157] Top shape: 32 1024 14 14 (6422528)
I0305 18:55:06.946014 16471 net.cpp:165] Memory required for data: 6544556160
I0305 18:55:06.946017 16471 layer_factory.hpp:77] Creating layer res4d_res4d_relu_0_split
I0305 18:55:06.946020 16471 net.cpp:100] Creating Layer res4d_res4d_relu_0_split
I0305 18:55:06.946032 16471 net.cpp:434] res4d_res4d_relu_0_split <- res4d
I0305 18:55:06.946035 16471 net.cpp:408] res4d_res4d_relu_0_split -> res4d_res4d_relu_0_split_0
I0305 18:55:06.946039 16471 net.cpp:408] res4d_res4d_relu_0_split -> res4d_res4d_relu_0_split_1
I0305 18:55:06.946089 16471 net.cpp:150] Setting up res4d_res4d_relu_0_split
I0305 18:55:06.946094 16471 net.cpp:157] Top shape: 32 1024 14 14 (6422528)
I0305 18:55:06.946096 16471 net.cpp:157] Top shape: 32 1024 14 14 (6422528)
I0305 18:55:06.946099 16471 net.cpp:165] Memory required for data: 6595936384
I0305 18:55:06.946100 16471 layer_factory.hpp:77] Creating layer res4e_branch2a
I0305 18:55:06.946105 16471 net.cpp:100] Creating Layer res4e_branch2a
I0305 18:55:06.946106 16471 net.cpp:434] res4e_branch2a <- res4d_res4d_relu_0_split_0
I0305 18:55:06.946120 16471 net.cpp:408] res4e_branch2a -> res4e_branch2a
I0305 18:55:06.947134 16471 net.cpp:150] Setting up res4e_branch2a
I0305 18:55:06.947141 16471 net.cpp:157] Top shape: 32 256 14 14 (1605632)
I0305 18:55:06.947144 16471 net.cpp:165] Memory required for data: 6602358912
I0305 18:55:06.947147 16471 layer_factory.hpp:77] Creating layer bn4e_branch2a
I0305 18:55:06.947151 16471 net.cpp:100] Creating Layer bn4e_branch2a
I0305 18:55:06.947154 16471 net.cpp:434] bn4e_branch2a <- res4e_branch2a
I0305 18:55:06.947166 16471 net.cpp:395] bn4e_branch2a -> res4e_branch2a (in-place)
I0305 18:55:06.947332 16471 net.cpp:150] Setting up bn4e_branch2a
I0305 18:55:06.947338 16471 net.cpp:157] Top shape: 32 256 14 14 (1605632)
I0305 18:55:06.947340 16471 net.cpp:165] Memory required for data: 6608781440
I0305 18:55:06.947345 16471 layer_factory.hpp:77] Creating layer scale4e_branch2a
I0305 18:55:06.947348 16471 net.cpp:100] Creating Layer scale4e_branch2a
I0305 18:55:06.947350 16471 net.cpp:434] scale4e_branch2a <- res4e_branch2a
I0305 18:55:06.947363 16471 net.cpp:395] scale4e_branch2a -> res4e_branch2a (in-place)
I0305 18:55:06.947404 16471 layer_factory.hpp:77] Creating layer scale4e_branch2a
I0305 18:55:06.947506 16471 net.cpp:150] Setting up scale4e_branch2a
I0305 18:55:06.947511 16471 net.cpp:157] Top shape: 32 256 14 14 (1605632)
I0305 18:55:06.947513 16471 net.cpp:165] Memory required for data: 6615203968
I0305 18:55:06.947516 16471 layer_factory.hpp:77] Creating layer res4e_branch2a_relu
I0305 18:55:06.947520 16471 net.cpp:100] Creating Layer res4e_branch2a_relu
I0305 18:55:06.947522 16471 net.cpp:434] res4e_branch2a_relu <- res4e_branch2a
I0305 18:55:06.947525 16471 net.cpp:395] res4e_branch2a_relu -> res4e_branch2a (in-place)
I0305 18:55:06.947754 16471 net.cpp:150] Setting up res4e_branch2a_relu
I0305 18:55:06.947762 16471 net.cpp:157] Top shape: 32 256 14 14 (1605632)
I0305 18:55:06.947763 16471 net.cpp:165] Memory required for data: 6621626496
I0305 18:55:06.947765 16471 layer_factory.hpp:77] Creating layer res4e_branch2b
I0305 18:55:06.947770 16471 net.cpp:100] Creating Layer res4e_branch2b
I0305 18:55:06.947772 16471 net.cpp:434] res4e_branch2b <- res4e_branch2a
I0305 18:55:06.947785 16471 net.cpp:408] res4e_branch2b -> res4e_branch2b
I0305 18:55:06.949142 16471 net.cpp:150] Setting up res4e_branch2b
I0305 18:55:06.949151 16471 net.cpp:157] Top shape: 32 256 14 14 (1605632)
I0305 18:55:06.949154 16471 net.cpp:165] Memory required for data: 6628049024
I0305 18:55:06.949157 16471 layer_factory.hpp:77] Creating layer bn4e_branch2b
I0305 18:55:06.949162 16471 net.cpp:100] Creating Layer bn4e_branch2b
I0305 18:55:06.949164 16471 net.cpp:434] bn4e_branch2b <- res4e_branch2b
I0305 18:55:06.949177 16471 net.cpp:395] bn4e_branch2b -> res4e_branch2b (in-place)
I0305 18:55:06.949335 16471 net.cpp:150] Setting up bn4e_branch2b
I0305 18:55:06.949340 16471 net.cpp:157] Top shape: 32 256 14 14 (1605632)
I0305 18:55:06.949342 16471 net.cpp:165] Memory required for data: 6634471552
I0305 18:55:06.949347 16471 layer_factory.hpp:77] Creating layer scale4e_branch2b
I0305 18:55:06.949350 16471 net.cpp:100] Creating Layer scale4e_branch2b
I0305 18:55:06.949352 16471 net.cpp:434] scale4e_branch2b <- res4e_branch2b
I0305 18:55:06.949354 16471 net.cpp:395] scale4e_branch2b -> res4e_branch2b (in-place)
I0305 18:55:06.949405 16471 layer_factory.hpp:77] Creating layer scale4e_branch2b
I0305 18:55:06.949506 16471 net.cpp:150] Setting up scale4e_branch2b
I0305 18:55:06.949511 16471 net.cpp:157] Top shape: 32 256 14 14 (1605632)
I0305 18:55:06.949522 16471 net.cpp:165] Memory required for data: 6640894080
I0305 18:55:06.949525 16471 layer_factory.hpp:77] Creating layer res4e_branch2b_relu
I0305 18:55:06.949529 16471 net.cpp:100] Creating Layer res4e_branch2b_relu
I0305 18:55:06.949532 16471 net.cpp:434] res4e_branch2b_relu <- res4e_branch2b
I0305 18:55:06.949534 16471 net.cpp:395] res4e_branch2b_relu -> res4e_branch2b (in-place)
I0305 18:55:06.949754 16471 net.cpp:150] Setting up res4e_branch2b_relu
I0305 18:55:06.949762 16471 net.cpp:157] Top shape: 32 256 14 14 (1605632)
I0305 18:55:06.949764 16471 net.cpp:165] Memory required for data: 6647316608
I0305 18:55:06.949766 16471 layer_factory.hpp:77] Creating layer res4e_branch2c
I0305 18:55:06.949771 16471 net.cpp:100] Creating Layer res4e_branch2c
I0305 18:55:06.949774 16471 net.cpp:434] res4e_branch2c <- res4e_branch2b
I0305 18:55:06.949786 16471 net.cpp:408] res4e_branch2c -> res4e_branch2c
I0305 18:55:06.950816 16471 net.cpp:150] Setting up res4e_branch2c
I0305 18:55:06.950824 16471 net.cpp:157] Top shape: 32 1024 14 14 (6422528)
I0305 18:55:06.950827 16471 net.cpp:165] Memory required for data: 6673006720
I0305 18:55:06.950830 16471 layer_factory.hpp:77] Creating layer bn4e_branch2c
I0305 18:55:06.950834 16471 net.cpp:100] Creating Layer bn4e_branch2c
I0305 18:55:06.950837 16471 net.cpp:434] bn4e_branch2c <- res4e_branch2c
I0305 18:55:06.950850 16471 net.cpp:395] bn4e_branch2c -> res4e_branch2c (in-place)
I0305 18:55:06.951010 16471 net.cpp:150] Setting up bn4e_branch2c
I0305 18:55:06.951015 16471 net.cpp:157] Top shape: 32 1024 14 14 (6422528)
I0305 18:55:06.951017 16471 net.cpp:165] Memory required for data: 6698696832
I0305 18:55:06.951021 16471 layer_factory.hpp:77] Creating layer scale4e_branch2c
I0305 18:55:06.951025 16471 net.cpp:100] Creating Layer scale4e_branch2c
I0305 18:55:06.951027 16471 net.cpp:434] scale4e_branch2c <- res4e_branch2c
I0305 18:55:06.951040 16471 net.cpp:395] scale4e_branch2c -> res4e_branch2c (in-place)
I0305 18:55:06.951077 16471 layer_factory.hpp:77] Creating layer scale4e_branch2c
I0305 18:55:06.951186 16471 net.cpp:150] Setting up scale4e_branch2c
I0305 18:55:06.951191 16471 net.cpp:157] Top shape: 32 1024 14 14 (6422528)
I0305 18:55:06.951194 16471 net.cpp:165] Memory required for data: 6724386944
I0305 18:55:06.951196 16471 layer_factory.hpp:77] Creating layer res4e
I0305 18:55:06.951200 16471 net.cpp:100] Creating Layer res4e
I0305 18:55:06.951202 16471 net.cpp:434] res4e <- res4d_res4d_relu_0_split_1
I0305 18:55:06.951205 16471 net.cpp:434] res4e <- res4e_branch2c
I0305 18:55:06.951218 16471 net.cpp:408] res4e -> res4e
I0305 18:55:06.951237 16471 net.cpp:150] Setting up res4e
I0305 18:55:06.951251 16471 net.cpp:157] Top shape: 32 1024 14 14 (6422528)
I0305 18:55:06.951252 16471 net.cpp:165] Memory required for data: 6750077056
I0305 18:55:06.951254 16471 layer_factory.hpp:77] Creating layer res4e_relu
I0305 18:55:06.951257 16471 net.cpp:100] Creating Layer res4e_relu
I0305 18:55:06.951259 16471 net.cpp:434] res4e_relu <- res4e
I0305 18:55:06.951262 16471 net.cpp:395] res4e_relu -> res4e (in-place)
I0305 18:55:06.951395 16471 net.cpp:150] Setting up res4e_relu
I0305 18:55:06.951401 16471 net.cpp:157] Top shape: 32 1024 14 14 (6422528)
I0305 18:55:06.951403 16471 net.cpp:165] Memory required for data: 6775767168
I0305 18:55:06.951406 16471 layer_factory.hpp:77] Creating layer res4e_res4e_relu_0_split
I0305 18:55:06.951411 16471 net.cpp:100] Creating Layer res4e_res4e_relu_0_split
I0305 18:55:06.951412 16471 net.cpp:434] res4e_res4e_relu_0_split <- res4e
I0305 18:55:06.951414 16471 net.cpp:408] res4e_res4e_relu_0_split -> res4e_res4e_relu_0_split_0
I0305 18:55:06.951428 16471 net.cpp:408] res4e_res4e_relu_0_split -> res4e_res4e_relu_0_split_1
I0305 18:55:06.951468 16471 net.cpp:150] Setting up res4e_res4e_relu_0_split
I0305 18:55:06.951473 16471 net.cpp:157] Top shape: 32 1024 14 14 (6422528)
I0305 18:55:06.951475 16471 net.cpp:157] Top shape: 32 1024 14 14 (6422528)
I0305 18:55:06.951478 16471 net.cpp:165] Memory required for data: 6827147392
I0305 18:55:06.951479 16471 layer_factory.hpp:77] Creating layer res4f_branch2a
I0305 18:55:06.951483 16471 net.cpp:100] Creating Layer res4f_branch2a
I0305 18:55:06.951485 16471 net.cpp:434] res4f_branch2a <- res4e_res4e_relu_0_split_0
I0305 18:55:06.951498 16471 net.cpp:408] res4f_branch2a -> res4f_branch2a
I0305 18:55:06.952527 16471 net.cpp:150] Setting up res4f_branch2a
I0305 18:55:06.952536 16471 net.cpp:157] Top shape: 32 256 14 14 (1605632)
I0305 18:55:06.952539 16471 net.cpp:165] Memory required for data: 6833569920
I0305 18:55:06.952543 16471 layer_factory.hpp:77] Creating layer bn4f_branch2a
I0305 18:55:06.952546 16471 net.cpp:100] Creating Layer bn4f_branch2a
I0305 18:55:06.952548 16471 net.cpp:434] bn4f_branch2a <- res4f_branch2a
I0305 18:55:06.952561 16471 net.cpp:395] bn4f_branch2a -> res4f_branch2a (in-place)
I0305 18:55:06.952721 16471 net.cpp:150] Setting up bn4f_branch2a
I0305 18:55:06.952726 16471 net.cpp:157] Top shape: 32 256 14 14 (1605632)
I0305 18:55:06.952728 16471 net.cpp:165] Memory required for data: 6839992448
I0305 18:55:06.952733 16471 layer_factory.hpp:77] Creating layer scale4f_branch2a
I0305 18:55:06.952735 16471 net.cpp:100] Creating Layer scale4f_branch2a
I0305 18:55:06.952738 16471 net.cpp:434] scale4f_branch2a <- res4f_branch2a
I0305 18:55:06.952740 16471 net.cpp:395] scale4f_branch2a -> res4f_branch2a (in-place)
I0305 18:55:06.952790 16471 layer_factory.hpp:77] Creating layer scale4f_branch2a
I0305 18:55:06.952896 16471 net.cpp:150] Setting up scale4f_branch2a
I0305 18:55:06.952901 16471 net.cpp:157] Top shape: 32 256 14 14 (1605632)
I0305 18:55:06.952903 16471 net.cpp:165] Memory required for data: 6846414976
I0305 18:55:06.952906 16471 layer_factory.hpp:77] Creating layer res4f_branch2a_relu
I0305 18:55:06.952909 16471 net.cpp:100] Creating Layer res4f_branch2a_relu
I0305 18:55:06.952913 16471 net.cpp:434] res4f_branch2a_relu <- res4f_branch2a
I0305 18:55:06.952914 16471 net.cpp:395] res4f_branch2a_relu -> res4f_branch2a (in-place)
I0305 18:55:06.953145 16471 net.cpp:150] Setting up res4f_branch2a_relu
I0305 18:55:06.953153 16471 net.cpp:157] Top shape: 32 256 14 14 (1605632)
I0305 18:55:06.953155 16471 net.cpp:165] Memory required for data: 6852837504
I0305 18:55:06.953157 16471 layer_factory.hpp:77] Creating layer res4f_branch2b
I0305 18:55:06.953163 16471 net.cpp:100] Creating Layer res4f_branch2b
I0305 18:55:06.953166 16471 net.cpp:434] res4f_branch2b <- res4f_branch2a
I0305 18:55:06.953178 16471 net.cpp:408] res4f_branch2b -> res4f_branch2b
I0305 18:55:06.954524 16471 net.cpp:150] Setting up res4f_branch2b
I0305 18:55:06.954532 16471 net.cpp:157] Top shape: 32 256 14 14 (1605632)
I0305 18:55:06.954535 16471 net.cpp:165] Memory required for data: 6859260032
I0305 18:55:06.954537 16471 layer_factory.hpp:77] Creating layer bn4f_branch2b
I0305 18:55:06.954542 16471 net.cpp:100] Creating Layer bn4f_branch2b
I0305 18:55:06.954545 16471 net.cpp:434] bn4f_branch2b <- res4f_branch2b
I0305 18:55:06.954547 16471 net.cpp:395] bn4f_branch2b -> res4f_branch2b (in-place)
I0305 18:55:06.954722 16471 net.cpp:150] Setting up bn4f_branch2b
I0305 18:55:06.954727 16471 net.cpp:157] Top shape: 32 256 14 14 (1605632)
I0305 18:55:06.954730 16471 net.cpp:165] Memory required for data: 6865682560
I0305 18:55:06.954733 16471 layer_factory.hpp:77] Creating layer scale4f_branch2b
I0305 18:55:06.954737 16471 net.cpp:100] Creating Layer scale4f_branch2b
I0305 18:55:06.954740 16471 net.cpp:434] scale4f_branch2b <- res4f_branch2b
I0305 18:55:06.954752 16471 net.cpp:395] scale4f_branch2b -> res4f_branch2b (in-place)
I0305 18:55:06.954792 16471 layer_factory.hpp:77] Creating layer scale4f_branch2b
I0305 18:55:06.954900 16471 net.cpp:150] Setting up scale4f_branch2b
I0305 18:55:06.954905 16471 net.cpp:157] Top shape: 32 256 14 14 (1605632)
I0305 18:55:06.954906 16471 net.cpp:165] Memory required for data: 6872105088
I0305 18:55:06.954910 16471 layer_factory.hpp:77] Creating layer res4f_branch2b_relu
I0305 18:55:06.954913 16471 net.cpp:100] Creating Layer res4f_branch2b_relu
I0305 18:55:06.954916 16471 net.cpp:434] res4f_branch2b_relu <- res4f_branch2b
I0305 18:55:06.954918 16471 net.cpp:395] res4f_branch2b_relu -> res4f_branch2b (in-place)
I0305 18:55:06.955149 16471 net.cpp:150] Setting up res4f_branch2b_relu
I0305 18:55:06.955157 16471 net.cpp:157] Top shape: 32 256 14 14 (1605632)
I0305 18:55:06.955159 16471 net.cpp:165] Memory required for data: 6878527616
I0305 18:55:06.955162 16471 layer_factory.hpp:77] Creating layer res4f_branch2c
I0305 18:55:06.955166 16471 net.cpp:100] Creating Layer res4f_branch2c
I0305 18:55:06.955168 16471 net.cpp:434] res4f_branch2c <- res4f_branch2b
I0305 18:55:06.955183 16471 net.cpp:408] res4f_branch2c -> res4f_branch2c
I0305 18:55:06.956233 16471 net.cpp:150] Setting up res4f_branch2c
I0305 18:55:06.956241 16471 net.cpp:157] Top shape: 32 1024 14 14 (6422528)
I0305 18:55:06.956243 16471 net.cpp:165] Memory required for data: 6904217728
I0305 18:55:06.956248 16471 layer_factory.hpp:77] Creating layer bn4f_branch2c
I0305 18:55:06.956253 16471 net.cpp:100] Creating Layer bn4f_branch2c
I0305 18:55:06.956254 16471 net.cpp:434] bn4f_branch2c <- res4f_branch2c
I0305 18:55:06.956269 16471 net.cpp:395] bn4f_branch2c -> res4f_branch2c (in-place)
I0305 18:55:06.956434 16471 net.cpp:150] Setting up bn4f_branch2c
I0305 18:55:06.956439 16471 net.cpp:157] Top shape: 32 1024 14 14 (6422528)
I0305 18:55:06.956440 16471 net.cpp:165] Memory required for data: 6929907840
I0305 18:55:06.956490 16471 layer_factory.hpp:77] Creating layer scale4f_branch2c
I0305 18:55:06.956496 16471 net.cpp:100] Creating Layer scale4f_branch2c
I0305 18:55:06.956497 16471 net.cpp:434] scale4f_branch2c <- res4f_branch2c
I0305 18:55:06.956501 16471 net.cpp:395] scale4f_branch2c -> res4f_branch2c (in-place)
I0305 18:55:06.956552 16471 layer_factory.hpp:77] Creating layer scale4f_branch2c
I0305 18:55:06.956661 16471 net.cpp:150] Setting up scale4f_branch2c
I0305 18:55:06.956666 16471 net.cpp:157] Top shape: 32 1024 14 14 (6422528)
I0305 18:55:06.956667 16471 net.cpp:165] Memory required for data: 6955597952
I0305 18:55:06.956671 16471 layer_factory.hpp:77] Creating layer res4f
I0305 18:55:06.956674 16471 net.cpp:100] Creating Layer res4f
I0305 18:55:06.956677 16471 net.cpp:434] res4f <- res4e_res4e_relu_0_split_1
I0305 18:55:06.956679 16471 net.cpp:434] res4f <- res4f_branch2c
I0305 18:55:06.956692 16471 net.cpp:408] res4f -> res4f
I0305 18:55:06.956712 16471 net.cpp:150] Setting up res4f
I0305 18:55:06.956724 16471 net.cpp:157] Top shape: 32 1024 14 14 (6422528)
I0305 18:55:06.956727 16471 net.cpp:165] Memory required for data: 6981288064
I0305 18:55:06.956728 16471 layer_factory.hpp:77] Creating layer res4f_relu
I0305 18:55:06.956732 16471 net.cpp:100] Creating Layer res4f_relu
I0305 18:55:06.956734 16471 net.cpp:434] res4f_relu <- res4f
I0305 18:55:06.956737 16471 net.cpp:395] res4f_relu -> res4f (in-place)
I0305 18:55:06.956873 16471 net.cpp:150] Setting up res4f_relu
I0305 18:55:06.956879 16471 net.cpp:157] Top shape: 32 1024 14 14 (6422528)
I0305 18:55:06.956881 16471 net.cpp:165] Memory required for data: 7006978176
I0305 18:55:06.956883 16471 layer_factory.hpp:77] Creating layer res4f_res4f_relu_0_split
I0305 18:55:06.956887 16471 net.cpp:100] Creating Layer res4f_res4f_relu_0_split
I0305 18:55:06.956889 16471 net.cpp:434] res4f_res4f_relu_0_split <- res4f
I0305 18:55:06.956893 16471 net.cpp:408] res4f_res4f_relu_0_split -> res4f_res4f_relu_0_split_0
I0305 18:55:06.956907 16471 net.cpp:408] res4f_res4f_relu_0_split -> res4f_res4f_relu_0_split_1
I0305 18:55:06.956948 16471 net.cpp:150] Setting up res4f_res4f_relu_0_split
I0305 18:55:06.956951 16471 net.cpp:157] Top shape: 32 1024 14 14 (6422528)
I0305 18:55:06.956954 16471 net.cpp:157] Top shape: 32 1024 14 14 (6422528)
I0305 18:55:06.956955 16471 net.cpp:165] Memory required for data: 7058358400
I0305 18:55:06.956957 16471 layer_factory.hpp:77] Creating layer res5a_branch1
I0305 18:55:06.956961 16471 net.cpp:100] Creating Layer res5a_branch1
I0305 18:55:06.956964 16471 net.cpp:434] res5a_branch1 <- res4f_res4f_relu_0_split_0
I0305 18:55:06.956977 16471 net.cpp:408] res5a_branch1 -> res5a_branch1
I0305 18:55:06.960397 16471 net.cpp:150] Setting up res5a_branch1
I0305 18:55:06.960422 16471 net.cpp:157] Top shape: 32 2048 7 7 (3211264)
I0305 18:55:06.960425 16471 net.cpp:165] Memory required for data: 7071203456
I0305 18:55:06.960430 16471 layer_factory.hpp:77] Creating layer bn5a_branch1
I0305 18:55:06.960440 16471 net.cpp:100] Creating Layer bn5a_branch1
I0305 18:55:06.960443 16471 net.cpp:434] bn5a_branch1 <- res5a_branch1
I0305 18:55:06.960448 16471 net.cpp:395] bn5a_branch1 -> res5a_branch1 (in-place)
I0305 18:55:06.960633 16471 net.cpp:150] Setting up bn5a_branch1
I0305 18:55:06.960638 16471 net.cpp:157] Top shape: 32 2048 7 7 (3211264)
I0305 18:55:06.960639 16471 net.cpp:165] Memory required for data: 7084048512
I0305 18:55:06.960644 16471 layer_factory.hpp:77] Creating layer scale5a_branch1
I0305 18:55:06.960649 16471 net.cpp:100] Creating Layer scale5a_branch1
I0305 18:55:06.960651 16471 net.cpp:434] scale5a_branch1 <- res5a_branch1
I0305 18:55:06.960654 16471 net.cpp:395] scale5a_branch1 -> res5a_branch1 (in-place)
I0305 18:55:06.960708 16471 layer_factory.hpp:77] Creating layer scale5a_branch1
I0305 18:55:06.960822 16471 net.cpp:150] Setting up scale5a_branch1
I0305 18:55:06.960827 16471 net.cpp:157] Top shape: 32 2048 7 7 (3211264)
I0305 18:55:06.960829 16471 net.cpp:165] Memory required for data: 7096893568
I0305 18:55:06.960832 16471 layer_factory.hpp:77] Creating layer res5a_branch2a
I0305 18:55:06.960839 16471 net.cpp:100] Creating Layer res5a_branch2a
I0305 18:55:06.960841 16471 net.cpp:434] res5a_branch2a <- res4f_res4f_relu_0_split_1
I0305 18:55:06.960855 16471 net.cpp:408] res5a_branch2a -> res5a_branch2a
I0305 18:55:06.962314 16471 net.cpp:150] Setting up res5a_branch2a
I0305 18:55:06.962323 16471 net.cpp:157] Top shape: 32 512 7 7 (802816)
I0305 18:55:06.962326 16471 net.cpp:165] Memory required for data: 7100104832
I0305 18:55:06.962328 16471 layer_factory.hpp:77] Creating layer bn5a_branch2a
I0305 18:55:06.962332 16471 net.cpp:100] Creating Layer bn5a_branch2a
I0305 18:55:06.962335 16471 net.cpp:434] bn5a_branch2a <- res5a_branch2a
I0305 18:55:06.962348 16471 net.cpp:395] bn5a_branch2a -> res5a_branch2a (in-place)
I0305 18:55:06.962527 16471 net.cpp:150] Setting up bn5a_branch2a
I0305 18:55:06.962532 16471 net.cpp:157] Top shape: 32 512 7 7 (802816)
I0305 18:55:06.962534 16471 net.cpp:165] Memory required for data: 7103316096
I0305 18:55:06.962538 16471 layer_factory.hpp:77] Creating layer scale5a_branch2a
I0305 18:55:06.962543 16471 net.cpp:100] Creating Layer scale5a_branch2a
I0305 18:55:06.962544 16471 net.cpp:434] scale5a_branch2a <- res5a_branch2a
I0305 18:55:06.962548 16471 net.cpp:395] scale5a_branch2a -> res5a_branch2a (in-place)
I0305 18:55:06.962596 16471 layer_factory.hpp:77] Creating layer scale5a_branch2a
I0305 18:55:06.962710 16471 net.cpp:150] Setting up scale5a_branch2a
I0305 18:55:06.962715 16471 net.cpp:157] Top shape: 32 512 7 7 (802816)
I0305 18:55:06.962718 16471 net.cpp:165] Memory required for data: 7106527360
I0305 18:55:06.962720 16471 layer_factory.hpp:77] Creating layer res5a_branch2a_relu
I0305 18:55:06.962724 16471 net.cpp:100] Creating Layer res5a_branch2a_relu
I0305 18:55:06.962726 16471 net.cpp:434] res5a_branch2a_relu <- res5a_branch2a
I0305 18:55:06.962729 16471 net.cpp:395] res5a_branch2a_relu -> res5a_branch2a (in-place)
I0305 18:55:06.962870 16471 net.cpp:150] Setting up res5a_branch2a_relu
I0305 18:55:06.962877 16471 net.cpp:157] Top shape: 32 512 7 7 (802816)
I0305 18:55:06.962878 16471 net.cpp:165] Memory required for data: 7109738624
I0305 18:55:06.962884 16471 layer_factory.hpp:77] Creating layer res5a_branch2b
I0305 18:55:06.962889 16471 net.cpp:100] Creating Layer res5a_branch2b
I0305 18:55:06.962901 16471 net.cpp:434] res5a_branch2b <- res5a_branch2a
I0305 18:55:06.962905 16471 net.cpp:408] res5a_branch2b -> res5a_branch2b
I0305 18:55:06.966864 16471 net.cpp:150] Setting up res5a_branch2b
I0305 18:55:06.966892 16471 net.cpp:157] Top shape: 32 512 7 7 (802816)
I0305 18:55:06.966894 16471 net.cpp:165] Memory required for data: 7112949888
I0305 18:55:06.966899 16471 layer_factory.hpp:77] Creating layer bn5a_branch2b
I0305 18:55:06.966908 16471 net.cpp:100] Creating Layer bn5a_branch2b
I0305 18:55:06.966912 16471 net.cpp:434] bn5a_branch2b <- res5a_branch2b
I0305 18:55:06.966927 16471 net.cpp:395] bn5a_branch2b -> res5a_branch2b (in-place)
I0305 18:55:06.967111 16471 net.cpp:150] Setting up bn5a_branch2b
I0305 18:55:06.967116 16471 net.cpp:157] Top shape: 32 512 7 7 (802816)
I0305 18:55:06.967118 16471 net.cpp:165] Memory required for data: 7116161152
I0305 18:55:06.967123 16471 layer_factory.hpp:77] Creating layer scale5a_branch2b
I0305 18:55:06.967128 16471 net.cpp:100] Creating Layer scale5a_branch2b
I0305 18:55:06.967131 16471 net.cpp:434] scale5a_branch2b <- res5a_branch2b
I0305 18:55:06.967144 16471 net.cpp:395] scale5a_branch2b -> res5a_branch2b (in-place)
I0305 18:55:06.967191 16471 layer_factory.hpp:77] Creating layer scale5a_branch2b
I0305 18:55:06.967305 16471 net.cpp:150] Setting up scale5a_branch2b
I0305 18:55:06.967310 16471 net.cpp:157] Top shape: 32 512 7 7 (802816)
I0305 18:55:06.967313 16471 net.cpp:165] Memory required for data: 7119372416
I0305 18:55:06.967315 16471 layer_factory.hpp:77] Creating layer res5a_branch2b_relu
I0305 18:55:06.967320 16471 net.cpp:100] Creating Layer res5a_branch2b_relu
I0305 18:55:06.967322 16471 net.cpp:434] res5a_branch2b_relu <- res5a_branch2b
I0305 18:55:06.967325 16471 net.cpp:395] res5a_branch2b_relu -> res5a_branch2b (in-place)
I0305 18:55:06.967568 16471 net.cpp:150] Setting up res5a_branch2b_relu
I0305 18:55:06.967576 16471 net.cpp:157] Top shape: 32 512 7 7 (802816)
I0305 18:55:06.967579 16471 net.cpp:165] Memory required for data: 7122583680
I0305 18:55:06.967581 16471 layer_factory.hpp:77] Creating layer res5a_branch2c
I0305 18:55:06.967587 16471 net.cpp:100] Creating Layer res5a_branch2c
I0305 18:55:06.967589 16471 net.cpp:434] res5a_branch2c <- res5a_branch2b
I0305 18:55:06.967603 16471 net.cpp:408] res5a_branch2c -> res5a_branch2c
I0305 18:55:06.969406 16471 net.cpp:150] Setting up res5a_branch2c
I0305 18:55:06.969419 16471 net.cpp:157] Top shape: 32 2048 7 7 (3211264)
I0305 18:55:06.969420 16471 net.cpp:165] Memory required for data: 7135428736
I0305 18:55:06.969424 16471 layer_factory.hpp:77] Creating layer bn5a_branch2c
I0305 18:55:06.969429 16471 net.cpp:100] Creating Layer bn5a_branch2c
I0305 18:55:06.969431 16471 net.cpp:434] bn5a_branch2c <- res5a_branch2c
I0305 18:55:06.969434 16471 net.cpp:395] bn5a_branch2c -> res5a_branch2c (in-place)
I0305 18:55:06.969622 16471 net.cpp:150] Setting up bn5a_branch2c
I0305 18:55:06.969627 16471 net.cpp:157] Top shape: 32 2048 7 7 (3211264)
I0305 18:55:06.969630 16471 net.cpp:165] Memory required for data: 7148273792
I0305 18:55:06.969633 16471 layer_factory.hpp:77] Creating layer scale5a_branch2c
I0305 18:55:06.969638 16471 net.cpp:100] Creating Layer scale5a_branch2c
I0305 18:55:06.969640 16471 net.cpp:434] scale5a_branch2c <- res5a_branch2c
I0305 18:55:06.969642 16471 net.cpp:395] scale5a_branch2c -> res5a_branch2c (in-place)
I0305 18:55:06.969686 16471 layer_factory.hpp:77] Creating layer scale5a_branch2c
I0305 18:55:06.969820 16471 net.cpp:150] Setting up scale5a_branch2c
I0305 18:55:06.969825 16471 net.cpp:157] Top shape: 32 2048 7 7 (3211264)
I0305 18:55:06.969826 16471 net.cpp:165] Memory required for data: 7161118848
I0305 18:55:06.969830 16471 layer_factory.hpp:77] Creating layer res5a
I0305 18:55:06.969833 16471 net.cpp:100] Creating Layer res5a
I0305 18:55:06.969835 16471 net.cpp:434] res5a <- res5a_branch1
I0305 18:55:06.969838 16471 net.cpp:434] res5a <- res5a_branch2c
I0305 18:55:06.969841 16471 net.cpp:408] res5a -> res5a
I0305 18:55:06.969871 16471 net.cpp:150] Setting up res5a
I0305 18:55:06.969877 16471 net.cpp:157] Top shape: 32 2048 7 7 (3211264)
I0305 18:55:06.969877 16471 net.cpp:165] Memory required for data: 7173963904
I0305 18:55:06.969879 16471 layer_factory.hpp:77] Creating layer res5a_relu
I0305 18:55:06.969883 16471 net.cpp:100] Creating Layer res5a_relu
I0305 18:55:06.969885 16471 net.cpp:434] res5a_relu <- res5a
I0305 18:55:06.969897 16471 net.cpp:395] res5a_relu -> res5a (in-place)
I0305 18:55:06.970134 16471 net.cpp:150] Setting up res5a_relu
I0305 18:55:06.970141 16471 net.cpp:157] Top shape: 32 2048 7 7 (3211264)
I0305 18:55:06.970152 16471 net.cpp:165] Memory required for data: 7186808960
I0305 18:55:06.970155 16471 layer_factory.hpp:77] Creating layer res5a_res5a_relu_0_split
I0305 18:55:06.970160 16471 net.cpp:100] Creating Layer res5a_res5a_relu_0_split
I0305 18:55:06.970162 16471 net.cpp:434] res5a_res5a_relu_0_split <- res5a
I0305 18:55:06.970165 16471 net.cpp:408] res5a_res5a_relu_0_split -> res5a_res5a_relu_0_split_0
I0305 18:55:06.970170 16471 net.cpp:408] res5a_res5a_relu_0_split -> res5a_res5a_relu_0_split_1
I0305 18:55:06.970214 16471 net.cpp:150] Setting up res5a_res5a_relu_0_split
I0305 18:55:06.970218 16471 net.cpp:157] Top shape: 32 2048 7 7 (3211264)
I0305 18:55:06.970221 16471 net.cpp:157] Top shape: 32 2048 7 7 (3211264)
I0305 18:55:06.970223 16471 net.cpp:165] Memory required for data: 7212499072
I0305 18:55:06.970226 16471 layer_factory.hpp:77] Creating layer res5b_branch2a
I0305 18:55:06.970229 16471 net.cpp:100] Creating Layer res5b_branch2a
I0305 18:55:06.970232 16471 net.cpp:434] res5b_branch2a <- res5a_res5a_relu_0_split_0
I0305 18:55:06.970245 16471 net.cpp:408] res5b_branch2a -> res5b_branch2a
I0305 18:55:06.972249 16471 net.cpp:150] Setting up res5b_branch2a
I0305 18:55:06.972268 16471 net.cpp:157] Top shape: 32 512 7 7 (802816)
I0305 18:55:06.972270 16471 net.cpp:165] Memory required for data: 7215710336
I0305 18:55:06.972275 16471 layer_factory.hpp:77] Creating layer bn5b_branch2a
I0305 18:55:06.972281 16471 net.cpp:100] Creating Layer bn5b_branch2a
I0305 18:55:06.972295 16471 net.cpp:434] bn5b_branch2a <- res5b_branch2a
I0305 18:55:06.972299 16471 net.cpp:395] bn5b_branch2a -> res5b_branch2a (in-place)
I0305 18:55:06.972478 16471 net.cpp:150] Setting up bn5b_branch2a
I0305 18:55:06.972483 16471 net.cpp:157] Top shape: 32 512 7 7 (802816)
I0305 18:55:06.972486 16471 net.cpp:165] Memory required for data: 7218921600
I0305 18:55:06.972491 16471 layer_factory.hpp:77] Creating layer scale5b_branch2a
I0305 18:55:06.972494 16471 net.cpp:100] Creating Layer scale5b_branch2a
I0305 18:55:06.972496 16471 net.cpp:434] scale5b_branch2a <- res5b_branch2a
I0305 18:55:06.972499 16471 net.cpp:395] scale5b_branch2a -> res5b_branch2a (in-place)
I0305 18:55:06.972543 16471 layer_factory.hpp:77] Creating layer scale5b_branch2a
I0305 18:55:06.972676 16471 net.cpp:150] Setting up scale5b_branch2a
I0305 18:55:06.972681 16471 net.cpp:157] Top shape: 32 512 7 7 (802816)
I0305 18:55:06.972683 16471 net.cpp:165] Memory required for data: 7222132864
I0305 18:55:06.972687 16471 layer_factory.hpp:77] Creating layer res5b_branch2a_relu
I0305 18:55:06.972690 16471 net.cpp:100] Creating Layer res5b_branch2a_relu
I0305 18:55:06.972692 16471 net.cpp:434] res5b_branch2a_relu <- res5b_branch2a
I0305 18:55:06.972695 16471 net.cpp:395] res5b_branch2a_relu -> res5b_branch2a (in-place)
I0305 18:55:06.972841 16471 net.cpp:150] Setting up res5b_branch2a_relu
I0305 18:55:06.972847 16471 net.cpp:157] Top shape: 32 512 7 7 (802816)
I0305 18:55:06.972849 16471 net.cpp:165] Memory required for data: 7225344128
I0305 18:55:06.972851 16471 layer_factory.hpp:77] Creating layer res5b_branch2b
I0305 18:55:06.972857 16471 net.cpp:100] Creating Layer res5b_branch2b
I0305 18:55:06.972859 16471 net.cpp:434] res5b_branch2b <- res5b_branch2a
I0305 18:55:06.972872 16471 net.cpp:408] res5b_branch2b -> res5b_branch2b
I0305 18:55:06.976819 16471 net.cpp:150] Setting up res5b_branch2b
I0305 18:55:06.976843 16471 net.cpp:157] Top shape: 32 512 7 7 (802816)
I0305 18:55:06.976846 16471 net.cpp:165] Memory required for data: 7228555392
I0305 18:55:06.976852 16471 layer_factory.hpp:77] Creating layer bn5b_branch2b
I0305 18:55:06.976861 16471 net.cpp:100] Creating Layer bn5b_branch2b
I0305 18:55:06.976874 16471 net.cpp:434] bn5b_branch2b <- res5b_branch2b
I0305 18:55:06.976878 16471 net.cpp:395] bn5b_branch2b -> res5b_branch2b (in-place)
I0305 18:55:06.977067 16471 net.cpp:150] Setting up bn5b_branch2b
I0305 18:55:06.977072 16471 net.cpp:157] Top shape: 32 512 7 7 (802816)
I0305 18:55:06.977074 16471 net.cpp:165] Memory required for data: 7231766656
I0305 18:55:06.977079 16471 layer_factory.hpp:77] Creating layer scale5b_branch2b
I0305 18:55:06.977085 16471 net.cpp:100] Creating Layer scale5b_branch2b
I0305 18:55:06.977087 16471 net.cpp:434] scale5b_branch2b <- res5b_branch2b
I0305 18:55:06.977089 16471 net.cpp:395] scale5b_branch2b -> res5b_branch2b (in-place)
I0305 18:55:06.977136 16471 layer_factory.hpp:77] Creating layer scale5b_branch2b
I0305 18:55:06.977288 16471 net.cpp:150] Setting up scale5b_branch2b
I0305 18:55:06.977293 16471 net.cpp:157] Top shape: 32 512 7 7 (802816)
I0305 18:55:06.977294 16471 net.cpp:165] Memory required for data: 7234977920
I0305 18:55:06.977298 16471 layer_factory.hpp:77] Creating layer res5b_branch2b_relu
I0305 18:55:06.977303 16471 net.cpp:100] Creating Layer res5b_branch2b_relu
I0305 18:55:06.977304 16471 net.cpp:434] res5b_branch2b_relu <- res5b_branch2b
I0305 18:55:06.977308 16471 net.cpp:395] res5b_branch2b_relu -> res5b_branch2b (in-place)
I0305 18:55:06.977547 16471 net.cpp:150] Setting up res5b_branch2b_relu
I0305 18:55:06.977555 16471 net.cpp:157] Top shape: 32 512 7 7 (802816)
I0305 18:55:06.977557 16471 net.cpp:165] Memory required for data: 7238189184
I0305 18:55:06.977560 16471 layer_factory.hpp:77] Creating layer res5b_branch2c
I0305 18:55:06.977566 16471 net.cpp:100] Creating Layer res5b_branch2c
I0305 18:55:06.977568 16471 net.cpp:434] res5b_branch2c <- res5b_branch2b
I0305 18:55:06.977572 16471 net.cpp:408] res5b_branch2c -> res5b_branch2c
I0305 18:55:06.979375 16471 net.cpp:150] Setting up res5b_branch2c
I0305 18:55:06.979385 16471 net.cpp:157] Top shape: 32 2048 7 7 (3211264)
I0305 18:55:06.979387 16471 net.cpp:165] Memory required for data: 7251034240
I0305 18:55:06.979390 16471 layer_factory.hpp:77] Creating layer bn5b_branch2c
I0305 18:55:06.979395 16471 net.cpp:100] Creating Layer bn5b_branch2c
I0305 18:55:06.979398 16471 net.cpp:434] bn5b_branch2c <- res5b_branch2c
I0305 18:55:06.979401 16471 net.cpp:395] bn5b_branch2c -> res5b_branch2c (in-place)
I0305 18:55:06.979591 16471 net.cpp:150] Setting up bn5b_branch2c
I0305 18:55:06.979596 16471 net.cpp:157] Top shape: 32 2048 7 7 (3211264)
I0305 18:55:06.979598 16471 net.cpp:165] Memory required for data: 7263879296
I0305 18:55:06.979602 16471 layer_factory.hpp:77] Creating layer scale5b_branch2c
I0305 18:55:06.979606 16471 net.cpp:100] Creating Layer scale5b_branch2c
I0305 18:55:06.979609 16471 net.cpp:434] scale5b_branch2c <- res5b_branch2c
I0305 18:55:06.979611 16471 net.cpp:395] scale5b_branch2c -> res5b_branch2c (in-place)
I0305 18:55:06.979653 16471 layer_factory.hpp:77] Creating layer scale5b_branch2c
I0305 18:55:06.979786 16471 net.cpp:150] Setting up scale5b_branch2c
I0305 18:55:06.979791 16471 net.cpp:157] Top shape: 32 2048 7 7 (3211264)
I0305 18:55:06.979794 16471 net.cpp:165] Memory required for data: 7276724352
I0305 18:55:06.979797 16471 layer_factory.hpp:77] Creating layer res5b
I0305 18:55:06.979800 16471 net.cpp:100] Creating Layer res5b
I0305 18:55:06.979804 16471 net.cpp:434] res5b <- res5a_res5a_relu_0_split_1
I0305 18:55:06.979805 16471 net.cpp:434] res5b <- res5b_branch2c
I0305 18:55:06.979809 16471 net.cpp:408] res5b -> res5b
I0305 18:55:06.979840 16471 net.cpp:150] Setting up res5b
I0305 18:55:06.979846 16471 net.cpp:157] Top shape: 32 2048 7 7 (3211264)
I0305 18:55:06.979846 16471 net.cpp:165] Memory required for data: 7289569408
I0305 18:55:06.979848 16471 layer_factory.hpp:77] Creating layer res5b_relu
I0305 18:55:06.979852 16471 net.cpp:100] Creating Layer res5b_relu
I0305 18:55:06.979854 16471 net.cpp:434] res5b_relu <- res5b
I0305 18:55:06.979856 16471 net.cpp:395] res5b_relu -> res5b (in-place)
I0305 18:55:06.980105 16471 net.cpp:150] Setting up res5b_relu
I0305 18:55:06.980113 16471 net.cpp:157] Top shape: 32 2048 7 7 (3211264)
I0305 18:55:06.980115 16471 net.cpp:165] Memory required for data: 7302414464
I0305 18:55:06.980118 16471 layer_factory.hpp:77] Creating layer res5b_res5b_relu_0_split
I0305 18:55:06.980123 16471 net.cpp:100] Creating Layer res5b_res5b_relu_0_split
I0305 18:55:06.980125 16471 net.cpp:434] res5b_res5b_relu_0_split <- res5b
I0305 18:55:06.980129 16471 net.cpp:408] res5b_res5b_relu_0_split -> res5b_res5b_relu_0_split_0
I0305 18:55:06.980144 16471 net.cpp:408] res5b_res5b_relu_0_split -> res5b_res5b_relu_0_split_1
I0305 18:55:06.980188 16471 net.cpp:150] Setting up res5b_res5b_relu_0_split
I0305 18:55:06.980192 16471 net.cpp:157] Top shape: 32 2048 7 7 (3211264)
I0305 18:55:06.980195 16471 net.cpp:157] Top shape: 32 2048 7 7 (3211264)
I0305 18:55:06.980196 16471 net.cpp:165] Memory required for data: 7328104576
I0305 18:55:06.980198 16471 layer_factory.hpp:77] Creating layer res5c_branch2a
I0305 18:55:06.980203 16471 net.cpp:100] Creating Layer res5c_branch2a
I0305 18:55:06.980206 16471 net.cpp:434] res5c_branch2a <- res5b_res5b_relu_0_split_0
I0305 18:55:06.980219 16471 net.cpp:408] res5c_branch2a -> res5c_branch2a
I0305 18:55:06.982262 16471 net.cpp:150] Setting up res5c_branch2a
I0305 18:55:06.982278 16471 net.cpp:157] Top shape: 32 512 7 7 (802816)
I0305 18:55:06.982281 16471 net.cpp:165] Memory required for data: 7331315840
I0305 18:55:06.982286 16471 layer_factory.hpp:77] Creating layer bn5c_branch2a
I0305 18:55:06.982293 16471 net.cpp:100] Creating Layer bn5c_branch2a
I0305 18:55:06.982296 16471 net.cpp:434] bn5c_branch2a <- res5c_branch2a
I0305 18:55:06.982300 16471 net.cpp:395] bn5c_branch2a -> res5c_branch2a (in-place)
I0305 18:55:06.982481 16471 net.cpp:150] Setting up bn5c_branch2a
I0305 18:55:06.982486 16471 net.cpp:157] Top shape: 32 512 7 7 (802816)
I0305 18:55:06.982487 16471 net.cpp:165] Memory required for data: 7334527104
I0305 18:55:06.982492 16471 layer_factory.hpp:77] Creating layer scale5c_branch2a
I0305 18:55:06.982497 16471 net.cpp:100] Creating Layer scale5c_branch2a
I0305 18:55:06.982499 16471 net.cpp:434] scale5c_branch2a <- res5c_branch2a
I0305 18:55:06.982501 16471 net.cpp:395] scale5c_branch2a -> res5c_branch2a (in-place)
I0305 18:55:06.982547 16471 layer_factory.hpp:77] Creating layer scale5c_branch2a
I0305 18:55:06.982688 16471 net.cpp:150] Setting up scale5c_branch2a
I0305 18:55:06.982693 16471 net.cpp:157] Top shape: 32 512 7 7 (802816)
I0305 18:55:06.982695 16471 net.cpp:165] Memory required for data: 7337738368
I0305 18:55:06.982698 16471 layer_factory.hpp:77] Creating layer res5c_branch2a_relu
I0305 18:55:06.982702 16471 net.cpp:100] Creating Layer res5c_branch2a_relu
I0305 18:55:06.982704 16471 net.cpp:434] res5c_branch2a_relu <- res5c_branch2a
I0305 18:55:06.982708 16471 net.cpp:395] res5c_branch2a_relu -> res5c_branch2a (in-place)
I0305 18:55:06.982856 16471 net.cpp:150] Setting up res5c_branch2a_relu
I0305 18:55:06.982861 16471 net.cpp:157] Top shape: 32 512 7 7 (802816)
I0305 18:55:06.982863 16471 net.cpp:165] Memory required for data: 7340949632
I0305 18:55:06.982866 16471 layer_factory.hpp:77] Creating layer res5c_branch2b
I0305 18:55:06.982872 16471 net.cpp:100] Creating Layer res5c_branch2b
I0305 18:55:06.982873 16471 net.cpp:434] res5c_branch2b <- res5c_branch2a
I0305 18:55:06.982877 16471 net.cpp:408] res5c_branch2b -> res5c_branch2b
I0305 18:55:06.986881 16471 net.cpp:150] Setting up res5c_branch2b
I0305 18:55:06.986909 16471 net.cpp:157] Top shape: 32 512 7 7 (802816)
I0305 18:55:06.986912 16471 net.cpp:165] Memory required for data: 7344160896
I0305 18:55:06.986917 16471 layer_factory.hpp:77] Creating layer bn5c_branch2b
I0305 18:55:06.986927 16471 net.cpp:100] Creating Layer bn5c_branch2b
I0305 18:55:06.986930 16471 net.cpp:434] bn5c_branch2b <- res5c_branch2b
I0305 18:55:06.986943 16471 net.cpp:395] bn5c_branch2b -> res5c_branch2b (in-place)
I0305 18:55:06.987140 16471 net.cpp:150] Setting up bn5c_branch2b
I0305 18:55:06.987145 16471 net.cpp:157] Top shape: 32 512 7 7 (802816)
I0305 18:55:06.987148 16471 net.cpp:165] Memory required for data: 7347372160
I0305 18:55:06.987151 16471 layer_factory.hpp:77] Creating layer scale5c_branch2b
I0305 18:55:06.987157 16471 net.cpp:100] Creating Layer scale5c_branch2b
I0305 18:55:06.987159 16471 net.cpp:434] scale5c_branch2b <- res5c_branch2b
I0305 18:55:06.987162 16471 net.cpp:395] scale5c_branch2b -> res5c_branch2b (in-place)
I0305 18:55:06.987226 16471 layer_factory.hpp:77] Creating layer scale5c_branch2b
I0305 18:55:06.987345 16471 net.cpp:150] Setting up scale5c_branch2b
I0305 18:55:06.987350 16471 net.cpp:157] Top shape: 32 512 7 7 (802816)
I0305 18:55:06.987352 16471 net.cpp:165] Memory required for data: 7350583424
I0305 18:55:06.987355 16471 layer_factory.hpp:77] Creating layer res5c_branch2b_relu
I0305 18:55:06.987360 16471 net.cpp:100] Creating Layer res5c_branch2b_relu
I0305 18:55:06.987361 16471 net.cpp:434] res5c_branch2b_relu <- res5c_branch2b
I0305 18:55:06.987365 16471 net.cpp:395] res5c_branch2b_relu -> res5c_branch2b (in-place)
I0305 18:55:06.987609 16471 net.cpp:150] Setting up res5c_branch2b_relu
I0305 18:55:06.987617 16471 net.cpp:157] Top shape: 32 512 7 7 (802816)
I0305 18:55:06.987619 16471 net.cpp:165] Memory required for data: 7353794688
I0305 18:55:06.987622 16471 layer_factory.hpp:77] Creating layer res5c_branch2c
I0305 18:55:06.987628 16471 net.cpp:100] Creating Layer res5c_branch2c
I0305 18:55:06.987630 16471 net.cpp:434] res5c_branch2c <- res5c_branch2b
I0305 18:55:06.987633 16471 net.cpp:408] res5c_branch2c -> res5c_branch2c
I0305 18:55:06.989550 16471 net.cpp:150] Setting up res5c_branch2c
I0305 18:55:06.989562 16471 net.cpp:157] Top shape: 32 2048 7 7 (3211264)
I0305 18:55:06.989563 16471 net.cpp:165] Memory required for data: 7366639744
I0305 18:55:06.989567 16471 layer_factory.hpp:77] Creating layer bn5c_branch2c
I0305 18:55:06.989572 16471 net.cpp:100] Creating Layer bn5c_branch2c
I0305 18:55:06.989574 16471 net.cpp:434] bn5c_branch2c <- res5c_branch2c
I0305 18:55:06.989578 16471 net.cpp:395] bn5c_branch2c -> res5c_branch2c (in-place)
I0305 18:55:06.989753 16471 net.cpp:150] Setting up bn5c_branch2c
I0305 18:55:06.989759 16471 net.cpp:157] Top shape: 32 2048 7 7 (3211264)
I0305 18:55:06.989761 16471 net.cpp:165] Memory required for data: 7379484800
I0305 18:55:06.989766 16471 layer_factory.hpp:77] Creating layer scale5c_branch2c
I0305 18:55:06.989769 16471 net.cpp:100] Creating Layer scale5c_branch2c
I0305 18:55:06.989771 16471 net.cpp:434] scale5c_branch2c <- res5c_branch2c
I0305 18:55:06.989774 16471 net.cpp:395] scale5c_branch2c -> res5c_branch2c (in-place)
I0305 18:55:06.989810 16471 layer_factory.hpp:77] Creating layer scale5c_branch2c
I0305 18:55:06.989918 16471 net.cpp:150] Setting up scale5c_branch2c
I0305 18:55:06.989923 16471 net.cpp:157] Top shape: 32 2048 7 7 (3211264)
I0305 18:55:06.989924 16471 net.cpp:165] Memory required for data: 7392329856
I0305 18:55:06.989928 16471 layer_factory.hpp:77] Creating layer res5c
I0305 18:55:06.989933 16471 net.cpp:100] Creating Layer res5c
I0305 18:55:06.989936 16471 net.cpp:434] res5c <- res5b_res5b_relu_0_split_1
I0305 18:55:06.989938 16471 net.cpp:434] res5c <- res5c_branch2c
I0305 18:55:06.989941 16471 net.cpp:408] res5c -> res5c
I0305 18:55:06.989964 16471 net.cpp:150] Setting up res5c
I0305 18:55:06.989967 16471 net.cpp:157] Top shape: 32 2048 7 7 (3211264)
I0305 18:55:06.989969 16471 net.cpp:165] Memory required for data: 7405174912
I0305 18:55:06.989971 16471 layer_factory.hpp:77] Creating layer res5c_relu
I0305 18:55:06.989974 16471 net.cpp:100] Creating Layer res5c_relu
I0305 18:55:06.989977 16471 net.cpp:434] res5c_relu <- res5c
I0305 18:55:06.989980 16471 net.cpp:395] res5c_relu -> res5c (in-place)
I0305 18:55:06.990201 16471 net.cpp:150] Setting up res5c_relu
I0305 18:55:06.990209 16471 net.cpp:157] Top shape: 32 2048 7 7 (3211264)
I0305 18:55:06.990211 16471 net.cpp:165] Memory required for data: 7418019968
I0305 18:55:06.990213 16471 layer_factory.hpp:77] Creating layer pool5
I0305 18:55:06.990219 16471 net.cpp:100] Creating Layer pool5
I0305 18:55:06.990221 16471 net.cpp:434] pool5 <- res5c
I0305 18:55:06.990226 16471 net.cpp:408] pool5 -> pool5
I0305 18:55:06.990474 16471 net.cpp:150] Setting up pool5
I0305 18:55:06.990483 16471 net.cpp:157] Top shape: 32 2048 1 1 (65536)
I0305 18:55:06.990485 16471 net.cpp:165] Memory required for data: 7418282112
I0305 18:55:06.990487 16471 layer_factory.hpp:77] Creating layer drop5
I0305 18:55:06.990492 16471 net.cpp:100] Creating Layer drop5
I0305 18:55:06.990495 16471 net.cpp:434] drop5 <- pool5
I0305 18:55:06.990497 16471 net.cpp:395] drop5 -> pool5 (in-place)
I0305 18:55:06.990522 16471 net.cpp:150] Setting up drop5
I0305 18:55:06.990527 16471 net.cpp:157] Top shape: 32 2048 1 1 (65536)
I0305 18:55:06.990530 16471 net.cpp:165] Memory required for data: 7418544256
I0305 18:55:06.990540 16471 layer_factory.hpp:77] Creating layer fc8_
I0305 18:55:06.990546 16471 net.cpp:100] Creating Layer fc8_
I0305 18:55:06.990558 16471 net.cpp:434] fc8_ <- pool5
I0305 18:55:06.990562 16471 net.cpp:408] fc8_ -> fc8_
I0305 18:55:07.021031 16471 net.cpp:150] Setting up fc8_
I0305 18:55:07.021051 16471 net.cpp:157] Top shape: 32 730 (23360)
I0305 18:55:07.021054 16471 net.cpp:165] Memory required for data: 7418637696
I0305 18:55:07.021059 16471 layer_factory.hpp:77] Creating layer loss
I0305 18:55:07.021069 16471 net.cpp:100] Creating Layer loss
I0305 18:55:07.021072 16471 net.cpp:434] loss <- fc8_
I0305 18:55:07.021085 16471 net.cpp:434] loss <- label
I0305 18:55:07.021090 16471 net.cpp:408] loss -> loss
I0305 18:55:07.021102 16471 layer_factory.hpp:77] Creating layer loss
…
