…
I0304 20:19:06.202546 23214 net.cpp:58] Initializing net from parameters: 
name: "Res50-IDE"
state {
  phase: TRAIN
  level: 0
  stage: ""
}
layer {
  name: "data"
  type: "ImageData"
  top: "data"
  top: "label"
  include {
    phase: TRAIN
  }
  transform_param {
    mirror: true
    crop_size: 224
    mean_value: 104
    mean_value: 117
    mean_value: 124
  }
  image_data_param {
    source: "evaluation/data/CUHK03/train_cuhk03_detected.txt"
    batch_size: 16
    shuffle: true
    new_height: 224
    new_width: 224
    is_color: true
    root_folder: "evaluation/data/CUHK03/"
  }
}
layer {
  name: "conv1"
  type: "Convolution"
  bottom: "data"
  top: "conv1"
  convolution_param {
    num_output: 64
    pad: 3
    kernel_size: 7
    stride: 2
  }
}
layer {
  name: "bn_conv1"
  type: "BatchNorm"
  bottom: "conv1"
  top: "conv1"
  batch_norm_param {
    use_global_stats: true
  }
}
layer {
  name: "scale_conv1"
  type: "Scale"
  bottom: "conv1"
  top: "conv1"
  scale_param {
    bias_term: true
  }
}
layer {
  name: "conv1_relu"
  type: "ReLU"
  bottom: "conv1"
  top: "conv1"
}
layer {
  name: "pool1"
  type: "Pooling"
  bottom: "conv1"
  top: "pool1"
  pooling_param {
    pool: MAX
    kernel_size: 3
    stride: 2
  }
}
layer {
  name: "res2a_branch1"
  type: "Convolution"
  bottom: "pool1"
  top: "res2a_branch1"
  convolution_param {
    num_output: 256
    bias_term: false
    pad: 0
    kernel_size: 1
    stride: 1
  }
}
layer {
  name: "bn2a_branch1"
  type: "BatchNorm"
  bottom: "res2a_branch1"
  top: "res2a_branch1"
  batch_norm_param {
    use_global_stats: true
  }
}
layer {
  name: "scale2a_branch1"
  type: "Scale"
  bottom: "res2a_branch1"
  top: "res2a_branch1"
  scale_param {
    bias_term: true
  }
}
layer {
  name: "res2a_branch2a"
  type: "Convolution"
  bottom: "pool1"
  top: "res2a_branch2a"
  convolution_param {
    num_output: 64
    bias_term: false
    pad: 0
    kernel_size: 1
    stride: 1
  }
}
layer {
  name: "bn2a_branch2a"
  type: "BatchNorm"
  bottom: "res2a_branch2a"
  top: "res2a_branch2a"
  batch_norm_param {
    use_global_stats: true
  }
}
layer {
  name: "scale2a_branch2a"
  type: "Scale"
  bottom: "res2a_branch2a"
  top: "res2a_branch2a"
  scale_param {
    bias_term: true
  }
}
layer {
  name: "res2a_branch2a_relu"
  type: "ReLU"
  bottom: "res2a_branch2a"
  top: "res2a_branch2a"
}
layer {
  name: "res2a_branch2b"
  type: "Convolution"
  bottom: "res2a_branch2a"
  top: "res2a_branch2b"
  convolution_param {
    num_output: 64
    bias_term: false
    pad: 1
    kernel_size: 3
    stride: 1
  }
}
layer {
  name: "bn2a_branch2b"
  type: "BatchNorm"
  bottom: "res2a_branch2b"
  top: "res2a_branch2b"
  batch_norm_param {
    use_global_stats: true
  }
}
layer {
  name: "scale2a_branch2b"
  type: "Scale"
  bottom: "res2a_branch2b"
  top: "res2a_branch2b"
  scale_param {
    bias_term: true
  }
}
layer {
  name: "res2a_branch2b_relu"
  type: "ReLU"
  bottom: "res2a_branch2b"
  top: "res2a_branch2b"
}
layer {
  name: "res2a_branch2c"
  type: "Convolution"
  bottom: "res2a_branch2b"
  top: "res2a_branch2c"
  convolution_param {
    num_output: 256
    bias_term: false
    pad: 0
    kernel_size: 1
    stride: 1
  }
}
layer {
  name: "bn2a_branch2c"
  type: "BatchNorm"
  bottom: "res2a_branch2c"
  top: "res2a_branch2c"
  batch_norm_param {
    use_global_stats: true
  }
}
layer {
  name: "scale2a_branch2c"
  type: "Scale"
  bottom: "res2a_branch2c"
  top: "res2a_branch2c"
  scale_param {
    bias_term: true
  }
}
layer {
  name: "res2a"
  type: "Eltwise"
  bottom: "res2a_branch1"
  bottom: "res2a_branch2c"
  top: "res2a"
}
layer {
  name: "res2a_relu"
  type: "ReLU"
  bottom: "res2a"
  top: "res2a"
}
layer {
  name: "res2b_branch2a"
  type: "Convolution"
  bottom: "res2a"
  top: "res2b_branch2a"
  convolution_param {
    num_output: 64
    bias_term: false
    pad: 0
    kernel_size: 1
    stride: 1
  }
}
layer {
  name: "bn2b_branch2a"
  type: "BatchNorm"
  bottom: "res2b_branch2a"
  top: "res2b_branch2a"
  batch_norm_param {
    use_global_stats: true
  }
}
layer {
  name: "scale2b_branch2a"
  type: "Scale"
  bottom: "res2b_branch2a"
  top: "res2b_branch2a"
  scale_param {
    bias_term: true
  }
}
layer {
  name: "res2b_branch2a_relu"
  type: "ReLU"
  bottom: "res2b_branch2a"
  top: "res2b_branch2a"
}
layer {
  name: "res2b_branch2b"
  type: "Convolution"
  bottom: "res2b_branch2a"
  top: "res2b_branch2b"
  convolution_param {
    num_output: 64
    bias_term: false
    pad: 1
    kernel_size: 3
    stride: 1
  }
}
layer {
  name: "bn2b_branch2b"
  type: "BatchNorm"
  bottom: "res2b_branch2b"
  top: "res2b_branch2b"
  batch_norm_param {
    use_global_stats: true
  }
}
layer {
  name: "scale2b_branch2b"
  type: "Scale"
  bottom: "res2b_branch2b"
  top: "res2b_branch2b"
  scale_param {
    bias_term: true
  }
}
layer {
  name: "res2b_branch2b_relu"
  type: "ReLU"
  bottom: "res2b_branch2b"
  top: "res2b_branch2b"
}
layer {
  name: "res2b_branch2c"
  type: "Convolution"
  bottom: "res2b_branch2b"
  top: "res2b_branch2c"
  convolution_param {
    num_output: 256
    bias_term: false
    pad: 0
    kernel_size: 1
    stride: 1
  }
}
layer {
  name: "bn2b_branch2c"
  type: "BatchNorm"
  bottom: "res2b_branch2c"
  top: "res2b_branch2c"
  batch_norm_param {
    use_global_stats: true
  }
}
layer {
  name: "scale2b_branch2c"
  type: "Scale"
  bottom: "res2b_branch2c"
  top: "res2b_branch2c"
  scale_param {
    bias_term: true
  }
}
layer {
  name: "res2b"
  type: "Eltwise"
  bottom: "res2a"
  bottom: "res2b_branch2c"
  top: "res2b"
}
layer {
  name: "res2b_relu"
  type: "ReLU"
  bottom: "res2b"
  top: "res2b"
}
layer {
  name: "res2c_branch2a"
  type: "Convolution"
  bottom: "res2b"
  top: "res2c_branch2a"
  convolution_param {
    num_output: 64
    bias_term: false
    pad: 0
    kernel_size: 1
    stride: 1
  }
}
layer {
  name: "bn2c_branch2a"
  type: "BatchNorm"
  bottom: "res2c_branch2a"
  top: "res2c_branch2a"
  batch_norm_param {
    use_global_stats: true
  }
}
layer {
  name: "scale2c_branch2a"
  type: "Scale"
  bottom: "res2c_branch2a"
  top: "res2c_branch2a"
  scale_param {
    bias_term: true
  }
}
layer {
  name: "res2c_branch2a_relu"
  type: "ReLU"
  bottom: "res2c_branch2a"
  top: "res2c_branch2a"
}
layer {
  name: "res2c_branch2b"
  type: "Convolution"
  bottom: "res2c_branch2a"
  top: "res2c_branch2b"
  convolution_param {
    num_output: 64
    bias_term: false
    pad: 1
    kernel_size: 3
    stride: 1
  }
}
layer {
  name: "bn2c_branch2b"
  type: "BatchNorm"
  bottom: "res2c_branch2b"
  top: "res2c_branch2b"
  batch_norm_param {
    use_global_stats: true
  }
}
layer {
  name: "scale2c_branch2b"
  type: "Scale"
  bottom: "res2c_branch2b"
  top: "res2c_branch2b"
  scale_param {
    bias_term: true
  }
}
layer {
  name: "res2c_branch2b_relu"
  type: "ReLU"
  bottom: "res2c_branch2b"
  top: "res2c_branch2b"
}
layer {
  name: "res2c_branch2c"
  type: "Convolution"
  bottom: "res2c_branch2b"
  top: "res2c_branch2c"
  convolution_param {
    num_output: 256
    bias_term: false
    pad: 0
    kernel_size: 1
    stride: 1
  }
}
layer {
  name: "bn2c_branch2c"
  type: "BatchNorm"
  bottom: "res2c_branch2c"
  top: "res2c_branch2c"
  batch_norm_param {
    use_global_stats: true
  }
}
layer {
  name: "scale2c_branch2c"
  type: "Scale"
  bottom: "res2c_branch2c"
  top: "res2c_branch2c"
  scale_param {
    bias_term: true
  }
}
layer {
  name: "res2c"
  type: "Eltwise"
  bottom: "res2b"
  bottom: "res2c_branch2c"
  top: "res2c"
}
layer {
  name: "res2c_relu"
  type: "ReLU"
  bottom: "res2c"
  top: "res2c"
}
layer {
  name: "res3a_branch1"
  type: "Convolution"
  bottom: "res2c"
  top: "res3a_branch1"
  convolution_param {
    num_output: 512
    bias_term: false
    pad: 0
    kernel_size: 1
    stride: 2
  }
}
layer {
  name: "bn3a_branch1"
  type: "BatchNorm"
  bottom: "res3a_branch1"
  top: "res3a_branch1"
  batch_norm_param {
    use_global_stats: true
  }
}
layer {
  name: "scale3a_branch1"
  type: "Scale"
  bottom: "res3a_branch1"
  top: "res3a_branch1"
  scale_param {
    bias_term: true
  }
}
layer {
  name: "res3a_branch2a"
  type: "Convolution"
  bottom: "res2c"
  top: "res3a_branch2a"
  convolution_param {
    num_output: 128
    bias_term: false
    pad: 0
    kernel_size: 1
    stride: 2
  }
}
layer {
  name: "bn3a_branch2a"
  type: "BatchNorm"
  bottom: "res3a_branch2a"
  top: "res3a_branch2a"
  batch_norm_param {
    use_global_stats: true
  }
}
layer {
  name: "scale3a_branch2a"
  type: "Scale"
  bottom: "res3a_branch2a"
  top: "res3a_branch2a"
  scale_param {
    bias_term: true
  }
}
layer {
  name: "res3a_branch2a_relu"
  type: "ReLU"
  bottom: "res3a_branch2a"
  top: "res3a_branch2a"
}
layer {
  name: "res3a_branch2b"
  type: "Convolution"
  bottom: "res3a_branch2a"
  top: "res3a_branch2b"
  convolution_param {
    num_output: 128
    bias_term: false
    pad: 1
    kernel_size: 3
    stride: 1
  }
}
layer {
  name: "bn3a_branch2b"
  type: "BatchNorm"
  bottom: "res3a_branch2b"
  top: "res3a_branch2b"
  batch_norm_param {
    use_global_stats: true
  }
}
layer {
  name: "scale3a_branch2b"
  type: "Scale"
  bottom: "res3a_branch2b"
  top: "res3a_branch2b"
  scale_param {
    bias_term: true
  }
}
layer {
  name: "res3a_branch2b_relu"
  type: "ReLU"
  bottom: "res3a_branch2b"
  top: "res3a_branch2b"
}
layer {
  name: "res3a_branch2c"
  type: "Convolution"
  bottom: "res3a_branch2b"
  top: "res3a_branch2c"
  convolution_param {
    num_output: 512
    bias_term: false
    pad: 0
    kernel_size: 1
    stride: 1
  }
}
layer {
  name: "bn3a_branch2c"
  type: "BatchNorm"
  bottom: "res3a_branch2c"
  top: "res3a_branch2c"
  batch_norm_param {
    use_global_stats: true
  }
}
layer {
  name: "scale3a_branch2c"
  type: "Scale"
  bottom: "res3a_branch2c"
  top: "res3a_branch2c"
  scale_param {
    bias_term: true
  }
}
layer {
  name: "res3a"
  type: "Eltwise"
  bottom: "res3a_branch1"
  bottom: "res3a_branch2c"
  top: "res3a"
}
layer {
  name: "res3a_relu"
  type: "ReLU"
  bottom: "res3a"
  top: "res3a"
}
layer {
  name: "res3b_branch2a"
  type: "Convolution"
  bottom: "res3a"
  top: "res3b_branch2a"
  convolution_param {
    num_output: 128
    bias_term: false
    pad: 0
    kernel_size: 1
    stride: 1
  }
}
layer {
  name: "bn3b_branch2a"
  type: "BatchNorm"
  bottom: "res3b_branch2a"
  top: "res3b_branch2a"
  batch_norm_param {
    use_global_stats: true
  }
}
layer {
  name: "scale3b_branch2a"
  type: "Scale"
  bottom: "res3b_branch2a"
  top: "res3b_branch2a"
  scale_param {
    bias_term: true
  }
}
layer {
  name: "res3b_branch2a_relu"
  type: "ReLU"
  bottom: "res3b_branch2a"
  top: "res3b_branch2a"
}
layer {
  name: "res3b_branch2b"
  type: "Convolution"
  bottom: "res3b_branch2a"
  top: "res3b_branch2b"
  convolution_param {
    num_output: 128
    bias_term: false
    pad: 1
    kernel_size: 3
    stride: 1
  }
}
layer {
  name: "bn3b_branch2b"
  type: "BatchNorm"
  bottom: "res3b_branch2b"
  top: "res3b_branch2b"
  batch_norm_param {
    use_global_stats: true
  }
}
layer {
  name: "scale3b_branch2b"
  type: "Scale"
  bottom: "res3b_branch2b"
  top: "res3b_branch2b"
  scale_param {
    bias_term: true
  }
}
layer {
  name: "res3b_branch2b_relu"
  type: "ReLU"
  bottom: "res3b_branch2b"
  top: "res3b_branch2b"
}
layer {
  name: "res3b_branch2c"
  type: "Convolution"
  bottom: "res3b_branch2b"
  top: "res3b_branch2c"
  convolution_param {
    num_output: 512
    bias_term: false
    pad: 0
    kernel_size: 1
    stride: 1
  }
}
layer {
  name: "bn3b_branch2c"
  type: "BatchNorm"
  bottom: "res3b_branch2c"
  top: "res3b_branch2c"
  batch_norm_param {
    use_global_stats: true
  }
}
layer {
  name: "scale3b_branch2c"
  type: "Scale"
  bottom: "res3b_branch2c"
  top: "res3b_branch2c"
  scale_param {
    bias_term: true
  }
}
layer {
  name: "res3b"
  type: "Eltwise"
  bottom: "res3a"
  bottom: "res3b_branch2c"
  top: "res3b"
}
layer {
  name: "res3b_relu"
  type: "ReLU"
  bottom: "res3b"
  top: "res3b"
}
layer {
  name: "res3c_branch2a"
  type: "Convolution"
  bottom: "res3b"
  top: "res3c_branch2a"
  convolution_param {
    num_output: 128
    bias_term: false
    pad: 0
    kernel_size: 1
    stride: 1
  }
}
layer {
  name: "bn3c_branch2a"
  type: "BatchNorm"
  bottom: "res3c_branch2a"
  top: "res3c_branch2a"
  batch_norm_param {
    use_global_stats: true
  }
}
layer {
  name: "scale3c_branch2a"
  type: "Scale"
  bottom: "res3c_branch2a"
  top: "res3c_branch2a"
  scale_param {
    bias_term: true
  }
}
layer {
  name: "res3c_branch2a_relu"
  type: "ReLU"
  bottom: "res3c_branch2a"
  top: "res3c_branch2a"
}
layer {
  name: "res3c_branch2b"
  type: "Convolution"
  bottom: "res3c_branch2a"
  top: "res3c_branch2b"
  convolution_param {
    num_output: 128
    bias_term: false
    pad: 1
    kernel_size: 3
    stride: 1
  }
}
layer {
  name: "bn3c_branch2b"
  type: "BatchNorm"
  bottom: "res3c_branch2b"
  top: "res3c_branch2b"
  batch_norm_param {
    use_global_stats: true
  }
}
layer {
  name: "scale3c_branch2b"
  type: "Scale"
  bottom: "res3c_branch2b"
  top: "res3c_branch2b"
  scale_param {
    bias_term: true
  }
}
layer {
  name: "res3c_branch2b_relu"
  type: "ReLU"
  bottom: "res3c_branch2b"
  top: "res3c_branch2b"
}
layer {
  name: "res3c_branch2c"
  type: "Convolution"
  bottom: "res3c_branch2b"
  top: "res3c_branch2c"
  convolution_param {
    num_output: 512
    bias_term: false
    pad: 0
    kernel_size: 1
    stride: 1
  }
}
layer {
  name: "bn3c_branch2c"
  type: "BatchNorm"
  bottom: "res3c_branch2c"
  top: "res3c_branch2c"
  batch_norm_param {
    use_global_stats: true
  }
}
layer {
  name: "scale3c_branch2c"
  type: "Scale"
  bottom: "res3c_branch2c"
  top: "res3c_branch2c"
  scale_param {
    bias_term: true
  }
}
layer {
  name: "res3c"
  type: "Eltwise"
  bottom: "res3b"
  bottom: "res3c_branch2c"
  top: "res3c"
}
layer {
  name: "res3c_relu"
  type: "ReLU"
  bottom: "res3c"
  top: "res3c"
}
layer {
  name: "res3d_branch2a"
  type: "Convolution"
  bottom: "res3c"
  top: "res3d_branch2a"
  convolution_param {
    num_output: 128
    bias_term: false
    pad: 0
    kernel_size: 1
    stride: 1
  }
}
layer {
  name: "bn3d_branch2a"
  type: "BatchNorm"
  bottom: "res3d_branch2a"
  top: "res3d_branch2a"
  batch_norm_param {
    use_global_stats: true
  }
}
layer {
  name: "scale3d_branch2a"
  type: "Scale"
  bottom: "res3d_branch2a"
  top: "res3d_branch2a"
  scale_param {
    bias_term: true
  }
}
layer {
  name: "res3d_branch2a_relu"
  type: "ReLU"
  bottom: "res3d_branch2a"
  top: "res3d_branch2a"
}
layer {
  name: "res3d_branch2b"
  type: "Convolution"
  bottom: "res3d_branch2a"
  top: "res3d_branch2b"
  convolution_param {
    num_output: 128
    bias_term: false
    pad: 1
    kernel_size: 3
    stride: 1
  }
}
layer {
  name: "bn3d_branch2b"
  type: "BatchNorm"
  bottom: "res3d_branch2b"
  top: "res3d_branch2b"
  batch_norm_param {
    use_global_stats: true
  }
}
layer {
  name: "scale3d_branch2b"
  type: "Scale"
  bottom: "res3d_branch2b"
  top: "res3d_branch2b"
  scale_param {
    bias_term: true
  }
}
layer {
  name: "res3d_branch2b_relu"
  type: "ReLU"
  bottom: "res3d_branch2b"
  top: "res3d_branch2b"
}
layer {
  name: "res3d_branch2c"
  type: "Convolution"
  bottom: "res3d_branch2b"
  top: "res3d_branch2c"
  convolution_param {
    num_output: 512
    bias_term: false
    pad: 0
    kernel_size: 1
    stride: 1
  }
}
layer {
  name: "bn3d_branch2c"
  type: "BatchNorm"
  bottom: "res3d_branch2c"
  top: "res3d_branch2c"
  batch_norm_param {
    use_global_stats: true
  }
}
layer {
  name: "scale3d_branch2c"
  type: "Scale"
  bottom: "res3d_branch2c"
  top: "res3d_branch2c"
  scale_param {
    bias_term: true
  }
}
layer {
  name: "res3d"
  type: "Eltwise"
  bottom: "res3c"
  bottom: "res3d_branch2c"
  top: "res3d"
}
layer {
  name: "res3d_relu"
  type: "ReLU"
  bottom: "res3d"
  top: "res3d"
}
layer {
  name: "res4a_branch1"
  type: "Convolution"
  bottom: "res3d"
  top: "res4a_branch1"
  convolution_param {
    num_output: 1024
    bias_term: false
    pad: 0
    kernel_size: 1
    stride: 2
  }
}
layer {
  name: "bn4a_branch1"
  type: "BatchNorm"
  bottom: "res4a_branch1"
  top: "res4a_branch1"
  batch_norm_param {
    use_global_stats: true
  }
}
layer {
  name: "scale4a_branch1"
  type: "Scale"
  bottom: "res4a_branch1"
  top: "res4a_branch1"
  scale_param {
    bias_term: true
  }
}
layer {
  name: "res4a_branch2a"
  type: "Convolution"
  bottom: "res3d"
  top: "res4a_branch2a"
  convolution_param {
    num_output: 256
    bias_term: false
    pad: 0
    kernel_size: 1
    stride: 2
  }
}
layer {
  name: "bn4a_branch2a"
  type: "BatchNorm"
  bottom: "res4a_branch2a"
  top: "res4a_branch2a"
  batch_norm_param {
    use_global_stats: true
  }
}
layer {
  name: "scale4a_branch2a"
  type: "Scale"
  bottom: "res4a_branch2a"
  top: "res4a_branch2a"
  scale_param {
    bias_term: true
  }
}
layer {
  name: "res4a_branch2a_relu"
  type: "ReLU"
  bottom: "res4a_branch2a"
  top: "res4a_branch2a"
}
layer {
  name: "res4a_branch2b"
  type: "Convolution"
  bottom: "res4a_branch2a"
  top: "res4a_branch2b"
  convolution_param {
    num_output: 256
    bias_term: false
    pad: 1
    kernel_size: 3
    stride: 1
  }
}
layer {
  name: "bn4a_branch2b"
  type: "BatchNorm"
  bottom: "res4a_branch2b"
  top: "res4a_branch2b"
  batch_norm_param {
    use_global_stats: true
  }
}
layer {
  name: "scale4a_branch2b"
  type: "Scale"
  bottom: "res4a_branch2b"
  top: "res4a_branch2b"
  scale_param {
    bias_term: true
  }
}
layer {
  name: "res4a_branch2b_relu"
  type: "ReLU"
  bottom: "res4a_branch2b"
  top: "res4a_branch2b"
}
layer {
  name: "res4a_branch2c"
  type: "Convolution"
  bottom: "res4a_branch2b"
  top: "res4a_branch2c"
  convolution_param {
    num_output: 1024
    bias_term: false
    pad: 0
    kernel_size: 1
    stride: 1
  }
}
layer {
  name: "bn4a_branch2c"
  type: "BatchNorm"
  bottom: "res4a_branch2c"
  top: "res4a_branch2c"
  batch_norm_param {
    use_global_stats: true
  }
}
layer {
  name: "scale4a_branch2c"
  type: "Scale"
  bottom: "res4a_branch2c"
  top: "res4a_branch2c"
  scale_param {
    bias_term: true
  }
}
layer {
  name: "res4a"
  type: "Eltwise"
  bottom: "res4a_branch1"
  bottom: "res4a_branch2c"
  top: "res4a"
}
layer {
  name: "res4a_relu"
  type: "ReLU"
  bottom: "res4a"
  top: "res4a"
}
layer {
  name: "res4b_branch2a"
  type: "Convolution"
  bottom: "res4a"
  top: "res4b_branch2a"
  convolution_param {
    num_output: 256
    bias_term: false
    pad: 0
    kernel_size: 1
    stride: 1
  }
}
layer {
  name: "bn4b_branch2a"
  type: "BatchNorm"
  bottom: "res4b_branch2a"
  top: "res4b_branch2a"
  batch_norm_param {
    use_global_stats: true
  }
}
layer {
  name: "scale4b_branch2a"
  type: "Scale"
  bottom: "res4b_branch2a"
  top: "res4b_branch2a"
  scale_param {
    bias_term: true
  }
}
layer {
  name: "res4b_branch2a_relu"
  type: "ReLU"
  bottom: "res4b_branch2a"
  top: "res4b_branch2a"
}
layer {
  name: "res4b_branch2b"
  type: "Convolution"
  bottom: "res4b_branch2a"
  top: "res4b_branch2b"
  convolution_param {
    num_output: 256
    bias_term: false
    pad: 1
    kernel_size: 3
    stride: 1
  }
}
layer {
  name: "bn4b_branch2b"
  type: "BatchNorm"
  bottom: "res4b_branch2b"
  top: "res4b_branch2b"
  batch_norm_param {
    use_global_stats: true
  }
}
layer {
  name: "scale4b_branch2b"
  type: "Scale"
  bottom: "res4b_branch2b"
  top: "res4b_branch2b"
  scale_param {
    bias_term: true
  }
}
layer {
  name: "res4b_branch2b_relu"
  type: "ReLU"
  bottom: "res4b_branch2b"
  top: "res4b_branch2b"
}
layer {
  name: "res4b_branch2c"
  type: "Convolution"
  bottom: "res4b_branch2b"
  top: "res4b_branch2c"
  convolution_param {
    num_output: 1024
    bias_term: false
    pad: 0
    kernel_size: 1
    stride: 1
  }
}
layer {
  name: "bn4b_branch2c"
  type: "BatchNorm"
  bottom: "res4b_branch2c"
  top: "res4b_branch2c"
  batch_norm_param {
    use_global_stats: true
  }
}
layer {
  name: "scale4b_branch2c"
  type: "Scale"
  bottom: "res4b_branch2c"
  top: "res4b_branch2c"
  scale_param {
    bias_term: true
  }
}
layer {
  name: "res4b"
  type: "Eltwise"
  bottom: "res4a"
  bottom: "res4b_branch2c"
  top: "res4b"
}
layer {
  name: "res4b_relu"
  type: "ReLU"
  bottom: "res4b"
  top: "res4b"
}
layer {
  name: "res4c_branch2a"
  type: "Convolution"
  bottom: "res4b"
  top: "res4c_branch2a"
  convolution_param {
    num_output: 256
    bias_term: false
    pad: 0
    kernel_size: 1
    stride: 1
  }
}
layer {
  name: "bn4c_branch2a"
  type: "BatchNorm"
  bottom: "res4c_branch2a"
  top: "res4c_branch2a"
  batch_norm_param {
    use_global_stats: true
  }
}
layer {
  name: "scale4c_branch2a"
  type: "Scale"
  bottom: "res4c_branch2a"
  top: "res4c_branch2a"
  scale_param {
    bias_term: true
  }
}
layer {
  name: "res4c_branch2a_relu"
  type: "ReLU"
  bottom: "res4c_branch2a"
  top: "res4c_branch2a"
}
layer {
  name: "res4c_branch2b"
  type: "Convolution"
  bottom: "res4c_branch2a"
  top: "res4c_branch2b"
  convolution_param {
    num_output: 256
    bias_term: false
    pad: 1
    kernel_size: 3
    stride: 1
  }
}
layer {
  name: "bn4c_branch2b"
  type: "BatchNorm"
  bottom: "res4c_branch2b"
  top: "res4c_branch2b"
  batch_norm_param {
    use_global_stats: true
  }
}
layer {
  name: "scale4c_branch2b"
  type: "Scale"
  bottom: "res4c_branch2b"
  top: "res4c_branch2b"
  scale_param {
    bias_term: true
  }
}
layer {
  name: "res4c_branch2b_relu"
  type: "ReLU"
  bottom: "res4c_branch2b"
  top: "res4c_branch2b"
}
layer {
  name: "res4c_branch2c"
  type: "Convolution"
  bottom: "res4c_branch2b"
  top: "res4c_branch2c"
  convolution_param {
    num_output: 1024
    bias_term: false
    pad: 0
    kernel_size: 1
    stride: 1
  }
}
layer {
  name: "bn4c_branch2c"
  type: "BatchNorm"
  bottom: "res4c_branch2c"
  top: "res4c_branch2c"
  batch_norm_param {
    use_global_stats: true
  }
}
layer {
  name: "scale4c_branch2c"
  type: "Scale"
  bottom: "res4c_branch2c"
  top: "res4c_branch2c"
  scale_param {
    bias_term: true
  }
}
layer {
  name: "res4c"
  type: "Eltwise"
  bottom: "res4b"
  bottom: "res4c_branch2c"
  top: "res4c"
}
layer {
  name: "res4c_relu"
  type: "ReLU"
  bottom: "res4c"
  top: "res4c"
}
layer {
  name: "res4d_branch2a"
  type: "Convolution"
  bottom: "res4c"
  top: "res4d_branch2a"
  convolution_param {
    num_output: 256
    bias_term: false
    pad: 0
    kernel_size: 1
    stride: 1
  }
}
layer {
  name: "bn4d_branch2a"
  type: "BatchNorm"
  bottom: "res4d_branch2a"
  top: "res4d_branch2a"
  batch_norm_param {
    use_global_stats: true
  }
}
layer {
  name: "scale4d_branch2a"
  type: "Scale"
  bottom: "res4d_branch2a"
  top: "res4d_branch2a"
  scale_param {
    bias_term: true
  }
}
layer {
  name: "res4d_branch2a_relu"
  type: "ReLU"
  bottom: "res4d_branch2a"
  top: "res4d_branch2a"
}
layer {
  name: "res4d_branch2b"
  type: "Convolution"
  bottom: "res4d_branch2a"
  top: "res4d_branch2b"
  convolution_param {
    num_output: 256
    bias_term: false
    pad: 1
    kernel_size: 3
    stride: 1
  }
}
layer {
  name: "bn4d_branch2b"
  type: "BatchNorm"
  bottom: "res4d_branch2b"
  top: "res4d_branch2b"
  batch_norm_param {
    use_global_stats: true
  }
}
layer {
  name: "scale4d_branch2b"
  type: "Scale"
  bottom: "res4d_branch2b"
  top: "res4d_branch2b"
  scale_param {
    bias_term: true
  }
}
layer {
  name: "res4d_branch2b_relu"
  type: "ReLU"
  bottom: "res4d_branch2b"
  top: "res4d_branch2b"
}
layer {
  name: "res4d_branch2c"
  type: "Convolution"
  bottom: "res4d_branch2b"
  top: "res4d_branch2c"
  convolution_param {
    num_output: 1024
    bias_term: false
    pad: 0
    kernel_size: 1
    stride: 1
  }
}
layer {
  name: "bn4d_branch2c"
  type: "BatchNorm"
  bottom: "res4d_branch2c"
  top: "res4d_branch2c"
  batch_norm_param {
    use_global_stats: true
  }
}
layer {
  name: "scale4d_branch2c"
  type: "Scale"
  bottom: "res4d_branch2c"
  top: "res4d_branch2c"
  scale_param {
    bias_term: true
  }
}
layer {
  name: "res4d"
  type: "Eltwise"
  bottom: "res4c"
  bottom: "res4d_branch2c"
  top: "res4d"
}
layer {
  name: "res4d_relu"
  type: "ReLU"
  bottom: "res4d"
  top: "res4d"
}
layer {
  name: "res4e_branch2a"
  type: "Convolution"
  bottom: "res4d"
  top: "res4e_branch2a"
  convolution_param {
    num_output: 256
    bias_term: false
    pad: 0
    kernel_size: 1
    stride: 1
  }
}
layer {
  name: "bn4e_branch2a"
  type: "BatchNorm"
  bottom: "res4e_branch2a"
  top: "res4e_branch2a"
  batch_norm_param {
    use_global_stats: true
  }
}
layer {
  name: "scale4e_branch2a"
  type: "Scale"
  bottom: "res4e_branch2a"
  top: "res4e_branch2a"
  scale_param {
    bias_term: true
  }
}
layer {
  name: "res4e_branch2a_relu"
  type: "ReLU"
  bottom: "res4e_branch2a"
  top: "res4e_branch2a"
}
layer {
  name: "res4e_branch2b"
  type: "Convolution"
  bottom: "res4e_branch2a"
  top: "res4e_branch2b"
  convolution_param {
    num_output: 256
    bias_term: false
    pad: 1
    kernel_size: 3
    stride: 1
  }
}
layer {
  name: "bn4e_branch2b"
  type: "BatchNorm"
  bottom: "res4e_branch2b"
  top: "res4e_branch2b"
  batch_norm_param {
    use_global_stats: true
  }
}
layer {
  name: "scale4e_branch2b"
  type: "Scale"
  bottom: "res4e_branch2b"
  top: "res4e_branch2b"
  scale_param {
    bias_term: true
  }
}
layer {
  name: "res4e_branch2b_relu"
  type: "ReLU"
  bottom: "res4e_branch2b"
  top: "res4e_branch2b"
}
layer {
  name: "res4e_branch2c"
  type: "Convolution"
  bottom: "res4e_branch2b"
  top: "res4e_branch2c"
  convolution_param {
    num_output: 1024
    bias_term: false
    pad: 0
    kernel_size: 1
    stride: 1
  }
}
layer {
  name: "bn4e_branch2c"
  type: "BatchNorm"
  bottom: "res4e_branch2c"
  top: "res4e_branch2c"
  batch_norm_param {
    use_global_stats: true
  }
}
layer {
  name: "scale4e_branch2c"
  type: "Scale"
  bottom: "res4e_branch2c"
  top: "res4e_branch2c"
  scale_param {
    bias_term: true
  }
}
layer {
  name: "res4e"
  type: "Eltwise"
  bottom: "res4d"
  bottom: "res4e_branch2c"
  top: "res4e"
}
layer {
  name: "res4e_relu"
  type: "ReLU"
  bottom: "res4e"
  top: "res4e"
}
layer {
  name: "res4f_branch2a"
  type: "Convolution"
  bottom: "res4e"
  top: "res4f_branch2a"
  convolution_param {
    num_output: 256
    bias_term: false
    pad: 0
    kernel_size: 1
    stride: 1
  }
}
layer {
  name: "bn4f_branch2a"
  type: "BatchNorm"
  bottom: "res4f_branch2a"
  top: "res4f_branch2a"
  batch_norm_param {
    use_global_stats: true
  }
}
layer {
  name: "scale4f_branch2a"
  type: "Scale"
  bottom: "res4f_branch2a"
  top: "res4f_branch2a"
  scale_param {
    bias_term: true
  }
}
layer {
  name: "res4f_branch2a_relu"
  type: "ReLU"
  bottom: "res4f_branch2a"
  top: "res4f_branch2a"
}
layer {
  name: "res4f_branch2b"
  type: "Convolution"
  bottom: "res4f_branch2a"
  top: "res4f_branch2b"
  convolution_param {
    num_output: 256
    bias_term: false
    pad: 1
    kernel_size: 3
    stride: 1
  }
}
layer {
  name: "bn4f_branch2b"
  type: "BatchNorm"
  bottom: "res4f_branch2b"
  top: "res4f_branch2b"
  batch_norm_param {
    use_global_stats: true
  }
}
layer {
  name: "scale4f_branch2b"
  type: "Scale"
  bottom: "res4f_branch2b"
  top: "res4f_branch2b"
  scale_param {
    bias_term: true
  }
}
layer {
  name: "res4f_branch2b_relu"
  type: "ReLU"
  bottom: "res4f_branch2b"
  top: "res4f_branch2b"
}
layer {
  name: "res4f_branch2c"
  type: "Convolution"
  bottom: "res4f_branch2b"
  top: "res4f_branch2c"
  convolution_param {
    num_output: 1024
    bias_term: false
    pad: 0
    kernel_size: 1
    stride: 1
  }
}
layer {
  name: "bn4f_branch2c"
  type: "BatchNorm"
  bottom: "res4f_branch2c"
  top: "res4f_branch2c"
  batch_norm_param {
    use_global_stats: true
  }
}
layer {
  name: "scale4f_branch2c"
  type: "Scale"
  bottom: "res4f_branch2c"
  top: "res4f_branch2c"
  scale_param {
    bias_term: true
  }
}
layer {
  name: "res4f"
  type: "Eltwise"
  bottom: "res4e"
  bottom: "res4f_branch2c"
  top: "res4f"
}
layer {
  name: "res4f_relu"
  type: "ReLU"
  bottom: "res4f"
  top: "res4f"
}
layer {
  name: "res5a_branch1"
  type: "Convolution"
  bottom: "res4f"
  top: "res5a_branch1"
  convolution_param {
    num_output: 2048
    bias_term: false
    pad: 0
    kernel_size: 1
    stride: 2
  }
}
layer {
  name: "bn5a_branch1"
  type: "BatchNorm"
  bottom: "res5a_branch1"
  top: "res5a_branch1"
  batch_norm_param {
    use_global_stats: true
  }
}
layer {
  name: "scale5a_branch1"
  type: "Scale"
  bottom: "res5a_branch1"
  top: "res5a_branch1"
  scale_param {
    bias_term: true
  }
}
layer {
  name: "res5a_branch2a"
  type: "Convolution"
  bottom: "res4f"
  top: "res5a_branch2a"
  convolution_param {
    num_output: 512
    bias_term: false
    pad: 0
    kernel_size: 1
    stride: 2
  }
}
layer {
  name: "bn5a_branch2a"
  type: "BatchNorm"
  bottom: "res5a_branch2a"
  top: "res5a_branch2a"
  batch_norm_param {
    use_global_stats: true
  }
}
layer {
  name: "scale5a_branch2a"
  type: "Scale"
  bottom: "res5a_branch2a"
  top: "res5a_branch2a"
  scale_param {
    bias_term: true
  }
}
layer {
  name: "res5a_branch2a_relu"
  type: "ReLU"
  bottom: "res5a_branch2a"
  top: "res5a_branch2a"
}
layer {
  name: "res5a_branch2b"
  type: "Convolution"
  bottom: "res5a_branch2a"
  top: "res5a_branch2b"
  convolution_param {
    num_output: 512
    bias_term: false
    pad: 1
    kernel_size: 3
    stride: 1
  }
}
layer {
  name: "bn5a_branch2b"
  type: "BatchNorm"
  bottom: "res5a_branch2b"
  top: "res5a_branch2b"
  batch_norm_param {
    use_global_stats: true
  }
}
layer {
  name: "scale5a_branch2b"
  type: "Scale"
  bottom: "res5a_branch2b"
  top: "res5a_branch2b"
  scale_param {
    bias_term: true
  }
}
layer {
  name: "res5a_branch2b_relu"
  type: "ReLU"
  bottom: "res5a_branch2b"
  top: "res5a_branch2b"
}
layer {
  name: "res5a_branch2c"
  type: "Convolution"
  bottom: "res5a_branch2b"
  top: "res5a_branch2c"
  convolution_param {
    num_output: 2048
    bias_term: false
    pa
I0304 20:19:06.202986 23214 layer_factory.hpp:77] Creating layer data
I0304 20:19:06.203011 23214 net.cpp:100] Creating Layer data
I0304 20:19:06.203016 23214 net.cpp:408] data -> data
I0304 20:19:06.203032 23214 net.cpp:408] data -> label
I0304 20:19:06.203325 23214 image_data_layer.cpp:40] Opening file evaluation/data/CUHK03/train_cuhk03_detected.txt
I0304 20:19:06.204486 23214 image_data_layer.cpp:55] Shuffling data
I0304 20:19:06.205212 23214 image_data_layer.cpp:60] A total of 7009 images.
I0304 20:19:06.215438 23214 image_data_layer.cpp:87] output data size: 16,3,224,224
I0304 20:19:06.225731 23214 net.cpp:150] Setting up data
I0304 20:19:06.225761 23214 net.cpp:157] Top shape: 16 3 224 224 (2408448)
I0304 20:19:06.225765 23214 net.cpp:157] Top shape: 16 (16)
I0304 20:19:06.225767 23214 net.cpp:165] Memory required for data: 9633856
I0304 20:19:06.225774 23214 layer_factory.hpp:77] Creating layer conv1
I0304 20:19:06.225798 23214 net.cpp:100] Creating Layer conv1
I0304 20:19:06.225802 23214 net.cpp:434] conv1 <- data
I0304 20:19:06.225811 23214 net.cpp:408] conv1 -> conv1
I0304 20:19:06.345911 23214 net.cpp:150] Setting up conv1
I0304 20:19:06.345933 23214 net.cpp:157] Top shape: 16 64 112 112 (12845056)
I0304 20:19:06.345937 23214 net.cpp:165] Memory required for data: 61014080
I0304 20:19:06.345949 23214 layer_factory.hpp:77] Creating layer bn_conv1
I0304 20:19:06.345968 23214 net.cpp:100] Creating Layer bn_conv1
I0304 20:19:06.345973 23214 net.cpp:434] bn_conv1 <- conv1
I0304 20:19:06.345976 23214 net.cpp:395] bn_conv1 -> conv1 (in-place)
I0304 20:19:06.346103 23214 net.cpp:150] Setting up bn_conv1
I0304 20:19:06.346107 23214 net.cpp:157] Top shape: 16 64 112 112 (12845056)
I0304 20:19:06.346109 23214 net.cpp:165] Memory required for data: 112394304
I0304 20:19:06.346117 23214 layer_factory.hpp:77] Creating layer scale_conv1
I0304 20:19:06.346122 23214 net.cpp:100] Creating Layer scale_conv1
I0304 20:19:06.346123 23214 net.cpp:434] scale_conv1 <- conv1
I0304 20:19:06.346127 23214 net.cpp:395] scale_conv1 -> conv1 (in-place)
I0304 20:19:06.346163 23214 layer_factory.hpp:77] Creating layer scale_conv1
I0304 20:19:06.346266 23214 net.cpp:150] Setting up scale_conv1
I0304 20:19:06.346271 23214 net.cpp:157] Top shape: 16 64 112 112 (12845056)
I0304 20:19:06.346272 23214 net.cpp:165] Memory required for data: 163774528
I0304 20:19:06.346276 23214 layer_factory.hpp:77] Creating layer conv1_relu
I0304 20:19:06.346281 23214 net.cpp:100] Creating Layer conv1_relu
I0304 20:19:06.346282 23214 net.cpp:434] conv1_relu <- conv1
I0304 20:19:06.346285 23214 net.cpp:395] conv1_relu -> conv1 (in-place)
I0304 20:19:06.346496 23214 net.cpp:150] Setting up conv1_relu
I0304 20:19:06.346504 23214 net.cpp:157] Top shape: 16 64 112 112 (12845056)
I0304 20:19:06.346506 23214 net.cpp:165] Memory required for data: 215154752
I0304 20:19:06.346509 23214 layer_factory.hpp:77] Creating layer pool1
I0304 20:19:06.346515 23214 net.cpp:100] Creating Layer pool1
I0304 20:19:06.346518 23214 net.cpp:434] pool1 <- conv1
I0304 20:19:06.346520 23214 net.cpp:408] pool1 -> pool1
I0304 20:19:06.346571 23214 net.cpp:150] Setting up pool1
I0304 20:19:06.346575 23214 net.cpp:157] Top shape: 16 64 56 56 (3211264)
I0304 20:19:06.346577 23214 net.cpp:165] Memory required for data: 227999808
I0304 20:19:06.346580 23214 layer_factory.hpp:77] Creating layer pool1_pool1_0_split
I0304 20:19:06.346593 23214 net.cpp:100] Creating Layer pool1_pool1_0_split
I0304 20:19:06.346596 23214 net.cpp:434] pool1_pool1_0_split <- pool1
I0304 20:19:06.346607 23214 net.cpp:408] pool1_pool1_0_split -> pool1_pool1_0_split_0
I0304 20:19:06.346611 23214 net.cpp:408] pool1_pool1_0_split -> pool1_pool1_0_split_1
I0304 20:19:06.346640 23214 net.cpp:150] Setting up pool1_pool1_0_split
I0304 20:19:06.346644 23214 net.cpp:157] Top shape: 16 64 56 56 (3211264)
I0304 20:19:06.346647 23214 net.cpp:157] Top shape: 16 64 56 56 (3211264)
I0304 20:19:06.346648 23214 net.cpp:165] Memory required for data: 253689920
I0304 20:19:06.346650 23214 layer_factory.hpp:77] Creating layer res2a_branch1
I0304 20:19:06.346655 23214 net.cpp:100] Creating Layer res2a_branch1
I0304 20:19:06.346657 23214 net.cpp:434] res2a_branch1 <- pool1_pool1_0_split_0
I0304 20:19:06.346660 23214 net.cpp:408] res2a_branch1 -> res2a_branch1
I0304 20:19:06.347239 23214 net.cpp:150] Setting up res2a_branch1
I0304 20:19:06.347249 23214 net.cpp:157] Top shape: 16 256 56 56 (12845056)
I0304 20:19:06.347250 23214 net.cpp:165] Memory required for data: 305070144
I0304 20:19:06.347254 23214 layer_factory.hpp:77] Creating layer bn2a_branch1
I0304 20:19:06.347259 23214 net.cpp:100] Creating Layer bn2a_branch1
I0304 20:19:06.347260 23214 net.cpp:434] bn2a_branch1 <- res2a_branch1
I0304 20:19:06.347264 23214 net.cpp:395] bn2a_branch1 -> res2a_branch1 (in-place)
I0304 20:19:06.347631 23214 net.cpp:150] Setting up bn2a_branch1
I0304 20:19:06.347640 23214 net.cpp:157] Top shape: 16 256 56 56 (12845056)
I0304 20:19:06.347641 23214 net.cpp:165] Memory required for data: 356450368
I0304 20:19:06.347648 23214 layer_factory.hpp:77] Creating layer scale2a_branch1
I0304 20:19:06.347653 23214 net.cpp:100] Creating Layer scale2a_branch1
I0304 20:19:06.347656 23214 net.cpp:434] scale2a_branch1 <- res2a_branch1
I0304 20:19:06.347658 23214 net.cpp:395] scale2a_branch1 -> res2a_branch1 (in-place)
I0304 20:19:06.347692 23214 layer_factory.hpp:77] Creating layer scale2a_branch1
I0304 20:19:06.347784 23214 net.cpp:150] Setting up scale2a_branch1
I0304 20:19:06.347787 23214 net.cpp:157] Top shape: 16 256 56 56 (12845056)
I0304 20:19:06.347790 23214 net.cpp:165] Memory required for data: 407830592
I0304 20:19:06.347792 23214 layer_factory.hpp:77] Creating layer res2a_branch2a
I0304 20:19:06.347798 23214 net.cpp:100] Creating Layer res2a_branch2a
I0304 20:19:06.347800 23214 net.cpp:434] res2a_branch2a <- pool1_pool1_0_split_1
I0304 20:19:06.347805 23214 net.cpp:408] res2a_branch2a -> res2a_branch2a
I0304 20:19:06.348335 23214 net.cpp:150] Setting up res2a_branch2a
I0304 20:19:06.348345 23214 net.cpp:157] Top shape: 16 64 56 56 (3211264)
I0304 20:19:06.348347 23214 net.cpp:165] Memory required for data: 420675648
I0304 20:19:06.348351 23214 layer_factory.hpp:77] Creating layer bn2a_branch2a
I0304 20:19:06.348354 23214 net.cpp:100] Creating Layer bn2a_branch2a
I0304 20:19:06.348356 23214 net.cpp:434] bn2a_branch2a <- res2a_branch2a
I0304 20:19:06.348359 23214 net.cpp:395] bn2a_branch2a -> res2a_branch2a (in-place)
I0304 20:19:06.348466 23214 net.cpp:150] Setting up bn2a_branch2a
I0304 20:19:06.348470 23214 net.cpp:157] Top shape: 16 64 56 56 (3211264)
I0304 20:19:06.348472 23214 net.cpp:165] Memory required for data: 433520704
I0304 20:19:06.348479 23214 layer_factory.hpp:77] Creating layer scale2a_branch2a
I0304 20:19:06.348482 23214 net.cpp:100] Creating Layer scale2a_branch2a
I0304 20:19:06.348484 23214 net.cpp:434] scale2a_branch2a <- res2a_branch2a
I0304 20:19:06.348487 23214 net.cpp:395] scale2a_branch2a -> res2a_branch2a (in-place)
I0304 20:19:06.348510 23214 layer_factory.hpp:77] Creating layer scale2a_branch2a
I0304 20:19:06.348574 23214 net.cpp:150] Setting up scale2a_branch2a
I0304 20:19:06.348579 23214 net.cpp:157] Top shape: 16 64 56 56 (3211264)
I0304 20:19:06.348580 23214 net.cpp:165] Memory required for data: 446365760
I0304 20:19:06.348584 23214 layer_factory.hpp:77] Creating layer res2a_branch2a_relu
I0304 20:19:06.348587 23214 net.cpp:100] Creating Layer res2a_branch2a_relu
I0304 20:19:06.348589 23214 net.cpp:434] res2a_branch2a_relu <- res2a_branch2a
I0304 20:19:06.348592 23214 net.cpp:395] res2a_branch2a_relu -> res2a_branch2a (in-place)
I0304 20:19:06.348781 23214 net.cpp:150] Setting up res2a_branch2a_relu
I0304 20:19:06.348789 23214 net.cpp:157] Top shape: 16 64 56 56 (3211264)
I0304 20:19:06.348791 23214 net.cpp:165] Memory required for data: 459210816
I0304 20:19:06.348793 23214 layer_factory.hpp:77] Creating layer res2a_branch2b
I0304 20:19:06.348798 23214 net.cpp:100] Creating Layer res2a_branch2b
I0304 20:19:06.348800 23214 net.cpp:434] res2a_branch2b <- res2a_branch2a
I0304 20:19:06.348804 23214 net.cpp:408] res2a_branch2b -> res2a_branch2b
I0304 20:19:06.349714 23214 net.cpp:150] Setting up res2a_branch2b
I0304 20:19:06.349722 23214 net.cpp:157] Top shape: 16 64 56 56 (3211264)
I0304 20:19:06.349725 23214 net.cpp:165] Memory required for data: 472055872
I0304 20:19:06.349727 23214 layer_factory.hpp:77] Creating layer bn2a_branch2b
I0304 20:19:06.349732 23214 net.cpp:100] Creating Layer bn2a_branch2b
I0304 20:19:06.349735 23214 net.cpp:434] bn2a_branch2b <- res2a_branch2b
I0304 20:19:06.349738 23214 net.cpp:395] bn2a_branch2b -> res2a_branch2b (in-place)
I0304 20:19:06.349853 23214 net.cpp:150] Setting up bn2a_branch2b
I0304 20:19:06.349858 23214 net.cpp:157] Top shape: 16 64 56 56 (3211264)
I0304 20:19:06.349859 23214 net.cpp:165] Memory required for data: 484900928
I0304 20:19:06.349864 23214 layer_factory.hpp:77] Creating layer scale2a_branch2b
I0304 20:19:06.349869 23214 net.cpp:100] Creating Layer scale2a_branch2b
I0304 20:19:06.349871 23214 net.cpp:434] scale2a_branch2b <- res2a_branch2b
I0304 20:19:06.349874 23214 net.cpp:395] scale2a_branch2b -> res2a_branch2b (in-place)
I0304 20:19:06.349896 23214 layer_factory.hpp:77] Creating layer scale2a_branch2b
I0304 20:19:06.349964 23214 net.cpp:150] Setting up scale2a_branch2b
I0304 20:19:06.349968 23214 net.cpp:157] Top shape: 16 64 56 56 (3211264)
I0304 20:19:06.349970 23214 net.cpp:165] Memory required for data: 497745984
I0304 20:19:06.349974 23214 layer_factory.hpp:77] Creating layer res2a_branch2b_relu
I0304 20:19:06.349977 23214 net.cpp:100] Creating Layer res2a_branch2b_relu
I0304 20:19:06.349979 23214 net.cpp:434] res2a_branch2b_relu <- res2a_branch2b
I0304 20:19:06.349982 23214 net.cpp:395] res2a_branch2b_relu -> res2a_branch2b (in-place)
I0304 20:19:06.350087 23214 net.cpp:150] Setting up res2a_branch2b_relu
I0304 20:19:06.350093 23214 net.cpp:157] Top shape: 16 64 56 56 (3211264)
I0304 20:19:06.350095 23214 net.cpp:165] Memory required for data: 510591040
I0304 20:19:06.350096 23214 layer_factory.hpp:77] Creating layer res2a_branch2c
I0304 20:19:06.350101 23214 net.cpp:100] Creating Layer res2a_branch2c
I0304 20:19:06.350103 23214 net.cpp:434] res2a_branch2c <- res2a_branch2b
I0304 20:19:06.350107 23214 net.cpp:408] res2a_branch2c -> res2a_branch2c
I0304 20:19:06.350704 23214 net.cpp:150] Setting up res2a_branch2c
I0304 20:19:06.350713 23214 net.cpp:157] Top shape: 16 256 56 56 (12845056)
I0304 20:19:06.350715 23214 net.cpp:165] Memory required for data: 561971264
I0304 20:19:06.350718 23214 layer_factory.hpp:77] Creating layer bn2a_branch2c
I0304 20:19:06.350723 23214 net.cpp:100] Creating Layer bn2a_branch2c
I0304 20:19:06.350725 23214 net.cpp:434] bn2a_branch2c <- res2a_branch2c
I0304 20:19:06.350729 23214 net.cpp:395] bn2a_branch2c -> res2a_branch2c (in-place)
I0304 20:19:06.350839 23214 net.cpp:150] Setting up bn2a_branch2c
I0304 20:19:06.350843 23214 net.cpp:157] Top shape: 16 256 56 56 (12845056)
I0304 20:19:06.350845 23214 net.cpp:165] Memory required for data: 613351488
I0304 20:19:06.350850 23214 layer_factory.hpp:77] Creating layer scale2a_branch2c
I0304 20:19:06.350854 23214 net.cpp:100] Creating Layer scale2a_branch2c
I0304 20:19:06.350857 23214 net.cpp:434] scale2a_branch2c <- res2a_branch2c
I0304 20:19:06.350858 23214 net.cpp:395] scale2a_branch2c -> res2a_branch2c (in-place)
I0304 20:19:06.350883 23214 layer_factory.hpp:77] Creating layer scale2a_branch2c
I0304 20:19:06.350947 23214 net.cpp:150] Setting up scale2a_branch2c
I0304 20:19:06.350951 23214 net.cpp:157] Top shape: 16 256 56 56 (12845056)
I0304 20:19:06.350953 23214 net.cpp:165] Memory required for data: 664731712
I0304 20:19:06.350957 23214 layer_factory.hpp:77] Creating layer res2a
I0304 20:19:06.350961 23214 net.cpp:100] Creating Layer res2a
I0304 20:19:06.350963 23214 net.cpp:434] res2a <- res2a_branch1
I0304 20:19:06.350966 23214 net.cpp:434] res2a <- res2a_branch2c
I0304 20:19:06.350970 23214 net.cpp:408] res2a -> res2a
I0304 20:19:06.350986 23214 net.cpp:150] Setting up res2a
I0304 20:19:06.350991 23214 net.cpp:157] Top shape: 16 256 56 56 (12845056)
I0304 20:19:06.350992 23214 net.cpp:165] Memory required for data: 716111936
I0304 20:19:06.350994 23214 layer_factory.hpp:77] Creating layer res2a_relu
I0304 20:19:06.350997 23214 net.cpp:100] Creating Layer res2a_relu
I0304 20:19:06.350999 23214 net.cpp:434] res2a_relu <- res2a
I0304 20:19:06.351001 23214 net.cpp:395] res2a_relu -> res2a (in-place)
I0304 20:19:06.351191 23214 net.cpp:150] Setting up res2a_relu
I0304 20:19:06.351199 23214 net.cpp:157] Top shape: 16 256 56 56 (12845056)
I0304 20:19:06.351202 23214 net.cpp:165] Memory required for data: 767492160
I0304 20:19:06.351204 23214 layer_factory.hpp:77] Creating layer res2a_res2a_relu_0_split
I0304 20:19:06.351208 23214 net.cpp:100] Creating Layer res2a_res2a_relu_0_split
I0304 20:19:06.351210 23214 net.cpp:434] res2a_res2a_relu_0_split <- res2a
I0304 20:19:06.351214 23214 net.cpp:408] res2a_res2a_relu_0_split -> res2a_res2a_relu_0_split_0
I0304 20:19:06.351218 23214 net.cpp:408] res2a_res2a_relu_0_split -> res2a_res2a_relu_0_split_1
I0304 20:19:06.351243 23214 net.cpp:150] Setting up res2a_res2a_relu_0_split
I0304 20:19:06.351246 23214 net.cpp:157] Top shape: 16 256 56 56 (12845056)
I0304 20:19:06.351249 23214 net.cpp:157] Top shape: 16 256 56 56 (12845056)
I0304 20:19:06.351250 23214 net.cpp:165] Memory required for data: 870252608
I0304 20:19:06.351253 23214 layer_factory.hpp:77] Creating layer res2b_branch2a
I0304 20:19:06.351258 23214 net.cpp:100] Creating Layer res2b_branch2a
I0304 20:19:06.351259 23214 net.cpp:434] res2b_branch2a <- res2a_res2a_relu_0_split_0
I0304 20:19:06.351263 23214 net.cpp:408] res2b_branch2a -> res2b_branch2a
I0304 20:19:06.351804 23214 net.cpp:150] Setting up res2b_branch2a
I0304 20:19:06.351814 23214 net.cpp:157] Top shape: 16 64 56 56 (3211264)
I0304 20:19:06.351815 23214 net.cpp:165] Memory required for data: 883097664
I0304 20:19:06.351819 23214 layer_factory.hpp:77] Creating layer bn2b_branch2a
I0304 20:19:06.351822 23214 net.cpp:100] Creating Layer bn2b_branch2a
I0304 20:19:06.351824 23214 net.cpp:434] bn2b_branch2a <- res2b_branch2a
I0304 20:19:06.351827 23214 net.cpp:395] bn2b_branch2a -> res2b_branch2a (in-place)
I0304 20:19:06.351943 23214 net.cpp:150] Setting up bn2b_branch2a
I0304 20:19:06.351946 23214 net.cpp:157] Top shape: 16 64 56 56 (3211264)
I0304 20:19:06.351948 23214 net.cpp:165] Memory required for data: 895942720
I0304 20:19:06.351955 23214 layer_factory.hpp:77] Creating layer scale2b_branch2a
I0304 20:19:06.351959 23214 net.cpp:100] Creating Layer scale2b_branch2a
I0304 20:19:06.351961 23214 net.cpp:434] scale2b_branch2a <- res2b_branch2a
I0304 20:19:06.351965 23214 net.cpp:395] scale2b_branch2a -> res2b_branch2a (in-place)
I0304 20:19:06.351987 23214 layer_factory.hpp:77] Creating layer scale2b_branch2a
I0304 20:19:06.352056 23214 net.cpp:150] Setting up scale2b_branch2a
I0304 20:19:06.352061 23214 net.cpp:157] Top shape: 16 64 56 56 (3211264)
I0304 20:19:06.352062 23214 net.cpp:165] Memory required for data: 908787776
I0304 20:19:06.352069 23214 layer_factory.hpp:77] Creating layer res2b_branch2a_relu
I0304 20:19:06.352072 23214 net.cpp:100] Creating Layer res2b_branch2a_relu
I0304 20:19:06.352074 23214 net.cpp:434] res2b_branch2a_relu <- res2b_branch2a
I0304 20:19:06.352077 23214 net.cpp:395] res2b_branch2a_relu -> res2b_branch2a (in-place)
I0304 20:19:06.352339 23214 net.cpp:150] Setting up res2b_branch2a_relu
I0304 20:19:06.352347 23214 net.cpp:157] Top shape: 16 64 56 56 (3211264)
I0304 20:19:06.352349 23214 net.cpp:165] Memory required for data: 921632832
I0304 20:19:06.352352 23214 layer_factory.hpp:77] Creating layer res2b_branch2b
I0304 20:19:06.352357 23214 net.cpp:100] Creating Layer res2b_branch2b
I0304 20:19:06.352360 23214 net.cpp:434] res2b_branch2b <- res2b_branch2a
I0304 20:19:06.352363 23214 net.cpp:408] res2b_branch2b -> res2b_branch2b
I0304 20:19:06.353049 23214 net.cpp:150] Setting up res2b_branch2b
I0304 20:19:06.353057 23214 net.cpp:157] Top shape: 16 64 56 56 (3211264)
I0304 20:19:06.353060 23214 net.cpp:165] Memory required for data: 934477888
I0304 20:19:06.353063 23214 layer_factory.hpp:77] Creating layer bn2b_branch2b
I0304 20:19:06.353067 23214 net.cpp:100] Creating Layer bn2b_branch2b
I0304 20:19:06.353070 23214 net.cpp:434] bn2b_branch2b <- res2b_branch2b
I0304 20:19:06.353073 23214 net.cpp:395] bn2b_branch2b -> res2b_branch2b (in-place)
I0304 20:19:06.353194 23214 net.cpp:150] Setting up bn2b_branch2b
I0304 20:19:06.353199 23214 net.cpp:157] Top shape: 16 64 56 56 (3211264)
I0304 20:19:06.353200 23214 net.cpp:165] Memory required for data: 947322944
I0304 20:19:06.353205 23214 layer_factory.hpp:77] Creating layer scale2b_branch2b
I0304 20:19:06.353209 23214 net.cpp:100] Creating Layer scale2b_branch2b
I0304 20:19:06.353211 23214 net.cpp:434] scale2b_branch2b <- res2b_branch2b
I0304 20:19:06.353214 23214 net.cpp:395] scale2b_branch2b -> res2b_branch2b (in-place)
I0304 20:19:06.353237 23214 layer_factory.hpp:77] Creating layer scale2b_branch2b
I0304 20:19:06.353309 23214 net.cpp:150] Setting up scale2b_branch2b
I0304 20:19:06.353314 23214 net.cpp:157] Top shape: 16 64 56 56 (3211264)
I0304 20:19:06.353315 23214 net.cpp:165] Memory required for data: 960168000
I0304 20:19:06.353319 23214 layer_factory.hpp:77] Creating layer res2b_branch2b_relu
I0304 20:19:06.353322 23214 net.cpp:100] Creating Layer res2b_branch2b_relu
I0304 20:19:06.353324 23214 net.cpp:434] res2b_branch2b_relu <- res2b_branch2b
I0304 20:19:06.353327 23214 net.cpp:395] res2b_branch2b_relu -> res2b_branch2b (in-place)
I0304 20:19:06.353435 23214 net.cpp:150] Setting up res2b_branch2b_relu
I0304 20:19:06.353440 23214 net.cpp:157] Top shape: 16 64 56 56 (3211264)
I0304 20:19:06.353441 23214 net.cpp:165] Memory required for data: 973013056
I0304 20:19:06.353443 23214 layer_factory.hpp:77] Creating layer res2b_branch2c
I0304 20:19:06.353451 23214 net.cpp:100] Creating Layer res2b_branch2c
I0304 20:19:06.353453 23214 net.cpp:434] res2b_branch2c <- res2b_branch2b
I0304 20:19:06.353457 23214 net.cpp:408] res2b_branch2c -> res2b_branch2c
I0304 20:19:06.354069 23214 net.cpp:150] Setting up res2b_branch2c
I0304 20:19:06.354077 23214 net.cpp:157] Top shape: 16 256 56 56 (12845056)
I0304 20:19:06.354079 23214 net.cpp:165] Memory required for data: 1024393280
I0304 20:19:06.354082 23214 layer_factory.hpp:77] Creating layer bn2b_branch2c
I0304 20:19:06.354087 23214 net.cpp:100] Creating Layer bn2b_branch2c
I0304 20:19:06.354089 23214 net.cpp:434] bn2b_branch2c <- res2b_branch2c
I0304 20:19:06.354092 23214 net.cpp:395] bn2b_branch2c -> res2b_branch2c (in-place)
I0304 20:19:06.354207 23214 net.cpp:150] Setting up bn2b_branch2c
I0304 20:19:06.354212 23214 net.cpp:157] Top shape: 16 256 56 56 (12845056)
I0304 20:19:06.354213 23214 net.cpp:165] Memory required for data: 1075773504
I0304 20:19:06.354218 23214 layer_factory.hpp:77] Creating layer scale2b_branch2c
I0304 20:19:06.354221 23214 net.cpp:100] Creating Layer scale2b_branch2c
I0304 20:19:06.354223 23214 net.cpp:434] scale2b_branch2c <- res2b_branch2c
I0304 20:19:06.354226 23214 net.cpp:395] scale2b_branch2c -> res2b_branch2c (in-place)
I0304 20:19:06.354249 23214 layer_factory.hpp:77] Creating layer scale2b_branch2c
I0304 20:19:06.354315 23214 net.cpp:150] Setting up scale2b_branch2c
I0304 20:19:06.354320 23214 net.cpp:157] Top shape: 16 256 56 56 (12845056)
I0304 20:19:06.354321 23214 net.cpp:165] Memory required for data: 1127153728
I0304 20:19:06.354324 23214 layer_factory.hpp:77] Creating layer res2b
I0304 20:19:06.354328 23214 net.cpp:100] Creating Layer res2b
I0304 20:19:06.354331 23214 net.cpp:434] res2b <- res2a_res2a_relu_0_split_1
I0304 20:19:06.354332 23214 net.cpp:434] res2b <- res2b_branch2c
I0304 20:19:06.354336 23214 net.cpp:408] res2b -> res2b
I0304 20:19:06.354351 23214 net.cpp:150] Setting up res2b
I0304 20:19:06.354354 23214 net.cpp:157] Top shape: 16 256 56 56 (12845056)
I0304 20:19:06.354356 23214 net.cpp:165] Memory required for data: 1178533952
I0304 20:19:06.354357 23214 layer_factory.hpp:77] Creating layer res2b_relu
I0304 20:19:06.354362 23214 net.cpp:100] Creating Layer res2b_relu
I0304 20:19:06.354363 23214 net.cpp:434] res2b_relu <- res2b
I0304 20:19:06.354365 23214 net.cpp:395] res2b_relu -> res2b (in-place)
I0304 20:19:06.354557 23214 net.cpp:150] Setting up res2b_relu
I0304 20:19:06.354563 23214 net.cpp:157] Top shape: 16 256 56 56 (12845056)
I0304 20:19:06.354565 23214 net.cpp:165] Memory required for data: 1229914176
I0304 20:19:06.354568 23214 layer_factory.hpp:77] Creating layer res2b_res2b_relu_0_split
I0304 20:19:06.354571 23214 net.cpp:100] Creating Layer res2b_res2b_relu_0_split
I0304 20:19:06.354573 23214 net.cpp:434] res2b_res2b_relu_0_split <- res2b
I0304 20:19:06.354576 23214 net.cpp:408] res2b_res2b_relu_0_split -> res2b_res2b_relu_0_split_0
I0304 20:19:06.354581 23214 net.cpp:408] res2b_res2b_relu_0_split -> res2b_res2b_relu_0_split_1
I0304 20:19:06.354605 23214 net.cpp:150] Setting up res2b_res2b_relu_0_split
I0304 20:19:06.354609 23214 net.cpp:157] Top shape: 16 256 56 56 (12845056)
I0304 20:19:06.354611 23214 net.cpp:157] Top shape: 16 256 56 56 (12845056)
I0304 20:19:06.354614 23214 net.cpp:165] Memory required for data: 1332674624
I0304 20:19:06.354615 23214 layer_factory.hpp:77] Creating layer res2c_branch2a
I0304 20:19:06.354619 23214 net.cpp:100] Creating Layer res2c_branch2a
I0304 20:19:06.354621 23214 net.cpp:434] res2c_branch2a <- res2b_res2b_relu_0_split_0
I0304 20:19:06.354625 23214 net.cpp:408] res2c_branch2a -> res2c_branch2a
I0304 20:19:06.355190 23214 net.cpp:150] Setting up res2c_branch2a
I0304 20:19:06.355197 23214 net.cpp:157] Top shape: 16 64 56 56 (3211264)
I0304 20:19:06.355201 23214 net.cpp:165] Memory required for data: 1345519680
I0304 20:19:06.355203 23214 layer_factory.hpp:77] Creating layer bn2c_branch2a
I0304 20:19:06.355208 23214 net.cpp:100] Creating Layer bn2c_branch2a
I0304 20:19:06.355211 23214 net.cpp:434] bn2c_branch2a <- res2c_branch2a
I0304 20:19:06.355213 23214 net.cpp:395] bn2c_branch2a -> res2c_branch2a (in-place)
I0304 20:19:06.355334 23214 net.cpp:150] Setting up bn2c_branch2a
I0304 20:19:06.355339 23214 net.cpp:157] Top shape: 16 64 56 56 (3211264)
I0304 20:19:06.355340 23214 net.cpp:165] Memory required for data: 1358364736
I0304 20:19:06.355345 23214 layer_factory.hpp:77] Creating layer scale2c_branch2a
I0304 20:19:06.355348 23214 net.cpp:100] Creating Layer scale2c_branch2a
I0304 20:19:06.355350 23214 net.cpp:434] scale2c_branch2a <- res2c_branch2a
I0304 20:19:06.355353 23214 net.cpp:395] scale2c_branch2a -> res2c_branch2a (in-place)
I0304 20:19:06.355376 23214 layer_factory.hpp:77] Creating layer scale2c_branch2a
I0304 20:19:06.355448 23214 net.cpp:150] Setting up scale2c_branch2a
I0304 20:19:06.355453 23214 net.cpp:157] Top shape: 16 64 56 56 (3211264)
I0304 20:19:06.355454 23214 net.cpp:165] Memory required for data: 1371209792
I0304 20:19:06.355458 23214 layer_factory.hpp:77] Creating layer res2c_branch2a_relu
I0304 20:19:06.355461 23214 net.cpp:100] Creating Layer res2c_branch2a_relu
I0304 20:19:06.355463 23214 net.cpp:434] res2c_branch2a_relu <- res2c_branch2a
I0304 20:19:06.355466 23214 net.cpp:395] res2c_branch2a_relu -> res2c_branch2a (in-place)
I0304 20:19:06.355657 23214 net.cpp:150] Setting up res2c_branch2a_relu
I0304 20:19:06.355664 23214 net.cpp:157] Top shape: 16 64 56 56 (3211264)
I0304 20:19:06.355666 23214 net.cpp:165] Memory required for data: 1384054848
I0304 20:19:06.355669 23214 layer_factory.hpp:77] Creating layer res2c_branch2b
I0304 20:19:06.355674 23214 net.cpp:100] Creating Layer res2c_branch2b
I0304 20:19:06.355677 23214 net.cpp:434] res2c_branch2b <- res2c_branch2a
I0304 20:19:06.355680 23214 net.cpp:408] res2c_branch2b -> res2c_branch2b
I0304 20:19:06.356374 23214 net.cpp:150] Setting up res2c_branch2b
I0304 20:19:06.356382 23214 net.cpp:157] Top shape: 16 64 56 56 (3211264)
I0304 20:19:06.356386 23214 net.cpp:165] Memory required for data: 1396899904
I0304 20:19:06.356389 23214 layer_factory.hpp:77] Creating layer bn2c_branch2b
I0304 20:19:06.356395 23214 net.cpp:100] Creating Layer bn2c_branch2b
I0304 20:19:06.356397 23214 net.cpp:434] bn2c_branch2b <- res2c_branch2b
I0304 20:19:06.356400 23214 net.cpp:395] bn2c_branch2b -> res2c_branch2b (in-place)
I0304 20:19:06.356520 23214 net.cpp:150] Setting up bn2c_branch2b
I0304 20:19:06.356525 23214 net.cpp:157] Top shape: 16 64 56 56 (3211264)
I0304 20:19:06.356528 23214 net.cpp:165] Memory required for data: 1409744960
I0304 20:19:06.356533 23214 layer_factory.hpp:77] Creating layer scale2c_branch2b
I0304 20:19:06.356537 23214 net.cpp:100] Creating Layer scale2c_branch2b
I0304 20:19:06.356539 23214 net.cpp:434] scale2c_branch2b <- res2c_branch2b
I0304 20:19:06.356542 23214 net.cpp:395] scale2c_branch2b -> res2c_branch2b (in-place)
I0304 20:19:06.356565 23214 layer_factory.hpp:77] Creating layer scale2c_branch2b
I0304 20:19:06.356638 23214 net.cpp:150] Setting up scale2c_branch2b
I0304 20:19:06.356643 23214 net.cpp:157] Top shape: 16 64 56 56 (3211264)
I0304 20:19:06.356644 23214 net.cpp:165] Memory required for data: 1422590016
I0304 20:19:06.356648 23214 layer_factory.hpp:77] Creating layer res2c_branch2b_relu
I0304 20:19:06.356652 23214 net.cpp:100] Creating Layer res2c_branch2b_relu
I0304 20:19:06.356653 23214 net.cpp:434] res2c_branch2b_relu <- res2c_branch2b
I0304 20:19:06.356657 23214 net.cpp:395] res2c_branch2b_relu -> res2c_branch2b (in-place)
I0304 20:19:06.356767 23214 net.cpp:150] Setting up res2c_branch2b_relu
I0304 20:19:06.356773 23214 net.cpp:157] Top shape: 16 64 56 56 (3211264)
I0304 20:19:06.356775 23214 net.cpp:165] Memory required for data: 1435435072
I0304 20:19:06.356777 23214 layer_factory.hpp:77] Creating layer res2c_branch2c
I0304 20:19:06.356782 23214 net.cpp:100] Creating Layer res2c_branch2c
I0304 20:19:06.356786 23214 net.cpp:434] res2c_branch2c <- res2c_branch2b
I0304 20:19:06.356788 23214 net.cpp:408] res2c_branch2c -> res2c_branch2c
I0304 20:19:06.357437 23214 net.cpp:150] Setting up res2c_branch2c
I0304 20:19:06.357445 23214 net.cpp:157] Top shape: 16 256 56 56 (12845056)
I0304 20:19:06.357448 23214 net.cpp:165] Memory required for data: 1486815296
I0304 20:19:06.357452 23214 layer_factory.hpp:77] Creating layer bn2c_branch2c
I0304 20:19:06.357456 23214 net.cpp:100] Creating Layer bn2c_branch2c
I0304 20:19:06.357460 23214 net.cpp:434] bn2c_branch2c <- res2c_branch2c
I0304 20:19:06.357462 23214 net.cpp:395] bn2c_branch2c -> res2c_branch2c (in-place)
I0304 20:19:06.357583 23214 net.cpp:150] Setting up bn2c_branch2c
I0304 20:19:06.357587 23214 net.cpp:157] Top shape: 16 256 56 56 (12845056)
I0304 20:19:06.357589 23214 net.cpp:165] Memory required for data: 1538195520
I0304 20:19:06.357599 23214 layer_factory.hpp:77] Creating layer scale2c_branch2c
I0304 20:19:06.357602 23214 net.cpp:100] Creating Layer scale2c_branch2c
I0304 20:19:06.357604 23214 net.cpp:434] scale2c_branch2c <- res2c_branch2c
I0304 20:19:06.357609 23214 net.cpp:395] scale2c_branch2c -> res2c_branch2c (in-place)
I0304 20:19:06.357632 23214 layer_factory.hpp:77] Creating layer scale2c_branch2c
I0304 20:19:06.357702 23214 net.cpp:150] Setting up scale2c_branch2c
I0304 20:19:06.357707 23214 net.cpp:157] Top shape: 16 256 56 56 (12845056)
I0304 20:19:06.357709 23214 net.cpp:165] Memory required for data: 1589575744
I0304 20:19:06.357712 23214 layer_factory.hpp:77] Creating layer res2c
I0304 20:19:06.357717 23214 net.cpp:100] Creating Layer res2c
I0304 20:19:06.357720 23214 net.cpp:434] res2c <- res2b_res2b_relu_0_split_1
I0304 20:19:06.357722 23214 net.cpp:434] res2c <- res2c_branch2c
I0304 20:19:06.357725 23214 net.cpp:408] res2c -> res2c
I0304 20:19:06.357740 23214 net.cpp:150] Setting up res2c
I0304 20:19:06.357744 23214 net.cpp:157] Top shape: 16 256 56 56 (12845056)
I0304 20:19:06.357746 23214 net.cpp:165] Memory required for data: 1640955968
I0304 20:19:06.357748 23214 layer_factory.hpp:77] Creating layer res2c_relu
I0304 20:19:06.357751 23214 net.cpp:100] Creating Layer res2c_relu
I0304 20:19:06.357753 23214 net.cpp:434] res2c_relu <- res2c
I0304 20:19:06.357755 23214 net.cpp:395] res2c_relu -> res2c (in-place)
I0304 20:19:06.357952 23214 net.cpp:150] Setting up res2c_relu
I0304 20:19:06.357959 23214 net.cpp:157] Top shape: 16 256 56 56 (12845056)
I0304 20:19:06.357961 23214 net.cpp:165] Memory required for data: 1692336192
I0304 20:19:06.357964 23214 layer_factory.hpp:77] Creating layer res2c_res2c_relu_0_split
I0304 20:19:06.357967 23214 net.cpp:100] Creating Layer res2c_res2c_relu_0_split
I0304 20:19:06.357969 23214 net.cpp:434] res2c_res2c_relu_0_split <- res2c
I0304 20:19:06.357973 23214 net.cpp:408] res2c_res2c_relu_0_split -> res2c_res2c_relu_0_split_0
I0304 20:19:06.357977 23214 net.cpp:408] res2c_res2c_relu_0_split -> res2c_res2c_relu_0_split_1
I0304 20:19:06.358002 23214 net.cpp:150] Setting up res2c_res2c_relu_0_split
I0304 20:19:06.358006 23214 net.cpp:157] Top shape: 16 256 56 56 (12845056)
I0304 20:19:06.358009 23214 net.cpp:157] Top shape: 16 256 56 56 (12845056)
I0304 20:19:06.358011 23214 net.cpp:165] Memory required for data: 1795096640
I0304 20:19:06.358013 23214 layer_factory.hpp:77] Creating layer res3a_branch1
I0304 20:19:06.358018 23214 net.cpp:100] Creating Layer res3a_branch1
I0304 20:19:06.358021 23214 net.cpp:434] res3a_branch1 <- res2c_res2c_relu_0_split_0
I0304 20:19:06.358023 23214 net.cpp:408] res3a_branch1 -> res3a_branch1
I0304 20:19:06.358922 23214 net.cpp:150] Setting up res3a_branch1
I0304 20:19:06.358930 23214 net.cpp:157] Top shape: 16 512 28 28 (6422528)
I0304 20:19:06.358932 23214 net.cpp:165] Memory required for data: 1820786752
I0304 20:19:06.358937 23214 layer_factory.hpp:77] Creating layer bn3a_branch1
I0304 20:19:06.358942 23214 net.cpp:100] Creating Layer bn3a_branch1
I0304 20:19:06.358944 23214 net.cpp:434] bn3a_branch1 <- res3a_branch1
I0304 20:19:06.358947 23214 net.cpp:395] bn3a_branch1 -> res3a_branch1 (in-place)
I0304 20:19:06.359297 23214 net.cpp:150] Setting up bn3a_branch1
I0304 20:19:06.359305 23214 net.cpp:157] Top shape: 16 512 28 28 (6422528)
I0304 20:19:06.359308 23214 net.cpp:165] Memory required for data: 1846476864
I0304 20:19:06.359313 23214 layer_factory.hpp:77] Creating layer scale3a_branch1
I0304 20:19:06.359316 23214 net.cpp:100] Creating Layer scale3a_branch1
I0304 20:19:06.359319 23214 net.cpp:434] scale3a_branch1 <- res3a_branch1
I0304 20:19:06.359323 23214 net.cpp:395] scale3a_branch1 -> res3a_branch1 (in-place)
I0304 20:19:06.359349 23214 layer_factory.hpp:77] Creating layer scale3a_branch1
I0304 20:19:06.359413 23214 net.cpp:150] Setting up scale3a_branch1
I0304 20:19:06.359418 23214 net.cpp:157] Top shape: 16 512 28 28 (6422528)
I0304 20:19:06.359421 23214 net.cpp:165] Memory required for data: 1872166976
I0304 20:19:06.359423 23214 layer_factory.hpp:77] Creating layer res3a_branch2a
I0304 20:19:06.359428 23214 net.cpp:100] Creating Layer res3a_branch2a
I0304 20:19:06.359431 23214 net.cpp:434] res3a_branch2a <- res2c_res2c_relu_0_split_1
I0304 20:19:06.359434 23214 net.cpp:408] res3a_branch2a -> res3a_branch2a
I0304 20:19:06.360147 23214 net.cpp:150] Setting up res3a_branch2a
I0304 20:19:06.360157 23214 net.cpp:157] Top shape: 16 128 28 28 (1605632)
I0304 20:19:06.360159 23214 net.cpp:165] Memory required for data: 1878589504
I0304 20:19:06.360162 23214 layer_factory.hpp:77] Creating layer bn3a_branch2a
I0304 20:19:06.360167 23214 net.cpp:100] Creating Layer bn3a_branch2a
I0304 20:19:06.360169 23214 net.cpp:434] bn3a_branch2a <- res3a_branch2a
I0304 20:19:06.360173 23214 net.cpp:395] bn3a_branch2a -> res3a_branch2a (in-place)
I0304 20:19:06.360290 23214 net.cpp:150] Setting up bn3a_branch2a
I0304 20:19:06.360294 23214 net.cpp:157] Top shape: 16 128 28 28 (1605632)
I0304 20:19:06.360296 23214 net.cpp:165] Memory required for data: 1885012032
I0304 20:19:06.360301 23214 layer_factory.hpp:77] Creating layer scale3a_branch2a
I0304 20:19:06.360304 23214 net.cpp:100] Creating Layer scale3a_branch2a
I0304 20:19:06.360306 23214 net.cpp:434] scale3a_branch2a <- res3a_branch2a
I0304 20:19:06.360309 23214 net.cpp:395] scale3a_branch2a -> res3a_branch2a (in-place)
I0304 20:19:06.360332 23214 layer_factory.hpp:77] Creating layer scale3a_branch2a
I0304 20:19:06.360396 23214 net.cpp:150] Setting up scale3a_branch2a
I0304 20:19:06.360400 23214 net.cpp:157] Top shape: 16 128 28 28 (1605632)
I0304 20:19:06.360402 23214 net.cpp:165] Memory required for data: 1891434560
I0304 20:19:06.360406 23214 layer_factory.hpp:77] Creating layer res3a_branch2a_relu
I0304 20:19:06.360409 23214 net.cpp:100] Creating Layer res3a_branch2a_relu
I0304 20:19:06.360411 23214 net.cpp:434] res3a_branch2a_relu <- res3a_branch2a
I0304 20:19:06.360414 23214 net.cpp:395] res3a_branch2a_relu -> res3a_branch2a (in-place)
I0304 20:19:06.360612 23214 net.cpp:150] Setting up res3a_branch2a_relu
I0304 20:19:06.360620 23214 net.cpp:157] Top shape: 16 128 28 28 (1605632)
I0304 20:19:06.360622 23214 net.cpp:165] Memory required for data: 1897857088
I0304 20:19:06.360625 23214 layer_factory.hpp:77] Creating layer res3a_branch2b
I0304 20:19:06.360630 23214 net.cpp:100] Creating Layer res3a_branch2b
I0304 20:19:06.360632 23214 net.cpp:434] res3a_branch2b <- res3a_branch2a
I0304 20:19:06.360636 23214 net.cpp:408] res3a_branch2b -> res3a_branch2b
I0304 20:19:06.361608 23214 net.cpp:150] Setting up res3a_branch2b
I0304 20:19:06.361616 23214 net.cpp:157] Top shape: 16 128 28 28 (1605632)
I0304 20:19:06.361619 23214 net.cpp:165] Memory required for data: 1904279616
I0304 20:19:06.361623 23214 layer_factory.hpp:77] Creating layer bn3a_branch2b
I0304 20:19:06.361627 23214 net.cpp:100] Creating Layer bn3a_branch2b
I0304 20:19:06.361630 23214 net.cpp:434] bn3a_branch2b <- res3a_branch2b
I0304 20:19:06.361634 23214 net.cpp:395] bn3a_branch2b -> res3a_branch2b (in-place)
I0304 20:19:06.361753 23214 net.cpp:150] Setting up bn3a_branch2b
I0304 20:19:06.361758 23214 net.cpp:157] Top shape: 16 128 28 28 (1605632)
I0304 20:19:06.361760 23214 net.cpp:165] Memory required for data: 1910702144
I0304 20:19:06.361764 23214 layer_factory.hpp:77] Creating layer scale3a_branch2b
I0304 20:19:06.361770 23214 net.cpp:100] Creating Layer scale3a_branch2b
I0304 20:19:06.361773 23214 net.cpp:434] scale3a_branch2b <- res3a_branch2b
I0304 20:19:06.361775 23214 net.cpp:395] scale3a_branch2b -> res3a_branch2b (in-place)
I0304 20:19:06.361799 23214 layer_factory.hpp:77] Creating layer scale3a_branch2b
I0304 20:19:06.361866 23214 net.cpp:150] Setting up scale3a_branch2b
I0304 20:19:06.361871 23214 net.cpp:157] Top shape: 16 128 28 28 (1605632)
I0304 20:19:06.361872 23214 net.cpp:165] Memory required for data: 1917124672
I0304 20:19:06.361876 23214 layer_factory.hpp:77] Creating layer res3a_branch2b_relu
I0304 20:19:06.361879 23214 net.cpp:100] Creating Layer res3a_branch2b_relu
I0304 20:19:06.361881 23214 net.cpp:434] res3a_branch2b_relu <- res3a_branch2b
I0304 20:19:06.361886 23214 net.cpp:395] res3a_branch2b_relu -> res3a_branch2b (in-place)
I0304 20:19:06.361997 23214 net.cpp:150] Setting up res3a_branch2b_relu
I0304 20:19:06.362004 23214 net.cpp:157] Top shape: 16 128 28 28 (1605632)
I0304 20:19:06.362005 23214 net.cpp:165] Memory required for data: 1923547200
I0304 20:19:06.362007 23214 layer_factory.hpp:77] Creating layer res3a_branch2c
I0304 20:19:06.362012 23214 net.cpp:100] Creating Layer res3a_branch2c
I0304 20:19:06.362015 23214 net.cpp:434] res3a_branch2c <- res3a_branch2b
I0304 20:19:06.362018 23214 net.cpp:408] res3a_branch2c -> res3a_branch2c
I0304 20:19:06.362681 23214 net.cpp:150] Setting up res3a_branch2c
I0304 20:19:06.362690 23214 net.cpp:157] Top shape: 16 512 28 28 (6422528)
I0304 20:19:06.362694 23214 net.cpp:165] Memory required for data: 1949237312
I0304 20:19:06.362696 23214 layer_factory.hpp:77] Creating layer bn3a_branch2c
I0304 20:19:06.362704 23214 net.cpp:100] Creating Layer bn3a_branch2c
I0304 20:19:06.362707 23214 net.cpp:434] bn3a_branch2c <- res3a_branch2c
I0304 20:19:06.362710 23214 net.cpp:395] bn3a_branch2c -> res3a_branch2c (in-place)
I0304 20:19:06.362830 23214 net.cpp:150] Setting up bn3a_branch2c
I0304 20:19:06.362835 23214 net.cpp:157] Top shape: 16 512 28 28 (6422528)
I0304 20:19:06.362838 23214 net.cpp:165] Memory required for data: 1974927424
I0304 20:19:06.362841 23214 layer_factory.hpp:77] Creating layer scale3a_branch2c
I0304 20:19:06.362845 23214 net.cpp:100] Creating Layer scale3a_branch2c
I0304 20:19:06.362848 23214 net.cpp:434] scale3a_branch2c <- res3a_branch2c
I0304 20:19:06.362851 23214 net.cpp:395] scale3a_branch2c -> res3a_branch2c (in-place)
I0304 20:19:06.362874 23214 layer_factory.hpp:77] Creating layer scale3a_branch2c
I0304 20:19:06.362942 23214 net.cpp:150] Setting up scale3a_branch2c
I0304 20:19:06.362947 23214 net.cpp:157] Top shape: 16 512 28 28 (6422528)
I0304 20:19:06.362948 23214 net.cpp:165] Memory required for data: 2000617536
I0304 20:19:06.362952 23214 layer_factory.hpp:77] Creating layer res3a
I0304 20:19:06.362956 23214 net.cpp:100] Creating Layer res3a
I0304 20:19:06.362957 23214 net.cpp:434] res3a <- res3a_branch1
I0304 20:19:06.362960 23214 net.cpp:434] res3a <- res3a_branch2c
I0304 20:19:06.362962 23214 net.cpp:408] res3a -> res3a
I0304 20:19:06.362978 23214 net.cpp:150] Setting up res3a
I0304 20:19:06.362982 23214 net.cpp:157] Top shape: 16 512 28 28 (6422528)
I0304 20:19:06.362983 23214 net.cpp:165] Memory required for data: 2026307648
I0304 20:19:06.362985 23214 layer_factory.hpp:77] Creating layer res3a_relu
I0304 20:19:06.362989 23214 net.cpp:100] Creating Layer res3a_relu
I0304 20:19:06.362992 23214 net.cpp:434] res3a_relu <- res3a
I0304 20:19:06.362994 23214 net.cpp:395] res3a_relu -> res3a (in-place)
I0304 20:19:06.363109 23214 net.cpp:150] Setting up res3a_relu
I0304 20:19:06.363116 23214 net.cpp:157] Top shape: 16 512 28 28 (6422528)
I0304 20:19:06.363119 23214 net.cpp:165] Memory required for data: 2051997760
I0304 20:19:06.363121 23214 layer_factory.hpp:77] Creating layer res3a_res3a_relu_0_split
I0304 20:19:06.363124 23214 net.cpp:100] Creating Layer res3a_res3a_relu_0_split
I0304 20:19:06.363126 23214 net.cpp:434] res3a_res3a_relu_0_split <- res3a
I0304 20:19:06.363129 23214 net.cpp:408] res3a_res3a_relu_0_split -> res3a_res3a_relu_0_split_0
I0304 20:19:06.363133 23214 net.cpp:408] res3a_res3a_relu_0_split -> res3a_res3a_relu_0_split_1
I0304 20:19:06.363158 23214 net.cpp:150] Setting up res3a_res3a_relu_0_split
I0304 20:19:06.363162 23214 net.cpp:157] Top shape: 16 512 28 28 (6422528)
I0304 20:19:06.363164 23214 net.cpp:157] Top shape: 16 512 28 28 (6422528)
I0304 20:19:06.363167 23214 net.cpp:165] Memory required for data: 2103377984
I0304 20:19:06.363168 23214 layer_factory.hpp:77] Creating layer res3b_branch2a
I0304 20:19:06.363173 23214 net.cpp:100] Creating Layer res3b_branch2a
I0304 20:19:06.363175 23214 net.cpp:434] res3b_branch2a <- res3a_res3a_relu_0_split_0
I0304 20:19:06.363178 23214 net.cpp:408] res3b_branch2a -> res3b_branch2a
I0304 20:19:06.364068 23214 net.cpp:150] Setting up res3b_branch2a
I0304 20:19:06.364076 23214 net.cpp:157] Top shape: 16 128 28 28 (1605632)
I0304 20:19:06.364078 23214 net.cpp:165] Memory required for data: 2109800512
I0304 20:19:06.364083 23214 layer_factory.hpp:77] Creating layer bn3b_branch2a
I0304 20:19:06.364086 23214 net.cpp:100] Creating Layer bn3b_branch2a
I0304 20:19:06.364089 23214 net.cpp:434] bn3b_branch2a <- res3b_branch2a
I0304 20:19:06.364092 23214 net.cpp:395] bn3b_branch2a -> res3b_branch2a (in-place)
I0304 20:19:06.364213 23214 net.cpp:150] Setting up bn3b_branch2a
I0304 20:19:06.364218 23214 net.cpp:157] Top shape: 16 128 28 28 (1605632)
I0304 20:19:06.364220 23214 net.cpp:165] Memory required for data: 2116223040
I0304 20:19:06.364225 23214 layer_factory.hpp:77] Creating layer scale3b_branch2a
I0304 20:19:06.364229 23214 net.cpp:100] Creating Layer scale3b_branch2a
I0304 20:19:06.364233 23214 net.cpp:434] scale3b_branch2a <- res3b_branch2a
I0304 20:19:06.364235 23214 net.cpp:395] scale3b_branch2a -> res3b_branch2a (in-place)
I0304 20:19:06.364259 23214 layer_factory.hpp:77] Creating layer scale3b_branch2a
I0304 20:19:06.364328 23214 net.cpp:150] Setting up scale3b_branch2a
I0304 20:19:06.364333 23214 net.cpp:157] Top shape: 16 128 28 28 (1605632)
I0304 20:19:06.364334 23214 net.cpp:165] Memory required for data: 2122645568
I0304 20:19:06.364338 23214 layer_factory.hpp:77] Creating layer res3b_branch2a_relu
I0304 20:19:06.364341 23214 net.cpp:100] Creating Layer res3b_branch2a_relu
I0304 20:19:06.364343 23214 net.cpp:434] res3b_branch2a_relu <- res3b_branch2a
I0304 20:19:06.364346 23214 net.cpp:395] res3b_branch2a_relu -> res3b_branch2a (in-place)
I0304 20:19:06.364544 23214 net.cpp:150] Setting up res3b_branch2a_relu
I0304 20:19:06.364552 23214 net.cpp:157] Top shape: 16 128 28 28 (1605632)
I0304 20:19:06.364555 23214 net.cpp:165] Memory required for data: 2129068096
I0304 20:19:06.364557 23214 layer_factory.hpp:77] Creating layer res3b_branch2b
I0304 20:19:06.364562 23214 net.cpp:100] Creating Layer res3b_branch2b
I0304 20:19:06.364564 23214 net.cpp:434] res3b_branch2b <- res3b_branch2a
I0304 20:19:06.364567 23214 net.cpp:408] res3b_branch2b -> res3b_branch2b
I0304 20:19:06.365556 23214 net.cpp:150] Setting up res3b_branch2b
I0304 20:19:06.365564 23214 net.cpp:157] Top shape: 16 128 28 28 (1605632)
I0304 20:19:06.365566 23214 net.cpp:165] Memory required for data: 2135490624
I0304 20:19:06.365571 23214 layer_factory.hpp:77] Creating layer bn3b_branch2b
I0304 20:19:06.365574 23214 net.cpp:100] Creating Layer bn3b_branch2b
I0304 20:19:06.365578 23214 net.cpp:434] bn3b_branch2b <- res3b_branch2b
I0304 20:19:06.365581 23214 net.cpp:395] bn3b_branch2b -> res3b_branch2b (in-place)
I0304 20:19:06.365707 23214 net.cpp:150] Setting up bn3b_branch2b
I0304 20:19:06.365712 23214 net.cpp:157] Top shape: 16 128 28 28 (1605632)
I0304 20:19:06.365715 23214 net.cpp:165] Memory required for data: 2141913152
I0304 20:19:06.365720 23214 layer_factory.hpp:77] Creating layer scale3b_branch2b
I0304 20:19:06.365725 23214 net.cpp:100] Creating Layer scale3b_branch2b
I0304 20:19:06.365727 23214 net.cpp:434] scale3b_branch2b <- res3b_branch2b
I0304 20:19:06.365730 23214 net.cpp:395] scale3b_branch2b -> res3b_branch2b (in-place)
I0304 20:19:06.365754 23214 layer_factory.hpp:77] Creating layer scale3b_branch2b
I0304 20:19:06.365823 23214 net.cpp:150] Setting up scale3b_branch2b
I0304 20:19:06.365828 23214 net.cpp:157] Top shape: 16 128 28 28 (1605632)
I0304 20:19:06.365828 23214 net.cpp:165] Memory required for data: 2148335680
I0304 20:19:06.365833 23214 layer_factory.hpp:77] Creating layer res3b_branch2b_relu
I0304 20:19:06.365835 23214 net.cpp:100] Creating Layer res3b_branch2b_relu
I0304 20:19:06.365838 23214 net.cpp:434] res3b_branch2b_relu <- res3b_branch2b
I0304 20:19:06.365840 23214 net.cpp:395] res3b_branch2b_relu -> res3b_branch2b (in-place)
I0304 20:19:06.365952 23214 net.cpp:150] Setting up res3b_branch2b_relu
I0304 20:19:06.365958 23214 net.cpp:157] Top shape: 16 128 28 28 (1605632)
I0304 20:19:06.365960 23214 net.cpp:165] Memory required for data: 2154758208
I0304 20:19:06.365962 23214 layer_factory.hpp:77] Creating layer res3b_branch2c
I0304 20:19:06.365967 23214 net.cpp:100] Creating Layer res3b_branch2c
I0304 20:19:06.365969 23214 net.cpp:434] res3b_branch2c <- res3b_branch2b
I0304 20:19:06.365972 23214 net.cpp:408] res3b_branch2c -> res3b_branch2c
I0304 20:19:06.366684 23214 net.cpp:150] Setting up res3b_branch2c
I0304 20:19:06.366693 23214 net.cpp:157] Top shape: 16 512 28 28 (6422528)
I0304 20:19:06.366695 23214 net.cpp:165] Memory required for data: 2180448320
I0304 20:19:06.366698 23214 layer_factory.hpp:77] Creating layer bn3b_branch2c
I0304 20:19:06.366703 23214 net.cpp:100] Creating Layer bn3b_branch2c
I0304 20:19:06.366708 23214 net.cpp:434] bn3b_branch2c <- res3b_branch2c
I0304 20:19:06.366710 23214 net.cpp:395] bn3b_branch2c -> res3b_branch2c (in-place)
I0304 20:19:06.366832 23214 net.cpp:150] Setting up bn3b_branch2c
I0304 20:19:06.366837 23214 net.cpp:157] Top shape: 16 512 28 28 (6422528)
I0304 20:19:06.366838 23214 net.cpp:165] Memory required for data: 2206138432
I0304 20:19:06.366844 23214 layer_factory.hpp:77] Creating layer scale3b_branch2c
I0304 20:19:06.366848 23214 net.cpp:100] Creating Layer scale3b_branch2c
I0304 20:19:06.366850 23214 net.cpp:434] scale3b_branch2c <- res3b_branch2c
I0304 20:19:06.366852 23214 net.cpp:395] scale3b_branch2c -> res3b_branch2c (in-place)
I0304 20:19:06.366878 23214 layer_factory.hpp:77] Creating layer scale3b_branch2c
I0304 20:19:06.366946 23214 net.cpp:150] Setting up scale3b_branch2c
I0304 20:19:06.366951 23214 net.cpp:157] Top shape: 16 512 28 28 (6422528)
I0304 20:19:06.366953 23214 net.cpp:165] Memory required for data: 2231828544
I0304 20:19:06.366956 23214 layer_factory.hpp:77] Creating layer res3b
I0304 20:19:06.366961 23214 net.cpp:100] Creating Layer res3b
I0304 20:19:06.366963 23214 net.cpp:434] res3b <- res3a_res3a_relu_0_split_1
I0304 20:19:06.366966 23214 net.cpp:434] res3b <- res3b_branch2c
I0304 20:19:06.366968 23214 net.cpp:408] res3b -> res3b
I0304 20:19:06.366984 23214 net.cpp:150] Setting up res3b
I0304 20:19:06.366988 23214 net.cpp:157] Top shape: 16 512 28 28 (6422528)
I0304 20:19:06.366989 23214 net.cpp:165] Memory required for data: 2257518656
I0304 20:19:06.366991 23214 layer_factory.hpp:77] Creating layer res3b_relu
I0304 20:19:06.366994 23214 net.cpp:100] Creating Layer res3b_relu
I0304 20:19:06.366997 23214 net.cpp:434] res3b_relu <- res3b
I0304 20:19:06.367000 23214 net.cpp:395] res3b_relu -> res3b (in-place)
I0304 20:19:06.367106 23214 net.cpp:150] Setting up res3b_relu
I0304 20:19:06.367112 23214 net.cpp:157] Top shape: 16 512 28 28 (6422528)
I0304 20:19:06.367115 23214 net.cpp:165] Memory required for data: 2283208768
I0304 20:19:06.367116 23214 layer_factory.hpp:77] Creating layer res3b_res3b_relu_0_split
I0304 20:19:06.367120 23214 net.cpp:100] Creating Layer res3b_res3b_relu_0_split
I0304 20:19:06.367122 23214 net.cpp:434] res3b_res3b_relu_0_split <- res3b
I0304 20:19:06.367125 23214 net.cpp:408] res3b_res3b_relu_0_split -> res3b_res3b_relu_0_split_0
I0304 20:19:06.367128 23214 net.cpp:408] res3b_res3b_relu_0_split -> res3b_res3b_relu_0_split_1
I0304 20:19:06.367153 23214 net.cpp:150] Setting up res3b_res3b_relu_0_split
I0304 20:19:06.367157 23214 net.cpp:157] Top shape: 16 512 28 28 (6422528)
I0304 20:19:06.367159 23214 net.cpp:157] Top shape: 16 512 28 28 (6422528)
I0304 20:19:06.367161 23214 net.cpp:165] Memory required for data: 2334588992
I0304 20:19:06.367163 23214 layer_factory.hpp:77] Creating layer res3c_branch2a
I0304 20:19:06.367167 23214 net.cpp:100] Creating Layer res3c_branch2a
I0304 20:19:06.367169 23214 net.cpp:434] res3c_branch2a <- res3b_res3b_relu_0_split_0
I0304 20:19:06.367172 23214 net.cpp:408] res3c_branch2a -> res3c_branch2a
I0304 20:19:06.367810 23214 net.cpp:150] Setting up res3c_branch2a
I0304 20:19:06.367818 23214 net.cpp:157] Top shape: 16 128 28 28 (1605632)
I0304 20:19:06.367820 23214 net.cpp:165] Memory required for data: 2341011520
I0304 20:19:06.367825 23214 layer_factory.hpp:77] Creating layer bn3c_branch2a
I0304 20:19:06.367828 23214 net.cpp:100] Creating Layer bn3c_branch2a
I0304 20:19:06.367831 23214 net.cpp:434] bn3c_branch2a <- res3c_branch2a
I0304 20:19:06.367835 23214 net.cpp:395] bn3c_branch2a -> res3c_branch2a (in-place)
I0304 20:19:06.367957 23214 net.cpp:150] Setting up bn3c_branch2a
I0304 20:19:06.367962 23214 net.cpp:157] Top shape: 16 128 28 28 (1605632)
I0304 20:19:06.367964 23214 net.cpp:165] Memory required for data: 2347434048
I0304 20:19:06.367969 23214 layer_factory.hpp:77] Creating layer scale3c_branch2a
I0304 20:19:06.367974 23214 net.cpp:100] Creating Layer scale3c_branch2a
I0304 20:19:06.367975 23214 net.cpp:434] scale3c_branch2a <- res3c_branch2a
I0304 20:19:06.367980 23214 net.cpp:395] scale3c_branch2a -> res3c_branch2a (in-place)
I0304 20:19:06.368002 23214 layer_factory.hpp:77] Creating layer scale3c_branch2a
I0304 20:19:06.368080 23214 net.cpp:150] Setting up scale3c_branch2a
I0304 20:19:06.368086 23214 net.cpp:157] Top shape: 16 128 28 28 (1605632)
I0304 20:19:06.368088 23214 net.cpp:165] Memory required for data: 2353856576
I0304 20:19:06.368093 23214 layer_factory.hpp:77] Creating layer res3c_branch2a_relu
I0304 20:19:06.368095 23214 net.cpp:100] Creating Layer res3c_branch2a_relu
I0304 20:19:06.368098 23214 net.cpp:434] res3c_branch2a_relu <- res3c_branch2a
I0304 20:19:06.368100 23214 net.cpp:395] res3c_branch2a_relu -> res3c_branch2a (in-place)
I0304 20:19:06.368300 23214 net.cpp:150] Setting up res3c_branch2a_relu
I0304 20:19:06.368307 23214 net.cpp:157] Top shape: 16 128 28 28 (1605632)
I0304 20:19:06.368310 23214 net.cpp:165] Memory required for data: 2360279104
I0304 20:19:06.368312 23214 layer_factory.hpp:77] Creating layer res3c_branch2b
I0304 20:19:06.368319 23214 net.cpp:100] Creating Layer res3c_branch2b
I0304 20:19:06.368321 23214 net.cpp:434] res3c_branch2b <- res3c_branch2a
I0304 20:19:06.368324 23214 net.cpp:408] res3c_branch2b -> res3c_branch2b
I0304 20:19:06.369318 23214 net.cpp:150] Setting up res3c_branch2b
I0304 20:19:06.369326 23214 net.cpp:157] Top shape: 16 128 28 28 (1605632)
I0304 20:19:06.369329 23214 net.cpp:165] Memory required for data: 2366701632
I0304 20:19:06.369333 23214 layer_factory.hpp:77] Creating layer bn3c_branch2b
I0304 20:19:06.369336 23214 net.cpp:100] Creating Layer bn3c_branch2b
I0304 20:19:06.369339 23214 net.cpp:434] bn3c_branch2b <- res3c_branch2b
I0304 20:19:06.369344 23214 net.cpp:395] bn3c_branch2b -> res3c_branch2b (in-place)
I0304 20:19:06.369470 23214 net.cpp:150] Setting up bn3c_branch2b
I0304 20:19:06.369475 23214 net.cpp:157] Top shape: 16 128 28 28 (1605632)
I0304 20:19:06.369477 23214 net.cpp:165] Memory required for data: 2373124160
I0304 20:19:06.369482 23214 layer_factory.hpp:77] Creating layer scale3c_branch2b
I0304 20:19:06.369487 23214 net.cpp:100] Creating Layer scale3c_branch2b
I0304 20:19:06.369488 23214 net.cpp:434] scale3c_branch2b <- res3c_branch2b
I0304 20:19:06.369491 23214 net.cpp:395] scale3c_branch2b -> res3c_branch2b (in-place)
I0304 20:19:06.369516 23214 layer_factory.hpp:77] Creating layer scale3c_branch2b
I0304 20:19:06.369586 23214 net.cpp:150] Setting up scale3c_branch2b
I0304 20:19:06.369590 23214 net.cpp:157] Top shape: 16 128 28 28 (1605632)
I0304 20:19:06.369592 23214 net.cpp:165] Memory required for data: 2379546688
I0304 20:19:06.369596 23214 layer_factory.hpp:77] Creating layer res3c_branch2b_relu
I0304 20:19:06.369599 23214 net.cpp:100] Creating Layer res3c_branch2b_relu
I0304 20:19:06.369601 23214 net.cpp:434] res3c_branch2b_relu <- res3c_branch2b
I0304 20:19:06.369604 23214 net.cpp:395] res3c_branch2b_relu -> res3c_branch2b (in-place)
I0304 20:19:06.369719 23214 net.cpp:150] Setting up res3c_branch2b_relu
I0304 20:19:06.369724 23214 net.cpp:157] Top shape: 16 128 28 28 (1605632)
I0304 20:19:06.369726 23214 net.cpp:165] Memory required for data: 2385969216
I0304 20:19:06.369729 23214 layer_factory.hpp:77] Creating layer res3c_branch2c
I0304 20:19:06.369734 23214 net.cpp:100] Creating Layer res3c_branch2c
I0304 20:19:06.369735 23214 net.cpp:434] res3c_branch2c <- res3c_branch2b
I0304 20:19:06.369738 23214 net.cpp:408] res3c_branch2c -> res3c_branch2c
I0304 20:19:06.370503 23214 net.cpp:150] Setting up res3c_branch2c
I0304 20:19:06.370512 23214 net.cpp:157] Top shape: 16 512 28 28 (6422528)
I0304 20:19:06.370514 23214 net.cpp:165] Memory required for data: 2411659328
I0304 20:19:06.370518 23214 layer_factory.hpp:77] Creating layer bn3c_branch2c
I0304 20:19:06.370522 23214 net.cpp:100] Creating Layer bn3c_branch2c
I0304 20:19:06.370525 23214 net.cpp:434] bn3c_branch2c <- res3c_branch2c
I0304 20:19:06.370528 23214 net.cpp:395] bn3c_branch2c -> res3c_branch2c (in-place)
I0304 20:19:06.370656 23214 net.cpp:150] Setting up bn3c_branch2c
I0304 20:19:06.370659 23214 net.cpp:157] Top shape: 16 512 28 28 (6422528)
I0304 20:19:06.370661 23214 net.cpp:165] Memory required for data: 2437349440
I0304 20:19:06.370666 23214 layer_factory.hpp:77] Creating layer scale3c_branch2c
I0304 20:19:06.370671 23214 net.cpp:100] Creating Layer scale3c_branch2c
I0304 20:19:06.370673 23214 net.cpp:434] scale3c_branch2c <- res3c_branch2c
I0304 20:19:06.370676 23214 net.cpp:395] scale3c_branch2c -> res3c_branch2c (in-place)
I0304 20:19:06.370702 23214 layer_factory.hpp:77] Creating layer scale3c_branch2c
I0304 20:19:06.370771 23214 net.cpp:150] Setting up scale3c_branch2c
I0304 20:19:06.370775 23214 net.cpp:157] Top shape: 16 512 28 28 (6422528)
I0304 20:19:06.370777 23214 net.cpp:165] Memory required for data: 2463039552
I0304 20:19:06.370781 23214 layer_factory.hpp:77] Creating layer res3c
I0304 20:19:06.370785 23214 net.cpp:100] Creating Layer res3c
I0304 20:19:06.370787 23214 net.cpp:434] res3c <- res3b_res3b_relu_0_split_1
I0304 20:19:06.370790 23214 net.cpp:434] res3c <- res3c_branch2c
I0304 20:19:06.370793 23214 net.cpp:408] res3c -> res3c
I0304 20:19:06.370808 23214 net.cpp:150] Setting up res3c
I0304 20:19:06.370812 23214 net.cpp:157] Top shape: 16 512 28 28 (6422528)
I0304 20:19:06.370815 23214 net.cpp:165] Memory required for data: 2488729664
I0304 20:19:06.370816 23214 layer_factory.hpp:77] Creating layer res3c_relu
I0304 20:19:06.370820 23214 net.cpp:100] Creating Layer res3c_relu
I0304 20:19:06.370821 23214 net.cpp:434] res3c_relu <- res3c
I0304 20:19:06.370824 23214 net.cpp:395] res3c_relu -> res3c (in-place)
I0304 20:19:06.370931 23214 net.cpp:150] Setting up res3c_relu
I0304 20:19:06.370936 23214 net.cpp:157] Top shape: 16 512 28 28 (6422528)
I0304 20:19:06.370939 23214 net.cpp:165] Memory required for data: 2514419776
I0304 20:19:06.370940 23214 layer_factory.hpp:77] Creating layer res3c_res3c_relu_0_split
I0304 20:19:06.370944 23214 net.cpp:100] Creating Layer res3c_res3c_relu_0_split
I0304 20:19:06.370946 23214 net.cpp:434] res3c_res3c_relu_0_split <- res3c
I0304 20:19:06.370949 23214 net.cpp:408] res3c_res3c_relu_0_split -> res3c_res3c_relu_0_split_0
I0304 20:19:06.370952 23214 net.cpp:408] res3c_res3c_relu_0_split -> res3c_res3c_relu_0_split_1
I0304 20:19:06.370980 23214 net.cpp:150] Setting up res3c_res3c_relu_0_split
I0304 20:19:06.370983 23214 net.cpp:157] Top shape: 16 512 28 28 (6422528)
I0304 20:19:06.370986 23214 net.cpp:157] Top shape: 16 512 28 28 (6422528)
I0304 20:19:06.370987 23214 net.cpp:165] Memory required for data: 2565800000
I0304 20:19:06.370990 23214 layer_factory.hpp:77] Creating layer res3d_branch2a
I0304 20:19:06.370995 23214 net.cpp:100] Creating Layer res3d_branch2a
I0304 20:19:06.370996 23214 net.cpp:434] res3d_branch2a <- res3c_res3c_relu_0_split_0
I0304 20:19:06.370998 23214 net.cpp:408] res3d_branch2a -> res3d_branch2a
I0304 20:19:06.371917 23214 net.cpp:150] Setting up res3d_branch2a
I0304 20:19:06.371925 23214 net.cpp:157] Top shape: 16 128 28 28 (1605632)
I0304 20:19:06.371928 23214 net.cpp:165] Memory required for data: 2572222528
I0304 20:19:06.371932 23214 layer_factory.hpp:77] Creating layer bn3d_branch2a
I0304 20:19:06.371937 23214 net.cpp:100] Creating Layer bn3d_branch2a
I0304 20:19:06.371938 23214 net.cpp:434] bn3d_branch2a <- res3d_branch2a
I0304 20:19:06.371942 23214 net.cpp:395] bn3d_branch2a -> res3d_branch2a (in-place)
I0304 20:19:06.372076 23214 net.cpp:150] Setting up bn3d_branch2a
I0304 20:19:06.372082 23214 net.cpp:157] Top shape: 16 128 28 28 (1605632)
I0304 20:19:06.372084 23214 net.cpp:165] Memory required for data: 2578645056
I0304 20:19:06.372100 23214 layer_factory.hpp:77] Creating layer scale3d_branch2a
I0304 20:19:06.372105 23214 net.cpp:100] Creating Layer scale3d_branch2a
I0304 20:19:06.372107 23214 net.cpp:434] scale3d_branch2a <- res3d_branch2a
I0304 20:19:06.372110 23214 net.cpp:395] scale3d_branch2a -> res3d_branch2a (in-place)
I0304 20:19:06.372138 23214 layer_factory.hpp:77] Creating layer scale3d_branch2a
I0304 20:19:06.372210 23214 net.cpp:150] Setting up scale3d_branch2a
I0304 20:19:06.372215 23214 net.cpp:157] Top shape: 16 128 28 28 (1605632)
I0304 20:19:06.372216 23214 net.cpp:165] Memory required for data: 2585067584
I0304 20:19:06.372220 23214 layer_factory.hpp:77] Creating layer res3d_branch2a_relu
I0304 20:19:06.372222 23214 net.cpp:100] Creating Layer res3d_branch2a_relu
I0304 20:19:06.372225 23214 net.cpp:434] res3d_branch2a_relu <- res3d_branch2a
I0304 20:19:06.372227 23214 net.cpp:395] res3d_branch2a_relu -> res3d_branch2a (in-place)
I0304 20:19:06.372431 23214 net.cpp:150] Setting up res3d_branch2a_relu
I0304 20:19:06.372438 23214 net.cpp:157] Top shape: 16 128 28 28 (1605632)
I0304 20:19:06.372442 23214 net.cpp:165] Memory required for data: 2591490112
I0304 20:19:06.372443 23214 layer_factory.hpp:77] Creating layer res3d_branch2b
I0304 20:19:06.372449 23214 net.cpp:100] Creating Layer res3d_branch2b
I0304 20:19:06.372452 23214 net.cpp:434] res3d_branch2b <- res3d_branch2a
I0304 20:19:06.372455 23214 net.cpp:408] res3d_branch2b -> res3d_branch2b
I0304 20:19:06.373479 23214 net.cpp:150] Setting up res3d_branch2b
I0304 20:19:06.373488 23214 net.cpp:157] Top shape: 16 128 28 28 (1605632)
I0304 20:19:06.373491 23214 net.cpp:165] Memory required for data: 2597912640
I0304 20:19:06.373494 23214 layer_factory.hpp:77] Creating layer bn3d_branch2b
I0304 20:19:06.373499 23214 net.cpp:100] Creating Layer bn3d_branch2b
I0304 20:19:06.373502 23214 net.cpp:434] bn3d_branch2b <- res3d_branch2b
I0304 20:19:06.373505 23214 net.cpp:395] bn3d_branch2b -> res3d_branch2b (in-place)
I0304 20:19:06.373639 23214 net.cpp:150] Setting up bn3d_branch2b
I0304 20:19:06.373644 23214 net.cpp:157] Top shape: 16 128 28 28 (1605632)
I0304 20:19:06.373656 23214 net.cpp:165] Memory required for data: 2604335168
I0304 20:19:06.373661 23214 layer_factory.hpp:77] Creating layer scale3d_branch2b
I0304 20:19:06.373666 23214 net.cpp:100] Creating Layer scale3d_branch2b
I0304 20:19:06.373667 23214 net.cpp:434] scale3d_branch2b <- res3d_branch2b
I0304 20:19:06.373670 23214 net.cpp:395] scale3d_branch2b -> res3d_branch2b (in-place)
I0304 20:19:06.373706 23214 layer_factory.hpp:77] Creating layer scale3d_branch2b
I0304 20:19:06.373800 23214 net.cpp:150] Setting up scale3d_branch2b
I0304 20:19:06.373805 23214 net.cpp:157] Top shape: 16 128 28 28 (1605632)
I0304 20:19:06.373806 23214 net.cpp:165] Memory required for data: 2610757696
I0304 20:19:06.373819 23214 layer_factory.hpp:77] Creating layer res3d_branch2b_relu
I0304 20:19:06.373823 23214 net.cpp:100] Creating Layer res3d_branch2b_relu
I0304 20:19:06.373826 23214 net.cpp:434] res3d_branch2b_relu <- res3d_branch2b
I0304 20:19:06.373828 23214 net.cpp:395] res3d_branch2b_relu -> res3d_branch2b (in-place)
I0304 20:19:06.373950 23214 net.cpp:150] Setting up res3d_branch2b_relu
I0304 20:19:06.373956 23214 net.cpp:157] Top shape: 16 128 28 28 (1605632)
I0304 20:19:06.373958 23214 net.cpp:165] Memory required for data: 2617180224
I0304 20:19:06.373960 23214 layer_factory.hpp:77] Creating layer res3d_branch2c
I0304 20:19:06.373966 23214 net.cpp:100] Creating Layer res3d_branch2c
I0304 20:19:06.373970 23214 net.cpp:434] res3d_branch2c <- res3d_branch2b
I0304 20:19:06.373972 23214 net.cpp:408] res3d_branch2c -> res3d_branch2c
I0304 20:19:06.374687 23214 net.cpp:150] Setting up res3d_branch2c
I0304 20:19:06.374696 23214 net.cpp:157] Top shape: 16 512 28 28 (6422528)
I0304 20:19:06.374697 23214 net.cpp:165] Memory required for data: 2642870336
I0304 20:19:06.374701 23214 layer_factory.hpp:77] Creating layer bn3d_branch2c
I0304 20:19:06.374706 23214 net.cpp:100] Creating Layer bn3d_branch2c
I0304 20:19:06.374709 23214 net.cpp:434] bn3d_branch2c <- res3d_branch2c
I0304 20:19:06.374712 23214 net.cpp:395] bn3d_branch2c -> res3d_branch2c (in-place)
I0304 20:19:06.374841 23214 net.cpp:150] Setting up bn3d_branch2c
I0304 20:19:06.374846 23214 net.cpp:157] Top shape: 16 512 28 28 (6422528)
I0304 20:19:06.374848 23214 net.cpp:165] Memory required for data: 2668560448
I0304 20:19:06.374852 23214 layer_factory.hpp:77] Creating layer scale3d_branch2c
I0304 20:19:06.374857 23214 net.cpp:100] Creating Layer scale3d_branch2c
I0304 20:19:06.374860 23214 net.cpp:434] scale3d_branch2c <- res3d_branch2c
I0304 20:19:06.374862 23214 net.cpp:395] scale3d_branch2c -> res3d_branch2c (in-place)
I0304 20:19:06.374888 23214 layer_factory.hpp:77] Creating layer scale3d_branch2c
I0304 20:19:06.374961 23214 net.cpp:150] Setting up scale3d_branch2c
I0304 20:19:06.374965 23214 net.cpp:157] Top shape: 16 512 28 28 (6422528)
I0304 20:19:06.374967 23214 net.cpp:165] Memory required for data: 2694250560
I0304 20:19:06.374971 23214 layer_factory.hpp:77] Creating layer res3d
I0304 20:19:06.374975 23214 net.cpp:100] Creating Layer res3d
I0304 20:19:06.374979 23214 net.cpp:434] res3d <- res3c_res3c_relu_0_split_1
I0304 20:19:06.374980 23214 net.cpp:434] res3d <- res3d_branch2c
I0304 20:19:06.374984 23214 net.cpp:408] res3d -> res3d
I0304 20:19:06.375000 23214 net.cpp:150] Setting up res3d
I0304 20:19:06.375003 23214 net.cpp:157] Top shape: 16 512 28 28 (6422528)
I0304 20:19:06.375005 23214 net.cpp:165] Memory required for data: 2719940672
I0304 20:19:06.375007 23214 layer_factory.hpp:77] Creating layer res3d_relu
I0304 20:19:06.375010 23214 net.cpp:100] Creating Layer res3d_relu
I0304 20:19:06.375012 23214 net.cpp:434] res3d_relu <- res3d
I0304 20:19:06.375015 23214 net.cpp:395] res3d_relu -> res3d (in-place)
I0304 20:19:06.375125 23214 net.cpp:150] Setting up res3d_relu
I0304 20:19:06.375130 23214 net.cpp:157] Top shape: 16 512 28 28 (6422528)
I0304 20:19:06.375133 23214 net.cpp:165] Memory required for data: 2745630784
I0304 20:19:06.375134 23214 layer_factory.hpp:77] Creating layer res3d_res3d_relu_0_split
I0304 20:19:06.375138 23214 net.cpp:100] Creating Layer res3d_res3d_relu_0_split
I0304 20:19:06.375139 23214 net.cpp:434] res3d_res3d_relu_0_split <- res3d
I0304 20:19:06.375144 23214 net.cpp:408] res3d_res3d_relu_0_split -> res3d_res3d_relu_0_split_0
I0304 20:19:06.375146 23214 net.cpp:408] res3d_res3d_relu_0_split -> res3d_res3d_relu_0_split_1
I0304 20:19:06.375174 23214 net.cpp:150] Setting up res3d_res3d_relu_0_split
I0304 20:19:06.375178 23214 net.cpp:157] Top shape: 16 512 28 28 (6422528)
I0304 20:19:06.375180 23214 net.cpp:157] Top shape: 16 512 28 28 (6422528)
I0304 20:19:06.375182 23214 net.cpp:165] Memory required for data: 2797011008
I0304 20:19:06.375185 23214 layer_factory.hpp:77] Creating layer res4a_branch1
I0304 20:19:06.375188 23214 net.cpp:100] Creating Layer res4a_branch1
I0304 20:19:06.375191 23214 net.cpp:434] res4a_branch1 <- res3d_res3d_relu_0_split_0
I0304 20:19:06.375195 23214 net.cpp:408] res4a_branch1 -> res4a_branch1
I0304 20:19:06.376480 23214 net.cpp:150] Setting up res4a_branch1
I0304 20:19:06.376490 23214 net.cpp:157] Top shape: 16 1024 14 14 (3211264)
I0304 20:19:06.376492 23214 net.cpp:165] Memory required for data: 2809856064
I0304 20:19:06.376495 23214 layer_factory.hpp:77] Creating layer bn4a_branch1
I0304 20:19:06.376500 23214 net.cpp:100] Creating Layer bn4a_branch1
I0304 20:19:06.376502 23214 net.cpp:434] bn4a_branch1 <- res4a_branch1
I0304 20:19:06.376505 23214 net.cpp:395] bn4a_branch1 -> res4a_branch1 (in-place)
I0304 20:19:06.376643 23214 net.cpp:150] Setting up bn4a_branch1
I0304 20:19:06.376648 23214 net.cpp:157] Top shape: 16 1024 14 14 (3211264)
I0304 20:19:06.376651 23214 net.cpp:165] Memory required for data: 2822701120
I0304 20:19:06.376655 23214 layer_factory.hpp:77] Creating layer scale4a_branch1
I0304 20:19:06.376659 23214 net.cpp:100] Creating Layer scale4a_branch1
I0304 20:19:06.376662 23214 net.cpp:434] scale4a_branch1 <- res4a_branch1
I0304 20:19:06.376664 23214 net.cpp:395] scale4a_branch1 -> res4a_branch1 (in-place)
I0304 20:19:06.376688 23214 layer_factory.hpp:77] Creating layer scale4a_branch1
I0304 20:19:06.376765 23214 net.cpp:150] Setting up scale4a_branch1
I0304 20:19:06.376770 23214 net.cpp:157] Top shape: 16 1024 14 14 (3211264)
I0304 20:19:06.376771 23214 net.cpp:165] Memory required for data: 2835546176
I0304 20:19:06.376775 23214 layer_factory.hpp:77] Creating layer res4a_branch2a
I0304 20:19:06.376780 23214 net.cpp:100] Creating Layer res4a_branch2a
I0304 20:19:06.376782 23214 net.cpp:434] res4a_branch2a <- res3d_res3d_relu_0_split_1
I0304 20:19:06.376785 23214 net.cpp:408] res4a_branch2a -> res4a_branch2a
I0304 20:19:06.377512 23214 net.cpp:150] Setting up res4a_branch2a
I0304 20:19:06.377521 23214 net.cpp:157] Top shape: 16 256 14 14 (802816)
I0304 20:19:06.377523 23214 net.cpp:165] Memory required for data: 2838757440
I0304 20:19:06.377526 23214 layer_factory.hpp:77] Creating layer bn4a_branch2a
I0304 20:19:06.377531 23214 net.cpp:100] Creating Layer bn4a_branch2a
I0304 20:19:06.377533 23214 net.cpp:434] bn4a_branch2a <- res4a_branch2a
I0304 20:19:06.377538 23214 net.cpp:395] bn4a_branch2a -> res4a_branch2a (in-place)
I0304 20:19:06.377670 23214 net.cpp:150] Setting up bn4a_branch2a
I0304 20:19:06.377674 23214 net.cpp:157] Top shape: 16 256 14 14 (802816)
I0304 20:19:06.377676 23214 net.cpp:165] Memory required for data: 2841968704
I0304 20:19:06.377681 23214 layer_factory.hpp:77] Creating layer scale4a_branch2a
I0304 20:19:06.377684 23214 net.cpp:100] Creating Layer scale4a_branch2a
I0304 20:19:06.377686 23214 net.cpp:434] scale4a_branch2a <- res4a_branch2a
I0304 20:19:06.377689 23214 net.cpp:395] scale4a_branch2a -> res4a_branch2a (in-place)
I0304 20:19:06.377715 23214 layer_factory.hpp:77] Creating layer scale4a_branch2a
I0304 20:19:06.377787 23214 net.cpp:150] Setting up scale4a_branch2a
I0304 20:19:06.377791 23214 net.cpp:157] Top shape: 16 256 14 14 (802816)
I0304 20:19:06.377794 23214 net.cpp:165] Memory required for data: 2845179968
I0304 20:19:06.377797 23214 layer_factory.hpp:77] Creating layer res4a_branch2a_relu
I0304 20:19:06.377800 23214 net.cpp:100] Creating Layer res4a_branch2a_relu
I0304 20:19:06.377802 23214 net.cpp:434] res4a_branch2a_relu <- res4a_branch2a
I0304 20:19:06.377805 23214 net.cpp:395] res4a_branch2a_relu -> res4a_branch2a (in-place)
I0304 20:19:06.378005 23214 net.cpp:150] Setting up res4a_branch2a_relu
I0304 20:19:06.378012 23214 net.cpp:157] Top shape: 16 256 14 14 (802816)
I0304 20:19:06.378015 23214 net.cpp:165] Memory required for data: 2848391232
I0304 20:19:06.378017 23214 layer_factory.hpp:77] Creating layer res4a_branch2b
I0304 20:19:06.378022 23214 net.cpp:100] Creating Layer res4a_branch2b
I0304 20:19:06.378026 23214 net.cpp:434] res4a_branch2b <- res4a_branch2a
I0304 20:19:06.378029 23214 net.cpp:408] res4a_branch2b -> res4a_branch2b
I0304 20:19:06.379324 23214 net.cpp:150] Setting up res4a_branch2b
I0304 20:19:06.379333 23214 net.cpp:157] Top shape: 16 256 14 14 (802816)
I0304 20:19:06.379335 23214 net.cpp:165] Memory required for data: 2851602496
I0304 20:19:06.379338 23214 layer_factory.hpp:77] Creating layer bn4a_branch2b
I0304 20:19:06.379343 23214 net.cpp:100] Creating Layer bn4a_branch2b
I0304 20:19:06.379346 23214 net.cpp:434] bn4a_branch2b <- res4a_branch2b
I0304 20:19:06.379350 23214 net.cpp:395] bn4a_branch2b -> res4a_branch2b (in-place)
I0304 20:19:06.379483 23214 net.cpp:150] Setting up bn4a_branch2b
I0304 20:19:06.379488 23214 net.cpp:157] Top shape: 16 256 14 14 (802816)
I0304 20:19:06.379490 23214 net.cpp:165] Memory required for data: 2854813760
I0304 20:19:06.379494 23214 layer_factory.hpp:77] Creating layer scale4a_branch2b
I0304 20:19:06.379498 23214 net.cpp:100] Creating Layer scale4a_branch2b
I0304 20:19:06.379500 23214 net.cpp:434] scale4a_branch2b <- res4a_branch2b
I0304 20:19:06.379504 23214 net.cpp:395] scale4a_branch2b -> res4a_branch2b (in-place)
I0304 20:19:06.379529 23214 layer_factory.hpp:77] Creating layer scale4a_branch2b
I0304 20:19:06.379602 23214 net.cpp:150] Setting up scale4a_branch2b
I0304 20:19:06.379607 23214 net.cpp:157] Top shape: 16 256 14 14 (802816)
I0304 20:19:06.379609 23214 net.cpp:165] Memory required for data: 2858025024
I0304 20:19:06.379613 23214 layer_factory.hpp:77] Creating layer res4a_branch2b_relu
I0304 20:19:06.379616 23214 net.cpp:100] Creating Layer res4a_branch2b_relu
I0304 20:19:06.379619 23214 net.cpp:434] res4a_branch2b_relu <- res4a_branch2b
I0304 20:19:06.379621 23214 net.cpp:395] res4a_branch2b_relu -> res4a_branch2b (in-place)
I0304 20:19:06.379824 23214 net.cpp:150] Setting up res4a_branch2b_relu
I0304 20:19:06.379832 23214 net.cpp:157] Top shape: 16 256 14 14 (802816)
I0304 20:19:06.379834 23214 net.cpp:165] Memory required for data: 2861236288
I0304 20:19:06.379837 23214 layer_factory.hpp:77] Creating layer res4a_branch2c
I0304 20:19:06.379842 23214 net.cpp:100] Creating Layer res4a_branch2c
I0304 20:19:06.379845 23214 net.cpp:434] res4a_branch2c <- res4a_branch2b
I0304 20:19:06.379849 23214 net.cpp:408] res4a_branch2c -> res4a_branch2c
I0304 20:19:06.380839 23214 net.cpp:150] Setting up res4a_branch2c
I0304 20:19:06.380848 23214 net.cpp:157] Top shape: 16 1024 14 14 (3211264)
I0304 20:19:06.380851 23214 net.cpp:165] Memory required for data: 2874081344
I0304 20:19:06.380853 23214 layer_factory.hpp:77] Creating layer bn4a_branch2c
I0304 20:19:06.380858 23214 net.cpp:100] Creating Layer bn4a_branch2c
I0304 20:19:06.380861 23214 net.cpp:434] bn4a_branch2c <- res4a_branch2c
I0304 20:19:06.380864 23214 net.cpp:395] bn4a_branch2c -> res4a_branch2c (in-place)
I0304 20:19:06.381002 23214 net.cpp:150] Setting up bn4a_branch2c
I0304 20:19:06.381007 23214 net.cpp:157] Top shape: 16 1024 14 14 (3211264)
I0304 20:19:06.381009 23214 net.cpp:165] Memory required for data: 2886926400
I0304 20:19:06.381013 23214 layer_factory.hpp:77] Creating layer scale4a_branch2c
I0304 20:19:06.381018 23214 net.cpp:100] Creating Layer scale4a_branch2c
I0304 20:19:06.381021 23214 net.cpp:434] scale4a_branch2c <- res4a_branch2c
I0304 20:19:06.381023 23214 net.cpp:395] scale4a_branch2c -> res4a_branch2c (in-place)
I0304 20:19:06.381047 23214 layer_factory.hpp:77] Creating layer scale4a_branch2c
I0304 20:19:06.381124 23214 net.cpp:150] Setting up scale4a_branch2c
I0304 20:19:06.381129 23214 net.cpp:157] Top shape: 16 1024 14 14 (3211264)
I0304 20:19:06.381130 23214 net.cpp:165] Memory required for data: 2899771456
I0304 20:19:06.381134 23214 layer_factory.hpp:77] Creating layer res4a
I0304 20:19:06.381139 23214 net.cpp:100] Creating Layer res4a
I0304 20:19:06.381141 23214 net.cpp:434] res4a <- res4a_branch1
I0304 20:19:06.381144 23214 net.cpp:434] res4a <- res4a_branch2c
I0304 20:19:06.381146 23214 net.cpp:408] res4a -> res4a
I0304 20:19:06.381163 23214 net.cpp:150] Setting up res4a
I0304 20:19:06.381167 23214 net.cpp:157] Top shape: 16 1024 14 14 (3211264)
I0304 20:19:06.381170 23214 net.cpp:165] Memory required for data: 2912616512
I0304 20:19:06.381171 23214 layer_factory.hpp:77] Creating layer res4a_relu
I0304 20:19:06.381175 23214 net.cpp:100] Creating Layer res4a_relu
I0304 20:19:06.381177 23214 net.cpp:434] res4a_relu <- res4a
I0304 20:19:06.381180 23214 net.cpp:395] res4a_relu -> res4a (in-place)
I0304 20:19:06.381290 23214 net.cpp:150] Setting up res4a_relu
I0304 20:19:06.381296 23214 net.cpp:157] Top shape: 16 1024 14 14 (3211264)
I0304 20:19:06.381299 23214 net.cpp:165] Memory required for data: 2925461568
I0304 20:19:06.381300 23214 layer_factory.hpp:77] Creating layer res4a_res4a_relu_0_split
I0304 20:19:06.381304 23214 net.cpp:100] Creating Layer res4a_res4a_relu_0_split
I0304 20:19:06.381306 23214 net.cpp:434] res4a_res4a_relu_0_split <- res4a
I0304 20:19:06.381309 23214 net.cpp:408] res4a_res4a_relu_0_split -> res4a_res4a_relu_0_split_0
I0304 20:19:06.381314 23214 net.cpp:408] res4a_res4a_relu_0_split -> res4a_res4a_relu_0_split_1
I0304 20:19:06.381341 23214 net.cpp:150] Setting up res4a_res4a_relu_0_split
I0304 20:19:06.381345 23214 net.cpp:157] Top shape: 16 1024 14 14 (3211264)
I0304 20:19:06.381347 23214 net.cpp:157] Top shape: 16 1024 14 14 (3211264)
I0304 20:19:06.381350 23214 net.cpp:165] Memory required for data: 2951151680
I0304 20:19:06.381351 23214 layer_factory.hpp:77] Creating layer res4b_branch2a
I0304 20:19:06.381363 23214 net.cpp:100] Creating Layer res4b_branch2a
I0304 20:19:06.381366 23214 net.cpp:434] res4b_branch2a <- res4a_res4a_relu_0_split_0
I0304 20:19:06.381369 23214 net.cpp:408] res4b_branch2a -> res4b_branch2a
I0304 20:19:06.382438 23214 net.cpp:150] Setting up res4b_branch2a
I0304 20:19:06.382447 23214 net.cpp:157] Top shape: 16 256 14 14 (802816)
I0304 20:19:06.382449 23214 net.cpp:165] Memory required for data: 2954362944
I0304 20:19:06.382453 23214 layer_factory.hpp:77] Creating layer bn4b_branch2a
I0304 20:19:06.382459 23214 net.cpp:100] Creating Layer bn4b_branch2a
I0304 20:19:06.382462 23214 net.cpp:434] bn4b_branch2a <- res4b_branch2a
I0304 20:19:06.382467 23214 net.cpp:395] bn4b_branch2a -> res4b_branch2a (in-place)
I0304 20:19:06.382602 23214 net.cpp:150] Setting up bn4b_branch2a
I0304 20:19:06.382606 23214 net.cpp:157] Top shape: 16 256 14 14 (802816)
I0304 20:19:06.382608 23214 net.cpp:165] Memory required for data: 2957574208
I0304 20:19:06.382613 23214 layer_factory.hpp:77] Creating layer scale4b_branch2a
I0304 20:19:06.382619 23214 net.cpp:100] Creating Layer scale4b_branch2a
I0304 20:19:06.382622 23214 net.cpp:434] scale4b_branch2a <- res4b_branch2a
I0304 20:19:06.382624 23214 net.cpp:395] scale4b_branch2a -> res4b_branch2a (in-place)
I0304 20:19:06.382652 23214 layer_factory.hpp:77] Creating layer scale4b_branch2a
I0304 20:19:06.382727 23214 net.cpp:150] Setting up scale4b_branch2a
I0304 20:19:06.382731 23214 net.cpp:157] Top shape: 16 256 14 14 (802816)
I0304 20:19:06.382733 23214 net.cpp:165] Memory required for data: 2960785472
I0304 20:19:06.382737 23214 layer_factory.hpp:77] Creating layer res4b_branch2a_relu
I0304 20:19:06.382740 23214 net.cpp:100] Creating Layer res4b_branch2a_relu
I0304 20:19:06.382742 23214 net.cpp:434] res4b_branch2a_relu <- res4b_branch2a
I0304 20:19:06.382745 23214 net.cpp:395] res4b_branch2a_relu -> res4b_branch2a (in-place)
I0304 20:19:06.382943 23214 net.cpp:150] Setting up res4b_branch2a_relu
I0304 20:19:06.382951 23214 net.cpp:157] Top shape: 16 256 14 14 (802816)
I0304 20:19:06.382953 23214 net.cpp:165] Memory required for data: 2963996736
I0304 20:19:06.382956 23214 layer_factory.hpp:77] Creating layer res4b_branch2b
I0304 20:19:06.382961 23214 net.cpp:100] Creating Layer res4b_branch2b
I0304 20:19:06.382963 23214 net.cpp:434] res4b_branch2b <- res4b_branch2a
I0304 20:19:06.382966 23214 net.cpp:408] res4b_branch2b -> res4b_branch2b
I0304 20:19:06.384284 23214 net.cpp:150] Setting up res4b_branch2b
I0304 20:19:06.384294 23214 net.cpp:157] Top shape: 16 256 14 14 (802816)
I0304 20:19:06.384296 23214 net.cpp:165] Memory required for data: 2967208000
I0304 20:19:06.384299 23214 layer_factory.hpp:77] Creating layer bn4b_branch2b
I0304 20:19:06.384305 23214 net.cpp:100] Creating Layer bn4b_branch2b
I0304 20:19:06.384306 23214 net.cpp:434] bn4b_branch2b <- res4b_branch2b
I0304 20:19:06.384310 23214 net.cpp:395] bn4b_branch2b -> res4b_branch2b (in-place)
I0304 20:19:06.384448 23214 net.cpp:150] Setting up bn4b_branch2b
I0304 20:19:06.384452 23214 net.cpp:157] Top shape: 16 256 14 14 (802816)
I0304 20:19:06.384454 23214 net.cpp:165] Memory required for data: 2970419264
I0304 20:19:06.384459 23214 layer_factory.hpp:77] Creating layer scale4b_branch2b
I0304 20:19:06.384464 23214 net.cpp:100] Creating Layer scale4b_branch2b
I0304 20:19:06.384466 23214 net.cpp:434] scale4b_branch2b <- res4b_branch2b
I0304 20:19:06.384469 23214 net.cpp:395] scale4b_branch2b -> res4b_branch2b (in-place)
I0304 20:19:06.384498 23214 layer_factory.hpp:77] Creating layer scale4b_branch2b
I0304 20:19:06.384572 23214 net.cpp:150] Setting up scale4b_branch2b
I0304 20:19:06.384577 23214 net.cpp:157] Top shape: 16 256 14 14 (802816)
I0304 20:19:06.384578 23214 net.cpp:165] Memory required for data: 2973630528
I0304 20:19:06.384582 23214 layer_factory.hpp:77] Creating layer res4b_branch2b_relu
I0304 20:19:06.384585 23214 net.cpp:100] Creating Layer res4b_branch2b_relu
I0304 20:19:06.384588 23214 net.cpp:434] res4b_branch2b_relu <- res4b_branch2b
I0304 20:19:06.384590 23214 net.cpp:395] res4b_branch2b_relu -> res4b_branch2b (in-place)
I0304 20:19:06.384791 23214 net.cpp:150] Setting up res4b_branch2b_relu
I0304 20:19:06.384799 23214 net.cpp:157] Top shape: 16 256 14 14 (802816)
I0304 20:19:06.384801 23214 net.cpp:165] Memory required for data: 2976841792
I0304 20:19:06.384804 23214 layer_factory.hpp:77] Creating layer res4b_branch2c
I0304 20:19:06.384809 23214 net.cpp:100] Creating Layer res4b_branch2c
I0304 20:19:06.384811 23214 net.cpp:434] res4b_branch2c <- res4b_branch2b
I0304 20:19:06.384814 23214 net.cpp:408] res4b_branch2c -> res4b_branch2c
I0304 20:19:06.385802 23214 net.cpp:150] Setting up res4b_branch2c
I0304 20:19:06.385810 23214 net.cpp:157] Top shape: 16 1024 14 14 (3211264)
I0304 20:19:06.385812 23214 net.cpp:165] Memory required for data: 2989686848
I0304 20:19:06.385817 23214 layer_factory.hpp:77] Creating layer bn4b_branch2c
I0304 20:19:06.385820 23214 net.cpp:100] Creating Layer bn4b_branch2c
I0304 20:19:06.385824 23214 net.cpp:434] bn4b_branch2c <- res4b_branch2c
I0304 20:19:06.385828 23214 net.cpp:395] bn4b_branch2c -> res4b_branch2c (in-place)
I0304 20:19:06.385967 23214 net.cpp:150] Setting up bn4b_branch2c
I0304 20:19:06.385972 23214 net.cpp:157] Top shape: 16 1024 14 14 (3211264)
I0304 20:19:06.385974 23214 net.cpp:165] Memory required for data: 3002531904
I0304 20:19:06.385979 23214 layer_factory.hpp:77] Creating layer scale4b_branch2c
I0304 20:19:06.385984 23214 net.cpp:100] Creating Layer scale4b_branch2c
I0304 20:19:06.385987 23214 net.cpp:434] scale4b_branch2c <- res4b_branch2c
I0304 20:19:06.385990 23214 net.cpp:395] scale4b_branch2c -> res4b_branch2c (in-place)
I0304 20:19:06.386016 23214 layer_factory.hpp:77] Creating layer scale4b_branch2c
I0304 20:19:06.386096 23214 net.cpp:150] Setting up scale4b_branch2c
I0304 20:19:06.386101 23214 net.cpp:157] Top shape: 16 1024 14 14 (3211264)
I0304 20:19:06.386103 23214 net.cpp:165] Memory required for data: 3015376960
I0304 20:19:06.386106 23214 layer_factory.hpp:77] Creating layer res4b
I0304 20:19:06.386111 23214 net.cpp:100] Creating Layer res4b
I0304 20:19:06.386113 23214 net.cpp:434] res4b <- res4a_res4a_relu_0_split_1
I0304 20:19:06.386116 23214 net.cpp:434] res4b <- res4b_branch2c
I0304 20:19:06.386118 23214 net.cpp:408] res4b -> res4b
I0304 20:19:06.386135 23214 net.cpp:150] Setting up res4b
I0304 20:19:06.386139 23214 net.cpp:157] Top shape: 16 1024 14 14 (3211264)
I0304 20:19:06.386142 23214 net.cpp:165] Memory required for data: 3028222016
I0304 20:19:06.386143 23214 layer_factory.hpp:77] Creating layer res4b_relu
I0304 20:19:06.386147 23214 net.cpp:100] Creating Layer res4b_relu
I0304 20:19:06.386148 23214 net.cpp:434] res4b_relu <- res4b
I0304 20:19:06.386152 23214 net.cpp:395] res4b_relu -> res4b (in-place)
I0304 20:19:06.386260 23214 net.cpp:150] Setting up res4b_relu
I0304 20:19:06.386266 23214 net.cpp:157] Top shape: 16 1024 14 14 (3211264)
I0304 20:19:06.386268 23214 net.cpp:165] Memory required for data: 3041067072
I0304 20:19:06.386270 23214 layer_factory.hpp:77] Creating layer res4b_res4b_relu_0_split
I0304 20:19:06.386273 23214 net.cpp:100] Creating Layer res4b_res4b_relu_0_split
I0304 20:19:06.386276 23214 net.cpp:434] res4b_res4b_relu_0_split <- res4b
I0304 20:19:06.386279 23214 net.cpp:408] res4b_res4b_relu_0_split -> res4b_res4b_relu_0_split_0
I0304 20:19:06.386283 23214 net.cpp:408] res4b_res4b_relu_0_split -> res4b_res4b_relu_0_split_1
I0304 20:19:06.386313 23214 net.cpp:150] Setting up res4b_res4b_relu_0_split
I0304 20:19:06.386317 23214 net.cpp:157] Top shape: 16 1024 14 14 (3211264)
I0304 20:19:06.386319 23214 net.cpp:157] Top shape: 16 1024 14 14 (3211264)
I0304 20:19:06.386322 23214 net.cpp:165] Memory required for data: 3066757184
I0304 20:19:06.386323 23214 layer_factory.hpp:77] Creating layer res4c_branch2a
I0304 20:19:06.386328 23214 net.cpp:100] Creating Layer res4c_branch2a
I0304 20:19:06.386330 23214 net.cpp:434] res4c_branch2a <- res4b_res4b_relu_0_split_0
I0304 20:19:06.386333 23214 net.cpp:408] res4c_branch2a -> res4c_branch2a
I0304 20:19:06.387312 23214 net.cpp:150] Setting up res4c_branch2a
I0304 20:19:06.387321 23214 net.cpp:157] Top shape: 16 256 14 14 (802816)
I0304 20:19:06.387323 23214 net.cpp:165] Memory required for data: 3069968448
I0304 20:19:06.387327 23214 layer_factory.hpp:77] Creating layer bn4c_branch2a
I0304 20:19:06.387332 23214 net.cpp:100] Creating Layer bn4c_branch2a
I0304 20:19:06.387336 23214 net.cpp:434] bn4c_branch2a <- res4c_branch2a
I0304 20:19:06.387338 23214 net.cpp:395] bn4c_branch2a -> res4c_branch2a (in-place)
I0304 20:19:06.387476 23214 net.cpp:150] Setting up bn4c_branch2a
I0304 20:19:06.387480 23214 net.cpp:157] Top shape: 16 256 14 14 (802816)
I0304 20:19:06.387482 23214 net.cpp:165] Memory required for data: 3073179712
I0304 20:19:06.387487 23214 layer_factory.hpp:77] Creating layer scale4c_branch2a
I0304 20:19:06.387492 23214 net.cpp:100] Creating Layer scale4c_branch2a
I0304 20:19:06.387495 23214 net.cpp:434] scale4c_branch2a <- res4c_branch2a
I0304 20:19:06.387497 23214 net.cpp:395] scale4c_branch2a -> res4c_branch2a (in-place)
I0304 20:19:06.387526 23214 layer_factory.hpp:77] Creating layer scale4c_branch2a
I0304 20:19:06.387603 23214 net.cpp:150] Setting up scale4c_branch2a
I0304 20:19:06.387606 23214 net.cpp:157] Top shape: 16 256 14 14 (802816)
I0304 20:19:06.387609 23214 net.cpp:165] Memory required for data: 3076390976
I0304 20:19:06.387611 23214 layer_factory.hpp:77] Creating layer res4c_branch2a_relu
I0304 20:19:06.387615 23214 net.cpp:100] Creating Layer res4c_branch2a_relu
I0304 20:19:06.387617 23214 net.cpp:434] res4c_branch2a_relu <- res4c_branch2a
I0304 20:19:06.387620 23214 net.cpp:395] res4c_branch2a_relu -> res4c_branch2a (in-place)
I0304 20:19:06.387819 23214 net.cpp:150] Setting up res4c_branch2a_relu
I0304 20:19:06.387826 23214 net.cpp:157] Top shape: 16 256 14 14 (802816)
I0304 20:19:06.387828 23214 net.cpp:165] Memory required for data: 3079602240
I0304 20:19:06.387831 23214 layer_factory.hpp:77] Creating layer res4c_branch2b
I0304 20:19:06.387836 23214 net.cpp:100] Creating Layer res4c_branch2b
I0304 20:19:06.387838 23214 net.cpp:434] res4c_branch2b <- res4c_branch2a
I0304 20:19:06.387842 23214 net.cpp:408] res4c_branch2b -> res4c_branch2b
I0304 20:19:06.389153 23214 net.cpp:150] Setting up res4c_branch2b
I0304 20:19:06.389163 23214 net.cpp:157] Top shape: 16 256 14 14 (802816)
I0304 20:19:06.389164 23214 net.cpp:165] Memory required for data: 3082813504
I0304 20:19:06.389168 23214 layer_factory.hpp:77] Creating layer bn4c_branch2b
I0304 20:19:06.389173 23214 net.cpp:100] Creating Layer bn4c_branch2b
I0304 20:19:06.389174 23214 net.cpp:434] bn4c_branch2b <- res4c_branch2b
I0304 20:19:06.389178 23214 net.cpp:395] bn4c_branch2b -> res4c_branch2b (in-place)
I0304 20:19:06.389322 23214 net.cpp:150] Setting up bn4c_branch2b
I0304 20:19:06.389328 23214 net.cpp:157] Top shape: 16 256 14 14 (802816)
I0304 20:19:06.389329 23214 net.cpp:165] Memory required for data: 3086024768
I0304 20:19:06.389333 23214 layer_factory.hpp:77] Creating layer scale4c_branch2b
I0304 20:19:06.389338 23214 net.cpp:100] Creating Layer scale4c_branch2b
I0304 20:19:06.389339 23214 net.cpp:434] scale4c_branch2b <- res4c_branch2b
I0304 20:19:06.389341 23214 net.cpp:395] scale4c_branch2b -> res4c_branch2b (in-place)
I0304 20:19:06.389371 23214 layer_factory.hpp:77] Creating layer scale4c_branch2b
I0304 20:19:06.389449 23214 net.cpp:150] Setting up scale4c_branch2b
I0304 20:19:06.389452 23214 net.cpp:157] Top shape: 16 256 14 14 (802816)
I0304 20:19:06.389454 23214 net.cpp:165] Memory required for data: 3089236032
I0304 20:19:06.389458 23214 layer_factory.hpp:77] Creating layer res4c_branch2b_relu
I0304 20:19:06.389461 23214 net.cpp:100] Creating Layer res4c_branch2b_relu
I0304 20:19:06.389463 23214 net.cpp:434] res4c_branch2b_relu <- res4c_branch2b
I0304 20:19:06.389467 23214 net.cpp:395] res4c_branch2b_relu -> res4c_branch2b (in-place)
I0304 20:19:06.389672 23214 net.cpp:150] Setting up res4c_branch2b_relu
I0304 20:19:06.389681 23214 net.cpp:157] Top shape: 16 256 14 14 (802816)
I0304 20:19:06.389685 23214 net.cpp:165] Memory required for data: 3092447296
I0304 20:19:06.389688 23214 layer_factory.hpp:77] Creating layer res4c_branch2c
I0304 20:19:06.389695 23214 net.cpp:100] Creating Layer res4c_branch2c
I0304 20:19:06.389698 23214 net.cpp:434] res4c_branch2c <- res4c_branch2b
I0304 20:19:06.389703 23214 net.cpp:408] res4c_branch2c -> res4c_branch2c
I0304 20:19:06.390717 23214 net.cpp:150] Setting up res4c_branch2c
I0304 20:19:06.390724 23214 net.cpp:157] Top shape: 16 1024 14 14 (3211264)
I0304 20:19:06.390727 23214 net.cpp:165] Memory required for data: 3105292352
I0304 20:19:06.390730 23214 layer_factory.hpp:77] Creating layer bn4c_branch2c
I0304 20:19:06.390734 23214 net.cpp:100] Creating Layer bn4c_branch2c
I0304 20:19:06.390738 23214 net.cpp:434] bn4c_branch2c <- res4c_branch2c
I0304 20:19:06.390740 23214 net.cpp:395] bn4c_branch2c -> res4c_branch2c (in-place)
I0304 20:19:06.390882 23214 net.cpp:150] Setting up bn4c_branch2c
I0304 20:19:06.390885 23214 net.cpp:157] Top shape: 16 1024 14 14 (3211264)
I0304 20:19:06.390887 23214 net.cpp:165] Memory required for data: 3118137408
I0304 20:19:06.390892 23214 layer_factory.hpp:77] Creating layer scale4c_branch2c
I0304 20:19:06.390895 23214 net.cpp:100] Creating Layer scale4c_branch2c
I0304 20:19:06.390897 23214 net.cpp:434] scale4c_branch2c <- res4c_branch2c
I0304 20:19:06.390902 23214 net.cpp:395] scale4c_branch2c -> res4c_branch2c (in-place)
I0304 20:19:06.390925 23214 layer_factory.hpp:77] Creating layer scale4c_branch2c
I0304 20:19:06.391005 23214 net.cpp:150] Setting up scale4c_branch2c
I0304 20:19:06.391010 23214 net.cpp:157] Top shape: 16 1024 14 14 (3211264)
I0304 20:19:06.391010 23214 net.cpp:165] Memory required for data: 3130982464
I0304 20:19:06.391014 23214 layer_factory.hpp:77] Creating layer res4c
I0304 20:19:06.391017 23214 net.cpp:100] Creating Layer res4c
I0304 20:19:06.391019 23214 net.cpp:434] res4c <- res4b_res4b_relu_0_split_1
I0304 20:19:06.391022 23214 net.cpp:434] res4c <- res4c_branch2c
I0304 20:19:06.391024 23214 net.cpp:408] res4c -> res4c
I0304 20:19:06.391042 23214 net.cpp:150] Setting up res4c
I0304 20:19:06.391046 23214 net.cpp:157] Top shape: 16 1024 14 14 (3211264)
I0304 20:19:06.391047 23214 net.cpp:165] Memory required for data: 3143827520
I0304 20:19:06.391049 23214 layer_factory.hpp:77] Creating layer res4c_relu
I0304 20:19:06.391052 23214 net.cpp:100] Creating Layer res4c_relu
I0304 20:19:06.391054 23214 net.cpp:434] res4c_relu <- res4c
I0304 20:19:06.391057 23214 net.cpp:395] res4c_relu -> res4c (in-place)
I0304 20:19:06.391167 23214 net.cpp:150] Setting up res4c_relu
I0304 20:19:06.391172 23214 net.cpp:157] Top shape: 16 1024 14 14 (3211264)
I0304 20:19:06.391175 23214 net.cpp:165] Memory required for data: 3156672576
I0304 20:19:06.391177 23214 layer_factory.hpp:77] Creating layer res4c_res4c_relu_0_split
I0304 20:19:06.391181 23214 net.cpp:100] Creating Layer res4c_res4c_relu_0_split
I0304 20:19:06.391183 23214 net.cpp:434] res4c_res4c_relu_0_split <- res4c
I0304 20:19:06.391186 23214 net.cpp:408] res4c_res4c_relu_0_split -> res4c_res4c_relu_0_split_0
I0304 20:19:06.391189 23214 net.cpp:408] res4c_res4c_relu_0_split -> res4c_res4c_relu_0_split_1
I0304 20:19:06.391218 23214 net.cpp:150] Setting up res4c_res4c_relu_0_split
I0304 20:19:06.391222 23214 net.cpp:157] Top shape: 16 1024 14 14 (3211264)
I0304 20:19:06.391224 23214 net.cpp:157] Top shape: 16 1024 14 14 (3211264)
I0304 20:19:06.391225 23214 net.cpp:165] Memory required for data: 3182362688
I0304 20:19:06.391227 23214 layer_factory.hpp:77] Creating layer res4d_branch2a
I0304 20:19:06.391232 23214 net.cpp:100] Creating Layer res4d_branch2a
I0304 20:19:06.391234 23214 net.cpp:434] res4d_branch2a <- res4c_res4c_relu_0_split_0
I0304 20:19:06.391237 23214 net.cpp:408] res4d_branch2a -> res4d_branch2a
I0304 20:19:06.392232 23214 net.cpp:150] Setting up res4d_branch2a
I0304 20:19:06.392240 23214 net.cpp:157] Top shape: 16 256 14 14 (802816)
I0304 20:19:06.392242 23214 net.cpp:165] Memory required for data: 3185573952
I0304 20:19:06.392246 23214 layer_factory.hpp:77] Creating layer bn4d_branch2a
I0304 20:19:06.392249 23214 net.cpp:100] Creating Layer bn4d_branch2a
I0304 20:19:06.392252 23214 net.cpp:434] bn4d_branch2a <- res4d_branch2a
I0304 20:19:06.392254 23214 net.cpp:395] bn4d_branch2a -> res4d_branch2a (in-place)
I0304 20:19:06.392395 23214 net.cpp:150] Setting up bn4d_branch2a
I0304 20:19:06.392398 23214 net.cpp:157] Top shape: 16 256 14 14 (802816)
I0304 20:19:06.392400 23214 net.cpp:165] Memory required for data: 3188785216
I0304 20:19:06.392405 23214 layer_factory.hpp:77] Creating layer scale4d_branch2a
I0304 20:19:06.392410 23214 net.cpp:100] Creating Layer scale4d_branch2a
I0304 20:19:06.392411 23214 net.cpp:434] scale4d_branch2a <- res4d_branch2a
I0304 20:19:06.392415 23214 net.cpp:395] scale4d_branch2a -> res4d_branch2a (in-place)
I0304 20:19:06.392441 23214 layer_factory.hpp:77] Creating layer scale4d_branch2a
I0304 20:19:06.392516 23214 net.cpp:150] Setting up scale4d_branch2a
I0304 20:19:06.392520 23214 net.cpp:157] Top shape: 16 256 14 14 (802816)
I0304 20:19:06.392523 23214 net.cpp:165] Memory required for data: 3191996480
I0304 20:19:06.392526 23214 layer_factory.hpp:77] Creating layer res4d_branch2a_relu
I0304 20:19:06.392529 23214 net.cpp:100] Creating Layer res4d_branch2a_relu
I0304 20:19:06.392531 23214 net.cpp:434] res4d_branch2a_relu <- res4d_branch2a
I0304 20:19:06.392534 23214 net.cpp:395] res4d_branch2a_relu -> res4d_branch2a (in-place)
I0304 20:19:06.392735 23214 net.cpp:150] Setting up res4d_branch2a_relu
I0304 20:19:06.392741 23214 net.cpp:157] Top shape: 16 256 14 14 (802816)
I0304 20:19:06.392743 23214 net.cpp:165] Memory required for data: 3195207744
I0304 20:19:06.392745 23214 layer_factory.hpp:77] Creating layer res4d_branch2b
I0304 20:19:06.392751 23214 net.cpp:100] Creating Layer res4d_branch2b
I0304 20:19:06.392755 23214 net.cpp:434] res4d_branch2b <- res4d_branch2a
I0304 20:19:06.392757 23214 net.cpp:408] res4d_branch2b -> res4d_branch2b
I0304 20:19:06.394098 23214 net.cpp:150] Setting up res4d_branch2b
I0304 20:19:06.394106 23214 net.cpp:157] Top shape: 16 256 14 14 (802816)
I0304 20:19:06.394109 23214 net.cpp:165] Memory required for data: 3198419008
I0304 20:19:06.394111 23214 layer_factory.hpp:77] Creating layer bn4d_branch2b
I0304 20:19:06.394116 23214 net.cpp:100] Creating Layer bn4d_branch2b
I0304 20:19:06.394119 23214 net.cpp:434] bn4d_branch2b <- res4d_branch2b
I0304 20:19:06.394122 23214 net.cpp:395] bn4d_branch2b -> res4d_branch2b (in-place)
I0304 20:19:06.394264 23214 net.cpp:150] Setting up bn4d_branch2b
I0304 20:19:06.394268 23214 net.cpp:157] Top shape: 16 256 14 14 (802816)
I0304 20:19:06.394270 23214 net.cpp:165] Memory required for data: 3201630272
I0304 20:19:06.394274 23214 layer_factory.hpp:77] Creating layer scale4d_branch2b
I0304 20:19:06.394279 23214 net.cpp:100] Creating Layer scale4d_branch2b
I0304 20:19:06.394280 23214 net.cpp:434] scale4d_branch2b <- res4d_branch2b
I0304 20:19:06.394284 23214 net.cpp:395] scale4d_branch2b -> res4d_branch2b (in-place)
I0304 20:19:06.394312 23214 layer_factory.hpp:77] Creating layer scale4d_branch2b
I0304 20:19:06.394390 23214 net.cpp:150] Setting up scale4d_branch2b
I0304 20:19:06.394394 23214 net.cpp:157] Top shape: 16 256 14 14 (802816)
I0304 20:19:06.394395 23214 net.cpp:165] Memory required for data: 3204841536
I0304 20:19:06.394399 23214 layer_factory.hpp:77] Creating layer res4d_branch2b_relu
I0304 20:19:06.394402 23214 net.cpp:100] Creating Layer res4d_branch2b_relu
I0304 20:19:06.394404 23214 net.cpp:434] res4d_branch2b_relu <- res4d_branch2b
I0304 20:19:06.394407 23214 net.cpp:395] res4d_branch2b_relu -> res4d_branch2b (in-place)
I0304 20:19:06.394608 23214 net.cpp:150] Setting up res4d_branch2b_relu
I0304 20:19:06.394613 23214 net.cpp:157] Top shape: 16 256 14 14 (802816)
I0304 20:19:06.394615 23214 net.cpp:165] Memory required for data: 3208052800
I0304 20:19:06.394618 23214 layer_factory.hpp:77] Creating layer res4d_branch2c
I0304 20:19:06.394624 23214 net.cpp:100] Creating Layer res4d_branch2c
I0304 20:19:06.394626 23214 net.cpp:434] res4d_branch2c <- res4d_branch2b
I0304 20:19:06.394630 23214 net.cpp:408] res4d_branch2c -> res4d_branch2c
I0304 20:19:06.395740 23214 net.cpp:150] Setting up res4d_branch2c
I0304 20:19:06.395747 23214 net.cpp:157] Top shape: 16 1024 14 14 (3211264)
I0304 20:19:06.395750 23214 net.cpp:165] Memory required for data: 3220897856
I0304 20:19:06.395753 23214 layer_factory.hpp:77] Creating layer bn4d_branch2c
I0304 20:19:06.395757 23214 net.cpp:100] Creating Layer bn4d_branch2c
I0304 20:19:06.395761 23214 net.cpp:434] bn4d_branch2c <- res4d_branch2c
I0304 20:19:06.395762 23214 net.cpp:395] bn4d_branch2c -> res4d_branch2c (in-place)
I0304 20:19:06.395907 23214 net.cpp:150] Setting up bn4d_branch2c
I0304 20:19:06.395910 23214 net.cpp:157] Top shape: 16 1024 14 14 (3211264)
I0304 20:19:06.395912 23214 net.cpp:165] Memory required for data: 3233742912
I0304 20:19:06.395917 23214 layer_factory.hpp:77] Creating layer scale4d_branch2c
I0304 20:19:06.395920 23214 net.cpp:100] Creating Layer scale4d_branch2c
I0304 20:19:06.395922 23214 net.cpp:434] scale4d_branch2c <- res4d_branch2c
I0304 20:19:06.395925 23214 net.cpp:395] scale4d_branch2c -> res4d_branch2c (in-place)
I0304 20:19:06.395951 23214 layer_factory.hpp:77] Creating layer scale4d_branch2c
I0304 20:19:06.396031 23214 net.cpp:150] Setting up scale4d_branch2c
I0304 20:19:06.396035 23214 net.cpp:157] Top shape: 16 1024 14 14 (3211264)
I0304 20:19:06.396036 23214 net.cpp:165] Memory required for data: 3246587968
I0304 20:19:06.396040 23214 layer_factory.hpp:77] Creating layer res4d
I0304 20:19:06.396044 23214 net.cpp:100] Creating Layer res4d
I0304 20:19:06.396046 23214 net.cpp:434] res4d <- res4c_res4c_relu_0_split_1
I0304 20:19:06.396049 23214 net.cpp:434] res4d <- res4d_branch2c
I0304 20:19:06.396052 23214 net.cpp:408] res4d -> res4d
I0304 20:19:06.396073 23214 net.cpp:150] Setting up res4d
I0304 20:19:06.396077 23214 net.cpp:157] Top shape: 16 1024 14 14 (3211264)
I0304 20:19:06.396078 23214 net.cpp:165] Memory required for data: 3259433024
I0304 20:19:06.396080 23214 layer_factory.hpp:77] Creating layer res4d_relu
I0304 20:19:06.396085 23214 net.cpp:100] Creating Layer res4d_relu
I0304 20:19:06.396086 23214 net.cpp:434] res4d_relu <- res4d
I0304 20:19:06.396090 23214 net.cpp:395] res4d_relu -> res4d (in-place)
I0304 20:19:06.396201 23214 net.cpp:150] Setting up res4d_relu
I0304 20:19:06.396206 23214 net.cpp:157] Top shape: 16 1024 14 14 (3211264)
I0304 20:19:06.396209 23214 net.cpp:165] Memory required for data: 3272278080
I0304 20:19:06.396210 23214 layer_factory.hpp:77] Creating layer res4d_res4d_relu_0_split
I0304 20:19:06.396214 23214 net.cpp:100] Creating Layer res4d_res4d_relu_0_split
I0304 20:19:06.396216 23214 net.cpp:434] res4d_res4d_relu_0_split <- res4d
I0304 20:19:06.396219 23214 net.cpp:408] res4d_res4d_relu_0_split -> res4d_res4d_relu_0_split_0
I0304 20:19:06.396224 23214 net.cpp:408] res4d_res4d_relu_0_split -> res4d_res4d_relu_0_split_1
I0304 20:19:06.396252 23214 net.cpp:150] Setting up res4d_res4d_relu_0_split
I0304 20:19:06.396255 23214 net.cpp:157] Top shape: 16 1024 14 14 (3211264)
I0304 20:19:06.396258 23214 net.cpp:157] Top shape: 16 1024 14 14 (3211264)
I0304 20:19:06.396260 23214 net.cpp:165] Memory required for data: 3297968192
I0304 20:19:06.396261 23214 layer_factory.hpp:77] Creating layer res4e_branch2a
I0304 20:19:06.396265 23214 net.cpp:100] Creating Layer res4e_branch2a
I0304 20:19:06.396267 23214 net.cpp:434] res4e_branch2a <- res4d_res4d_relu_0_split_0
I0304 20:19:06.396271 23214 net.cpp:408] res4e_branch2a -> res4e_branch2a
I0304 20:19:06.397256 23214 net.cpp:150] Setting up res4e_branch2a
I0304 20:19:06.397264 23214 net.cpp:157] Top shape: 16 256 14 14 (802816)
I0304 20:19:06.397266 23214 net.cpp:165] Memory required for data: 3301179456
I0304 20:19:06.397270 23214 layer_factory.hpp:77] Creating layer bn4e_branch2a
I0304 20:19:06.397274 23214 net.cpp:100] Creating Layer bn4e_branch2a
I0304 20:19:06.397276 23214 net.cpp:434] bn4e_branch2a <- res4e_branch2a
I0304 20:19:06.397279 23214 net.cpp:395] bn4e_branch2a -> res4e_branch2a (in-place)
I0304 20:19:06.397421 23214 net.cpp:150] Setting up bn4e_branch2a
I0304 20:19:06.397425 23214 net.cpp:157] Top shape: 16 256 14 14 (802816)
I0304 20:19:06.397428 23214 net.cpp:165] Memory required for data: 3304390720
I0304 20:19:06.397433 23214 layer_factory.hpp:77] Creating layer scale4e_branch2a
I0304 20:19:06.397436 23214 net.cpp:100] Creating Layer scale4e_branch2a
I0304 20:19:06.397439 23214 net.cpp:434] scale4e_branch2a <- res4e_branch2a
I0304 20:19:06.397440 23214 net.cpp:395] scale4e_branch2a -> res4e_branch2a (in-place)
I0304 20:19:06.397469 23214 layer_factory.hpp:77] Creating layer scale4e_branch2a
I0304 20:19:06.397548 23214 net.cpp:150] Setting up scale4e_branch2a
I0304 20:19:06.397552 23214 net.cpp:157] Top shape: 16 256 14 14 (802816)
I0304 20:19:06.397554 23214 net.cpp:165] Memory required for data: 3307601984
I0304 20:19:06.397557 23214 layer_factory.hpp:77] Creating layer res4e_branch2a_relu
I0304 20:19:06.397562 23214 net.cpp:100] Creating Layer res4e_branch2a_relu
I0304 20:19:06.397563 23214 net.cpp:434] res4e_branch2a_relu <- res4e_branch2a
I0304 20:19:06.397565 23214 net.cpp:395] res4e_branch2a_relu -> res4e_branch2a (in-place)
I0304 20:19:06.397766 23214 net.cpp:150] Setting up res4e_branch2a_relu
I0304 20:19:06.397773 23214 net.cpp:157] Top shape: 16 256 14 14 (802816)
I0304 20:19:06.397776 23214 net.cpp:165] Memory required for data: 3310813248
I0304 20:19:06.397778 23214 layer_factory.hpp:77] Creating layer res4e_branch2b
I0304 20:19:06.397783 23214 net.cpp:100] Creating Layer res4e_branch2b
I0304 20:19:06.397784 23214 net.cpp:434] res4e_branch2b <- res4e_branch2a
I0304 20:19:06.397789 23214 net.cpp:408] res4e_branch2b -> res4e_branch2b
I0304 20:19:06.399104 23214 net.cpp:150] Setting up res4e_branch2b
I0304 20:19:06.399112 23214 net.cpp:157] Top shape: 16 256 14 14 (802816)
I0304 20:19:06.399114 23214 net.cpp:165] Memory required for data: 3314024512
I0304 20:19:06.399118 23214 layer_factory.hpp:77] Creating layer bn4e_branch2b
I0304 20:19:06.399121 23214 net.cpp:100] Creating Layer bn4e_branch2b
I0304 20:19:06.399124 23214 net.cpp:434] bn4e_branch2b <- res4e_branch2b
I0304 20:19:06.399127 23214 net.cpp:395] bn4e_branch2b -> res4e_branch2b (in-place)
I0304 20:19:06.399271 23214 net.cpp:150] Setting up bn4e_branch2b
I0304 20:19:06.399276 23214 net.cpp:157] Top shape: 16 256 14 14 (802816)
I0304 20:19:06.399277 23214 net.cpp:165] Memory required for data: 3317235776
I0304 20:19:06.399281 23214 layer_factory.hpp:77] Creating layer scale4e_branch2b
I0304 20:19:06.399286 23214 net.cpp:100] Creating Layer scale4e_branch2b
I0304 20:19:06.399287 23214 net.cpp:434] scale4e_branch2b <- res4e_branch2b
I0304 20:19:06.399289 23214 net.cpp:395] scale4e_branch2b -> res4e_branch2b (in-place)
I0304 20:19:06.399318 23214 layer_factory.hpp:77] Creating layer scale4e_branch2b
I0304 20:19:06.399399 23214 net.cpp:150] Setting up scale4e_branch2b
I0304 20:19:06.399402 23214 net.cpp:157] Top shape: 16 256 14 14 (802816)
I0304 20:19:06.399405 23214 net.cpp:165] Memory required for data: 3320447040
I0304 20:19:06.399408 23214 layer_factory.hpp:77] Creating layer res4e_branch2b_relu
I0304 20:19:06.399411 23214 net.cpp:100] Creating Layer res4e_branch2b_relu
I0304 20:19:06.399413 23214 net.cpp:434] res4e_branch2b_relu <- res4e_branch2b
I0304 20:19:06.399416 23214 net.cpp:395] res4e_branch2b_relu -> res4e_branch2b (in-place)
I0304 20:19:06.399619 23214 net.cpp:150] Setting up res4e_branch2b_relu
I0304 20:19:06.399627 23214 net.cpp:157] Top shape: 16 256 14 14 (802816)
I0304 20:19:06.399629 23214 net.cpp:165] Memory required for data: 3323658304
I0304 20:19:06.399631 23214 layer_factory.hpp:77] Creating layer res4e_branch2c
I0304 20:19:06.399636 23214 net.cpp:100] Creating Layer res4e_branch2c
I0304 20:19:06.399637 23214 net.cpp:434] res4e_branch2c <- res4e_branch2b
I0304 20:19:06.399641 23214 net.cpp:408] res4e_branch2c -> res4e_branch2c
I0304 20:19:06.400648 23214 net.cpp:150] Setting up res4e_branch2c
I0304 20:19:06.400656 23214 net.cpp:157] Top shape: 16 1024 14 14 (3211264)
I0304 20:19:06.400658 23214 net.cpp:165] Memory required for data: 3336503360
I0304 20:19:06.400661 23214 layer_factory.hpp:77] Creating layer bn4e_branch2c
I0304 20:19:06.400665 23214 net.cpp:100] Creating Layer bn4e_branch2c
I0304 20:19:06.400668 23214 net.cpp:434] bn4e_branch2c <- res4e_branch2c
I0304 20:19:06.400671 23214 net.cpp:395] bn4e_branch2c -> res4e_branch2c (in-place)
I0304 20:19:06.400820 23214 net.cpp:150] Setting up bn4e_branch2c
I0304 20:19:06.400825 23214 net.cpp:157] Top shape: 16 1024 14 14 (3211264)
I0304 20:19:06.400826 23214 net.cpp:165] Memory required for data: 3349348416
I0304 20:19:06.400831 23214 layer_factory.hpp:77] Creating layer scale4e_branch2c
I0304 20:19:06.400835 23214 net.cpp:100] Creating Layer scale4e_branch2c
I0304 20:19:06.400836 23214 net.cpp:434] scale4e_branch2c <- res4e_branch2c
I0304 20:19:06.400840 23214 net.cpp:395] scale4e_branch2c -> res4e_branch2c (in-place)
I0304 20:19:06.400866 23214 layer_factory.hpp:77] Creating layer scale4e_branch2c
I0304 20:19:06.400949 23214 net.cpp:150] Setting up scale4e_branch2c
I0304 20:19:06.400952 23214 net.cpp:157] Top shape: 16 1024 14 14 (3211264)
I0304 20:19:06.400954 23214 net.cpp:165] Memory required for data: 3362193472
I0304 20:19:06.400959 23214 layer_factory.hpp:77] Creating layer res4e
I0304 20:19:06.400961 23214 net.cpp:100] Creating Layer res4e
I0304 20:19:06.400964 23214 net.cpp:434] res4e <- res4d_res4d_relu_0_split_1
I0304 20:19:06.400966 23214 net.cpp:434] res4e <- res4e_branch2c
I0304 20:19:06.400969 23214 net.cpp:408] res4e -> res4e
I0304 20:19:06.400987 23214 net.cpp:150] Setting up res4e
I0304 20:19:06.400990 23214 net.cpp:157] Top shape: 16 1024 14 14 (3211264)
I0304 20:19:06.400992 23214 net.cpp:165] Memory required for data: 3375038528
I0304 20:19:06.400995 23214 layer_factory.hpp:77] Creating layer res4e_relu
I0304 20:19:06.400997 23214 net.cpp:100] Creating Layer res4e_relu
I0304 20:19:06.401000 23214 net.cpp:434] res4e_relu <- res4e
I0304 20:19:06.401002 23214 net.cpp:395] res4e_relu -> res4e (in-place)
I0304 20:19:06.401116 23214 net.cpp:150] Setting up res4e_relu
I0304 20:19:06.401121 23214 net.cpp:157] Top shape: 16 1024 14 14 (3211264)
I0304 20:19:06.401124 23214 net.cpp:165] Memory required for data: 3387883584
I0304 20:19:06.401125 23214 layer_factory.hpp:77] Creating layer res4e_res4e_relu_0_split
I0304 20:19:06.401129 23214 net.cpp:100] Creating Layer res4e_res4e_relu_0_split
I0304 20:19:06.401131 23214 net.cpp:434] res4e_res4e_relu_0_split <- res4e
I0304 20:19:06.401134 23214 net.cpp:408] res4e_res4e_relu_0_split -> res4e_res4e_relu_0_split_0
I0304 20:19:06.401139 23214 net.cpp:408] res4e_res4e_relu_0_split -> res4e_res4e_relu_0_split_1
I0304 20:19:06.401167 23214 net.cpp:150] Setting up res4e_res4e_relu_0_split
I0304 20:19:06.401171 23214 net.cpp:157] Top shape: 16 1024 14 14 (3211264)
I0304 20:19:06.401173 23214 net.cpp:157] Top shape: 16 1024 14 14 (3211264)
I0304 20:19:06.401175 23214 net.cpp:165] Memory required for data: 3413573696
I0304 20:19:06.401177 23214 layer_factory.hpp:77] Creating layer res4f_branch2a
I0304 20:19:06.401180 23214 net.cpp:100] Creating Layer res4f_branch2a
I0304 20:19:06.401183 23214 net.cpp:434] res4f_branch2a <- res4e_res4e_relu_0_split_0
I0304 20:19:06.401186 23214 net.cpp:408] res4f_branch2a -> res4f_branch2a
I0304 20:19:06.402189 23214 net.cpp:150] Setting up res4f_branch2a
I0304 20:19:06.402196 23214 net.cpp:157] Top shape: 16 256 14 14 (802816)
I0304 20:19:06.402199 23214 net.cpp:165] Memory required for data: 3416784960
I0304 20:19:06.402201 23214 layer_factory.hpp:77] Creating layer bn4f_branch2a
I0304 20:19:06.402205 23214 net.cpp:100] Creating Layer bn4f_branch2a
I0304 20:19:06.402207 23214 net.cpp:434] bn4f_branch2a <- res4f_branch2a
I0304 20:19:06.402210 23214 net.cpp:395] bn4f_branch2a -> res4f_branch2a (in-place)
I0304 20:19:06.402356 23214 net.cpp:150] Setting up bn4f_branch2a
I0304 20:19:06.402360 23214 net.cpp:157] Top shape: 16 256 14 14 (802816)
I0304 20:19:06.402362 23214 net.cpp:165] Memory required for data: 3419996224
I0304 20:19:06.402367 23214 layer_factory.hpp:77] Creating layer scale4f_branch2a
I0304 20:19:06.402370 23214 net.cpp:100] Creating Layer scale4f_branch2a
I0304 20:19:06.402372 23214 net.cpp:434] scale4f_branch2a <- res4f_branch2a
I0304 20:19:06.402374 23214 net.cpp:395] scale4f_branch2a -> res4f_branch2a (in-place)
I0304 20:19:06.402405 23214 layer_factory.hpp:77] Creating layer scale4f_branch2a
I0304 20:19:06.402485 23214 net.cpp:150] Setting up scale4f_branch2a
I0304 20:19:06.402488 23214 net.cpp:157] Top shape: 16 256 14 14 (802816)
I0304 20:19:06.402490 23214 net.cpp:165] Memory required for data: 3423207488
I0304 20:19:06.402494 23214 layer_factory.hpp:77] Creating layer res4f_branch2a_relu
I0304 20:19:06.402498 23214 net.cpp:100] Creating Layer res4f_branch2a_relu
I0304 20:19:06.402499 23214 net.cpp:434] res4f_branch2a_relu <- res4f_branch2a
I0304 20:19:06.402503 23214 net.cpp:395] res4f_branch2a_relu -> res4f_branch2a (in-place)
I0304 20:19:06.402707 23214 net.cpp:150] Setting up res4f_branch2a_relu
I0304 20:19:06.402714 23214 net.cpp:157] Top shape: 16 256 14 14 (802816)
I0304 20:19:06.402716 23214 net.cpp:165] Memory required for data: 3426418752
I0304 20:19:06.402719 23214 layer_factory.hpp:77] Creating layer res4f_branch2b
I0304 20:19:06.402724 23214 net.cpp:100] Creating Layer res4f_branch2b
I0304 20:19:06.402725 23214 net.cpp:434] res4f_branch2b <- res4f_branch2a
I0304 20:19:06.402729 23214 net.cpp:408] res4f_branch2b -> res4f_branch2b
I0304 20:19:06.404083 23214 net.cpp:150] Setting up res4f_branch2b
I0304 20:19:06.404091 23214 net.cpp:157] Top shape: 16 256 14 14 (802816)
I0304 20:19:06.404094 23214 net.cpp:165] Memory required for data: 3429630016
I0304 20:19:06.404098 23214 layer_factory.hpp:77] Creating layer bn4f_branch2b
I0304 20:19:06.404101 23214 net.cpp:100] Creating Layer bn4f_branch2b
I0304 20:19:06.404103 23214 net.cpp:434] bn4f_branch2b <- res4f_branch2b
I0304 20:19:06.404108 23214 net.cpp:395] bn4f_branch2b -> res4f_branch2b (in-place)
I0304 20:19:06.404260 23214 net.cpp:150] Setting up bn4f_branch2b
I0304 20:19:06.404264 23214 net.cpp:157] Top shape: 16 256 14 14 (802816)
I0304 20:19:06.404265 23214 net.cpp:165] Memory required for data: 3432841280
I0304 20:19:06.404270 23214 layer_factory.hpp:77] Creating layer scale4f_branch2b
I0304 20:19:06.404273 23214 net.cpp:100] Creating Layer scale4f_branch2b
I0304 20:19:06.404275 23214 net.cpp:434] scale4f_branch2b <- res4f_branch2b
I0304 20:19:06.404278 23214 net.cpp:395] scale4f_branch2b -> res4f_branch2b (in-place)
I0304 20:19:06.404309 23214 layer_factory.hpp:77] Creating layer scale4f_branch2b
I0304 20:19:06.404392 23214 net.cpp:150] Setting up scale4f_branch2b
I0304 20:19:06.404395 23214 net.cpp:157] Top shape: 16 256 14 14 (802816)
I0304 20:19:06.404397 23214 net.cpp:165] Memory required for data: 3436052544
I0304 20:19:06.404402 23214 layer_factory.hpp:77] Creating layer res4f_branch2b_relu
I0304 20:19:06.404405 23214 net.cpp:100] Creating Layer res4f_branch2b_relu
I0304 20:19:06.404407 23214 net.cpp:434] res4f_branch2b_relu <- res4f_branch2b
I0304 20:19:06.404409 23214 net.cpp:395] res4f_branch2b_relu -> res4f_branch2b (in-place)
I0304 20:19:06.404628 23214 net.cpp:150] Setting up res4f_branch2b_relu
I0304 20:19:06.404635 23214 net.cpp:157] Top shape: 16 256 14 14 (802816)
I0304 20:19:06.404637 23214 net.cpp:165] Memory required for data: 3439263808
I0304 20:19:06.404639 23214 layer_factory.hpp:77] Creating layer res4f_branch2c
I0304 20:19:06.404644 23214 net.cpp:100] Creating Layer res4f_branch2c
I0304 20:19:06.404647 23214 net.cpp:434] res4f_branch2c <- res4f_branch2b
I0304 20:19:06.404650 23214 net.cpp:408] res4f_branch2c -> res4f_branch2c
I0304 20:19:06.405666 23214 net.cpp:150] Setting up res4f_branch2c
I0304 20:19:06.405674 23214 net.cpp:157] Top shape: 16 1024 14 14 (3211264)
I0304 20:19:06.405676 23214 net.cpp:165] Memory required for data: 3452108864
I0304 20:19:06.405679 23214 layer_factory.hpp:77] Creating layer bn4f_branch2c
I0304 20:19:06.405684 23214 net.cpp:100] Creating Layer bn4f_branch2c
I0304 20:19:06.405686 23214 net.cpp:434] bn4f_branch2c <- res4f_branch2c
I0304 20:19:06.405689 23214 net.cpp:395] bn4f_branch2c -> res4f_branch2c (in-place)
I0304 20:19:06.405843 23214 net.cpp:150] Setting up bn4f_branch2c
I0304 20:19:06.405846 23214 net.cpp:157] Top shape: 16 1024 14 14 (3211264)
I0304 20:19:06.405848 23214 net.cpp:165] Memory required for data: 3464953920
I0304 20:19:06.405874 23214 layer_factory.hpp:77] Creating layer scale4f_branch2c
I0304 20:19:06.405877 23214 net.cpp:100] Creating Layer scale4f_branch2c
I0304 20:19:06.405879 23214 net.cpp:434] scale4f_branch2c <- res4f_branch2c
I0304 20:19:06.405882 23214 net.cpp:395] scale4f_branch2c -> res4f_branch2c (in-place)
I0304 20:19:06.405912 23214 layer_factory.hpp:77] Creating layer scale4f_branch2c
I0304 20:19:06.405999 23214 net.cpp:150] Setting up scale4f_branch2c
I0304 20:19:06.406003 23214 net.cpp:157] Top shape: 16 1024 14 14 (3211264)
I0304 20:19:06.406005 23214 net.cpp:165] Memory required for data: 3477798976
I0304 20:19:06.406008 23214 layer_factory.hpp:77] Creating layer res4f
I0304 20:19:06.406013 23214 net.cpp:100] Creating Layer res4f
I0304 20:19:06.406014 23214 net.cpp:434] res4f <- res4e_res4e_relu_0_split_1
I0304 20:19:06.406018 23214 net.cpp:434] res4f <- res4f_branch2c
I0304 20:19:06.406019 23214 net.cpp:408] res4f -> res4f
I0304 20:19:06.406038 23214 net.cpp:150] Setting up res4f
I0304 20:19:06.406041 23214 net.cpp:157] Top shape: 16 1024 14 14 (3211264)
I0304 20:19:06.406044 23214 net.cpp:165] Memory required for data: 3490644032
I0304 20:19:06.406045 23214 layer_factory.hpp:77] Creating layer res4f_relu
I0304 20:19:06.406049 23214 net.cpp:100] Creating Layer res4f_relu
I0304 20:19:06.406049 23214 net.cpp:434] res4f_relu <- res4f
I0304 20:19:06.406054 23214 net.cpp:395] res4f_relu -> res4f (in-place)
I0304 20:19:06.406169 23214 net.cpp:150] Setting up res4f_relu
I0304 20:19:06.406174 23214 net.cpp:157] Top shape: 16 1024 14 14 (3211264)
I0304 20:19:06.406177 23214 net.cpp:165] Memory required for data: 3503489088
I0304 20:19:06.406178 23214 layer_factory.hpp:77] Creating layer res4f_res4f_relu_0_split
I0304 20:19:06.406183 23214 net.cpp:100] Creating Layer res4f_res4f_relu_0_split
I0304 20:19:06.406184 23214 net.cpp:434] res4f_res4f_relu_0_split <- res4f
I0304 20:19:06.406188 23214 net.cpp:408] res4f_res4f_relu_0_split -> res4f_res4f_relu_0_split_0
I0304 20:19:06.406190 23214 net.cpp:408] res4f_res4f_relu_0_split -> res4f_res4f_relu_0_split_1
I0304 20:19:06.406221 23214 net.cpp:150] Setting up res4f_res4f_relu_0_split
I0304 20:19:06.406225 23214 net.cpp:157] Top shape: 16 1024 14 14 (3211264)
I0304 20:19:06.406227 23214 net.cpp:157] Top shape: 16 1024 14 14 (3211264)
I0304 20:19:06.406229 23214 net.cpp:165] Memory required for data: 3529179200
I0304 20:19:06.406231 23214 layer_factory.hpp:77] Creating layer res5a_branch1
I0304 20:19:06.406235 23214 net.cpp:100] Creating Layer res5a_branch1
I0304 20:19:06.406237 23214 net.cpp:434] res5a_branch1 <- res4f_res4f_relu_0_split_0
I0304 20:19:06.406240 23214 net.cpp:408] res5a_branch1 -> res5a_branch1
I0304 20:19:06.409559 23214 net.cpp:150] Setting up res5a_branch1
I0304 20:19:06.409582 23214 net.cpp:157] Top shape: 16 2048 7 7 (1605632)
I0304 20:19:06.409584 23214 net.cpp:165] Memory required for data: 3535601728
I0304 20:19:06.409590 23214 layer_factory.hpp:77] Creating layer bn5a_branch1
I0304 20:19:06.409598 23214 net.cpp:100] Creating Layer bn5a_branch1
I0304 20:19:06.409601 23214 net.cpp:434] bn5a_branch1 <- res5a_branch1
I0304 20:19:06.409605 23214 net.cpp:395] bn5a_branch1 -> res5a_branch1 (in-place)
I0304 20:19:06.409777 23214 net.cpp:150] Setting up bn5a_branch1
I0304 20:19:06.409781 23214 net.cpp:157] Top shape: 16 2048 7 7 (1605632)
I0304 20:19:06.409782 23214 net.cpp:165] Memory required for data: 3542024256
I0304 20:19:06.409788 23214 layer_factory.hpp:77] Creating layer scale5a_branch1
I0304 20:19:06.409793 23214 net.cpp:100] Creating Layer scale5a_branch1
I0304 20:19:06.409795 23214 net.cpp:434] scale5a_branch1 <- res5a_branch1
I0304 20:19:06.409798 23214 net.cpp:395] scale5a_branch1 -> res5a_branch1 (in-place)
I0304 20:19:06.409833 23214 layer_factory.hpp:77] Creating layer scale5a_branch1
I0304 20:19:06.409922 23214 net.cpp:150] Setting up scale5a_branch1
I0304 20:19:06.409926 23214 net.cpp:157] Top shape: 16 2048 7 7 (1605632)
I0304 20:19:06.409929 23214 net.cpp:165] Memory required for data: 3548446784
I0304 20:19:06.409932 23214 layer_factory.hpp:77] Creating layer res5a_branch2a
I0304 20:19:06.409939 23214 net.cpp:100] Creating Layer res5a_branch2a
I0304 20:19:06.409941 23214 net.cpp:434] res5a_branch2a <- res4f_res4f_relu_0_split_1
I0304 20:19:06.409945 23214 net.cpp:408] res5a_branch2a -> res5a_branch2a
I0304 20:19:06.411319 23214 net.cpp:150] Setting up res5a_branch2a
I0304 20:19:06.411327 23214 net.cpp:157] Top shape: 16 512 7 7 (401408)
I0304 20:19:06.411329 23214 net.cpp:165] Memory required for data: 3550052416
I0304 20:19:06.411332 23214 layer_factory.hpp:77] Creating layer bn5a_branch2a
I0304 20:19:06.411336 23214 net.cpp:100] Creating Layer bn5a_branch2a
I0304 20:19:06.411339 23214 net.cpp:434] bn5a_branch2a <- res5a_branch2a
I0304 20:19:06.411341 23214 net.cpp:395] bn5a_branch2a -> res5a_branch2a (in-place)
I0304 20:19:06.411497 23214 net.cpp:150] Setting up bn5a_branch2a
I0304 20:19:06.411501 23214 net.cpp:157] Top shape: 16 512 7 7 (401408)
I0304 20:19:06.411504 23214 net.cpp:165] Memory required for data: 3551658048
I0304 20:19:06.411509 23214 layer_factory.hpp:77] Creating layer scale5a_branch2a
I0304 20:19:06.411511 23214 net.cpp:100] Creating Layer scale5a_branch2a
I0304 20:19:06.411514 23214 net.cpp:434] scale5a_branch2a <- res5a_branch2a
I0304 20:19:06.411516 23214 net.cpp:395] scale5a_branch2a -> res5a_branch2a (in-place)
I0304 20:19:06.411543 23214 layer_factory.hpp:77] Creating layer scale5a_branch2a
I0304 20:19:06.411631 23214 net.cpp:150] Setting up scale5a_branch2a
I0304 20:19:06.411635 23214 net.cpp:157] Top shape: 16 512 7 7 (401408)
I0304 20:19:06.411638 23214 net.cpp:165] Memory required for data: 3553263680
I0304 20:19:06.411640 23214 layer_factory.hpp:77] Creating layer res5a_branch2a_relu
I0304 20:19:06.411644 23214 net.cpp:100] Creating Layer res5a_branch2a_relu
I0304 20:19:06.411646 23214 net.cpp:434] res5a_branch2a_relu <- res5a_branch2a
I0304 20:19:06.411649 23214 net.cpp:395] res5a_branch2a_relu -> res5a_branch2a (in-place)
I0304 20:19:06.411767 23214 net.cpp:150] Setting up res5a_branch2a_relu
I0304 20:19:06.411772 23214 net.cpp:157] Top shape: 16 512 7 7 (401408)
I0304 20:19:06.411773 23214 net.cpp:165] Memory required for data: 3554869312
I0304 20:19:06.411775 23214 layer_factory.hpp:77] Creating layer res5a_branch2b
I0304 20:19:06.411780 23214 net.cpp:100] Creating Layer res5a_branch2b
I0304 20:19:06.411783 23214 net.cpp:434] res5a_branch2b <- res5a_branch2a
I0304 20:19:06.411787 23214 net.cpp:408] res5a_branch2b -> res5a_branch2b
I0304 20:19:06.415664 23214 net.cpp:150] Setting up res5a_branch2b
I0304 20:19:06.415689 23214 net.cpp:157] Top shape: 16 512 7 7 (401408)
I0304 20:19:06.415691 23214 net.cpp:165] Memory required for data: 3556474944
I0304 20:19:06.415698 23214 layer_factory.hpp:77] Creating layer bn5a_branch2b
I0304 20:19:06.415705 23214 net.cpp:100] Creating Layer bn5a_branch2b
I0304 20:19:06.415709 23214 net.cpp:434] bn5a_branch2b <- res5a_branch2b
I0304 20:19:06.415714 23214 net.cpp:395] bn5a_branch2b -> res5a_branch2b (in-place)
I0304 20:19:06.415895 23214 net.cpp:150] Setting up bn5a_branch2b
I0304 20:19:06.415902 23214 net.cpp:157] Top shape: 16 512 7 7 (401408)
I0304 20:19:06.415905 23214 net.cpp:165] Memory required for data: 3558080576
I0304 20:19:06.415912 23214 layer_factory.hpp:77] Creating layer scale5a_branch2b
I0304 20:19:06.415920 23214 net.cpp:100] Creating Layer scale5a_branch2b
I0304 20:19:06.415923 23214 net.cpp:434] scale5a_branch2b <- res5a_branch2b
I0304 20:19:06.415927 23214 net.cpp:395] scale5a_branch2b -> res5a_branch2b (in-place)
I0304 20:19:06.415972 23214 layer_factory.hpp:77] Creating layer scale5a_branch2b
I0304 20:19:06.416093 23214 net.cpp:150] Setting up scale5a_branch2b
I0304 20:19:06.416100 23214 net.cpp:157] Top shape: 16 512 7 7 (401408)
I0304 20:19:06.416101 23214 net.cpp:165] Memory required for data: 3559686208
I0304 20:19:06.416105 23214 layer_factory.hpp:77] Creating layer res5a_branch2b_relu
I0304 20:19:06.416108 23214 net.cpp:100] Creating Layer res5a_branch2b_relu
I0304 20:19:06.416110 23214 net.cpp:434] res5a_branch2b_relu <- res5a_branch2b
I0304 20:19:06.416115 23214 net.cpp:395] res5a_branch2b_relu -> res5a_branch2b (in-place)
I0304 20:19:06.416332 23214 net.cpp:150] Setting up res5a_branch2b_relu
I0304 20:19:06.416337 23214 net.cpp:157] Top shape: 16 512 7 7 (401408)
I0304 20:19:06.416339 23214 net.cpp:165] Memory required for data: 3561291840
I0304 20:19:06.416342 23214 layer_factory.hpp:77] Creating layer res5a_branch2c
I0304 20:19:06.416348 23214 net.cpp:100] Creating Layer res5a_branch2c
I0304 20:19:06.416350 23214 net.cpp:434] res5a_branch2c <- res5a_branch2b
I0304 20:19:06.416353 23214 net.cpp:408] res5a_branch2c -> res5a_branch2c
I0304 20:19:06.418081 23214 net.cpp:150] Setting up res5a_branch2c
I0304 20:19:06.418089 23214 net.cpp:157] Top shape: 16 2048 7 7 (1605632)
I0304 20:19:06.418092 23214 net.cpp:165] Memory required for data: 3567714368
I0304 20:19:06.418094 23214 layer_factory.hpp:77] Creating layer bn5a_branch2c
I0304 20:19:06.418099 23214 net.cpp:100] Creating Layer bn5a_branch2c
I0304 20:19:06.418102 23214 net.cpp:434] bn5a_branch2c <- res5a_branch2c
I0304 20:19:06.418105 23214 net.cpp:395] bn5a_branch2c -> res5a_branch2c (in-place)
I0304 20:19:06.418269 23214 net.cpp:150] Setting up bn5a_branch2c
I0304 20:19:06.418273 23214 net.cpp:157] Top shape: 16 2048 7 7 (1605632)
I0304 20:19:06.418274 23214 net.cpp:165] Memory required for data: 3574136896
I0304 20:19:06.418279 23214 layer_factory.hpp:77] Creating layer scale5a_branch2c
I0304 20:19:06.418284 23214 net.cpp:100] Creating Layer scale5a_branch2c
I0304 20:19:06.418287 23214 net.cpp:434] scale5a_branch2c <- res5a_branch2c
I0304 20:19:06.418288 23214 net.cpp:395] scale5a_branch2c -> res5a_branch2c (in-place)
I0304 20:19:06.418318 23214 layer_factory.hpp:77] Creating layer scale5a_branch2c
I0304 20:19:06.418411 23214 net.cpp:150] Setting up scale5a_branch2c
I0304 20:19:06.418414 23214 net.cpp:157] Top shape: 16 2048 7 7 (1605632)
I0304 20:19:06.418416 23214 net.cpp:165] Memory required for data: 3580559424
I0304 20:19:06.418421 23214 layer_factory.hpp:77] Creating layer res5a
I0304 20:19:06.418423 23214 net.cpp:100] Creating Layer res5a
I0304 20:19:06.418426 23214 net.cpp:434] res5a <- res5a_branch1
I0304 20:19:06.418428 23214 net.cpp:434] res5a <- res5a_branch2c
I0304 20:19:06.418431 23214 net.cpp:408] res5a -> res5a
I0304 20:19:06.418452 23214 net.cpp:150] Setting up res5a
I0304 20:19:06.418455 23214 net.cpp:157] Top shape: 16 2048 7 7 (1605632)
I0304 20:19:06.418457 23214 net.cpp:165] Memory required for data: 3586981952
I0304 20:19:06.418459 23214 layer_factory.hpp:77] Creating layer res5a_relu
I0304 20:19:06.418462 23214 net.cpp:100] Creating Layer res5a_relu
I0304 20:19:06.418464 23214 net.cpp:434] res5a_relu <- res5a
I0304 20:19:06.418467 23214 net.cpp:395] res5a_relu -> res5a (in-place)
I0304 20:19:06.418673 23214 net.cpp:150] Setting up res5a_relu
I0304 20:19:06.418680 23214 net.cpp:157] Top shape: 16 2048 7 7 (1605632)
I0304 20:19:06.418682 23214 net.cpp:165] Memory required for data: 3593404480
I0304 20:19:06.418684 23214 layer_factory.hpp:77] Creating layer res5a_res5a_relu_0_split
I0304 20:19:06.418689 23214 net.cpp:100] Creating Layer res5a_res5a_relu_0_split
I0304 20:19:06.418691 23214 net.cpp:434] res5a_res5a_relu_0_split <- res5a
I0304 20:19:06.418694 23214 net.cpp:408] res5a_res5a_relu_0_split -> res5a_res5a_relu_0_split_0
I0304 20:19:06.418699 23214 net.cpp:408] res5a_res5a_relu_0_split -> res5a_res5a_relu_0_split_1
I0304 20:19:06.418732 23214 net.cpp:150] Setting up res5a_res5a_relu_0_split
I0304 20:19:06.418735 23214 net.cpp:157] Top shape: 16 2048 7 7 (1605632)
I0304 20:19:06.418737 23214 net.cpp:157] Top shape: 16 2048 7 7 (1605632)
I0304 20:19:06.418740 23214 net.cpp:165] Memory required for data: 3606249536
I0304 20:19:06.418741 23214 layer_factory.hpp:77] Creating layer res5b_branch2a
I0304 20:19:06.418746 23214 net.cpp:100] Creating Layer res5b_branch2a
I0304 20:19:06.418748 23214 net.cpp:434] res5b_branch2a <- res5a_res5a_relu_0_split_0
I0304 20:19:06.418751 23214 net.cpp:408] res5b_branch2a -> res5b_branch2a
I0304 20:19:06.420691 23214 net.cpp:150] Setting up res5b_branch2a
I0304 20:19:06.420707 23214 net.cpp:157] Top shape: 16 512 7 7 (401408)
I0304 20:19:06.420709 23214 net.cpp:165] Memory required for data: 3607855168
I0304 20:19:06.420713 23214 layer_factory.hpp:77] Creating layer bn5b_branch2a
I0304 20:19:06.420719 23214 net.cpp:100] Creating Layer bn5b_branch2a
I0304 20:19:06.420722 23214 net.cpp:434] bn5b_branch2a <- res5b_branch2a
I0304 20:19:06.420727 23214 net.cpp:395] bn5b_branch2a -> res5b_branch2a (in-place)
I0304 20:19:06.420893 23214 net.cpp:150] Setting up bn5b_branch2a
I0304 20:19:06.420897 23214 net.cpp:157] Top shape: 16 512 7 7 (401408)
I0304 20:19:06.420899 23214 net.cpp:165] Memory required for data: 3609460800
I0304 20:19:06.420904 23214 layer_factory.hpp:77] Creating layer scale5b_branch2a
I0304 20:19:06.420908 23214 net.cpp:100] Creating Layer scale5b_branch2a
I0304 20:19:06.420910 23214 net.cpp:434] scale5b_branch2a <- res5b_branch2a
I0304 20:19:06.420912 23214 net.cpp:395] scale5b_branch2a -> res5b_branch2a (in-place)
I0304 20:19:06.420946 23214 layer_factory.hpp:77] Creating layer scale5b_branch2a
I0304 20:19:06.421037 23214 net.cpp:150] Setting up scale5b_branch2a
I0304 20:19:06.421041 23214 net.cpp:157] Top shape: 16 512 7 7 (401408)
I0304 20:19:06.421043 23214 net.cpp:165] Memory required for data: 3611066432
I0304 20:19:06.421047 23214 layer_factory.hpp:77] Creating layer res5b_branch2a_relu
I0304 20:19:06.421051 23214 net.cpp:100] Creating Layer res5b_branch2a_relu
I0304 20:19:06.421053 23214 net.cpp:434] res5b_branch2a_relu <- res5b_branch2a
I0304 20:19:06.421056 23214 net.cpp:395] res5b_branch2a_relu -> res5b_branch2a (in-place)
I0304 20:19:06.421175 23214 net.cpp:150] Setting up res5b_branch2a_relu
I0304 20:19:06.421180 23214 net.cpp:157] Top shape: 16 512 7 7 (401408)
I0304 20:19:06.421182 23214 net.cpp:165] Memory required for data: 3612672064
I0304 20:19:06.421185 23214 layer_factory.hpp:77] Creating layer res5b_branch2b
I0304 20:19:06.421190 23214 net.cpp:100] Creating Layer res5b_branch2b
I0304 20:19:06.421191 23214 net.cpp:434] res5b_branch2b <- res5b_branch2a
I0304 20:19:06.421195 23214 net.cpp:408] res5b_branch2b -> res5b_branch2b
I0304 20:19:06.425290 23214 net.cpp:150] Setting up res5b_branch2b
I0304 20:19:06.425313 23214 net.cpp:157] Top shape: 16 512 7 7 (401408)
I0304 20:19:06.425317 23214 net.cpp:165] Memory required for data: 3614277696
I0304 20:19:06.425323 23214 layer_factory.hpp:77] Creating layer bn5b_branch2b
I0304 20:19:06.425330 23214 net.cpp:100] Creating Layer bn5b_branch2b
I0304 20:19:06.425333 23214 net.cpp:434] bn5b_branch2b <- res5b_branch2b
I0304 20:19:06.425338 23214 net.cpp:395] bn5b_branch2b -> res5b_branch2b (in-place)
I0304 20:19:06.425511 23214 net.cpp:150] Setting up bn5b_branch2b
I0304 20:19:06.425515 23214 net.cpp:157] Top shape: 16 512 7 7 (401408)
I0304 20:19:06.425518 23214 net.cpp:165] Memory required for data: 3615883328
I0304 20:19:06.425523 23214 layer_factory.hpp:77] Creating layer scale5b_branch2b
I0304 20:19:06.425528 23214 net.cpp:100] Creating Layer scale5b_branch2b
I0304 20:19:06.425529 23214 net.cpp:434] scale5b_branch2b <- res5b_branch2b
I0304 20:19:06.425532 23214 net.cpp:395] scale5b_branch2b -> res5b_branch2b (in-place)
I0304 20:19:06.425565 23214 layer_factory.hpp:77] Creating layer scale5b_branch2b
I0304 20:19:06.425657 23214 net.cpp:150] Setting up scale5b_branch2b
I0304 20:19:06.425662 23214 net.cpp:157] Top shape: 16 512 7 7 (401408)
I0304 20:19:06.425662 23214 net.cpp:165] Memory required for data: 3617488960
I0304 20:19:06.425667 23214 layer_factory.hpp:77] Creating layer res5b_branch2b_relu
I0304 20:19:06.425670 23214 net.cpp:100] Creating Layer res5b_branch2b_relu
I0304 20:19:06.425673 23214 net.cpp:434] res5b_branch2b_relu <- res5b_branch2b
I0304 20:19:06.425675 23214 net.cpp:395] res5b_branch2b_relu -> res5b_branch2b (in-place)
I0304 20:19:06.425915 23214 net.cpp:150] Setting up res5b_branch2b_relu
I0304 20:19:06.425921 23214 net.cpp:157] Top shape: 16 512 7 7 (401408)
I0304 20:19:06.425923 23214 net.cpp:165] Memory required for data: 3619094592
I0304 20:19:06.425925 23214 layer_factory.hpp:77] Creating layer res5b_branch2c
I0304 20:19:06.425932 23214 net.cpp:100] Creating Layer res5b_branch2c
I0304 20:19:06.425935 23214 net.cpp:434] res5b_branch2c <- res5b_branch2b
I0304 20:19:06.425937 23214 net.cpp:408] res5b_branch2c -> res5b_branch2c
I0304 20:19:06.427839 23214 net.cpp:150] Setting up res5b_branch2c
I0304 20:19:06.427852 23214 net.cpp:157] Top shape: 16 2048 7 7 (1605632)
I0304 20:19:06.427855 23214 net.cpp:165] Memory required for data: 3625517120
I0304 20:19:06.427860 23214 layer_factory.hpp:77] Creating layer bn5b_branch2c
I0304 20:19:06.427865 23214 net.cpp:100] Creating Layer bn5b_branch2c
I0304 20:19:06.427868 23214 net.cpp:434] bn5b_branch2c <- res5b_branch2c
I0304 20:19:06.427872 23214 net.cpp:395] bn5b_branch2c -> res5b_branch2c (in-place)
I0304 20:19:06.428043 23214 net.cpp:150] Setting up bn5b_branch2c
I0304 20:19:06.428047 23214 net.cpp:157] Top shape: 16 2048 7 7 (1605632)
I0304 20:19:06.428050 23214 net.cpp:165] Memory required for data: 3631939648
I0304 20:19:06.428053 23214 layer_factory.hpp:77] Creating layer scale5b_branch2c
I0304 20:19:06.428057 23214 net.cpp:100] Creating Layer scale5b_branch2c
I0304 20:19:06.428059 23214 net.cpp:434] scale5b_branch2c <- res5b_branch2c
I0304 20:19:06.428062 23214 net.cpp:395] scale5b_branch2c -> res5b_branch2c (in-place)
I0304 20:19:06.428115 23214 layer_factory.hpp:77] Creating layer scale5b_branch2c
I0304 20:19:06.428215 23214 net.cpp:150] Setting up scale5b_branch2c
I0304 20:19:06.428220 23214 net.cpp:157] Top shape: 16 2048 7 7 (1605632)
I0304 20:19:06.428221 23214 net.cpp:165] Memory required for data: 3638362176
I0304 20:19:06.428225 23214 layer_factory.hpp:77] Creating layer res5b
I0304 20:19:06.428228 23214 net.cpp:100] Creating Layer res5b
I0304 20:19:06.428231 23214 net.cpp:434] res5b <- res5a_res5a_relu_0_split_1
I0304 20:19:06.428233 23214 net.cpp:434] res5b <- res5b_branch2c
I0304 20:19:06.428236 23214 net.cpp:408] res5b -> res5b
I0304 20:19:06.428257 23214 net.cpp:150] Setting up res5b
I0304 20:19:06.428261 23214 net.cpp:157] Top shape: 16 2048 7 7 (1605632)
I0304 20:19:06.428263 23214 net.cpp:165] Memory required for data: 3644784704
I0304 20:19:06.428266 23214 layer_factory.hpp:77] Creating layer res5b_relu
I0304 20:19:06.428268 23214 net.cpp:100] Creating Layer res5b_relu
I0304 20:19:06.428270 23214 net.cpp:434] res5b_relu <- res5b
I0304 20:19:06.428272 23214 net.cpp:395] res5b_relu -> res5b (in-place)
I0304 20:19:06.428486 23214 net.cpp:150] Setting up res5b_relu
I0304 20:19:06.428493 23214 net.cpp:157] Top shape: 16 2048 7 7 (1605632)
I0304 20:19:06.428494 23214 net.cpp:165] Memory required for data: 3651207232
I0304 20:19:06.428498 23214 layer_factory.hpp:77] Creating layer res5b_res5b_relu_0_split
I0304 20:19:06.428501 23214 net.cpp:100] Creating Layer res5b_res5b_relu_0_split
I0304 20:19:06.428503 23214 net.cpp:434] res5b_res5b_relu_0_split <- res5b
I0304 20:19:06.428506 23214 net.cpp:408] res5b_res5b_relu_0_split -> res5b_res5b_relu_0_split_0
I0304 20:19:06.428510 23214 net.cpp:408] res5b_res5b_relu_0_split -> res5b_res5b_relu_0_split_1
I0304 20:19:06.428546 23214 net.cpp:150] Setting up res5b_res5b_relu_0_split
I0304 20:19:06.428550 23214 net.cpp:157] Top shape: 16 2048 7 7 (1605632)
I0304 20:19:06.428552 23214 net.cpp:157] Top shape: 16 2048 7 7 (1605632)
I0304 20:19:06.428553 23214 net.cpp:165] Memory required for data: 3664052288
I0304 20:19:06.428555 23214 layer_factory.hpp:77] Creating layer res5c_branch2a
I0304 20:19:06.428560 23214 net.cpp:100] Creating Layer res5c_branch2a
I0304 20:19:06.428562 23214 net.cpp:434] res5c_branch2a <- res5b_res5b_relu_0_split_0
I0304 20:19:06.428565 23214 net.cpp:408] res5c_branch2a -> res5c_branch2a
I0304 20:19:06.430454 23214 net.cpp:150] Setting up res5c_branch2a
I0304 20:19:06.430466 23214 net.cpp:157] Top shape: 16 512 7 7 (401408)
I0304 20:19:06.430469 23214 net.cpp:165] Memory required for data: 3665657920
I0304 20:19:06.430472 23214 layer_factory.hpp:77] Creating layer bn5c_branch2a
I0304 20:19:06.430479 23214 net.cpp:100] Creating Layer bn5c_branch2a
I0304 20:19:06.430481 23214 net.cpp:434] bn5c_branch2a <- res5c_branch2a
I0304 20:19:06.430485 23214 net.cpp:395] bn5c_branch2a -> res5c_branch2a (in-place)
I0304 20:19:06.430651 23214 net.cpp:150] Setting up bn5c_branch2a
I0304 20:19:06.430655 23214 net.cpp:157] Top shape: 16 512 7 7 (401408)
I0304 20:19:06.430657 23214 net.cpp:165] Memory required for data: 3667263552
I0304 20:19:06.430662 23214 layer_factory.hpp:77] Creating layer scale5c_branch2a
I0304 20:19:06.430666 23214 net.cpp:100] Creating Layer scale5c_branch2a
I0304 20:19:06.430668 23214 net.cpp:434] scale5c_branch2a <- res5c_branch2a
I0304 20:19:06.430671 23214 net.cpp:395] scale5c_branch2a -> res5c_branch2a (in-place)
I0304 20:19:06.430702 23214 layer_factory.hpp:77] Creating layer scale5c_branch2a
I0304 20:19:06.430796 23214 net.cpp:150] Setting up scale5c_branch2a
I0304 20:19:06.430800 23214 net.cpp:157] Top shape: 16 512 7 7 (401408)
I0304 20:19:06.430802 23214 net.cpp:165] Memory required for data: 3668869184
I0304 20:19:06.430805 23214 layer_factory.hpp:77] Creating layer res5c_branch2a_relu
I0304 20:19:06.430809 23214 net.cpp:100] Creating Layer res5c_branch2a_relu
I0304 20:19:06.430811 23214 net.cpp:434] res5c_branch2a_relu <- res5c_branch2a
I0304 20:19:06.430814 23214 net.cpp:395] res5c_branch2a_relu -> res5c_branch2a (in-place)
I0304 20:19:06.430934 23214 net.cpp:150] Setting up res5c_branch2a_relu
I0304 20:19:06.430939 23214 net.cpp:157] Top shape: 16 512 7 7 (401408)
I0304 20:19:06.430941 23214 net.cpp:165] Memory required for data: 3670474816
I0304 20:19:06.430943 23214 layer_factory.hpp:77] Creating layer res5c_branch2b
I0304 20:19:06.430949 23214 net.cpp:100] Creating Layer res5c_branch2b
I0304 20:19:06.430951 23214 net.cpp:434] res5c_branch2b <- res5c_branch2a
I0304 20:19:06.430954 23214 net.cpp:408] res5c_branch2b -> res5c_branch2b
I0304 20:19:06.434976 23214 net.cpp:150] Setting up res5c_branch2b
I0304 20:19:06.434998 23214 net.cpp:157] Top shape: 16 512 7 7 (401408)
I0304 20:19:06.435001 23214 net.cpp:165] Memory required for data: 3672080448
I0304 20:19:06.435006 23214 layer_factory.hpp:77] Creating layer bn5c_branch2b
I0304 20:19:06.435014 23214 net.cpp:100] Creating Layer bn5c_branch2b
I0304 20:19:06.435019 23214 net.cpp:434] bn5c_branch2b <- res5c_branch2b
I0304 20:19:06.435024 23214 net.cpp:395] bn5c_branch2b -> res5c_branch2b (in-place)
I0304 20:19:06.435202 23214 net.cpp:150] Setting up bn5c_branch2b
I0304 20:19:06.435206 23214 net.cpp:157] Top shape: 16 512 7 7 (401408)
I0304 20:19:06.435209 23214 net.cpp:165] Memory required for data: 3673686080
I0304 20:19:06.435214 23214 layer_factory.hpp:77] Creating layer scale5c_branch2b
I0304 20:19:06.435219 23214 net.cpp:100] Creating Layer scale5c_branch2b
I0304 20:19:06.435220 23214 net.cpp:434] scale5c_branch2b <- res5c_branch2b
I0304 20:19:06.435223 23214 net.cpp:395] scale5c_branch2b -> res5c_branch2b (in-place)
I0304 20:19:06.435256 23214 layer_factory.hpp:77] Creating layer scale5c_branch2b
I0304 20:19:06.435353 23214 net.cpp:150] Setting up scale5c_branch2b
I0304 20:19:06.435356 23214 net.cpp:157] Top shape: 16 512 7 7 (401408)
I0304 20:19:06.435358 23214 net.cpp:165] Memory required for data: 3675291712
I0304 20:19:06.435361 23214 layer_factory.hpp:77] Creating layer res5c_branch2b_relu
I0304 20:19:06.435365 23214 net.cpp:100] Creating Layer res5c_branch2b_relu
I0304 20:19:06.435367 23214 net.cpp:434] res5c_branch2b_relu <- res5c_branch2b
I0304 20:19:06.435369 23214 net.cpp:395] res5c_branch2b_relu -> res5c_branch2b (in-place)
I0304 20:19:06.435592 23214 net.cpp:150] Setting up res5c_branch2b_relu
I0304 20:19:06.435600 23214 net.cpp:157] Top shape: 16 512 7 7 (401408)
I0304 20:19:06.435601 23214 net.cpp:165] Memory required for data: 3676897344
I0304 20:19:06.435603 23214 layer_factory.hpp:77] Creating layer res5c_branch2c
I0304 20:19:06.435609 23214 net.cpp:100] Creating Layer res5c_branch2c
I0304 20:19:06.435611 23214 net.cpp:434] res5c_branch2c <- res5c_branch2b
I0304 20:19:06.435616 23214 net.cpp:408] res5c_branch2c -> res5c_branch2c
I0304 20:19:06.437469 23214 net.cpp:150] Setting up res5c_branch2c
I0304 20:19:06.437476 23214 net.cpp:157] Top shape: 16 2048 7 7 (1605632)
I0304 20:19:06.437479 23214 net.cpp:165] Memory required for data: 3683319872
I0304 20:19:06.437482 23214 layer_factory.hpp:77] Creating layer bn5c_branch2c
I0304 20:19:06.437487 23214 net.cpp:100] Creating Layer bn5c_branch2c
I0304 20:19:06.437489 23214 net.cpp:434] bn5c_branch2c <- res5c_branch2c
I0304 20:19:06.437492 23214 net.cpp:395] bn5c_branch2c -> res5c_branch2c (in-place)
I0304 20:19:06.437662 23214 net.cpp:150] Setting up bn5c_branch2c
I0304 20:19:06.437666 23214 net.cpp:157] Top shape: 16 2048 7 7 (1605632)
I0304 20:19:06.437669 23214 net.cpp:165] Memory required for data: 3689742400
I0304 20:19:06.437674 23214 layer_factory.hpp:77] Creating layer scale5c_branch2c
I0304 20:19:06.437677 23214 net.cpp:100] Creating Layer scale5c_branch2c
I0304 20:19:06.437680 23214 net.cpp:434] scale5c_branch2c <- res5c_branch2c
I0304 20:19:06.437681 23214 net.cpp:395] scale5c_branch2c -> res5c_branch2c (in-place)
I0304 20:19:06.437716 23214 layer_factory.hpp:77] Creating layer scale5c_branch2c
I0304 20:19:06.437815 23214 net.cpp:150] Setting up scale5c_branch2c
I0304 20:19:06.437819 23214 net.cpp:157] Top shape: 16 2048 7 7 (1605632)
I0304 20:19:06.437821 23214 net.cpp:165] Memory required for data: 3696164928
I0304 20:19:06.437825 23214 layer_factory.hpp:77] Creating layer res5c
I0304 20:19:06.437829 23214 net.cpp:100] Creating Layer res5c
I0304 20:19:06.437831 23214 net.cpp:434] res5c <- res5b_res5b_relu_0_split_1
I0304 20:19:06.437834 23214 net.cpp:434] res5c <- res5c_branch2c
I0304 20:19:06.437836 23214 net.cpp:408] res5c -> res5c
I0304 20:19:06.437857 23214 net.cpp:150] Setting up res5c
I0304 20:19:06.437861 23214 net.cpp:157] Top shape: 16 2048 7 7 (1605632)
I0304 20:19:06.437862 23214 net.cpp:165] Memory required for data: 3702587456
I0304 20:19:06.437865 23214 layer_factory.hpp:77] Creating layer res5c_relu
I0304 20:19:06.437867 23214 net.cpp:100] Creating Layer res5c_relu
I0304 20:19:06.437870 23214 net.cpp:434] res5c_relu <- res5c
I0304 20:19:06.437872 23214 net.cpp:395] res5c_relu -> res5c (in-place)
I0304 20:19:06.438084 23214 net.cpp:150] Setting up res5c_relu
I0304 20:19:06.438091 23214 net.cpp:157] Top shape: 16 2048 7 7 (1605632)
I0304 20:19:06.438093 23214 net.cpp:165] Memory required for data: 3709009984
I0304 20:19:06.438096 23214 layer_factory.hpp:77] Creating layer pool5
I0304 20:19:06.438100 23214 net.cpp:100] Creating Layer pool5
I0304 20:19:06.438102 23214 net.cpp:434] pool5 <- res5c
I0304 20:19:06.438107 23214 net.cpp:408] pool5 -> pool5
I0304 20:19:06.438343 23214 net.cpp:150] Setting up pool5
I0304 20:19:06.438349 23214 net.cpp:157] Top shape: 16 2048 1 1 (32768)
I0304 20:19:06.438351 23214 net.cpp:165] Memory required for data: 3709141056
I0304 20:19:06.438354 23214 layer_factory.hpp:77] Creating layer drop5
I0304 20:19:06.438359 23214 net.cpp:100] Creating Layer drop5
I0304 20:19:06.438360 23214 net.cpp:434] drop5 <- pool5
I0304 20:19:06.438364 23214 net.cpp:395] drop5 -> pool5 (in-place)
I0304 20:19:06.438386 23214 net.cpp:150] Setting up drop5
I0304 20:19:06.438390 23214 net.cpp:157] Top shape: 16 2048 1 1 (32768)
I0304 20:19:06.438391 23214 net.cpp:165] Memory required for data: 3709272128
I0304 20:19:06.438393 23214 layer_factory.hpp:77] Creating layer fc8_
I0304 20:19:06.438400 23214 net.cpp:100] Creating Layer fc8_
I0304 20:19:06.438402 23214 net.cpp:434] fc8_ <- pool5
I0304 20:19:06.438405 23214 net.cpp:408] fc8_ -> fc8_
I0304 20:19:06.468564 23214 net.cpp:150] Setting up fc8_
I0304 20:19:06.468583 23214 net.cpp:157] Top shape: 16 730 (11680)
I0304 20:19:06.468586 23214 net.cpp:165] Memory required for data: 3709318848
I0304 20:19:06.468592 23214 layer_factory.hpp:77] Creating layer loss
I0304 20:19:06.468600 23214 net.cpp:100] Creating Layer loss
I0304 20:19:06.468602 23214 net.cpp:434] loss <- fc8_
I0304 20:19:06.468605 23214 net.cpp:434] loss <- label
I0304 20:19:06.468611 23214 net.cpp:408] loss -> loss
I0304 20:19:06.468621 23214 layer_factory.hpp:77] Creating layer loss
…
