…
I0304 20:32:44.808754 23741 net.cpp:58] Initializing net from parameters: 
name: "Res50-IDE"
state {
  phase: TRAIN
  level: 0
  stage: ""
}
layer {
  name: "data"
  type: "ImageData"
  top: "data"
  top: "label"
  include {
    phase: TRAIN
  }
  transform_param {
    mirror: true
    crop_size: 224
    mean_value: 104
    mean_value: 117
    mean_value: 124
  }
  image_data_param {
    source: "evaluation/data/CUHK03/train_cuhk03_labeled.txt"
    batch_size: 16
    shuffle: true
    new_height: 224
    new_width: 224
    is_color: true
    root_folder: "evaluation/data/CUHK03/"
  }
}
layer {
  name: "conv1"
  type: "Convolution"
  bottom: "data"
  top: "conv1"
  convolution_param {
    num_output: 64
    pad: 3
    kernel_size: 7
    stride: 2
  }
}
layer {
  name: "bn_conv1"
  type: "BatchNorm"
  bottom: "conv1"
  top: "conv1"
  batch_norm_param {
    use_global_stats: true
  }
}
layer {
  name: "scale_conv1"
  type: "Scale"
  bottom: "conv1"
  top: "conv1"
  scale_param {
    bias_term: true
  }
}
layer {
  name: "conv1_relu"
  type: "ReLU"
  bottom: "conv1"
  top: "conv1"
}
layer {
  name: "pool1"
  type: "Pooling"
  bottom: "conv1"
  top: "pool1"
  pooling_param {
    pool: MAX
    kernel_size: 3
    stride: 2
  }
}
layer {
  name: "res2a_branch1"
  type: "Convolution"
  bottom: "pool1"
  top: "res2a_branch1"
  convolution_param {
    num_output: 256
    bias_term: false
    pad: 0
    kernel_size: 1
    stride: 1
  }
}
layer {
  name: "bn2a_branch1"
  type: "BatchNorm"
  bottom: "res2a_branch1"
  top: "res2a_branch1"
  batch_norm_param {
    use_global_stats: true
  }
}
layer {
  name: "scale2a_branch1"
  type: "Scale"
  bottom: "res2a_branch1"
  top: "res2a_branch1"
  scale_param {
    bias_term: true
  }
}
layer {
  name: "res2a_branch2a"
  type: "Convolution"
  bottom: "pool1"
  top: "res2a_branch2a"
  convolution_param {
    num_output: 64
    bias_term: false
    pad: 0
    kernel_size: 1
    stride: 1
  }
}
layer {
  name: "bn2a_branch2a"
  type: "BatchNorm"
  bottom: "res2a_branch2a"
  top: "res2a_branch2a"
  batch_norm_param {
    use_global_stats: true
  }
}
layer {
  name: "scale2a_branch2a"
  type: "Scale"
  bottom: "res2a_branch2a"
  top: "res2a_branch2a"
  scale_param {
    bias_term: true
  }
}
layer {
  name: "res2a_branch2a_relu"
  type: "ReLU"
  bottom: "res2a_branch2a"
  top: "res2a_branch2a"
}
layer {
  name: "res2a_branch2b"
  type: "Convolution"
  bottom: "res2a_branch2a"
  top: "res2a_branch2b"
  convolution_param {
    num_output: 64
    bias_term: false
    pad: 1
    kernel_size: 3
    stride: 1
  }
}
layer {
  name: "bn2a_branch2b"
  type: "BatchNorm"
  bottom: "res2a_branch2b"
  top: "res2a_branch2b"
  batch_norm_param {
    use_global_stats: true
  }
}
layer {
  name: "scale2a_branch2b"
  type: "Scale"
  bottom: "res2a_branch2b"
  top: "res2a_branch2b"
  scale_param {
    bias_term: true
  }
}
layer {
  name: "res2a_branch2b_relu"
  type: "ReLU"
  bottom: "res2a_branch2b"
  top: "res2a_branch2b"
}
layer {
  name: "res2a_branch2c"
  type: "Convolution"
  bottom: "res2a_branch2b"
  top: "res2a_branch2c"
  convolution_param {
    num_output: 256
    bias_term: false
    pad: 0
    kernel_size: 1
    stride: 1
  }
}
layer {
  name: "bn2a_branch2c"
  type: "BatchNorm"
  bottom: "res2a_branch2c"
  top: "res2a_branch2c"
  batch_norm_param {
    use_global_stats: true
  }
}
layer {
  name: "scale2a_branch2c"
  type: "Scale"
  bottom: "res2a_branch2c"
  top: "res2a_branch2c"
  scale_param {
    bias_term: true
  }
}
layer {
  name: "res2a"
  type: "Eltwise"
  bottom: "res2a_branch1"
  bottom: "res2a_branch2c"
  top: "res2a"
}
layer {
  name: "res2a_relu"
  type: "ReLU"
  bottom: "res2a"
  top: "res2a"
}
layer {
  name: "res2b_branch2a"
  type: "Convolution"
  bottom: "res2a"
  top: "res2b_branch2a"
  convolution_param {
    num_output: 64
    bias_term: false
    pad: 0
    kernel_size: 1
    stride: 1
  }
}
layer {
  name: "bn2b_branch2a"
  type: "BatchNorm"
  bottom: "res2b_branch2a"
  top: "res2b_branch2a"
  batch_norm_param {
    use_global_stats: true
  }
}
layer {
  name: "scale2b_branch2a"
  type: "Scale"
  bottom: "res2b_branch2a"
  top: "res2b_branch2a"
  scale_param {
    bias_term: true
  }
}
layer {
  name: "res2b_branch2a_relu"
  type: "ReLU"
  bottom: "res2b_branch2a"
  top: "res2b_branch2a"
}
layer {
  name: "res2b_branch2b"
  type: "Convolution"
  bottom: "res2b_branch2a"
  top: "res2b_branch2b"
  convolution_param {
    num_output: 64
    bias_term: false
    pad: 1
    kernel_size: 3
    stride: 1
  }
}
layer {
  name: "bn2b_branch2b"
  type: "BatchNorm"
  bottom: "res2b_branch2b"
  top: "res2b_branch2b"
  batch_norm_param {
    use_global_stats: true
  }
}
layer {
  name: "scale2b_branch2b"
  type: "Scale"
  bottom: "res2b_branch2b"
  top: "res2b_branch2b"
  scale_param {
    bias_term: true
  }
}
layer {
  name: "res2b_branch2b_relu"
  type: "ReLU"
  bottom: "res2b_branch2b"
  top: "res2b_branch2b"
}
layer {
  name: "res2b_branch2c"
  type: "Convolution"
  bottom: "res2b_branch2b"
  top: "res2b_branch2c"
  convolution_param {
    num_output: 256
    bias_term: false
    pad: 0
    kernel_size: 1
    stride: 1
  }
}
layer {
  name: "bn2b_branch2c"
  type: "BatchNorm"
  bottom: "res2b_branch2c"
  top: "res2b_branch2c"
  batch_norm_param {
    use_global_stats: true
  }
}
layer {
  name: "scale2b_branch2c"
  type: "Scale"
  bottom: "res2b_branch2c"
  top: "res2b_branch2c"
  scale_param {
    bias_term: true
  }
}
layer {
  name: "res2b"
  type: "Eltwise"
  bottom: "res2a"
  bottom: "res2b_branch2c"
  top: "res2b"
}
layer {
  name: "res2b_relu"
  type: "ReLU"
  bottom: "res2b"
  top: "res2b"
}
layer {
  name: "res2c_branch2a"
  type: "Convolution"
  bottom: "res2b"
  top: "res2c_branch2a"
  convolution_param {
    num_output: 64
    bias_term: false
    pad: 0
    kernel_size: 1
    stride: 1
  }
}
layer {
  name: "bn2c_branch2a"
  type: "BatchNorm"
  bottom: "res2c_branch2a"
  top: "res2c_branch2a"
  batch_norm_param {
    use_global_stats: true
  }
}
layer {
  name: "scale2c_branch2a"
  type: "Scale"
  bottom: "res2c_branch2a"
  top: "res2c_branch2a"
  scale_param {
    bias_term: true
  }
}
layer {
  name: "res2c_branch2a_relu"
  type: "ReLU"
  bottom: "res2c_branch2a"
  top: "res2c_branch2a"
}
layer {
  name: "res2c_branch2b"
  type: "Convolution"
  bottom: "res2c_branch2a"
  top: "res2c_branch2b"
  convolution_param {
    num_output: 64
    bias_term: false
    pad: 1
    kernel_size: 3
    stride: 1
  }
}
layer {
  name: "bn2c_branch2b"
  type: "BatchNorm"
  bottom: "res2c_branch2b"
  top: "res2c_branch2b"
  batch_norm_param {
    use_global_stats: true
  }
}
layer {
  name: "scale2c_branch2b"
  type: "Scale"
  bottom: "res2c_branch2b"
  top: "res2c_branch2b"
  scale_param {
    bias_term: true
  }
}
layer {
  name: "res2c_branch2b_relu"
  type: "ReLU"
  bottom: "res2c_branch2b"
  top: "res2c_branch2b"
}
layer {
  name: "res2c_branch2c"
  type: "Convolution"
  bottom: "res2c_branch2b"
  top: "res2c_branch2c"
  convolution_param {
    num_output: 256
    bias_term: false
    pad: 0
    kernel_size: 1
    stride: 1
  }
}
layer {
  name: "bn2c_branch2c"
  type: "BatchNorm"
  bottom: "res2c_branch2c"
  top: "res2c_branch2c"
  batch_norm_param {
    use_global_stats: true
  }
}
layer {
  name: "scale2c_branch2c"
  type: "Scale"
  bottom: "res2c_branch2c"
  top: "res2c_branch2c"
  scale_param {
    bias_term: true
  }
}
layer {
  name: "res2c"
  type: "Eltwise"
  bottom: "res2b"
  bottom: "res2c_branch2c"
  top: "res2c"
}
layer {
  name: "res2c_relu"
  type: "ReLU"
  bottom: "res2c"
  top: "res2c"
}
layer {
  name: "res3a_branch1"
  type: "Convolution"
  bottom: "res2c"
  top: "res3a_branch1"
  convolution_param {
    num_output: 512
    bias_term: false
    pad: 0
    kernel_size: 1
    stride: 2
  }
}
layer {
  name: "bn3a_branch1"
  type: "BatchNorm"
  bottom: "res3a_branch1"
  top: "res3a_branch1"
  batch_norm_param {
    use_global_stats: true
  }
}
layer {
  name: "scale3a_branch1"
  type: "Scale"
  bottom: "res3a_branch1"
  top: "res3a_branch1"
  scale_param {
    bias_term: true
  }
}
layer {
  name: "res3a_branch2a"
  type: "Convolution"
  bottom: "res2c"
  top: "res3a_branch2a"
  convolution_param {
    num_output: 128
    bias_term: false
    pad: 0
    kernel_size: 1
    stride: 2
  }
}
layer {
  name: "bn3a_branch2a"
  type: "BatchNorm"
  bottom: "res3a_branch2a"
  top: "res3a_branch2a"
  batch_norm_param {
    use_global_stats: true
  }
}
layer {
  name: "scale3a_branch2a"
  type: "Scale"
  bottom: "res3a_branch2a"
  top: "res3a_branch2a"
  scale_param {
    bias_term: true
  }
}
layer {
  name: "res3a_branch2a_relu"
  type: "ReLU"
  bottom: "res3a_branch2a"
  top: "res3a_branch2a"
}
layer {
  name: "res3a_branch2b"
  type: "Convolution"
  bottom: "res3a_branch2a"
  top: "res3a_branch2b"
  convolution_param {
    num_output: 128
    bias_term: false
    pad: 1
    kernel_size: 3
    stride: 1
  }
}
layer {
  name: "bn3a_branch2b"
  type: "BatchNorm"
  bottom: "res3a_branch2b"
  top: "res3a_branch2b"
  batch_norm_param {
    use_global_stats: true
  }
}
layer {
  name: "scale3a_branch2b"
  type: "Scale"
  bottom: "res3a_branch2b"
  top: "res3a_branch2b"
  scale_param {
    bias_term: true
  }
}
layer {
  name: "res3a_branch2b_relu"
  type: "ReLU"
  bottom: "res3a_branch2b"
  top: "res3a_branch2b"
}
layer {
  name: "res3a_branch2c"
  type: "Convolution"
  bottom: "res3a_branch2b"
  top: "res3a_branch2c"
  convolution_param {
    num_output: 512
    bias_term: false
    pad: 0
    kernel_size: 1
    stride: 1
  }
}
layer {
  name: "bn3a_branch2c"
  type: "BatchNorm"
  bottom: "res3a_branch2c"
  top: "res3a_branch2c"
  batch_norm_param {
    use_global_stats: true
  }
}
layer {
  name: "scale3a_branch2c"
  type: "Scale"
  bottom: "res3a_branch2c"
  top: "res3a_branch2c"
  scale_param {
    bias_term: true
  }
}
layer {
  name: "res3a"
  type: "Eltwise"
  bottom: "res3a_branch1"
  bottom: "res3a_branch2c"
  top: "res3a"
}
layer {
  name: "res3a_relu"
  type: "ReLU"
  bottom: "res3a"
  top: "res3a"
}
layer {
  name: "res3b_branch2a"
  type: "Convolution"
  bottom: "res3a"
  top: "res3b_branch2a"
  convolution_param {
    num_output: 128
    bias_term: false
    pad: 0
    kernel_size: 1
    stride: 1
  }
}
layer {
  name: "bn3b_branch2a"
  type: "BatchNorm"
  bottom: "res3b_branch2a"
  top: "res3b_branch2a"
  batch_norm_param {
    use_global_stats: true
  }
}
layer {
  name: "scale3b_branch2a"
  type: "Scale"
  bottom: "res3b_branch2a"
  top: "res3b_branch2a"
  scale_param {
    bias_term: true
  }
}
layer {
  name: "res3b_branch2a_relu"
  type: "ReLU"
  bottom: "res3b_branch2a"
  top: "res3b_branch2a"
}
layer {
  name: "res3b_branch2b"
  type: "Convolution"
  bottom: "res3b_branch2a"
  top: "res3b_branch2b"
  convolution_param {
    num_output: 128
    bias_term: false
    pad: 1
    kernel_size: 3
    stride: 1
  }
}
layer {
  name: "bn3b_branch2b"
  type: "BatchNorm"
  bottom: "res3b_branch2b"
  top: "res3b_branch2b"
  batch_norm_param {
    use_global_stats: true
  }
}
layer {
  name: "scale3b_branch2b"
  type: "Scale"
  bottom: "res3b_branch2b"
  top: "res3b_branch2b"
  scale_param {
    bias_term: true
  }
}
layer {
  name: "res3b_branch2b_relu"
  type: "ReLU"
  bottom: "res3b_branch2b"
  top: "res3b_branch2b"
}
layer {
  name: "res3b_branch2c"
  type: "Convolution"
  bottom: "res3b_branch2b"
  top: "res3b_branch2c"
  convolution_param {
    num_output: 512
    bias_term: false
    pad: 0
    kernel_size: 1
    stride: 1
  }
}
layer {
  name: "bn3b_branch2c"
  type: "BatchNorm"
  bottom: "res3b_branch2c"
  top: "res3b_branch2c"
  batch_norm_param {
    use_global_stats: true
  }
}
layer {
  name: "scale3b_branch2c"
  type: "Scale"
  bottom: "res3b_branch2c"
  top: "res3b_branch2c"
  scale_param {
    bias_term: true
  }
}
layer {
  name: "res3b"
  type: "Eltwise"
  bottom: "res3a"
  bottom: "res3b_branch2c"
  top: "res3b"
}
layer {
  name: "res3b_relu"
  type: "ReLU"
  bottom: "res3b"
  top: "res3b"
}
layer {
  name: "res3c_branch2a"
  type: "Convolution"
  bottom: "res3b"
  top: "res3c_branch2a"
  convolution_param {
    num_output: 128
    bias_term: false
    pad: 0
    kernel_size: 1
    stride: 1
  }
}
layer {
  name: "bn3c_branch2a"
  type: "BatchNorm"
  bottom: "res3c_branch2a"
  top: "res3c_branch2a"
  batch_norm_param {
    use_global_stats: true
  }
}
layer {
  name: "scale3c_branch2a"
  type: "Scale"
  bottom: "res3c_branch2a"
  top: "res3c_branch2a"
  scale_param {
    bias_term: true
  }
}
layer {
  name: "res3c_branch2a_relu"
  type: "ReLU"
  bottom: "res3c_branch2a"
  top: "res3c_branch2a"
}
layer {
  name: "res3c_branch2b"
  type: "Convolution"
  bottom: "res3c_branch2a"
  top: "res3c_branch2b"
  convolution_param {
    num_output: 128
    bias_term: false
    pad: 1
    kernel_size: 3
    stride: 1
  }
}
layer {
  name: "bn3c_branch2b"
  type: "BatchNorm"
  bottom: "res3c_branch2b"
  top: "res3c_branch2b"
  batch_norm_param {
    use_global_stats: true
  }
}
layer {
  name: "scale3c_branch2b"
  type: "Scale"
  bottom: "res3c_branch2b"
  top: "res3c_branch2b"
  scale_param {
    bias_term: true
  }
}
layer {
  name: "res3c_branch2b_relu"
  type: "ReLU"
  bottom: "res3c_branch2b"
  top: "res3c_branch2b"
}
layer {
  name: "res3c_branch2c"
  type: "Convolution"
  bottom: "res3c_branch2b"
  top: "res3c_branch2c"
  convolution_param {
    num_output: 512
    bias_term: false
    pad: 0
    kernel_size: 1
    stride: 1
  }
}
layer {
  name: "bn3c_branch2c"
  type: "BatchNorm"
  bottom: "res3c_branch2c"
  top: "res3c_branch2c"
  batch_norm_param {
    use_global_stats: true
  }
}
layer {
  name: "scale3c_branch2c"
  type: "Scale"
  bottom: "res3c_branch2c"
  top: "res3c_branch2c"
  scale_param {
    bias_term: true
  }
}
layer {
  name: "res3c"
  type: "Eltwise"
  bottom: "res3b"
  bottom: "res3c_branch2c"
  top: "res3c"
}
layer {
  name: "res3c_relu"
  type: "ReLU"
  bottom: "res3c"
  top: "res3c"
}
layer {
  name: "res3d_branch2a"
  type: "Convolution"
  bottom: "res3c"
  top: "res3d_branch2a"
  convolution_param {
    num_output: 128
    bias_term: false
    pad: 0
    kernel_size: 1
    stride: 1
  }
}
layer {
  name: "bn3d_branch2a"
  type: "BatchNorm"
  bottom: "res3d_branch2a"
  top: "res3d_branch2a"
  batch_norm_param {
    use_global_stats: true
  }
}
layer {
  name: "scale3d_branch2a"
  type: "Scale"
  bottom: "res3d_branch2a"
  top: "res3d_branch2a"
  scale_param {
    bias_term: true
  }
}
layer {
  name: "res3d_branch2a_relu"
  type: "ReLU"
  bottom: "res3d_branch2a"
  top: "res3d_branch2a"
}
layer {
  name: "res3d_branch2b"
  type: "Convolution"
  bottom: "res3d_branch2a"
  top: "res3d_branch2b"
  convolution_param {
    num_output: 128
    bias_term: false
    pad: 1
    kernel_size: 3
    stride: 1
  }
}
layer {
  name: "bn3d_branch2b"
  type: "BatchNorm"
  bottom: "res3d_branch2b"
  top: "res3d_branch2b"
  batch_norm_param {
    use_global_stats: true
  }
}
layer {
  name: "scale3d_branch2b"
  type: "Scale"
  bottom: "res3d_branch2b"
  top: "res3d_branch2b"
  scale_param {
    bias_term: true
  }
}
layer {
  name: "res3d_branch2b_relu"
  type: "ReLU"
  bottom: "res3d_branch2b"
  top: "res3d_branch2b"
}
layer {
  name: "res3d_branch2c"
  type: "Convolution"
  bottom: "res3d_branch2b"
  top: "res3d_branch2c"
  convolution_param {
    num_output: 512
    bias_term: false
    pad: 0
    kernel_size: 1
    stride: 1
  }
}
layer {
  name: "bn3d_branch2c"
  type: "BatchNorm"
  bottom: "res3d_branch2c"
  top: "res3d_branch2c"
  batch_norm_param {
    use_global_stats: true
  }
}
layer {
  name: "scale3d_branch2c"
  type: "Scale"
  bottom: "res3d_branch2c"
  top: "res3d_branch2c"
  scale_param {
    bias_term: true
  }
}
layer {
  name: "res3d"
  type: "Eltwise"
  bottom: "res3c"
  bottom: "res3d_branch2c"
  top: "res3d"
}
layer {
  name: "res3d_relu"
  type: "ReLU"
  bottom: "res3d"
  top: "res3d"
}
layer {
  name: "res4a_branch1"
  type: "Convolution"
  bottom: "res3d"
  top: "res4a_branch1"
  convolution_param {
    num_output: 1024
    bias_term: false
    pad: 0
    kernel_size: 1
    stride: 2
  }
}
layer {
  name: "bn4a_branch1"
  type: "BatchNorm"
  bottom: "res4a_branch1"
  top: "res4a_branch1"
  batch_norm_param {
    use_global_stats: true
  }
}
layer {
  name: "scale4a_branch1"
  type: "Scale"
  bottom: "res4a_branch1"
  top: "res4a_branch1"
  scale_param {
    bias_term: true
  }
}
layer {
  name: "res4a_branch2a"
  type: "Convolution"
  bottom: "res3d"
  top: "res4a_branch2a"
  convolution_param {
    num_output: 256
    bias_term: false
    pad: 0
    kernel_size: 1
    stride: 2
  }
}
layer {
  name: "bn4a_branch2a"
  type: "BatchNorm"
  bottom: "res4a_branch2a"
  top: "res4a_branch2a"
  batch_norm_param {
    use_global_stats: true
  }
}
layer {
  name: "scale4a_branch2a"
  type: "Scale"
  bottom: "res4a_branch2a"
  top: "res4a_branch2a"
  scale_param {
    bias_term: true
  }
}
layer {
  name: "res4a_branch2a_relu"
  type: "ReLU"
  bottom: "res4a_branch2a"
  top: "res4a_branch2a"
}
layer {
  name: "res4a_branch2b"
  type: "Convolution"
  bottom: "res4a_branch2a"
  top: "res4a_branch2b"
  convolution_param {
    num_output: 256
    bias_term: false
    pad: 1
    kernel_size: 3
    stride: 1
  }
}
layer {
  name: "bn4a_branch2b"
  type: "BatchNorm"
  bottom: "res4a_branch2b"
  top: "res4a_branch2b"
  batch_norm_param {
    use_global_stats: true
  }
}
layer {
  name: "scale4a_branch2b"
  type: "Scale"
  bottom: "res4a_branch2b"
  top: "res4a_branch2b"
  scale_param {
    bias_term: true
  }
}
layer {
  name: "res4a_branch2b_relu"
  type: "ReLU"
  bottom: "res4a_branch2b"
  top: "res4a_branch2b"
}
layer {
  name: "res4a_branch2c"
  type: "Convolution"
  bottom: "res4a_branch2b"
  top: "res4a_branch2c"
  convolution_param {
    num_output: 1024
    bias_term: false
    pad: 0
    kernel_size: 1
    stride: 1
  }
}
layer {
  name: "bn4a_branch2c"
  type: "BatchNorm"
  bottom: "res4a_branch2c"
  top: "res4a_branch2c"
  batch_norm_param {
    use_global_stats: true
  }
}
layer {
  name: "scale4a_branch2c"
  type: "Scale"
  bottom: "res4a_branch2c"
  top: "res4a_branch2c"
  scale_param {
    bias_term: true
  }
}
layer {
  name: "res4a"
  type: "Eltwise"
  bottom: "res4a_branch1"
  bottom: "res4a_branch2c"
  top: "res4a"
}
layer {
  name: "res4a_relu"
  type: "ReLU"
  bottom: "res4a"
  top: "res4a"
}
layer {
  name: "res4b_branch2a"
  type: "Convolution"
  bottom: "res4a"
  top: "res4b_branch2a"
  convolution_param {
    num_output: 256
    bias_term: false
    pad: 0
    kernel_size: 1
    stride: 1
  }
}
layer {
  name: "bn4b_branch2a"
  type: "BatchNorm"
  bottom: "res4b_branch2a"
  top: "res4b_branch2a"
  batch_norm_param {
    use_global_stats: true
  }
}
layer {
  name: "scale4b_branch2a"
  type: "Scale"
  bottom: "res4b_branch2a"
  top: "res4b_branch2a"
  scale_param {
    bias_term: true
  }
}
layer {
  name: "res4b_branch2a_relu"
  type: "ReLU"
  bottom: "res4b_branch2a"
  top: "res4b_branch2a"
}
layer {
  name: "res4b_branch2b"
  type: "Convolution"
  bottom: "res4b_branch2a"
  top: "res4b_branch2b"
  convolution_param {
    num_output: 256
    bias_term: false
    pad: 1
    kernel_size: 3
    stride: 1
  }
}
layer {
  name: "bn4b_branch2b"
  type: "BatchNorm"
  bottom: "res4b_branch2b"
  top: "res4b_branch2b"
  batch_norm_param {
    use_global_stats: true
  }
}
layer {
  name: "scale4b_branch2b"
  type: "Scale"
  bottom: "res4b_branch2b"
  top: "res4b_branch2b"
  scale_param {
    bias_term: true
  }
}
layer {
  name: "res4b_branch2b_relu"
  type: "ReLU"
  bottom: "res4b_branch2b"
  top: "res4b_branch2b"
}
layer {
  name: "res4b_branch2c"
  type: "Convolution"
  bottom: "res4b_branch2b"
  top: "res4b_branch2c"
  convolution_param {
    num_output: 1024
    bias_term: false
    pad: 0
    kernel_size: 1
    stride: 1
  }
}
layer {
  name: "bn4b_branch2c"
  type: "BatchNorm"
  bottom: "res4b_branch2c"
  top: "res4b_branch2c"
  batch_norm_param {
    use_global_stats: true
  }
}
layer {
  name: "scale4b_branch2c"
  type: "Scale"
  bottom: "res4b_branch2c"
  top: "res4b_branch2c"
  scale_param {
    bias_term: true
  }
}
layer {
  name: "res4b"
  type: "Eltwise"
  bottom: "res4a"
  bottom: "res4b_branch2c"
  top: "res4b"
}
layer {
  name: "res4b_relu"
  type: "ReLU"
  bottom: "res4b"
  top: "res4b"
}
layer {
  name: "res4c_branch2a"
  type: "Convolution"
  bottom: "res4b"
  top: "res4c_branch2a"
  convolution_param {
    num_output: 256
    bias_term: false
    pad: 0
    kernel_size: 1
    stride: 1
  }
}
layer {
  name: "bn4c_branch2a"
  type: "BatchNorm"
  bottom: "res4c_branch2a"
  top: "res4c_branch2a"
  batch_norm_param {
    use_global_stats: true
  }
}
layer {
  name: "scale4c_branch2a"
  type: "Scale"
  bottom: "res4c_branch2a"
  top: "res4c_branch2a"
  scale_param {
    bias_term: true
  }
}
layer {
  name: "res4c_branch2a_relu"
  type: "ReLU"
  bottom: "res4c_branch2a"
  top: "res4c_branch2a"
}
layer {
  name: "res4c_branch2b"
  type: "Convolution"
  bottom: "res4c_branch2a"
  top: "res4c_branch2b"
  convolution_param {
    num_output: 256
    bias_term: false
    pad: 1
    kernel_size: 3
    stride: 1
  }
}
layer {
  name: "bn4c_branch2b"
  type: "BatchNorm"
  bottom: "res4c_branch2b"
  top: "res4c_branch2b"
  batch_norm_param {
    use_global_stats: true
  }
}
layer {
  name: "scale4c_branch2b"
  type: "Scale"
  bottom: "res4c_branch2b"
  top: "res4c_branch2b"
  scale_param {
    bias_term: true
  }
}
layer {
  name: "res4c_branch2b_relu"
  type: "ReLU"
  bottom: "res4c_branch2b"
  top: "res4c_branch2b"
}
layer {
  name: "res4c_branch2c"
  type: "Convolution"
  bottom: "res4c_branch2b"
  top: "res4c_branch2c"
  convolution_param {
    num_output: 1024
    bias_term: false
    pad: 0
    kernel_size: 1
    stride: 1
  }
}
layer {
  name: "bn4c_branch2c"
  type: "BatchNorm"
  bottom: "res4c_branch2c"
  top: "res4c_branch2c"
  batch_norm_param {
    use_global_stats: true
  }
}
layer {
  name: "scale4c_branch2c"
  type: "Scale"
  bottom: "res4c_branch2c"
  top: "res4c_branch2c"
  scale_param {
    bias_term: true
  }
}
layer {
  name: "res4c"
  type: "Eltwise"
  bottom: "res4b"
  bottom: "res4c_branch2c"
  top: "res4c"
}
layer {
  name: "res4c_relu"
  type: "ReLU"
  bottom: "res4c"
  top: "res4c"
}
layer {
  name: "res4d_branch2a"
  type: "Convolution"
  bottom: "res4c"
  top: "res4d_branch2a"
  convolution_param {
    num_output: 256
    bias_term: false
    pad: 0
    kernel_size: 1
    stride: 1
  }
}
layer {
  name: "bn4d_branch2a"
  type: "BatchNorm"
  bottom: "res4d_branch2a"
  top: "res4d_branch2a"
  batch_norm_param {
    use_global_stats: true
  }
}
layer {
  name: "scale4d_branch2a"
  type: "Scale"
  bottom: "res4d_branch2a"
  top: "res4d_branch2a"
  scale_param {
    bias_term: true
  }
}
layer {
  name: "res4d_branch2a_relu"
  type: "ReLU"
  bottom: "res4d_branch2a"
  top: "res4d_branch2a"
}
layer {
  name: "res4d_branch2b"
  type: "Convolution"
  bottom: "res4d_branch2a"
  top: "res4d_branch2b"
  convolution_param {
    num_output: 256
    bias_term: false
    pad: 1
    kernel_size: 3
    stride: 1
  }
}
layer {
  name: "bn4d_branch2b"
  type: "BatchNorm"
  bottom: "res4d_branch2b"
  top: "res4d_branch2b"
  batch_norm_param {
    use_global_stats: true
  }
}
layer {
  name: "scale4d_branch2b"
  type: "Scale"
  bottom: "res4d_branch2b"
  top: "res4d_branch2b"
  scale_param {
    bias_term: true
  }
}
layer {
  name: "res4d_branch2b_relu"
  type: "ReLU"
  bottom: "res4d_branch2b"
  top: "res4d_branch2b"
}
layer {
  name: "res4d_branch2c"
  type: "Convolution"
  bottom: "res4d_branch2b"
  top: "res4d_branch2c"
  convolution_param {
    num_output: 1024
    bias_term: false
    pad: 0
    kernel_size: 1
    stride: 1
  }
}
layer {
  name: "bn4d_branch2c"
  type: "BatchNorm"
  bottom: "res4d_branch2c"
  top: "res4d_branch2c"
  batch_norm_param {
    use_global_stats: true
  }
}
layer {
  name: "scale4d_branch2c"
  type: "Scale"
  bottom: "res4d_branch2c"
  top: "res4d_branch2c"
  scale_param {
    bias_term: true
  }
}
layer {
  name: "res4d"
  type: "Eltwise"
  bottom: "res4c"
  bottom: "res4d_branch2c"
  top: "res4d"
}
layer {
  name: "res4d_relu"
  type: "ReLU"
  bottom: "res4d"
  top: "res4d"
}
layer {
  name: "res4e_branch2a"
  type: "Convolution"
  bottom: "res4d"
  top: "res4e_branch2a"
  convolution_param {
    num_output: 256
    bias_term: false
    pad: 0
    kernel_size: 1
    stride: 1
  }
}
layer {
  name: "bn4e_branch2a"
  type: "BatchNorm"
  bottom: "res4e_branch2a"
  top: "res4e_branch2a"
  batch_norm_param {
    use_global_stats: true
  }
}
layer {
  name: "scale4e_branch2a"
  type: "Scale"
  bottom: "res4e_branch2a"
  top: "res4e_branch2a"
  scale_param {
    bias_term: true
  }
}
layer {
  name: "res4e_branch2a_relu"
  type: "ReLU"
  bottom: "res4e_branch2a"
  top: "res4e_branch2a"
}
layer {
  name: "res4e_branch2b"
  type: "Convolution"
  bottom: "res4e_branch2a"
  top: "res4e_branch2b"
  convolution_param {
    num_output: 256
    bias_term: false
    pad: 1
    kernel_size: 3
    stride: 1
  }
}
layer {
  name: "bn4e_branch2b"
  type: "BatchNorm"
  bottom: "res4e_branch2b"
  top: "res4e_branch2b"
  batch_norm_param {
    use_global_stats: true
  }
}
layer {
  name: "scale4e_branch2b"
  type: "Scale"
  bottom: "res4e_branch2b"
  top: "res4e_branch2b"
  scale_param {
    bias_term: true
  }
}
layer {
  name: "res4e_branch2b_relu"
  type: "ReLU"
  bottom: "res4e_branch2b"
  top: "res4e_branch2b"
}
layer {
  name: "res4e_branch2c"
  type: "Convolution"
  bottom: "res4e_branch2b"
  top: "res4e_branch2c"
  convolution_param {
    num_output: 1024
    bias_term: false
    pad: 0
    kernel_size: 1
    stride: 1
  }
}
layer {
  name: "bn4e_branch2c"
  type: "BatchNorm"
  bottom: "res4e_branch2c"
  top: "res4e_branch2c"
  batch_norm_param {
    use_global_stats: true
  }
}
layer {
  name: "scale4e_branch2c"
  type: "Scale"
  bottom: "res4e_branch2c"
  top: "res4e_branch2c"
  scale_param {
    bias_term: true
  }
}
layer {
  name: "res4e"
  type: "Eltwise"
  bottom: "res4d"
  bottom: "res4e_branch2c"
  top: "res4e"
}
layer {
  name: "res4e_relu"
  type: "ReLU"
  bottom: "res4e"
  top: "res4e"
}
layer {
  name: "res4f_branch2a"
  type: "Convolution"
  bottom: "res4e"
  top: "res4f_branch2a"
  convolution_param {
    num_output: 256
    bias_term: false
    pad: 0
    kernel_size: 1
    stride: 1
  }
}
layer {
  name: "bn4f_branch2a"
  type: "BatchNorm"
  bottom: "res4f_branch2a"
  top: "res4f_branch2a"
  batch_norm_param {
    use_global_stats: true
  }
}
layer {
  name: "scale4f_branch2a"
  type: "Scale"
  bottom: "res4f_branch2a"
  top: "res4f_branch2a"
  scale_param {
    bias_term: true
  }
}
layer {
  name: "res4f_branch2a_relu"
  type: "ReLU"
  bottom: "res4f_branch2a"
  top: "res4f_branch2a"
}
layer {
  name: "res4f_branch2b"
  type: "Convolution"
  bottom: "res4f_branch2a"
  top: "res4f_branch2b"
  convolution_param {
    num_output: 256
    bias_term: false
    pad: 1
    kernel_size: 3
    stride: 1
  }
}
layer {
  name: "bn4f_branch2b"
  type: "BatchNorm"
  bottom: "res4f_branch2b"
  top: "res4f_branch2b"
  batch_norm_param {
    use_global_stats: true
  }
}
layer {
  name: "scale4f_branch2b"
  type: "Scale"
  bottom: "res4f_branch2b"
  top: "res4f_branch2b"
  scale_param {
    bias_term: true
  }
}
layer {
  name: "res4f_branch2b_relu"
  type: "ReLU"
  bottom: "res4f_branch2b"
  top: "res4f_branch2b"
}
layer {
  name: "res4f_branch2c"
  type: "Convolution"
  bottom: "res4f_branch2b"
  top: "res4f_branch2c"
  convolution_param {
    num_output: 1024
    bias_term: false
    pad: 0
    kernel_size: 1
    stride: 1
  }
}
layer {
  name: "bn4f_branch2c"
  type: "BatchNorm"
  bottom: "res4f_branch2c"
  top: "res4f_branch2c"
  batch_norm_param {
    use_global_stats: true
  }
}
layer {
  name: "scale4f_branch2c"
  type: "Scale"
  bottom: "res4f_branch2c"
  top: "res4f_branch2c"
  scale_param {
    bias_term: true
  }
}
layer {
  name: "res4f"
  type: "Eltwise"
  bottom: "res4e"
  bottom: "res4f_branch2c"
  top: "res4f"
}
layer {
  name: "res4f_relu"
  type: "ReLU"
  bottom: "res4f"
  top: "res4f"
}
layer {
  name: "res5a_branch1"
  type: "Convolution"
  bottom: "res4f"
  top: "res5a_branch1"
  convolution_param {
    num_output: 2048
    bias_term: false
    pad: 0
    kernel_size: 1
    stride: 2
  }
}
layer {
  name: "bn5a_branch1"
  type: "BatchNorm"
  bottom: "res5a_branch1"
  top: "res5a_branch1"
  batch_norm_param {
    use_global_stats: true
  }
}
layer {
  name: "scale5a_branch1"
  type: "Scale"
  bottom: "res5a_branch1"
  top: "res5a_branch1"
  scale_param {
    bias_term: true
  }
}
layer {
  name: "res5a_branch2a"
  type: "Convolution"
  bottom: "res4f"
  top: "res5a_branch2a"
  convolution_param {
    num_output: 512
    bias_term: false
    pad: 0
    kernel_size: 1
    stride: 2
  }
}
layer {
  name: "bn5a_branch2a"
  type: "BatchNorm"
  bottom: "res5a_branch2a"
  top: "res5a_branch2a"
  batch_norm_param {
    use_global_stats: true
  }
}
layer {
  name: "scale5a_branch2a"
  type: "Scale"
  bottom: "res5a_branch2a"
  top: "res5a_branch2a"
  scale_param {
    bias_term: true
  }
}
layer {
  name: "res5a_branch2a_relu"
  type: "ReLU"
  bottom: "res5a_branch2a"
  top: "res5a_branch2a"
}
layer {
  name: "res5a_branch2b"
  type: "Convolution"
  bottom: "res5a_branch2a"
  top: "res5a_branch2b"
  convolution_param {
    num_output: 512
    bias_term: false
    pad: 1
    kernel_size: 3
    stride: 1
  }
}
layer {
  name: "bn5a_branch2b"
  type: "BatchNorm"
  bottom: "res5a_branch2b"
  top: "res5a_branch2b"
  batch_norm_param {
    use_global_stats: true
  }
}
layer {
  name: "scale5a_branch2b"
  type: "Scale"
  bottom: "res5a_branch2b"
  top: "res5a_branch2b"
  scale_param {
    bias_term: true
  }
}
layer {
  name: "res5a_branch2b_relu"
  type: "ReLU"
  bottom: "res5a_branch2b"
  top: "res5a_branch2b"
}
layer {
  name: "res5a_branch2c"
  type: "Convolution"
  bottom: "res5a_branch2b"
  top: "res5a_branch2c"
  convolution_param {
    num_output: 2048
    bias_term: false
    pad
I0304 20:32:44.809504 23741 layer_factory.hpp:77] Creating layer data
I0304 20:32:44.809559 23741 net.cpp:100] Creating Layer data
I0304 20:32:44.809577 23741 net.cpp:408] data -> data
I0304 20:32:44.809608 23741 net.cpp:408] data -> label
I0304 20:32:44.810078 23741 image_data_layer.cpp:40] Opening file evaluation/data/CUHK03/train_cuhk03_labeled.txt
I0304 20:32:44.812211 23741 image_data_layer.cpp:55] Shuffling data
I0304 20:32:44.813309 23741 image_data_layer.cpp:60] A total of 7012 images.
I0304 20:32:44.867010 23741 image_data_layer.cpp:87] output data size: 16,3,224,224
I0304 20:32:44.886195 23741 net.cpp:150] Setting up data
I0304 20:32:44.886235 23741 net.cpp:157] Top shape: 16 3 224 224 (2408448)
I0304 20:32:44.886255 23741 net.cpp:157] Top shape: 16 (16)
I0304 20:32:44.886260 23741 net.cpp:165] Memory required for data: 9633856
I0304 20:32:44.886268 23741 layer_factory.hpp:77] Creating layer conv1
I0304 20:32:44.886309 23741 net.cpp:100] Creating Layer conv1
I0304 20:32:44.886317 23741 net.cpp:434] conv1 <- data
I0304 20:32:44.886353 23741 net.cpp:408] conv1 -> conv1
I0304 20:32:45.128420 23741 net.cpp:150] Setting up conv1
I0304 20:32:45.128448 23741 net.cpp:157] Top shape: 16 64 112 112 (12845056)
I0304 20:32:45.128451 23741 net.cpp:165] Memory required for data: 61014080
I0304 20:32:45.128469 23741 layer_factory.hpp:77] Creating layer bn_conv1
I0304 20:32:45.128494 23741 net.cpp:100] Creating Layer bn_conv1
I0304 20:32:45.128499 23741 net.cpp:434] bn_conv1 <- conv1
I0304 20:32:45.128506 23741 net.cpp:395] bn_conv1 -> conv1 (in-place)
I0304 20:32:45.128691 23741 net.cpp:150] Setting up bn_conv1
I0304 20:32:45.128700 23741 net.cpp:157] Top shape: 16 64 112 112 (12845056)
I0304 20:32:45.128702 23741 net.cpp:165] Memory required for data: 112394304
I0304 20:32:45.128713 23741 layer_factory.hpp:77] Creating layer scale_conv1
I0304 20:32:45.128722 23741 net.cpp:100] Creating Layer scale_conv1
I0304 20:32:45.128736 23741 net.cpp:434] scale_conv1 <- conv1
I0304 20:32:45.128741 23741 net.cpp:395] scale_conv1 -> conv1 (in-place)
I0304 20:32:45.128787 23741 layer_factory.hpp:77] Creating layer scale_conv1
I0304 20:32:45.128942 23741 net.cpp:150] Setting up scale_conv1
I0304 20:32:45.128949 23741 net.cpp:157] Top shape: 16 64 112 112 (12845056)
I0304 20:32:45.128952 23741 net.cpp:165] Memory required for data: 163774528
I0304 20:32:45.128958 23741 layer_factory.hpp:77] Creating layer conv1_relu
I0304 20:32:45.128965 23741 net.cpp:100] Creating Layer conv1_relu
I0304 20:32:45.128969 23741 net.cpp:434] conv1_relu <- conv1
I0304 20:32:45.128989 23741 net.cpp:395] conv1_relu -> conv1 (in-place)
I0304 20:32:45.129593 23741 net.cpp:150] Setting up conv1_relu
I0304 20:32:45.129603 23741 net.cpp:157] Top shape: 16 64 112 112 (12845056)
I0304 20:32:45.129606 23741 net.cpp:165] Memory required for data: 215154752
I0304 20:32:45.129611 23741 layer_factory.hpp:77] Creating layer pool1
I0304 20:32:45.129621 23741 net.cpp:100] Creating Layer pool1
I0304 20:32:45.129637 23741 net.cpp:434] pool1 <- conv1
I0304 20:32:45.129642 23741 net.cpp:408] pool1 -> pool1
I0304 20:32:45.129716 23741 net.cpp:150] Setting up pool1
I0304 20:32:45.129726 23741 net.cpp:157] Top shape: 16 64 56 56 (3211264)
I0304 20:32:45.129730 23741 net.cpp:165] Memory required for data: 227999808
I0304 20:32:45.129734 23741 layer_factory.hpp:77] Creating layer pool1_pool1_0_split
I0304 20:32:45.129740 23741 net.cpp:100] Creating Layer pool1_pool1_0_split
I0304 20:32:45.129745 23741 net.cpp:434] pool1_pool1_0_split <- pool1
I0304 20:32:45.129767 23741 net.cpp:408] pool1_pool1_0_split -> pool1_pool1_0_split_0
I0304 20:32:45.129776 23741 net.cpp:408] pool1_pool1_0_split -> pool1_pool1_0_split_1
I0304 20:32:45.129827 23741 net.cpp:150] Setting up pool1_pool1_0_split
I0304 20:32:45.129835 23741 net.cpp:157] Top shape: 16 64 56 56 (3211264)
I0304 20:32:45.129839 23741 net.cpp:157] Top shape: 16 64 56 56 (3211264)
I0304 20:32:45.129842 23741 net.cpp:165] Memory required for data: 253689920
I0304 20:32:45.129845 23741 layer_factory.hpp:77] Creating layer res2a_branch1
I0304 20:32:45.129855 23741 net.cpp:100] Creating Layer res2a_branch1
I0304 20:32:45.129870 23741 net.cpp:434] res2a_branch1 <- pool1_pool1_0_split_0
I0304 20:32:45.129875 23741 net.cpp:408] res2a_branch1 -> res2a_branch1
I0304 20:32:45.131809 23741 net.cpp:150] Setting up res2a_branch1
I0304 20:32:45.131821 23741 net.cpp:157] Top shape: 16 256 56 56 (12845056)
I0304 20:32:45.131826 23741 net.cpp:165] Memory required for data: 305070144
I0304 20:32:45.131832 23741 layer_factory.hpp:77] Creating layer bn2a_branch1
I0304 20:32:45.131844 23741 net.cpp:100] Creating Layer bn2a_branch1
I0304 20:32:45.131860 23741 net.cpp:434] bn2a_branch1 <- res2a_branch1
I0304 20:32:45.131865 23741 net.cpp:395] bn2a_branch1 -> res2a_branch1 (in-place)
I0304 20:32:45.132383 23741 net.cpp:150] Setting up bn2a_branch1
I0304 20:32:45.132395 23741 net.cpp:157] Top shape: 16 256 56 56 (12845056)
I0304 20:32:45.132398 23741 net.cpp:165] Memory required for data: 356450368
I0304 20:32:45.132408 23741 layer_factory.hpp:77] Creating layer scale2a_branch1
I0304 20:32:45.132414 23741 net.cpp:100] Creating Layer scale2a_branch1
I0304 20:32:45.132419 23741 net.cpp:434] scale2a_branch1 <- res2a_branch1
I0304 20:32:45.132437 23741 net.cpp:395] scale2a_branch1 -> res2a_branch1 (in-place)
I0304 20:32:45.132483 23741 layer_factory.hpp:77] Creating layer scale2a_branch1
I0304 20:32:45.132593 23741 net.cpp:150] Setting up scale2a_branch1
I0304 20:32:45.132601 23741 net.cpp:157] Top shape: 16 256 56 56 (12845056)
I0304 20:32:45.132603 23741 net.cpp:165] Memory required for data: 407830592
I0304 20:32:45.132609 23741 layer_factory.hpp:77] Creating layer res2a_branch2a
I0304 20:32:45.132617 23741 net.cpp:100] Creating Layer res2a_branch2a
I0304 20:32:45.132622 23741 net.cpp:434] res2a_branch2a <- pool1_pool1_0_split_1
I0304 20:32:45.132639 23741 net.cpp:408] res2a_branch2a -> res2a_branch2a
I0304 20:32:45.133713 23741 net.cpp:150] Setting up res2a_branch2a
I0304 20:32:45.133725 23741 net.cpp:157] Top shape: 16 64 56 56 (3211264)
I0304 20:32:45.133729 23741 net.cpp:165] Memory required for data: 420675648
I0304 20:32:45.133734 23741 layer_factory.hpp:77] Creating layer bn2a_branch2a
I0304 20:32:45.133741 23741 net.cpp:100] Creating Layer bn2a_branch2a
I0304 20:32:45.133745 23741 net.cpp:434] bn2a_branch2a <- res2a_branch2a
I0304 20:32:45.133752 23741 net.cpp:395] bn2a_branch2a -> res2a_branch2a (in-place)
I0304 20:32:45.133929 23741 net.cpp:150] Setting up bn2a_branch2a
I0304 20:32:45.133936 23741 net.cpp:157] Top shape: 16 64 56 56 (3211264)
I0304 20:32:45.133940 23741 net.cpp:165] Memory required for data: 433520704
I0304 20:32:45.133950 23741 layer_factory.hpp:77] Creating layer scale2a_branch2a
I0304 20:32:45.133957 23741 net.cpp:100] Creating Layer scale2a_branch2a
I0304 20:32:45.133962 23741 net.cpp:434] scale2a_branch2a <- res2a_branch2a
I0304 20:32:45.133968 23741 net.cpp:395] scale2a_branch2a -> res2a_branch2a (in-place)
I0304 20:32:45.134001 23741 layer_factory.hpp:77] Creating layer scale2a_branch2a
I0304 20:32:45.134117 23741 net.cpp:150] Setting up scale2a_branch2a
I0304 20:32:45.134124 23741 net.cpp:157] Top shape: 16 64 56 56 (3211264)
I0304 20:32:45.134127 23741 net.cpp:165] Memory required for data: 446365760
I0304 20:32:45.134133 23741 layer_factory.hpp:77] Creating layer res2a_branch2a_relu
I0304 20:32:45.134138 23741 net.cpp:100] Creating Layer res2a_branch2a_relu
I0304 20:32:45.134141 23741 net.cpp:434] res2a_branch2a_relu <- res2a_branch2a
I0304 20:32:45.134162 23741 net.cpp:395] res2a_branch2a_relu -> res2a_branch2a (in-place)
I0304 20:32:45.134570 23741 net.cpp:150] Setting up res2a_branch2a_relu
I0304 20:32:45.134582 23741 net.cpp:157] Top shape: 16 64 56 56 (3211264)
I0304 20:32:45.134584 23741 net.cpp:165] Memory required for data: 459210816
I0304 20:32:45.134588 23741 layer_factory.hpp:77] Creating layer res2a_branch2b
I0304 20:32:45.134596 23741 net.cpp:100] Creating Layer res2a_branch2b
I0304 20:32:45.134600 23741 net.cpp:434] res2a_branch2b <- res2a_branch2a
I0304 20:32:45.134606 23741 net.cpp:408] res2a_branch2b -> res2a_branch2b
I0304 20:32:45.138295 23741 net.cpp:150] Setting up res2a_branch2b
I0304 20:32:45.138309 23741 net.cpp:157] Top shape: 16 64 56 56 (3211264)
I0304 20:32:45.138314 23741 net.cpp:165] Memory required for data: 472055872
I0304 20:32:45.138319 23741 layer_factory.hpp:77] Creating layer bn2a_branch2b
I0304 20:32:45.138327 23741 net.cpp:100] Creating Layer bn2a_branch2b
I0304 20:32:45.138334 23741 net.cpp:434] bn2a_branch2b <- res2a_branch2b
I0304 20:32:45.138351 23741 net.cpp:395] bn2a_branch2b -> res2a_branch2b (in-place)
I0304 20:32:45.138547 23741 net.cpp:150] Setting up bn2a_branch2b
I0304 20:32:45.138557 23741 net.cpp:157] Top shape: 16 64 56 56 (3211264)
I0304 20:32:45.138561 23741 net.cpp:165] Memory required for data: 484900928
I0304 20:32:45.138571 23741 layer_factory.hpp:77] Creating layer scale2a_branch2b
I0304 20:32:45.138579 23741 net.cpp:100] Creating Layer scale2a_branch2b
I0304 20:32:45.138583 23741 net.cpp:434] scale2a_branch2b <- res2a_branch2b
I0304 20:32:45.138603 23741 net.cpp:395] scale2a_branch2b -> res2a_branch2b (in-place)
I0304 20:32:45.138653 23741 layer_factory.hpp:77] Creating layer scale2a_branch2b
I0304 20:32:45.138767 23741 net.cpp:150] Setting up scale2a_branch2b
I0304 20:32:45.138777 23741 net.cpp:157] Top shape: 16 64 56 56 (3211264)
I0304 20:32:45.138780 23741 net.cpp:165] Memory required for data: 497745984
I0304 20:32:45.138787 23741 layer_factory.hpp:77] Creating layer res2a_branch2b_relu
I0304 20:32:45.138793 23741 net.cpp:100] Creating Layer res2a_branch2b_relu
I0304 20:32:45.138799 23741 net.cpp:434] res2a_branch2b_relu <- res2a_branch2b
I0304 20:32:45.138818 23741 net.cpp:395] res2a_branch2b_relu -> res2a_branch2b (in-place)
I0304 20:32:45.139112 23741 net.cpp:150] Setting up res2a_branch2b_relu
I0304 20:32:45.139123 23741 net.cpp:157] Top shape: 16 64 56 56 (3211264)
I0304 20:32:45.139127 23741 net.cpp:165] Memory required for data: 510591040
I0304 20:32:45.139132 23741 layer_factory.hpp:77] Creating layer res2a_branch2c
I0304 20:32:45.139139 23741 net.cpp:100] Creating Layer res2a_branch2c
I0304 20:32:45.139145 23741 net.cpp:434] res2a_branch2c <- res2a_branch2b
I0304 20:32:45.139152 23741 net.cpp:408] res2a_branch2c -> res2a_branch2c
I0304 20:32:45.143878 23741 net.cpp:150] Setting up res2a_branch2c
I0304 20:32:45.143890 23741 net.cpp:157] Top shape: 16 256 56 56 (12845056)
I0304 20:32:45.143895 23741 net.cpp:165] Memory required for data: 561971264
I0304 20:32:45.143900 23741 layer_factory.hpp:77] Creating layer bn2a_branch2c
I0304 20:32:45.143908 23741 net.cpp:100] Creating Layer bn2a_branch2c
I0304 20:32:45.143914 23741 net.cpp:434] bn2a_branch2c <- res2a_branch2c
I0304 20:32:45.143919 23741 net.cpp:395] bn2a_branch2c -> res2a_branch2c (in-place)
I0304 20:32:45.144104 23741 net.cpp:150] Setting up bn2a_branch2c
I0304 20:32:45.144114 23741 net.cpp:157] Top shape: 16 256 56 56 (12845056)
I0304 20:32:45.144117 23741 net.cpp:165] Memory required for data: 613351488
I0304 20:32:45.144125 23741 layer_factory.hpp:77] Creating layer scale2a_branch2c
I0304 20:32:45.144134 23741 net.cpp:100] Creating Layer scale2a_branch2c
I0304 20:32:45.144137 23741 net.cpp:434] scale2a_branch2c <- res2a_branch2c
I0304 20:32:45.144142 23741 net.cpp:395] scale2a_branch2c -> res2a_branch2c (in-place)
I0304 20:32:45.144181 23741 layer_factory.hpp:77] Creating layer scale2a_branch2c
I0304 20:32:45.144287 23741 net.cpp:150] Setting up scale2a_branch2c
I0304 20:32:45.144294 23741 net.cpp:157] Top shape: 16 256 56 56 (12845056)
I0304 20:32:45.144299 23741 net.cpp:165] Memory required for data: 664731712
I0304 20:32:45.144304 23741 layer_factory.hpp:77] Creating layer res2a
I0304 20:32:45.144315 23741 net.cpp:100] Creating Layer res2a
I0304 20:32:45.144320 23741 net.cpp:434] res2a <- res2a_branch1
I0304 20:32:45.144325 23741 net.cpp:434] res2a <- res2a_branch2c
I0304 20:32:45.144331 23741 net.cpp:408] res2a -> res2a
I0304 20:32:45.144359 23741 net.cpp:150] Setting up res2a
I0304 20:32:45.144366 23741 net.cpp:157] Top shape: 16 256 56 56 (12845056)
I0304 20:32:45.144371 23741 net.cpp:165] Memory required for data: 716111936
I0304 20:32:45.144376 23741 layer_factory.hpp:77] Creating layer res2a_relu
I0304 20:32:45.144381 23741 net.cpp:100] Creating Layer res2a_relu
I0304 20:32:45.144387 23741 net.cpp:434] res2a_relu <- res2a
I0304 20:32:45.144393 23741 net.cpp:395] res2a_relu -> res2a (in-place)
I0304 20:32:45.144956 23741 net.cpp:150] Setting up res2a_relu
I0304 20:32:45.144968 23741 net.cpp:157] Top shape: 16 256 56 56 (12845056)
I0304 20:32:45.144973 23741 net.cpp:165] Memory required for data: 767492160
I0304 20:32:45.144978 23741 layer_factory.hpp:77] Creating layer res2a_res2a_relu_0_split
I0304 20:32:45.144985 23741 net.cpp:100] Creating Layer res2a_res2a_relu_0_split
I0304 20:32:45.144991 23741 net.cpp:434] res2a_res2a_relu_0_split <- res2a
I0304 20:32:45.144999 23741 net.cpp:408] res2a_res2a_relu_0_split -> res2a_res2a_relu_0_split_0
I0304 20:32:45.145005 23741 net.cpp:408] res2a_res2a_relu_0_split -> res2a_res2a_relu_0_split_1
I0304 20:32:45.145046 23741 net.cpp:150] Setting up res2a_res2a_relu_0_split
I0304 20:32:45.145054 23741 net.cpp:157] Top shape: 16 256 56 56 (12845056)
I0304 20:32:45.145061 23741 net.cpp:157] Top shape: 16 256 56 56 (12845056)
I0304 20:32:45.145066 23741 net.cpp:165] Memory required for data: 870252608
I0304 20:32:45.145069 23741 layer_factory.hpp:77] Creating layer res2b_branch2a
I0304 20:32:45.145079 23741 net.cpp:100] Creating Layer res2b_branch2a
I0304 20:32:45.145084 23741 net.cpp:434] res2b_branch2a <- res2a_res2a_relu_0_split_0
I0304 20:32:45.145092 23741 net.cpp:408] res2b_branch2a -> res2b_branch2a
I0304 20:32:45.148679 23741 net.cpp:150] Setting up res2b_branch2a
I0304 20:32:45.148691 23741 net.cpp:157] Top shape: 16 64 56 56 (3211264)
I0304 20:32:45.148695 23741 net.cpp:165] Memory required for data: 883097664
I0304 20:32:45.148701 23741 layer_factory.hpp:77] Creating layer bn2b_branch2a
I0304 20:32:45.148710 23741 net.cpp:100] Creating Layer bn2b_branch2a
I0304 20:32:45.148716 23741 net.cpp:434] bn2b_branch2a <- res2b_branch2a
I0304 20:32:45.148722 23741 net.cpp:395] bn2b_branch2a -> res2b_branch2a (in-place)
I0304 20:32:45.148906 23741 net.cpp:150] Setting up bn2b_branch2a
I0304 20:32:45.148914 23741 net.cpp:157] Top shape: 16 64 56 56 (3211264)
I0304 20:32:45.148918 23741 net.cpp:165] Memory required for data: 895942720
I0304 20:32:45.148931 23741 layer_factory.hpp:77] Creating layer scale2b_branch2a
I0304 20:32:45.148938 23741 net.cpp:100] Creating Layer scale2b_branch2a
I0304 20:32:45.148942 23741 net.cpp:434] scale2b_branch2a <- res2b_branch2a
I0304 20:32:45.148947 23741 net.cpp:395] scale2b_branch2a -> res2b_branch2a (in-place)
I0304 20:32:45.148983 23741 layer_factory.hpp:77] Creating layer scale2b_branch2a
I0304 20:32:45.149099 23741 net.cpp:150] Setting up scale2b_branch2a
I0304 20:32:45.149109 23741 net.cpp:157] Top shape: 16 64 56 56 (3211264)
I0304 20:32:45.149112 23741 net.cpp:165] Memory required for data: 908787776
I0304 20:32:45.149119 23741 layer_factory.hpp:77] Creating layer res2b_branch2a_relu
I0304 20:32:45.149127 23741 net.cpp:100] Creating Layer res2b_branch2a_relu
I0304 20:32:45.149130 23741 net.cpp:434] res2b_branch2a_relu <- res2b_branch2a
I0304 20:32:45.149134 23741 net.cpp:395] res2b_branch2a_relu -> res2b_branch2a (in-place)
I0304 20:32:45.149997 23741 net.cpp:150] Setting up res2b_branch2a_relu
I0304 20:32:45.150010 23741 net.cpp:157] Top shape: 16 64 56 56 (3211264)
I0304 20:32:45.150015 23741 net.cpp:165] Memory required for data: 921632832
I0304 20:32:45.150019 23741 layer_factory.hpp:77] Creating layer res2b_branch2b
I0304 20:32:45.150027 23741 net.cpp:100] Creating Layer res2b_branch2b
I0304 20:32:45.150030 23741 net.cpp:434] res2b_branch2b <- res2b_branch2a
I0304 20:32:45.150037 23741 net.cpp:408] res2b_branch2b -> res2b_branch2b
I0304 20:32:45.154762 23741 net.cpp:150] Setting up res2b_branch2b
I0304 20:32:45.154773 23741 net.cpp:157] Top shape: 16 64 56 56 (3211264)
I0304 20:32:45.154778 23741 net.cpp:165] Memory required for data: 934477888
I0304 20:32:45.154783 23741 layer_factory.hpp:77] Creating layer bn2b_branch2b
I0304 20:32:45.154801 23741 net.cpp:100] Creating Layer bn2b_branch2b
I0304 20:32:45.154806 23741 net.cpp:434] bn2b_branch2b <- res2b_branch2b
I0304 20:32:45.154813 23741 net.cpp:395] bn2b_branch2b -> res2b_branch2b (in-place)
I0304 20:32:45.155026 23741 net.cpp:150] Setting up bn2b_branch2b
I0304 20:32:45.155045 23741 net.cpp:157] Top shape: 16 64 56 56 (3211264)
I0304 20:32:45.155050 23741 net.cpp:165] Memory required for data: 947322944
I0304 20:32:45.155058 23741 layer_factory.hpp:77] Creating layer scale2b_branch2b
I0304 20:32:45.155076 23741 net.cpp:100] Creating Layer scale2b_branch2b
I0304 20:32:45.155079 23741 net.cpp:434] scale2b_branch2b <- res2b_branch2b
I0304 20:32:45.155095 23741 net.cpp:395] scale2b_branch2b -> res2b_branch2b (in-place)
I0304 20:32:45.155166 23741 layer_factory.hpp:77] Creating layer scale2b_branch2b
I0304 20:32:45.155310 23741 net.cpp:150] Setting up scale2b_branch2b
I0304 20:32:45.155319 23741 net.cpp:157] Top shape: 16 64 56 56 (3211264)
I0304 20:32:45.155333 23741 net.cpp:165] Memory required for data: 960168000
I0304 20:32:45.155339 23741 layer_factory.hpp:77] Creating layer res2b_branch2b_relu
I0304 20:32:45.155347 23741 net.cpp:100] Creating Layer res2b_branch2b_relu
I0304 20:32:45.155361 23741 net.cpp:434] res2b_branch2b_relu <- res2b_branch2b
I0304 20:32:45.155376 23741 net.cpp:395] res2b_branch2b_relu -> res2b_branch2b (in-place)
I0304 20:32:45.155591 23741 net.cpp:150] Setting up res2b_branch2b_relu
I0304 20:32:45.155609 23741 net.cpp:157] Top shape: 16 64 56 56 (3211264)
I0304 20:32:45.155613 23741 net.cpp:165] Memory required for data: 973013056
I0304 20:32:45.155616 23741 layer_factory.hpp:77] Creating layer res2b_branch2c
I0304 20:32:45.155629 23741 net.cpp:100] Creating Layer res2b_branch2c
I0304 20:32:45.155635 23741 net.cpp:434] res2b_branch2c <- res2b_branch2b
I0304 20:32:45.155642 23741 net.cpp:408] res2b_branch2c -> res2b_branch2c
I0304 20:32:45.159211 23741 net.cpp:150] Setting up res2b_branch2c
I0304 20:32:45.159224 23741 net.cpp:157] Top shape: 16 256 56 56 (12845056)
I0304 20:32:45.159229 23741 net.cpp:165] Memory required for data: 1024393280
I0304 20:32:45.159235 23741 layer_factory.hpp:77] Creating layer bn2b_branch2c
I0304 20:32:45.159240 23741 net.cpp:100] Creating Layer bn2b_branch2c
I0304 20:32:45.159245 23741 net.cpp:434] bn2b_branch2c <- res2b_branch2c
I0304 20:32:45.159253 23741 net.cpp:395] bn2b_branch2c -> res2b_branch2c (in-place)
I0304 20:32:45.159441 23741 net.cpp:150] Setting up bn2b_branch2c
I0304 20:32:45.159449 23741 net.cpp:157] Top shape: 16 256 56 56 (12845056)
I0304 20:32:45.159453 23741 net.cpp:165] Memory required for data: 1075773504
I0304 20:32:45.159461 23741 layer_factory.hpp:77] Creating layer scale2b_branch2c
I0304 20:32:45.159469 23741 net.cpp:100] Creating Layer scale2b_branch2c
I0304 20:32:45.159472 23741 net.cpp:434] scale2b_branch2c <- res2b_branch2c
I0304 20:32:45.159479 23741 net.cpp:395] scale2b_branch2c -> res2b_branch2c (in-place)
I0304 20:32:45.159520 23741 layer_factory.hpp:77] Creating layer scale2b_branch2c
I0304 20:32:45.159636 23741 net.cpp:150] Setting up scale2b_branch2c
I0304 20:32:45.159644 23741 net.cpp:157] Top shape: 16 256 56 56 (12845056)
I0304 20:32:45.159648 23741 net.cpp:165] Memory required for data: 1127153728
I0304 20:32:45.159656 23741 layer_factory.hpp:77] Creating layer res2b
I0304 20:32:45.159663 23741 net.cpp:100] Creating Layer res2b
I0304 20:32:45.159668 23741 net.cpp:434] res2b <- res2a_res2a_relu_0_split_1
I0304 20:32:45.159674 23741 net.cpp:434] res2b <- res2b_branch2c
I0304 20:32:45.159680 23741 net.cpp:408] res2b -> res2b
I0304 20:32:45.159708 23741 net.cpp:150] Setting up res2b
I0304 20:32:45.159715 23741 net.cpp:157] Top shape: 16 256 56 56 (12845056)
I0304 20:32:45.159720 23741 net.cpp:165] Memory required for data: 1178533952
I0304 20:32:45.159725 23741 layer_factory.hpp:77] Creating layer res2b_relu
I0304 20:32:45.159732 23741 net.cpp:100] Creating Layer res2b_relu
I0304 20:32:45.159737 23741 net.cpp:434] res2b_relu <- res2b
I0304 20:32:45.159744 23741 net.cpp:395] res2b_relu -> res2b (in-place)
I0304 20:32:45.160291 23741 net.cpp:150] Setting up res2b_relu
I0304 20:32:45.160313 23741 net.cpp:157] Top shape: 16 256 56 56 (12845056)
I0304 20:32:45.160317 23741 net.cpp:165] Memory required for data: 1229914176
I0304 20:32:45.160321 23741 layer_factory.hpp:77] Creating layer res2b_res2b_relu_0_split
I0304 20:32:45.160329 23741 net.cpp:100] Creating Layer res2b_res2b_relu_0_split
I0304 20:32:45.160334 23741 net.cpp:434] res2b_res2b_relu_0_split <- res2b
I0304 20:32:45.160341 23741 net.cpp:408] res2b_res2b_relu_0_split -> res2b_res2b_relu_0_split_0
I0304 20:32:45.160361 23741 net.cpp:408] res2b_res2b_relu_0_split -> res2b_res2b_relu_0_split_1
I0304 20:32:45.160418 23741 net.cpp:150] Setting up res2b_res2b_relu_0_split
I0304 20:32:45.160424 23741 net.cpp:157] Top shape: 16 256 56 56 (12845056)
I0304 20:32:45.160439 23741 net.cpp:157] Top shape: 16 256 56 56 (12845056)
I0304 20:32:45.160442 23741 net.cpp:165] Memory required for data: 1332674624
I0304 20:32:45.160445 23741 layer_factory.hpp:77] Creating layer res2c_branch2a
I0304 20:32:45.160455 23741 net.cpp:100] Creating Layer res2c_branch2a
I0304 20:32:45.160461 23741 net.cpp:434] res2c_branch2a <- res2b_res2b_relu_0_split_0
I0304 20:32:45.160476 23741 net.cpp:408] res2c_branch2a -> res2c_branch2a
I0304 20:32:45.163916 23741 net.cpp:150] Setting up res2c_branch2a
I0304 20:32:45.163928 23741 net.cpp:157] Top shape: 16 64 56 56 (3211264)
I0304 20:32:45.163933 23741 net.cpp:165] Memory required for data: 1345519680
I0304 20:32:45.163938 23741 layer_factory.hpp:77] Creating layer bn2c_branch2a
I0304 20:32:45.163946 23741 net.cpp:100] Creating Layer bn2c_branch2a
I0304 20:32:45.163951 23741 net.cpp:434] bn2c_branch2a <- res2c_branch2a
I0304 20:32:45.163957 23741 net.cpp:395] bn2c_branch2a -> res2c_branch2a (in-place)
I0304 20:32:45.164166 23741 net.cpp:150] Setting up bn2c_branch2a
I0304 20:32:45.164176 23741 net.cpp:157] Top shape: 16 64 56 56 (3211264)
I0304 20:32:45.164180 23741 net.cpp:165] Memory required for data: 1358364736
I0304 20:32:45.164188 23741 layer_factory.hpp:77] Creating layer scale2c_branch2a
I0304 20:32:45.164196 23741 net.cpp:100] Creating Layer scale2c_branch2a
I0304 20:32:45.164201 23741 net.cpp:434] scale2c_branch2a <- res2c_branch2a
I0304 20:32:45.164206 23741 net.cpp:395] scale2c_branch2a -> res2c_branch2a (in-place)
I0304 20:32:45.164245 23741 layer_factory.hpp:77] Creating layer scale2c_branch2a
I0304 20:32:45.164361 23741 net.cpp:150] Setting up scale2c_branch2a
I0304 20:32:45.164369 23741 net.cpp:157] Top shape: 16 64 56 56 (3211264)
I0304 20:32:45.164373 23741 net.cpp:165] Memory required for data: 1371209792
I0304 20:32:45.164381 23741 layer_factory.hpp:77] Creating layer res2c_branch2a_relu
I0304 20:32:45.164386 23741 net.cpp:100] Creating Layer res2c_branch2a_relu
I0304 20:32:45.164391 23741 net.cpp:434] res2c_branch2a_relu <- res2c_branch2a
I0304 20:32:45.164397 23741 net.cpp:395] res2c_branch2a_relu -> res2c_branch2a (in-place)
I0304 20:32:45.165153 23741 net.cpp:150] Setting up res2c_branch2a_relu
I0304 20:32:45.165164 23741 net.cpp:157] Top shape: 16 64 56 56 (3211264)
I0304 20:32:45.165169 23741 net.cpp:165] Memory required for data: 1384054848
I0304 20:32:45.165174 23741 layer_factory.hpp:77] Creating layer res2c_branch2b
I0304 20:32:45.165182 23741 net.cpp:100] Creating Layer res2c_branch2b
I0304 20:32:45.165187 23741 net.cpp:434] res2c_branch2b <- res2c_branch2a
I0304 20:32:45.165194 23741 net.cpp:408] res2c_branch2b -> res2c_branch2b
I0304 20:32:45.169462 23741 net.cpp:150] Setting up res2c_branch2b
I0304 20:32:45.169474 23741 net.cpp:157] Top shape: 16 64 56 56 (3211264)
I0304 20:32:45.169478 23741 net.cpp:165] Memory required for data: 1396899904
I0304 20:32:45.169484 23741 layer_factory.hpp:77] Creating layer bn2c_branch2b
I0304 20:32:45.169492 23741 net.cpp:100] Creating Layer bn2c_branch2b
I0304 20:32:45.169497 23741 net.cpp:434] bn2c_branch2b <- res2c_branch2b
I0304 20:32:45.169502 23741 net.cpp:395] bn2c_branch2b -> res2c_branch2b (in-place)
I0304 20:32:45.169701 23741 net.cpp:150] Setting up bn2c_branch2b
I0304 20:32:45.169709 23741 net.cpp:157] Top shape: 16 64 56 56 (3211264)
I0304 20:32:45.169713 23741 net.cpp:165] Memory required for data: 1409744960
I0304 20:32:45.169721 23741 layer_factory.hpp:77] Creating layer scale2c_branch2b
I0304 20:32:45.169728 23741 net.cpp:100] Creating Layer scale2c_branch2b
I0304 20:32:45.169733 23741 net.cpp:434] scale2c_branch2b <- res2c_branch2b
I0304 20:32:45.169737 23741 net.cpp:395] scale2c_branch2b -> res2c_branch2b (in-place)
I0304 20:32:45.169777 23741 layer_factory.hpp:77] Creating layer scale2c_branch2b
I0304 20:32:45.169898 23741 net.cpp:150] Setting up scale2c_branch2b
I0304 20:32:45.169908 23741 net.cpp:157] Top shape: 16 64 56 56 (3211264)
I0304 20:32:45.169912 23741 net.cpp:165] Memory required for data: 1422590016
I0304 20:32:45.169920 23741 layer_factory.hpp:77] Creating layer res2c_branch2b_relu
I0304 20:32:45.169927 23741 net.cpp:100] Creating Layer res2c_branch2b_relu
I0304 20:32:45.169932 23741 net.cpp:434] res2c_branch2b_relu <- res2c_branch2b
I0304 20:32:45.169939 23741 net.cpp:395] res2c_branch2b_relu -> res2c_branch2b (in-place)
I0304 20:32:45.170358 23741 net.cpp:150] Setting up res2c_branch2b_relu
I0304 20:32:45.170368 23741 net.cpp:157] Top shape: 16 64 56 56 (3211264)
I0304 20:32:45.170373 23741 net.cpp:165] Memory required for data: 1435435072
I0304 20:32:45.170377 23741 layer_factory.hpp:77] Creating layer res2c_branch2c
I0304 20:32:45.170385 23741 net.cpp:100] Creating Layer res2c_branch2c
I0304 20:32:45.170390 23741 net.cpp:434] res2c_branch2c <- res2c_branch2b
I0304 20:32:45.170397 23741 net.cpp:408] res2c_branch2c -> res2c_branch2c
I0304 20:32:45.173945 23741 net.cpp:150] Setting up res2c_branch2c
I0304 20:32:45.173959 23741 net.cpp:157] Top shape: 16 256 56 56 (12845056)
I0304 20:32:45.173964 23741 net.cpp:165] Memory required for data: 1486815296
I0304 20:32:45.173969 23741 layer_factory.hpp:77] Creating layer bn2c_branch2c
I0304 20:32:45.173976 23741 net.cpp:100] Creating Layer bn2c_branch2c
I0304 20:32:45.173982 23741 net.cpp:434] bn2c_branch2c <- res2c_branch2c
I0304 20:32:45.173987 23741 net.cpp:395] bn2c_branch2c -> res2c_branch2c (in-place)
I0304 20:32:45.174180 23741 net.cpp:150] Setting up bn2c_branch2c
I0304 20:32:45.174188 23741 net.cpp:157] Top shape: 16 256 56 56 (12845056)
I0304 20:32:45.174193 23741 net.cpp:165] Memory required for data: 1538195520
I0304 20:32:45.174211 23741 layer_factory.hpp:77] Creating layer scale2c_branch2c
I0304 20:32:45.174221 23741 net.cpp:100] Creating Layer scale2c_branch2c
I0304 20:32:45.174227 23741 net.cpp:434] scale2c_branch2c <- res2c_branch2c
I0304 20:32:45.174235 23741 net.cpp:395] scale2c_branch2c -> res2c_branch2c (in-place)
I0304 20:32:45.174276 23741 layer_factory.hpp:77] Creating layer scale2c_branch2c
I0304 20:32:45.174396 23741 net.cpp:150] Setting up scale2c_branch2c
I0304 20:32:45.174406 23741 net.cpp:157] Top shape: 16 256 56 56 (12845056)
I0304 20:32:45.174409 23741 net.cpp:165] Memory required for data: 1589575744
I0304 20:32:45.174417 23741 layer_factory.hpp:77] Creating layer res2c
I0304 20:32:45.174423 23741 net.cpp:100] Creating Layer res2c
I0304 20:32:45.174428 23741 net.cpp:434] res2c <- res2b_res2b_relu_0_split_1
I0304 20:32:45.174434 23741 net.cpp:434] res2c <- res2c_branch2c
I0304 20:32:45.174441 23741 net.cpp:408] res2c -> res2c
I0304 20:32:45.174465 23741 net.cpp:150] Setting up res2c
I0304 20:32:45.174474 23741 net.cpp:157] Top shape: 16 256 56 56 (12845056)
I0304 20:32:45.174479 23741 net.cpp:165] Memory required for data: 1640955968
I0304 20:32:45.174484 23741 layer_factory.hpp:77] Creating layer res2c_relu
I0304 20:32:45.174489 23741 net.cpp:100] Creating Layer res2c_relu
I0304 20:32:45.174494 23741 net.cpp:434] res2c_relu <- res2c
I0304 20:32:45.174500 23741 net.cpp:395] res2c_relu -> res2c (in-place)
I0304 20:32:45.176139 23741 net.cpp:150] Setting up res2c_relu
I0304 20:32:45.176152 23741 net.cpp:157] Top shape: 16 256 56 56 (12845056)
I0304 20:32:45.176156 23741 net.cpp:165] Memory required for data: 1692336192
I0304 20:32:45.176161 23741 layer_factory.hpp:77] Creating layer res2c_res2c_relu_0_split
I0304 20:32:45.176167 23741 net.cpp:100] Creating Layer res2c_res2c_relu_0_split
I0304 20:32:45.176169 23741 net.cpp:434] res2c_res2c_relu_0_split <- res2c
I0304 20:32:45.176177 23741 net.cpp:408] res2c_res2c_relu_0_split -> res2c_res2c_relu_0_split_0
I0304 20:32:45.176182 23741 net.cpp:408] res2c_res2c_relu_0_split -> res2c_res2c_relu_0_split_1
I0304 20:32:45.176223 23741 net.cpp:150] Setting up res2c_res2c_relu_0_split
I0304 20:32:45.176230 23741 net.cpp:157] Top shape: 16 256 56 56 (12845056)
I0304 20:32:45.176235 23741 net.cpp:157] Top shape: 16 256 56 56 (12845056)
I0304 20:32:45.176239 23741 net.cpp:165] Memory required for data: 1795096640
I0304 20:32:45.176242 23741 layer_factory.hpp:77] Creating layer res3a_branch1
I0304 20:32:45.176249 23741 net.cpp:100] Creating Layer res3a_branch1
I0304 20:32:45.176252 23741 net.cpp:434] res3a_branch1 <- res2c_res2c_relu_0_split_0
I0304 20:32:45.176259 23741 net.cpp:408] res3a_branch1 -> res3a_branch1
I0304 20:32:45.180070 23741 net.cpp:150] Setting up res3a_branch1
I0304 20:32:45.180084 23741 net.cpp:157] Top shape: 16 512 28 28 (6422528)
I0304 20:32:45.180088 23741 net.cpp:165] Memory required for data: 1820786752
I0304 20:32:45.180094 23741 layer_factory.hpp:77] Creating layer bn3a_branch1
I0304 20:32:45.180101 23741 net.cpp:100] Creating Layer bn3a_branch1
I0304 20:32:45.180105 23741 net.cpp:434] bn3a_branch1 <- res3a_branch1
I0304 20:32:45.180111 23741 net.cpp:395] bn3a_branch1 -> res3a_branch1 (in-place)
I0304 20:32:45.180632 23741 net.cpp:150] Setting up bn3a_branch1
I0304 20:32:45.180644 23741 net.cpp:157] Top shape: 16 512 28 28 (6422528)
I0304 20:32:45.180647 23741 net.cpp:165] Memory required for data: 1846476864
I0304 20:32:45.180655 23741 layer_factory.hpp:77] Creating layer scale3a_branch1
I0304 20:32:45.180663 23741 net.cpp:100] Creating Layer scale3a_branch1
I0304 20:32:45.180667 23741 net.cpp:434] scale3a_branch1 <- res3a_branch1
I0304 20:32:45.180673 23741 net.cpp:395] scale3a_branch1 -> res3a_branch1 (in-place)
I0304 20:32:45.180713 23741 layer_factory.hpp:77] Creating layer scale3a_branch1
I0304 20:32:45.180824 23741 net.cpp:150] Setting up scale3a_branch1
I0304 20:32:45.180832 23741 net.cpp:157] Top shape: 16 512 28 28 (6422528)
I0304 20:32:45.180836 23741 net.cpp:165] Memory required for data: 1872166976
I0304 20:32:45.180842 23741 layer_factory.hpp:77] Creating layer res3a_branch2a
I0304 20:32:45.180853 23741 net.cpp:100] Creating Layer res3a_branch2a
I0304 20:32:45.180858 23741 net.cpp:434] res3a_branch2a <- res2c_res2c_relu_0_split_1
I0304 20:32:45.180865 23741 net.cpp:408] res3a_branch2a -> res3a_branch2a
I0304 20:32:45.183583 23741 net.cpp:150] Setting up res3a_branch2a
I0304 20:32:45.183594 23741 net.cpp:157] Top shape: 16 128 28 28 (1605632)
I0304 20:32:45.183599 23741 net.cpp:165] Memory required for data: 1878589504
I0304 20:32:45.183604 23741 layer_factory.hpp:77] Creating layer bn3a_branch2a
I0304 20:32:45.183612 23741 net.cpp:100] Creating Layer bn3a_branch2a
I0304 20:32:45.183619 23741 net.cpp:434] bn3a_branch2a <- res3a_branch2a
I0304 20:32:45.183624 23741 net.cpp:395] bn3a_branch2a -> res3a_branch2a (in-place)
I0304 20:32:45.183820 23741 net.cpp:150] Setting up bn3a_branch2a
I0304 20:32:45.183830 23741 net.cpp:157] Top shape: 16 128 28 28 (1605632)
I0304 20:32:45.183835 23741 net.cpp:165] Memory required for data: 1885012032
I0304 20:32:45.183843 23741 layer_factory.hpp:77] Creating layer scale3a_branch2a
I0304 20:32:45.183850 23741 net.cpp:100] Creating Layer scale3a_branch2a
I0304 20:32:45.183854 23741 net.cpp:434] scale3a_branch2a <- res3a_branch2a
I0304 20:32:45.183861 23741 net.cpp:395] scale3a_branch2a -> res3a_branch2a (in-place)
I0304 20:32:45.183898 23741 layer_factory.hpp:77] Creating layer scale3a_branch2a
I0304 20:32:45.184007 23741 net.cpp:150] Setting up scale3a_branch2a
I0304 20:32:45.184015 23741 net.cpp:157] Top shape: 16 128 28 28 (1605632)
I0304 20:32:45.184018 23741 net.cpp:165] Memory required for data: 1891434560
I0304 20:32:45.184025 23741 layer_factory.hpp:77] Creating layer res3a_branch2a_relu
I0304 20:32:45.184031 23741 net.cpp:100] Creating Layer res3a_branch2a_relu
I0304 20:32:45.184033 23741 net.cpp:434] res3a_branch2a_relu <- res3a_branch2a
I0304 20:32:45.184039 23741 net.cpp:395] res3a_branch2a_relu -> res3a_branch2a (in-place)
I0304 20:32:45.184479 23741 net.cpp:150] Setting up res3a_branch2a_relu
I0304 20:32:45.184490 23741 net.cpp:157] Top shape: 16 128 28 28 (1605632)
I0304 20:32:45.184495 23741 net.cpp:165] Memory required for data: 1897857088
I0304 20:32:45.184500 23741 layer_factory.hpp:77] Creating layer res3a_branch2b
I0304 20:32:45.184511 23741 net.cpp:100] Creating Layer res3a_branch2b
I0304 20:32:45.184517 23741 net.cpp:434] res3a_branch2b <- res3a_branch2a
I0304 20:32:45.184525 23741 net.cpp:408] res3a_branch2b -> res3a_branch2b
I0304 20:32:45.188328 23741 net.cpp:150] Setting up res3a_branch2b
I0304 20:32:45.188341 23741 net.cpp:157] Top shape: 16 128 28 28 (1605632)
I0304 20:32:45.188347 23741 net.cpp:165] Memory required for data: 1904279616
I0304 20:32:45.188354 23741 layer_factory.hpp:77] Creating layer bn3a_branch2b
I0304 20:32:45.188362 23741 net.cpp:100] Creating Layer bn3a_branch2b
I0304 20:32:45.188369 23741 net.cpp:434] bn3a_branch2b <- res3a_branch2b
I0304 20:32:45.188375 23741 net.cpp:395] bn3a_branch2b -> res3a_branch2b (in-place)
I0304 20:32:45.188581 23741 net.cpp:150] Setting up bn3a_branch2b
I0304 20:32:45.188591 23741 net.cpp:157] Top shape: 16 128 28 28 (1605632)
I0304 20:32:45.188594 23741 net.cpp:165] Memory required for data: 1910702144
I0304 20:32:45.188603 23741 layer_factory.hpp:77] Creating layer scale3a_branch2b
I0304 20:32:45.188611 23741 net.cpp:100] Creating Layer scale3a_branch2b
I0304 20:32:45.188616 23741 net.cpp:434] scale3a_branch2b <- res3a_branch2b
I0304 20:32:45.188621 23741 net.cpp:395] scale3a_branch2b -> res3a_branch2b (in-place)
I0304 20:32:45.188661 23741 layer_factory.hpp:77] Creating layer scale3a_branch2b
I0304 20:32:45.188776 23741 net.cpp:150] Setting up scale3a_branch2b
I0304 20:32:45.188783 23741 net.cpp:157] Top shape: 16 128 28 28 (1605632)
I0304 20:32:45.188787 23741 net.cpp:165] Memory required for data: 1917124672
I0304 20:32:45.188796 23741 layer_factory.hpp:77] Creating layer res3a_branch2b_relu
I0304 20:32:45.188802 23741 net.cpp:100] Creating Layer res3a_branch2b_relu
I0304 20:32:45.188807 23741 net.cpp:434] res3a_branch2b_relu <- res3a_branch2b
I0304 20:32:45.188814 23741 net.cpp:395] res3a_branch2b_relu -> res3a_branch2b (in-place)
I0304 20:32:45.189290 23741 net.cpp:150] Setting up res3a_branch2b_relu
I0304 20:32:45.189298 23741 net.cpp:157] Top shape: 16 128 28 28 (1605632)
I0304 20:32:45.189303 23741 net.cpp:165] Memory required for data: 1923547200
I0304 20:32:45.189307 23741 layer_factory.hpp:77] Creating layer res3a_branch2c
I0304 20:32:45.189317 23741 net.cpp:100] Creating Layer res3a_branch2c
I0304 20:32:45.189323 23741 net.cpp:434] res3a_branch2c <- res3a_branch2b
I0304 20:32:45.189329 23741 net.cpp:408] res3a_branch2c -> res3a_branch2c
I0304 20:32:45.192845 23741 net.cpp:150] Setting up res3a_branch2c
I0304 20:32:45.192858 23741 net.cpp:157] Top shape: 16 512 28 28 (6422528)
I0304 20:32:45.192863 23741 net.cpp:165] Memory required for data: 1949237312
I0304 20:32:45.192869 23741 layer_factory.hpp:77] Creating layer bn3a_branch2c
I0304 20:32:45.192883 23741 net.cpp:100] Creating Layer bn3a_branch2c
I0304 20:32:45.192889 23741 net.cpp:434] bn3a_branch2c <- res3a_branch2c
I0304 20:32:45.192895 23741 net.cpp:395] bn3a_branch2c -> res3a_branch2c (in-place)
I0304 20:32:45.193099 23741 net.cpp:150] Setting up bn3a_branch2c
I0304 20:32:45.193109 23741 net.cpp:157] Top shape: 16 512 28 28 (6422528)
I0304 20:32:45.193114 23741 net.cpp:165] Memory required for data: 1974927424
I0304 20:32:45.193122 23741 layer_factory.hpp:77] Creating layer scale3a_branch2c
I0304 20:32:45.193130 23741 net.cpp:100] Creating Layer scale3a_branch2c
I0304 20:32:45.193136 23741 net.cpp:434] scale3a_branch2c <- res3a_branch2c
I0304 20:32:45.193142 23741 net.cpp:395] scale3a_branch2c -> res3a_branch2c (in-place)
I0304 20:32:45.193183 23741 layer_factory.hpp:77] Creating layer scale3a_branch2c
I0304 20:32:45.193300 23741 net.cpp:150] Setting up scale3a_branch2c
I0304 20:32:45.193307 23741 net.cpp:157] Top shape: 16 512 28 28 (6422528)
I0304 20:32:45.193312 23741 net.cpp:165] Memory required for data: 2000617536
I0304 20:32:45.193320 23741 layer_factory.hpp:77] Creating layer res3a
I0304 20:32:45.193327 23741 net.cpp:100] Creating Layer res3a
I0304 20:32:45.193332 23741 net.cpp:434] res3a <- res3a_branch1
I0304 20:32:45.193338 23741 net.cpp:434] res3a <- res3a_branch2c
I0304 20:32:45.193344 23741 net.cpp:408] res3a -> res3a
I0304 20:32:45.193369 23741 net.cpp:150] Setting up res3a
I0304 20:32:45.193377 23741 net.cpp:157] Top shape: 16 512 28 28 (6422528)
I0304 20:32:45.193382 23741 net.cpp:165] Memory required for data: 2026307648
I0304 20:32:45.193384 23741 layer_factory.hpp:77] Creating layer res3a_relu
I0304 20:32:45.193390 23741 net.cpp:100] Creating Layer res3a_relu
I0304 20:32:45.193395 23741 net.cpp:434] res3a_relu <- res3a
I0304 20:32:45.193403 23741 net.cpp:395] res3a_relu -> res3a (in-place)
I0304 20:32:45.193964 23741 net.cpp:150] Setting up res3a_relu
I0304 20:32:45.193974 23741 net.cpp:157] Top shape: 16 512 28 28 (6422528)
I0304 20:32:45.193979 23741 net.cpp:165] Memory required for data: 2051997760
I0304 20:32:45.193984 23741 layer_factory.hpp:77] Creating layer res3a_res3a_relu_0_split
I0304 20:32:45.193990 23741 net.cpp:100] Creating Layer res3a_res3a_relu_0_split
I0304 20:32:45.193995 23741 net.cpp:434] res3a_res3a_relu_0_split <- res3a
I0304 20:32:45.194002 23741 net.cpp:408] res3a_res3a_relu_0_split -> res3a_res3a_relu_0_split_0
I0304 20:32:45.194010 23741 net.cpp:408] res3a_res3a_relu_0_split -> res3a_res3a_relu_0_split_1
I0304 20:32:45.194053 23741 net.cpp:150] Setting up res3a_res3a_relu_0_split
I0304 20:32:45.194061 23741 net.cpp:157] Top shape: 16 512 28 28 (6422528)
I0304 20:32:45.194067 23741 net.cpp:157] Top shape: 16 512 28 28 (6422528)
I0304 20:32:45.194070 23741 net.cpp:165] Memory required for data: 2103377984
I0304 20:32:45.194074 23741 layer_factory.hpp:77] Creating layer res3b_branch2a
I0304 20:32:45.194082 23741 net.cpp:100] Creating Layer res3b_branch2a
I0304 20:32:45.194087 23741 net.cpp:434] res3b_branch2a <- res3a_res3a_relu_0_split_0
I0304 20:32:45.194093 23741 net.cpp:408] res3b_branch2a -> res3b_branch2a
I0304 20:32:45.197666 23741 net.cpp:150] Setting up res3b_branch2a
I0304 20:32:45.197680 23741 net.cpp:157] Top shape: 16 128 28 28 (1605632)
I0304 20:32:45.197686 23741 net.cpp:165] Memory required for data: 2109800512
I0304 20:32:45.197692 23741 layer_factory.hpp:77] Creating layer bn3b_branch2a
I0304 20:32:45.197698 23741 net.cpp:100] Creating Layer bn3b_branch2a
I0304 20:32:45.197703 23741 net.cpp:434] bn3b_branch2a <- res3b_branch2a
I0304 20:32:45.197710 23741 net.cpp:395] bn3b_branch2a -> res3b_branch2a (in-place)
I0304 20:32:45.197914 23741 net.cpp:150] Setting up bn3b_branch2a
I0304 20:32:45.197922 23741 net.cpp:157] Top shape: 16 128 28 28 (1605632)
I0304 20:32:45.197926 23741 net.cpp:165] Memory required for data: 2116223040
I0304 20:32:45.197933 23741 layer_factory.hpp:77] Creating layer scale3b_branch2a
I0304 20:32:45.197942 23741 net.cpp:100] Creating Layer scale3b_branch2a
I0304 20:32:45.197947 23741 net.cpp:434] scale3b_branch2a <- res3b_branch2a
I0304 20:32:45.197952 23741 net.cpp:395] scale3b_branch2a -> res3b_branch2a (in-place)
I0304 20:32:45.197993 23741 layer_factory.hpp:77] Creating layer scale3b_branch2a
I0304 20:32:45.198109 23741 net.cpp:150] Setting up scale3b_branch2a
I0304 20:32:45.198118 23741 net.cpp:157] Top shape: 16 128 28 28 (1605632)
I0304 20:32:45.198122 23741 net.cpp:165] Memory required for data: 2122645568
I0304 20:32:45.198129 23741 layer_factory.hpp:77] Creating layer res3b_branch2a_relu
I0304 20:32:45.198137 23741 net.cpp:100] Creating Layer res3b_branch2a_relu
I0304 20:32:45.198142 23741 net.cpp:434] res3b_branch2a_relu <- res3b_branch2a
I0304 20:32:45.198148 23741 net.cpp:395] res3b_branch2a_relu -> res3b_branch2a (in-place)
I0304 20:32:45.198760 23741 net.cpp:150] Setting up res3b_branch2a_relu
I0304 20:32:45.198770 23741 net.cpp:157] Top shape: 16 128 28 28 (1605632)
I0304 20:32:45.198776 23741 net.cpp:165] Memory required for data: 2129068096
I0304 20:32:45.198779 23741 layer_factory.hpp:77] Creating layer res3b_branch2b
I0304 20:32:45.198788 23741 net.cpp:100] Creating Layer res3b_branch2b
I0304 20:32:45.198793 23741 net.cpp:434] res3b_branch2b <- res3b_branch2a
I0304 20:32:45.198802 23741 net.cpp:408] res3b_branch2b -> res3b_branch2b
I0304 20:32:45.202477 23741 net.cpp:150] Setting up res3b_branch2b
I0304 20:32:45.202489 23741 net.cpp:157] Top shape: 16 128 28 28 (1605632)
I0304 20:32:45.202493 23741 net.cpp:165] Memory required for data: 2135490624
I0304 20:32:45.202499 23741 layer_factory.hpp:77] Creating layer bn3b_branch2b
I0304 20:32:45.202507 23741 net.cpp:100] Creating Layer bn3b_branch2b
I0304 20:32:45.202512 23741 net.cpp:434] bn3b_branch2b <- res3b_branch2b
I0304 20:32:45.202517 23741 net.cpp:395] bn3b_branch2b -> res3b_branch2b (in-place)
I0304 20:32:45.202728 23741 net.cpp:150] Setting up bn3b_branch2b
I0304 20:32:45.202736 23741 net.cpp:157] Top shape: 16 128 28 28 (1605632)
I0304 20:32:45.202741 23741 net.cpp:165] Memory required for data: 2141913152
I0304 20:32:45.202750 23741 layer_factory.hpp:77] Creating layer scale3b_branch2b
I0304 20:32:45.202759 23741 net.cpp:100] Creating Layer scale3b_branch2b
I0304 20:32:45.202762 23741 net.cpp:434] scale3b_branch2b <- res3b_branch2b
I0304 20:32:45.202767 23741 net.cpp:395] scale3b_branch2b -> res3b_branch2b (in-place)
I0304 20:32:45.202807 23741 layer_factory.hpp:77] Creating layer scale3b_branch2b
I0304 20:32:45.202924 23741 net.cpp:150] Setting up scale3b_branch2b
I0304 20:32:45.202930 23741 net.cpp:157] Top shape: 16 128 28 28 (1605632)
I0304 20:32:45.202934 23741 net.cpp:165] Memory required for data: 2148335680
I0304 20:32:45.202940 23741 layer_factory.hpp:77] Creating layer res3b_branch2b_relu
I0304 20:32:45.202946 23741 net.cpp:100] Creating Layer res3b_branch2b_relu
I0304 20:32:45.202951 23741 net.cpp:434] res3b_branch2b_relu <- res3b_branch2b
I0304 20:32:45.202956 23741 net.cpp:395] res3b_branch2b_relu -> res3b_branch2b (in-place)
I0304 20:32:45.203394 23741 net.cpp:150] Setting up res3b_branch2b_relu
I0304 20:32:45.203404 23741 net.cpp:157] Top shape: 16 128 28 28 (1605632)
I0304 20:32:45.203409 23741 net.cpp:165] Memory required for data: 2154758208
I0304 20:32:45.203413 23741 layer_factory.hpp:77] Creating layer res3b_branch2c
I0304 20:32:45.203423 23741 net.cpp:100] Creating Layer res3b_branch2c
I0304 20:32:45.203429 23741 net.cpp:434] res3b_branch2c <- res3b_branch2b
I0304 20:32:45.203435 23741 net.cpp:408] res3b_branch2c -> res3b_branch2c
I0304 20:32:45.207166 23741 net.cpp:150] Setting up res3b_branch2c
I0304 20:32:45.207178 23741 net.cpp:157] Top shape: 16 512 28 28 (6422528)
I0304 20:32:45.207183 23741 net.cpp:165] Memory required for data: 2180448320
I0304 20:32:45.207188 23741 layer_factory.hpp:77] Creating layer bn3b_branch2c
I0304 20:32:45.207195 23741 net.cpp:100] Creating Layer bn3b_branch2c
I0304 20:32:45.207200 23741 net.cpp:434] bn3b_branch2c <- res3b_branch2c
I0304 20:32:45.207206 23741 net.cpp:395] bn3b_branch2c -> res3b_branch2c (in-place)
I0304 20:32:45.207413 23741 net.cpp:150] Setting up bn3b_branch2c
I0304 20:32:45.207420 23741 net.cpp:157] Top shape: 16 512 28 28 (6422528)
I0304 20:32:45.207424 23741 net.cpp:165] Memory required for data: 2206138432
I0304 20:32:45.207432 23741 layer_factory.hpp:77] Creating layer scale3b_branch2c
I0304 20:32:45.207438 23741 net.cpp:100] Creating Layer scale3b_branch2c
I0304 20:32:45.207442 23741 net.cpp:434] scale3b_branch2c <- res3b_branch2c
I0304 20:32:45.207446 23741 net.cpp:395] scale3b_branch2c -> res3b_branch2c (in-place)
I0304 20:32:45.207485 23741 layer_factory.hpp:77] Creating layer scale3b_branch2c
I0304 20:32:45.207607 23741 net.cpp:150] Setting up scale3b_branch2c
I0304 20:32:45.207614 23741 net.cpp:157] Top shape: 16 512 28 28 (6422528)
I0304 20:32:45.207618 23741 net.cpp:165] Memory required for data: 2231828544
I0304 20:32:45.207624 23741 layer_factory.hpp:77] Creating layer res3b
I0304 20:32:45.207633 23741 net.cpp:100] Creating Layer res3b
I0304 20:32:45.207636 23741 net.cpp:434] res3b <- res3a_res3a_relu_0_split_1
I0304 20:32:45.207640 23741 net.cpp:434] res3b <- res3b_branch2c
I0304 20:32:45.207645 23741 net.cpp:408] res3b -> res3b
I0304 20:32:45.207672 23741 net.cpp:150] Setting up res3b
I0304 20:32:45.207680 23741 net.cpp:157] Top shape: 16 512 28 28 (6422528)
I0304 20:32:45.207684 23741 net.cpp:165] Memory required for data: 2257518656
I0304 20:32:45.207687 23741 layer_factory.hpp:77] Creating layer res3b_relu
I0304 20:32:45.207693 23741 net.cpp:100] Creating Layer res3b_relu
I0304 20:32:45.207697 23741 net.cpp:434] res3b_relu <- res3b
I0304 20:32:45.207703 23741 net.cpp:395] res3b_relu -> res3b (in-place)
I0304 20:32:45.208235 23741 net.cpp:150] Setting up res3b_relu
I0304 20:32:45.208246 23741 net.cpp:157] Top shape: 16 512 28 28 (6422528)
I0304 20:32:45.208250 23741 net.cpp:165] Memory required for data: 2283208768
I0304 20:32:45.208253 23741 layer_factory.hpp:77] Creating layer res3b_res3b_relu_0_split
I0304 20:32:45.208259 23741 net.cpp:100] Creating Layer res3b_res3b_relu_0_split
I0304 20:32:45.208263 23741 net.cpp:434] res3b_res3b_relu_0_split <- res3b
I0304 20:32:45.208269 23741 net.cpp:408] res3b_res3b_relu_0_split -> res3b_res3b_relu_0_split_0
I0304 20:32:45.208276 23741 net.cpp:408] res3b_res3b_relu_0_split -> res3b_res3b_relu_0_split_1
I0304 20:32:45.208317 23741 net.cpp:150] Setting up res3b_res3b_relu_0_split
I0304 20:32:45.208324 23741 net.cpp:157] Top shape: 16 512 28 28 (6422528)
I0304 20:32:45.208329 23741 net.cpp:157] Top shape: 16 512 28 28 (6422528)
I0304 20:32:45.208333 23741 net.cpp:165] Memory required for data: 2334588992
I0304 20:32:45.208336 23741 layer_factory.hpp:77] Creating layer res3c_branch2a
I0304 20:32:45.208343 23741 net.cpp:100] Creating Layer res3c_branch2a
I0304 20:32:45.208348 23741 net.cpp:434] res3c_branch2a <- res3b_res3b_relu_0_split_0
I0304 20:32:45.208353 23741 net.cpp:408] res3c_branch2a -> res3c_branch2a
I0304 20:32:45.212033 23741 net.cpp:150] Setting up res3c_branch2a
I0304 20:32:45.212055 23741 net.cpp:157] Top shape: 16 128 28 28 (1605632)
I0304 20:32:45.212059 23741 net.cpp:165] Memory required for data: 2341011520
I0304 20:32:45.212074 23741 layer_factory.hpp:77] Creating layer bn3c_branch2a
I0304 20:32:45.212085 23741 net.cpp:100] Creating Layer bn3c_branch2a
I0304 20:32:45.212090 23741 net.cpp:434] bn3c_branch2a <- res3c_branch2a
I0304 20:32:45.212096 23741 net.cpp:395] bn3c_branch2a -> res3c_branch2a (in-place)
I0304 20:32:45.212316 23741 net.cpp:150] Setting up bn3c_branch2a
I0304 20:32:45.212326 23741 net.cpp:157] Top shape: 16 128 28 28 (1605632)
I0304 20:32:45.212330 23741 net.cpp:165] Memory required for data: 2347434048
I0304 20:32:45.212340 23741 layer_factory.hpp:77] Creating layer scale3c_branch2a
I0304 20:32:45.212349 23741 net.cpp:100] Creating Layer scale3c_branch2a
I0304 20:32:45.212354 23741 net.cpp:434] scale3c_branch2a <- res3c_branch2a
I0304 20:32:45.212360 23741 net.cpp:395] scale3c_branch2a -> res3c_branch2a (in-place)
I0304 20:32:45.212404 23741 layer_factory.hpp:77] Creating layer scale3c_branch2a
I0304 20:32:45.212524 23741 net.cpp:150] Setting up scale3c_branch2a
I0304 20:32:45.212533 23741 net.cpp:157] Top shape: 16 128 28 28 (1605632)
I0304 20:32:45.212538 23741 net.cpp:165] Memory required for data: 2353856576
I0304 20:32:45.212545 23741 layer_factory.hpp:77] Creating layer res3c_branch2a_relu
I0304 20:32:45.212551 23741 net.cpp:100] Creating Layer res3c_branch2a_relu
I0304 20:32:45.212558 23741 net.cpp:434] res3c_branch2a_relu <- res3c_branch2a
I0304 20:32:45.212564 23741 net.cpp:395] res3c_branch2a_relu -> res3c_branch2a (in-place)
I0304 20:32:45.213286 23741 net.cpp:150] Setting up res3c_branch2a_relu
I0304 20:32:45.213299 23741 net.cpp:157] Top shape: 16 128 28 28 (1605632)
I0304 20:32:45.213304 23741 net.cpp:165] Memory required for data: 2360279104
I0304 20:32:45.213307 23741 layer_factory.hpp:77] Creating layer res3c_branch2b
I0304 20:32:45.213317 23741 net.cpp:100] Creating Layer res3c_branch2b
I0304 20:32:45.213323 23741 net.cpp:434] res3c_branch2b <- res3c_branch2a
I0304 20:32:45.213331 23741 net.cpp:408] res3c_branch2b -> res3c_branch2b
I0304 20:32:45.217103 23741 net.cpp:150] Setting up res3c_branch2b
I0304 20:32:45.217116 23741 net.cpp:157] Top shape: 16 128 28 28 (1605632)
I0304 20:32:45.217121 23741 net.cpp:165] Memory required for data: 2366701632
I0304 20:32:45.217128 23741 layer_factory.hpp:77] Creating layer bn3c_branch2b
I0304 20:32:45.217135 23741 net.cpp:100] Creating Layer bn3c_branch2b
I0304 20:32:45.217140 23741 net.cpp:434] bn3c_branch2b <- res3c_branch2b
I0304 20:32:45.217149 23741 net.cpp:395] bn3c_branch2b -> res3c_branch2b (in-place)
I0304 20:32:45.217371 23741 net.cpp:150] Setting up bn3c_branch2b
I0304 20:32:45.217381 23741 net.cpp:157] Top shape: 16 128 28 28 (1605632)
I0304 20:32:45.217384 23741 net.cpp:165] Memory required for data: 2373124160
I0304 20:32:45.217393 23741 layer_factory.hpp:77] Creating layer scale3c_branch2b
I0304 20:32:45.217401 23741 net.cpp:100] Creating Layer scale3c_branch2b
I0304 20:32:45.217403 23741 net.cpp:434] scale3c_branch2b <- res3c_branch2b
I0304 20:32:45.217411 23741 net.cpp:395] scale3c_branch2b -> res3c_branch2b (in-place)
I0304 20:32:45.217453 23741 layer_factory.hpp:77] Creating layer scale3c_branch2b
I0304 20:32:45.217576 23741 net.cpp:150] Setting up scale3c_branch2b
I0304 20:32:45.217586 23741 net.cpp:157] Top shape: 16 128 28 28 (1605632)
I0304 20:32:45.217588 23741 net.cpp:165] Memory required for data: 2379546688
I0304 20:32:45.217595 23741 layer_factory.hpp:77] Creating layer res3c_branch2b_relu
I0304 20:32:45.217602 23741 net.cpp:100] Creating Layer res3c_branch2b_relu
I0304 20:32:45.217607 23741 net.cpp:434] res3c_branch2b_relu <- res3c_branch2b
I0304 20:32:45.217612 23741 net.cpp:395] res3c_branch2b_relu -> res3c_branch2b (in-place)
I0304 20:32:45.217989 23741 net.cpp:150] Setting up res3c_branch2b_relu
I0304 20:32:45.217999 23741 net.cpp:157] Top shape: 16 128 28 28 (1605632)
I0304 20:32:45.218003 23741 net.cpp:165] Memory required for data: 2385969216
I0304 20:32:45.218008 23741 layer_factory.hpp:77] Creating layer res3c_branch2c
I0304 20:32:45.218015 23741 net.cpp:100] Creating Layer res3c_branch2c
I0304 20:32:45.218019 23741 net.cpp:434] res3c_branch2c <- res3c_branch2b
I0304 20:32:45.218025 23741 net.cpp:408] res3c_branch2c -> res3c_branch2c
I0304 20:32:45.221716 23741 net.cpp:150] Setting up res3c_branch2c
I0304 20:32:45.221738 23741 net.cpp:157] Top shape: 16 512 28 28 (6422528)
I0304 20:32:45.221743 23741 net.cpp:165] Memory required for data: 2411659328
I0304 20:32:45.221750 23741 layer_factory.hpp:77] Creating layer bn3c_branch2c
I0304 20:32:45.221755 23741 net.cpp:100] Creating Layer bn3c_branch2c
I0304 20:32:45.221760 23741 net.cpp:434] bn3c_branch2c <- res3c_branch2c
I0304 20:32:45.221766 23741 net.cpp:395] bn3c_branch2c -> res3c_branch2c (in-place)
I0304 20:32:45.221992 23741 net.cpp:150] Setting up bn3c_branch2c
I0304 20:32:45.222012 23741 net.cpp:157] Top shape: 16 512 28 28 (6422528)
I0304 20:32:45.222015 23741 net.cpp:165] Memory required for data: 2437349440
I0304 20:32:45.222023 23741 layer_factory.hpp:77] Creating layer scale3c_branch2c
I0304 20:32:45.222030 23741 net.cpp:100] Creating Layer scale3c_branch2c
I0304 20:32:45.222035 23741 net.cpp:434] scale3c_branch2c <- res3c_branch2c
I0304 20:32:45.222040 23741 net.cpp:395] scale3c_branch2c -> res3c_branch2c (in-place)
I0304 20:32:45.222100 23741 layer_factory.hpp:77] Creating layer scale3c_branch2c
I0304 20:32:45.222229 23741 net.cpp:150] Setting up scale3c_branch2c
I0304 20:32:45.222239 23741 net.cpp:157] Top shape: 16 512 28 28 (6422528)
I0304 20:32:45.222242 23741 net.cpp:165] Memory required for data: 2463039552
I0304 20:32:45.222249 23741 layer_factory.hpp:77] Creating layer res3c
I0304 20:32:45.222257 23741 net.cpp:100] Creating Layer res3c
I0304 20:32:45.222264 23741 net.cpp:434] res3c <- res3b_res3b_relu_0_split_1
I0304 20:32:45.222267 23741 net.cpp:434] res3c <- res3c_branch2c
I0304 20:32:45.222272 23741 net.cpp:408] res3c -> res3c
I0304 20:32:45.222298 23741 net.cpp:150] Setting up res3c
I0304 20:32:45.222307 23741 net.cpp:157] Top shape: 16 512 28 28 (6422528)
I0304 20:32:45.222311 23741 net.cpp:165] Memory required for data: 2488729664
I0304 20:32:45.222316 23741 layer_factory.hpp:77] Creating layer res3c_relu
I0304 20:32:45.222321 23741 net.cpp:100] Creating Layer res3c_relu
I0304 20:32:45.222324 23741 net.cpp:434] res3c_relu <- res3c
I0304 20:32:45.222331 23741 net.cpp:395] res3c_relu -> res3c (in-place)
I0304 20:32:45.222779 23741 net.cpp:150] Setting up res3c_relu
I0304 20:32:45.222789 23741 net.cpp:157] Top shape: 16 512 28 28 (6422528)
I0304 20:32:45.222793 23741 net.cpp:165] Memory required for data: 2514419776
I0304 20:32:45.222798 23741 layer_factory.hpp:77] Creating layer res3c_res3c_relu_0_split
I0304 20:32:45.222805 23741 net.cpp:100] Creating Layer res3c_res3c_relu_0_split
I0304 20:32:45.222810 23741 net.cpp:434] res3c_res3c_relu_0_split <- res3c
I0304 20:32:45.222818 23741 net.cpp:408] res3c_res3c_relu_0_split -> res3c_res3c_relu_0_split_0
I0304 20:32:45.222826 23741 net.cpp:408] res3c_res3c_relu_0_split -> res3c_res3c_relu_0_split_1
I0304 20:32:45.222869 23741 net.cpp:150] Setting up res3c_res3c_relu_0_split
I0304 20:32:45.222878 23741 net.cpp:157] Top shape: 16 512 28 28 (6422528)
I0304 20:32:45.222884 23741 net.cpp:157] Top shape: 16 512 28 28 (6422528)
I0304 20:32:45.222888 23741 net.cpp:165] Memory required for data: 2565800000
I0304 20:32:45.222892 23741 layer_factory.hpp:77] Creating layer res3d_branch2a
I0304 20:32:45.222900 23741 net.cpp:100] Creating Layer res3d_branch2a
I0304 20:32:45.222905 23741 net.cpp:434] res3d_branch2a <- res3c_res3c_relu_0_split_0
I0304 20:32:45.222913 23741 net.cpp:408] res3d_branch2a -> res3d_branch2a
I0304 20:32:45.226347 23741 net.cpp:150] Setting up res3d_branch2a
I0304 20:32:45.226361 23741 net.cpp:157] Top shape: 16 128 28 28 (1605632)
I0304 20:32:45.226367 23741 net.cpp:165] Memory required for data: 2572222528
I0304 20:32:45.226374 23741 layer_factory.hpp:77] Creating layer bn3d_branch2a
I0304 20:32:45.226382 23741 net.cpp:100] Creating Layer bn3d_branch2a
I0304 20:32:45.226387 23741 net.cpp:434] bn3d_branch2a <- res3d_branch2a
I0304 20:32:45.226395 23741 net.cpp:395] bn3d_branch2a -> res3d_branch2a (in-place)
I0304 20:32:45.226621 23741 net.cpp:150] Setting up bn3d_branch2a
I0304 20:32:45.226630 23741 net.cpp:157] Top shape: 16 128 28 28 (1605632)
I0304 20:32:45.226635 23741 net.cpp:165] Memory required for data: 2578645056
I0304 20:32:45.226660 23741 layer_factory.hpp:77] Creating layer scale3d_branch2a
I0304 20:32:45.226670 23741 net.cpp:100] Creating Layer scale3d_branch2a
I0304 20:32:45.226675 23741 net.cpp:434] scale3d_branch2a <- res3d_branch2a
I0304 20:32:45.226680 23741 net.cpp:395] scale3d_branch2a -> res3d_branch2a (in-place)
I0304 20:32:45.226725 23741 layer_factory.hpp:77] Creating layer scale3d_branch2a
I0304 20:32:45.226848 23741 net.cpp:150] Setting up scale3d_branch2a
I0304 20:32:45.226856 23741 net.cpp:157] Top shape: 16 128 28 28 (1605632)
I0304 20:32:45.226861 23741 net.cpp:165] Memory required for data: 2585067584
I0304 20:32:45.226867 23741 layer_factory.hpp:77] Creating layer res3d_branch2a_relu
I0304 20:32:45.226876 23741 net.cpp:100] Creating Layer res3d_branch2a_relu
I0304 20:32:45.226881 23741 net.cpp:434] res3d_branch2a_relu <- res3d_branch2a
I0304 20:32:45.226886 23741 net.cpp:395] res3d_branch2a_relu -> res3d_branch2a (in-place)
I0304 20:32:45.228116 23741 net.cpp:150] Setting up res3d_branch2a_relu
I0304 20:32:45.228128 23741 net.cpp:157] Top shape: 16 128 28 28 (1605632)
I0304 20:32:45.228134 23741 net.cpp:165] Memory required for data: 2591490112
I0304 20:32:45.228139 23741 layer_factory.hpp:77] Creating layer res3d_branch2b
I0304 20:32:45.228147 23741 net.cpp:100] Creating Layer res3d_branch2b
I0304 20:32:45.228153 23741 net.cpp:434] res3d_branch2b <- res3d_branch2a
I0304 20:32:45.228162 23741 net.cpp:408] res3d_branch2b -> res3d_branch2b
I0304 20:32:45.231912 23741 net.cpp:150] Setting up res3d_branch2b
I0304 20:32:45.231925 23741 net.cpp:157] Top shape: 16 128 28 28 (1605632)
I0304 20:32:45.231930 23741 net.cpp:165] Memory required for data: 2597912640
I0304 20:32:45.231936 23741 layer_factory.hpp:77] Creating layer bn3d_branch2b
I0304 20:32:45.231945 23741 net.cpp:100] Creating Layer bn3d_branch2b
I0304 20:32:45.231951 23741 net.cpp:434] bn3d_branch2b <- res3d_branch2b
I0304 20:32:45.231957 23741 net.cpp:395] bn3d_branch2b -> res3d_branch2b (in-place)
I0304 20:32:45.232192 23741 net.cpp:150] Setting up bn3d_branch2b
I0304 20:32:45.232203 23741 net.cpp:157] Top shape: 16 128 28 28 (1605632)
I0304 20:32:45.232208 23741 net.cpp:165] Memory required for data: 2604335168
I0304 20:32:45.232216 23741 layer_factory.hpp:77] Creating layer scale3d_branch2b
I0304 20:32:45.232225 23741 net.cpp:100] Creating Layer scale3d_branch2b
I0304 20:32:45.232231 23741 net.cpp:434] scale3d_branch2b <- res3d_branch2b
I0304 20:32:45.232237 23741 net.cpp:395] scale3d_branch2b -> res3d_branch2b (in-place)
I0304 20:32:45.232281 23741 layer_factory.hpp:77] Creating layer scale3d_branch2b
I0304 20:32:45.232406 23741 net.cpp:150] Setting up scale3d_branch2b
I0304 20:32:45.232414 23741 net.cpp:157] Top shape: 16 128 28 28 (1605632)
I0304 20:32:45.232419 23741 net.cpp:165] Memory required for data: 2610757696
I0304 20:32:45.232426 23741 layer_factory.hpp:77] Creating layer res3d_branch2b_relu
I0304 20:32:45.232434 23741 net.cpp:100] Creating Layer res3d_branch2b_relu
I0304 20:32:45.232439 23741 net.cpp:434] res3d_branch2b_relu <- res3d_branch2b
I0304 20:32:45.232445 23741 net.cpp:395] res3d_branch2b_relu -> res3d_branch2b (in-place)
I0304 20:32:45.232973 23741 net.cpp:150] Setting up res3d_branch2b_relu
I0304 20:32:45.232983 23741 net.cpp:157] Top shape: 16 128 28 28 (1605632)
I0304 20:32:45.232988 23741 net.cpp:165] Memory required for data: 2617180224
I0304 20:32:45.232993 23741 layer_factory.hpp:77] Creating layer res3d_branch2c
I0304 20:32:45.233002 23741 net.cpp:100] Creating Layer res3d_branch2c
I0304 20:32:45.233008 23741 net.cpp:434] res3d_branch2c <- res3d_branch2b
I0304 20:32:45.233016 23741 net.cpp:408] res3d_branch2c -> res3d_branch2c
I0304 20:32:45.236708 23741 net.cpp:150] Setting up res3d_branch2c
I0304 20:32:45.236721 23741 net.cpp:157] Top shape: 16 512 28 28 (6422528)
I0304 20:32:45.236727 23741 net.cpp:165] Memory required for data: 2642870336
I0304 20:32:45.236733 23741 layer_factory.hpp:77] Creating layer bn3d_branch2c
I0304 20:32:45.236740 23741 net.cpp:100] Creating Layer bn3d_branch2c
I0304 20:32:45.236747 23741 net.cpp:434] bn3d_branch2c <- res3d_branch2c
I0304 20:32:45.236753 23741 net.cpp:395] bn3d_branch2c -> res3d_branch2c (in-place)
I0304 20:32:45.236984 23741 net.cpp:150] Setting up bn3d_branch2c
I0304 20:32:45.236991 23741 net.cpp:157] Top shape: 16 512 28 28 (6422528)
I0304 20:32:45.237004 23741 net.cpp:165] Memory required for data: 2668560448
I0304 20:32:45.237012 23741 layer_factory.hpp:77] Creating layer scale3d_branch2c
I0304 20:32:45.237018 23741 net.cpp:100] Creating Layer scale3d_branch2c
I0304 20:32:45.237025 23741 net.cpp:434] scale3d_branch2c <- res3d_branch2c
I0304 20:32:45.237030 23741 net.cpp:395] scale3d_branch2c -> res3d_branch2c (in-place)
I0304 20:32:45.237084 23741 layer_factory.hpp:77] Creating layer scale3d_branch2c
I0304 20:32:45.237224 23741 net.cpp:150] Setting up scale3d_branch2c
I0304 20:32:45.237233 23741 net.cpp:157] Top shape: 16 512 28 28 (6422528)
I0304 20:32:45.237238 23741 net.cpp:165] Memory required for data: 2694250560
I0304 20:32:45.237246 23741 layer_factory.hpp:77] Creating layer res3d
I0304 20:32:45.237252 23741 net.cpp:100] Creating Layer res3d
I0304 20:32:45.237257 23741 net.cpp:434] res3d <- res3c_res3c_relu_0_split_1
I0304 20:32:45.237263 23741 net.cpp:434] res3d <- res3d_branch2c
I0304 20:32:45.237272 23741 net.cpp:408] res3d -> res3d
I0304 20:32:45.237298 23741 net.cpp:150] Setting up res3d
I0304 20:32:45.237306 23741 net.cpp:157] Top shape: 16 512 28 28 (6422528)
I0304 20:32:45.237311 23741 net.cpp:165] Memory required for data: 2719940672
I0304 20:32:45.237315 23741 layer_factory.hpp:77] Creating layer res3d_relu
I0304 20:32:45.237323 23741 net.cpp:100] Creating Layer res3d_relu
I0304 20:32:45.237329 23741 net.cpp:434] res3d_relu <- res3d
I0304 20:32:45.237335 23741 net.cpp:395] res3d_relu -> res3d (in-place)
I0304 20:32:45.237763 23741 net.cpp:150] Setting up res3d_relu
I0304 20:32:45.237773 23741 net.cpp:157] Top shape: 16 512 28 28 (6422528)
I0304 20:32:45.237778 23741 net.cpp:165] Memory required for data: 2745630784
I0304 20:32:45.237783 23741 layer_factory.hpp:77] Creating layer res3d_res3d_relu_0_split
I0304 20:32:45.237790 23741 net.cpp:100] Creating Layer res3d_res3d_relu_0_split
I0304 20:32:45.237795 23741 net.cpp:434] res3d_res3d_relu_0_split <- res3d
I0304 20:32:45.237803 23741 net.cpp:408] res3d_res3d_relu_0_split -> res3d_res3d_relu_0_split_0
I0304 20:32:45.237812 23741 net.cpp:408] res3d_res3d_relu_0_split -> res3d_res3d_relu_0_split_1
I0304 20:32:45.237856 23741 net.cpp:150] Setting up res3d_res3d_relu_0_split
I0304 20:32:45.237865 23741 net.cpp:157] Top shape: 16 512 28 28 (6422528)
I0304 20:32:45.237871 23741 net.cpp:157] Top shape: 16 512 28 28 (6422528)
I0304 20:32:45.237876 23741 net.cpp:165] Memory required for data: 2797011008
I0304 20:32:45.237879 23741 layer_factory.hpp:77] Creating layer res4a_branch1
I0304 20:32:45.237887 23741 net.cpp:100] Creating Layer res4a_branch1
I0304 20:32:45.237893 23741 net.cpp:434] res4a_branch1 <- res3d_res3d_relu_0_split_0
I0304 20:32:45.237900 23741 net.cpp:408] res4a_branch1 -> res4a_branch1
I0304 20:32:45.241472 23741 net.cpp:150] Setting up res4a_branch1
I0304 20:32:45.241497 23741 net.cpp:157] Top shape: 16 1024 14 14 (3211264)
I0304 20:32:45.241503 23741 net.cpp:165] Memory required for data: 2809856064
I0304 20:32:45.241509 23741 layer_factory.hpp:77] Creating layer bn4a_branch1
I0304 20:32:45.241518 23741 net.cpp:100] Creating Layer bn4a_branch1
I0304 20:32:45.241523 23741 net.cpp:434] bn4a_branch1 <- res4a_branch1
I0304 20:32:45.241529 23741 net.cpp:395] bn4a_branch1 -> res4a_branch1 (in-place)
I0304 20:32:45.241788 23741 net.cpp:150] Setting up bn4a_branch1
I0304 20:32:45.241796 23741 net.cpp:157] Top shape: 16 1024 14 14 (3211264)
I0304 20:32:45.241801 23741 net.cpp:165] Memory required for data: 2822701120
I0304 20:32:45.241808 23741 layer_factory.hpp:77] Creating layer scale4a_branch1
I0304 20:32:45.241816 23741 net.cpp:100] Creating Layer scale4a_branch1
I0304 20:32:45.241822 23741 net.cpp:434] scale4a_branch1 <- res4a_branch1
I0304 20:32:45.241827 23741 net.cpp:395] scale4a_branch1 -> res4a_branch1 (in-place)
I0304 20:32:45.241868 23741 layer_factory.hpp:77] Creating layer scale4a_branch1
I0304 20:32:45.242000 23741 net.cpp:150] Setting up scale4a_branch1
I0304 20:32:45.242008 23741 net.cpp:157] Top shape: 16 1024 14 14 (3211264)
I0304 20:32:45.242013 23741 net.cpp:165] Memory required for data: 2835546176
I0304 20:32:45.242019 23741 layer_factory.hpp:77] Creating layer res4a_branch2a
I0304 20:32:45.242029 23741 net.cpp:100] Creating Layer res4a_branch2a
I0304 20:32:45.242035 23741 net.cpp:434] res4a_branch2a <- res3d_res3d_relu_0_split_1
I0304 20:32:45.242043 23741 net.cpp:408] res4a_branch2a -> res4a_branch2a
I0304 20:32:45.245034 23741 net.cpp:150] Setting up res4a_branch2a
I0304 20:32:45.245046 23741 net.cpp:157] Top shape: 16 256 14 14 (802816)
I0304 20:32:45.245051 23741 net.cpp:165] Memory required for data: 2838757440
I0304 20:32:45.245056 23741 layer_factory.hpp:77] Creating layer bn4a_branch2a
I0304 20:32:45.245064 23741 net.cpp:100] Creating Layer bn4a_branch2a
I0304 20:32:45.245070 23741 net.cpp:434] bn4a_branch2a <- res4a_branch2a
I0304 20:32:45.245075 23741 net.cpp:395] bn4a_branch2a -> res4a_branch2a (in-place)
I0304 20:32:45.245309 23741 net.cpp:150] Setting up bn4a_branch2a
I0304 20:32:45.245317 23741 net.cpp:157] Top shape: 16 256 14 14 (802816)
I0304 20:32:45.245321 23741 net.cpp:165] Memory required for data: 2841968704
I0304 20:32:45.245329 23741 layer_factory.hpp:77] Creating layer scale4a_branch2a
I0304 20:32:45.245337 23741 net.cpp:100] Creating Layer scale4a_branch2a
I0304 20:32:45.245342 23741 net.cpp:434] scale4a_branch2a <- res4a_branch2a
I0304 20:32:45.245349 23741 net.cpp:395] scale4a_branch2a -> res4a_branch2a (in-place)
I0304 20:32:45.245393 23741 layer_factory.hpp:77] Creating layer scale4a_branch2a
I0304 20:32:45.245525 23741 net.cpp:150] Setting up scale4a_branch2a
I0304 20:32:45.245534 23741 net.cpp:157] Top shape: 16 256 14 14 (802816)
I0304 20:32:45.245539 23741 net.cpp:165] Memory required for data: 2845179968
I0304 20:32:45.245546 23741 layer_factory.hpp:77] Creating layer res4a_branch2a_relu
I0304 20:32:45.245553 23741 net.cpp:100] Creating Layer res4a_branch2a_relu
I0304 20:32:45.245558 23741 net.cpp:434] res4a_branch2a_relu <- res4a_branch2a
I0304 20:32:45.245564 23741 net.cpp:395] res4a_branch2a_relu -> res4a_branch2a (in-place)
I0304 20:32:45.246094 23741 net.cpp:150] Setting up res4a_branch2a_relu
I0304 20:32:45.246105 23741 net.cpp:157] Top shape: 16 256 14 14 (802816)
I0304 20:32:45.246110 23741 net.cpp:165] Memory required for data: 2848391232
I0304 20:32:45.246116 23741 layer_factory.hpp:77] Creating layer res4a_branch2b
I0304 20:32:45.246126 23741 net.cpp:100] Creating Layer res4a_branch2b
I0304 20:32:45.246132 23741 net.cpp:434] res4a_branch2b <- res4a_branch2a
I0304 20:32:45.246140 23741 net.cpp:408] res4a_branch2b -> res4a_branch2b
I0304 20:32:45.250329 23741 net.cpp:150] Setting up res4a_branch2b
I0304 20:32:45.250350 23741 net.cpp:157] Top shape: 16 256 14 14 (802816)
I0304 20:32:45.250360 23741 net.cpp:165] Memory required for data: 2851602496
I0304 20:32:45.250368 23741 layer_factory.hpp:77] Creating layer bn4a_branch2b
I0304 20:32:45.250377 23741 net.cpp:100] Creating Layer bn4a_branch2b
I0304 20:32:45.250383 23741 net.cpp:434] bn4a_branch2b <- res4a_branch2b
I0304 20:32:45.250391 23741 net.cpp:395] bn4a_branch2b -> res4a_branch2b (in-place)
I0304 20:32:45.250632 23741 net.cpp:150] Setting up bn4a_branch2b
I0304 20:32:45.250640 23741 net.cpp:157] Top shape: 16 256 14 14 (802816)
I0304 20:32:45.250645 23741 net.cpp:165] Memory required for data: 2854813760
I0304 20:32:45.250654 23741 layer_factory.hpp:77] Creating layer scale4a_branch2b
I0304 20:32:45.250664 23741 net.cpp:100] Creating Layer scale4a_branch2b
I0304 20:32:45.250669 23741 net.cpp:434] scale4a_branch2b <- res4a_branch2b
I0304 20:32:45.250675 23741 net.cpp:395] scale4a_branch2b -> res4a_branch2b (in-place)
I0304 20:32:45.250725 23741 layer_factory.hpp:77] Creating layer scale4a_branch2b
I0304 20:32:45.250864 23741 net.cpp:150] Setting up scale4a_branch2b
I0304 20:32:45.250872 23741 net.cpp:157] Top shape: 16 256 14 14 (802816)
I0304 20:32:45.250876 23741 net.cpp:165] Memory required for data: 2858025024
I0304 20:32:45.250883 23741 layer_factory.hpp:77] Creating layer res4a_branch2b_relu
I0304 20:32:45.250890 23741 net.cpp:100] Creating Layer res4a_branch2b_relu
I0304 20:32:45.250895 23741 net.cpp:434] res4a_branch2b_relu <- res4a_branch2b
I0304 20:32:45.250903 23741 net.cpp:395] res4a_branch2b_relu -> res4a_branch2b (in-place)
I0304 20:32:45.251343 23741 net.cpp:150] Setting up res4a_branch2b_relu
I0304 20:32:45.251354 23741 net.cpp:157] Top shape: 16 256 14 14 (802816)
I0304 20:32:45.251359 23741 net.cpp:165] Memory required for data: 2861236288
I0304 20:32:45.251364 23741 layer_factory.hpp:77] Creating layer res4a_branch2c
I0304 20:32:45.251374 23741 net.cpp:100] Creating Layer res4a_branch2c
I0304 20:32:45.251379 23741 net.cpp:434] res4a_branch2c <- res4a_branch2b
I0304 20:32:45.251386 23741 net.cpp:408] res4a_branch2c -> res4a_branch2c
I0304 20:32:45.255496 23741 net.cpp:150] Setting up res4a_branch2c
I0304 20:32:45.255508 23741 net.cpp:157] Top shape: 16 1024 14 14 (3211264)
I0304 20:32:45.255513 23741 net.cpp:165] Memory required for data: 2874081344
I0304 20:32:45.255519 23741 layer_factory.hpp:77] Creating layer bn4a_branch2c
I0304 20:32:45.255529 23741 net.cpp:100] Creating Layer bn4a_branch2c
I0304 20:32:45.255535 23741 net.cpp:434] bn4a_branch2c <- res4a_branch2c
I0304 20:32:45.255542 23741 net.cpp:395] bn4a_branch2c -> res4a_branch2c (in-place)
I0304 20:32:45.255779 23741 net.cpp:150] Setting up bn4a_branch2c
I0304 20:32:45.255787 23741 net.cpp:157] Top shape: 16 1024 14 14 (3211264)
I0304 20:32:45.255792 23741 net.cpp:165] Memory required for data: 2886926400
I0304 20:32:45.255800 23741 layer_factory.hpp:77] Creating layer scale4a_branch2c
I0304 20:32:45.255810 23741 net.cpp:100] Creating Layer scale4a_branch2c
I0304 20:32:45.255815 23741 net.cpp:434] scale4a_branch2c <- res4a_branch2c
I0304 20:32:45.255820 23741 net.cpp:395] scale4a_branch2c -> res4a_branch2c (in-place)
I0304 20:32:45.255861 23741 layer_factory.hpp:77] Creating layer scale4a_branch2c
I0304 20:32:45.255996 23741 net.cpp:150] Setting up scale4a_branch2c
I0304 20:32:45.256003 23741 net.cpp:157] Top shape: 16 1024 14 14 (3211264)
I0304 20:32:45.256008 23741 net.cpp:165] Memory required for data: 2899771456
I0304 20:32:45.256014 23741 layer_factory.hpp:77] Creating layer res4a
I0304 20:32:45.256022 23741 net.cpp:100] Creating Layer res4a
I0304 20:32:45.256027 23741 net.cpp:434] res4a <- res4a_branch1
I0304 20:32:45.256033 23741 net.cpp:434] res4a <- res4a_branch2c
I0304 20:32:45.256041 23741 net.cpp:408] res4a -> res4a
I0304 20:32:45.256074 23741 net.cpp:150] Setting up res4a
I0304 20:32:45.256083 23741 net.cpp:157] Top shape: 16 1024 14 14 (3211264)
I0304 20:32:45.256088 23741 net.cpp:165] Memory required for data: 2912616512
I0304 20:32:45.256091 23741 layer_factory.hpp:77] Creating layer res4a_relu
I0304 20:32:45.256098 23741 net.cpp:100] Creating Layer res4a_relu
I0304 20:32:45.256103 23741 net.cpp:434] res4a_relu <- res4a
I0304 20:32:45.256108 23741 net.cpp:395] res4a_relu -> res4a (in-place)
I0304 20:32:45.256563 23741 net.cpp:150] Setting up res4a_relu
I0304 20:32:45.256572 23741 net.cpp:157] Top shape: 16 1024 14 14 (3211264)
I0304 20:32:45.256577 23741 net.cpp:165] Memory required for data: 2925461568
I0304 20:32:45.256582 23741 layer_factory.hpp:77] Creating layer res4a_res4a_relu_0_split
I0304 20:32:45.256589 23741 net.cpp:100] Creating Layer res4a_res4a_relu_0_split
I0304 20:32:45.256594 23741 net.cpp:434] res4a_res4a_relu_0_split <- res4a
I0304 20:32:45.256602 23741 net.cpp:408] res4a_res4a_relu_0_split -> res4a_res4a_relu_0_split_0
I0304 20:32:45.256609 23741 net.cpp:408] res4a_res4a_relu_0_split -> res4a_res4a_relu_0_split_1
I0304 20:32:45.256655 23741 net.cpp:150] Setting up res4a_res4a_relu_0_split
I0304 20:32:45.256662 23741 net.cpp:157] Top shape: 16 1024 14 14 (3211264)
I0304 20:32:45.256669 23741 net.cpp:157] Top shape: 16 1024 14 14 (3211264)
I0304 20:32:45.256672 23741 net.cpp:165] Memory required for data: 2951151680
I0304 20:32:45.256676 23741 layer_factory.hpp:77] Creating layer res4b_branch2a
I0304 20:32:45.256697 23741 net.cpp:100] Creating Layer res4b_branch2a
I0304 20:32:45.256703 23741 net.cpp:434] res4b_branch2a <- res4a_res4a_relu_0_split_0
I0304 20:32:45.256711 23741 net.cpp:408] res4b_branch2a -> res4b_branch2a
I0304 20:32:45.260126 23741 net.cpp:150] Setting up res4b_branch2a
I0304 20:32:45.260139 23741 net.cpp:157] Top shape: 16 256 14 14 (802816)
I0304 20:32:45.260144 23741 net.cpp:165] Memory required for data: 2954362944
I0304 20:32:45.260152 23741 layer_factory.hpp:77] Creating layer bn4b_branch2a
I0304 20:32:45.260161 23741 net.cpp:100] Creating Layer bn4b_branch2a
I0304 20:32:45.260166 23741 net.cpp:434] bn4b_branch2a <- res4b_branch2a
I0304 20:32:45.260174 23741 net.cpp:395] bn4b_branch2a -> res4b_branch2a (in-place)
I0304 20:32:45.260412 23741 net.cpp:150] Setting up bn4b_branch2a
I0304 20:32:45.260432 23741 net.cpp:157] Top shape: 16 256 14 14 (802816)
I0304 20:32:45.260437 23741 net.cpp:165] Memory required for data: 2957574208
I0304 20:32:45.260445 23741 layer_factory.hpp:77] Creating layer scale4b_branch2a
I0304 20:32:45.260452 23741 net.cpp:100] Creating Layer scale4b_branch2a
I0304 20:32:45.260457 23741 net.cpp:434] scale4b_branch2a <- res4b_branch2a
I0304 20:32:45.260476 23741 net.cpp:395] scale4b_branch2a -> res4b_branch2a (in-place)
I0304 20:32:45.260540 23741 layer_factory.hpp:77] Creating layer scale4b_branch2a
I0304 20:32:45.260690 23741 net.cpp:150] Setting up scale4b_branch2a
I0304 20:32:45.260699 23741 net.cpp:157] Top shape: 16 256 14 14 (802816)
I0304 20:32:45.260711 23741 net.cpp:165] Memory required for data: 2960785472
I0304 20:32:45.260718 23741 layer_factory.hpp:77] Creating layer res4b_branch2a_relu
I0304 20:32:45.260725 23741 net.cpp:100] Creating Layer res4b_branch2a_relu
I0304 20:32:45.260730 23741 net.cpp:434] res4b_branch2a_relu <- res4b_branch2a
I0304 20:32:45.260735 23741 net.cpp:395] res4b_branch2a_relu -> res4b_branch2a (in-place)
I0304 20:32:45.261165 23741 net.cpp:150] Setting up res4b_branch2a_relu
I0304 20:32:45.261186 23741 net.cpp:157] Top shape: 16 256 14 14 (802816)
I0304 20:32:45.261191 23741 net.cpp:165] Memory required for data: 2963996736
I0304 20:32:45.261195 23741 layer_factory.hpp:77] Creating layer res4b_branch2b
I0304 20:32:45.261203 23741 net.cpp:100] Creating Layer res4b_branch2b
I0304 20:32:45.261207 23741 net.cpp:434] res4b_branch2b <- res4b_branch2a
I0304 20:32:45.261215 23741 net.cpp:408] res4b_branch2b -> res4b_branch2b
I0304 20:32:45.264870 23741 net.cpp:150] Setting up res4b_branch2b
I0304 20:32:45.264884 23741 net.cpp:157] Top shape: 16 256 14 14 (802816)
I0304 20:32:45.264889 23741 net.cpp:165] Memory required for data: 2967208000
I0304 20:32:45.264894 23741 layer_factory.hpp:77] Creating layer bn4b_branch2b
I0304 20:32:45.264901 23741 net.cpp:100] Creating Layer bn4b_branch2b
I0304 20:32:45.264905 23741 net.cpp:434] bn4b_branch2b <- res4b_branch2b
I0304 20:32:45.264911 23741 net.cpp:395] bn4b_branch2b -> res4b_branch2b (in-place)
I0304 20:32:45.265156 23741 net.cpp:150] Setting up bn4b_branch2b
I0304 20:32:45.265166 23741 net.cpp:157] Top shape: 16 256 14 14 (802816)
I0304 20:32:45.265169 23741 net.cpp:165] Memory required for data: 2970419264
I0304 20:32:45.265177 23741 layer_factory.hpp:77] Creating layer scale4b_branch2b
I0304 20:32:45.265184 23741 net.cpp:100] Creating Layer scale4b_branch2b
I0304 20:32:45.265189 23741 net.cpp:434] scale4b_branch2b <- res4b_branch2b
I0304 20:32:45.265195 23741 net.cpp:395] scale4b_branch2b -> res4b_branch2b (in-place)
I0304 20:32:45.265241 23741 layer_factory.hpp:77] Creating layer scale4b_branch2b
I0304 20:32:45.265372 23741 net.cpp:150] Setting up scale4b_branch2b
I0304 20:32:45.265380 23741 net.cpp:157] Top shape: 16 256 14 14 (802816)
I0304 20:32:45.265384 23741 net.cpp:165] Memory required for data: 2973630528
I0304 20:32:45.265391 23741 layer_factory.hpp:77] Creating layer res4b_branch2b_relu
I0304 20:32:45.265399 23741 net.cpp:100] Creating Layer res4b_branch2b_relu
I0304 20:32:45.265404 23741 net.cpp:434] res4b_branch2b_relu <- res4b_branch2b
I0304 20:32:45.265411 23741 net.cpp:395] res4b_branch2b_relu -> res4b_branch2b (in-place)
I0304 20:32:45.266078 23741 net.cpp:150] Setting up res4b_branch2b_relu
I0304 20:32:45.266090 23741 net.cpp:157] Top shape: 16 256 14 14 (802816)
I0304 20:32:45.266096 23741 net.cpp:165] Memory required for data: 2976841792
I0304 20:32:45.266100 23741 layer_factory.hpp:77] Creating layer res4b_branch2c
I0304 20:32:45.266108 23741 net.cpp:100] Creating Layer res4b_branch2c
I0304 20:32:45.266113 23741 net.cpp:434] res4b_branch2c <- res4b_branch2b
I0304 20:32:45.266120 23741 net.cpp:408] res4b_branch2c -> res4b_branch2c
I0304 20:32:45.270026 23741 net.cpp:150] Setting up res4b_branch2c
I0304 20:32:45.270040 23741 net.cpp:157] Top shape: 16 1024 14 14 (3211264)
I0304 20:32:45.270045 23741 net.cpp:165] Memory required for data: 2989686848
I0304 20:32:45.270053 23741 layer_factory.hpp:77] Creating layer bn4b_branch2c
I0304 20:32:45.270061 23741 net.cpp:100] Creating Layer bn4b_branch2c
I0304 20:32:45.270067 23741 net.cpp:434] bn4b_branch2c <- res4b_branch2c
I0304 20:32:45.270076 23741 net.cpp:395] bn4b_branch2c -> res4b_branch2c (in-place)
I0304 20:32:45.270326 23741 net.cpp:150] Setting up bn4b_branch2c
I0304 20:32:45.270336 23741 net.cpp:157] Top shape: 16 1024 14 14 (3211264)
I0304 20:32:45.270339 23741 net.cpp:165] Memory required for data: 3002531904
I0304 20:32:45.270349 23741 layer_factory.hpp:77] Creating layer scale4b_branch2c
I0304 20:32:45.270356 23741 net.cpp:100] Creating Layer scale4b_branch2c
I0304 20:32:45.270362 23741 net.cpp:434] scale4b_branch2c <- res4b_branch2c
I0304 20:32:45.270368 23741 net.cpp:395] scale4b_branch2c -> res4b_branch2c (in-place)
I0304 20:32:45.270411 23741 layer_factory.hpp:77] Creating layer scale4b_branch2c
I0304 20:32:45.270560 23741 net.cpp:150] Setting up scale4b_branch2c
I0304 20:32:45.270570 23741 net.cpp:157] Top shape: 16 1024 14 14 (3211264)
I0304 20:32:45.270582 23741 net.cpp:165] Memory required for data: 3015376960
I0304 20:32:45.270589 23741 layer_factory.hpp:77] Creating layer res4b
I0304 20:32:45.270596 23741 net.cpp:100] Creating Layer res4b
I0304 20:32:45.270601 23741 net.cpp:434] res4b <- res4a_res4a_relu_0_split_1
I0304 20:32:45.270618 23741 net.cpp:434] res4b <- res4b_branch2c
I0304 20:32:45.270633 23741 net.cpp:408] res4b -> res4b
I0304 20:32:45.270669 23741 net.cpp:150] Setting up res4b
I0304 20:32:45.270678 23741 net.cpp:157] Top shape: 16 1024 14 14 (3211264)
I0304 20:32:45.270690 23741 net.cpp:165] Memory required for data: 3028222016
I0304 20:32:45.270694 23741 layer_factory.hpp:77] Creating layer res4b_relu
I0304 20:32:45.270700 23741 net.cpp:100] Creating Layer res4b_relu
I0304 20:32:45.270706 23741 net.cpp:434] res4b_relu <- res4b
I0304 20:32:45.270712 23741 net.cpp:395] res4b_relu -> res4b (in-place)
I0304 20:32:45.271067 23741 net.cpp:150] Setting up res4b_relu
I0304 20:32:45.271076 23741 net.cpp:157] Top shape: 16 1024 14 14 (3211264)
I0304 20:32:45.271080 23741 net.cpp:165] Memory required for data: 3041067072
I0304 20:32:45.271083 23741 layer_factory.hpp:77] Creating layer res4b_res4b_relu_0_split
I0304 20:32:45.271090 23741 net.cpp:100] Creating Layer res4b_res4b_relu_0_split
I0304 20:32:45.271093 23741 net.cpp:434] res4b_res4b_relu_0_split <- res4b
I0304 20:32:45.271100 23741 net.cpp:408] res4b_res4b_relu_0_split -> res4b_res4b_relu_0_split_0
I0304 20:32:45.271107 23741 net.cpp:408] res4b_res4b_relu_0_split -> res4b_res4b_relu_0_split_1
I0304 20:32:45.271152 23741 net.cpp:150] Setting up res4b_res4b_relu_0_split
I0304 20:32:45.271159 23741 net.cpp:157] Top shape: 16 1024 14 14 (3211264)
I0304 20:32:45.271164 23741 net.cpp:157] Top shape: 16 1024 14 14 (3211264)
I0304 20:32:45.271167 23741 net.cpp:165] Memory required for data: 3066757184
I0304 20:32:45.271172 23741 layer_factory.hpp:77] Creating layer res4c_branch2a
I0304 20:32:45.271178 23741 net.cpp:100] Creating Layer res4c_branch2a
I0304 20:32:45.271183 23741 net.cpp:434] res4c_branch2a <- res4b_res4b_relu_0_split_0
I0304 20:32:45.271189 23741 net.cpp:408] res4c_branch2a -> res4c_branch2a
I0304 20:32:45.274720 23741 net.cpp:150] Setting up res4c_branch2a
I0304 20:32:45.274734 23741 net.cpp:157] Top shape: 16 256 14 14 (802816)
I0304 20:32:45.274737 23741 net.cpp:165] Memory required for data: 3069968448
I0304 20:32:45.274744 23741 layer_factory.hpp:77] Creating layer bn4c_branch2a
I0304 20:32:45.274749 23741 net.cpp:100] Creating Layer bn4c_branch2a
I0304 20:32:45.274756 23741 net.cpp:434] bn4c_branch2a <- res4c_branch2a
I0304 20:32:45.274763 23741 net.cpp:395] bn4c_branch2a -> res4c_branch2a (in-place)
I0304 20:32:45.275008 23741 net.cpp:150] Setting up bn4c_branch2a
I0304 20:32:45.275017 23741 net.cpp:157] Top shape: 16 256 14 14 (802816)
I0304 20:32:45.275022 23741 net.cpp:165] Memory required for data: 3073179712
I0304 20:32:45.275030 23741 layer_factory.hpp:77] Creating layer scale4c_branch2a
I0304 20:32:45.275038 23741 net.cpp:100] Creating Layer scale4c_branch2a
I0304 20:32:45.275043 23741 net.cpp:434] scale4c_branch2a <- res4c_branch2a
I0304 20:32:45.275049 23741 net.cpp:395] scale4c_branch2a -> res4c_branch2a (in-place)
I0304 20:32:45.275094 23741 layer_factory.hpp:77] Creating layer scale4c_branch2a
I0304 20:32:45.275231 23741 net.cpp:150] Setting up scale4c_branch2a
I0304 20:32:45.275238 23741 net.cpp:157] Top shape: 16 256 14 14 (802816)
I0304 20:32:45.275243 23741 net.cpp:165] Memory required for data: 3076390976
I0304 20:32:45.275250 23741 layer_factory.hpp:77] Creating layer res4c_branch2a_relu
I0304 20:32:45.275256 23741 net.cpp:100] Creating Layer res4c_branch2a_relu
I0304 20:32:45.275261 23741 net.cpp:434] res4c_branch2a_relu <- res4c_branch2a
I0304 20:32:45.275269 23741 net.cpp:395] res4c_branch2a_relu -> res4c_branch2a (in-place)
I0304 20:32:45.275929 23741 net.cpp:150] Setting up res4c_branch2a_relu
I0304 20:32:45.275940 23741 net.cpp:157] Top shape: 16 256 14 14 (802816)
I0304 20:32:45.275945 23741 net.cpp:165] Memory required for data: 3079602240
I0304 20:32:45.275949 23741 layer_factory.hpp:77] Creating layer res4c_branch2b
I0304 20:32:45.275957 23741 net.cpp:100] Creating Layer res4c_branch2b
I0304 20:32:45.275964 23741 net.cpp:434] res4c_branch2b <- res4c_branch2a
I0304 20:32:45.275970 23741 net.cpp:408] res4c_branch2b -> res4c_branch2b
I0304 20:32:45.279760 23741 net.cpp:150] Setting up res4c_branch2b
I0304 20:32:45.279774 23741 net.cpp:157] Top shape: 16 256 14 14 (802816)
I0304 20:32:45.279778 23741 net.cpp:165] Memory required for data: 3082813504
I0304 20:32:45.279784 23741 layer_factory.hpp:77] Creating layer bn4c_branch2b
I0304 20:32:45.279793 23741 net.cpp:100] Creating Layer bn4c_branch2b
I0304 20:32:45.279798 23741 net.cpp:434] bn4c_branch2b <- res4c_branch2b
I0304 20:32:45.279803 23741 net.cpp:395] bn4c_branch2b -> res4c_branch2b (in-place)
I0304 20:32:45.280059 23741 net.cpp:150] Setting up bn4c_branch2b
I0304 20:32:45.280071 23741 net.cpp:157] Top shape: 16 256 14 14 (802816)
I0304 20:32:45.280076 23741 net.cpp:165] Memory required for data: 3086024768
I0304 20:32:45.280084 23741 layer_factory.hpp:77] Creating layer scale4c_branch2b
I0304 20:32:45.280093 23741 net.cpp:100] Creating Layer scale4c_branch2b
I0304 20:32:45.280098 23741 net.cpp:434] scale4c_branch2b <- res4c_branch2b
I0304 20:32:45.280105 23741 net.cpp:395] scale4c_branch2b -> res4c_branch2b (in-place)
I0304 20:32:45.280156 23741 layer_factory.hpp:77] Creating layer scale4c_branch2b
I0304 20:32:45.280297 23741 net.cpp:150] Setting up scale4c_branch2b
I0304 20:32:45.280304 23741 net.cpp:157] Top shape: 16 256 14 14 (802816)
I0304 20:32:45.280308 23741 net.cpp:165] Memory required for data: 3089236032
I0304 20:32:45.280314 23741 layer_factory.hpp:77] Creating layer res4c_branch2b_relu
I0304 20:32:45.280320 23741 net.cpp:100] Creating Layer res4c_branch2b_relu
I0304 20:32:45.280324 23741 net.cpp:434] res4c_branch2b_relu <- res4c_branch2b
I0304 20:32:45.280330 23741 net.cpp:395] res4c_branch2b_relu -> res4c_branch2b (in-place)
I0304 20:32:45.280757 23741 net.cpp:150] Setting up res4c_branch2b_relu
I0304 20:32:45.280768 23741 net.cpp:157] Top shape: 16 256 14 14 (802816)
I0304 20:32:45.280772 23741 net.cpp:165] Memory required for data: 3092447296
I0304 20:32:45.280776 23741 layer_factory.hpp:77] Creating layer res4c_branch2c
I0304 20:32:45.280786 23741 net.cpp:100] Creating Layer res4c_branch2c
I0304 20:32:45.280791 23741 net.cpp:434] res4c_branch2c <- res4c_branch2b
I0304 20:32:45.280797 23741 net.cpp:408] res4c_branch2c -> res4c_branch2c
I0304 20:32:45.285148 23741 net.cpp:150] Setting up res4c_branch2c
I0304 20:32:45.285161 23741 net.cpp:157] Top shape: 16 1024 14 14 (3211264)
I0304 20:32:45.285166 23741 net.cpp:165] Memory required for data: 3105292352
I0304 20:32:45.285171 23741 layer_factory.hpp:77] Creating layer bn4c_branch2c
I0304 20:32:45.285178 23741 net.cpp:100] Creating Layer bn4c_branch2c
I0304 20:32:45.285185 23741 net.cpp:434] bn4c_branch2c <- res4c_branch2c
I0304 20:32:45.285192 23741 net.cpp:395] bn4c_branch2c -> res4c_branch2c (in-place)
I0304 20:32:45.285439 23741 net.cpp:150] Setting up bn4c_branch2c
I0304 20:32:45.285449 23741 net.cpp:157] Top shape: 16 1024 14 14 (3211264)
I0304 20:32:45.285454 23741 net.cpp:165] Memory required for data: 3118137408
I0304 20:32:45.285461 23741 layer_factory.hpp:77] Creating layer scale4c_branch2c
I0304 20:32:45.285470 23741 net.cpp:100] Creating Layer scale4c_branch2c
I0304 20:32:45.285475 23741 net.cpp:434] scale4c_branch2c <- res4c_branch2c
I0304 20:32:45.285482 23741 net.cpp:395] scale4c_branch2c -> res4c_branch2c (in-place)
I0304 20:32:45.285524 23741 layer_factory.hpp:77] Creating layer scale4c_branch2c
I0304 20:32:45.285665 23741 net.cpp:150] Setting up scale4c_branch2c
I0304 20:32:45.285673 23741 net.cpp:157] Top shape: 16 1024 14 14 (3211264)
I0304 20:32:45.285678 23741 net.cpp:165] Memory required for data: 3130982464
I0304 20:32:45.285686 23741 layer_factory.hpp:77] Creating layer res4c
I0304 20:32:45.285696 23741 net.cpp:100] Creating Layer res4c
I0304 20:32:45.285701 23741 net.cpp:434] res4c <- res4b_res4b_relu_0_split_1
I0304 20:32:45.285706 23741 net.cpp:434] res4c <- res4c_branch2c
I0304 20:32:45.285712 23741 net.cpp:408] res4c -> res4c
I0304 20:32:45.285743 23741 net.cpp:150] Setting up res4c
I0304 20:32:45.285750 23741 net.cpp:157] Top shape: 16 1024 14 14 (3211264)
I0304 20:32:45.285765 23741 net.cpp:165] Memory required for data: 3143827520
I0304 20:32:45.285768 23741 layer_factory.hpp:77] Creating layer res4c_relu
I0304 20:32:45.285775 23741 net.cpp:100] Creating Layer res4c_relu
I0304 20:32:45.285780 23741 net.cpp:434] res4c_relu <- res4c
I0304 20:32:45.285787 23741 net.cpp:395] res4c_relu -> res4c (in-place)
I0304 20:32:45.286191 23741 net.cpp:150] Setting up res4c_relu
I0304 20:32:45.286201 23741 net.cpp:157] Top shape: 16 1024 14 14 (3211264)
I0304 20:32:45.286206 23741 net.cpp:165] Memory required for data: 3156672576
I0304 20:32:45.286211 23741 layer_factory.hpp:77] Creating layer res4c_res4c_relu_0_split
I0304 20:32:45.286216 23741 net.cpp:100] Creating Layer res4c_res4c_relu_0_split
I0304 20:32:45.286221 23741 net.cpp:434] res4c_res4c_relu_0_split <- res4c
I0304 20:32:45.286229 23741 net.cpp:408] res4c_res4c_relu_0_split -> res4c_res4c_relu_0_split_0
I0304 20:32:45.286237 23741 net.cpp:408] res4c_res4c_relu_0_split -> res4c_res4c_relu_0_split_1
I0304 20:32:45.286283 23741 net.cpp:150] Setting up res4c_res4c_relu_0_split
I0304 20:32:45.286291 23741 net.cpp:157] Top shape: 16 1024 14 14 (3211264)
I0304 20:32:45.286298 23741 net.cpp:157] Top shape: 16 1024 14 14 (3211264)
I0304 20:32:45.286301 23741 net.cpp:165] Memory required for data: 3182362688
I0304 20:32:45.286305 23741 layer_factory.hpp:77] Creating layer res4d_branch2a
I0304 20:32:45.286314 23741 net.cpp:100] Creating Layer res4d_branch2a
I0304 20:32:45.286320 23741 net.cpp:434] res4d_branch2a <- res4c_res4c_relu_0_split_0
I0304 20:32:45.286325 23741 net.cpp:408] res4d_branch2a -> res4d_branch2a
I0304 20:32:45.289986 23741 net.cpp:150] Setting up res4d_branch2a
I0304 20:32:45.289999 23741 net.cpp:157] Top shape: 16 256 14 14 (802816)
I0304 20:32:45.290004 23741 net.cpp:165] Memory required for data: 3185573952
I0304 20:32:45.290011 23741 layer_factory.hpp:77] Creating layer bn4d_branch2a
I0304 20:32:45.290021 23741 net.cpp:100] Creating Layer bn4d_branch2a
I0304 20:32:45.290027 23741 net.cpp:434] bn4d_branch2a <- res4d_branch2a
I0304 20:32:45.290035 23741 net.cpp:395] bn4d_branch2a -> res4d_branch2a (in-place)
I0304 20:32:45.290292 23741 net.cpp:150] Setting up bn4d_branch2a
I0304 20:32:45.290300 23741 net.cpp:157] Top shape: 16 256 14 14 (802816)
I0304 20:32:45.290304 23741 net.cpp:165] Memory required for data: 3188785216
I0304 20:32:45.290313 23741 layer_factory.hpp:77] Creating layer scale4d_branch2a
I0304 20:32:45.290321 23741 net.cpp:100] Creating Layer scale4d_branch2a
I0304 20:32:45.290326 23741 net.cpp:434] scale4d_branch2a <- res4d_branch2a
I0304 20:32:45.290333 23741 net.cpp:395] scale4d_branch2a -> res4d_branch2a (in-place)
I0304 20:32:45.290380 23741 layer_factory.hpp:77] Creating layer scale4d_branch2a
I0304 20:32:45.290518 23741 net.cpp:150] Setting up scale4d_branch2a
I0304 20:32:45.290527 23741 net.cpp:157] Top shape: 16 256 14 14 (802816)
I0304 20:32:45.290531 23741 net.cpp:165] Memory required for data: 3191996480
I0304 20:32:45.290539 23741 layer_factory.hpp:77] Creating layer res4d_branch2a_relu
I0304 20:32:45.290545 23741 net.cpp:100] Creating Layer res4d_branch2a_relu
I0304 20:32:45.290550 23741 net.cpp:434] res4d_branch2a_relu <- res4d_branch2a
I0304 20:32:45.290557 23741 net.cpp:395] res4d_branch2a_relu -> res4d_branch2a (in-place)
I0304 20:32:45.291031 23741 net.cpp:150] Setting up res4d_branch2a_relu
I0304 20:32:45.291043 23741 net.cpp:157] Top shape: 16 256 14 14 (802816)
I0304 20:32:45.291048 23741 net.cpp:165] Memory required for data: 3195207744
I0304 20:32:45.291052 23741 layer_factory.hpp:77] Creating layer res4d_branch2b
I0304 20:32:45.291061 23741 net.cpp:100] Creating Layer res4d_branch2b
I0304 20:32:45.291067 23741 net.cpp:434] res4d_branch2b <- res4d_branch2a
I0304 20:32:45.291075 23741 net.cpp:408] res4d_branch2b -> res4d_branch2b
I0304 20:32:45.294843 23741 net.cpp:150] Setting up res4d_branch2b
I0304 20:32:45.294857 23741 net.cpp:157] Top shape: 16 256 14 14 (802816)
I0304 20:32:45.294862 23741 net.cpp:165] Memory required for data: 3198419008
I0304 20:32:45.294868 23741 layer_factory.hpp:77] Creating layer bn4d_branch2b
I0304 20:32:45.294878 23741 net.cpp:100] Creating Layer bn4d_branch2b
I0304 20:32:45.294883 23741 net.cpp:434] bn4d_branch2b <- res4d_branch2b
I0304 20:32:45.294889 23741 net.cpp:395] bn4d_branch2b -> res4d_branch2b (in-place)
I0304 20:32:45.295162 23741 net.cpp:150] Setting up bn4d_branch2b
I0304 20:32:45.295171 23741 net.cpp:157] Top shape: 16 256 14 14 (802816)
I0304 20:32:45.295176 23741 net.cpp:165] Memory required for data: 3201630272
I0304 20:32:45.295184 23741 layer_factory.hpp:77] Creating layer scale4d_branch2b
I0304 20:32:45.295194 23741 net.cpp:100] Creating Layer scale4d_branch2b
I0304 20:32:45.295200 23741 net.cpp:434] scale4d_branch2b <- res4d_branch2b
I0304 20:32:45.295207 23741 net.cpp:395] scale4d_branch2b -> res4d_branch2b (in-place)
I0304 20:32:45.295256 23741 layer_factory.hpp:77] Creating layer scale4d_branch2b
I0304 20:32:45.295398 23741 net.cpp:150] Setting up scale4d_branch2b
I0304 20:32:45.295408 23741 net.cpp:157] Top shape: 16 256 14 14 (802816)
I0304 20:32:45.295413 23741 net.cpp:165] Memory required for data: 3204841536
I0304 20:32:45.295418 23741 layer_factory.hpp:77] Creating layer res4d_branch2b_relu
I0304 20:32:45.295426 23741 net.cpp:100] Creating Layer res4d_branch2b_relu
I0304 20:32:45.295433 23741 net.cpp:434] res4d_branch2b_relu <- res4d_branch2b
I0304 20:32:45.295439 23741 net.cpp:395] res4d_branch2b_relu -> res4d_branch2b (in-place)
I0304 20:32:45.295886 23741 net.cpp:150] Setting up res4d_branch2b_relu
I0304 20:32:45.295897 23741 net.cpp:157] Top shape: 16 256 14 14 (802816)
I0304 20:32:45.295902 23741 net.cpp:165] Memory required for data: 3208052800
I0304 20:32:45.295907 23741 layer_factory.hpp:77] Creating layer res4d_branch2c
I0304 20:32:45.295917 23741 net.cpp:100] Creating Layer res4d_branch2c
I0304 20:32:45.295922 23741 net.cpp:434] res4d_branch2c <- res4d_branch2b
I0304 20:32:45.295929 23741 net.cpp:408] res4d_branch2c -> res4d_branch2c
I0304 20:32:45.299716 23741 net.cpp:150] Setting up res4d_branch2c
I0304 20:32:45.299729 23741 net.cpp:157] Top shape: 16 1024 14 14 (3211264)
I0304 20:32:45.299736 23741 net.cpp:165] Memory required for data: 3220897856
I0304 20:32:45.299742 23741 layer_factory.hpp:77] Creating layer bn4d_branch2c
I0304 20:32:45.299751 23741 net.cpp:100] Creating Layer bn4d_branch2c
I0304 20:32:45.299757 23741 net.cpp:434] bn4d_branch2c <- res4d_branch2c
I0304 20:32:45.299763 23741 net.cpp:395] bn4d_branch2c -> res4d_branch2c (in-place)
I0304 20:32:45.300029 23741 net.cpp:150] Setting up bn4d_branch2c
I0304 20:32:45.300038 23741 net.cpp:157] Top shape: 16 1024 14 14 (3211264)
I0304 20:32:45.300043 23741 net.cpp:165] Memory required for data: 3233742912
I0304 20:32:45.300051 23741 layer_factory.hpp:77] Creating layer scale4d_branch2c
I0304 20:32:45.300060 23741 net.cpp:100] Creating Layer scale4d_branch2c
I0304 20:32:45.300067 23741 net.cpp:434] scale4d_branch2c <- res4d_branch2c
I0304 20:32:45.300086 23741 net.cpp:395] scale4d_branch2c -> res4d_branch2c (in-place)
I0304 20:32:45.300139 23741 layer_factory.hpp:77] Creating layer scale4d_branch2c
I0304 20:32:45.300290 23741 net.cpp:150] Setting up scale4d_branch2c
I0304 20:32:45.300299 23741 net.cpp:157] Top shape: 16 1024 14 14 (3211264)
I0304 20:32:45.300304 23741 net.cpp:165] Memory required for data: 3246587968
I0304 20:32:45.300312 23741 layer_factory.hpp:77] Creating layer res4d
I0304 20:32:45.300320 23741 net.cpp:100] Creating Layer res4d
I0304 20:32:45.300335 23741 net.cpp:434] res4d <- res4c_res4c_relu_0_split_1
I0304 20:32:45.300341 23741 net.cpp:434] res4d <- res4d_branch2c
I0304 20:32:45.300348 23741 net.cpp:408] res4d -> res4d
I0304 20:32:45.300380 23741 net.cpp:150] Setting up res4d
I0304 20:32:45.300389 23741 net.cpp:157] Top shape: 16 1024 14 14 (3211264)
I0304 20:32:45.300393 23741 net.cpp:165] Memory required for data: 3259433024
I0304 20:32:45.300397 23741 layer_factory.hpp:77] Creating layer res4d_relu
I0304 20:32:45.300405 23741 net.cpp:100] Creating Layer res4d_relu
I0304 20:32:45.300410 23741 net.cpp:434] res4d_relu <- res4d
I0304 20:32:45.300416 23741 net.cpp:395] res4d_relu -> res4d (in-place)
I0304 20:32:45.300775 23741 net.cpp:150] Setting up res4d_relu
I0304 20:32:45.300784 23741 net.cpp:157] Top shape: 16 1024 14 14 (3211264)
I0304 20:32:45.300789 23741 net.cpp:165] Memory required for data: 3272278080
I0304 20:32:45.300794 23741 layer_factory.hpp:77] Creating layer res4d_res4d_relu_0_split
I0304 20:32:45.300803 23741 net.cpp:100] Creating Layer res4d_res4d_relu_0_split
I0304 20:32:45.300808 23741 net.cpp:434] res4d_res4d_relu_0_split <- res4d
I0304 20:32:45.300815 23741 net.cpp:408] res4d_res4d_relu_0_split -> res4d_res4d_relu_0_split_0
I0304 20:32:45.300832 23741 net.cpp:408] res4d_res4d_relu_0_split -> res4d_res4d_relu_0_split_1
I0304 20:32:45.300882 23741 net.cpp:150] Setting up res4d_res4d_relu_0_split
I0304 20:32:45.300890 23741 net.cpp:157] Top shape: 16 1024 14 14 (3211264)
I0304 20:32:45.300896 23741 net.cpp:157] Top shape: 16 1024 14 14 (3211264)
I0304 20:32:45.300899 23741 net.cpp:165] Memory required for data: 3297968192
I0304 20:32:45.300904 23741 layer_factory.hpp:77] Creating layer res4e_branch2a
I0304 20:32:45.300911 23741 net.cpp:100] Creating Layer res4e_branch2a
I0304 20:32:45.300917 23741 net.cpp:434] res4e_branch2a <- res4d_res4d_relu_0_split_0
I0304 20:32:45.300923 23741 net.cpp:408] res4e_branch2a -> res4e_branch2a
I0304 20:32:45.305277 23741 net.cpp:150] Setting up res4e_branch2a
I0304 20:32:45.305289 23741 net.cpp:157] Top shape: 16 256 14 14 (802816)
I0304 20:32:45.305294 23741 net.cpp:165] Memory required for data: 3301179456
I0304 20:32:45.305299 23741 layer_factory.hpp:77] Creating layer bn4e_branch2a
I0304 20:32:45.305305 23741 net.cpp:100] Creating Layer bn4e_branch2a
I0304 20:32:45.305310 23741 net.cpp:434] bn4e_branch2a <- res4e_branch2a
I0304 20:32:45.305316 23741 net.cpp:395] bn4e_branch2a -> res4e_branch2a (in-place)
I0304 20:32:45.305577 23741 net.cpp:150] Setting up bn4e_branch2a
I0304 20:32:45.305585 23741 net.cpp:157] Top shape: 16 256 14 14 (802816)
I0304 20:32:45.305589 23741 net.cpp:165] Memory required for data: 3304390720
I0304 20:32:45.305598 23741 layer_factory.hpp:77] Creating layer scale4e_branch2a
I0304 20:32:45.305603 23741 net.cpp:100] Creating Layer scale4e_branch2a
I0304 20:32:45.305608 23741 net.cpp:434] scale4e_branch2a <- res4e_branch2a
I0304 20:32:45.305613 23741 net.cpp:395] scale4e_branch2a -> res4e_branch2a (in-place)
I0304 20:32:45.305660 23741 layer_factory.hpp:77] Creating layer scale4e_branch2a
I0304 20:32:45.305802 23741 net.cpp:150] Setting up scale4e_branch2a
I0304 20:32:45.305809 23741 net.cpp:157] Top shape: 16 256 14 14 (802816)
I0304 20:32:45.305814 23741 net.cpp:165] Memory required for data: 3307601984
I0304 20:32:45.305819 23741 layer_factory.hpp:77] Creating layer res4e_branch2a_relu
I0304 20:32:45.305825 23741 net.cpp:100] Creating Layer res4e_branch2a_relu
I0304 20:32:45.305831 23741 net.cpp:434] res4e_branch2a_relu <- res4e_branch2a
I0304 20:32:45.305836 23741 net.cpp:395] res4e_branch2a_relu -> res4e_branch2a (in-place)
I0304 20:32:45.306304 23741 net.cpp:150] Setting up res4e_branch2a_relu
I0304 20:32:45.306314 23741 net.cpp:157] Top shape: 16 256 14 14 (802816)
I0304 20:32:45.306318 23741 net.cpp:165] Memory required for data: 3310813248
I0304 20:32:45.306323 23741 layer_factory.hpp:77] Creating layer res4e_branch2b
I0304 20:32:45.306331 23741 net.cpp:100] Creating Layer res4e_branch2b
I0304 20:32:45.306337 23741 net.cpp:434] res4e_branch2b <- res4e_branch2a
I0304 20:32:45.306344 23741 net.cpp:408] res4e_branch2b -> res4e_branch2b
I0304 20:32:45.310161 23741 net.cpp:150] Setting up res4e_branch2b
I0304 20:32:45.310174 23741 net.cpp:157] Top shape: 16 256 14 14 (802816)
I0304 20:32:45.310178 23741 net.cpp:165] Memory required for data: 3314024512
I0304 20:32:45.310184 23741 layer_factory.hpp:77] Creating layer bn4e_branch2b
I0304 20:32:45.310192 23741 net.cpp:100] Creating Layer bn4e_branch2b
I0304 20:32:45.310201 23741 net.cpp:434] bn4e_branch2b <- res4e_branch2b
I0304 20:32:45.310207 23741 net.cpp:395] bn4e_branch2b -> res4e_branch2b (in-place)
I0304 20:32:45.310472 23741 net.cpp:150] Setting up bn4e_branch2b
I0304 20:32:45.310480 23741 net.cpp:157] Top shape: 16 256 14 14 (802816)
I0304 20:32:45.310497 23741 net.cpp:165] Memory required for data: 3317235776
I0304 20:32:45.310514 23741 layer_factory.hpp:77] Creating layer scale4e_branch2b
I0304 20:32:45.310520 23741 net.cpp:100] Creating Layer scale4e_branch2b
I0304 20:32:45.310526 23741 net.cpp:434] scale4e_branch2b <- res4e_branch2b
I0304 20:32:45.310545 23741 net.cpp:395] scale4e_branch2b -> res4e_branch2b (in-place)
I0304 20:32:45.310602 23741 layer_factory.hpp:77] Creating layer scale4e_branch2b
I0304 20:32:45.310750 23741 net.cpp:150] Setting up scale4e_branch2b
I0304 20:32:45.310758 23741 net.cpp:157] Top shape: 16 256 14 14 (802816)
I0304 20:32:45.310761 23741 net.cpp:165] Memory required for data: 3320447040
I0304 20:32:45.310768 23741 layer_factory.hpp:77] Creating layer res4e_branch2b_relu
I0304 20:32:45.310773 23741 net.cpp:100] Creating Layer res4e_branch2b_relu
I0304 20:32:45.310777 23741 net.cpp:434] res4e_branch2b_relu <- res4e_branch2b
I0304 20:32:45.310783 23741 net.cpp:395] res4e_branch2b_relu -> res4e_branch2b (in-place)
I0304 20:32:45.311260 23741 net.cpp:150] Setting up res4e_branch2b_relu
I0304 20:32:45.311271 23741 net.cpp:157] Top shape: 16 256 14 14 (802816)
I0304 20:32:45.311275 23741 net.cpp:165] Memory required for data: 3323658304
I0304 20:32:45.311280 23741 layer_factory.hpp:77] Creating layer res4e_branch2c
I0304 20:32:45.311288 23741 net.cpp:100] Creating Layer res4e_branch2c
I0304 20:32:45.311292 23741 net.cpp:434] res4e_branch2c <- res4e_branch2b
I0304 20:32:45.311309 23741 net.cpp:408] res4e_branch2c -> res4e_branch2c
I0304 20:32:45.315290 23741 net.cpp:150] Setting up res4e_branch2c
I0304 20:32:45.315301 23741 net.cpp:157] Top shape: 16 1024 14 14 (3211264)
I0304 20:32:45.315305 23741 net.cpp:165] Memory required for data: 3336503360
I0304 20:32:45.315311 23741 layer_factory.hpp:77] Creating layer bn4e_branch2c
I0304 20:32:45.315318 23741 net.cpp:100] Creating Layer bn4e_branch2c
I0304 20:32:45.315322 23741 net.cpp:434] bn4e_branch2c <- res4e_branch2c
I0304 20:32:45.315328 23741 net.cpp:395] bn4e_branch2c -> res4e_branch2c (in-place)
I0304 20:32:45.315549 23741 net.cpp:150] Setting up bn4e_branch2c
I0304 20:32:45.315557 23741 net.cpp:157] Top shape: 16 1024 14 14 (3211264)
I0304 20:32:45.315560 23741 net.cpp:165] Memory required for data: 3349348416
I0304 20:32:45.315568 23741 layer_factory.hpp:77] Creating layer scale4e_branch2c
I0304 20:32:45.315575 23741 net.cpp:100] Creating Layer scale4e_branch2c
I0304 20:32:45.315578 23741 net.cpp:434] scale4e_branch2c <- res4e_branch2c
I0304 20:32:45.315583 23741 net.cpp:395] scale4e_branch2c -> res4e_branch2c (in-place)
I0304 20:32:45.315623 23741 layer_factory.hpp:77] Creating layer scale4e_branch2c
I0304 20:32:45.315752 23741 net.cpp:150] Setting up scale4e_branch2c
I0304 20:32:45.315759 23741 net.cpp:157] Top shape: 16 1024 14 14 (3211264)
I0304 20:32:45.315762 23741 net.cpp:165] Memory required for data: 3362193472
I0304 20:32:45.315768 23741 layer_factory.hpp:77] Creating layer res4e
I0304 20:32:45.315774 23741 net.cpp:100] Creating Layer res4e
I0304 20:32:45.315778 23741 net.cpp:434] res4e <- res4d_res4d_relu_0_split_1
I0304 20:32:45.315783 23741 net.cpp:434] res4e <- res4e_branch2c
I0304 20:32:45.315788 23741 net.cpp:408] res4e -> res4e
I0304 20:32:45.315814 23741 net.cpp:150] Setting up res4e
I0304 20:32:45.315821 23741 net.cpp:157] Top shape: 16 1024 14 14 (3211264)
I0304 20:32:45.315824 23741 net.cpp:165] Memory required for data: 3375038528
I0304 20:32:45.315829 23741 layer_factory.hpp:77] Creating layer res4e_relu
I0304 20:32:45.315834 23741 net.cpp:100] Creating Layer res4e_relu
I0304 20:32:45.315836 23741 net.cpp:434] res4e_relu <- res4e
I0304 20:32:45.315841 23741 net.cpp:395] res4e_relu -> res4e (in-place)
I0304 20:32:45.316602 23741 net.cpp:150] Setting up res4e_relu
I0304 20:32:45.316613 23741 net.cpp:157] Top shape: 16 1024 14 14 (3211264)
I0304 20:32:45.316617 23741 net.cpp:165] Memory required for data: 3387883584
I0304 20:32:45.316620 23741 layer_factory.hpp:77] Creating layer res4e_res4e_relu_0_split
I0304 20:32:45.316627 23741 net.cpp:100] Creating Layer res4e_res4e_relu_0_split
I0304 20:32:45.316630 23741 net.cpp:434] res4e_res4e_relu_0_split <- res4e
I0304 20:32:45.316637 23741 net.cpp:408] res4e_res4e_relu_0_split -> res4e_res4e_relu_0_split_0
I0304 20:32:45.316642 23741 net.cpp:408] res4e_res4e_relu_0_split -> res4e_res4e_relu_0_split_1
I0304 20:32:45.316692 23741 net.cpp:150] Setting up res4e_res4e_relu_0_split
I0304 20:32:45.316700 23741 net.cpp:157] Top shape: 16 1024 14 14 (3211264)
I0304 20:32:45.316705 23741 net.cpp:157] Top shape: 16 1024 14 14 (3211264)
I0304 20:32:45.316709 23741 net.cpp:165] Memory required for data: 3413573696
I0304 20:32:45.316712 23741 layer_factory.hpp:77] Creating layer res4f_branch2a
I0304 20:32:45.316720 23741 net.cpp:100] Creating Layer res4f_branch2a
I0304 20:32:45.316725 23741 net.cpp:434] res4f_branch2a <- res4e_res4e_relu_0_split_0
I0304 20:32:45.316731 23741 net.cpp:408] res4f_branch2a -> res4f_branch2a
I0304 20:32:45.320205 23741 net.cpp:150] Setting up res4f_branch2a
I0304 20:32:45.320217 23741 net.cpp:157] Top shape: 16 256 14 14 (802816)
I0304 20:32:45.320220 23741 net.cpp:165] Memory required for data: 3416784960
I0304 20:32:45.320226 23741 layer_factory.hpp:77] Creating layer bn4f_branch2a
I0304 20:32:45.320233 23741 net.cpp:100] Creating Layer bn4f_branch2a
I0304 20:32:45.320240 23741 net.cpp:434] bn4f_branch2a <- res4f_branch2a
I0304 20:32:45.320245 23741 net.cpp:395] bn4f_branch2a -> res4f_branch2a (in-place)
I0304 20:32:45.320473 23741 net.cpp:150] Setting up bn4f_branch2a
I0304 20:32:45.320480 23741 net.cpp:157] Top shape: 16 256 14 14 (802816)
I0304 20:32:45.320484 23741 net.cpp:165] Memory required for data: 3419996224
I0304 20:32:45.320492 23741 layer_factory.hpp:77] Creating layer scale4f_branch2a
I0304 20:32:45.320497 23741 net.cpp:100] Creating Layer scale4f_branch2a
I0304 20:32:45.320500 23741 net.cpp:434] scale4f_branch2a <- res4f_branch2a
I0304 20:32:45.320507 23741 net.cpp:395] scale4f_branch2a -> res4f_branch2a (in-place)
I0304 20:32:45.320549 23741 layer_factory.hpp:77] Creating layer scale4f_branch2a
I0304 20:32:45.320673 23741 net.cpp:150] Setting up scale4f_branch2a
I0304 20:32:45.320682 23741 net.cpp:157] Top shape: 16 256 14 14 (802816)
I0304 20:32:45.320684 23741 net.cpp:165] Memory required for data: 3423207488
I0304 20:32:45.320690 23741 layer_factory.hpp:77] Creating layer res4f_branch2a_relu
I0304 20:32:45.320695 23741 net.cpp:100] Creating Layer res4f_branch2a_relu
I0304 20:32:45.320698 23741 net.cpp:434] res4f_branch2a_relu <- res4f_branch2a
I0304 20:32:45.320703 23741 net.cpp:395] res4f_branch2a_relu -> res4f_branch2a (in-place)
I0304 20:32:45.321251 23741 net.cpp:150] Setting up res4f_branch2a_relu
I0304 20:32:45.321261 23741 net.cpp:157] Top shape: 16 256 14 14 (802816)
I0304 20:32:45.321265 23741 net.cpp:165] Memory required for data: 3426418752
I0304 20:32:45.321269 23741 layer_factory.hpp:77] Creating layer res4f_branch2b
I0304 20:32:45.321277 23741 net.cpp:100] Creating Layer res4f_branch2b
I0304 20:32:45.321280 23741 net.cpp:434] res4f_branch2b <- res4f_branch2a
I0304 20:32:45.321287 23741 net.cpp:408] res4f_branch2b -> res4f_branch2b
I0304 20:32:45.324908 23741 net.cpp:150] Setting up res4f_branch2b
I0304 20:32:45.324919 23741 net.cpp:157] Top shape: 16 256 14 14 (802816)
I0304 20:32:45.324923 23741 net.cpp:165] Memory required for data: 3429630016
I0304 20:32:45.324928 23741 layer_factory.hpp:77] Creating layer bn4f_branch2b
I0304 20:32:45.324935 23741 net.cpp:100] Creating Layer bn4f_branch2b
I0304 20:32:45.324939 23741 net.cpp:434] bn4f_branch2b <- res4f_branch2b
I0304 20:32:45.324944 23741 net.cpp:395] bn4f_branch2b -> res4f_branch2b (in-place)
I0304 20:32:45.325175 23741 net.cpp:150] Setting up bn4f_branch2b
I0304 20:32:45.325181 23741 net.cpp:157] Top shape: 16 256 14 14 (802816)
I0304 20:32:45.325186 23741 net.cpp:165] Memory required for data: 3432841280
I0304 20:32:45.325192 23741 layer_factory.hpp:77] Creating layer scale4f_branch2b
I0304 20:32:45.325199 23741 net.cpp:100] Creating Layer scale4f_branch2b
I0304 20:32:45.325202 23741 net.cpp:434] scale4f_branch2b <- res4f_branch2b
I0304 20:32:45.325207 23741 net.cpp:395] scale4f_branch2b -> res4f_branch2b (in-place)
I0304 20:32:45.325253 23741 layer_factory.hpp:77] Creating layer scale4f_branch2b
I0304 20:32:45.325382 23741 net.cpp:150] Setting up scale4f_branch2b
I0304 20:32:45.325389 23741 net.cpp:157] Top shape: 16 256 14 14 (802816)
I0304 20:32:45.325392 23741 net.cpp:165] Memory required for data: 3436052544
I0304 20:32:45.325398 23741 layer_factory.hpp:77] Creating layer res4f_branch2b_relu
I0304 20:32:45.325403 23741 net.cpp:100] Creating Layer res4f_branch2b_relu
I0304 20:32:45.325407 23741 net.cpp:434] res4f_branch2b_relu <- res4f_branch2b
I0304 20:32:45.325412 23741 net.cpp:395] res4f_branch2b_relu -> res4f_branch2b (in-place)
I0304 20:32:45.325860 23741 net.cpp:150] Setting up res4f_branch2b_relu
I0304 20:32:45.325870 23741 net.cpp:157] Top shape: 16 256 14 14 (802816)
I0304 20:32:45.325875 23741 net.cpp:165] Memory required for data: 3439263808
I0304 20:32:45.325877 23741 layer_factory.hpp:77] Creating layer res4f_branch2c
I0304 20:32:45.325887 23741 net.cpp:100] Creating Layer res4f_branch2c
I0304 20:32:45.325891 23741 net.cpp:434] res4f_branch2c <- res4f_branch2b
I0304 20:32:45.325896 23741 net.cpp:408] res4f_branch2c -> res4f_branch2c
I0304 20:32:45.328377 23741 net.cpp:150] Setting up res4f_branch2c
I0304 20:32:45.328400 23741 net.cpp:157] Top shape: 16 1024 14 14 (3211264)
I0304 20:32:45.328404 23741 net.cpp:165] Memory required for data: 3452108864
I0304 20:32:45.328409 23741 layer_factory.hpp:77] Creating layer bn4f_branch2c
I0304 20:32:45.328418 23741 net.cpp:100] Creating Layer bn4f_branch2c
I0304 20:32:45.328421 23741 net.cpp:434] bn4f_branch2c <- res4f_branch2c
I0304 20:32:45.328426 23741 net.cpp:395] bn4f_branch2c -> res4f_branch2c (in-place)
I0304 20:32:45.328677 23741 net.cpp:150] Setting up bn4f_branch2c
I0304 20:32:45.328697 23741 net.cpp:157] Top shape: 16 1024 14 14 (3211264)
I0304 20:32:45.328701 23741 net.cpp:165] Memory required for data: 3464953920
I0304 20:32:45.328748 23741 layer_factory.hpp:77] Creating layer scale4f_branch2c
I0304 20:32:45.328770 23741 net.cpp:100] Creating Layer scale4f_branch2c
I0304 20:32:45.328775 23741 net.cpp:434] scale4f_branch2c <- res4f_branch2c
I0304 20:32:45.328780 23741 net.cpp:395] scale4f_branch2c -> res4f_branch2c (in-place)
I0304 20:32:45.328838 23741 layer_factory.hpp:77] Creating layer scale4f_branch2c
I0304 20:32:45.328992 23741 net.cpp:150] Setting up scale4f_branch2c
I0304 20:32:45.328999 23741 net.cpp:157] Top shape: 16 1024 14 14 (3211264)
I0304 20:32:45.329012 23741 net.cpp:165] Memory required for data: 3477798976
I0304 20:32:45.329020 23741 layer_factory.hpp:77] Creating layer res4f
I0304 20:32:45.329026 23741 net.cpp:100] Creating Layer res4f
I0304 20:32:45.329030 23741 net.cpp:434] res4f <- res4e_res4e_relu_0_split_1
I0304 20:32:45.329036 23741 net.cpp:434] res4f <- res4f_branch2c
I0304 20:32:45.329041 23741 net.cpp:408] res4f -> res4f
I0304 20:32:45.329080 23741 net.cpp:150] Setting up res4f
I0304 20:32:45.329087 23741 net.cpp:157] Top shape: 16 1024 14 14 (3211264)
I0304 20:32:45.329100 23741 net.cpp:165] Memory required for data: 3490644032
I0304 20:32:45.329103 23741 layer_factory.hpp:77] Creating layer res4f_relu
I0304 20:32:45.329108 23741 net.cpp:100] Creating Layer res4f_relu
I0304 20:32:45.329113 23741 net.cpp:434] res4f_relu <- res4f
I0304 20:32:45.329118 23741 net.cpp:395] res4f_relu -> res4f (in-place)
I0304 20:32:45.329320 23741 net.cpp:150] Setting up res4f_relu
I0304 20:32:45.329329 23741 net.cpp:157] Top shape: 16 1024 14 14 (3211264)
I0304 20:32:45.329341 23741 net.cpp:165] Memory required for data: 3503489088
I0304 20:32:45.329345 23741 layer_factory.hpp:77] Creating layer res4f_res4f_relu_0_split
I0304 20:32:45.329351 23741 net.cpp:100] Creating Layer res4f_res4f_relu_0_split
I0304 20:32:45.329356 23741 net.cpp:434] res4f_res4f_relu_0_split <- res4f
I0304 20:32:45.329361 23741 net.cpp:408] res4f_res4f_relu_0_split -> res4f_res4f_relu_0_split_0
I0304 20:32:45.329367 23741 net.cpp:408] res4f_res4f_relu_0_split -> res4f_res4f_relu_0_split_1
I0304 20:32:45.329422 23741 net.cpp:150] Setting up res4f_res4f_relu_0_split
I0304 20:32:45.329428 23741 net.cpp:157] Top shape: 16 1024 14 14 (3211264)
I0304 20:32:45.329442 23741 net.cpp:157] Top shape: 16 1024 14 14 (3211264)
I0304 20:32:45.329445 23741 net.cpp:165] Memory required for data: 3529179200
I0304 20:32:45.329449 23741 layer_factory.hpp:77] Creating layer res5a_branch1
I0304 20:32:45.329457 23741 net.cpp:100] Creating Layer res5a_branch1
I0304 20:32:45.329462 23741 net.cpp:434] res5a_branch1 <- res4f_res4f_relu_0_split_0
I0304 20:32:45.329466 23741 net.cpp:408] res5a_branch1 -> res5a_branch1
I0304 20:32:45.335853 23741 net.cpp:150] Setting up res5a_branch1
I0304 20:32:45.335893 23741 net.cpp:157] Top shape: 16 2048 7 7 (1605632)
I0304 20:32:45.335897 23741 net.cpp:165] Memory required for data: 3535601728
I0304 20:32:45.335906 23741 layer_factory.hpp:77] Creating layer bn5a_branch1
I0304 20:32:45.335917 23741 net.cpp:100] Creating Layer bn5a_branch1
I0304 20:32:45.335932 23741 net.cpp:434] bn5a_branch1 <- res5a_branch1
I0304 20:32:45.335940 23741 net.cpp:395] bn5a_branch1 -> res5a_branch1 (in-place)
I0304 20:32:45.336256 23741 net.cpp:150] Setting up bn5a_branch1
I0304 20:32:45.336273 23741 net.cpp:157] Top shape: 16 2048 7 7 (1605632)
I0304 20:32:45.336277 23741 net.cpp:165] Memory required for data: 3542024256
I0304 20:32:45.336285 23741 layer_factory.hpp:77] Creating layer scale5a_branch1
I0304 20:32:45.336292 23741 net.cpp:100] Creating Layer scale5a_branch1
I0304 20:32:45.336297 23741 net.cpp:434] scale5a_branch1 <- res5a_branch1
I0304 20:32:45.336303 23741 net.cpp:395] scale5a_branch1 -> res5a_branch1 (in-place)
I0304 20:32:45.336360 23741 layer_factory.hpp:77] Creating layer scale5a_branch1
I0304 20:32:45.336522 23741 net.cpp:150] Setting up scale5a_branch1
I0304 20:32:45.336532 23741 net.cpp:157] Top shape: 16 2048 7 7 (1605632)
I0304 20:32:45.336545 23741 net.cpp:165] Memory required for data: 3548446784
I0304 20:32:45.336552 23741 layer_factory.hpp:77] Creating layer res5a_branch2a
I0304 20:32:45.336562 23741 net.cpp:100] Creating Layer res5a_branch2a
I0304 20:32:45.336567 23741 net.cpp:434] res5a_branch2a <- res4f_res4f_relu_0_split_1
I0304 20:32:45.336575 23741 net.cpp:408] res5a_branch2a -> res5a_branch2a
I0304 20:32:45.339869 23741 net.cpp:150] Setting up res5a_branch2a
I0304 20:32:45.339890 23741 net.cpp:157] Top shape: 16 512 7 7 (401408)
I0304 20:32:45.339895 23741 net.cpp:165] Memory required for data: 3550052416
I0304 20:32:45.339900 23741 layer_factory.hpp:77] Creating layer bn5a_branch2a
I0304 20:32:45.339911 23741 net.cpp:100] Creating Layer bn5a_branch2a
I0304 20:32:45.339915 23741 net.cpp:434] bn5a_branch2a <- res5a_branch2a
I0304 20:32:45.339922 23741 net.cpp:395] bn5a_branch2a -> res5a_branch2a (in-place)
I0304 20:32:45.340180 23741 net.cpp:150] Setting up bn5a_branch2a
I0304 20:32:45.340199 23741 net.cpp:157] Top shape: 16 512 7 7 (401408)
I0304 20:32:45.340204 23741 net.cpp:165] Memory required for data: 3551658048
I0304 20:32:45.340211 23741 layer_factory.hpp:77] Creating layer scale5a_branch2a
I0304 20:32:45.340219 23741 net.cpp:100] Creating Layer scale5a_branch2a
I0304 20:32:45.340221 23741 net.cpp:434] scale5a_branch2a <- res5a_branch2a
I0304 20:32:45.340227 23741 net.cpp:395] scale5a_branch2a -> res5a_branch2a (in-place)
I0304 20:32:45.340281 23741 layer_factory.hpp:77] Creating layer scale5a_branch2a
I0304 20:32:45.340435 23741 net.cpp:150] Setting up scale5a_branch2a
I0304 20:32:45.340452 23741 net.cpp:157] Top shape: 16 512 7 7 (401408)
I0304 20:32:45.340456 23741 net.cpp:165] Memory required for data: 3553263680
I0304 20:32:45.340461 23741 layer_factory.hpp:77] Creating layer res5a_branch2a_relu
I0304 20:32:45.340468 23741 net.cpp:100] Creating Layer res5a_branch2a_relu
I0304 20:32:45.340472 23741 net.cpp:434] res5a_branch2a_relu <- res5a_branch2a
I0304 20:32:45.340476 23741 net.cpp:395] res5a_branch2a_relu -> res5a_branch2a (in-place)
I0304 20:32:45.340718 23741 net.cpp:150] Setting up res5a_branch2a_relu
I0304 20:32:45.340726 23741 net.cpp:157] Top shape: 16 512 7 7 (401408)
I0304 20:32:45.340740 23741 net.cpp:165] Memory required for data: 3554869312
I0304 20:32:45.340744 23741 layer_factory.hpp:77] Creating layer res5a_branch2b
I0304 20:32:45.340751 23741 net.cpp:100] Creating Layer res5a_branch2b
I0304 20:32:45.340755 23741 net.cpp:434] res5a_branch2b <- res5a_branch2a
I0304 20:32:45.340761 23741 net.cpp:408] res5a_branch2b -> res5a_branch2b
I0304 20:32:45.347631 23741 net.cpp:150] Setting up res5a_branch2b
I0304 20:32:45.347667 23741 net.cpp:157] Top shape: 16 512 7 7 (401408)
I0304 20:32:45.347672 23741 net.cpp:165] Memory required for data: 3556474944
I0304 20:32:45.347681 23741 layer_factory.hpp:77] Creating layer bn5a_branch2b
I0304 20:32:45.347692 23741 net.cpp:100] Creating Layer bn5a_branch2b
I0304 20:32:45.347698 23741 net.cpp:434] bn5a_branch2b <- res5a_branch2b
I0304 20:32:45.347707 23741 net.cpp:395] bn5a_branch2b -> res5a_branch2b (in-place)
I0304 20:32:45.347972 23741 net.cpp:150] Setting up bn5a_branch2b
I0304 20:32:45.347980 23741 net.cpp:157] Top shape: 16 512 7 7 (401408)
I0304 20:32:45.347993 23741 net.cpp:165] Memory required for data: 3558080576
I0304 20:32:45.348001 23741 layer_factory.hpp:77] Creating layer scale5a_branch2b
I0304 20:32:45.348009 23741 net.cpp:100] Creating Layer scale5a_branch2b
I0304 20:32:45.348013 23741 net.cpp:434] scale5a_branch2b <- res5a_branch2b
I0304 20:32:45.348017 23741 net.cpp:395] scale5a_branch2b -> res5a_branch2b (in-place)
I0304 20:32:45.348081 23741 layer_factory.hpp:77] Creating layer scale5a_branch2b
I0304 20:32:45.348240 23741 net.cpp:150] Setting up scale5a_branch2b
I0304 20:32:45.348248 23741 net.cpp:157] Top shape: 16 512 7 7 (401408)
I0304 20:32:45.348260 23741 net.cpp:165] Memory required for data: 3559686208
I0304 20:32:45.348268 23741 layer_factory.hpp:77] Creating layer res5a_branch2b_relu
I0304 20:32:45.348275 23741 net.cpp:100] Creating Layer res5a_branch2b_relu
I0304 20:32:45.348280 23741 net.cpp:434] res5a_branch2b_relu <- res5a_branch2b
I0304 20:32:45.348285 23741 net.cpp:395] res5a_branch2b_relu -> res5a_branch2b (in-place)
I0304 20:32:45.348743 23741 net.cpp:150] Setting up res5a_branch2b_relu
I0304 20:32:45.348753 23741 net.cpp:157] Top shape: 16 512 7 7 (401408)
I0304 20:32:45.348757 23741 net.cpp:165] Memory required for data: 3561291840
I0304 20:32:45.348760 23741 layer_factory.hpp:77] Creating layer res5a_branch2c
I0304 20:32:45.348769 23741 net.cpp:100] Creating Layer res5a_branch2c
I0304 20:32:45.348774 23741 net.cpp:434] res5a_branch2c <- res5a_branch2b
I0304 20:32:45.348779 23741 net.cpp:408] res5a_branch2c -> res5a_branch2c
I0304 20:32:45.352205 23741 net.cpp:150] Setting up res5a_branch2c
I0304 20:32:45.352218 23741 net.cpp:157] Top shape: 16 2048 7 7 (1605632)
I0304 20:32:45.352222 23741 net.cpp:165] Memory required for data: 3567714368
I0304 20:32:45.352228 23741 layer_factory.hpp:77] Creating layer bn5a_branch2c
I0304 20:32:45.352236 23741 net.cpp:100] Creating Layer bn5a_branch2c
I0304 20:32:45.352242 23741 net.cpp:434] bn5a_branch2c <- res5a_branch2c
I0304 20:32:45.352249 23741 net.cpp:395] bn5a_branch2c -> res5a_branch2c (in-place)
I0304 20:32:45.352494 23741 net.cpp:150] Setting up bn5a_branch2c
I0304 20:32:45.352502 23741 net.cpp:157] Top shape: 16 2048 7 7 (1605632)
I0304 20:32:45.352506 23741 net.cpp:165] Memory required for data: 3574136896
I0304 20:32:45.352515 23741 layer_factory.hpp:77] Creating layer scale5a_branch2c
I0304 20:32:45.352522 23741 net.cpp:100] Creating Layer scale5a_branch2c
I0304 20:32:45.352527 23741 net.cpp:434] scale5a_branch2c <- res5a_branch2c
I0304 20:32:45.352532 23741 net.cpp:395] scale5a_branch2c -> res5a_branch2c (in-place)
I0304 20:32:45.352578 23741 layer_factory.hpp:77] Creating layer scale5a_branch2c
I0304 20:32:45.352741 23741 net.cpp:150] Setting up scale5a_branch2c
I0304 20:32:45.352751 23741 net.cpp:157] Top shape: 16 2048 7 7 (1605632)
I0304 20:32:45.352756 23741 net.cpp:165] Memory required for data: 3580559424
I0304 20:32:45.352763 23741 layer_factory.hpp:77] Creating layer res5a
I0304 20:32:45.352772 23741 net.cpp:100] Creating Layer res5a
I0304 20:32:45.352778 23741 net.cpp:434] res5a <- res5a_branch1
I0304 20:32:45.352783 23741 net.cpp:434] res5a <- res5a_branch2c
I0304 20:32:45.352789 23741 net.cpp:408] res5a -> res5a
I0304 20:32:45.352824 23741 net.cpp:150] Setting up res5a
I0304 20:32:45.352833 23741 net.cpp:157] Top shape: 16 2048 7 7 (1605632)
I0304 20:32:45.352838 23741 net.cpp:165] Memory required for data: 3586981952
I0304 20:32:45.352841 23741 layer_factory.hpp:77] Creating layer res5a_relu
I0304 20:32:45.352849 23741 net.cpp:100] Creating Layer res5a_relu
I0304 20:32:45.352852 23741 net.cpp:434] res5a_relu <- res5a
I0304 20:32:45.352859 23741 net.cpp:395] res5a_relu -> res5a (in-place)
I0304 20:32:45.353731 23741 net.cpp:150] Setting up res5a_relu
I0304 20:32:45.353742 23741 net.cpp:157] Top shape: 16 2048 7 7 (1605632)
I0304 20:32:45.353746 23741 net.cpp:165] Memory required for data: 3593404480
I0304 20:32:45.353750 23741 layer_factory.hpp:77] Creating layer res5a_res5a_relu_0_split
I0304 20:32:45.353759 23741 net.cpp:100] Creating Layer res5a_res5a_relu_0_split
I0304 20:32:45.353763 23741 net.cpp:434] res5a_res5a_relu_0_split <- res5a
I0304 20:32:45.353770 23741 net.cpp:408] res5a_res5a_relu_0_split -> res5a_res5a_relu_0_split_0
I0304 20:32:45.353776 23741 net.cpp:408] res5a_res5a_relu_0_split -> res5a_res5a_relu_0_split_1
I0304 20:32:45.353827 23741 net.cpp:150] Setting up res5a_res5a_relu_0_split
I0304 20:32:45.353834 23741 net.cpp:157] Top shape: 16 2048 7 7 (1605632)
I0304 20:32:45.353839 23741 net.cpp:157] Top shape: 16 2048 7 7 (1605632)
I0304 20:32:45.353843 23741 net.cpp:165] Memory required for data: 3606249536
I0304 20:32:45.353847 23741 layer_factory.hpp:77] Creating layer res5b_branch2a
I0304 20:32:45.353857 23741 net.cpp:100] Creating Layer res5b_branch2a
I0304 20:32:45.353860 23741 net.cpp:434] res5b_branch2a <- res5a_res5a_relu_0_split_0
I0304 20:32:45.353866 23741 net.cpp:408] res5b_branch2a -> res5b_branch2a
I0304 20:32:45.358232 23741 net.cpp:150] Setting up res5b_branch2a
I0304 20:32:45.358263 23741 net.cpp:157] Top shape: 16 512 7 7 (401408)
I0304 20:32:45.358268 23741 net.cpp:165] Memory required for data: 3607855168
I0304 20:32:45.358274 23741 layer_factory.hpp:77] Creating layer bn5b_branch2a
I0304 20:32:45.358285 23741 net.cpp:100] Creating Layer bn5b_branch2a
I0304 20:32:45.358289 23741 net.cpp:434] bn5b_branch2a <- res5b_branch2a
I0304 20:32:45.358295 23741 net.cpp:395] bn5b_branch2a -> res5b_branch2a (in-place)
I0304 20:32:45.358556 23741 net.cpp:150] Setting up bn5b_branch2a
I0304 20:32:45.358564 23741 net.cpp:157] Top shape: 16 512 7 7 (401408)
I0304 20:32:45.358577 23741 net.cpp:165] Memory required for data: 3609460800
I0304 20:32:45.358585 23741 layer_factory.hpp:77] Creating layer scale5b_branch2a
I0304 20:32:45.358592 23741 net.cpp:100] Creating Layer scale5b_branch2a
I0304 20:32:45.358597 23741 net.cpp:434] scale5b_branch2a <- res5b_branch2a
I0304 20:32:45.358603 23741 net.cpp:395] scale5b_branch2a -> res5b_branch2a (in-place)
I0304 20:32:45.358660 23741 layer_factory.hpp:77] Creating layer scale5b_branch2a
I0304 20:32:45.358819 23741 net.cpp:150] Setting up scale5b_branch2a
I0304 20:32:45.358826 23741 net.cpp:157] Top shape: 16 512 7 7 (401408)
I0304 20:32:45.358839 23741 net.cpp:165] Memory required for data: 3611066432
I0304 20:32:45.358845 23741 layer_factory.hpp:77] Creating layer res5b_branch2a_relu
I0304 20:32:45.358852 23741 net.cpp:100] Creating Layer res5b_branch2a_relu
I0304 20:32:45.358856 23741 net.cpp:434] res5b_branch2a_relu <- res5b_branch2a
I0304 20:32:45.358861 23741 net.cpp:395] res5b_branch2a_relu -> res5b_branch2a (in-place)
I0304 20:32:45.359241 23741 net.cpp:150] Setting up res5b_branch2a_relu
I0304 20:32:45.359259 23741 net.cpp:157] Top shape: 16 512 7 7 (401408)
I0304 20:32:45.359262 23741 net.cpp:165] Memory required for data: 3612672064
I0304 20:32:45.359266 23741 layer_factory.hpp:77] Creating layer res5b_branch2b
I0304 20:32:45.359273 23741 net.cpp:100] Creating Layer res5b_branch2b
I0304 20:32:45.359278 23741 net.cpp:434] res5b_branch2b <- res5b_branch2a
I0304 20:32:45.359284 23741 net.cpp:408] res5b_branch2b -> res5b_branch2b
I0304 20:32:45.366144 23741 net.cpp:150] Setting up res5b_branch2b
I0304 20:32:45.366178 23741 net.cpp:157] Top shape: 16 512 7 7 (401408)
I0304 20:32:45.366181 23741 net.cpp:165] Memory required for data: 3614277696
I0304 20:32:45.366190 23741 layer_factory.hpp:77] Creating layer bn5b_branch2b
I0304 20:32:45.366202 23741 net.cpp:100] Creating Layer bn5b_branch2b
I0304 20:32:45.366209 23741 net.cpp:434] bn5b_branch2b <- res5b_branch2b
I0304 20:32:45.366214 23741 net.cpp:395] bn5b_branch2b -> res5b_branch2b (in-place)
I0304 20:32:45.366472 23741 net.cpp:150] Setting up bn5b_branch2b
I0304 20:32:45.366479 23741 net.cpp:157] Top shape: 16 512 7 7 (401408)
I0304 20:32:45.366482 23741 net.cpp:165] Memory required for data: 3615883328
I0304 20:32:45.366492 23741 layer_factory.hpp:77] Creating layer scale5b_branch2b
I0304 20:32:45.366498 23741 net.cpp:100] Creating Layer scale5b_branch2b
I0304 20:32:45.366502 23741 net.cpp:434] scale5b_branch2b <- res5b_branch2b
I0304 20:32:45.366506 23741 net.cpp:395] scale5b_branch2b -> res5b_branch2b (in-place)
I0304 20:32:45.366559 23741 layer_factory.hpp:77] Creating layer scale5b_branch2b
I0304 20:32:45.366700 23741 net.cpp:150] Setting up scale5b_branch2b
I0304 20:32:45.366708 23741 net.cpp:157] Top shape: 16 512 7 7 (401408)
I0304 20:32:45.366711 23741 net.cpp:165] Memory required for data: 3617488960
I0304 20:32:45.366717 23741 layer_factory.hpp:77] Creating layer res5b_branch2b_relu
I0304 20:32:45.366724 23741 net.cpp:100] Creating Layer res5b_branch2b_relu
I0304 20:32:45.366727 23741 net.cpp:434] res5b_branch2b_relu <- res5b_branch2b
I0304 20:32:45.366731 23741 net.cpp:395] res5b_branch2b_relu -> res5b_branch2b (in-place)
I0304 20:32:45.367265 23741 net.cpp:150] Setting up res5b_branch2b_relu
I0304 20:32:45.367275 23741 net.cpp:157] Top shape: 16 512 7 7 (401408)
I0304 20:32:45.367280 23741 net.cpp:165] Memory required for data: 3619094592
I0304 20:32:45.367283 23741 layer_factory.hpp:77] Creating layer res5b_branch2c
I0304 20:32:45.367291 23741 net.cpp:100] Creating Layer res5b_branch2c
I0304 20:32:45.367295 23741 net.cpp:434] res5b_branch2c <- res5b_branch2b
I0304 20:32:45.367302 23741 net.cpp:408] res5b_branch2c -> res5b_branch2c
I0304 20:32:45.370996 23741 net.cpp:150] Setting up res5b_branch2c
I0304 20:32:45.371011 23741 net.cpp:157] Top shape: 16 2048 7 7 (1605632)
I0304 20:32:45.371016 23741 net.cpp:165] Memory required for data: 3625517120
I0304 20:32:45.371021 23741 layer_factory.hpp:77] Creating layer bn5b_branch2c
I0304 20:32:45.371028 23741 net.cpp:100] Creating Layer bn5b_branch2c
I0304 20:32:45.371032 23741 net.cpp:434] bn5b_branch2c <- res5b_branch2c
I0304 20:32:45.371037 23741 net.cpp:395] bn5b_branch2c -> res5b_branch2c (in-place)
I0304 20:32:45.371289 23741 net.cpp:150] Setting up bn5b_branch2c
I0304 20:32:45.371297 23741 net.cpp:157] Top shape: 16 2048 7 7 (1605632)
I0304 20:32:45.371300 23741 net.cpp:165] Memory required for data: 3631939648
I0304 20:32:45.371309 23741 layer_factory.hpp:77] Creating layer scale5b_branch2c
I0304 20:32:45.371315 23741 net.cpp:100] Creating Layer scale5b_branch2c
I0304 20:32:45.371318 23741 net.cpp:434] scale5b_branch2c <- res5b_branch2c
I0304 20:32:45.371322 23741 net.cpp:395] scale5b_branch2c -> res5b_branch2c (in-place)
I0304 20:32:45.371368 23741 layer_factory.hpp:77] Creating layer scale5b_branch2c
I0304 20:32:45.371511 23741 net.cpp:150] Setting up scale5b_branch2c
I0304 20:32:45.371520 23741 net.cpp:157] Top shape: 16 2048 7 7 (1605632)
I0304 20:32:45.371522 23741 net.cpp:165] Memory required for data: 3638362176
I0304 20:32:45.371528 23741 layer_factory.hpp:77] Creating layer res5b
I0304 20:32:45.371536 23741 net.cpp:100] Creating Layer res5b
I0304 20:32:45.371538 23741 net.cpp:434] res5b <- res5a_res5a_relu_0_split_1
I0304 20:32:45.371542 23741 net.cpp:434] res5b <- res5b_branch2c
I0304 20:32:45.371547 23741 net.cpp:408] res5b -> res5b
I0304 20:32:45.371577 23741 net.cpp:150] Setting up res5b
I0304 20:32:45.371583 23741 net.cpp:157] Top shape: 16 2048 7 7 (1605632)
I0304 20:32:45.371587 23741 net.cpp:165] Memory required for data: 3644784704
I0304 20:32:45.371589 23741 layer_factory.hpp:77] Creating layer res5b_relu
I0304 20:32:45.371594 23741 net.cpp:100] Creating Layer res5b_relu
I0304 20:32:45.371598 23741 net.cpp:434] res5b_relu <- res5b
I0304 20:32:45.371604 23741 net.cpp:395] res5b_relu -> res5b (in-place)
I0304 20:32:45.372063 23741 net.cpp:150] Setting up res5b_relu
I0304 20:32:45.372077 23741 net.cpp:157] Top shape: 16 2048 7 7 (1605632)
I0304 20:32:45.372081 23741 net.cpp:165] Memory required for data: 3651207232
I0304 20:32:45.372084 23741 layer_factory.hpp:77] Creating layer res5b_res5b_relu_0_split
I0304 20:32:45.372092 23741 net.cpp:100] Creating Layer res5b_res5b_relu_0_split
I0304 20:32:45.372094 23741 net.cpp:434] res5b_res5b_relu_0_split <- res5b
I0304 20:32:45.372100 23741 net.cpp:408] res5b_res5b_relu_0_split -> res5b_res5b_relu_0_split_0
I0304 20:32:45.372107 23741 net.cpp:408] res5b_res5b_relu_0_split -> res5b_res5b_relu_0_split_1
I0304 20:32:45.372158 23741 net.cpp:150] Setting up res5b_res5b_relu_0_split
I0304 20:32:45.372165 23741 net.cpp:157] Top shape: 16 2048 7 7 (1605632)
I0304 20:32:45.372169 23741 net.cpp:157] Top shape: 16 2048 7 7 (1605632)
I0304 20:32:45.372172 23741 net.cpp:165] Memory required for data: 3664052288
I0304 20:32:45.372175 23741 layer_factory.hpp:77] Creating layer res5c_branch2a
I0304 20:32:45.372182 23741 net.cpp:100] Creating Layer res5c_branch2a
I0304 20:32:45.372186 23741 net.cpp:434] res5c_branch2a <- res5b_res5b_relu_0_split_0
I0304 20:32:45.372191 23741 net.cpp:408] res5c_branch2a -> res5c_branch2a
I0304 20:32:45.375890 23741 net.cpp:150] Setting up res5c_branch2a
I0304 20:32:45.375912 23741 net.cpp:157] Top shape: 16 512 7 7 (401408)
I0304 20:32:45.375917 23741 net.cpp:165] Memory required for data: 3665657920
I0304 20:32:45.375924 23741 layer_factory.hpp:77] Creating layer bn5c_branch2a
I0304 20:32:45.375933 23741 net.cpp:100] Creating Layer bn5c_branch2a
I0304 20:32:45.375937 23741 net.cpp:434] bn5c_branch2a <- res5c_branch2a
I0304 20:32:45.375944 23741 net.cpp:395] bn5c_branch2a -> res5c_branch2a (in-place)
I0304 20:32:45.376209 23741 net.cpp:150] Setting up bn5c_branch2a
I0304 20:32:45.376219 23741 net.cpp:157] Top shape: 16 512 7 7 (401408)
I0304 20:32:45.376221 23741 net.cpp:165] Memory required for data: 3667263552
I0304 20:32:45.376230 23741 layer_factory.hpp:77] Creating layer scale5c_branch2a
I0304 20:32:45.376236 23741 net.cpp:100] Creating Layer scale5c_branch2a
I0304 20:32:45.376240 23741 net.cpp:434] scale5c_branch2a <- res5c_branch2a
I0304 20:32:45.376245 23741 net.cpp:395] scale5c_branch2a -> res5c_branch2a (in-place)
I0304 20:32:45.376293 23741 layer_factory.hpp:77] Creating layer scale5c_branch2a
I0304 20:32:45.376433 23741 net.cpp:150] Setting up scale5c_branch2a
I0304 20:32:45.376441 23741 net.cpp:157] Top shape: 16 512 7 7 (401408)
I0304 20:32:45.376444 23741 net.cpp:165] Memory required for data: 3668869184
I0304 20:32:45.376451 23741 layer_factory.hpp:77] Creating layer res5c_branch2a_relu
I0304 20:32:45.376457 23741 net.cpp:100] Creating Layer res5c_branch2a_relu
I0304 20:32:45.376461 23741 net.cpp:434] res5c_branch2a_relu <- res5c_branch2a
I0304 20:32:45.376466 23741 net.cpp:395] res5c_branch2a_relu -> res5c_branch2a (in-place)
I0304 20:32:45.376931 23741 net.cpp:150] Setting up res5c_branch2a_relu
I0304 20:32:45.376940 23741 net.cpp:157] Top shape: 16 512 7 7 (401408)
I0304 20:32:45.376943 23741 net.cpp:165] Memory required for data: 3670474816
I0304 20:32:45.376947 23741 layer_factory.hpp:77] Creating layer res5c_branch2b
I0304 20:32:45.376956 23741 net.cpp:100] Creating Layer res5c_branch2b
I0304 20:32:45.376960 23741 net.cpp:434] res5c_branch2b <- res5c_branch2a
I0304 20:32:45.376965 23741 net.cpp:408] res5c_branch2b -> res5c_branch2b
I0304 20:32:45.383801 23741 net.cpp:150] Setting up res5c_branch2b
I0304 20:32:45.383857 23741 net.cpp:157] Top shape: 16 512 7 7 (401408)
I0304 20:32:45.383869 23741 net.cpp:165] Memory required for data: 3672080448
I0304 20:32:45.383888 23741 layer_factory.hpp:77] Creating layer bn5c_branch2b
I0304 20:32:45.383899 23741 net.cpp:100] Creating Layer bn5c_branch2b
I0304 20:32:45.383906 23741 net.cpp:434] bn5c_branch2b <- res5c_branch2b
I0304 20:32:45.383926 23741 net.cpp:395] bn5c_branch2b -> res5c_branch2b (in-place)
I0304 20:32:45.384208 23741 net.cpp:150] Setting up bn5c_branch2b
I0304 20:32:45.384218 23741 net.cpp:157] Top shape: 16 512 7 7 (401408)
I0304 20:32:45.384222 23741 net.cpp:165] Memory required for data: 3673686080
I0304 20:32:45.384229 23741 layer_factory.hpp:77] Creating layer scale5c_branch2b
I0304 20:32:45.384238 23741 net.cpp:100] Creating Layer scale5c_branch2b
I0304 20:32:45.384241 23741 net.cpp:434] scale5c_branch2b <- res5c_branch2b
I0304 20:32:45.384245 23741 net.cpp:395] scale5c_branch2b -> res5c_branch2b (in-place)
I0304 20:32:45.384295 23741 layer_factory.hpp:77] Creating layer scale5c_branch2b
I0304 20:32:45.384438 23741 net.cpp:150] Setting up scale5c_branch2b
I0304 20:32:45.384446 23741 net.cpp:157] Top shape: 16 512 7 7 (401408)
I0304 20:32:45.384450 23741 net.cpp:165] Memory required for data: 3675291712
I0304 20:32:45.384457 23741 layer_factory.hpp:77] Creating layer res5c_branch2b_relu
I0304 20:32:45.384464 23741 net.cpp:100] Creating Layer res5c_branch2b_relu
I0304 20:32:45.384469 23741 net.cpp:434] res5c_branch2b_relu <- res5c_branch2b
I0304 20:32:45.384474 23741 net.cpp:395] res5c_branch2b_relu -> res5c_branch2b (in-place)
I0304 20:32:45.384933 23741 net.cpp:150] Setting up res5c_branch2b_relu
I0304 20:32:45.384945 23741 net.cpp:157] Top shape: 16 512 7 7 (401408)
I0304 20:32:45.384948 23741 net.cpp:165] Memory required for data: 3676897344
I0304 20:32:45.384953 23741 layer_factory.hpp:77] Creating layer res5c_branch2c
I0304 20:32:45.384960 23741 net.cpp:100] Creating Layer res5c_branch2c
I0304 20:32:45.384964 23741 net.cpp:434] res5c_branch2c <- res5c_branch2b
I0304 20:32:45.384970 23741 net.cpp:408] res5c_branch2c -> res5c_branch2c
I0304 20:32:45.388015 23741 net.cpp:150] Setting up res5c_branch2c
I0304 20:32:45.388031 23741 net.cpp:157] Top shape: 16 2048 7 7 (1605632)
I0304 20:32:45.388034 23741 net.cpp:165] Memory required for data: 3683319872
I0304 20:32:45.388039 23741 layer_factory.hpp:77] Creating layer bn5c_branch2c
I0304 20:32:45.388046 23741 net.cpp:100] Creating Layer bn5c_branch2c
I0304 20:32:45.388051 23741 net.cpp:434] bn5c_branch2c <- res5c_branch2c
I0304 20:32:45.388057 23741 net.cpp:395] bn5c_branch2c -> res5c_branch2c (in-place)
I0304 20:32:45.388322 23741 net.cpp:150] Setting up bn5c_branch2c
I0304 20:32:45.388331 23741 net.cpp:157] Top shape: 16 2048 7 7 (1605632)
I0304 20:32:45.388335 23741 net.cpp:165] Memory required for data: 3689742400
I0304 20:32:45.388344 23741 layer_factory.hpp:77] Creating layer scale5c_branch2c
I0304 20:32:45.388348 23741 net.cpp:100] Creating Layer scale5c_branch2c
I0304 20:32:45.388352 23741 net.cpp:434] scale5c_branch2c <- res5c_branch2c
I0304 20:32:45.388357 23741 net.cpp:395] scale5c_branch2c -> res5c_branch2c (in-place)
I0304 20:32:45.388425 23741 layer_factory.hpp:77] Creating layer scale5c_branch2c
I0304 20:32:45.388572 23741 net.cpp:150] Setting up scale5c_branch2c
I0304 20:32:45.388581 23741 net.cpp:157] Top shape: 16 2048 7 7 (1605632)
I0304 20:32:45.388584 23741 net.cpp:165] Memory required for data: 3696164928
I0304 20:32:45.388592 23741 layer_factory.hpp:77] Creating layer res5c
I0304 20:32:45.388597 23741 net.cpp:100] Creating Layer res5c
I0304 20:32:45.388602 23741 net.cpp:434] res5c <- res5b_res5b_relu_0_split_1
I0304 20:32:45.388607 23741 net.cpp:434] res5c <- res5c_branch2c
I0304 20:32:45.388617 23741 net.cpp:408] res5c -> res5c
I0304 20:32:45.388651 23741 net.cpp:150] Setting up res5c
I0304 20:32:45.388659 23741 net.cpp:157] Top shape: 16 2048 7 7 (1605632)
I0304 20:32:45.388664 23741 net.cpp:165] Memory required for data: 3702587456
I0304 20:32:45.388667 23741 layer_factory.hpp:77] Creating layer res5c_relu
I0304 20:32:45.388674 23741 net.cpp:100] Creating Layer res5c_relu
I0304 20:32:45.388677 23741 net.cpp:434] res5c_relu <- res5c
I0304 20:32:45.388684 23741 net.cpp:395] res5c_relu -> res5c (in-place)
I0304 20:32:45.389132 23741 net.cpp:150] Setting up res5c_relu
I0304 20:32:45.389142 23741 net.cpp:157] Top shape: 16 2048 7 7 (1605632)
I0304 20:32:45.389147 23741 net.cpp:165] Memory required for data: 3709009984
I0304 20:32:45.389149 23741 layer_factory.hpp:77] Creating layer pool5
I0304 20:32:45.389156 23741 net.cpp:100] Creating Layer pool5
I0304 20:32:45.389160 23741 net.cpp:434] pool5 <- res5c
I0304 20:32:45.389166 23741 net.cpp:408] pool5 -> pool5
I0304 20:32:45.389827 23741 net.cpp:150] Setting up pool5
I0304 20:32:45.389837 23741 net.cpp:157] Top shape: 16 2048 1 1 (32768)
I0304 20:32:45.389840 23741 net.cpp:165] Memory required for data: 3709141056
I0304 20:32:45.389844 23741 layer_factory.hpp:77] Creating layer drop5
I0304 20:32:45.389852 23741 net.cpp:100] Creating Layer drop5
I0304 20:32:45.389854 23741 net.cpp:434] drop5 <- pool5
I0304 20:32:45.389863 23741 net.cpp:395] drop5 -> pool5 (in-place)
I0304 20:32:45.389894 23741 net.cpp:150] Setting up drop5
I0304 20:32:45.389901 23741 net.cpp:157] Top shape: 16 2048 1 1 (32768)
I0304 20:32:45.389906 23741 net.cpp:165] Memory required for data: 3709272128
I0304 20:32:45.389909 23741 layer_factory.hpp:77] Creating layer fc8_
I0304 20:32:45.389917 23741 net.cpp:100] Creating Layer fc8_
I0304 20:32:45.389921 23741 net.cpp:434] fc8_ <- pool5
I0304 20:32:45.389927 23741 net.cpp:408] fc8_ -> fc8_
I0304 20:32:45.400424 23741 net.cpp:150] Setting up fc8_
I0304 20:32:45.400452 23741 net.cpp:157] Top shape: 16 730 (11680)
I0304 20:32:45.400456 23741 net.cpp:165] Memory required for data: 3709318848
I0304 20:32:45.400465 23741 layer_factory.hpp:77] Creating layer loss
I0304 20:32:45.400478 23741 net.cpp:100] Creating Layer loss
I0304 20:32:45.400483 23741 net.cpp:434] loss <- fc8_
I0304 20:32:45.400488 23741 net.cpp:434] loss <- label
I0304 20:32:45.400499 23741 net.cpp:408] loss -> loss
I0304 20:32:45.400513 23741 layer_factory.hpp:77] Creating layer loss
…
