…
I0305 16:01:35.707906 12868 net.cpp:58] Initializing net from parameters: 
name: "Res50-IDE"
state {
  phase: TRAIN
  level: 0
  stage: ""
}
layer {
  name: "data"
  type: "ImageData"
  top: "data"
  top: "label"
  include {
    phase: TRAIN
  }
  transform_param {
    mirror: true
    crop_size: 224
    mean_value: 104
    mean_value: 117
    mean_value: 124
  }
  image_data_param {
    source: "evaluation/data/CUHK03/train_cuhk03_labeled.txt"
    batch_size: 32
    shuffle: true
    new_height: 256
    new_width: 256
    is_color: true
    root_folder: "evaluation/data/CUHK03/"
  }
}
layer {
  name: "conv1"
  type: "Convolution"
  bottom: "data"
  top: "conv1"
  convolution_param {
    num_output: 64
    pad: 3
    kernel_size: 7
    stride: 2
  }
}
layer {
  name: "bn_conv1"
  type: "BatchNorm"
  bottom: "conv1"
  top: "conv1"
  batch_norm_param {
    use_global_stats: true
  }
}
layer {
  name: "scale_conv1"
  type: "Scale"
  bottom: "conv1"
  top: "conv1"
  scale_param {
    bias_term: true
  }
}
layer {
  name: "conv1_relu"
  type: "ReLU"
  bottom: "conv1"
  top: "conv1"
}
layer {
  name: "pool1"
  type: "Pooling"
  bottom: "conv1"
  top: "pool1"
  pooling_param {
    pool: MAX
    kernel_size: 3
    stride: 2
  }
}
layer {
  name: "res2a_branch1"
  type: "Convolution"
  bottom: "pool1"
  top: "res2a_branch1"
  convolution_param {
    num_output: 256
    bias_term: false
    pad: 0
    kernel_size: 1
    stride: 1
  }
}
layer {
  name: "bn2a_branch1"
  type: "BatchNorm"
  bottom: "res2a_branch1"
  top: "res2a_branch1"
  batch_norm_param {
    use_global_stats: true
  }
}
layer {
  name: "scale2a_branch1"
  type: "Scale"
  bottom: "res2a_branch1"
  top: "res2a_branch1"
  scale_param {
    bias_term: true
  }
}
layer {
  name: "res2a_branch2a"
  type: "Convolution"
  bottom: "pool1"
  top: "res2a_branch2a"
  convolution_param {
    num_output: 64
    bias_term: false
    pad: 0
    kernel_size: 1
    stride: 1
  }
}
layer {
  name: "bn2a_branch2a"
  type: "BatchNorm"
  bottom: "res2a_branch2a"
  top: "res2a_branch2a"
  batch_norm_param {
    use_global_stats: true
  }
}
layer {
  name: "scale2a_branch2a"
  type: "Scale"
  bottom: "res2a_branch2a"
  top: "res2a_branch2a"
  scale_param {
    bias_term: true
  }
}
layer {
  name: "res2a_branch2a_relu"
  type: "ReLU"
  bottom: "res2a_branch2a"
  top: "res2a_branch2a"
}
layer {
  name: "res2a_branch2b"
  type: "Convolution"
  bottom: "res2a_branch2a"
  top: "res2a_branch2b"
  convolution_param {
    num_output: 64
    bias_term: false
    pad: 1
    kernel_size: 3
    stride: 1
  }
}
layer {
  name: "bn2a_branch2b"
  type: "BatchNorm"
  bottom: "res2a_branch2b"
  top: "res2a_branch2b"
  batch_norm_param {
    use_global_stats: true
  }
}
layer {
  name: "scale2a_branch2b"
  type: "Scale"
  bottom: "res2a_branch2b"
  top: "res2a_branch2b"
  scale_param {
    bias_term: true
  }
}
layer {
  name: "res2a_branch2b_relu"
  type: "ReLU"
  bottom: "res2a_branch2b"
  top: "res2a_branch2b"
}
layer {
  name: "res2a_branch2c"
  type: "Convolution"
  bottom: "res2a_branch2b"
  top: "res2a_branch2c"
  convolution_param {
    num_output: 256
    bias_term: false
    pad: 0
    kernel_size: 1
    stride: 1
  }
}
layer {
  name: "bn2a_branch2c"
  type: "BatchNorm"
  bottom: "res2a_branch2c"
  top: "res2a_branch2c"
  batch_norm_param {
    use_global_stats: true
  }
}
layer {
  name: "scale2a_branch2c"
  type: "Scale"
  bottom: "res2a_branch2c"
  top: "res2a_branch2c"
  scale_param {
    bias_term: true
  }
}
layer {
  name: "res2a"
  type: "Eltwise"
  bottom: "res2a_branch1"
  bottom: "res2a_branch2c"
  top: "res2a"
}
layer {
  name: "res2a_relu"
  type: "ReLU"
  bottom: "res2a"
  top: "res2a"
}
layer {
  name: "res2b_branch2a"
  type: "Convolution"
  bottom: "res2a"
  top: "res2b_branch2a"
  convolution_param {
    num_output: 64
    bias_term: false
    pad: 0
    kernel_size: 1
    stride: 1
  }
}
layer {
  name: "bn2b_branch2a"
  type: "BatchNorm"
  bottom: "res2b_branch2a"
  top: "res2b_branch2a"
  batch_norm_param {
    use_global_stats: true
  }
}
layer {
  name: "scale2b_branch2a"
  type: "Scale"
  bottom: "res2b_branch2a"
  top: "res2b_branch2a"
  scale_param {
    bias_term: true
  }
}
layer {
  name: "res2b_branch2a_relu"
  type: "ReLU"
  bottom: "res2b_branch2a"
  top: "res2b_branch2a"
}
layer {
  name: "res2b_branch2b"
  type: "Convolution"
  bottom: "res2b_branch2a"
  top: "res2b_branch2b"
  convolution_param {
    num_output: 64
    bias_term: false
    pad: 1
    kernel_size: 3
    stride: 1
  }
}
layer {
  name: "bn2b_branch2b"
  type: "BatchNorm"
  bottom: "res2b_branch2b"
  top: "res2b_branch2b"
  batch_norm_param {
    use_global_stats: true
  }
}
layer {
  name: "scale2b_branch2b"
  type: "Scale"
  bottom: "res2b_branch2b"
  top: "res2b_branch2b"
  scale_param {
    bias_term: true
  }
}
layer {
  name: "res2b_branch2b_relu"
  type: "ReLU"
  bottom: "res2b_branch2b"
  top: "res2b_branch2b"
}
layer {
  name: "res2b_branch2c"
  type: "Convolution"
  bottom: "res2b_branch2b"
  top: "res2b_branch2c"
  convolution_param {
    num_output: 256
    bias_term: false
    pad: 0
    kernel_size: 1
    stride: 1
  }
}
layer {
  name: "bn2b_branch2c"
  type: "BatchNorm"
  bottom: "res2b_branch2c"
  top: "res2b_branch2c"
  batch_norm_param {
    use_global_stats: true
  }
}
layer {
  name: "scale2b_branch2c"
  type: "Scale"
  bottom: "res2b_branch2c"
  top: "res2b_branch2c"
  scale_param {
    bias_term: true
  }
}
layer {
  name: "res2b"
  type: "Eltwise"
  bottom: "res2a"
  bottom: "res2b_branch2c"
  top: "res2b"
}
layer {
  name: "res2b_relu"
  type: "ReLU"
  bottom: "res2b"
  top: "res2b"
}
layer {
  name: "res2c_branch2a"
  type: "Convolution"
  bottom: "res2b"
  top: "res2c_branch2a"
  convolution_param {
    num_output: 64
    bias_term: false
    pad: 0
    kernel_size: 1
    stride: 1
  }
}
layer {
  name: "bn2c_branch2a"
  type: "BatchNorm"
  bottom: "res2c_branch2a"
  top: "res2c_branch2a"
  batch_norm_param {
    use_global_stats: true
  }
}
layer {
  name: "scale2c_branch2a"
  type: "Scale"
  bottom: "res2c_branch2a"
  top: "res2c_branch2a"
  scale_param {
    bias_term: true
  }
}
layer {
  name: "res2c_branch2a_relu"
  type: "ReLU"
  bottom: "res2c_branch2a"
  top: "res2c_branch2a"
}
layer {
  name: "res2c_branch2b"
  type: "Convolution"
  bottom: "res2c_branch2a"
  top: "res2c_branch2b"
  convolution_param {
    num_output: 64
    bias_term: false
    pad: 1
    kernel_size: 3
    stride: 1
  }
}
layer {
  name: "bn2c_branch2b"
  type: "BatchNorm"
  bottom: "res2c_branch2b"
  top: "res2c_branch2b"
  batch_norm_param {
    use_global_stats: true
  }
}
layer {
  name: "scale2c_branch2b"
  type: "Scale"
  bottom: "res2c_branch2b"
  top: "res2c_branch2b"
  scale_param {
    bias_term: true
  }
}
layer {
  name: "res2c_branch2b_relu"
  type: "ReLU"
  bottom: "res2c_branch2b"
  top: "res2c_branch2b"
}
layer {
  name: "res2c_branch2c"
  type: "Convolution"
  bottom: "res2c_branch2b"
  top: "res2c_branch2c"
  convolution_param {
    num_output: 256
    bias_term: false
    pad: 0
    kernel_size: 1
    stride: 1
  }
}
layer {
  name: "bn2c_branch2c"
  type: "BatchNorm"
  bottom: "res2c_branch2c"
  top: "res2c_branch2c"
  batch_norm_param {
    use_global_stats: true
  }
}
layer {
  name: "scale2c_branch2c"
  type: "Scale"
  bottom: "res2c_branch2c"
  top: "res2c_branch2c"
  scale_param {
    bias_term: true
  }
}
layer {
  name: "res2c"
  type: "Eltwise"
  bottom: "res2b"
  bottom: "res2c_branch2c"
  top: "res2c"
}
layer {
  name: "res2c_relu"
  type: "ReLU"
  bottom: "res2c"
  top: "res2c"
}
layer {
  name: "res3a_branch1"
  type: "Convolution"
  bottom: "res2c"
  top: "res3a_branch1"
  convolution_param {
    num_output: 512
    bias_term: false
    pad: 0
    kernel_size: 1
    stride: 2
  }
}
layer {
  name: "bn3a_branch1"
  type: "BatchNorm"
  bottom: "res3a_branch1"
  top: "res3a_branch1"
  batch_norm_param {
    use_global_stats: true
  }
}
layer {
  name: "scale3a_branch1"
  type: "Scale"
  bottom: "res3a_branch1"
  top: "res3a_branch1"
  scale_param {
    bias_term: true
  }
}
layer {
  name: "res3a_branch2a"
  type: "Convolution"
  bottom: "res2c"
  top: "res3a_branch2a"
  convolution_param {
    num_output: 128
    bias_term: false
    pad: 0
    kernel_size: 1
    stride: 2
  }
}
layer {
  name: "bn3a_branch2a"
  type: "BatchNorm"
  bottom: "res3a_branch2a"
  top: "res3a_branch2a"
  batch_norm_param {
    use_global_stats: true
  }
}
layer {
  name: "scale3a_branch2a"
  type: "Scale"
  bottom: "res3a_branch2a"
  top: "res3a_branch2a"
  scale_param {
    bias_term: true
  }
}
layer {
  name: "res3a_branch2a_relu"
  type: "ReLU"
  bottom: "res3a_branch2a"
  top: "res3a_branch2a"
}
layer {
  name: "res3a_branch2b"
  type: "Convolution"
  bottom: "res3a_branch2a"
  top: "res3a_branch2b"
  convolution_param {
    num_output: 128
    bias_term: false
    pad: 1
    kernel_size: 3
    stride: 1
  }
}
layer {
  name: "bn3a_branch2b"
  type: "BatchNorm"
  bottom: "res3a_branch2b"
  top: "res3a_branch2b"
  batch_norm_param {
    use_global_stats: true
  }
}
layer {
  name: "scale3a_branch2b"
  type: "Scale"
  bottom: "res3a_branch2b"
  top: "res3a_branch2b"
  scale_param {
    bias_term: true
  }
}
layer {
  name: "res3a_branch2b_relu"
  type: "ReLU"
  bottom: "res3a_branch2b"
  top: "res3a_branch2b"
}
layer {
  name: "res3a_branch2c"
  type: "Convolution"
  bottom: "res3a_branch2b"
  top: "res3a_branch2c"
  convolution_param {
    num_output: 512
    bias_term: false
    pad: 0
    kernel_size: 1
    stride: 1
  }
}
layer {
  name: "bn3a_branch2c"
  type: "BatchNorm"
  bottom: "res3a_branch2c"
  top: "res3a_branch2c"
  batch_norm_param {
    use_global_stats: true
  }
}
layer {
  name: "scale3a_branch2c"
  type: "Scale"
  bottom: "res3a_branch2c"
  top: "res3a_branch2c"
  scale_param {
    bias_term: true
  }
}
layer {
  name: "res3a"
  type: "Eltwise"
  bottom: "res3a_branch1"
  bottom: "res3a_branch2c"
  top: "res3a"
}
layer {
  name: "res3a_relu"
  type: "ReLU"
  bottom: "res3a"
  top: "res3a"
}
layer {
  name: "res3b_branch2a"
  type: "Convolution"
  bottom: "res3a"
  top: "res3b_branch2a"
  convolution_param {
    num_output: 128
    bias_term: false
    pad: 0
    kernel_size: 1
    stride: 1
  }
}
layer {
  name: "bn3b_branch2a"
  type: "BatchNorm"
  bottom: "res3b_branch2a"
  top: "res3b_branch2a"
  batch_norm_param {
    use_global_stats: true
  }
}
layer {
  name: "scale3b_branch2a"
  type: "Scale"
  bottom: "res3b_branch2a"
  top: "res3b_branch2a"
  scale_param {
    bias_term: true
  }
}
layer {
  name: "res3b_branch2a_relu"
  type: "ReLU"
  bottom: "res3b_branch2a"
  top: "res3b_branch2a"
}
layer {
  name: "res3b_branch2b"
  type: "Convolution"
  bottom: "res3b_branch2a"
  top: "res3b_branch2b"
  convolution_param {
    num_output: 128
    bias_term: false
    pad: 1
    kernel_size: 3
    stride: 1
  }
}
layer {
  name: "bn3b_branch2b"
  type: "BatchNorm"
  bottom: "res3b_branch2b"
  top: "res3b_branch2b"
  batch_norm_param {
    use_global_stats: true
  }
}
layer {
  name: "scale3b_branch2b"
  type: "Scale"
  bottom: "res3b_branch2b"
  top: "res3b_branch2b"
  scale_param {
    bias_term: true
  }
}
layer {
  name: "res3b_branch2b_relu"
  type: "ReLU"
  bottom: "res3b_branch2b"
  top: "res3b_branch2b"
}
layer {
  name: "res3b_branch2c"
  type: "Convolution"
  bottom: "res3b_branch2b"
  top: "res3b_branch2c"
  convolution_param {
    num_output: 512
    bias_term: false
    pad: 0
    kernel_size: 1
    stride: 1
  }
}
layer {
  name: "bn3b_branch2c"
  type: "BatchNorm"
  bottom: "res3b_branch2c"
  top: "res3b_branch2c"
  batch_norm_param {
    use_global_stats: true
  }
}
layer {
  name: "scale3b_branch2c"
  type: "Scale"
  bottom: "res3b_branch2c"
  top: "res3b_branch2c"
  scale_param {
    bias_term: true
  }
}
layer {
  name: "res3b"
  type: "Eltwise"
  bottom: "res3a"
  bottom: "res3b_branch2c"
  top: "res3b"
}
layer {
  name: "res3b_relu"
  type: "ReLU"
  bottom: "res3b"
  top: "res3b"
}
layer {
  name: "res3c_branch2a"
  type: "Convolution"
  bottom: "res3b"
  top: "res3c_branch2a"
  convolution_param {
    num_output: 128
    bias_term: false
    pad: 0
    kernel_size: 1
    stride: 1
  }
}
layer {
  name: "bn3c_branch2a"
  type: "BatchNorm"
  bottom: "res3c_branch2a"
  top: "res3c_branch2a"
  batch_norm_param {
    use_global_stats: true
  }
}
layer {
  name: "scale3c_branch2a"
  type: "Scale"
  bottom: "res3c_branch2a"
  top: "res3c_branch2a"
  scale_param {
    bias_term: true
  }
}
layer {
  name: "res3c_branch2a_relu"
  type: "ReLU"
  bottom: "res3c_branch2a"
  top: "res3c_branch2a"
}
layer {
  name: "res3c_branch2b"
  type: "Convolution"
  bottom: "res3c_branch2a"
  top: "res3c_branch2b"
  convolution_param {
    num_output: 128
    bias_term: false
    pad: 1
    kernel_size: 3
    stride: 1
  }
}
layer {
  name: "bn3c_branch2b"
  type: "BatchNorm"
  bottom: "res3c_branch2b"
  top: "res3c_branch2b"
  batch_norm_param {
    use_global_stats: true
  }
}
layer {
  name: "scale3c_branch2b"
  type: "Scale"
  bottom: "res3c_branch2b"
  top: "res3c_branch2b"
  scale_param {
    bias_term: true
  }
}
layer {
  name: "res3c_branch2b_relu"
  type: "ReLU"
  bottom: "res3c_branch2b"
  top: "res3c_branch2b"
}
layer {
  name: "res3c_branch2c"
  type: "Convolution"
  bottom: "res3c_branch2b"
  top: "res3c_branch2c"
  convolution_param {
    num_output: 512
    bias_term: false
    pad: 0
    kernel_size: 1
    stride: 1
  }
}
layer {
  name: "bn3c_branch2c"
  type: "BatchNorm"
  bottom: "res3c_branch2c"
  top: "res3c_branch2c"
  batch_norm_param {
    use_global_stats: true
  }
}
layer {
  name: "scale3c_branch2c"
  type: "Scale"
  bottom: "res3c_branch2c"
  top: "res3c_branch2c"
  scale_param {
    bias_term: true
  }
}
layer {
  name: "res3c"
  type: "Eltwise"
  bottom: "res3b"
  bottom: "res3c_branch2c"
  top: "res3c"
}
layer {
  name: "res3c_relu"
  type: "ReLU"
  bottom: "res3c"
  top: "res3c"
}
layer {
  name: "res3d_branch2a"
  type: "Convolution"
  bottom: "res3c"
  top: "res3d_branch2a"
  convolution_param {
    num_output: 128
    bias_term: false
    pad: 0
    kernel_size: 1
    stride: 1
  }
}
layer {
  name: "bn3d_branch2a"
  type: "BatchNorm"
  bottom: "res3d_branch2a"
  top: "res3d_branch2a"
  batch_norm_param {
    use_global_stats: true
  }
}
layer {
  name: "scale3d_branch2a"
  type: "Scale"
  bottom: "res3d_branch2a"
  top: "res3d_branch2a"
  scale_param {
    bias_term: true
  }
}
layer {
  name: "res3d_branch2a_relu"
  type: "ReLU"
  bottom: "res3d_branch2a"
  top: "res3d_branch2a"
}
layer {
  name: "res3d_branch2b"
  type: "Convolution"
  bottom: "res3d_branch2a"
  top: "res3d_branch2b"
  convolution_param {
    num_output: 128
    bias_term: false
    pad: 1
    kernel_size: 3
    stride: 1
  }
}
layer {
  name: "bn3d_branch2b"
  type: "BatchNorm"
  bottom: "res3d_branch2b"
  top: "res3d_branch2b"
  batch_norm_param {
    use_global_stats: true
  }
}
layer {
  name: "scale3d_branch2b"
  type: "Scale"
  bottom: "res3d_branch2b"
  top: "res3d_branch2b"
  scale_param {
    bias_term: true
  }
}
layer {
  name: "res3d_branch2b_relu"
  type: "ReLU"
  bottom: "res3d_branch2b"
  top: "res3d_branch2b"
}
layer {
  name: "res3d_branch2c"
  type: "Convolution"
  bottom: "res3d_branch2b"
  top: "res3d_branch2c"
  convolution_param {
    num_output: 512
    bias_term: false
    pad: 0
    kernel_size: 1
    stride: 1
  }
}
layer {
  name: "bn3d_branch2c"
  type: "BatchNorm"
  bottom: "res3d_branch2c"
  top: "res3d_branch2c"
  batch_norm_param {
    use_global_stats: true
  }
}
layer {
  name: "scale3d_branch2c"
  type: "Scale"
  bottom: "res3d_branch2c"
  top: "res3d_branch2c"
  scale_param {
    bias_term: true
  }
}
layer {
  name: "res3d"
  type: "Eltwise"
  bottom: "res3c"
  bottom: "res3d_branch2c"
  top: "res3d"
}
layer {
  name: "res3d_relu"
  type: "ReLU"
  bottom: "res3d"
  top: "res3d"
}
layer {
  name: "res4a_branch1"
  type: "Convolution"
  bottom: "res3d"
  top: "res4a_branch1"
  convolution_param {
    num_output: 1024
    bias_term: false
    pad: 0
    kernel_size: 1
    stride: 2
  }
}
layer {
  name: "bn4a_branch1"
  type: "BatchNorm"
  bottom: "res4a_branch1"
  top: "res4a_branch1"
  batch_norm_param {
    use_global_stats: true
  }
}
layer {
  name: "scale4a_branch1"
  type: "Scale"
  bottom: "res4a_branch1"
  top: "res4a_branch1"
  scale_param {
    bias_term: true
  }
}
layer {
  name: "res4a_branch2a"
  type: "Convolution"
  bottom: "res3d"
  top: "res4a_branch2a"
  convolution_param {
    num_output: 256
    bias_term: false
    pad: 0
    kernel_size: 1
    stride: 2
  }
}
layer {
  name: "bn4a_branch2a"
  type: "BatchNorm"
  bottom: "res4a_branch2a"
  top: "res4a_branch2a"
  batch_norm_param {
    use_global_stats: true
  }
}
layer {
  name: "scale4a_branch2a"
  type: "Scale"
  bottom: "res4a_branch2a"
  top: "res4a_branch2a"
  scale_param {
    bias_term: true
  }
}
layer {
  name: "res4a_branch2a_relu"
  type: "ReLU"
  bottom: "res4a_branch2a"
  top: "res4a_branch2a"
}
layer {
  name: "res4a_branch2b"
  type: "Convolution"
  bottom: "res4a_branch2a"
  top: "res4a_branch2b"
  convolution_param {
    num_output: 256
    bias_term: false
    pad: 1
    kernel_size: 3
    stride: 1
  }
}
layer {
  name: "bn4a_branch2b"
  type: "BatchNorm"
  bottom: "res4a_branch2b"
  top: "res4a_branch2b"
  batch_norm_param {
    use_global_stats: true
  }
}
layer {
  name: "scale4a_branch2b"
  type: "Scale"
  bottom: "res4a_branch2b"
  top: "res4a_branch2b"
  scale_param {
    bias_term: true
  }
}
layer {
  name: "res4a_branch2b_relu"
  type: "ReLU"
  bottom: "res4a_branch2b"
  top: "res4a_branch2b"
}
layer {
  name: "res4a_branch2c"
  type: "Convolution"
  bottom: "res4a_branch2b"
  top: "res4a_branch2c"
  convolution_param {
    num_output: 1024
    bias_term: false
    pad: 0
    kernel_size: 1
    stride: 1
  }
}
layer {
  name: "bn4a_branch2c"
  type: "BatchNorm"
  bottom: "res4a_branch2c"
  top: "res4a_branch2c"
  batch_norm_param {
    use_global_stats: true
  }
}
layer {
  name: "scale4a_branch2c"
  type: "Scale"
  bottom: "res4a_branch2c"
  top: "res4a_branch2c"
  scale_param {
    bias_term: true
  }
}
layer {
  name: "res4a"
  type: "Eltwise"
  bottom: "res4a_branch1"
  bottom: "res4a_branch2c"
  top: "res4a"
}
layer {
  name: "res4a_relu"
  type: "ReLU"
  bottom: "res4a"
  top: "res4a"
}
layer {
  name: "res4b_branch2a"
  type: "Convolution"
  bottom: "res4a"
  top: "res4b_branch2a"
  convolution_param {
    num_output: 256
    bias_term: false
    pad: 0
    kernel_size: 1
    stride: 1
  }
}
layer {
  name: "bn4b_branch2a"
  type: "BatchNorm"
  bottom: "res4b_branch2a"
  top: "res4b_branch2a"
  batch_norm_param {
    use_global_stats: true
  }
}
layer {
  name: "scale4b_branch2a"
  type: "Scale"
  bottom: "res4b_branch2a"
  top: "res4b_branch2a"
  scale_param {
    bias_term: true
  }
}
layer {
  name: "res4b_branch2a_relu"
  type: "ReLU"
  bottom: "res4b_branch2a"
  top: "res4b_branch2a"
}
layer {
  name: "res4b_branch2b"
  type: "Convolution"
  bottom: "res4b_branch2a"
  top: "res4b_branch2b"
  convolution_param {
    num_output: 256
    bias_term: false
    pad: 1
    kernel_size: 3
    stride: 1
  }
}
layer {
  name: "bn4b_branch2b"
  type: "BatchNorm"
  bottom: "res4b_branch2b"
  top: "res4b_branch2b"
  batch_norm_param {
    use_global_stats: true
  }
}
layer {
  name: "scale4b_branch2b"
  type: "Scale"
  bottom: "res4b_branch2b"
  top: "res4b_branch2b"
  scale_param {
    bias_term: true
  }
}
layer {
  name: "res4b_branch2b_relu"
  type: "ReLU"
  bottom: "res4b_branch2b"
  top: "res4b_branch2b"
}
layer {
  name: "res4b_branch2c"
  type: "Convolution"
  bottom: "res4b_branch2b"
  top: "res4b_branch2c"
  convolution_param {
    num_output: 1024
    bias_term: false
    pad: 0
    kernel_size: 1
    stride: 1
  }
}
layer {
  name: "bn4b_branch2c"
  type: "BatchNorm"
  bottom: "res4b_branch2c"
  top: "res4b_branch2c"
  batch_norm_param {
    use_global_stats: true
  }
}
layer {
  name: "scale4b_branch2c"
  type: "Scale"
  bottom: "res4b_branch2c"
  top: "res4b_branch2c"
  scale_param {
    bias_term: true
  }
}
layer {
  name: "res4b"
  type: "Eltwise"
  bottom: "res4a"
  bottom: "res4b_branch2c"
  top: "res4b"
}
layer {
  name: "res4b_relu"
  type: "ReLU"
  bottom: "res4b"
  top: "res4b"
}
layer {
  name: "res4c_branch2a"
  type: "Convolution"
  bottom: "res4b"
  top: "res4c_branch2a"
  convolution_param {
    num_output: 256
    bias_term: false
    pad: 0
    kernel_size: 1
    stride: 1
  }
}
layer {
  name: "bn4c_branch2a"
  type: "BatchNorm"
  bottom: "res4c_branch2a"
  top: "res4c_branch2a"
  batch_norm_param {
    use_global_stats: true
  }
}
layer {
  name: "scale4c_branch2a"
  type: "Scale"
  bottom: "res4c_branch2a"
  top: "res4c_branch2a"
  scale_param {
    bias_term: true
  }
}
layer {
  name: "res4c_branch2a_relu"
  type: "ReLU"
  bottom: "res4c_branch2a"
  top: "res4c_branch2a"
}
layer {
  name: "res4c_branch2b"
  type: "Convolution"
  bottom: "res4c_branch2a"
  top: "res4c_branch2b"
  convolution_param {
    num_output: 256
    bias_term: false
    pad: 1
    kernel_size: 3
    stride: 1
  }
}
layer {
  name: "bn4c_branch2b"
  type: "BatchNorm"
  bottom: "res4c_branch2b"
  top: "res4c_branch2b"
  batch_norm_param {
    use_global_stats: true
  }
}
layer {
  name: "scale4c_branch2b"
  type: "Scale"
  bottom: "res4c_branch2b"
  top: "res4c_branch2b"
  scale_param {
    bias_term: true
  }
}
layer {
  name: "res4c_branch2b_relu"
  type: "ReLU"
  bottom: "res4c_branch2b"
  top: "res4c_branch2b"
}
layer {
  name: "res4c_branch2c"
  type: "Convolution"
  bottom: "res4c_branch2b"
  top: "res4c_branch2c"
  convolution_param {
    num_output: 1024
    bias_term: false
    pad: 0
    kernel_size: 1
    stride: 1
  }
}
layer {
  name: "bn4c_branch2c"
  type: "BatchNorm"
  bottom: "res4c_branch2c"
  top: "res4c_branch2c"
  batch_norm_param {
    use_global_stats: true
  }
}
layer {
  name: "scale4c_branch2c"
  type: "Scale"
  bottom: "res4c_branch2c"
  top: "res4c_branch2c"
  scale_param {
    bias_term: true
  }
}
layer {
  name: "res4c"
  type: "Eltwise"
  bottom: "res4b"
  bottom: "res4c_branch2c"
  top: "res4c"
}
layer {
  name: "res4c_relu"
  type: "ReLU"
  bottom: "res4c"
  top: "res4c"
}
layer {
  name: "res4d_branch2a"
  type: "Convolution"
  bottom: "res4c"
  top: "res4d_branch2a"
  convolution_param {
    num_output: 256
    bias_term: false
    pad: 0
    kernel_size: 1
    stride: 1
  }
}
layer {
  name: "bn4d_branch2a"
  type: "BatchNorm"
  bottom: "res4d_branch2a"
  top: "res4d_branch2a"
  batch_norm_param {
    use_global_stats: true
  }
}
layer {
  name: "scale4d_branch2a"
  type: "Scale"
  bottom: "res4d_branch2a"
  top: "res4d_branch2a"
  scale_param {
    bias_term: true
  }
}
layer {
  name: "res4d_branch2a_relu"
  type: "ReLU"
  bottom: "res4d_branch2a"
  top: "res4d_branch2a"
}
layer {
  name: "res4d_branch2b"
  type: "Convolution"
  bottom: "res4d_branch2a"
  top: "res4d_branch2b"
  convolution_param {
    num_output: 256
    bias_term: false
    pad: 1
    kernel_size: 3
    stride: 1
  }
}
layer {
  name: "bn4d_branch2b"
  type: "BatchNorm"
  bottom: "res4d_branch2b"
  top: "res4d_branch2b"
  batch_norm_param {
    use_global_stats: true
  }
}
layer {
  name: "scale4d_branch2b"
  type: "Scale"
  bottom: "res4d_branch2b"
  top: "res4d_branch2b"
  scale_param {
    bias_term: true
  }
}
layer {
  name: "res4d_branch2b_relu"
  type: "ReLU"
  bottom: "res4d_branch2b"
  top: "res4d_branch2b"
}
layer {
  name: "res4d_branch2c"
  type: "Convolution"
  bottom: "res4d_branch2b"
  top: "res4d_branch2c"
  convolution_param {
    num_output: 1024
    bias_term: false
    pad: 0
    kernel_size: 1
    stride: 1
  }
}
layer {
  name: "bn4d_branch2c"
  type: "BatchNorm"
  bottom: "res4d_branch2c"
  top: "res4d_branch2c"
  batch_norm_param {
    use_global_stats: true
  }
}
layer {
  name: "scale4d_branch2c"
  type: "Scale"
  bottom: "res4d_branch2c"
  top: "res4d_branch2c"
  scale_param {
    bias_term: true
  }
}
layer {
  name: "res4d"
  type: "Eltwise"
  bottom: "res4c"
  bottom: "res4d_branch2c"
  top: "res4d"
}
layer {
  name: "res4d_relu"
  type: "ReLU"
  bottom: "res4d"
  top: "res4d"
}
layer {
  name: "res4e_branch2a"
  type: "Convolution"
  bottom: "res4d"
  top: "res4e_branch2a"
  convolution_param {
    num_output: 256
    bias_term: false
    pad: 0
    kernel_size: 1
    stride: 1
  }
}
layer {
  name: "bn4e_branch2a"
  type: "BatchNorm"
  bottom: "res4e_branch2a"
  top: "res4e_branch2a"
  batch_norm_param {
    use_global_stats: true
  }
}
layer {
  name: "scale4e_branch2a"
  type: "Scale"
  bottom: "res4e_branch2a"
  top: "res4e_branch2a"
  scale_param {
    bias_term: true
  }
}
layer {
  name: "res4e_branch2a_relu"
  type: "ReLU"
  bottom: "res4e_branch2a"
  top: "res4e_branch2a"
}
layer {
  name: "res4e_branch2b"
  type: "Convolution"
  bottom: "res4e_branch2a"
  top: "res4e_branch2b"
  convolution_param {
    num_output: 256
    bias_term: false
    pad: 1
    kernel_size: 3
    stride: 1
  }
}
layer {
  name: "bn4e_branch2b"
  type: "BatchNorm"
  bottom: "res4e_branch2b"
  top: "res4e_branch2b"
  batch_norm_param {
    use_global_stats: true
  }
}
layer {
  name: "scale4e_branch2b"
  type: "Scale"
  bottom: "res4e_branch2b"
  top: "res4e_branch2b"
  scale_param {
    bias_term: true
  }
}
layer {
  name: "res4e_branch2b_relu"
  type: "ReLU"
  bottom: "res4e_branch2b"
  top: "res4e_branch2b"
}
layer {
  name: "res4e_branch2c"
  type: "Convolution"
  bottom: "res4e_branch2b"
  top: "res4e_branch2c"
  convolution_param {
    num_output: 1024
    bias_term: false
    pad: 0
    kernel_size: 1
    stride: 1
  }
}
layer {
  name: "bn4e_branch2c"
  type: "BatchNorm"
  bottom: "res4e_branch2c"
  top: "res4e_branch2c"
  batch_norm_param {
    use_global_stats: true
  }
}
layer {
  name: "scale4e_branch2c"
  type: "Scale"
  bottom: "res4e_branch2c"
  top: "res4e_branch2c"
  scale_param {
    bias_term: true
  }
}
layer {
  name: "res4e"
  type: "Eltwise"
  bottom: "res4d"
  bottom: "res4e_branch2c"
  top: "res4e"
}
layer {
  name: "res4e_relu"
  type: "ReLU"
  bottom: "res4e"
  top: "res4e"
}
layer {
  name: "res4f_branch2a"
  type: "Convolution"
  bottom: "res4e"
  top: "res4f_branch2a"
  convolution_param {
    num_output: 256
    bias_term: false
    pad: 0
    kernel_size: 1
    stride: 1
  }
}
layer {
  name: "bn4f_branch2a"
  type: "BatchNorm"
  bottom: "res4f_branch2a"
  top: "res4f_branch2a"
  batch_norm_param {
    use_global_stats: true
  }
}
layer {
  name: "scale4f_branch2a"
  type: "Scale"
  bottom: "res4f_branch2a"
  top: "res4f_branch2a"
  scale_param {
    bias_term: true
  }
}
layer {
  name: "res4f_branch2a_relu"
  type: "ReLU"
  bottom: "res4f_branch2a"
  top: "res4f_branch2a"
}
layer {
  name: "res4f_branch2b"
  type: "Convolution"
  bottom: "res4f_branch2a"
  top: "res4f_branch2b"
  convolution_param {
    num_output: 256
    bias_term: false
    pad: 1
    kernel_size: 3
    stride: 1
  }
}
layer {
  name: "bn4f_branch2b"
  type: "BatchNorm"
  bottom: "res4f_branch2b"
  top: "res4f_branch2b"
  batch_norm_param {
    use_global_stats: true
  }
}
layer {
  name: "scale4f_branch2b"
  type: "Scale"
  bottom: "res4f_branch2b"
  top: "res4f_branch2b"
  scale_param {
    bias_term: true
  }
}
layer {
  name: "res4f_branch2b_relu"
  type: "ReLU"
  bottom: "res4f_branch2b"
  top: "res4f_branch2b"
}
layer {
  name: "res4f_branch2c"
  type: "Convolution"
  bottom: "res4f_branch2b"
  top: "res4f_branch2c"
  convolution_param {
    num_output: 1024
    bias_term: false
    pad: 0
    kernel_size: 1
    stride: 1
  }
}
layer {
  name: "bn4f_branch2c"
  type: "BatchNorm"
  bottom: "res4f_branch2c"
  top: "res4f_branch2c"
  batch_norm_param {
    use_global_stats: true
  }
}
layer {
  name: "scale4f_branch2c"
  type: "Scale"
  bottom: "res4f_branch2c"
  top: "res4f_branch2c"
  scale_param {
    bias_term: true
  }
}
layer {
  name: "res4f"
  type: "Eltwise"
  bottom: "res4e"
  bottom: "res4f_branch2c"
  top: "res4f"
}
layer {
  name: "res4f_relu"
  type: "ReLU"
  bottom: "res4f"
  top: "res4f"
}
layer {
  name: "res5a_branch1"
  type: "Convolution"
  bottom: "res4f"
  top: "res5a_branch1"
  convolution_param {
    num_output: 2048
    bias_term: false
    pad: 0
    kernel_size: 1
    stride: 2
  }
}
layer {
  name: "bn5a_branch1"
  type: "BatchNorm"
  bottom: "res5a_branch1"
  top: "res5a_branch1"
  batch_norm_param {
    use_global_stats: true
  }
}
layer {
  name: "scale5a_branch1"
  type: "Scale"
  bottom: "res5a_branch1"
  top: "res5a_branch1"
  scale_param {
    bias_term: true
  }
}
layer {
  name: "res5a_branch2a"
  type: "Convolution"
  bottom: "res4f"
  top: "res5a_branch2a"
  convolution_param {
    num_output: 512
    bias_term: false
    pad: 0
    kernel_size: 1
    stride: 2
  }
}
layer {
  name: "bn5a_branch2a"
  type: "BatchNorm"
  bottom: "res5a_branch2a"
  top: "res5a_branch2a"
  batch_norm_param {
    use_global_stats: true
  }
}
layer {
  name: "scale5a_branch2a"
  type: "Scale"
  bottom: "res5a_branch2a"
  top: "res5a_branch2a"
  scale_param {
    bias_term: true
  }
}
layer {
  name: "res5a_branch2a_relu"
  type: "ReLU"
  bottom: "res5a_branch2a"
  top: "res5a_branch2a"
}
layer {
  name: "res5a_branch2b"
  type: "Convolution"
  bottom: "res5a_branch2a"
  top: "res5a_branch2b"
  convolution_param {
    num_output: 512
    bias_term: false
    pad: 1
    kernel_size: 3
    stride: 1
  }
}
layer {
  name: "bn5a_branch2b"
  type: "BatchNorm"
  bottom: "res5a_branch2b"
  top: "res5a_branch2b"
  batch_norm_param {
    use_global_stats: true
  }
}
layer {
  name: "scale5a_branch2b"
  type: "Scale"
  bottom: "res5a_branch2b"
  top: "res5a_branch2b"
  scale_param {
    bias_term: true
  }
}
layer {
  name: "res5a_branch2b_relu"
  type: "ReLU"
  bottom: "res5a_branch2b"
  top: "res5a_branch2b"
}
layer {
  name: "res5a_branch2c"
  type: "Convolution"
  bottom: "res5a_branch2b"
  top: "res5a_branch2c"
  convolution_param {
    num_output: 2048
    bias_term: false
    pad
I0305 16:01:35.708623 12868 layer_factory.hpp:77] Creating layer data
I0305 16:01:35.708658 12868 net.cpp:100] Creating Layer data
I0305 16:01:35.708667 12868 net.cpp:408] data -> data
I0305 16:01:35.708689 12868 net.cpp:408] data -> label
I0305 16:01:35.709138 12868 image_data_layer.cpp:40] Opening file evaluation/data/CUHK03/train_cuhk03_labeled.txt
I0305 16:01:35.711067 12868 image_data_layer.cpp:55] Shuffling data
I0305 16:01:35.711832 12868 image_data_layer.cpp:60] A total of 7012 images.
I0305 16:01:35.723012 12868 image_data_layer.cpp:87] output data size: 32,3,224,224
I0305 16:01:35.743031 12868 net.cpp:150] Setting up data
I0305 16:01:35.743069 12868 net.cpp:157] Top shape: 32 3 224 224 (4816896)
I0305 16:01:35.743073 12868 net.cpp:157] Top shape: 32 (32)
I0305 16:01:35.743077 12868 net.cpp:165] Memory required for data: 19267712
I0305 16:01:35.743082 12868 layer_factory.hpp:77] Creating layer conv1
I0305 16:01:35.743095 12868 net.cpp:100] Creating Layer conv1
I0305 16:01:35.743103 12868 net.cpp:434] conv1 <- data
I0305 16:01:35.743132 12868 net.cpp:408] conv1 -> conv1
I0305 16:01:35.864269 12868 net.cpp:150] Setting up conv1
I0305 16:01:35.864297 12868 net.cpp:157] Top shape: 32 64 112 112 (25690112)
I0305 16:01:35.864300 12868 net.cpp:165] Memory required for data: 122028160
I0305 16:01:35.864312 12868 layer_factory.hpp:77] Creating layer bn_conv1
I0305 16:01:35.864323 12868 net.cpp:100] Creating Layer bn_conv1
I0305 16:01:35.864328 12868 net.cpp:434] bn_conv1 <- conv1
I0305 16:01:35.864344 12868 net.cpp:395] bn_conv1 -> conv1 (in-place)
I0305 16:01:35.864495 12868 net.cpp:150] Setting up bn_conv1
I0305 16:01:35.864503 12868 net.cpp:157] Top shape: 32 64 112 112 (25690112)
I0305 16:01:35.864516 12868 net.cpp:165] Memory required for data: 224788608
I0305 16:01:35.864523 12868 layer_factory.hpp:77] Creating layer scale_conv1
I0305 16:01:35.864529 12868 net.cpp:100] Creating Layer scale_conv1
I0305 16:01:35.864534 12868 net.cpp:434] scale_conv1 <- conv1
I0305 16:01:35.864553 12868 net.cpp:395] scale_conv1 -> conv1 (in-place)
I0305 16:01:35.864611 12868 layer_factory.hpp:77] Creating layer scale_conv1
I0305 16:01:35.864727 12868 net.cpp:150] Setting up scale_conv1
I0305 16:01:35.864733 12868 net.cpp:157] Top shape: 32 64 112 112 (25690112)
I0305 16:01:35.864745 12868 net.cpp:165] Memory required for data: 327549056
I0305 16:01:35.864749 12868 layer_factory.hpp:77] Creating layer conv1_relu
I0305 16:01:35.864755 12868 net.cpp:100] Creating Layer conv1_relu
I0305 16:01:35.864758 12868 net.cpp:434] conv1_relu <- conv1
I0305 16:01:35.864760 12868 net.cpp:395] conv1_relu -> conv1 (in-place)
I0305 16:01:35.865007 12868 net.cpp:150] Setting up conv1_relu
I0305 16:01:35.865015 12868 net.cpp:157] Top shape: 32 64 112 112 (25690112)
I0305 16:01:35.865027 12868 net.cpp:165] Memory required for data: 430309504
I0305 16:01:35.865030 12868 layer_factory.hpp:77] Creating layer pool1
I0305 16:01:35.865037 12868 net.cpp:100] Creating Layer pool1
I0305 16:01:35.865041 12868 net.cpp:434] pool1 <- conv1
I0305 16:01:35.865057 12868 net.cpp:408] pool1 -> pool1
I0305 16:01:35.865118 12868 net.cpp:150] Setting up pool1
I0305 16:01:35.865123 12868 net.cpp:157] Top shape: 32 64 56 56 (6422528)
I0305 16:01:35.865135 12868 net.cpp:165] Memory required for data: 455999616
I0305 16:01:35.865137 12868 layer_factory.hpp:77] Creating layer pool1_pool1_0_split
I0305 16:01:35.865142 12868 net.cpp:100] Creating Layer pool1_pool1_0_split
I0305 16:01:35.865146 12868 net.cpp:434] pool1_pool1_0_split <- pool1
I0305 16:01:35.865164 12868 net.cpp:408] pool1_pool1_0_split -> pool1_pool1_0_split_0
I0305 16:01:35.865180 12868 net.cpp:408] pool1_pool1_0_split -> pool1_pool1_0_split_1
I0305 16:01:35.865221 12868 net.cpp:150] Setting up pool1_pool1_0_split
I0305 16:01:35.865226 12868 net.cpp:157] Top shape: 32 64 56 56 (6422528)
I0305 16:01:35.865238 12868 net.cpp:157] Top shape: 32 64 56 56 (6422528)
I0305 16:01:35.865241 12868 net.cpp:165] Memory required for data: 507379840
I0305 16:01:35.865242 12868 layer_factory.hpp:77] Creating layer res2a_branch1
I0305 16:01:35.865248 12868 net.cpp:100] Creating Layer res2a_branch1
I0305 16:01:35.865250 12868 net.cpp:434] res2a_branch1 <- pool1_pool1_0_split_0
I0305 16:01:35.865255 12868 net.cpp:408] res2a_branch1 -> res2a_branch1
I0305 16:01:35.865932 12868 net.cpp:150] Setting up res2a_branch1
I0305 16:01:35.865941 12868 net.cpp:157] Top shape: 32 256 56 56 (25690112)
I0305 16:01:35.865943 12868 net.cpp:165] Memory required for data: 610140288
I0305 16:01:35.865947 12868 layer_factory.hpp:77] Creating layer bn2a_branch1
I0305 16:01:35.865952 12868 net.cpp:100] Creating Layer bn2a_branch1
I0305 16:01:35.865954 12868 net.cpp:434] bn2a_branch1 <- res2a_branch1
I0305 16:01:35.865957 12868 net.cpp:395] bn2a_branch1 -> res2a_branch1 (in-place)
I0305 16:01:35.866329 12868 net.cpp:150] Setting up bn2a_branch1
I0305 16:01:35.866338 12868 net.cpp:157] Top shape: 32 256 56 56 (25690112)
I0305 16:01:35.866340 12868 net.cpp:165] Memory required for data: 712900736
I0305 16:01:35.866348 12868 layer_factory.hpp:77] Creating layer scale2a_branch1
I0305 16:01:35.866353 12868 net.cpp:100] Creating Layer scale2a_branch1
I0305 16:01:35.866354 12868 net.cpp:434] scale2a_branch1 <- res2a_branch1
I0305 16:01:35.866358 12868 net.cpp:395] scale2a_branch1 -> res2a_branch1 (in-place)
I0305 16:01:35.866420 12868 layer_factory.hpp:77] Creating layer scale2a_branch1
I0305 16:01:35.866498 12868 net.cpp:150] Setting up scale2a_branch1
I0305 16:01:35.866504 12868 net.cpp:157] Top shape: 32 256 56 56 (25690112)
I0305 16:01:35.866519 12868 net.cpp:165] Memory required for data: 815661184
I0305 16:01:35.866523 12868 layer_factory.hpp:77] Creating layer res2a_branch2a
I0305 16:01:35.866539 12868 net.cpp:100] Creating Layer res2a_branch2a
I0305 16:01:35.866541 12868 net.cpp:434] res2a_branch2a <- pool1_pool1_0_split_1
I0305 16:01:35.866545 12868 net.cpp:408] res2a_branch2a -> res2a_branch2a
I0305 16:01:35.867105 12868 net.cpp:150] Setting up res2a_branch2a
I0305 16:01:35.867125 12868 net.cpp:157] Top shape: 32 64 56 56 (6422528)
I0305 16:01:35.867127 12868 net.cpp:165] Memory required for data: 841351296
I0305 16:01:35.867130 12868 layer_factory.hpp:77] Creating layer bn2a_branch2a
I0305 16:01:35.867135 12868 net.cpp:100] Creating Layer bn2a_branch2a
I0305 16:01:35.867137 12868 net.cpp:434] bn2a_branch2a <- res2a_branch2a
I0305 16:01:35.867141 12868 net.cpp:395] bn2a_branch2a -> res2a_branch2a (in-place)
I0305 16:01:35.867265 12868 net.cpp:150] Setting up bn2a_branch2a
I0305 16:01:35.867272 12868 net.cpp:157] Top shape: 32 64 56 56 (6422528)
I0305 16:01:35.867285 12868 net.cpp:165] Memory required for data: 867041408
I0305 16:01:35.867290 12868 layer_factory.hpp:77] Creating layer scale2a_branch2a
I0305 16:01:35.867295 12868 net.cpp:100] Creating Layer scale2a_branch2a
I0305 16:01:35.867296 12868 net.cpp:434] scale2a_branch2a <- res2a_branch2a
I0305 16:01:35.867317 12868 net.cpp:395] scale2a_branch2a -> res2a_branch2a (in-place)
I0305 16:01:35.867372 12868 layer_factory.hpp:77] Creating layer scale2a_branch2a
I0305 16:01:35.867471 12868 net.cpp:150] Setting up scale2a_branch2a
I0305 16:01:35.867478 12868 net.cpp:157] Top shape: 32 64 56 56 (6422528)
I0305 16:01:35.867491 12868 net.cpp:165] Memory required for data: 892731520
I0305 16:01:35.867494 12868 layer_factory.hpp:77] Creating layer res2a_branch2a_relu
I0305 16:01:35.867498 12868 net.cpp:100] Creating Layer res2a_branch2a_relu
I0305 16:01:35.867501 12868 net.cpp:434] res2a_branch2a_relu <- res2a_branch2a
I0305 16:01:35.867503 12868 net.cpp:395] res2a_branch2a_relu -> res2a_branch2a (in-place)
I0305 16:01:35.867743 12868 net.cpp:150] Setting up res2a_branch2a_relu
I0305 16:01:35.867750 12868 net.cpp:157] Top shape: 32 64 56 56 (6422528)
I0305 16:01:35.867763 12868 net.cpp:165] Memory required for data: 918421632
I0305 16:01:35.867765 12868 layer_factory.hpp:77] Creating layer res2a_branch2b
I0305 16:01:35.867770 12868 net.cpp:100] Creating Layer res2a_branch2b
I0305 16:01:35.867772 12868 net.cpp:434] res2a_branch2b <- res2a_branch2a
I0305 16:01:35.867776 12868 net.cpp:408] res2a_branch2b -> res2a_branch2b
I0305 16:01:35.868739 12868 net.cpp:150] Setting up res2a_branch2b
I0305 16:01:35.868759 12868 net.cpp:157] Top shape: 32 64 56 56 (6422528)
I0305 16:01:35.868762 12868 net.cpp:165] Memory required for data: 944111744
I0305 16:01:35.868765 12868 layer_factory.hpp:77] Creating layer bn2a_branch2b
I0305 16:01:35.868769 12868 net.cpp:100] Creating Layer bn2a_branch2b
I0305 16:01:35.868772 12868 net.cpp:434] bn2a_branch2b <- res2a_branch2b
I0305 16:01:35.868778 12868 net.cpp:395] bn2a_branch2b -> res2a_branch2b (in-place)
I0305 16:01:35.868932 12868 net.cpp:150] Setting up bn2a_branch2b
I0305 16:01:35.868938 12868 net.cpp:157] Top shape: 32 64 56 56 (6422528)
I0305 16:01:35.868950 12868 net.cpp:165] Memory required for data: 969801856
I0305 16:01:35.868955 12868 layer_factory.hpp:77] Creating layer scale2a_branch2b
I0305 16:01:35.868960 12868 net.cpp:100] Creating Layer scale2a_branch2b
I0305 16:01:35.868963 12868 net.cpp:434] scale2a_branch2b <- res2a_branch2b
I0305 16:01:35.868968 12868 net.cpp:395] scale2a_branch2b -> res2a_branch2b (in-place)
I0305 16:01:35.869029 12868 layer_factory.hpp:77] Creating layer scale2a_branch2b
I0305 16:01:35.869129 12868 net.cpp:150] Setting up scale2a_branch2b
I0305 16:01:35.869137 12868 net.cpp:157] Top shape: 32 64 56 56 (6422528)
I0305 16:01:35.869148 12868 net.cpp:165] Memory required for data: 995491968
I0305 16:01:35.869153 12868 layer_factory.hpp:77] Creating layer res2a_branch2b_relu
I0305 16:01:35.869155 12868 net.cpp:100] Creating Layer res2a_branch2b_relu
I0305 16:01:35.869158 12868 net.cpp:434] res2a_branch2b_relu <- res2a_branch2b
I0305 16:01:35.869161 12868 net.cpp:395] res2a_branch2b_relu -> res2a_branch2b (in-place)
I0305 16:01:35.869318 12868 net.cpp:150] Setting up res2a_branch2b_relu
I0305 16:01:35.869326 12868 net.cpp:157] Top shape: 32 64 56 56 (6422528)
I0305 16:01:35.869338 12868 net.cpp:165] Memory required for data: 1021182080
I0305 16:01:35.869340 12868 layer_factory.hpp:77] Creating layer res2a_branch2c
I0305 16:01:35.869346 12868 net.cpp:100] Creating Layer res2a_branch2c
I0305 16:01:35.869349 12868 net.cpp:434] res2a_branch2c <- res2a_branch2b
I0305 16:01:35.869352 12868 net.cpp:408] res2a_branch2c -> res2a_branch2c
I0305 16:01:35.869973 12868 net.cpp:150] Setting up res2a_branch2c
I0305 16:01:35.869982 12868 net.cpp:157] Top shape: 32 256 56 56 (25690112)
I0305 16:01:35.869994 12868 net.cpp:165] Memory required for data: 1123942528
I0305 16:01:35.869998 12868 layer_factory.hpp:77] Creating layer bn2a_branch2c
I0305 16:01:35.870003 12868 net.cpp:100] Creating Layer bn2a_branch2c
I0305 16:01:35.870005 12868 net.cpp:434] bn2a_branch2c <- res2a_branch2c
I0305 16:01:35.870009 12868 net.cpp:395] bn2a_branch2c -> res2a_branch2c (in-place)
I0305 16:01:35.870162 12868 net.cpp:150] Setting up bn2a_branch2c
I0305 16:01:35.870169 12868 net.cpp:157] Top shape: 32 256 56 56 (25690112)
I0305 16:01:35.870182 12868 net.cpp:165] Memory required for data: 1226702976
I0305 16:01:35.870187 12868 layer_factory.hpp:77] Creating layer scale2a_branch2c
I0305 16:01:35.870190 12868 net.cpp:100] Creating Layer scale2a_branch2c
I0305 16:01:35.870193 12868 net.cpp:434] scale2a_branch2c <- res2a_branch2c
I0305 16:01:35.870195 12868 net.cpp:395] scale2a_branch2c -> res2a_branch2c (in-place)
I0305 16:01:35.870260 12868 layer_factory.hpp:77] Creating layer scale2a_branch2c
I0305 16:01:35.870359 12868 net.cpp:150] Setting up scale2a_branch2c
I0305 16:01:35.870365 12868 net.cpp:157] Top shape: 32 256 56 56 (25690112)
I0305 16:01:35.870378 12868 net.cpp:165] Memory required for data: 1329463424
I0305 16:01:35.870381 12868 layer_factory.hpp:77] Creating layer res2a
I0305 16:01:35.870386 12868 net.cpp:100] Creating Layer res2a
I0305 16:01:35.870388 12868 net.cpp:434] res2a <- res2a_branch1
I0305 16:01:35.870393 12868 net.cpp:434] res2a <- res2a_branch2c
I0305 16:01:35.870409 12868 net.cpp:408] res2a -> res2a
I0305 16:01:35.870455 12868 net.cpp:150] Setting up res2a
I0305 16:01:35.870462 12868 net.cpp:157] Top shape: 32 256 56 56 (25690112)
I0305 16:01:35.870474 12868 net.cpp:165] Memory required for data: 1432223872
I0305 16:01:35.870476 12868 layer_factory.hpp:77] Creating layer res2a_relu
I0305 16:01:35.870481 12868 net.cpp:100] Creating Layer res2a_relu
I0305 16:01:35.870482 12868 net.cpp:434] res2a_relu <- res2a
I0305 16:01:35.870484 12868 net.cpp:395] res2a_relu -> res2a (in-place)
I0305 16:01:35.870723 12868 net.cpp:150] Setting up res2a_relu
I0305 16:01:35.870730 12868 net.cpp:157] Top shape: 32 256 56 56 (25690112)
I0305 16:01:35.870743 12868 net.cpp:165] Memory required for data: 1534984320
I0305 16:01:35.870745 12868 layer_factory.hpp:77] Creating layer res2a_res2a_relu_0_split
I0305 16:01:35.870750 12868 net.cpp:100] Creating Layer res2a_res2a_relu_0_split
I0305 16:01:35.870753 12868 net.cpp:434] res2a_res2a_relu_0_split <- res2a
I0305 16:01:35.870756 12868 net.cpp:408] res2a_res2a_relu_0_split -> res2a_res2a_relu_0_split_0
I0305 16:01:35.870762 12868 net.cpp:408] res2a_res2a_relu_0_split -> res2a_res2a_relu_0_split_1
I0305 16:01:35.870826 12868 net.cpp:150] Setting up res2a_res2a_relu_0_split
I0305 16:01:35.870831 12868 net.cpp:157] Top shape: 32 256 56 56 (25690112)
I0305 16:01:35.870843 12868 net.cpp:157] Top shape: 32 256 56 56 (25690112)
I0305 16:01:35.870846 12868 net.cpp:165] Memory required for data: 1740505216
I0305 16:01:35.870847 12868 layer_factory.hpp:77] Creating layer res2b_branch2a
I0305 16:01:35.870852 12868 net.cpp:100] Creating Layer res2b_branch2a
I0305 16:01:35.870857 12868 net.cpp:434] res2b_branch2a <- res2a_res2a_relu_0_split_0
I0305 16:01:35.870862 12868 net.cpp:408] res2b_branch2a -> res2b_branch2a
I0305 16:01:35.871428 12868 net.cpp:150] Setting up res2b_branch2a
I0305 16:01:35.871435 12868 net.cpp:157] Top shape: 32 64 56 56 (6422528)
I0305 16:01:35.871449 12868 net.cpp:165] Memory required for data: 1766195328
I0305 16:01:35.871453 12868 layer_factory.hpp:77] Creating layer bn2b_branch2a
I0305 16:01:35.871456 12868 net.cpp:100] Creating Layer bn2b_branch2a
I0305 16:01:35.871459 12868 net.cpp:434] bn2b_branch2a <- res2b_branch2a
I0305 16:01:35.871462 12868 net.cpp:395] bn2b_branch2a -> res2b_branch2a (in-place)
I0305 16:01:35.871600 12868 net.cpp:150] Setting up bn2b_branch2a
I0305 16:01:35.871608 12868 net.cpp:157] Top shape: 32 64 56 56 (6422528)
I0305 16:01:35.871610 12868 net.cpp:165] Memory required for data: 1791885440
I0305 16:01:35.871628 12868 layer_factory.hpp:77] Creating layer scale2b_branch2a
I0305 16:01:35.871635 12868 net.cpp:100] Creating Layer scale2b_branch2a
I0305 16:01:35.871639 12868 net.cpp:434] scale2b_branch2a <- res2b_branch2a
I0305 16:01:35.871647 12868 net.cpp:395] scale2b_branch2a -> res2b_branch2a (in-place)
I0305 16:01:35.871695 12868 layer_factory.hpp:77] Creating layer scale2b_branch2a
I0305 16:01:35.871794 12868 net.cpp:150] Setting up scale2b_branch2a
I0305 16:01:35.871800 12868 net.cpp:157] Top shape: 32 64 56 56 (6422528)
I0305 16:01:35.871811 12868 net.cpp:165] Memory required for data: 1817575552
I0305 16:01:35.871815 12868 layer_factory.hpp:77] Creating layer res2b_branch2a_relu
I0305 16:01:35.871820 12868 net.cpp:100] Creating Layer res2b_branch2a_relu
I0305 16:01:35.871824 12868 net.cpp:434] res2b_branch2a_relu <- res2b_branch2a
I0305 16:01:35.871830 12868 net.cpp:395] res2b_branch2a_relu -> res2b_branch2a (in-place)
I0305 16:01:35.872123 12868 net.cpp:150] Setting up res2b_branch2a_relu
I0305 16:01:35.872131 12868 net.cpp:157] Top shape: 32 64 56 56 (6422528)
I0305 16:01:35.872135 12868 net.cpp:165] Memory required for data: 1843265664
I0305 16:01:35.872148 12868 layer_factory.hpp:77] Creating layer res2b_branch2b
I0305 16:01:35.872166 12868 net.cpp:100] Creating Layer res2b_branch2b
I0305 16:01:35.872172 12868 net.cpp:434] res2b_branch2b <- res2b_branch2a
I0305 16:01:35.872179 12868 net.cpp:408] res2b_branch2b -> res2b_branch2b
I0305 16:01:35.872917 12868 net.cpp:150] Setting up res2b_branch2b
I0305 16:01:35.872925 12868 net.cpp:157] Top shape: 32 64 56 56 (6422528)
I0305 16:01:35.872937 12868 net.cpp:165] Memory required for data: 1868955776
I0305 16:01:35.872941 12868 layer_factory.hpp:77] Creating layer bn2b_branch2b
I0305 16:01:35.872959 12868 net.cpp:100] Creating Layer bn2b_branch2b
I0305 16:01:35.872964 12868 net.cpp:434] bn2b_branch2b <- res2b_branch2b
I0305 16:01:35.872980 12868 net.cpp:395] bn2b_branch2b -> res2b_branch2b (in-place)
I0305 16:01:35.873138 12868 net.cpp:150] Setting up bn2b_branch2b
I0305 16:01:35.873144 12868 net.cpp:157] Top shape: 32 64 56 56 (6422528)
I0305 16:01:35.873155 12868 net.cpp:165] Memory required for data: 1894645888
I0305 16:01:35.873160 12868 layer_factory.hpp:77] Creating layer scale2b_branch2b
I0305 16:01:35.873167 12868 net.cpp:100] Creating Layer scale2b_branch2b
I0305 16:01:35.873181 12868 net.cpp:434] scale2b_branch2b <- res2b_branch2b
I0305 16:01:35.873186 12868 net.cpp:395] scale2b_branch2b -> res2b_branch2b (in-place)
I0305 16:01:35.873241 12868 layer_factory.hpp:77] Creating layer scale2b_branch2b
I0305 16:01:35.873340 12868 net.cpp:150] Setting up scale2b_branch2b
I0305 16:01:35.873347 12868 net.cpp:157] Top shape: 32 64 56 56 (6422528)
I0305 16:01:35.873359 12868 net.cpp:165] Memory required for data: 1920336000
I0305 16:01:35.873363 12868 layer_factory.hpp:77] Creating layer res2b_branch2b_relu
I0305 16:01:35.873366 12868 net.cpp:100] Creating Layer res2b_branch2b_relu
I0305 16:01:35.873370 12868 net.cpp:434] res2b_branch2b_relu <- res2b_branch2b
I0305 16:01:35.873376 12868 net.cpp:395] res2b_branch2b_relu -> res2b_branch2b (in-place)
I0305 16:01:35.873493 12868 net.cpp:150] Setting up res2b_branch2b_relu
I0305 16:01:35.873500 12868 net.cpp:157] Top shape: 32 64 56 56 (6422528)
I0305 16:01:35.873504 12868 net.cpp:165] Memory required for data: 1946026112
I0305 16:01:35.873509 12868 layer_factory.hpp:77] Creating layer res2b_branch2c
I0305 16:01:35.873522 12868 net.cpp:100] Creating Layer res2b_branch2c
I0305 16:01:35.873527 12868 net.cpp:434] res2b_branch2c <- res2b_branch2b
I0305 16:01:35.873531 12868 net.cpp:408] res2b_branch2c -> res2b_branch2c
I0305 16:01:35.874169 12868 net.cpp:150] Setting up res2b_branch2c
I0305 16:01:35.874178 12868 net.cpp:157] Top shape: 32 256 56 56 (25690112)
I0305 16:01:35.874181 12868 net.cpp:165] Memory required for data: 2048786560
I0305 16:01:35.874184 12868 layer_factory.hpp:77] Creating layer bn2b_branch2c
I0305 16:01:35.874191 12868 net.cpp:100] Creating Layer bn2b_branch2c
I0305 16:01:35.874197 12868 net.cpp:434] bn2b_branch2c <- res2b_branch2c
I0305 16:01:35.874203 12868 net.cpp:395] bn2b_branch2c -> res2b_branch2c (in-place)
I0305 16:01:35.874326 12868 net.cpp:150] Setting up bn2b_branch2c
I0305 16:01:35.874332 12868 net.cpp:157] Top shape: 32 256 56 56 (25690112)
I0305 16:01:35.874336 12868 net.cpp:165] Memory required for data: 2151547008
I0305 16:01:35.874346 12868 layer_factory.hpp:77] Creating layer scale2b_branch2c
I0305 16:01:35.874352 12868 net.cpp:100] Creating Layer scale2b_branch2c
I0305 16:01:35.874356 12868 net.cpp:434] scale2b_branch2c <- res2b_branch2c
I0305 16:01:35.874362 12868 net.cpp:395] scale2b_branch2c -> res2b_branch2c (in-place)
I0305 16:01:35.874397 12868 layer_factory.hpp:77] Creating layer scale2b_branch2c
I0305 16:01:35.874472 12868 net.cpp:150] Setting up scale2b_branch2c
I0305 16:01:35.874478 12868 net.cpp:157] Top shape: 32 256 56 56 (25690112)
I0305 16:01:35.874481 12868 net.cpp:165] Memory required for data: 2254307456
I0305 16:01:35.874490 12868 layer_factory.hpp:77] Creating layer res2b
I0305 16:01:35.874497 12868 net.cpp:100] Creating Layer res2b
I0305 16:01:35.874502 12868 net.cpp:434] res2b <- res2a_res2a_relu_0_split_1
I0305 16:01:35.874508 12868 net.cpp:434] res2b <- res2b_branch2c
I0305 16:01:35.874526 12868 net.cpp:408] res2b -> res2b
I0305 16:01:35.874562 12868 net.cpp:150] Setting up res2b
I0305 16:01:35.874570 12868 net.cpp:157] Top shape: 32 256 56 56 (25690112)
I0305 16:01:35.874573 12868 net.cpp:165] Memory required for data: 2357067904
I0305 16:01:35.874578 12868 layer_factory.hpp:77] Creating layer res2b_relu
I0305 16:01:35.874594 12868 net.cpp:100] Creating Layer res2b_relu
I0305 16:01:35.874596 12868 net.cpp:434] res2b_relu <- res2b
I0305 16:01:35.874599 12868 net.cpp:395] res2b_relu -> res2b (in-place)
I0305 16:01:35.874809 12868 net.cpp:150] Setting up res2b_relu
I0305 16:01:35.874816 12868 net.cpp:157] Top shape: 32 256 56 56 (25690112)
I0305 16:01:35.874828 12868 net.cpp:165] Memory required for data: 2459828352
I0305 16:01:35.874830 12868 layer_factory.hpp:77] Creating layer res2b_res2b_relu_0_split
I0305 16:01:35.874835 12868 net.cpp:100] Creating Layer res2b_res2b_relu_0_split
I0305 16:01:35.874837 12868 net.cpp:434] res2b_res2b_relu_0_split <- res2b
I0305 16:01:35.874840 12868 net.cpp:408] res2b_res2b_relu_0_split -> res2b_res2b_relu_0_split_0
I0305 16:01:35.874845 12868 net.cpp:408] res2b_res2b_relu_0_split -> res2b_res2b_relu_0_split_1
I0305 16:01:35.874902 12868 net.cpp:150] Setting up res2b_res2b_relu_0_split
I0305 16:01:35.874917 12868 net.cpp:157] Top shape: 32 256 56 56 (25690112)
I0305 16:01:35.874920 12868 net.cpp:157] Top shape: 32 256 56 56 (25690112)
I0305 16:01:35.874922 12868 net.cpp:165] Memory required for data: 2665349248
I0305 16:01:35.874933 12868 layer_factory.hpp:77] Creating layer res2c_branch2a
I0305 16:01:35.874938 12868 net.cpp:100] Creating Layer res2c_branch2a
I0305 16:01:35.874940 12868 net.cpp:434] res2c_branch2a <- res2b_res2b_relu_0_split_0
I0305 16:01:35.874953 12868 net.cpp:408] res2c_branch2a -> res2c_branch2a
I0305 16:01:35.875499 12868 net.cpp:150] Setting up res2c_branch2a
I0305 16:01:35.875511 12868 net.cpp:157] Top shape: 32 64 56 56 (6422528)
I0305 16:01:35.875516 12868 net.cpp:165] Memory required for data: 2691039360
I0305 16:01:35.875520 12868 layer_factory.hpp:77] Creating layer bn2c_branch2a
I0305 16:01:35.875525 12868 net.cpp:100] Creating Layer bn2c_branch2a
I0305 16:01:35.875529 12868 net.cpp:434] bn2c_branch2a <- res2c_branch2a
I0305 16:01:35.875532 12868 net.cpp:395] bn2c_branch2a -> res2c_branch2a (in-place)
I0305 16:01:35.875668 12868 net.cpp:150] Setting up bn2c_branch2a
I0305 16:01:35.875671 12868 net.cpp:157] Top shape: 32 64 56 56 (6422528)
I0305 16:01:35.875675 12868 net.cpp:165] Memory required for data: 2716729472
I0305 16:01:35.875694 12868 layer_factory.hpp:77] Creating layer scale2c_branch2a
I0305 16:01:35.875700 12868 net.cpp:100] Creating Layer scale2c_branch2a
I0305 16:01:35.875705 12868 net.cpp:434] scale2c_branch2a <- res2c_branch2a
I0305 16:01:35.875710 12868 net.cpp:395] scale2c_branch2a -> res2c_branch2a (in-place)
I0305 16:01:35.875762 12868 layer_factory.hpp:77] Creating layer scale2c_branch2a
I0305 16:01:35.875867 12868 net.cpp:150] Setting up scale2c_branch2a
I0305 16:01:35.875872 12868 net.cpp:157] Top shape: 32 64 56 56 (6422528)
I0305 16:01:35.875875 12868 net.cpp:165] Memory required for data: 2742419584
I0305 16:01:35.875891 12868 layer_factory.hpp:77] Creating layer res2c_branch2a_relu
I0305 16:01:35.875897 12868 net.cpp:100] Creating Layer res2c_branch2a_relu
I0305 16:01:35.875902 12868 net.cpp:434] res2c_branch2a_relu <- res2c_branch2a
I0305 16:01:35.875908 12868 net.cpp:395] res2c_branch2a_relu -> res2c_branch2a (in-place)
I0305 16:01:35.876138 12868 net.cpp:150] Setting up res2c_branch2a_relu
I0305 16:01:35.876147 12868 net.cpp:157] Top shape: 32 64 56 56 (6422528)
I0305 16:01:35.876152 12868 net.cpp:165] Memory required for data: 2768109696
I0305 16:01:35.876155 12868 layer_factory.hpp:77] Creating layer res2c_branch2b
I0305 16:01:35.876174 12868 net.cpp:100] Creating Layer res2c_branch2b
I0305 16:01:35.876178 12868 net.cpp:434] res2c_branch2b <- res2c_branch2a
I0305 16:01:35.876183 12868 net.cpp:408] res2c_branch2b -> res2c_branch2b
I0305 16:01:35.876936 12868 net.cpp:150] Setting up res2c_branch2b
I0305 16:01:35.876945 12868 net.cpp:157] Top shape: 32 64 56 56 (6422528)
I0305 16:01:35.876957 12868 net.cpp:165] Memory required for data: 2793799808
I0305 16:01:35.876960 12868 layer_factory.hpp:77] Creating layer bn2c_branch2b
I0305 16:01:35.876965 12868 net.cpp:100] Creating Layer bn2c_branch2b
I0305 16:01:35.876967 12868 net.cpp:434] bn2c_branch2b <- res2c_branch2b
I0305 16:01:35.876981 12868 net.cpp:395] bn2c_branch2b -> res2c_branch2b (in-place)
I0305 16:01:35.877130 12868 net.cpp:150] Setting up bn2c_branch2b
I0305 16:01:35.877135 12868 net.cpp:157] Top shape: 32 64 56 56 (6422528)
I0305 16:01:35.877147 12868 net.cpp:165] Memory required for data: 2819489920
I0305 16:01:35.877152 12868 layer_factory.hpp:77] Creating layer scale2c_branch2b
I0305 16:01:35.877156 12868 net.cpp:100] Creating Layer scale2c_branch2b
I0305 16:01:35.877159 12868 net.cpp:434] scale2c_branch2b <- res2c_branch2b
I0305 16:01:35.877172 12868 net.cpp:395] scale2c_branch2b -> res2c_branch2b (in-place)
I0305 16:01:35.877207 12868 layer_factory.hpp:77] Creating layer scale2c_branch2b
I0305 16:01:35.877328 12868 net.cpp:150] Setting up scale2c_branch2b
I0305 16:01:35.877332 12868 net.cpp:157] Top shape: 32 64 56 56 (6422528)
I0305 16:01:35.877334 12868 net.cpp:165] Memory required for data: 2845180032
I0305 16:01:35.877348 12868 layer_factory.hpp:77] Creating layer res2c_branch2b_relu
I0305 16:01:35.877352 12868 net.cpp:100] Creating Layer res2c_branch2b_relu
I0305 16:01:35.877364 12868 net.cpp:434] res2c_branch2b_relu <- res2c_branch2b
I0305 16:01:35.877367 12868 net.cpp:395] res2c_branch2b_relu -> res2c_branch2b (in-place)
I0305 16:01:35.877509 12868 net.cpp:150] Setting up res2c_branch2b_relu
I0305 16:01:35.877516 12868 net.cpp:157] Top shape: 32 64 56 56 (6422528)
I0305 16:01:35.877528 12868 net.cpp:165] Memory required for data: 2870870144
I0305 16:01:35.877531 12868 layer_factory.hpp:77] Creating layer res2c_branch2c
I0305 16:01:35.877547 12868 net.cpp:100] Creating Layer res2c_branch2c
I0305 16:01:35.877548 12868 net.cpp:434] res2c_branch2c <- res2c_branch2b
I0305 16:01:35.877552 12868 net.cpp:408] res2c_branch2c -> res2c_branch2c
I0305 16:01:35.878199 12868 net.cpp:150] Setting up res2c_branch2c
I0305 16:01:35.878208 12868 net.cpp:157] Top shape: 32 256 56 56 (25690112)
I0305 16:01:35.878221 12868 net.cpp:165] Memory required for data: 2973630592
I0305 16:01:35.878223 12868 layer_factory.hpp:77] Creating layer bn2c_branch2c
I0305 16:01:35.878237 12868 net.cpp:100] Creating Layer bn2c_branch2c
I0305 16:01:35.878239 12868 net.cpp:434] bn2c_branch2c <- res2c_branch2c
I0305 16:01:35.878242 12868 net.cpp:395] bn2c_branch2c -> res2c_branch2c (in-place)
I0305 16:01:35.878387 12868 net.cpp:150] Setting up bn2c_branch2c
I0305 16:01:35.878393 12868 net.cpp:157] Top shape: 32 256 56 56 (25690112)
I0305 16:01:35.878404 12868 net.cpp:165] Memory required for data: 3076391040
I0305 16:01:35.878424 12868 layer_factory.hpp:77] Creating layer scale2c_branch2c
I0305 16:01:35.878429 12868 net.cpp:100] Creating Layer scale2c_branch2c
I0305 16:01:35.878432 12868 net.cpp:434] scale2c_branch2c <- res2c_branch2c
I0305 16:01:35.878435 12868 net.cpp:395] scale2c_branch2c -> res2c_branch2c (in-place)
I0305 16:01:35.878480 12868 layer_factory.hpp:77] Creating layer scale2c_branch2c
I0305 16:01:35.878595 12868 net.cpp:150] Setting up scale2c_branch2c
I0305 16:01:35.878600 12868 net.cpp:157] Top shape: 32 256 56 56 (25690112)
I0305 16:01:35.878602 12868 net.cpp:165] Memory required for data: 3179151488
I0305 16:01:35.878615 12868 layer_factory.hpp:77] Creating layer res2c
I0305 16:01:35.878619 12868 net.cpp:100] Creating Layer res2c
I0305 16:01:35.878621 12868 net.cpp:434] res2c <- res2b_res2b_relu_0_split_1
I0305 16:01:35.878633 12868 net.cpp:434] res2c <- res2c_branch2c
I0305 16:01:35.878638 12868 net.cpp:408] res2c -> res2c
I0305 16:01:35.878654 12868 net.cpp:150] Setting up res2c
I0305 16:01:35.878669 12868 net.cpp:157] Top shape: 32 256 56 56 (25690112)
I0305 16:01:35.878670 12868 net.cpp:165] Memory required for data: 3281911936
I0305 16:01:35.878672 12868 layer_factory.hpp:77] Creating layer res2c_relu
I0305 16:01:35.878675 12868 net.cpp:100] Creating Layer res2c_relu
I0305 16:01:35.878676 12868 net.cpp:434] res2c_relu <- res2c
I0305 16:01:35.878679 12868 net.cpp:395] res2c_relu -> res2c (in-place)
I0305 16:01:35.878911 12868 net.cpp:150] Setting up res2c_relu
I0305 16:01:35.878918 12868 net.cpp:157] Top shape: 32 256 56 56 (25690112)
I0305 16:01:35.878931 12868 net.cpp:165] Memory required for data: 3384672384
I0305 16:01:35.878932 12868 layer_factory.hpp:77] Creating layer res2c_res2c_relu_0_split
I0305 16:01:35.878937 12868 net.cpp:100] Creating Layer res2c_res2c_relu_0_split
I0305 16:01:35.878947 12868 net.cpp:434] res2c_res2c_relu_0_split <- res2c
I0305 16:01:35.878952 12868 net.cpp:408] res2c_res2c_relu_0_split -> res2c_res2c_relu_0_split_0
I0305 16:01:35.878955 12868 net.cpp:408] res2c_res2c_relu_0_split -> res2c_res2c_relu_0_split_1
I0305 16:01:35.878991 12868 net.cpp:150] Setting up res2c_res2c_relu_0_split
I0305 16:01:35.879004 12868 net.cpp:157] Top shape: 32 256 56 56 (25690112)
I0305 16:01:35.879007 12868 net.cpp:157] Top shape: 32 256 56 56 (25690112)
I0305 16:01:35.879009 12868 net.cpp:165] Memory required for data: 3590193280
I0305 16:01:35.879010 12868 layer_factory.hpp:77] Creating layer res3a_branch1
I0305 16:01:35.879025 12868 net.cpp:100] Creating Layer res3a_branch1
I0305 16:01:35.879027 12868 net.cpp:434] res3a_branch1 <- res2c_res2c_relu_0_split_0
I0305 16:01:35.879040 12868 net.cpp:408] res3a_branch1 -> res3a_branch1
I0305 16:01:35.879963 12868 net.cpp:150] Setting up res3a_branch1
I0305 16:01:35.879972 12868 net.cpp:157] Top shape: 32 512 28 28 (12845056)
I0305 16:01:35.879984 12868 net.cpp:165] Memory required for data: 3641573504
I0305 16:01:35.879987 12868 layer_factory.hpp:77] Creating layer bn3a_branch1
I0305 16:01:35.880002 12868 net.cpp:100] Creating Layer bn3a_branch1
I0305 16:01:35.880004 12868 net.cpp:434] bn3a_branch1 <- res3a_branch1
I0305 16:01:35.880007 12868 net.cpp:395] bn3a_branch1 -> res3a_branch1 (in-place)
I0305 16:01:35.880410 12868 net.cpp:150] Setting up bn3a_branch1
I0305 16:01:35.880419 12868 net.cpp:157] Top shape: 32 512 28 28 (12845056)
I0305 16:01:35.880430 12868 net.cpp:165] Memory required for data: 3692953728
I0305 16:01:35.880435 12868 layer_factory.hpp:77] Creating layer scale3a_branch1
I0305 16:01:35.880450 12868 net.cpp:100] Creating Layer scale3a_branch1
I0305 16:01:35.880451 12868 net.cpp:434] scale3a_branch1 <- res3a_branch1
I0305 16:01:35.880455 12868 net.cpp:395] scale3a_branch1 -> res3a_branch1 (in-place)
I0305 16:01:35.880491 12868 layer_factory.hpp:77] Creating layer scale3a_branch1
I0305 16:01:35.880605 12868 net.cpp:150] Setting up scale3a_branch1
I0305 16:01:35.880610 12868 net.cpp:157] Top shape: 32 512 28 28 (12845056)
I0305 16:01:35.880621 12868 net.cpp:165] Memory required for data: 3744333952
I0305 16:01:35.880625 12868 layer_factory.hpp:77] Creating layer res3a_branch2a
I0305 16:01:35.880630 12868 net.cpp:100] Creating Layer res3a_branch2a
I0305 16:01:35.880641 12868 net.cpp:434] res3a_branch2a <- res2c_res2c_relu_0_split_1
I0305 16:01:35.880645 12868 net.cpp:408] res3a_branch2a -> res3a_branch2a
I0305 16:01:35.881412 12868 net.cpp:150] Setting up res3a_branch2a
I0305 16:01:35.881431 12868 net.cpp:157] Top shape: 32 128 28 28 (3211264)
I0305 16:01:35.881433 12868 net.cpp:165] Memory required for data: 3757179008
I0305 16:01:35.881438 12868 layer_factory.hpp:77] Creating layer bn3a_branch2a
I0305 16:01:35.881450 12868 net.cpp:100] Creating Layer bn3a_branch2a
I0305 16:01:35.881453 12868 net.cpp:434] bn3a_branch2a <- res3a_branch2a
I0305 16:01:35.881456 12868 net.cpp:395] bn3a_branch2a -> res3a_branch2a (in-place)
I0305 16:01:35.881592 12868 net.cpp:150] Setting up bn3a_branch2a
I0305 16:01:35.881597 12868 net.cpp:157] Top shape: 32 128 28 28 (3211264)
I0305 16:01:35.881599 12868 net.cpp:165] Memory required for data: 3770024064
I0305 16:01:35.881613 12868 layer_factory.hpp:77] Creating layer scale3a_branch2a
I0305 16:01:35.881618 12868 net.cpp:100] Creating Layer scale3a_branch2a
I0305 16:01:35.881628 12868 net.cpp:434] scale3a_branch2a <- res3a_branch2a
I0305 16:01:35.881631 12868 net.cpp:395] scale3a_branch2a -> res3a_branch2a (in-place)
I0305 16:01:35.881667 12868 layer_factory.hpp:77] Creating layer scale3a_branch2a
I0305 16:01:35.881783 12868 net.cpp:150] Setting up scale3a_branch2a
I0305 16:01:35.881788 12868 net.cpp:157] Top shape: 32 128 28 28 (3211264)
I0305 16:01:35.881789 12868 net.cpp:165] Memory required for data: 3782869120
I0305 16:01:35.881803 12868 layer_factory.hpp:77] Creating layer res3a_branch2a_relu
I0305 16:01:35.881806 12868 net.cpp:100] Creating Layer res3a_branch2a_relu
I0305 16:01:35.881817 12868 net.cpp:434] res3a_branch2a_relu <- res3a_branch2a
I0305 16:01:35.881821 12868 net.cpp:395] res3a_branch2a_relu -> res3a_branch2a (in-place)
I0305 16:01:35.882043 12868 net.cpp:150] Setting up res3a_branch2a_relu
I0305 16:01:35.882051 12868 net.cpp:157] Top shape: 32 128 28 28 (3211264)
I0305 16:01:35.882063 12868 net.cpp:165] Memory required for data: 3795714176
I0305 16:01:35.882066 12868 layer_factory.hpp:77] Creating layer res3a_branch2b
I0305 16:01:35.882081 12868 net.cpp:100] Creating Layer res3a_branch2b
I0305 16:01:35.882083 12868 net.cpp:434] res3a_branch2b <- res3a_branch2a
I0305 16:01:35.882086 12868 net.cpp:408] res3a_branch2b -> res3a_branch2b
I0305 16:01:35.883108 12868 net.cpp:150] Setting up res3a_branch2b
I0305 16:01:35.883117 12868 net.cpp:157] Top shape: 32 128 28 28 (3211264)
I0305 16:01:35.883129 12868 net.cpp:165] Memory required for data: 3808559232
I0305 16:01:35.883132 12868 layer_factory.hpp:77] Creating layer bn3a_branch2b
I0305 16:01:35.883147 12868 net.cpp:100] Creating Layer bn3a_branch2b
I0305 16:01:35.883149 12868 net.cpp:434] bn3a_branch2b <- res3a_branch2b
I0305 16:01:35.883152 12868 net.cpp:395] bn3a_branch2b -> res3a_branch2b (in-place)
I0305 16:01:35.883296 12868 net.cpp:150] Setting up bn3a_branch2b
I0305 16:01:35.883301 12868 net.cpp:157] Top shape: 32 128 28 28 (3211264)
I0305 16:01:35.883312 12868 net.cpp:165] Memory required for data: 3821404288
I0305 16:01:35.883317 12868 layer_factory.hpp:77] Creating layer scale3a_branch2b
I0305 16:01:35.883332 12868 net.cpp:100] Creating Layer scale3a_branch2b
I0305 16:01:35.883334 12868 net.cpp:434] scale3a_branch2b <- res3a_branch2b
I0305 16:01:35.883337 12868 net.cpp:395] scale3a_branch2b -> res3a_branch2b (in-place)
I0305 16:01:35.883371 12868 layer_factory.hpp:77] Creating layer scale3a_branch2b
I0305 16:01:35.883491 12868 net.cpp:150] Setting up scale3a_branch2b
I0305 16:01:35.883496 12868 net.cpp:157] Top shape: 32 128 28 28 (3211264)
I0305 16:01:35.883497 12868 net.cpp:165] Memory required for data: 3834249344
I0305 16:01:35.883512 12868 layer_factory.hpp:77] Creating layer res3a_branch2b_relu
I0305 16:01:35.883514 12868 net.cpp:100] Creating Layer res3a_branch2b_relu
I0305 16:01:35.883517 12868 net.cpp:434] res3a_branch2b_relu <- res3a_branch2b
I0305 16:01:35.883529 12868 net.cpp:395] res3a_branch2b_relu -> res3a_branch2b (in-place)
I0305 16:01:35.883666 12868 net.cpp:150] Setting up res3a_branch2b_relu
I0305 16:01:35.883672 12868 net.cpp:157] Top shape: 32 128 28 28 (3211264)
I0305 16:01:35.883674 12868 net.cpp:165] Memory required for data: 3847094400
I0305 16:01:35.883687 12868 layer_factory.hpp:77] Creating layer res3a_branch2c
I0305 16:01:35.883692 12868 net.cpp:100] Creating Layer res3a_branch2c
I0305 16:01:35.883702 12868 net.cpp:434] res3a_branch2c <- res3a_branch2b
I0305 16:01:35.883707 12868 net.cpp:408] res3a_branch2c -> res3a_branch2c
I0305 16:01:35.884423 12868 net.cpp:150] Setting up res3a_branch2c
I0305 16:01:35.884443 12868 net.cpp:157] Top shape: 32 512 28 28 (12845056)
I0305 16:01:35.884445 12868 net.cpp:165] Memory required for data: 3898474624
I0305 16:01:35.884449 12868 layer_factory.hpp:77] Creating layer bn3a_branch2c
I0305 16:01:35.884466 12868 net.cpp:100] Creating Layer bn3a_branch2c
I0305 16:01:35.884469 12868 net.cpp:434] bn3a_branch2c <- res3a_branch2c
I0305 16:01:35.884474 12868 net.cpp:395] bn3a_branch2c -> res3a_branch2c (in-place)
I0305 16:01:35.884615 12868 net.cpp:150] Setting up bn3a_branch2c
I0305 16:01:35.884620 12868 net.cpp:157] Top shape: 32 512 28 28 (12845056)
I0305 16:01:35.884623 12868 net.cpp:165] Memory required for data: 3949854848
I0305 16:01:35.884636 12868 layer_factory.hpp:77] Creating layer scale3a_branch2c
I0305 16:01:35.884640 12868 net.cpp:100] Creating Layer scale3a_branch2c
I0305 16:01:35.884651 12868 net.cpp:434] scale3a_branch2c <- res3a_branch2c
I0305 16:01:35.884655 12868 net.cpp:395] scale3a_branch2c -> res3a_branch2c (in-place)
I0305 16:01:35.884690 12868 layer_factory.hpp:77] Creating layer scale3a_branch2c
I0305 16:01:35.884814 12868 net.cpp:150] Setting up scale3a_branch2c
I0305 16:01:35.884819 12868 net.cpp:157] Top shape: 32 512 28 28 (12845056)
I0305 16:01:35.884829 12868 net.cpp:165] Memory required for data: 4001235072
I0305 16:01:35.884834 12868 layer_factory.hpp:77] Creating layer res3a
I0305 16:01:35.884837 12868 net.cpp:100] Creating Layer res3a
I0305 16:01:35.884848 12868 net.cpp:434] res3a <- res3a_branch1
I0305 16:01:35.884851 12868 net.cpp:434] res3a <- res3a_branch2c
I0305 16:01:35.884855 12868 net.cpp:408] res3a -> res3a
I0305 16:01:35.884871 12868 net.cpp:150] Setting up res3a
I0305 16:01:35.884874 12868 net.cpp:157] Top shape: 32 512 28 28 (12845056)
I0305 16:01:35.884886 12868 net.cpp:165] Memory required for data: 4052615296
I0305 16:01:35.884888 12868 layer_factory.hpp:77] Creating layer res3a_relu
I0305 16:01:35.884891 12868 net.cpp:100] Creating Layer res3a_relu
I0305 16:01:35.884894 12868 net.cpp:434] res3a_relu <- res3a
I0305 16:01:35.884907 12868 net.cpp:395] res3a_relu -> res3a (in-place)
I0305 16:01:35.885027 12868 net.cpp:150] Setting up res3a_relu
I0305 16:01:35.885035 12868 net.cpp:157] Top shape: 32 512 28 28 (12845056)
I0305 16:01:35.885036 12868 net.cpp:165] Memory required for data: 4103995520
I0305 16:01:35.885040 12868 layer_factory.hpp:77] Creating layer res3a_res3a_relu_0_split
I0305 16:01:35.885042 12868 net.cpp:100] Creating Layer res3a_res3a_relu_0_split
I0305 16:01:35.885045 12868 net.cpp:434] res3a_res3a_relu_0_split <- res3a
I0305 16:01:35.885047 12868 net.cpp:408] res3a_res3a_relu_0_split -> res3a_res3a_relu_0_split_0
I0305 16:01:35.885051 12868 net.cpp:408] res3a_res3a_relu_0_split -> res3a_res3a_relu_0_split_1
I0305 16:01:35.885078 12868 net.cpp:150] Setting up res3a_res3a_relu_0_split
I0305 16:01:35.885082 12868 net.cpp:157] Top shape: 32 512 28 28 (12845056)
I0305 16:01:35.885084 12868 net.cpp:157] Top shape: 32 512 28 28 (12845056)
I0305 16:01:35.885087 12868 net.cpp:165] Memory required for data: 4206755968
I0305 16:01:35.885088 12868 layer_factory.hpp:77] Creating layer res3b_branch2a
I0305 16:01:35.885093 12868 net.cpp:100] Creating Layer res3b_branch2a
I0305 16:01:35.885095 12868 net.cpp:434] res3b_branch2a <- res3a_res3a_relu_0_split_0
I0305 16:01:35.885099 12868 net.cpp:408] res3b_branch2a -> res3b_branch2a
I0305 16:01:35.886034 12868 net.cpp:150] Setting up res3b_branch2a
I0305 16:01:35.886044 12868 net.cpp:157] Top shape: 32 128 28 28 (3211264)
I0305 16:01:35.886046 12868 net.cpp:165] Memory required for data: 4219601024
I0305 16:01:35.886050 12868 layer_factory.hpp:77] Creating layer bn3b_branch2a
I0305 16:01:35.886055 12868 net.cpp:100] Creating Layer bn3b_branch2a
I0305 16:01:35.886059 12868 net.cpp:434] bn3b_branch2a <- res3b_branch2a
I0305 16:01:35.886061 12868 net.cpp:395] bn3b_branch2a -> res3b_branch2a (in-place)
I0305 16:01:35.886200 12868 net.cpp:150] Setting up bn3b_branch2a
I0305 16:01:35.886205 12868 net.cpp:157] Top shape: 32 128 28 28 (3211264)
I0305 16:01:35.886216 12868 net.cpp:165] Memory required for data: 4232446080
I0305 16:01:35.886221 12868 layer_factory.hpp:77] Creating layer scale3b_branch2a
I0305 16:01:35.886235 12868 net.cpp:100] Creating Layer scale3b_branch2a
I0305 16:01:35.886237 12868 net.cpp:434] scale3b_branch2a <- res3b_branch2a
I0305 16:01:35.886240 12868 net.cpp:395] scale3b_branch2a -> res3b_branch2a (in-place)
I0305 16:01:35.886277 12868 layer_factory.hpp:77] Creating layer scale3b_branch2a
I0305 16:01:35.886389 12868 net.cpp:150] Setting up scale3b_branch2a
I0305 16:01:35.886396 12868 net.cpp:157] Top shape: 32 128 28 28 (3211264)
I0305 16:01:35.886409 12868 net.cpp:165] Memory required for data: 4245291136
I0305 16:01:35.886415 12868 layer_factory.hpp:77] Creating layer res3b_branch2a_relu
I0305 16:01:35.886420 12868 net.cpp:100] Creating Layer res3b_branch2a_relu
I0305 16:01:35.886422 12868 net.cpp:434] res3b_branch2a_relu <- res3b_branch2a
I0305 16:01:35.886427 12868 net.cpp:395] res3b_branch2a_relu -> res3b_branch2a (in-place)
I0305 16:01:35.886649 12868 net.cpp:150] Setting up res3b_branch2a_relu
I0305 16:01:35.886667 12868 net.cpp:157] Top shape: 32 128 28 28 (3211264)
I0305 16:01:35.886679 12868 net.cpp:165] Memory required for data: 4258136192
I0305 16:01:35.886682 12868 layer_factory.hpp:77] Creating layer res3b_branch2b
I0305 16:01:35.886687 12868 net.cpp:100] Creating Layer res3b_branch2b
I0305 16:01:35.886689 12868 net.cpp:434] res3b_branch2b <- res3b_branch2a
I0305 16:01:35.886693 12868 net.cpp:408] res3b_branch2b -> res3b_branch2b
I0305 16:01:35.887745 12868 net.cpp:150] Setting up res3b_branch2b
I0305 16:01:35.887754 12868 net.cpp:157] Top shape: 32 128 28 28 (3211264)
I0305 16:01:35.887766 12868 net.cpp:165] Memory required for data: 4270981248
I0305 16:01:35.887770 12868 layer_factory.hpp:77] Creating layer bn3b_branch2b
I0305 16:01:35.887784 12868 net.cpp:100] Creating Layer bn3b_branch2b
I0305 16:01:35.887786 12868 net.cpp:434] bn3b_branch2b <- res3b_branch2b
I0305 16:01:35.887790 12868 net.cpp:395] bn3b_branch2b -> res3b_branch2b (in-place)
I0305 16:01:35.887939 12868 net.cpp:150] Setting up bn3b_branch2b
I0305 16:01:35.887945 12868 net.cpp:157] Top shape: 32 128 28 28 (3211264)
I0305 16:01:35.887956 12868 net.cpp:165] Memory required for data: 4283826304
I0305 16:01:35.887961 12868 layer_factory.hpp:77] Creating layer scale3b_branch2b
I0305 16:01:35.887965 12868 net.cpp:100] Creating Layer scale3b_branch2b
I0305 16:01:35.887977 12868 net.cpp:434] scale3b_branch2b <- res3b_branch2b
I0305 16:01:35.887980 12868 net.cpp:395] scale3b_branch2b -> res3b_branch2b (in-place)
I0305 16:01:35.888017 12868 layer_factory.hpp:77] Creating layer scale3b_branch2b
I0305 16:01:35.888159 12868 net.cpp:150] Setting up scale3b_branch2b
I0305 16:01:35.888165 12868 net.cpp:157] Top shape: 32 128 28 28 (3211264)
I0305 16:01:35.888176 12868 net.cpp:165] Memory required for data: 4296671360
I0305 16:01:35.888180 12868 layer_factory.hpp:77] Creating layer res3b_branch2b_relu
I0305 16:01:35.888185 12868 net.cpp:100] Creating Layer res3b_branch2b_relu
I0305 16:01:35.888196 12868 net.cpp:434] res3b_branch2b_relu <- res3b_branch2b
I0305 16:01:35.888198 12868 net.cpp:395] res3b_branch2b_relu -> res3b_branch2b (in-place)
I0305 16:01:35.888340 12868 net.cpp:150] Setting up res3b_branch2b_relu
I0305 16:01:35.888346 12868 net.cpp:157] Top shape: 32 128 28 28 (3211264)
I0305 16:01:35.888358 12868 net.cpp:165] Memory required for data: 4309516416
I0305 16:01:35.888360 12868 layer_factory.hpp:77] Creating layer res3b_branch2c
I0305 16:01:35.888365 12868 net.cpp:100] Creating Layer res3b_branch2c
I0305 16:01:35.888377 12868 net.cpp:434] res3b_branch2c <- res3b_branch2b
I0305 16:01:35.888381 12868 net.cpp:408] res3b_branch2c -> res3b_branch2c
I0305 16:01:35.889081 12868 net.cpp:150] Setting up res3b_branch2c
I0305 16:01:35.889091 12868 net.cpp:157] Top shape: 32 512 28 28 (12845056)
I0305 16:01:35.889102 12868 net.cpp:165] Memory required for data: 4360896640
I0305 16:01:35.889106 12868 layer_factory.hpp:77] Creating layer bn3b_branch2c
I0305 16:01:35.889111 12868 net.cpp:100] Creating Layer bn3b_branch2c
I0305 16:01:35.889112 12868 net.cpp:434] bn3b_branch2c <- res3b_branch2c
I0305 16:01:35.889117 12868 net.cpp:395] bn3b_branch2c -> res3b_branch2c (in-place)
I0305 16:01:35.889259 12868 net.cpp:150] Setting up bn3b_branch2c
I0305 16:01:35.889264 12868 net.cpp:157] Top shape: 32 512 28 28 (12845056)
I0305 16:01:35.889266 12868 net.cpp:165] Memory required for data: 4412276864
I0305 16:01:35.889281 12868 layer_factory.hpp:77] Creating layer scale3b_branch2c
I0305 16:01:35.889286 12868 net.cpp:100] Creating Layer scale3b_branch2c
I0305 16:01:35.889297 12868 net.cpp:434] scale3b_branch2c <- res3b_branch2c
I0305 16:01:35.889299 12868 net.cpp:395] scale3b_branch2c -> res3b_branch2c (in-place)
I0305 16:01:35.889338 12868 layer_factory.hpp:77] Creating layer scale3b_branch2c
I0305 16:01:35.889461 12868 net.cpp:150] Setting up scale3b_branch2c
I0305 16:01:35.889467 12868 net.cpp:157] Top shape: 32 512 28 28 (12845056)
I0305 16:01:35.889469 12868 net.cpp:165] Memory required for data: 4463657088
I0305 16:01:35.889482 12868 layer_factory.hpp:77] Creating layer res3b
I0305 16:01:35.889487 12868 net.cpp:100] Creating Layer res3b
I0305 16:01:35.889498 12868 net.cpp:434] res3b <- res3a_res3a_relu_0_split_1
I0305 16:01:35.889502 12868 net.cpp:434] res3b <- res3b_branch2c
I0305 16:01:35.889504 12868 net.cpp:408] res3b -> res3b
I0305 16:01:35.889520 12868 net.cpp:150] Setting up res3b
I0305 16:01:35.889535 12868 net.cpp:157] Top shape: 32 512 28 28 (12845056)
I0305 16:01:35.889538 12868 net.cpp:165] Memory required for data: 4515037312
I0305 16:01:35.889539 12868 layer_factory.hpp:77] Creating layer res3b_relu
I0305 16:01:35.889542 12868 net.cpp:100] Creating Layer res3b_relu
I0305 16:01:35.889554 12868 net.cpp:434] res3b_relu <- res3b
I0305 16:01:35.889557 12868 net.cpp:395] res3b_relu -> res3b (in-place)
I0305 16:01:35.889711 12868 net.cpp:150] Setting up res3b_relu
I0305 16:01:35.889717 12868 net.cpp:157] Top shape: 32 512 28 28 (12845056)
I0305 16:01:35.889729 12868 net.cpp:165] Memory required for data: 4566417536
I0305 16:01:35.889730 12868 layer_factory.hpp:77] Creating layer res3b_res3b_relu_0_split
I0305 16:01:35.889735 12868 net.cpp:100] Creating Layer res3b_res3b_relu_0_split
I0305 16:01:35.889746 12868 net.cpp:434] res3b_res3b_relu_0_split <- res3b
I0305 16:01:35.889750 12868 net.cpp:408] res3b_res3b_relu_0_split -> res3b_res3b_relu_0_split_0
I0305 16:01:35.889753 12868 net.cpp:408] res3b_res3b_relu_0_split -> res3b_res3b_relu_0_split_1
I0305 16:01:35.889791 12868 net.cpp:150] Setting up res3b_res3b_relu_0_split
I0305 16:01:35.889804 12868 net.cpp:157] Top shape: 32 512 28 28 (12845056)
I0305 16:01:35.889807 12868 net.cpp:157] Top shape: 32 512 28 28 (12845056)
I0305 16:01:35.889808 12868 net.cpp:165] Memory required for data: 4669177984
I0305 16:01:35.889820 12868 layer_factory.hpp:77] Creating layer res3c_branch2a
I0305 16:01:35.889825 12868 net.cpp:100] Creating Layer res3c_branch2a
I0305 16:01:35.889827 12868 net.cpp:434] res3c_branch2a <- res3b_res3b_relu_0_split_0
I0305 16:01:35.889839 12868 net.cpp:408] res3c_branch2a -> res3c_branch2a
I0305 16:01:35.890534 12868 net.cpp:150] Setting up res3c_branch2a
I0305 16:01:35.890543 12868 net.cpp:157] Top shape: 32 128 28 28 (3211264)
I0305 16:01:35.890545 12868 net.cpp:165] Memory required for data: 4682023040
I0305 16:01:35.890549 12868 layer_factory.hpp:77] Creating layer bn3c_branch2a
I0305 16:01:35.890554 12868 net.cpp:100] Creating Layer bn3c_branch2a
I0305 16:01:35.890557 12868 net.cpp:434] bn3c_branch2a <- res3c_branch2a
I0305 16:01:35.890559 12868 net.cpp:395] bn3c_branch2a -> res3c_branch2a (in-place)
I0305 16:01:35.890687 12868 net.cpp:150] Setting up bn3c_branch2a
I0305 16:01:35.890692 12868 net.cpp:157] Top shape: 32 128 28 28 (3211264)
I0305 16:01:35.890694 12868 net.cpp:165] Memory required for data: 4694868096
I0305 16:01:35.890698 12868 layer_factory.hpp:77] Creating layer scale3c_branch2a
I0305 16:01:35.890702 12868 net.cpp:100] Creating Layer scale3c_branch2a
I0305 16:01:35.890704 12868 net.cpp:434] scale3c_branch2a <- res3c_branch2a
I0305 16:01:35.890708 12868 net.cpp:395] scale3c_branch2a -> res3c_branch2a (in-place)
I0305 16:01:35.890733 12868 layer_factory.hpp:77] Creating layer scale3c_branch2a
I0305 16:01:35.890805 12868 net.cpp:150] Setting up scale3c_branch2a
I0305 16:01:35.890810 12868 net.cpp:157] Top shape: 32 128 28 28 (3211264)
I0305 16:01:35.890813 12868 net.cpp:165] Memory required for data: 4707713152
I0305 16:01:35.890820 12868 layer_factory.hpp:77] Creating layer res3c_branch2a_relu
I0305 16:01:35.890822 12868 net.cpp:100] Creating Layer res3c_branch2a_relu
I0305 16:01:35.890825 12868 net.cpp:434] res3c_branch2a_relu <- res3c_branch2a
I0305 16:01:35.890827 12868 net.cpp:395] res3c_branch2a_relu -> res3c_branch2a (in-place)
I0305 16:01:35.891041 12868 net.cpp:150] Setting up res3c_branch2a_relu
I0305 16:01:35.891047 12868 net.cpp:157] Top shape: 32 128 28 28 (3211264)
I0305 16:01:35.891059 12868 net.cpp:165] Memory required for data: 4720558208
I0305 16:01:35.891063 12868 layer_factory.hpp:77] Creating layer res3c_branch2b
I0305 16:01:35.891082 12868 net.cpp:100] Creating Layer res3c_branch2b
I0305 16:01:35.891084 12868 net.cpp:434] res3c_branch2b <- res3c_branch2a
I0305 16:01:35.891088 12868 net.cpp:408] res3c_branch2b -> res3c_branch2b
I0305 16:01:35.892122 12868 net.cpp:150] Setting up res3c_branch2b
I0305 16:01:35.892132 12868 net.cpp:157] Top shape: 32 128 28 28 (3211264)
I0305 16:01:35.892144 12868 net.cpp:165] Memory required for data: 4733403264
I0305 16:01:35.892148 12868 layer_factory.hpp:77] Creating layer bn3c_branch2b
I0305 16:01:35.892161 12868 net.cpp:100] Creating Layer bn3c_branch2b
I0305 16:01:35.892164 12868 net.cpp:434] bn3c_branch2b <- res3c_branch2b
I0305 16:01:35.892168 12868 net.cpp:395] bn3c_branch2b -> res3c_branch2b (in-place)
I0305 16:01:35.892318 12868 net.cpp:150] Setting up bn3c_branch2b
I0305 16:01:35.892323 12868 net.cpp:157] Top shape: 32 128 28 28 (3211264)
I0305 16:01:35.892324 12868 net.cpp:165] Memory required for data: 4746248320
I0305 16:01:35.892338 12868 layer_factory.hpp:77] Creating layer scale3c_branch2b
I0305 16:01:35.892343 12868 net.cpp:100] Creating Layer scale3c_branch2b
I0305 16:01:35.892354 12868 net.cpp:434] scale3c_branch2b <- res3c_branch2b
I0305 16:01:35.892356 12868 net.cpp:395] scale3c_branch2b -> res3c_branch2b (in-place)
I0305 16:01:35.892395 12868 layer_factory.hpp:77] Creating layer scale3c_branch2b
I0305 16:01:35.892521 12868 net.cpp:150] Setting up scale3c_branch2b
I0305 16:01:35.892526 12868 net.cpp:157] Top shape: 32 128 28 28 (3211264)
I0305 16:01:35.892529 12868 net.cpp:165] Memory required for data: 4759093376
I0305 16:01:35.892541 12868 layer_factory.hpp:77] Creating layer res3c_branch2b_relu
I0305 16:01:35.892544 12868 net.cpp:100] Creating Layer res3c_branch2b_relu
I0305 16:01:35.892556 12868 net.cpp:434] res3c_branch2b_relu <- res3c_branch2b
I0305 16:01:35.892560 12868 net.cpp:395] res3c_branch2b_relu -> res3c_branch2b (in-place)
I0305 16:01:35.892709 12868 net.cpp:150] Setting up res3c_branch2b_relu
I0305 16:01:35.892715 12868 net.cpp:157] Top shape: 32 128 28 28 (3211264)
I0305 16:01:35.892717 12868 net.cpp:165] Memory required for data: 4771938432
I0305 16:01:35.892719 12868 layer_factory.hpp:77] Creating layer res3c_branch2c
I0305 16:01:35.892724 12868 net.cpp:100] Creating Layer res3c_branch2c
I0305 16:01:35.892726 12868 net.cpp:434] res3c_branch2c <- res3c_branch2b
I0305 16:01:35.892740 12868 net.cpp:408] res3c_branch2c -> res3c_branch2c
I0305 16:01:35.893543 12868 net.cpp:150] Setting up res3c_branch2c
I0305 16:01:35.893553 12868 net.cpp:157] Top shape: 32 512 28 28 (12845056)
I0305 16:01:35.893554 12868 net.cpp:165] Memory required for data: 4823318656
I0305 16:01:35.893558 12868 layer_factory.hpp:77] Creating layer bn3c_branch2c
I0305 16:01:35.893563 12868 net.cpp:100] Creating Layer bn3c_branch2c
I0305 16:01:35.893565 12868 net.cpp:434] bn3c_branch2c <- res3c_branch2c
I0305 16:01:35.893577 12868 net.cpp:395] bn3c_branch2c -> res3c_branch2c (in-place)
I0305 16:01:35.893715 12868 net.cpp:150] Setting up bn3c_branch2c
I0305 16:01:35.893720 12868 net.cpp:157] Top shape: 32 512 28 28 (12845056)
I0305 16:01:35.893723 12868 net.cpp:165] Memory required for data: 4874698880
I0305 16:01:35.893726 12868 layer_factory.hpp:77] Creating layer scale3c_branch2c
I0305 16:01:35.893730 12868 net.cpp:100] Creating Layer scale3c_branch2c
I0305 16:01:35.893733 12868 net.cpp:434] scale3c_branch2c <- res3c_branch2c
I0305 16:01:35.893735 12868 net.cpp:395] scale3c_branch2c -> res3c_branch2c (in-place)
I0305 16:01:35.893784 12868 layer_factory.hpp:77] Creating layer scale3c_branch2c
I0305 16:01:35.893878 12868 net.cpp:150] Setting up scale3c_branch2c
I0305 16:01:35.893883 12868 net.cpp:157] Top shape: 32 512 28 28 (12845056)
I0305 16:01:35.893885 12868 net.cpp:165] Memory required for data: 4926079104
I0305 16:01:35.893888 12868 layer_factory.hpp:77] Creating layer res3c
I0305 16:01:35.893893 12868 net.cpp:100] Creating Layer res3c
I0305 16:01:35.893894 12868 net.cpp:434] res3c <- res3b_res3b_relu_0_split_1
I0305 16:01:35.893898 12868 net.cpp:434] res3c <- res3c_branch2c
I0305 16:01:35.893909 12868 net.cpp:408] res3c -> res3c
I0305 16:01:35.893926 12868 net.cpp:150] Setting up res3c
I0305 16:01:35.893930 12868 net.cpp:157] Top shape: 32 512 28 28 (12845056)
I0305 16:01:35.893942 12868 net.cpp:165] Memory required for data: 4977459328
I0305 16:01:35.893944 12868 layer_factory.hpp:77] Creating layer res3c_relu
I0305 16:01:35.893946 12868 net.cpp:100] Creating Layer res3c_relu
I0305 16:01:35.893949 12868 net.cpp:434] res3c_relu <- res3c
I0305 16:01:35.893952 12868 net.cpp:395] res3c_relu -> res3c (in-place)
I0305 16:01:35.894083 12868 net.cpp:150] Setting up res3c_relu
I0305 16:01:35.894089 12868 net.cpp:157] Top shape: 32 512 28 28 (12845056)
I0305 16:01:35.894091 12868 net.cpp:165] Memory required for data: 5028839552
I0305 16:01:35.894093 12868 layer_factory.hpp:77] Creating layer res3c_res3c_relu_0_split
I0305 16:01:35.894096 12868 net.cpp:100] Creating Layer res3c_res3c_relu_0_split
I0305 16:01:35.894099 12868 net.cpp:434] res3c_res3c_relu_0_split <- res3c
I0305 16:01:35.894103 12868 net.cpp:408] res3c_res3c_relu_0_split -> res3c_res3c_relu_0_split_0
I0305 16:01:35.894116 12868 net.cpp:408] res3c_res3c_relu_0_split -> res3c_res3c_relu_0_split_1
I0305 16:01:35.894156 12868 net.cpp:150] Setting up res3c_res3c_relu_0_split
I0305 16:01:35.894161 12868 net.cpp:157] Top shape: 32 512 28 28 (12845056)
I0305 16:01:35.894163 12868 net.cpp:157] Top shape: 32 512 28 28 (12845056)
I0305 16:01:35.894165 12868 net.cpp:165] Memory required for data: 5131600000
I0305 16:01:35.894176 12868 layer_factory.hpp:77] Creating layer res3d_branch2a
I0305 16:01:35.894181 12868 net.cpp:100] Creating Layer res3d_branch2a
I0305 16:01:35.894184 12868 net.cpp:434] res3d_branch2a <- res3c_res3c_relu_0_split_0
I0305 16:01:35.894187 12868 net.cpp:408] res3d_branch2a -> res3d_branch2a
I0305 16:01:35.895113 12868 net.cpp:150] Setting up res3d_branch2a
I0305 16:01:35.895123 12868 net.cpp:157] Top shape: 32 128 28 28 (3211264)
I0305 16:01:35.895135 12868 net.cpp:165] Memory required for data: 5144445056
I0305 16:01:35.895139 12868 layer_factory.hpp:77] Creating layer bn3d_branch2a
I0305 16:01:35.895144 12868 net.cpp:100] Creating Layer bn3d_branch2a
I0305 16:01:35.895146 12868 net.cpp:434] bn3d_branch2a <- res3d_branch2a
I0305 16:01:35.895150 12868 net.cpp:395] bn3d_branch2a -> res3d_branch2a (in-place)
I0305 16:01:35.895288 12868 net.cpp:150] Setting up bn3d_branch2a
I0305 16:01:35.895294 12868 net.cpp:157] Top shape: 32 128 28 28 (3211264)
I0305 16:01:35.895297 12868 net.cpp:165] Memory required for data: 5157290112
I0305 16:01:35.895325 12868 layer_factory.hpp:77] Creating layer scale3d_branch2a
I0305 16:01:35.895331 12868 net.cpp:100] Creating Layer scale3d_branch2a
I0305 16:01:35.895334 12868 net.cpp:434] scale3d_branch2a <- res3d_branch2a
I0305 16:01:35.895336 12868 net.cpp:395] scale3d_branch2a -> res3d_branch2a (in-place)
I0305 16:01:35.895376 12868 layer_factory.hpp:77] Creating layer scale3d_branch2a
I0305 16:01:35.895475 12868 net.cpp:150] Setting up scale3d_branch2a
I0305 16:01:35.895481 12868 net.cpp:157] Top shape: 32 128 28 28 (3211264)
I0305 16:01:35.895483 12868 net.cpp:165] Memory required for data: 5170135168
I0305 16:01:35.895496 12868 layer_factory.hpp:77] Creating layer res3d_branch2a_relu
I0305 16:01:35.895499 12868 net.cpp:100] Creating Layer res3d_branch2a_relu
I0305 16:01:35.895501 12868 net.cpp:434] res3d_branch2a_relu <- res3d_branch2a
I0305 16:01:35.895504 12868 net.cpp:395] res3d_branch2a_relu -> res3d_branch2a (in-place)
I0305 16:01:35.895738 12868 net.cpp:150] Setting up res3d_branch2a_relu
I0305 16:01:35.895746 12868 net.cpp:157] Top shape: 32 128 28 28 (3211264)
I0305 16:01:35.895748 12868 net.cpp:165] Memory required for data: 5182980224
I0305 16:01:35.895761 12868 layer_factory.hpp:77] Creating layer res3d_branch2b
I0305 16:01:35.895766 12868 net.cpp:100] Creating Layer res3d_branch2b
I0305 16:01:35.895769 12868 net.cpp:434] res3d_branch2b <- res3d_branch2a
I0305 16:01:35.895772 12868 net.cpp:408] res3d_branch2b -> res3d_branch2b
I0305 16:01:35.896832 12868 net.cpp:150] Setting up res3d_branch2b
I0305 16:01:35.896844 12868 net.cpp:157] Top shape: 32 128 28 28 (3211264)
I0305 16:01:35.896848 12868 net.cpp:165] Memory required for data: 5195825280
I0305 16:01:35.896852 12868 layer_factory.hpp:77] Creating layer bn3d_branch2b
I0305 16:01:35.896867 12868 net.cpp:100] Creating Layer bn3d_branch2b
I0305 16:01:35.896869 12868 net.cpp:434] bn3d_branch2b <- res3d_branch2b
I0305 16:01:35.896872 12868 net.cpp:395] bn3d_branch2b -> res3d_branch2b (in-place)
I0305 16:01:35.897016 12868 net.cpp:150] Setting up bn3d_branch2b
I0305 16:01:35.897020 12868 net.cpp:157] Top shape: 32 128 28 28 (3211264)
I0305 16:01:35.897022 12868 net.cpp:165] Memory required for data: 5208670336
I0305 16:01:35.897027 12868 layer_factory.hpp:77] Creating layer scale3d_branch2b
I0305 16:01:35.897032 12868 net.cpp:100] Creating Layer scale3d_branch2b
I0305 16:01:35.897033 12868 net.cpp:434] scale3d_branch2b <- res3d_branch2b
I0305 16:01:35.897047 12868 net.cpp:395] scale3d_branch2b -> res3d_branch2b (in-place)
I0305 16:01:35.897083 12868 layer_factory.hpp:77] Creating layer scale3d_branch2b
I0305 16:01:35.897177 12868 net.cpp:150] Setting up scale3d_branch2b
I0305 16:01:35.897183 12868 net.cpp:157] Top shape: 32 128 28 28 (3211264)
I0305 16:01:35.897186 12868 net.cpp:165] Memory required for data: 5221515392
I0305 16:01:35.897188 12868 layer_factory.hpp:77] Creating layer res3d_branch2b_relu
I0305 16:01:35.897192 12868 net.cpp:100] Creating Layer res3d_branch2b_relu
I0305 16:01:35.897193 12868 net.cpp:434] res3d_branch2b_relu <- res3d_branch2b
I0305 16:01:35.897197 12868 net.cpp:395] res3d_branch2b_relu -> res3d_branch2b (in-place)
I0305 16:01:35.897336 12868 net.cpp:150] Setting up res3d_branch2b_relu
I0305 16:01:35.897341 12868 net.cpp:157] Top shape: 32 128 28 28 (3211264)
I0305 16:01:35.897343 12868 net.cpp:165] Memory required for data: 5234360448
I0305 16:01:35.897346 12868 layer_factory.hpp:77] Creating layer res3d_branch2c
I0305 16:01:35.897351 12868 net.cpp:100] Creating Layer res3d_branch2c
I0305 16:01:35.897353 12868 net.cpp:434] res3d_branch2c <- res3d_branch2b
I0305 16:01:35.897366 12868 net.cpp:408] res3d_branch2c -> res3d_branch2c
I0305 16:01:35.898074 12868 net.cpp:150] Setting up res3d_branch2c
I0305 16:01:35.898082 12868 net.cpp:157] Top shape: 32 512 28 28 (12845056)
I0305 16:01:35.898085 12868 net.cpp:165] Memory required for data: 5285740672
I0305 16:01:35.898088 12868 layer_factory.hpp:77] Creating layer bn3d_branch2c
I0305 16:01:35.898093 12868 net.cpp:100] Creating Layer bn3d_branch2c
I0305 16:01:35.898095 12868 net.cpp:434] bn3d_branch2c <- res3d_branch2c
I0305 16:01:35.898108 12868 net.cpp:395] bn3d_branch2c -> res3d_branch2c (in-place)
I0305 16:01:35.898248 12868 net.cpp:150] Setting up bn3d_branch2c
I0305 16:01:35.898253 12868 net.cpp:157] Top shape: 32 512 28 28 (12845056)
I0305 16:01:35.898255 12868 net.cpp:165] Memory required for data: 5337120896
I0305 16:01:35.898259 12868 layer_factory.hpp:77] Creating layer scale3d_branch2c
I0305 16:01:35.898264 12868 net.cpp:100] Creating Layer scale3d_branch2c
I0305 16:01:35.898267 12868 net.cpp:434] scale3d_branch2c <- res3d_branch2c
I0305 16:01:35.898278 12868 net.cpp:395] scale3d_branch2c -> res3d_branch2c (in-place)
I0305 16:01:35.898316 12868 layer_factory.hpp:77] Creating layer scale3d_branch2c
I0305 16:01:35.898414 12868 net.cpp:150] Setting up scale3d_branch2c
I0305 16:01:35.898421 12868 net.cpp:157] Top shape: 32 512 28 28 (12845056)
I0305 16:01:35.898422 12868 net.cpp:165] Memory required for data: 5388501120
I0305 16:01:35.898425 12868 layer_factory.hpp:77] Creating layer res3d
I0305 16:01:35.898429 12868 net.cpp:100] Creating Layer res3d
I0305 16:01:35.898432 12868 net.cpp:434] res3d <- res3c_res3c_relu_0_split_1
I0305 16:01:35.898434 12868 net.cpp:434] res3d <- res3d_branch2c
I0305 16:01:35.898447 12868 net.cpp:408] res3d -> res3d
I0305 16:01:35.898464 12868 net.cpp:150] Setting up res3d
I0305 16:01:35.898480 12868 net.cpp:157] Top shape: 32 512 28 28 (12845056)
I0305 16:01:35.898483 12868 net.cpp:165] Memory required for data: 5439881344
I0305 16:01:35.898484 12868 layer_factory.hpp:77] Creating layer res3d_relu
I0305 16:01:35.898488 12868 net.cpp:100] Creating Layer res3d_relu
I0305 16:01:35.898489 12868 net.cpp:434] res3d_relu <- res3d
I0305 16:01:35.898494 12868 net.cpp:395] res3d_relu -> res3d (in-place)
I0305 16:01:35.898629 12868 net.cpp:150] Setting up res3d_relu
I0305 16:01:35.898635 12868 net.cpp:157] Top shape: 32 512 28 28 (12845056)
I0305 16:01:35.898638 12868 net.cpp:165] Memory required for data: 5491261568
I0305 16:01:35.898639 12868 layer_factory.hpp:77] Creating layer res3d_res3d_relu_0_split
I0305 16:01:35.898643 12868 net.cpp:100] Creating Layer res3d_res3d_relu_0_split
I0305 16:01:35.898645 12868 net.cpp:434] res3d_res3d_relu_0_split <- res3d
I0305 16:01:35.898648 12868 net.cpp:408] res3d_res3d_relu_0_split -> res3d_res3d_relu_0_split_0
I0305 16:01:35.898663 12868 net.cpp:408] res3d_res3d_relu_0_split -> res3d_res3d_relu_0_split_1
I0305 16:01:35.898699 12868 net.cpp:150] Setting up res3d_res3d_relu_0_split
I0305 16:01:35.898703 12868 net.cpp:157] Top shape: 32 512 28 28 (12845056)
I0305 16:01:35.898705 12868 net.cpp:157] Top shape: 32 512 28 28 (12845056)
I0305 16:01:35.898707 12868 net.cpp:165] Memory required for data: 5594022016
I0305 16:01:35.898710 12868 layer_factory.hpp:77] Creating layer res4a_branch1
I0305 16:01:35.898715 12868 net.cpp:100] Creating Layer res4a_branch1
I0305 16:01:35.898716 12868 net.cpp:434] res4a_branch1 <- res3d_res3d_relu_0_split_0
I0305 16:01:35.898730 12868 net.cpp:408] res4a_branch1 -> res4a_branch1
I0305 16:01:35.900009 12868 net.cpp:150] Setting up res4a_branch1
I0305 16:01:35.900018 12868 net.cpp:157] Top shape: 32 1024 14 14 (6422528)
I0305 16:01:35.900020 12868 net.cpp:165] Memory required for data: 5619712128
I0305 16:01:35.900024 12868 layer_factory.hpp:77] Creating layer bn4a_branch1
I0305 16:01:35.900029 12868 net.cpp:100] Creating Layer bn4a_branch1
I0305 16:01:35.900032 12868 net.cpp:434] bn4a_branch1 <- res4a_branch1
I0305 16:01:35.900043 12868 net.cpp:395] bn4a_branch1 -> res4a_branch1 (in-place)
I0305 16:01:35.900210 12868 net.cpp:150] Setting up bn4a_branch1
I0305 16:01:35.900218 12868 net.cpp:157] Top shape: 32 1024 14 14 (6422528)
I0305 16:01:35.900219 12868 net.cpp:165] Memory required for data: 5645402240
I0305 16:01:35.900224 12868 layer_factory.hpp:77] Creating layer scale4a_branch1
I0305 16:01:35.900228 12868 net.cpp:100] Creating Layer scale4a_branch1
I0305 16:01:35.900230 12868 net.cpp:434] scale4a_branch1 <- res4a_branch1
I0305 16:01:35.900243 12868 net.cpp:395] scale4a_branch1 -> res4a_branch1 (in-place)
I0305 16:01:35.900280 12868 layer_factory.hpp:77] Creating layer scale4a_branch1
I0305 16:01:35.900379 12868 net.cpp:150] Setting up scale4a_branch1
I0305 16:01:35.900384 12868 net.cpp:157] Top shape: 32 1024 14 14 (6422528)
I0305 16:01:35.900387 12868 net.cpp:165] Memory required for data: 5671092352
I0305 16:01:35.900389 12868 layer_factory.hpp:77] Creating layer res4a_branch2a
I0305 16:01:35.900395 12868 net.cpp:100] Creating Layer res4a_branch2a
I0305 16:01:35.900398 12868 net.cpp:434] res4a_branch2a <- res3d_res3d_relu_0_split_1
I0305 16:01:35.900410 12868 net.cpp:408] res4a_branch2a -> res4a_branch2a
I0305 16:01:35.901170 12868 net.cpp:150] Setting up res4a_branch2a
I0305 16:01:35.901178 12868 net.cpp:157] Top shape: 32 256 14 14 (1605632)
I0305 16:01:35.901181 12868 net.cpp:165] Memory required for data: 5677514880
I0305 16:01:35.901185 12868 layer_factory.hpp:77] Creating layer bn4a_branch2a
I0305 16:01:35.901188 12868 net.cpp:100] Creating Layer bn4a_branch2a
I0305 16:01:35.901190 12868 net.cpp:434] bn4a_branch2a <- res4a_branch2a
I0305 16:01:35.901203 12868 net.cpp:395] bn4a_branch2a -> res4a_branch2a (in-place)
I0305 16:01:35.901346 12868 net.cpp:150] Setting up bn4a_branch2a
I0305 16:01:35.901351 12868 net.cpp:157] Top shape: 32 256 14 14 (1605632)
I0305 16:01:35.901353 12868 net.cpp:165] Memory required for data: 5683937408
I0305 16:01:35.901357 12868 layer_factory.hpp:77] Creating layer scale4a_branch2a
I0305 16:01:35.901361 12868 net.cpp:100] Creating Layer scale4a_branch2a
I0305 16:01:35.901363 12868 net.cpp:434] scale4a_branch2a <- res4a_branch2a
I0305 16:01:35.901377 12868 net.cpp:395] scale4a_branch2a -> res4a_branch2a (in-place)
I0305 16:01:35.901422 12868 layer_factory.hpp:77] Creating layer scale4a_branch2a
I0305 16:01:35.901518 12868 net.cpp:150] Setting up scale4a_branch2a
I0305 16:01:35.901523 12868 net.cpp:157] Top shape: 32 256 14 14 (1605632)
I0305 16:01:35.901525 12868 net.cpp:165] Memory required for data: 5690359936
I0305 16:01:35.901528 12868 layer_factory.hpp:77] Creating layer res4a_branch2a_relu
I0305 16:01:35.901532 12868 net.cpp:100] Creating Layer res4a_branch2a_relu
I0305 16:01:35.901535 12868 net.cpp:434] res4a_branch2a_relu <- res4a_branch2a
I0305 16:01:35.901538 12868 net.cpp:395] res4a_branch2a_relu -> res4a_branch2a (in-place)
I0305 16:01:35.901767 12868 net.cpp:150] Setting up res4a_branch2a_relu
I0305 16:01:35.901775 12868 net.cpp:157] Top shape: 32 256 14 14 (1605632)
I0305 16:01:35.901777 12868 net.cpp:165] Memory required for data: 5696782464
I0305 16:01:35.901779 12868 layer_factory.hpp:77] Creating layer res4a_branch2b
I0305 16:01:35.901784 12868 net.cpp:100] Creating Layer res4a_branch2b
I0305 16:01:35.901787 12868 net.cpp:434] res4a_branch2b <- res4a_branch2a
I0305 16:01:35.901799 12868 net.cpp:408] res4a_branch2b -> res4a_branch2b
I0305 16:01:35.903152 12868 net.cpp:150] Setting up res4a_branch2b
I0305 16:01:35.903162 12868 net.cpp:157] Top shape: 32 256 14 14 (1605632)
I0305 16:01:35.903164 12868 net.cpp:165] Memory required for data: 5703204992
I0305 16:01:35.903167 12868 layer_factory.hpp:77] Creating layer bn4a_branch2b
I0305 16:01:35.903172 12868 net.cpp:100] Creating Layer bn4a_branch2b
I0305 16:01:35.903175 12868 net.cpp:434] bn4a_branch2b <- res4a_branch2b
I0305 16:01:35.903188 12868 net.cpp:395] bn4a_branch2b -> res4a_branch2b (in-place)
I0305 16:01:35.903332 12868 net.cpp:150] Setting up bn4a_branch2b
I0305 16:01:35.903337 12868 net.cpp:157] Top shape: 32 256 14 14 (1605632)
I0305 16:01:35.903339 12868 net.cpp:165] Memory required for data: 5709627520
I0305 16:01:35.903343 12868 layer_factory.hpp:77] Creating layer scale4a_branch2b
I0305 16:01:35.903347 12868 net.cpp:100] Creating Layer scale4a_branch2b
I0305 16:01:35.903349 12868 net.cpp:434] scale4a_branch2b <- res4a_branch2b
I0305 16:01:35.903362 12868 net.cpp:395] scale4a_branch2b -> res4a_branch2b (in-place)
I0305 16:01:35.903405 12868 layer_factory.hpp:77] Creating layer scale4a_branch2b
I0305 16:01:35.903501 12868 net.cpp:150] Setting up scale4a_branch2b
I0305 16:01:35.903506 12868 net.cpp:157] Top shape: 32 256 14 14 (1605632)
I0305 16:01:35.903506 12868 net.cpp:165] Memory required for data: 5716050048
I0305 16:01:35.903511 12868 layer_factory.hpp:77] Creating layer res4a_branch2b_relu
I0305 16:01:35.903514 12868 net.cpp:100] Creating Layer res4a_branch2b_relu
I0305 16:01:35.903517 12868 net.cpp:434] res4a_branch2b_relu <- res4a_branch2b
I0305 16:01:35.903519 12868 net.cpp:395] res4a_branch2b_relu -> res4a_branch2b (in-place)
I0305 16:01:35.903750 12868 net.cpp:150] Setting up res4a_branch2b_relu
I0305 16:01:35.903759 12868 net.cpp:157] Top shape: 32 256 14 14 (1605632)
I0305 16:01:35.903760 12868 net.cpp:165] Memory required for data: 5722472576
I0305 16:01:35.903762 12868 layer_factory.hpp:77] Creating layer res4a_branch2c
I0305 16:01:35.903769 12868 net.cpp:100] Creating Layer res4a_branch2c
I0305 16:01:35.903770 12868 net.cpp:434] res4a_branch2c <- res4a_branch2b
I0305 16:01:35.903784 12868 net.cpp:408] res4a_branch2c -> res4a_branch2c
I0305 16:01:35.904836 12868 net.cpp:150] Setting up res4a_branch2c
I0305 16:01:35.904845 12868 net.cpp:157] Top shape: 32 1024 14 14 (6422528)
I0305 16:01:35.904847 12868 net.cpp:165] Memory required for data: 5748162688
I0305 16:01:35.904851 12868 layer_factory.hpp:77] Creating layer bn4a_branch2c
I0305 16:01:35.904857 12868 net.cpp:100] Creating Layer bn4a_branch2c
I0305 16:01:35.904860 12868 net.cpp:434] bn4a_branch2c <- res4a_branch2c
I0305 16:01:35.904872 12868 net.cpp:395] bn4a_branch2c -> res4a_branch2c (in-place)
I0305 16:01:35.905020 12868 net.cpp:150] Setting up bn4a_branch2c
I0305 16:01:35.905025 12868 net.cpp:157] Top shape: 32 1024 14 14 (6422528)
I0305 16:01:35.905027 12868 net.cpp:165] Memory required for data: 5773852800
I0305 16:01:35.905031 12868 layer_factory.hpp:77] Creating layer scale4a_branch2c
I0305 16:01:35.905035 12868 net.cpp:100] Creating Layer scale4a_branch2c
I0305 16:01:35.905037 12868 net.cpp:434] scale4a_branch2c <- res4a_branch2c
I0305 16:01:35.905050 12868 net.cpp:395] scale4a_branch2c -> res4a_branch2c (in-place)
I0305 16:01:35.905086 12868 layer_factory.hpp:77] Creating layer scale4a_branch2c
I0305 16:01:35.905186 12868 net.cpp:150] Setting up scale4a_branch2c
I0305 16:01:35.905191 12868 net.cpp:157] Top shape: 32 1024 14 14 (6422528)
I0305 16:01:35.905192 12868 net.cpp:165] Memory required for data: 5799542912
I0305 16:01:35.905196 12868 layer_factory.hpp:77] Creating layer res4a
I0305 16:01:35.905201 12868 net.cpp:100] Creating Layer res4a
I0305 16:01:35.905203 12868 net.cpp:434] res4a <- res4a_branch1
I0305 16:01:35.905205 12868 net.cpp:434] res4a <- res4a_branch2c
I0305 16:01:35.905218 12868 net.cpp:408] res4a -> res4a
I0305 16:01:35.905236 12868 net.cpp:150] Setting up res4a
I0305 16:01:35.905241 12868 net.cpp:157] Top shape: 32 1024 14 14 (6422528)
I0305 16:01:35.905242 12868 net.cpp:165] Memory required for data: 5825233024
I0305 16:01:35.905244 12868 layer_factory.hpp:77] Creating layer res4a_relu
I0305 16:01:35.905257 12868 net.cpp:100] Creating Layer res4a_relu
I0305 16:01:35.905259 12868 net.cpp:434] res4a_relu <- res4a
I0305 16:01:35.905262 12868 net.cpp:395] res4a_relu -> res4a (in-place)
I0305 16:01:35.905403 12868 net.cpp:150] Setting up res4a_relu
I0305 16:01:35.905411 12868 net.cpp:157] Top shape: 32 1024 14 14 (6422528)
I0305 16:01:35.905412 12868 net.cpp:165] Memory required for data: 5850923136
I0305 16:01:35.905414 12868 layer_factory.hpp:77] Creating layer res4a_res4a_relu_0_split
I0305 16:01:35.905419 12868 net.cpp:100] Creating Layer res4a_res4a_relu_0_split
I0305 16:01:35.905421 12868 net.cpp:434] res4a_res4a_relu_0_split <- res4a
I0305 16:01:35.905424 12868 net.cpp:408] res4a_res4a_relu_0_split -> res4a_res4a_relu_0_split_0
I0305 16:01:35.905428 12868 net.cpp:408] res4a_res4a_relu_0_split -> res4a_res4a_relu_0_split_1
I0305 16:01:35.905467 12868 net.cpp:150] Setting up res4a_res4a_relu_0_split
I0305 16:01:35.905472 12868 net.cpp:157] Top shape: 32 1024 14 14 (6422528)
I0305 16:01:35.905484 12868 net.cpp:157] Top shape: 32 1024 14 14 (6422528)
I0305 16:01:35.905485 12868 net.cpp:165] Memory required for data: 5902303360
I0305 16:01:35.905488 12868 layer_factory.hpp:77] Creating layer res4b_branch2a
I0305 16:01:35.905510 12868 net.cpp:100] Creating Layer res4b_branch2a
I0305 16:01:35.905514 12868 net.cpp:434] res4b_branch2a <- res4a_res4a_relu_0_split_0
I0305 16:01:35.905517 12868 net.cpp:408] res4b_branch2a -> res4b_branch2a
I0305 16:01:35.906644 12868 net.cpp:150] Setting up res4b_branch2a
I0305 16:01:35.906653 12868 net.cpp:157] Top shape: 32 256 14 14 (1605632)
I0305 16:01:35.906656 12868 net.cpp:165] Memory required for data: 5908725888
I0305 16:01:35.906669 12868 layer_factory.hpp:77] Creating layer bn4b_branch2a
I0305 16:01:35.906674 12868 net.cpp:100] Creating Layer bn4b_branch2a
I0305 16:01:35.906678 12868 net.cpp:434] bn4b_branch2a <- res4b_branch2a
I0305 16:01:35.906682 12868 net.cpp:395] bn4b_branch2a -> res4b_branch2a (in-place)
I0305 16:01:35.906827 12868 net.cpp:150] Setting up bn4b_branch2a
I0305 16:01:35.906832 12868 net.cpp:157] Top shape: 32 256 14 14 (1605632)
I0305 16:01:35.906834 12868 net.cpp:165] Memory required for data: 5915148416
I0305 16:01:35.906839 12868 layer_factory.hpp:77] Creating layer scale4b_branch2a
I0305 16:01:35.906844 12868 net.cpp:100] Creating Layer scale4b_branch2a
I0305 16:01:35.906847 12868 net.cpp:434] scale4b_branch2a <- res4b_branch2a
I0305 16:01:35.906858 12868 net.cpp:395] scale4b_branch2a -> res4b_branch2a (in-place)
I0305 16:01:35.906898 12868 layer_factory.hpp:77] Creating layer scale4b_branch2a
I0305 16:01:35.906994 12868 net.cpp:150] Setting up scale4b_branch2a
I0305 16:01:35.906999 12868 net.cpp:157] Top shape: 32 256 14 14 (1605632)
I0305 16:01:35.907001 12868 net.cpp:165] Memory required for data: 5921570944
I0305 16:01:35.907006 12868 layer_factory.hpp:77] Creating layer res4b_branch2a_relu
I0305 16:01:35.907008 12868 net.cpp:100] Creating Layer res4b_branch2a_relu
I0305 16:01:35.907011 12868 net.cpp:434] res4b_branch2a_relu <- res4b_branch2a
I0305 16:01:35.907013 12868 net.cpp:395] res4b_branch2a_relu -> res4b_branch2a (in-place)
I0305 16:01:35.907246 12868 net.cpp:150] Setting up res4b_branch2a_relu
I0305 16:01:35.907254 12868 net.cpp:157] Top shape: 32 256 14 14 (1605632)
I0305 16:01:35.907256 12868 net.cpp:165] Memory required for data: 5927993472
I0305 16:01:35.907258 12868 layer_factory.hpp:77] Creating layer res4b_branch2b
I0305 16:01:35.907264 12868 net.cpp:100] Creating Layer res4b_branch2b
I0305 16:01:35.907266 12868 net.cpp:434] res4b_branch2b <- res4b_branch2a
I0305 16:01:35.907279 12868 net.cpp:408] res4b_branch2b -> res4b_branch2b
I0305 16:01:35.908699 12868 net.cpp:150] Setting up res4b_branch2b
I0305 16:01:35.908711 12868 net.cpp:157] Top shape: 32 256 14 14 (1605632)
I0305 16:01:35.908713 12868 net.cpp:165] Memory required for data: 5934416000
I0305 16:01:35.908717 12868 layer_factory.hpp:77] Creating layer bn4b_branch2b
I0305 16:01:35.908722 12868 net.cpp:100] Creating Layer bn4b_branch2b
I0305 16:01:35.908725 12868 net.cpp:434] bn4b_branch2b <- res4b_branch2b
I0305 16:01:35.908737 12868 net.cpp:395] bn4b_branch2b -> res4b_branch2b (in-place)
I0305 16:01:35.908893 12868 net.cpp:150] Setting up bn4b_branch2b
I0305 16:01:35.908898 12868 net.cpp:157] Top shape: 32 256 14 14 (1605632)
I0305 16:01:35.908900 12868 net.cpp:165] Memory required for data: 5940838528
I0305 16:01:35.908905 12868 layer_factory.hpp:77] Creating layer scale4b_branch2b
I0305 16:01:35.908910 12868 net.cpp:100] Creating Layer scale4b_branch2b
I0305 16:01:35.908912 12868 net.cpp:434] scale4b_branch2b <- res4b_branch2b
I0305 16:01:35.908924 12868 net.cpp:395] scale4b_branch2b -> res4b_branch2b (in-place)
I0305 16:01:35.908967 12868 layer_factory.hpp:77] Creating layer scale4b_branch2b
I0305 16:01:35.909065 12868 net.cpp:150] Setting up scale4b_branch2b
I0305 16:01:35.909071 12868 net.cpp:157] Top shape: 32 256 14 14 (1605632)
I0305 16:01:35.909073 12868 net.cpp:165] Memory required for data: 5947261056
I0305 16:01:35.909076 12868 layer_factory.hpp:77] Creating layer res4b_branch2b_relu
I0305 16:01:35.909080 12868 net.cpp:100] Creating Layer res4b_branch2b_relu
I0305 16:01:35.909082 12868 net.cpp:434] res4b_branch2b_relu <- res4b_branch2b
I0305 16:01:35.909085 12868 net.cpp:395] res4b_branch2b_relu -> res4b_branch2b (in-place)
I0305 16:01:35.909314 12868 net.cpp:150] Setting up res4b_branch2b_relu
I0305 16:01:35.909323 12868 net.cpp:157] Top shape: 32 256 14 14 (1605632)
I0305 16:01:35.909335 12868 net.cpp:165] Memory required for data: 5953683584
I0305 16:01:35.909337 12868 layer_factory.hpp:77] Creating layer res4b_branch2c
I0305 16:01:35.909343 12868 net.cpp:100] Creating Layer res4b_branch2c
I0305 16:01:35.909346 12868 net.cpp:434] res4b_branch2c <- res4b_branch2b
I0305 16:01:35.909349 12868 net.cpp:408] res4b_branch2c -> res4b_branch2c
I0305 16:01:35.910399 12868 net.cpp:150] Setting up res4b_branch2c
I0305 16:01:35.910408 12868 net.cpp:157] Top shape: 32 1024 14 14 (6422528)
I0305 16:01:35.910420 12868 net.cpp:165] Memory required for data: 5979373696
I0305 16:01:35.910424 12868 layer_factory.hpp:77] Creating layer bn4b_branch2c
I0305 16:01:35.910429 12868 net.cpp:100] Creating Layer bn4b_branch2c
I0305 16:01:35.910431 12868 net.cpp:434] bn4b_branch2c <- res4b_branch2c
I0305 16:01:35.910434 12868 net.cpp:395] bn4b_branch2c -> res4b_branch2c (in-place)
I0305 16:01:35.910593 12868 net.cpp:150] Setting up bn4b_branch2c
I0305 16:01:35.910598 12868 net.cpp:157] Top shape: 32 1024 14 14 (6422528)
I0305 16:01:35.910599 12868 net.cpp:165] Memory required for data: 6005063808
I0305 16:01:35.910604 12868 layer_factory.hpp:77] Creating layer scale4b_branch2c
I0305 16:01:35.910609 12868 net.cpp:100] Creating Layer scale4b_branch2c
I0305 16:01:35.910611 12868 net.cpp:434] scale4b_branch2c <- res4b_branch2c
I0305 16:01:35.910624 12868 net.cpp:395] scale4b_branch2c -> res4b_branch2c (in-place)
I0305 16:01:35.910661 12868 layer_factory.hpp:77] Creating layer scale4b_branch2c
I0305 16:01:35.910764 12868 net.cpp:150] Setting up scale4b_branch2c
I0305 16:01:35.910770 12868 net.cpp:157] Top shape: 32 1024 14 14 (6422528)
I0305 16:01:35.910771 12868 net.cpp:165] Memory required for data: 6030753920
I0305 16:01:35.910775 12868 layer_factory.hpp:77] Creating layer res4b
I0305 16:01:35.910779 12868 net.cpp:100] Creating Layer res4b
I0305 16:01:35.910782 12868 net.cpp:434] res4b <- res4a_res4a_relu_0_split_1
I0305 16:01:35.910784 12868 net.cpp:434] res4b <- res4b_branch2c
I0305 16:01:35.910797 12868 net.cpp:408] res4b -> res4b
I0305 16:01:35.910815 12868 net.cpp:150] Setting up res4b
I0305 16:01:35.910830 12868 net.cpp:157] Top shape: 32 1024 14 14 (6422528)
I0305 16:01:35.910832 12868 net.cpp:165] Memory required for data: 6056444032
I0305 16:01:35.910835 12868 layer_factory.hpp:77] Creating layer res4b_relu
I0305 16:01:35.910837 12868 net.cpp:100] Creating Layer res4b_relu
I0305 16:01:35.910840 12868 net.cpp:434] res4b_relu <- res4b
I0305 16:01:35.910842 12868 net.cpp:395] res4b_relu -> res4b (in-place)
I0305 16:01:35.910979 12868 net.cpp:150] Setting up res4b_relu
I0305 16:01:35.910986 12868 net.cpp:157] Top shape: 32 1024 14 14 (6422528)
I0305 16:01:35.910989 12868 net.cpp:165] Memory required for data: 6082134144
I0305 16:01:35.910990 12868 layer_factory.hpp:77] Creating layer res4b_res4b_relu_0_split
I0305 16:01:35.910993 12868 net.cpp:100] Creating Layer res4b_res4b_relu_0_split
I0305 16:01:35.910995 12868 net.cpp:434] res4b_res4b_relu_0_split <- res4b
I0305 16:01:35.911000 12868 net.cpp:408] res4b_res4b_relu_0_split -> res4b_res4b_relu_0_split_0
I0305 16:01:35.911013 12868 net.cpp:408] res4b_res4b_relu_0_split -> res4b_res4b_relu_0_split_1
I0305 16:01:35.911053 12868 net.cpp:150] Setting up res4b_res4b_relu_0_split
I0305 16:01:35.911058 12868 net.cpp:157] Top shape: 32 1024 14 14 (6422528)
I0305 16:01:35.911062 12868 net.cpp:157] Top shape: 32 1024 14 14 (6422528)
I0305 16:01:35.911062 12868 net.cpp:165] Memory required for data: 6133514368
I0305 16:01:35.911064 12868 layer_factory.hpp:77] Creating layer res4c_branch2a
I0305 16:01:35.911069 12868 net.cpp:100] Creating Layer res4c_branch2a
I0305 16:01:35.911072 12868 net.cpp:434] res4c_branch2a <- res4b_res4b_relu_0_split_0
I0305 16:01:35.911084 12868 net.cpp:408] res4c_branch2a -> res4c_branch2a
I0305 16:01:35.912142 12868 net.cpp:150] Setting up res4c_branch2a
I0305 16:01:35.912151 12868 net.cpp:157] Top shape: 32 256 14 14 (1605632)
I0305 16:01:35.912153 12868 net.cpp:165] Memory required for data: 6139936896
I0305 16:01:35.912156 12868 layer_factory.hpp:77] Creating layer bn4c_branch2a
I0305 16:01:35.912161 12868 net.cpp:100] Creating Layer bn4c_branch2a
I0305 16:01:35.912164 12868 net.cpp:434] bn4c_branch2a <- res4c_branch2a
I0305 16:01:35.912176 12868 net.cpp:395] bn4c_branch2a -> res4c_branch2a (in-place)
I0305 16:01:35.912324 12868 net.cpp:150] Setting up bn4c_branch2a
I0305 16:01:35.912329 12868 net.cpp:157] Top shape: 32 256 14 14 (1605632)
I0305 16:01:35.912331 12868 net.cpp:165] Memory required for data: 6146359424
I0305 16:01:35.912335 12868 layer_factory.hpp:77] Creating layer scale4c_branch2a
I0305 16:01:35.912340 12868 net.cpp:100] Creating Layer scale4c_branch2a
I0305 16:01:35.912343 12868 net.cpp:434] scale4c_branch2a <- res4c_branch2a
I0305 16:01:35.912355 12868 net.cpp:395] scale4c_branch2a -> res4c_branch2a (in-place)
I0305 16:01:35.912395 12868 layer_factory.hpp:77] Creating layer scale4c_branch2a
I0305 16:01:35.912495 12868 net.cpp:150] Setting up scale4c_branch2a
I0305 16:01:35.912500 12868 net.cpp:157] Top shape: 32 256 14 14 (1605632)
I0305 16:01:35.912503 12868 net.cpp:165] Memory required for data: 6152781952
I0305 16:01:35.912505 12868 layer_factory.hpp:77] Creating layer res4c_branch2a_relu
I0305 16:01:35.912509 12868 net.cpp:100] Creating Layer res4c_branch2a_relu
I0305 16:01:35.912511 12868 net.cpp:434] res4c_branch2a_relu <- res4c_branch2a
I0305 16:01:35.912514 12868 net.cpp:395] res4c_branch2a_relu -> res4c_branch2a (in-place)
I0305 16:01:35.912763 12868 net.cpp:150] Setting up res4c_branch2a_relu
I0305 16:01:35.912770 12868 net.cpp:157] Top shape: 32 256 14 14 (1605632)
I0305 16:01:35.912772 12868 net.cpp:165] Memory required for data: 6159204480
I0305 16:01:35.912775 12868 layer_factory.hpp:77] Creating layer res4c_branch2b
I0305 16:01:35.912781 12868 net.cpp:100] Creating Layer res4c_branch2b
I0305 16:01:35.912782 12868 net.cpp:434] res4c_branch2b <- res4c_branch2a
I0305 16:01:35.912796 12868 net.cpp:408] res4c_branch2b -> res4c_branch2b
I0305 16:01:35.915128 12868 net.cpp:150] Setting up res4c_branch2b
I0305 16:01:35.915138 12868 net.cpp:157] Top shape: 32 256 14 14 (1605632)
I0305 16:01:35.915140 12868 net.cpp:165] Memory required for data: 6165627008
I0305 16:01:35.915144 12868 layer_factory.hpp:77] Creating layer bn4c_branch2b
I0305 16:01:35.915148 12868 net.cpp:100] Creating Layer bn4c_branch2b
I0305 16:01:35.915150 12868 net.cpp:434] bn4c_branch2b <- res4c_branch2b
I0305 16:01:35.915164 12868 net.cpp:395] bn4c_branch2b -> res4c_branch2b (in-place)
I0305 16:01:35.915318 12868 net.cpp:150] Setting up bn4c_branch2b
I0305 16:01:35.915323 12868 net.cpp:157] Top shape: 32 256 14 14 (1605632)
I0305 16:01:35.915324 12868 net.cpp:165] Memory required for data: 6172049536
I0305 16:01:35.915329 12868 layer_factory.hpp:77] Creating layer scale4c_branch2b
I0305 16:01:35.915333 12868 net.cpp:100] Creating Layer scale4c_branch2b
I0305 16:01:35.915335 12868 net.cpp:434] scale4c_branch2b <- res4c_branch2b
I0305 16:01:35.915347 12868 net.cpp:395] scale4c_branch2b -> res4c_branch2b (in-place)
I0305 16:01:35.915387 12868 layer_factory.hpp:77] Creating layer scale4c_branch2b
I0305 16:01:35.915487 12868 net.cpp:150] Setting up scale4c_branch2b
I0305 16:01:35.915491 12868 net.cpp:157] Top shape: 32 256 14 14 (1605632)
I0305 16:01:35.915493 12868 net.cpp:165] Memory required for data: 6178472064
I0305 16:01:35.915496 12868 layer_factory.hpp:77] Creating layer res4c_branch2b_relu
I0305 16:01:35.915500 12868 net.cpp:100] Creating Layer res4c_branch2b_relu
I0305 16:01:35.915503 12868 net.cpp:434] res4c_branch2b_relu <- res4c_branch2b
I0305 16:01:35.915505 12868 net.cpp:395] res4c_branch2b_relu -> res4c_branch2b (in-place)
I0305 16:01:35.915735 12868 net.cpp:150] Setting up res4c_branch2b_relu
I0305 16:01:35.915743 12868 net.cpp:157] Top shape: 32 256 14 14 (1605632)
I0305 16:01:35.915745 12868 net.cpp:165] Memory required for data: 6184894592
I0305 16:01:35.915747 12868 layer_factory.hpp:77] Creating layer res4c_branch2c
I0305 16:01:35.915753 12868 net.cpp:100] Creating Layer res4c_branch2c
I0305 16:01:35.915755 12868 net.cpp:434] res4c_branch2c <- res4c_branch2b
I0305 16:01:35.915769 12868 net.cpp:408] res4c_branch2c -> res4c_branch2c
I0305 16:01:35.916826 12868 net.cpp:150] Setting up res4c_branch2c
I0305 16:01:35.916836 12868 net.cpp:157] Top shape: 32 1024 14 14 (6422528)
I0305 16:01:35.916838 12868 net.cpp:165] Memory required for data: 6210584704
I0305 16:01:35.916841 12868 layer_factory.hpp:77] Creating layer bn4c_branch2c
I0305 16:01:35.916846 12868 net.cpp:100] Creating Layer bn4c_branch2c
I0305 16:01:35.916849 12868 net.cpp:434] bn4c_branch2c <- res4c_branch2c
I0305 16:01:35.916853 12868 net.cpp:395] bn4c_branch2c -> res4c_branch2c (in-place)
I0305 16:01:35.917022 12868 net.cpp:150] Setting up bn4c_branch2c
I0305 16:01:35.917027 12868 net.cpp:157] Top shape: 32 1024 14 14 (6422528)
I0305 16:01:35.917029 12868 net.cpp:165] Memory required for data: 6236274816
I0305 16:01:35.917033 12868 layer_factory.hpp:77] Creating layer scale4c_branch2c
I0305 16:01:35.917037 12868 net.cpp:100] Creating Layer scale4c_branch2c
I0305 16:01:35.917039 12868 net.cpp:434] scale4c_branch2c <- res4c_branch2c
I0305 16:01:35.917052 12868 net.cpp:395] scale4c_branch2c -> res4c_branch2c (in-place)
I0305 16:01:35.917088 12868 layer_factory.hpp:77] Creating layer scale4c_branch2c
I0305 16:01:35.917191 12868 net.cpp:150] Setting up scale4c_branch2c
I0305 16:01:35.917196 12868 net.cpp:157] Top shape: 32 1024 14 14 (6422528)
I0305 16:01:35.917198 12868 net.cpp:165] Memory required for data: 6261964928
I0305 16:01:35.917202 12868 layer_factory.hpp:77] Creating layer res4c
I0305 16:01:35.917206 12868 net.cpp:100] Creating Layer res4c
I0305 16:01:35.917208 12868 net.cpp:434] res4c <- res4b_res4b_relu_0_split_1
I0305 16:01:35.917210 12868 net.cpp:434] res4c <- res4c_branch2c
I0305 16:01:35.917223 12868 net.cpp:408] res4c -> res4c
I0305 16:01:35.917242 12868 net.cpp:150] Setting up res4c
I0305 16:01:35.917256 12868 net.cpp:157] Top shape: 32 1024 14 14 (6422528)
I0305 16:01:35.917258 12868 net.cpp:165] Memory required for data: 6287655040
I0305 16:01:35.917259 12868 layer_factory.hpp:77] Creating layer res4c_relu
I0305 16:01:35.917263 12868 net.cpp:100] Creating Layer res4c_relu
I0305 16:01:35.917265 12868 net.cpp:434] res4c_relu <- res4c
I0305 16:01:35.917268 12868 net.cpp:395] res4c_relu -> res4c (in-place)
I0305 16:01:35.917405 12868 net.cpp:150] Setting up res4c_relu
I0305 16:01:35.917412 12868 net.cpp:157] Top shape: 32 1024 14 14 (6422528)
I0305 16:01:35.917414 12868 net.cpp:165] Memory required for data: 6313345152
I0305 16:01:35.917417 12868 layer_factory.hpp:77] Creating layer res4c_res4c_relu_0_split
I0305 16:01:35.917420 12868 net.cpp:100] Creating Layer res4c_res4c_relu_0_split
I0305 16:01:35.917423 12868 net.cpp:434] res4c_res4c_relu_0_split <- res4c
I0305 16:01:35.917425 12868 net.cpp:408] res4c_res4c_relu_0_split -> res4c_res4c_relu_0_split_0
I0305 16:01:35.917438 12868 net.cpp:408] res4c_res4c_relu_0_split -> res4c_res4c_relu_0_split_1
I0305 16:01:35.917480 12868 net.cpp:150] Setting up res4c_res4c_relu_0_split
I0305 16:01:35.917484 12868 net.cpp:157] Top shape: 32 1024 14 14 (6422528)
I0305 16:01:35.917486 12868 net.cpp:157] Top shape: 32 1024 14 14 (6422528)
I0305 16:01:35.917489 12868 net.cpp:165] Memory required for data: 6364725376
I0305 16:01:35.917490 12868 layer_factory.hpp:77] Creating layer res4d_branch2a
I0305 16:01:35.917495 12868 net.cpp:100] Creating Layer res4d_branch2a
I0305 16:01:35.917497 12868 net.cpp:434] res4d_branch2a <- res4c_res4c_relu_0_split_0
I0305 16:01:35.917510 12868 net.cpp:408] res4d_branch2a -> res4d_branch2a
I0305 16:01:35.918541 12868 net.cpp:150] Setting up res4d_branch2a
I0305 16:01:35.918550 12868 net.cpp:157] Top shape: 32 256 14 14 (1605632)
I0305 16:01:35.918552 12868 net.cpp:165] Memory required for data: 6371147904
I0305 16:01:35.918555 12868 layer_factory.hpp:77] Creating layer bn4d_branch2a
I0305 16:01:35.918560 12868 net.cpp:100] Creating Layer bn4d_branch2a
I0305 16:01:35.918562 12868 net.cpp:434] bn4d_branch2a <- res4d_branch2a
I0305 16:01:35.918576 12868 net.cpp:395] bn4d_branch2a -> res4d_branch2a (in-place)
I0305 16:01:35.918726 12868 net.cpp:150] Setting up bn4d_branch2a
I0305 16:01:35.918731 12868 net.cpp:157] Top shape: 32 256 14 14 (1605632)
I0305 16:01:35.918733 12868 net.cpp:165] Memory required for data: 6377570432
I0305 16:01:35.918738 12868 layer_factory.hpp:77] Creating layer scale4d_branch2a
I0305 16:01:35.918741 12868 net.cpp:100] Creating Layer scale4d_branch2a
I0305 16:01:35.918743 12868 net.cpp:434] scale4d_branch2a <- res4d_branch2a
I0305 16:01:35.918757 12868 net.cpp:395] scale4d_branch2a -> res4d_branch2a (in-place)
I0305 16:01:35.918797 12868 layer_factory.hpp:77] Creating layer scale4d_branch2a
I0305 16:01:35.918895 12868 net.cpp:150] Setting up scale4d_branch2a
I0305 16:01:35.918901 12868 net.cpp:157] Top shape: 32 256 14 14 (1605632)
I0305 16:01:35.918903 12868 net.cpp:165] Memory required for data: 6383992960
I0305 16:01:35.918906 12868 layer_factory.hpp:77] Creating layer res4d_branch2a_relu
I0305 16:01:35.918910 12868 net.cpp:100] Creating Layer res4d_branch2a_relu
I0305 16:01:35.918912 12868 net.cpp:434] res4d_branch2a_relu <- res4d_branch2a
I0305 16:01:35.918915 12868 net.cpp:395] res4d_branch2a_relu -> res4d_branch2a (in-place)
I0305 16:01:35.919147 12868 net.cpp:150] Setting up res4d_branch2a_relu
I0305 16:01:35.919154 12868 net.cpp:157] Top shape: 32 256 14 14 (1605632)
I0305 16:01:35.919157 12868 net.cpp:165] Memory required for data: 6390415488
I0305 16:01:35.919158 12868 layer_factory.hpp:77] Creating layer res4d_branch2b
I0305 16:01:35.919165 12868 net.cpp:100] Creating Layer res4d_branch2b
I0305 16:01:35.919168 12868 net.cpp:434] res4d_branch2b <- res4d_branch2a
I0305 16:01:35.919181 12868 net.cpp:408] res4d_branch2b -> res4d_branch2b
I0305 16:01:35.920547 12868 net.cpp:150] Setting up res4d_branch2b
I0305 16:01:35.920557 12868 net.cpp:157] Top shape: 32 256 14 14 (1605632)
I0305 16:01:35.920559 12868 net.cpp:165] Memory required for data: 6396838016
I0305 16:01:35.920563 12868 layer_factory.hpp:77] Creating layer bn4d_branch2b
I0305 16:01:35.920568 12868 net.cpp:100] Creating Layer bn4d_branch2b
I0305 16:01:35.920570 12868 net.cpp:434] bn4d_branch2b <- res4d_branch2b
I0305 16:01:35.920584 12868 net.cpp:395] bn4d_branch2b -> res4d_branch2b (in-place)
I0305 16:01:35.920737 12868 net.cpp:150] Setting up bn4d_branch2b
I0305 16:01:35.920742 12868 net.cpp:157] Top shape: 32 256 14 14 (1605632)
I0305 16:01:35.920743 12868 net.cpp:165] Memory required for data: 6403260544
I0305 16:01:35.920748 12868 layer_factory.hpp:77] Creating layer scale4d_branch2b
I0305 16:01:35.920752 12868 net.cpp:100] Creating Layer scale4d_branch2b
I0305 16:01:35.920753 12868 net.cpp:434] scale4d_branch2b <- res4d_branch2b
I0305 16:01:35.920768 12868 net.cpp:395] scale4d_branch2b -> res4d_branch2b (in-place)
I0305 16:01:35.920809 12868 layer_factory.hpp:77] Creating layer scale4d_branch2b
I0305 16:01:35.920910 12868 net.cpp:150] Setting up scale4d_branch2b
I0305 16:01:35.920917 12868 net.cpp:157] Top shape: 32 256 14 14 (1605632)
I0305 16:01:35.920917 12868 net.cpp:165] Memory required for data: 6409683072
I0305 16:01:35.920922 12868 layer_factory.hpp:77] Creating layer res4d_branch2b_relu
I0305 16:01:35.920924 12868 net.cpp:100] Creating Layer res4d_branch2b_relu
I0305 16:01:35.920927 12868 net.cpp:434] res4d_branch2b_relu <- res4d_branch2b
I0305 16:01:35.920929 12868 net.cpp:395] res4d_branch2b_relu -> res4d_branch2b (in-place)
I0305 16:01:35.921159 12868 net.cpp:150] Setting up res4d_branch2b_relu
I0305 16:01:35.921166 12868 net.cpp:157] Top shape: 32 256 14 14 (1605632)
I0305 16:01:35.921169 12868 net.cpp:165] Memory required for data: 6416105600
I0305 16:01:35.921170 12868 layer_factory.hpp:77] Creating layer res4d_branch2c
I0305 16:01:35.921176 12868 net.cpp:100] Creating Layer res4d_branch2c
I0305 16:01:35.921178 12868 net.cpp:434] res4d_branch2c <- res4d_branch2b
I0305 16:01:35.921191 12868 net.cpp:408] res4d_branch2c -> res4d_branch2c
I0305 16:01:35.922318 12868 net.cpp:150] Setting up res4d_branch2c
I0305 16:01:35.922327 12868 net.cpp:157] Top shape: 32 1024 14 14 (6422528)
I0305 16:01:35.922329 12868 net.cpp:165] Memory required for data: 6441795712
I0305 16:01:35.922333 12868 layer_factory.hpp:77] Creating layer bn4d_branch2c
I0305 16:01:35.922338 12868 net.cpp:100] Creating Layer bn4d_branch2c
I0305 16:01:35.922340 12868 net.cpp:434] bn4d_branch2c <- res4d_branch2c
I0305 16:01:35.922353 12868 net.cpp:395] bn4d_branch2c -> res4d_branch2c (in-place)
I0305 16:01:35.922509 12868 net.cpp:150] Setting up bn4d_branch2c
I0305 16:01:35.922514 12868 net.cpp:157] Top shape: 32 1024 14 14 (6422528)
I0305 16:01:35.922516 12868 net.cpp:165] Memory required for data: 6467485824
I0305 16:01:35.922521 12868 layer_factory.hpp:77] Creating layer scale4d_branch2c
I0305 16:01:35.922524 12868 net.cpp:100] Creating Layer scale4d_branch2c
I0305 16:01:35.922528 12868 net.cpp:434] scale4d_branch2c <- res4d_branch2c
I0305 16:01:35.922539 12868 net.cpp:395] scale4d_branch2c -> res4d_branch2c (in-place)
I0305 16:01:35.922576 12868 layer_factory.hpp:77] Creating layer scale4d_branch2c
I0305 16:01:35.922683 12868 net.cpp:150] Setting up scale4d_branch2c
I0305 16:01:35.922688 12868 net.cpp:157] Top shape: 32 1024 14 14 (6422528)
I0305 16:01:35.922688 12868 net.cpp:165] Memory required for data: 6493175936
I0305 16:01:35.922693 12868 layer_factory.hpp:77] Creating layer res4d
I0305 16:01:35.922696 12868 net.cpp:100] Creating Layer res4d
I0305 16:01:35.922699 12868 net.cpp:434] res4d <- res4c_res4c_relu_0_split_1
I0305 16:01:35.922701 12868 net.cpp:434] res4d <- res4d_branch2c
I0305 16:01:35.922715 12868 net.cpp:408] res4d -> res4d
I0305 16:01:35.922734 12868 net.cpp:150] Setting up res4d
I0305 16:01:35.922747 12868 net.cpp:157] Top shape: 32 1024 14 14 (6422528)
I0305 16:01:35.922749 12868 net.cpp:165] Memory required for data: 6518866048
I0305 16:01:35.922751 12868 layer_factory.hpp:77] Creating layer res4d_relu
I0305 16:01:35.922755 12868 net.cpp:100] Creating Layer res4d_relu
I0305 16:01:35.922757 12868 net.cpp:434] res4d_relu <- res4d
I0305 16:01:35.922760 12868 net.cpp:395] res4d_relu -> res4d (in-place)
I0305 16:01:35.922896 12868 net.cpp:150] Setting up res4d_relu
I0305 16:01:35.922904 12868 net.cpp:157] Top shape: 32 1024 14 14 (6422528)
I0305 16:01:35.922905 12868 net.cpp:165] Memory required for data: 6544556160
I0305 16:01:35.922907 12868 layer_factory.hpp:77] Creating layer res4d_res4d_relu_0_split
I0305 16:01:35.922911 12868 net.cpp:100] Creating Layer res4d_res4d_relu_0_split
I0305 16:01:35.922914 12868 net.cpp:434] res4d_res4d_relu_0_split <- res4d
I0305 16:01:35.922916 12868 net.cpp:408] res4d_res4d_relu_0_split -> res4d_res4d_relu_0_split_0
I0305 16:01:35.922930 12868 net.cpp:408] res4d_res4d_relu_0_split -> res4d_res4d_relu_0_split_1
I0305 16:01:35.922974 12868 net.cpp:150] Setting up res4d_res4d_relu_0_split
I0305 16:01:35.922978 12868 net.cpp:157] Top shape: 32 1024 14 14 (6422528)
I0305 16:01:35.922981 12868 net.cpp:157] Top shape: 32 1024 14 14 (6422528)
I0305 16:01:35.922982 12868 net.cpp:165] Memory required for data: 6595936384
I0305 16:01:35.922984 12868 layer_factory.hpp:77] Creating layer res4e_branch2a
I0305 16:01:35.922989 12868 net.cpp:100] Creating Layer res4e_branch2a
I0305 16:01:35.922991 12868 net.cpp:434] res4e_branch2a <- res4d_res4d_relu_0_split_0
I0305 16:01:35.923004 12868 net.cpp:408] res4e_branch2a -> res4e_branch2a
I0305 16:01:35.924041 12868 net.cpp:150] Setting up res4e_branch2a
I0305 16:01:35.924051 12868 net.cpp:157] Top shape: 32 256 14 14 (1605632)
I0305 16:01:35.924052 12868 net.cpp:165] Memory required for data: 6602358912
I0305 16:01:35.924055 12868 layer_factory.hpp:77] Creating layer bn4e_branch2a
I0305 16:01:35.924060 12868 net.cpp:100] Creating Layer bn4e_branch2a
I0305 16:01:35.924062 12868 net.cpp:434] bn4e_branch2a <- res4e_branch2a
I0305 16:01:35.924084 12868 net.cpp:395] bn4e_branch2a -> res4e_branch2a (in-place)
I0305 16:01:35.924240 12868 net.cpp:150] Setting up bn4e_branch2a
I0305 16:01:35.924245 12868 net.cpp:157] Top shape: 32 256 14 14 (1605632)
I0305 16:01:35.924247 12868 net.cpp:165] Memory required for data: 6608781440
I0305 16:01:35.924252 12868 layer_factory.hpp:77] Creating layer scale4e_branch2a
I0305 16:01:35.924257 12868 net.cpp:100] Creating Layer scale4e_branch2a
I0305 16:01:35.924259 12868 net.cpp:434] scale4e_branch2a <- res4e_branch2a
I0305 16:01:35.924271 12868 net.cpp:395] scale4e_branch2a -> res4e_branch2a (in-place)
I0305 16:01:35.924311 12868 layer_factory.hpp:77] Creating layer scale4e_branch2a
I0305 16:01:35.924415 12868 net.cpp:150] Setting up scale4e_branch2a
I0305 16:01:35.924420 12868 net.cpp:157] Top shape: 32 256 14 14 (1605632)
I0305 16:01:35.924422 12868 net.cpp:165] Memory required for data: 6615203968
I0305 16:01:35.924425 12868 layer_factory.hpp:77] Creating layer res4e_branch2a_relu
I0305 16:01:35.924429 12868 net.cpp:100] Creating Layer res4e_branch2a_relu
I0305 16:01:35.924432 12868 net.cpp:434] res4e_branch2a_relu <- res4e_branch2a
I0305 16:01:35.924434 12868 net.cpp:395] res4e_branch2a_relu -> res4e_branch2a (in-place)
I0305 16:01:35.924665 12868 net.cpp:150] Setting up res4e_branch2a_relu
I0305 16:01:35.924674 12868 net.cpp:157] Top shape: 32 256 14 14 (1605632)
I0305 16:01:35.924676 12868 net.cpp:165] Memory required for data: 6621626496
I0305 16:01:35.924679 12868 layer_factory.hpp:77] Creating layer res4e_branch2b
I0305 16:01:35.924684 12868 net.cpp:100] Creating Layer res4e_branch2b
I0305 16:01:35.924685 12868 net.cpp:434] res4e_branch2b <- res4e_branch2a
I0305 16:01:35.924700 12868 net.cpp:408] res4e_branch2b -> res4e_branch2b
I0305 16:01:35.926087 12868 net.cpp:150] Setting up res4e_branch2b
I0305 16:01:35.926097 12868 net.cpp:157] Top shape: 32 256 14 14 (1605632)
I0305 16:01:35.926100 12868 net.cpp:165] Memory required for data: 6628049024
I0305 16:01:35.926103 12868 layer_factory.hpp:77] Creating layer bn4e_branch2b
I0305 16:01:35.926107 12868 net.cpp:100] Creating Layer bn4e_branch2b
I0305 16:01:35.926110 12868 net.cpp:434] bn4e_branch2b <- res4e_branch2b
I0305 16:01:35.926123 12868 net.cpp:395] bn4e_branch2b -> res4e_branch2b (in-place)
I0305 16:01:35.926280 12868 net.cpp:150] Setting up bn4e_branch2b
I0305 16:01:35.926285 12868 net.cpp:157] Top shape: 32 256 14 14 (1605632)
I0305 16:01:35.926287 12868 net.cpp:165] Memory required for data: 6634471552
I0305 16:01:35.926291 12868 layer_factory.hpp:77] Creating layer scale4e_branch2b
I0305 16:01:35.926295 12868 net.cpp:100] Creating Layer scale4e_branch2b
I0305 16:01:35.926297 12868 net.cpp:434] scale4e_branch2b <- res4e_branch2b
I0305 16:01:35.926301 12868 net.cpp:395] scale4e_branch2b -> res4e_branch2b (in-place)
I0305 16:01:35.926352 12868 layer_factory.hpp:77] Creating layer scale4e_branch2b
I0305 16:01:35.926461 12868 net.cpp:150] Setting up scale4e_branch2b
I0305 16:01:35.926466 12868 net.cpp:157] Top shape: 32 256 14 14 (1605632)
I0305 16:01:35.926468 12868 net.cpp:165] Memory required for data: 6640894080
I0305 16:01:35.926472 12868 layer_factory.hpp:77] Creating layer res4e_branch2b_relu
I0305 16:01:35.926476 12868 net.cpp:100] Creating Layer res4e_branch2b_relu
I0305 16:01:35.926477 12868 net.cpp:434] res4e_branch2b_relu <- res4e_branch2b
I0305 16:01:35.926481 12868 net.cpp:395] res4e_branch2b_relu -> res4e_branch2b (in-place)
I0305 16:01:35.926714 12868 net.cpp:150] Setting up res4e_branch2b_relu
I0305 16:01:35.926723 12868 net.cpp:157] Top shape: 32 256 14 14 (1605632)
I0305 16:01:35.926725 12868 net.cpp:165] Memory required for data: 6647316608
I0305 16:01:35.926728 12868 layer_factory.hpp:77] Creating layer res4e_branch2c
I0305 16:01:35.926733 12868 net.cpp:100] Creating Layer res4e_branch2c
I0305 16:01:35.926734 12868 net.cpp:434] res4e_branch2c <- res4e_branch2b
I0305 16:01:35.926748 12868 net.cpp:408] res4e_branch2c -> res4e_branch2c
I0305 16:01:35.927805 12868 net.cpp:150] Setting up res4e_branch2c
I0305 16:01:35.927814 12868 net.cpp:157] Top shape: 32 1024 14 14 (6422528)
I0305 16:01:35.927816 12868 net.cpp:165] Memory required for data: 6673006720
I0305 16:01:35.927820 12868 layer_factory.hpp:77] Creating layer bn4e_branch2c
I0305 16:01:35.927824 12868 net.cpp:100] Creating Layer bn4e_branch2c
I0305 16:01:35.927826 12868 net.cpp:434] bn4e_branch2c <- res4e_branch2c
I0305 16:01:35.927839 12868 net.cpp:395] bn4e_branch2c -> res4e_branch2c (in-place)
I0305 16:01:35.927999 12868 net.cpp:150] Setting up bn4e_branch2c
I0305 16:01:35.928004 12868 net.cpp:157] Top shape: 32 1024 14 14 (6422528)
I0305 16:01:35.928006 12868 net.cpp:165] Memory required for data: 6698696832
I0305 16:01:35.928010 12868 layer_factory.hpp:77] Creating layer scale4e_branch2c
I0305 16:01:35.928014 12868 net.cpp:100] Creating Layer scale4e_branch2c
I0305 16:01:35.928016 12868 net.cpp:434] scale4e_branch2c <- res4e_branch2c
I0305 16:01:35.928020 12868 net.cpp:395] scale4e_branch2c -> res4e_branch2c (in-place)
I0305 16:01:35.928073 12868 layer_factory.hpp:77] Creating layer scale4e_branch2c
I0305 16:01:35.928190 12868 net.cpp:150] Setting up scale4e_branch2c
I0305 16:01:35.928197 12868 net.cpp:157] Top shape: 32 1024 14 14 (6422528)
I0305 16:01:35.928200 12868 net.cpp:165] Memory required for data: 6724386944
I0305 16:01:35.928202 12868 layer_factory.hpp:77] Creating layer res4e
I0305 16:01:35.928207 12868 net.cpp:100] Creating Layer res4e
I0305 16:01:35.928210 12868 net.cpp:434] res4e <- res4d_res4d_relu_0_split_1
I0305 16:01:35.928221 12868 net.cpp:434] res4e <- res4e_branch2c
I0305 16:01:35.928225 12868 net.cpp:408] res4e -> res4e
I0305 16:01:35.928243 12868 net.cpp:150] Setting up res4e
I0305 16:01:35.928258 12868 net.cpp:157] Top shape: 32 1024 14 14 (6422528)
I0305 16:01:35.928261 12868 net.cpp:165] Memory required for data: 6750077056
I0305 16:01:35.928262 12868 layer_factory.hpp:77] Creating layer res4e_relu
I0305 16:01:35.928266 12868 net.cpp:100] Creating Layer res4e_relu
I0305 16:01:35.928267 12868 net.cpp:434] res4e_relu <- res4e
I0305 16:01:35.928272 12868 net.cpp:395] res4e_relu -> res4e (in-place)
I0305 16:01:35.928412 12868 net.cpp:150] Setting up res4e_relu
I0305 16:01:35.928418 12868 net.cpp:157] Top shape: 32 1024 14 14 (6422528)
I0305 16:01:35.928421 12868 net.cpp:165] Memory required for data: 6775767168
I0305 16:01:35.928422 12868 layer_factory.hpp:77] Creating layer res4e_res4e_relu_0_split
I0305 16:01:35.928426 12868 net.cpp:100] Creating Layer res4e_res4e_relu_0_split
I0305 16:01:35.928428 12868 net.cpp:434] res4e_res4e_relu_0_split <- res4e
I0305 16:01:35.928432 12868 net.cpp:408] res4e_res4e_relu_0_split -> res4e_res4e_relu_0_split_0
I0305 16:01:35.928445 12868 net.cpp:408] res4e_res4e_relu_0_split -> res4e_res4e_relu_0_split_1
I0305 16:01:35.928488 12868 net.cpp:150] Setting up res4e_res4e_relu_0_split
I0305 16:01:35.928493 12868 net.cpp:157] Top shape: 32 1024 14 14 (6422528)
I0305 16:01:35.928494 12868 net.cpp:157] Top shape: 32 1024 14 14 (6422528)
I0305 16:01:35.928496 12868 net.cpp:165] Memory required for data: 6827147392
I0305 16:01:35.928498 12868 layer_factory.hpp:77] Creating layer res4f_branch2a
I0305 16:01:35.928503 12868 net.cpp:100] Creating Layer res4f_branch2a
I0305 16:01:35.928504 12868 net.cpp:434] res4f_branch2a <- res4e_res4e_relu_0_split_0
I0305 16:01:35.928517 12868 net.cpp:408] res4f_branch2a -> res4f_branch2a
I0305 16:01:35.929556 12868 net.cpp:150] Setting up res4f_branch2a
I0305 16:01:35.929566 12868 net.cpp:157] Top shape: 32 256 14 14 (1605632)
I0305 16:01:35.929569 12868 net.cpp:165] Memory required for data: 6833569920
I0305 16:01:35.929572 12868 layer_factory.hpp:77] Creating layer bn4f_branch2a
I0305 16:01:35.929576 12868 net.cpp:100] Creating Layer bn4f_branch2a
I0305 16:01:35.929579 12868 net.cpp:434] bn4f_branch2a <- res4f_branch2a
I0305 16:01:35.929590 12868 net.cpp:395] bn4f_branch2a -> res4f_branch2a (in-place)
I0305 16:01:35.929749 12868 net.cpp:150] Setting up bn4f_branch2a
I0305 16:01:35.929754 12868 net.cpp:157] Top shape: 32 256 14 14 (1605632)
I0305 16:01:35.929755 12868 net.cpp:165] Memory required for data: 6839992448
I0305 16:01:35.929759 12868 layer_factory.hpp:77] Creating layer scale4f_branch2a
I0305 16:01:35.929764 12868 net.cpp:100] Creating Layer scale4f_branch2a
I0305 16:01:35.929765 12868 net.cpp:434] scale4f_branch2a <- res4f_branch2a
I0305 16:01:35.929767 12868 net.cpp:395] scale4f_branch2a -> res4f_branch2a (in-place)
I0305 16:01:35.929819 12868 layer_factory.hpp:77] Creating layer scale4f_branch2a
I0305 16:01:35.929929 12868 net.cpp:150] Setting up scale4f_branch2a
I0305 16:01:35.929934 12868 net.cpp:157] Top shape: 32 256 14 14 (1605632)
I0305 16:01:35.929936 12868 net.cpp:165] Memory required for data: 6846414976
I0305 16:01:35.929939 12868 layer_factory.hpp:77] Creating layer res4f_branch2a_relu
I0305 16:01:35.929944 12868 net.cpp:100] Creating Layer res4f_branch2a_relu
I0305 16:01:35.929945 12868 net.cpp:434] res4f_branch2a_relu <- res4f_branch2a
I0305 16:01:35.929949 12868 net.cpp:395] res4f_branch2a_relu -> res4f_branch2a (in-place)
I0305 16:01:35.930183 12868 net.cpp:150] Setting up res4f_branch2a_relu
I0305 16:01:35.930191 12868 net.cpp:157] Top shape: 32 256 14 14 (1605632)
I0305 16:01:35.930193 12868 net.cpp:165] Memory required for data: 6852837504
I0305 16:01:35.930196 12868 layer_factory.hpp:77] Creating layer res4f_branch2b
I0305 16:01:35.930200 12868 net.cpp:100] Creating Layer res4f_branch2b
I0305 16:01:35.930202 12868 net.cpp:434] res4f_branch2b <- res4f_branch2a
I0305 16:01:35.930215 12868 net.cpp:408] res4f_branch2b -> res4f_branch2b
I0305 16:01:35.931607 12868 net.cpp:150] Setting up res4f_branch2b
I0305 16:01:35.931617 12868 net.cpp:157] Top shape: 32 256 14 14 (1605632)
I0305 16:01:35.931619 12868 net.cpp:165] Memory required for data: 6859260032
I0305 16:01:35.931622 12868 layer_factory.hpp:77] Creating layer bn4f_branch2b
I0305 16:01:35.931627 12868 net.cpp:100] Creating Layer bn4f_branch2b
I0305 16:01:35.931629 12868 net.cpp:434] bn4f_branch2b <- res4f_branch2b
I0305 16:01:35.931643 12868 net.cpp:395] bn4f_branch2b -> res4f_branch2b (in-place)
I0305 16:01:35.931815 12868 net.cpp:150] Setting up bn4f_branch2b
I0305 16:01:35.931821 12868 net.cpp:157] Top shape: 32 256 14 14 (1605632)
I0305 16:01:35.931823 12868 net.cpp:165] Memory required for data: 6865682560
I0305 16:01:35.931828 12868 layer_factory.hpp:77] Creating layer scale4f_branch2b
I0305 16:01:35.931833 12868 net.cpp:100] Creating Layer scale4f_branch2b
I0305 16:01:35.931834 12868 net.cpp:434] scale4f_branch2b <- res4f_branch2b
I0305 16:01:35.931846 12868 net.cpp:395] scale4f_branch2b -> res4f_branch2b (in-place)
I0305 16:01:35.931888 12868 layer_factory.hpp:77] Creating layer scale4f_branch2b
I0305 16:01:35.931994 12868 net.cpp:150] Setting up scale4f_branch2b
I0305 16:01:35.931999 12868 net.cpp:157] Top shape: 32 256 14 14 (1605632)
I0305 16:01:35.932000 12868 net.cpp:165] Memory required for data: 6872105088
I0305 16:01:35.932004 12868 layer_factory.hpp:77] Creating layer res4f_branch2b_relu
I0305 16:01:35.932008 12868 net.cpp:100] Creating Layer res4f_branch2b_relu
I0305 16:01:35.932010 12868 net.cpp:434] res4f_branch2b_relu <- res4f_branch2b
I0305 16:01:35.932013 12868 net.cpp:395] res4f_branch2b_relu -> res4f_branch2b (in-place)
I0305 16:01:35.932255 12868 net.cpp:150] Setting up res4f_branch2b_relu
I0305 16:01:35.932263 12868 net.cpp:157] Top shape: 32 256 14 14 (1605632)
I0305 16:01:35.932265 12868 net.cpp:165] Memory required for data: 6878527616
I0305 16:01:35.932267 12868 layer_factory.hpp:77] Creating layer res4f_branch2c
I0305 16:01:35.932273 12868 net.cpp:100] Creating Layer res4f_branch2c
I0305 16:01:35.932276 12868 net.cpp:434] res4f_branch2c <- res4f_branch2b
I0305 16:01:35.932288 12868 net.cpp:408] res4f_branch2c -> res4f_branch2c
I0305 16:01:35.933356 12868 net.cpp:150] Setting up res4f_branch2c
I0305 16:01:35.933364 12868 net.cpp:157] Top shape: 32 1024 14 14 (6422528)
I0305 16:01:35.933367 12868 net.cpp:165] Memory required for data: 6904217728
I0305 16:01:35.933370 12868 layer_factory.hpp:77] Creating layer bn4f_branch2c
I0305 16:01:35.933375 12868 net.cpp:100] Creating Layer bn4f_branch2c
I0305 16:01:35.933377 12868 net.cpp:434] bn4f_branch2c <- res4f_branch2c
I0305 16:01:35.933390 12868 net.cpp:395] bn4f_branch2c -> res4f_branch2c (in-place)
I0305 16:01:35.933557 12868 net.cpp:150] Setting up bn4f_branch2c
I0305 16:01:35.933562 12868 net.cpp:157] Top shape: 32 1024 14 14 (6422528)
I0305 16:01:35.933563 12868 net.cpp:165] Memory required for data: 6929907840
I0305 16:01:35.933611 12868 layer_factory.hpp:77] Creating layer scale4f_branch2c
I0305 16:01:35.933616 12868 net.cpp:100] Creating Layer scale4f_branch2c
I0305 16:01:35.933619 12868 net.cpp:434] scale4f_branch2c <- res4f_branch2c
I0305 16:01:35.933621 12868 net.cpp:395] scale4f_branch2c -> res4f_branch2c (in-place)
I0305 16:01:35.933676 12868 layer_factory.hpp:77] Creating layer scale4f_branch2c
I0305 16:01:35.933785 12868 net.cpp:150] Setting up scale4f_branch2c
I0305 16:01:35.933790 12868 net.cpp:157] Top shape: 32 1024 14 14 (6422528)
I0305 16:01:35.933792 12868 net.cpp:165] Memory required for data: 6955597952
I0305 16:01:35.933795 12868 layer_factory.hpp:77] Creating layer res4f
I0305 16:01:35.933799 12868 net.cpp:100] Creating Layer res4f
I0305 16:01:35.933802 12868 net.cpp:434] res4f <- res4e_res4e_relu_0_split_1
I0305 16:01:35.933804 12868 net.cpp:434] res4f <- res4f_branch2c
I0305 16:01:35.933817 12868 net.cpp:408] res4f -> res4f
I0305 16:01:35.933837 12868 net.cpp:150] Setting up res4f
I0305 16:01:35.933852 12868 net.cpp:157] Top shape: 32 1024 14 14 (6422528)
I0305 16:01:35.933854 12868 net.cpp:165] Memory required for data: 6981288064
I0305 16:01:35.933856 12868 layer_factory.hpp:77] Creating layer res4f_relu
I0305 16:01:35.933859 12868 net.cpp:100] Creating Layer res4f_relu
I0305 16:01:35.933861 12868 net.cpp:434] res4f_relu <- res4f
I0305 16:01:35.933864 12868 net.cpp:395] res4f_relu -> res4f (in-place)
I0305 16:01:35.934007 12868 net.cpp:150] Setting up res4f_relu
I0305 16:01:35.934015 12868 net.cpp:157] Top shape: 32 1024 14 14 (6422528)
I0305 16:01:35.934016 12868 net.cpp:165] Memory required for data: 7006978176
I0305 16:01:35.934018 12868 layer_factory.hpp:77] Creating layer res4f_res4f_relu_0_split
I0305 16:01:35.934022 12868 net.cpp:100] Creating Layer res4f_res4f_relu_0_split
I0305 16:01:35.934025 12868 net.cpp:434] res4f_res4f_relu_0_split <- res4f
I0305 16:01:35.934027 12868 net.cpp:408] res4f_res4f_relu_0_split -> res4f_res4f_relu_0_split_0
I0305 16:01:35.934041 12868 net.cpp:408] res4f_res4f_relu_0_split -> res4f_res4f_relu_0_split_1
I0305 16:01:35.934084 12868 net.cpp:150] Setting up res4f_res4f_relu_0_split
I0305 16:01:35.934089 12868 net.cpp:157] Top shape: 32 1024 14 14 (6422528)
I0305 16:01:35.934092 12868 net.cpp:157] Top shape: 32 1024 14 14 (6422528)
I0305 16:01:35.934093 12868 net.cpp:165] Memory required for data: 7058358400
I0305 16:01:35.934095 12868 layer_factory.hpp:77] Creating layer res5a_branch1
I0305 16:01:35.934099 12868 net.cpp:100] Creating Layer res5a_branch1
I0305 16:01:35.934103 12868 net.cpp:434] res5a_branch1 <- res4f_res4f_relu_0_split_0
I0305 16:01:35.934114 12868 net.cpp:408] res5a_branch1 -> res5a_branch1
I0305 16:01:35.937577 12868 net.cpp:150] Setting up res5a_branch1
I0305 16:01:35.937602 12868 net.cpp:157] Top shape: 32 2048 7 7 (3211264)
I0305 16:01:35.937605 12868 net.cpp:165] Memory required for data: 7071203456
I0305 16:01:35.937611 12868 layer_factory.hpp:77] Creating layer bn5a_branch1
I0305 16:01:35.937620 12868 net.cpp:100] Creating Layer bn5a_branch1
I0305 16:01:35.937633 12868 net.cpp:434] bn5a_branch1 <- res5a_branch1
I0305 16:01:35.937638 12868 net.cpp:395] bn5a_branch1 -> res5a_branch1 (in-place)
I0305 16:01:35.937825 12868 net.cpp:150] Setting up bn5a_branch1
I0305 16:01:35.937830 12868 net.cpp:157] Top shape: 32 2048 7 7 (3211264)
I0305 16:01:35.937832 12868 net.cpp:165] Memory required for data: 7084048512
I0305 16:01:35.937839 12868 layer_factory.hpp:77] Creating layer scale5a_branch1
I0305 16:01:35.937844 12868 net.cpp:100] Creating Layer scale5a_branch1
I0305 16:01:35.937845 12868 net.cpp:434] scale5a_branch1 <- res5a_branch1
I0305 16:01:35.937857 12868 net.cpp:395] scale5a_branch1 -> res5a_branch1 (in-place)
I0305 16:01:35.937906 12868 layer_factory.hpp:77] Creating layer scale5a_branch1
I0305 16:01:35.938021 12868 net.cpp:150] Setting up scale5a_branch1
I0305 16:01:35.938026 12868 net.cpp:157] Top shape: 32 2048 7 7 (3211264)
I0305 16:01:35.938029 12868 net.cpp:165] Memory required for data: 7096893568
I0305 16:01:35.938031 12868 layer_factory.hpp:77] Creating layer res5a_branch2a
I0305 16:01:35.938038 12868 net.cpp:100] Creating Layer res5a_branch2a
I0305 16:01:35.938051 12868 net.cpp:434] res5a_branch2a <- res4f_res4f_relu_0_split_1
I0305 16:01:35.938055 12868 net.cpp:408] res5a_branch2a -> res5a_branch2a
I0305 16:01:35.939497 12868 net.cpp:150] Setting up res5a_branch2a
I0305 16:01:35.939507 12868 net.cpp:157] Top shape: 32 512 7 7 (802816)
I0305 16:01:35.939509 12868 net.cpp:165] Memory required for data: 7100104832
I0305 16:01:35.939513 12868 layer_factory.hpp:77] Creating layer bn5a_branch2a
I0305 16:01:35.939517 12868 net.cpp:100] Creating Layer bn5a_branch2a
I0305 16:01:35.939519 12868 net.cpp:434] bn5a_branch2a <- res5a_branch2a
I0305 16:01:35.939532 12868 net.cpp:395] bn5a_branch2a -> res5a_branch2a (in-place)
I0305 16:01:35.939702 12868 net.cpp:150] Setting up bn5a_branch2a
I0305 16:01:35.939707 12868 net.cpp:157] Top shape: 32 512 7 7 (802816)
I0305 16:01:35.939708 12868 net.cpp:165] Memory required for data: 7103316096
I0305 16:01:35.939713 12868 layer_factory.hpp:77] Creating layer scale5a_branch2a
I0305 16:01:35.939716 12868 net.cpp:100] Creating Layer scale5a_branch2a
I0305 16:01:35.939718 12868 net.cpp:434] scale5a_branch2a <- res5a_branch2a
I0305 16:01:35.939721 12868 net.cpp:395] scale5a_branch2a -> res5a_branch2a (in-place)
I0305 16:01:35.939760 12868 layer_factory.hpp:77] Creating layer scale5a_branch2a
I0305 16:01:35.939883 12868 net.cpp:150] Setting up scale5a_branch2a
I0305 16:01:35.939888 12868 net.cpp:157] Top shape: 32 512 7 7 (802816)
I0305 16:01:35.939890 12868 net.cpp:165] Memory required for data: 7106527360
I0305 16:01:35.939894 12868 layer_factory.hpp:77] Creating layer res5a_branch2a_relu
I0305 16:01:35.939898 12868 net.cpp:100] Creating Layer res5a_branch2a_relu
I0305 16:01:35.939899 12868 net.cpp:434] res5a_branch2a_relu <- res5a_branch2a
I0305 16:01:35.939903 12868 net.cpp:395] res5a_branch2a_relu -> res5a_branch2a (in-place)
I0305 16:01:35.940047 12868 net.cpp:150] Setting up res5a_branch2a_relu
I0305 16:01:35.940052 12868 net.cpp:157] Top shape: 32 512 7 7 (802816)
I0305 16:01:35.940054 12868 net.cpp:165] Memory required for data: 7109738624
I0305 16:01:35.940057 12868 layer_factory.hpp:77] Creating layer res5a_branch2b
I0305 16:01:35.940062 12868 net.cpp:100] Creating Layer res5a_branch2b
I0305 16:01:35.940078 12868 net.cpp:434] res5a_branch2b <- res5a_branch2a
I0305 16:01:35.940081 12868 net.cpp:408] res5a_branch2b -> res5a_branch2b
I0305 16:01:35.944034 12868 net.cpp:150] Setting up res5a_branch2b
I0305 16:01:35.944062 12868 net.cpp:157] Top shape: 32 512 7 7 (802816)
I0305 16:01:35.944074 12868 net.cpp:165] Memory required for data: 7112949888
I0305 16:01:35.944079 12868 layer_factory.hpp:77] Creating layer bn5a_branch2b
I0305 16:01:35.944098 12868 net.cpp:100] Creating Layer bn5a_branch2b
I0305 16:01:35.944103 12868 net.cpp:434] bn5a_branch2b <- res5a_branch2b
I0305 16:01:35.944108 12868 net.cpp:395] bn5a_branch2b -> res5a_branch2b (in-place)
I0305 16:01:35.944289 12868 net.cpp:150] Setting up bn5a_branch2b
I0305 16:01:35.944294 12868 net.cpp:157] Top shape: 32 512 7 7 (802816)
I0305 16:01:35.944296 12868 net.cpp:165] Memory required for data: 7116161152
I0305 16:01:35.944301 12868 layer_factory.hpp:77] Creating layer scale5a_branch2b
I0305 16:01:35.944306 12868 net.cpp:100] Creating Layer scale5a_branch2b
I0305 16:01:35.944308 12868 net.cpp:434] scale5a_branch2b <- res5a_branch2b
I0305 16:01:35.944311 12868 net.cpp:395] scale5a_branch2b -> res5a_branch2b (in-place)
I0305 16:01:35.944356 12868 layer_factory.hpp:77] Creating layer scale5a_branch2b
I0305 16:01:35.944512 12868 net.cpp:150] Setting up scale5a_branch2b
I0305 16:01:35.944517 12868 net.cpp:157] Top shape: 32 512 7 7 (802816)
I0305 16:01:35.944528 12868 net.cpp:165] Memory required for data: 7119372416
I0305 16:01:35.944532 12868 layer_factory.hpp:77] Creating layer res5a_branch2b_relu
I0305 16:01:35.944536 12868 net.cpp:100] Creating Layer res5a_branch2b_relu
I0305 16:01:35.944547 12868 net.cpp:434] res5a_branch2b_relu <- res5a_branch2b
I0305 16:01:35.944551 12868 net.cpp:395] res5a_branch2b_relu -> res5a_branch2b (in-place)
I0305 16:01:35.944787 12868 net.cpp:150] Setting up res5a_branch2b_relu
I0305 16:01:35.944795 12868 net.cpp:157] Top shape: 32 512 7 7 (802816)
I0305 16:01:35.944808 12868 net.cpp:165] Memory required for data: 7122583680
I0305 16:01:35.944809 12868 layer_factory.hpp:77] Creating layer res5a_branch2c
I0305 16:01:35.944825 12868 net.cpp:100] Creating Layer res5a_branch2c
I0305 16:01:35.944828 12868 net.cpp:434] res5a_branch2c <- res5a_branch2b
I0305 16:01:35.944831 12868 net.cpp:408] res5a_branch2c -> res5a_branch2c
I0305 16:01:35.946643 12868 net.cpp:150] Setting up res5a_branch2c
I0305 16:01:35.946655 12868 net.cpp:157] Top shape: 32 2048 7 7 (3211264)
I0305 16:01:35.946656 12868 net.cpp:165] Memory required for data: 7135428736
I0305 16:01:35.946660 12868 layer_factory.hpp:77] Creating layer bn5a_branch2c
I0305 16:01:35.946666 12868 net.cpp:100] Creating Layer bn5a_branch2c
I0305 16:01:35.946667 12868 net.cpp:434] bn5a_branch2c <- res5a_branch2c
I0305 16:01:35.946681 12868 net.cpp:395] bn5a_branch2c -> res5a_branch2c (in-place)
I0305 16:01:35.946859 12868 net.cpp:150] Setting up bn5a_branch2c
I0305 16:01:35.946864 12868 net.cpp:157] Top shape: 32 2048 7 7 (3211264)
I0305 16:01:35.946866 12868 net.cpp:165] Memory required for data: 7148273792
I0305 16:01:35.946871 12868 layer_factory.hpp:77] Creating layer scale5a_branch2c
I0305 16:01:35.946876 12868 net.cpp:100] Creating Layer scale5a_branch2c
I0305 16:01:35.946877 12868 net.cpp:434] scale5a_branch2c <- res5a_branch2c
I0305 16:01:35.946890 12868 net.cpp:395] scale5a_branch2c -> res5a_branch2c (in-place)
I0305 16:01:35.946923 12868 layer_factory.hpp:77] Creating layer scale5a_branch2c
I0305 16:01:35.947052 12868 net.cpp:150] Setting up scale5a_branch2c
I0305 16:01:35.947057 12868 net.cpp:157] Top shape: 32 2048 7 7 (3211264)
I0305 16:01:35.947059 12868 net.cpp:165] Memory required for data: 7161118848
I0305 16:01:35.947063 12868 layer_factory.hpp:77] Creating layer res5a
I0305 16:01:35.947067 12868 net.cpp:100] Creating Layer res5a
I0305 16:01:35.947068 12868 net.cpp:434] res5a <- res5a_branch1
I0305 16:01:35.947072 12868 net.cpp:434] res5a <- res5a_branch2c
I0305 16:01:35.947075 12868 net.cpp:408] res5a -> res5a
I0305 16:01:35.947106 12868 net.cpp:150] Setting up res5a
I0305 16:01:35.947113 12868 net.cpp:157] Top shape: 32 2048 7 7 (3211264)
I0305 16:01:35.947114 12868 net.cpp:165] Memory required for data: 7173963904
I0305 16:01:35.947116 12868 layer_factory.hpp:77] Creating layer res5a_relu
I0305 16:01:35.947119 12868 net.cpp:100] Creating Layer res5a_relu
I0305 16:01:35.947121 12868 net.cpp:434] res5a_relu <- res5a
I0305 16:01:35.947124 12868 net.cpp:395] res5a_relu -> res5a (in-place)
I0305 16:01:35.947361 12868 net.cpp:150] Setting up res5a_relu
I0305 16:01:35.947369 12868 net.cpp:157] Top shape: 32 2048 7 7 (3211264)
I0305 16:01:35.947381 12868 net.cpp:165] Memory required for data: 7186808960
I0305 16:01:35.947383 12868 layer_factory.hpp:77] Creating layer res5a_res5a_relu_0_split
I0305 16:01:35.947388 12868 net.cpp:100] Creating Layer res5a_res5a_relu_0_split
I0305 16:01:35.947391 12868 net.cpp:434] res5a_res5a_relu_0_split <- res5a
I0305 16:01:35.947404 12868 net.cpp:408] res5a_res5a_relu_0_split -> res5a_res5a_relu_0_split_0
I0305 16:01:35.947408 12868 net.cpp:408] res5a_res5a_relu_0_split -> res5a_res5a_relu_0_split_1
I0305 16:01:35.947453 12868 net.cpp:150] Setting up res5a_res5a_relu_0_split
I0305 16:01:35.947468 12868 net.cpp:157] Top shape: 32 2048 7 7 (3211264)
I0305 16:01:35.947469 12868 net.cpp:157] Top shape: 32 2048 7 7 (3211264)
I0305 16:01:35.947471 12868 net.cpp:165] Memory required for data: 7212499072
I0305 16:01:35.947474 12868 layer_factory.hpp:77] Creating layer res5b_branch2a
I0305 16:01:35.947487 12868 net.cpp:100] Creating Layer res5b_branch2a
I0305 16:01:35.947490 12868 net.cpp:434] res5b_branch2a <- res5a_res5a_relu_0_split_0
I0305 16:01:35.947494 12868 net.cpp:408] res5b_branch2a -> res5b_branch2a
I0305 16:01:35.949535 12868 net.cpp:150] Setting up res5b_branch2a
I0305 16:01:35.949553 12868 net.cpp:157] Top shape: 32 512 7 7 (802816)
I0305 16:01:35.949554 12868 net.cpp:165] Memory required for data: 7215710336
I0305 16:01:35.949558 12868 layer_factory.hpp:77] Creating layer bn5b_branch2a
I0305 16:01:35.949565 12868 net.cpp:100] Creating Layer bn5b_branch2a
I0305 16:01:35.949568 12868 net.cpp:434] bn5b_branch2a <- res5b_branch2a
I0305 16:01:35.949571 12868 net.cpp:395] bn5b_branch2a -> res5b_branch2a (in-place)
I0305 16:01:35.949761 12868 net.cpp:150] Setting up bn5b_branch2a
I0305 16:01:35.949766 12868 net.cpp:157] Top shape: 32 512 7 7 (802816)
I0305 16:01:35.949769 12868 net.cpp:165] Memory required for data: 7218921600
I0305 16:01:35.949774 12868 layer_factory.hpp:77] Creating layer scale5b_branch2a
I0305 16:01:35.949777 12868 net.cpp:100] Creating Layer scale5b_branch2a
I0305 16:01:35.949779 12868 net.cpp:434] scale5b_branch2a <- res5b_branch2a
I0305 16:01:35.949782 12868 net.cpp:395] scale5b_branch2a -> res5b_branch2a (in-place)
I0305 16:01:35.949836 12868 layer_factory.hpp:77] Creating layer scale5b_branch2a
I0305 16:01:35.949978 12868 net.cpp:150] Setting up scale5b_branch2a
I0305 16:01:35.949985 12868 net.cpp:157] Top shape: 32 512 7 7 (802816)
I0305 16:01:35.949987 12868 net.cpp:165] Memory required for data: 7222132864
I0305 16:01:35.949991 12868 layer_factory.hpp:77] Creating layer res5b_branch2a_relu
I0305 16:01:35.949996 12868 net.cpp:100] Creating Layer res5b_branch2a_relu
I0305 16:01:35.949998 12868 net.cpp:434] res5b_branch2a_relu <- res5b_branch2a
I0305 16:01:35.950001 12868 net.cpp:395] res5b_branch2a_relu -> res5b_branch2a (in-place)
I0305 16:01:35.950139 12868 net.cpp:150] Setting up res5b_branch2a_relu
I0305 16:01:35.950147 12868 net.cpp:157] Top shape: 32 512 7 7 (802816)
I0305 16:01:35.950150 12868 net.cpp:165] Memory required for data: 7225344128
I0305 16:01:35.950152 12868 layer_factory.hpp:77] Creating layer res5b_branch2b
I0305 16:01:35.950158 12868 net.cpp:100] Creating Layer res5b_branch2b
I0305 16:01:35.950160 12868 net.cpp:434] res5b_branch2b <- res5b_branch2a
I0305 16:01:35.950165 12868 net.cpp:408] res5b_branch2b -> res5b_branch2b
I0305 16:01:35.954200 12868 net.cpp:150] Setting up res5b_branch2b
I0305 16:01:35.954227 12868 net.cpp:157] Top shape: 32 512 7 7 (802816)
I0305 16:01:35.954231 12868 net.cpp:165] Memory required for data: 7228555392
I0305 16:01:35.954236 12868 layer_factory.hpp:77] Creating layer bn5b_branch2b
I0305 16:01:35.954246 12868 net.cpp:100] Creating Layer bn5b_branch2b
I0305 16:01:35.954249 12868 net.cpp:434] bn5b_branch2b <- res5b_branch2b
I0305 16:01:35.954254 12868 net.cpp:395] bn5b_branch2b -> res5b_branch2b (in-place)
I0305 16:01:35.954463 12868 net.cpp:150] Setting up bn5b_branch2b
I0305 16:01:35.954469 12868 net.cpp:157] Top shape: 32 512 7 7 (802816)
I0305 16:01:35.954481 12868 net.cpp:165] Memory required for data: 7231766656
I0305 16:01:35.954486 12868 layer_factory.hpp:77] Creating layer scale5b_branch2b
I0305 16:01:35.954493 12868 net.cpp:100] Creating Layer scale5b_branch2b
I0305 16:01:35.954499 12868 net.cpp:434] scale5b_branch2b <- res5b_branch2b
I0305 16:01:35.954504 12868 net.cpp:395] scale5b_branch2b -> res5b_branch2b (in-place)
I0305 16:01:35.954565 12868 layer_factory.hpp:77] Creating layer scale5b_branch2b
I0305 16:01:35.954694 12868 net.cpp:150] Setting up scale5b_branch2b
I0305 16:01:35.954699 12868 net.cpp:157] Top shape: 32 512 7 7 (802816)
I0305 16:01:35.954711 12868 net.cpp:165] Memory required for data: 7234977920
I0305 16:01:35.954715 12868 layer_factory.hpp:77] Creating layer res5b_branch2b_relu
I0305 16:01:35.954721 12868 net.cpp:100] Creating Layer res5b_branch2b_relu
I0305 16:01:35.954725 12868 net.cpp:434] res5b_branch2b_relu <- res5b_branch2b
I0305 16:01:35.954730 12868 net.cpp:395] res5b_branch2b_relu -> res5b_branch2b (in-place)
I0305 16:01:35.954974 12868 net.cpp:150] Setting up res5b_branch2b_relu
I0305 16:01:35.954983 12868 net.cpp:157] Top shape: 32 512 7 7 (802816)
I0305 16:01:35.954994 12868 net.cpp:165] Memory required for data: 7238189184
I0305 16:01:35.954998 12868 layer_factory.hpp:77] Creating layer res5b_branch2c
I0305 16:01:35.955005 12868 net.cpp:100] Creating Layer res5b_branch2c
I0305 16:01:35.955009 12868 net.cpp:434] res5b_branch2c <- res5b_branch2b
I0305 16:01:35.955016 12868 net.cpp:408] res5b_branch2c -> res5b_branch2c
I0305 16:01:35.956861 12868 net.cpp:150] Setting up res5b_branch2c
I0305 16:01:35.956871 12868 net.cpp:157] Top shape: 32 2048 7 7 (3211264)
I0305 16:01:35.956873 12868 net.cpp:165] Memory required for data: 7251034240
I0305 16:01:35.956877 12868 layer_factory.hpp:77] Creating layer bn5b_branch2c
I0305 16:01:35.956882 12868 net.cpp:100] Creating Layer bn5b_branch2c
I0305 16:01:35.956884 12868 net.cpp:434] bn5b_branch2c <- res5b_branch2c
I0305 16:01:35.956890 12868 net.cpp:395] bn5b_branch2c -> res5b_branch2c (in-place)
I0305 16:01:35.957075 12868 net.cpp:150] Setting up bn5b_branch2c
I0305 16:01:35.957082 12868 net.cpp:157] Top shape: 32 2048 7 7 (3211264)
I0305 16:01:35.957085 12868 net.cpp:165] Memory required for data: 7263879296
I0305 16:01:35.957093 12868 layer_factory.hpp:77] Creating layer scale5b_branch2c
I0305 16:01:35.957111 12868 net.cpp:100] Creating Layer scale5b_branch2c
I0305 16:01:35.957115 12868 net.cpp:434] scale5b_branch2c <- res5b_branch2c
I0305 16:01:35.957123 12868 net.cpp:395] scale5b_branch2c -> res5b_branch2c (in-place)
I0305 16:01:35.957180 12868 layer_factory.hpp:77] Creating layer scale5b_branch2c
I0305 16:01:35.957295 12868 net.cpp:150] Setting up scale5b_branch2c
I0305 16:01:35.957301 12868 net.cpp:157] Top shape: 32 2048 7 7 (3211264)
I0305 16:01:35.957312 12868 net.cpp:165] Memory required for data: 7276724352
I0305 16:01:35.957316 12868 layer_factory.hpp:77] Creating layer res5b
I0305 16:01:35.957319 12868 net.cpp:100] Creating Layer res5b
I0305 16:01:35.957331 12868 net.cpp:434] res5b <- res5a_res5a_relu_0_split_1
I0305 16:01:35.957334 12868 net.cpp:434] res5b <- res5b_branch2c
I0305 16:01:35.957340 12868 net.cpp:408] res5b -> res5b
I0305 16:01:35.957381 12868 net.cpp:150] Setting up res5b
I0305 16:01:35.957386 12868 net.cpp:157] Top shape: 32 2048 7 7 (3211264)
I0305 16:01:35.957398 12868 net.cpp:165] Memory required for data: 7289569408
I0305 16:01:35.957401 12868 layer_factory.hpp:77] Creating layer res5b_relu
I0305 16:01:35.957407 12868 net.cpp:100] Creating Layer res5b_relu
I0305 16:01:35.957412 12868 net.cpp:434] res5b_relu <- res5b
I0305 16:01:35.957417 12868 net.cpp:395] res5b_relu -> res5b (in-place)
I0305 16:01:35.957653 12868 net.cpp:150] Setting up res5b_relu
I0305 16:01:35.957661 12868 net.cpp:157] Top shape: 32 2048 7 7 (3211264)
I0305 16:01:35.957674 12868 net.cpp:165] Memory required for data: 7302414464
I0305 16:01:35.957675 12868 layer_factory.hpp:77] Creating layer res5b_res5b_relu_0_split
I0305 16:01:35.957682 12868 net.cpp:100] Creating Layer res5b_res5b_relu_0_split
I0305 16:01:35.957686 12868 net.cpp:434] res5b_res5b_relu_0_split <- res5b
I0305 16:01:35.957691 12868 net.cpp:408] res5b_res5b_relu_0_split -> res5b_res5b_relu_0_split_0
I0305 16:01:35.957700 12868 net.cpp:408] res5b_res5b_relu_0_split -> res5b_res5b_relu_0_split_1
I0305 16:01:35.957748 12868 net.cpp:150] Setting up res5b_res5b_relu_0_split
I0305 16:01:35.957754 12868 net.cpp:157] Top shape: 32 2048 7 7 (3211264)
I0305 16:01:35.957761 12868 net.cpp:157] Top shape: 32 2048 7 7 (3211264)
I0305 16:01:35.957764 12868 net.cpp:165] Memory required for data: 7328104576
I0305 16:01:35.957768 12868 layer_factory.hpp:77] Creating layer res5c_branch2a
I0305 16:01:35.957777 12868 net.cpp:100] Creating Layer res5c_branch2a
I0305 16:01:35.957782 12868 net.cpp:434] res5c_branch2a <- res5b_res5b_relu_0_split_0
I0305 16:01:35.957789 12868 net.cpp:408] res5c_branch2a -> res5c_branch2a
I0305 16:01:35.959810 12868 net.cpp:150] Setting up res5c_branch2a
I0305 16:01:35.959826 12868 net.cpp:157] Top shape: 32 512 7 7 (802816)
I0305 16:01:35.959830 12868 net.cpp:165] Memory required for data: 7331315840
I0305 16:01:35.959836 12868 layer_factory.hpp:77] Creating layer bn5c_branch2a
I0305 16:01:35.959846 12868 net.cpp:100] Creating Layer bn5c_branch2a
I0305 16:01:35.959852 12868 net.cpp:434] bn5c_branch2a <- res5c_branch2a
I0305 16:01:35.959858 12868 net.cpp:395] bn5c_branch2a -> res5c_branch2a (in-place)
I0305 16:01:35.960043 12868 net.cpp:150] Setting up bn5c_branch2a
I0305 16:01:35.960050 12868 net.cpp:157] Top shape: 32 512 7 7 (802816)
I0305 16:01:35.960053 12868 net.cpp:165] Memory required for data: 7334527104
I0305 16:01:35.960062 12868 layer_factory.hpp:77] Creating layer scale5c_branch2a
I0305 16:01:35.960103 12868 net.cpp:100] Creating Layer scale5c_branch2a
I0305 16:01:35.960117 12868 net.cpp:434] scale5c_branch2a <- res5c_branch2a
I0305 16:01:35.960122 12868 net.cpp:395] scale5c_branch2a -> res5c_branch2a (in-place)
I0305 16:01:35.960189 12868 layer_factory.hpp:77] Creating layer scale5c_branch2a
I0305 16:01:35.960321 12868 net.cpp:150] Setting up scale5c_branch2a
I0305 16:01:35.960328 12868 net.cpp:157] Top shape: 32 512 7 7 (802816)
I0305 16:01:35.960340 12868 net.cpp:165] Memory required for data: 7337738368
I0305 16:01:35.960345 12868 layer_factory.hpp:77] Creating layer res5c_branch2a_relu
I0305 16:01:35.960350 12868 net.cpp:100] Creating Layer res5c_branch2a_relu
I0305 16:01:35.960353 12868 net.cpp:434] res5c_branch2a_relu <- res5c_branch2a
I0305 16:01:35.960358 12868 net.cpp:395] res5c_branch2a_relu -> res5c_branch2a (in-place)
I0305 16:01:35.960497 12868 net.cpp:150] Setting up res5c_branch2a_relu
I0305 16:01:35.960505 12868 net.cpp:157] Top shape: 32 512 7 7 (802816)
I0305 16:01:35.960517 12868 net.cpp:165] Memory required for data: 7340949632
I0305 16:01:35.960520 12868 layer_factory.hpp:77] Creating layer res5c_branch2b
I0305 16:01:35.960526 12868 net.cpp:100] Creating Layer res5c_branch2b
I0305 16:01:35.960530 12868 net.cpp:434] res5c_branch2b <- res5c_branch2a
I0305 16:01:35.960536 12868 net.cpp:408] res5c_branch2b -> res5c_branch2b
I0305 16:01:35.964594 12868 net.cpp:150] Setting up res5c_branch2b
I0305 16:01:35.964628 12868 net.cpp:157] Top shape: 32 512 7 7 (802816)
I0305 16:01:35.964632 12868 net.cpp:165] Memory required for data: 7344160896
I0305 16:01:35.964637 12868 layer_factory.hpp:77] Creating layer bn5c_branch2b
I0305 16:01:35.964648 12868 net.cpp:100] Creating Layer bn5c_branch2b
I0305 16:01:35.964653 12868 net.cpp:434] bn5c_branch2b <- res5c_branch2b
I0305 16:01:35.964660 12868 net.cpp:395] bn5c_branch2b -> res5c_branch2b (in-place)
I0305 16:01:35.964874 12868 net.cpp:150] Setting up bn5c_branch2b
I0305 16:01:35.964881 12868 net.cpp:157] Top shape: 32 512 7 7 (802816)
I0305 16:01:35.964893 12868 net.cpp:165] Memory required for data: 7347372160
I0305 16:01:35.964898 12868 layer_factory.hpp:77] Creating layer scale5c_branch2b
I0305 16:01:35.964905 12868 net.cpp:100] Creating Layer scale5c_branch2b
I0305 16:01:35.964910 12868 net.cpp:434] scale5c_branch2b <- res5c_branch2b
I0305 16:01:35.964913 12868 net.cpp:395] scale5c_branch2b -> res5c_branch2b (in-place)
I0305 16:01:35.964970 12868 layer_factory.hpp:77] Creating layer scale5c_branch2b
I0305 16:01:35.965102 12868 net.cpp:150] Setting up scale5c_branch2b
I0305 16:01:35.965109 12868 net.cpp:157] Top shape: 32 512 7 7 (802816)
I0305 16:01:35.965121 12868 net.cpp:165] Memory required for data: 7350583424
I0305 16:01:35.965126 12868 layer_factory.hpp:77] Creating layer res5c_branch2b_relu
I0305 16:01:35.965129 12868 net.cpp:100] Creating Layer res5c_branch2b_relu
I0305 16:01:35.965132 12868 net.cpp:434] res5c_branch2b_relu <- res5c_branch2b
I0305 16:01:35.965137 12868 net.cpp:395] res5c_branch2b_relu -> res5c_branch2b (in-place)
I0305 16:01:35.965378 12868 net.cpp:150] Setting up res5c_branch2b_relu
I0305 16:01:35.965385 12868 net.cpp:157] Top shape: 32 512 7 7 (802816)
I0305 16:01:35.965399 12868 net.cpp:165] Memory required for data: 7353794688
I0305 16:01:35.965400 12868 layer_factory.hpp:77] Creating layer res5c_branch2c
I0305 16:01:35.965407 12868 net.cpp:100] Creating Layer res5c_branch2c
I0305 16:01:35.965411 12868 net.cpp:434] res5c_branch2c <- res5c_branch2b
I0305 16:01:35.965416 12868 net.cpp:408] res5c_branch2c -> res5c_branch2c
I0305 16:01:35.967375 12868 net.cpp:150] Setting up res5c_branch2c
I0305 16:01:35.967386 12868 net.cpp:157] Top shape: 32 2048 7 7 (3211264)
I0305 16:01:35.967388 12868 net.cpp:165] Memory required for data: 7366639744
I0305 16:01:35.967392 12868 layer_factory.hpp:77] Creating layer bn5c_branch2c
I0305 16:01:35.967397 12868 net.cpp:100] Creating Layer bn5c_branch2c
I0305 16:01:35.967401 12868 net.cpp:434] bn5c_branch2c <- res5c_branch2c
I0305 16:01:35.967403 12868 net.cpp:395] bn5c_branch2c -> res5c_branch2c (in-place)
I0305 16:01:35.967593 12868 net.cpp:150] Setting up bn5c_branch2c
I0305 16:01:35.967600 12868 net.cpp:157] Top shape: 32 2048 7 7 (3211264)
I0305 16:01:35.967602 12868 net.cpp:165] Memory required for data: 7379484800
I0305 16:01:35.967607 12868 layer_factory.hpp:77] Creating layer scale5c_branch2c
I0305 16:01:35.967612 12868 net.cpp:100] Creating Layer scale5c_branch2c
I0305 16:01:35.967614 12868 net.cpp:434] scale5c_branch2c <- res5c_branch2c
I0305 16:01:35.967617 12868 net.cpp:395] scale5c_branch2c -> res5c_branch2c (in-place)
I0305 16:01:35.967669 12868 layer_factory.hpp:77] Creating layer scale5c_branch2c
I0305 16:01:35.967787 12868 net.cpp:150] Setting up scale5c_branch2c
I0305 16:01:35.967794 12868 net.cpp:157] Top shape: 32 2048 7 7 (3211264)
I0305 16:01:35.967797 12868 net.cpp:165] Memory required for data: 7392329856
I0305 16:01:35.967800 12868 layer_factory.hpp:77] Creating layer res5c
I0305 16:01:35.967804 12868 net.cpp:100] Creating Layer res5c
I0305 16:01:35.967808 12868 net.cpp:434] res5c <- res5b_res5b_relu_0_split_1
I0305 16:01:35.967809 12868 net.cpp:434] res5c <- res5c_branch2c
I0305 16:01:35.967813 12868 net.cpp:408] res5c -> res5c
I0305 16:01:35.967846 12868 net.cpp:150] Setting up res5c
I0305 16:01:35.967852 12868 net.cpp:157] Top shape: 32 2048 7 7 (3211264)
I0305 16:01:35.967854 12868 net.cpp:165] Memory required for data: 7405174912
I0305 16:01:35.967856 12868 layer_factory.hpp:77] Creating layer res5c_relu
I0305 16:01:35.967859 12868 net.cpp:100] Creating Layer res5c_relu
I0305 16:01:35.967861 12868 net.cpp:434] res5c_relu <- res5c
I0305 16:01:35.967865 12868 net.cpp:395] res5c_relu -> res5c (in-place)
I0305 16:01:35.968099 12868 net.cpp:150] Setting up res5c_relu
I0305 16:01:35.968107 12868 net.cpp:157] Top shape: 32 2048 7 7 (3211264)
I0305 16:01:35.968111 12868 net.cpp:165] Memory required for data: 7418019968
I0305 16:01:35.968112 12868 layer_factory.hpp:77] Creating layer pool5
I0305 16:01:35.968117 12868 net.cpp:100] Creating Layer pool5
I0305 16:01:35.968121 12868 net.cpp:434] pool5 <- res5c
I0305 16:01:35.968125 12868 net.cpp:408] pool5 -> pool5
I0305 16:01:35.968382 12868 net.cpp:150] Setting up pool5
I0305 16:01:35.968390 12868 net.cpp:157] Top shape: 32 2048 1 1 (65536)
I0305 16:01:35.968394 12868 net.cpp:165] Memory required for data: 7418282112
I0305 16:01:35.968395 12868 layer_factory.hpp:77] Creating layer drop5
I0305 16:01:35.968400 12868 net.cpp:100] Creating Layer drop5
I0305 16:01:35.968405 12868 net.cpp:434] drop5 <- pool5
I0305 16:01:35.968408 12868 net.cpp:395] drop5 -> pool5 (in-place)
I0305 16:01:35.968442 12868 net.cpp:150] Setting up drop5
I0305 16:01:35.968448 12868 net.cpp:157] Top shape: 32 2048 1 1 (65536)
I0305 16:01:35.968451 12868 net.cpp:165] Memory required for data: 7418544256
I0305 16:01:35.968452 12868 layer_factory.hpp:77] Creating layer fc8_
I0305 16:01:35.968461 12868 net.cpp:100] Creating Layer fc8_
I0305 16:01:35.968463 12868 net.cpp:434] fc8_ <- pool5
I0305 16:01:35.968471 12868 net.cpp:408] fc8_ -> fc8_
I0305 16:01:35.976378 12868 net.cpp:150] Setting up fc8_
I0305 16:01:35.976398 12868 net.cpp:157] Top shape: 32 730 (23360)
I0305 16:01:35.976400 12868 net.cpp:165] Memory required for data: 7418637696
I0305 16:01:35.976407 12868 layer_factory.hpp:77] Creating layer loss
I0305 16:01:35.976414 12868 net.cpp:100] Creating Layer loss
I0305 16:01:35.976418 12868 net.cpp:434] loss <- fc8_
I0305 16:01:35.976423 12868 net.cpp:434] loss <- label
I0305 16:01:35.976429 12868 net.cpp:408] loss -> loss
I0305 16:01:35.976444 12868 layer_factory.hpp:77] Creating layer loss
…
