…
I1213 23:56:46.164223 14932 net.cpp:58] Initializing net from parameters: 
name: "Res50-base"
state {
  phase: TRAIN
  level: 0
  stage: ""
}
layer {
  name: "data"
  type: "ImageData"
  top: "data"
  top: "label"
  include {
    phase: TRAIN
  }
  transform_param {
    mirror: true
    crop_size: 224
    mean_value: 104
    mean_value: 117
    mean_value: 124
  }
  image_data_param {
    source: "market_evaluation/dataset/train.txt"
    batch_size: 2
    shuffle: true
    new_height: 224
    new_width: 224
    is_color: true
    root_folder: "market_evaluation/"
  }
}
layer {
  name: "conv1"
  type: "Convolution"
  bottom: "data"
  top: "conv1"
  convolution_param {
    num_output: 64
    pad: 3
    kernel_size: 7
    stride: 2
  }
}
layer {
  name: "bn_conv1"
  type: "BatchNorm"
  bottom: "conv1"
  top: "conv1"
  batch_norm_param {
    use_global_stats: true
  }
}
layer {
  name: "scale_conv1"
  type: "Scale"
  bottom: "conv1"
  top: "conv1"
  scale_param {
    bias_term: true
  }
}
layer {
  name: "conv1_relu"
  type: "ReLU"
  bottom: "conv1"
  top: "conv1"
}
layer {
  name: "pool1"
  type: "Pooling"
  bottom: "conv1"
  top: "pool1"
  pooling_param {
    pool: MAX
    kernel_size: 3
    stride: 2
  }
}
layer {
  name: "res2a_branch1"
  type: "Convolution"
  bottom: "pool1"
  top: "res2a_branch1"
  convolution_param {
    num_output: 256
    bias_term: false
    pad: 0
    kernel_size: 1
    stride: 1
  }
}
layer {
  name: "bn2a_branch1"
  type: "BatchNorm"
  bottom: "res2a_branch1"
  top: "res2a_branch1"
  batch_norm_param {
    use_global_stats: true
  }
}
layer {
  name: "scale2a_branch1"
  type: "Scale"
  bottom: "res2a_branch1"
  top: "res2a_branch1"
  scale_param {
    bias_term: true
  }
}
layer {
  name: "res2a_branch2a"
  type: "Convolution"
  bottom: "pool1"
  top: "res2a_branch2a"
  convolution_param {
    num_output: 64
    bias_term: false
    pad: 0
    kernel_size: 1
    stride: 1
  }
}
layer {
  name: "bn2a_branch2a"
  type: "BatchNorm"
  bottom: "res2a_branch2a"
  top: "res2a_branch2a"
  batch_norm_param {
    use_global_stats: true
  }
}
layer {
  name: "scale2a_branch2a"
  type: "Scale"
  bottom: "res2a_branch2a"
  top: "res2a_branch2a"
  scale_param {
    bias_term: true
  }
}
layer {
  name: "res2a_branch2a_relu"
  type: "ReLU"
  bottom: "res2a_branch2a"
  top: "res2a_branch2a"
}
layer {
  name: "res2a_branch2b"
  type: "Convolution"
  bottom: "res2a_branch2a"
  top: "res2a_branch2b"
  convolution_param {
    num_output: 64
    bias_term: false
    pad: 1
    kernel_size: 3
    stride: 1
  }
}
layer {
  name: "bn2a_branch2b"
  type: "BatchNorm"
  bottom: "res2a_branch2b"
  top: "res2a_branch2b"
  batch_norm_param {
    use_global_stats: true
  }
}
layer {
  name: "scale2a_branch2b"
  type: "Scale"
  bottom: "res2a_branch2b"
  top: "res2a_branch2b"
  scale_param {
    bias_term: true
  }
}
layer {
  name: "res2a_branch2b_relu"
  type: "ReLU"
  bottom: "res2a_branch2b"
  top: "res2a_branch2b"
}
layer {
  name: "res2a_branch2c"
  type: "Convolution"
  bottom: "res2a_branch2b"
  top: "res2a_branch2c"
  convolution_param {
    num_output: 256
    bias_term: false
    pad: 0
    kernel_size: 1
    stride: 1
  }
}
layer {
  name: "bn2a_branch2c"
  type: "BatchNorm"
  bottom: "res2a_branch2c"
  top: "res2a_branch2c"
  batch_norm_param {
    use_global_stats: true
  }
}
layer {
  name: "scale2a_branch2c"
  type: "Scale"
  bottom: "res2a_branch2c"
  top: "res2a_branch2c"
  scale_param {
    bias_term: true
  }
}
layer {
  name: "res2a"
  type: "Eltwise"
  bottom: "res2a_branch1"
  bottom: "res2a_branch2c"
  top: "res2a"
}
layer {
  name: "res2a_relu"
  type: "ReLU"
  bottom: "res2a"
  top: "res2a"
}
layer {
  name: "res2b_branch2a"
  type: "Convolution"
  bottom: "res2a"
  top: "res2b_branch2a"
  convolution_param {
    num_output: 64
    bias_term: false
    pad: 0
    kernel_size: 1
    stride: 1
  }
}
layer {
  name: "bn2b_branch2a"
  type: "BatchNorm"
  bottom: "res2b_branch2a"
  top: "res2b_branch2a"
  batch_norm_param {
    use_global_stats: true
  }
}
layer {
  name: "scale2b_branch2a"
  type: "Scale"
  bottom: "res2b_branch2a"
  top: "res2b_branch2a"
  scale_param {
    bias_term: true
  }
}
layer {
  name: "res2b_branch2a_relu"
  type: "ReLU"
  bottom: "res2b_branch2a"
  top: "res2b_branch2a"
}
layer {
  name: "res2b_branch2b"
  type: "Convolution"
  bottom: "res2b_branch2a"
  top: "res2b_branch2b"
  convolution_param {
    num_output: 64
    bias_term: false
    pad: 1
    kernel_size: 3
    stride: 1
  }
}
layer {
  name: "bn2b_branch2b"
  type: "BatchNorm"
  bottom: "res2b_branch2b"
  top: "res2b_branch2b"
  batch_norm_param {
    use_global_stats: true
  }
}
layer {
  name: "scale2b_branch2b"
  type: "Scale"
  bottom: "res2b_branch2b"
  top: "res2b_branch2b"
  scale_param {
    bias_term: true
  }
}
layer {
  name: "res2b_branch2b_relu"
  type: "ReLU"
  bottom: "res2b_branch2b"
  top: "res2b_branch2b"
}
layer {
  name: "res2b_branch2c"
  type: "Convolution"
  bottom: "res2b_branch2b"
  top: "res2b_branch2c"
  convolution_param {
    num_output: 256
    bias_term: false
    pad: 0
    kernel_size: 1
    stride: 1
  }
}
layer {
  name: "bn2b_branch2c"
  type: "BatchNorm"
  bottom: "res2b_branch2c"
  top: "res2b_branch2c"
  batch_norm_param {
    use_global_stats: true
  }
}
layer {
  name: "scale2b_branch2c"
  type: "Scale"
  bottom: "res2b_branch2c"
  top: "res2b_branch2c"
  scale_param {
    bias_term: true
  }
}
layer {
  name: "res2b"
  type: "Eltwise"
  bottom: "res2a"
  bottom: "res2b_branch2c"
  top: "res2b"
}
layer {
  name: "res2b_relu"
  type: "ReLU"
  bottom: "res2b"
  top: "res2b"
}
layer {
  name: "res2c_branch2a"
  type: "Convolution"
  bottom: "res2b"
  top: "res2c_branch2a"
  convolution_param {
    num_output: 64
    bias_term: false
    pad: 0
    kernel_size: 1
    stride: 1
  }
}
layer {
  name: "bn2c_branch2a"
  type: "BatchNorm"
  bottom: "res2c_branch2a"
  top: "res2c_branch2a"
  batch_norm_param {
    use_global_stats: true
  }
}
layer {
  name: "scale2c_branch2a"
  type: "Scale"
  bottom: "res2c_branch2a"
  top: "res2c_branch2a"
  scale_param {
    bias_term: true
  }
}
layer {
  name: "res2c_branch2a_relu"
  type: "ReLU"
  bottom: "res2c_branch2a"
  top: "res2c_branch2a"
}
layer {
  name: "res2c_branch2b"
  type: "Convolution"
  bottom: "res2c_branch2a"
  top: "res2c_branch2b"
  convolution_param {
    num_output: 64
    bias_term: false
    pad: 1
    kernel_size: 3
    stride: 1
  }
}
layer {
  name: "bn2c_branch2b"
  type: "BatchNorm"
  bottom: "res2c_branch2b"
  top: "res2c_branch2b"
  batch_norm_param {
    use_global_stats: true
  }
}
layer {
  name: "scale2c_branch2b"
  type: "Scale"
  bottom: "res2c_branch2b"
  top: "res2c_branch2b"
  scale_param {
    bias_term: true
  }
}
layer {
  name: "res2c_branch2b_relu"
  type: "ReLU"
  bottom: "res2c_branch2b"
  top: "res2c_branch2b"
}
layer {
  name: "res2c_branch2c"
  type: "Convolution"
  bottom: "res2c_branch2b"
  top: "res2c_branch2c"
  convolution_param {
    num_output: 256
    bias_term: false
    pad: 0
    kernel_size: 1
    stride: 1
  }
}
layer {
  name: "bn2c_branch2c"
  type: "BatchNorm"
  bottom: "res2c_branch2c"
  top: "res2c_branch2c"
  batch_norm_param {
    use_global_stats: true
  }
}
layer {
  name: "scale2c_branch2c"
  type: "Scale"
  bottom: "res2c_branch2c"
  top: "res2c_branch2c"
  scale_param {
    bias_term: true
  }
}
layer {
  name: "res2c"
  type: "Eltwise"
  bottom: "res2b"
  bottom: "res2c_branch2c"
  top: "res2c"
}
layer {
  name: "res2c_relu"
  type: "ReLU"
  bottom: "res2c"
  top: "res2c"
}
layer {
  name: "res3a_branch1"
  type: "Convolution"
  bottom: "res2c"
  top: "res3a_branch1"
  convolution_param {
    num_output: 512
    bias_term: false
    pad: 0
    kernel_size: 1
    stride: 2
  }
}
layer {
  name: "bn3a_branch1"
  type: "BatchNorm"
  bottom: "res3a_branch1"
  top: "res3a_branch1"
  batch_norm_param {
    use_global_stats: true
  }
}
layer {
  name: "scale3a_branch1"
  type: "Scale"
  bottom: "res3a_branch1"
  top: "res3a_branch1"
  scale_param {
    bias_term: true
  }
}
layer {
  name: "res3a_branch2a"
  type: "Convolution"
  bottom: "res2c"
  top: "res3a_branch2a"
  convolution_param {
    num_output: 128
    bias_term: false
    pad: 0
    kernel_size: 1
    stride: 2
  }
}
layer {
  name: "bn3a_branch2a"
  type: "BatchNorm"
  bottom: "res3a_branch2a"
  top: "res3a_branch2a"
  batch_norm_param {
    use_global_stats: true
  }
}
layer {
  name: "scale3a_branch2a"
  type: "Scale"
  bottom: "res3a_branch2a"
  top: "res3a_branch2a"
  scale_param {
    bias_term: true
  }
}
layer {
  name: "res3a_branch2a_relu"
  type: "ReLU"
  bottom: "res3a_branch2a"
  top: "res3a_branch2a"
}
layer {
  name: "res3a_branch2b"
  type: "Convolution"
  bottom: "res3a_branch2a"
  top: "res3a_branch2b"
  convolution_param {
    num_output: 128
    bias_term: false
    pad: 1
    kernel_size: 3
    stride: 1
  }
}
layer {
  name: "bn3a_branch2b"
  type: "BatchNorm"
  bottom: "res3a_branch2b"
  top: "res3a_branch2b"
  batch_norm_param {
    use_global_stats: true
  }
}
layer {
  name: "scale3a_branch2b"
  type: "Scale"
  bottom: "res3a_branch2b"
  top: "res3a_branch2b"
  scale_param {
    bias_term: true
  }
}
layer {
  name: "res3a_branch2b_relu"
  type: "ReLU"
  bottom: "res3a_branch2b"
  top: "res3a_branch2b"
}
layer {
  name: "res3a_branch2c"
  type: "Convolution"
  bottom: "res3a_branch2b"
  top: "res3a_branch2c"
  convolution_param {
    num_output: 512
    bias_term: false
    pad: 0
    kernel_size: 1
    stride: 1
  }
}
layer {
  name: "bn3a_branch2c"
  type: "BatchNorm"
  bottom: "res3a_branch2c"
  top: "res3a_branch2c"
  batch_norm_param {
    use_global_stats: true
  }
}
layer {
  name: "scale3a_branch2c"
  type: "Scale"
  bottom: "res3a_branch2c"
  top: "res3a_branch2c"
  scale_param {
    bias_term: true
  }
}
layer {
  name: "res3a"
  type: "Eltwise"
  bottom: "res3a_branch1"
  bottom: "res3a_branch2c"
  top: "res3a"
}
layer {
  name: "res3a_relu"
  type: "ReLU"
  bottom: "res3a"
  top: "res3a"
}
layer {
  name: "res3b_branch2a"
  type: "Convolution"
  bottom: "res3a"
  top: "res3b_branch2a"
  convolution_param {
    num_output: 128
    bias_term: false
    pad: 0
    kernel_size: 1
    stride: 1
  }
}
layer {
  name: "bn3b_branch2a"
  type: "BatchNorm"
  bottom: "res3b_branch2a"
  top: "res3b_branch2a"
  batch_norm_param {
    use_global_stats: true
  }
}
layer {
  name: "scale3b_branch2a"
  type: "Scale"
  bottom: "res3b_branch2a"
  top: "res3b_branch2a"
  scale_param {
    bias_term: true
  }
}
layer {
  name: "res3b_branch2a_relu"
  type: "ReLU"
  bottom: "res3b_branch2a"
  top: "res3b_branch2a"
}
layer {
  name: "res3b_branch2b"
  type: "Convolution"
  bottom: "res3b_branch2a"
  top: "res3b_branch2b"
  convolution_param {
    num_output: 128
    bias_term: false
    pad: 1
    kernel_size: 3
    stride: 1
  }
}
layer {
  name: "bn3b_branch2b"
  type: "BatchNorm"
  bottom: "res3b_branch2b"
  top: "res3b_branch2b"
  batch_norm_param {
    use_global_stats: true
  }
}
layer {
  name: "scale3b_branch2b"
  type: "Scale"
  bottom: "res3b_branch2b"
  top: "res3b_branch2b"
  scale_param {
    bias_term: true
  }
}
layer {
  name: "res3b_branch2b_relu"
  type: "ReLU"
  bottom: "res3b_branch2b"
  top: "res3b_branch2b"
}
layer {
  name: "res3b_branch2c"
  type: "Convolution"
  bottom: "res3b_branch2b"
  top: "res3b_branch2c"
  convolution_param {
    num_output: 512
    bias_term: false
    pad: 0
    kernel_size: 1
    stride: 1
  }
}
layer {
  name: "bn3b_branch2c"
  type: "BatchNorm"
  bottom: "res3b_branch2c"
  top: "res3b_branch2c"
  batch_norm_param {
    use_global_stats: true
  }
}
layer {
  name: "scale3b_branch2c"
  type: "Scale"
  bottom: "res3b_branch2c"
  top: "res3b_branch2c"
  scale_param {
    bias_term: true
  }
}
layer {
  name: "res3b"
  type: "Eltwise"
  bottom: "res3a"
  bottom: "res3b_branch2c"
  top: "res3b"
}
layer {
  name: "res3b_relu"
  type: "ReLU"
  bottom: "res3b"
  top: "res3b"
}
layer {
  name: "res3c_branch2a"
  type: "Convolution"
  bottom: "res3b"
  top: "res3c_branch2a"
  convolution_param {
    num_output: 128
    bias_term: false
    pad: 0
    kernel_size: 1
    stride: 1
  }
}
layer {
  name: "bn3c_branch2a"
  type: "BatchNorm"
  bottom: "res3c_branch2a"
  top: "res3c_branch2a"
  batch_norm_param {
    use_global_stats: true
  }
}
layer {
  name: "scale3c_branch2a"
  type: "Scale"
  bottom: "res3c_branch2a"
  top: "res3c_branch2a"
  scale_param {
    bias_term: true
  }
}
layer {
  name: "res3c_branch2a_relu"
  type: "ReLU"
  bottom: "res3c_branch2a"
  top: "res3c_branch2a"
}
layer {
  name: "res3c_branch2b"
  type: "Convolution"
  bottom: "res3c_branch2a"
  top: "res3c_branch2b"
  convolution_param {
    num_output: 128
    bias_term: false
    pad: 1
    kernel_size: 3
    stride: 1
  }
}
layer {
  name: "bn3c_branch2b"
  type: "BatchNorm"
  bottom: "res3c_branch2b"
  top: "res3c_branch2b"
  batch_norm_param {
    use_global_stats: true
  }
}
layer {
  name: "scale3c_branch2b"
  type: "Scale"
  bottom: "res3c_branch2b"
  top: "res3c_branch2b"
  scale_param {
    bias_term: true
  }
}
layer {
  name: "res3c_branch2b_relu"
  type: "ReLU"
  bottom: "res3c_branch2b"
  top: "res3c_branch2b"
}
layer {
  name: "res3c_branch2c"
  type: "Convolution"
  bottom: "res3c_branch2b"
  top: "res3c_branch2c"
  convolution_param {
    num_output: 512
    bias_term: false
    pad: 0
    kernel_size: 1
    stride: 1
  }
}
layer {
  name: "bn3c_branch2c"
  type: "BatchNorm"
  bottom: "res3c_branch2c"
  top: "res3c_branch2c"
  batch_norm_param {
    use_global_stats: true
  }
}
layer {
  name: "scale3c_branch2c"
  type: "Scale"
  bottom: "res3c_branch2c"
  top: "res3c_branch2c"
  scale_param {
    bias_term: true
  }
}
layer {
  name: "res3c"
  type: "Eltwise"
  bottom: "res3b"
  bottom: "res3c_branch2c"
  top: "res3c"
}
layer {
  name: "res3c_relu"
  type: "ReLU"
  bottom: "res3c"
  top: "res3c"
}
layer {
  name: "res3d_branch2a"
  type: "Convolution"
  bottom: "res3c"
  top: "res3d_branch2a"
  convolution_param {
    num_output: 128
    bias_term: false
    pad: 0
    kernel_size: 1
    stride: 1
  }
}
layer {
  name: "bn3d_branch2a"
  type: "BatchNorm"
  bottom: "res3d_branch2a"
  top: "res3d_branch2a"
  batch_norm_param {
    use_global_stats: true
  }
}
layer {
  name: "scale3d_branch2a"
  type: "Scale"
  bottom: "res3d_branch2a"
  top: "res3d_branch2a"
  scale_param {
    bias_term: true
  }
}
layer {
  name: "res3d_branch2a_relu"
  type: "ReLU"
  bottom: "res3d_branch2a"
  top: "res3d_branch2a"
}
layer {
  name: "res3d_branch2b"
  type: "Convolution"
  bottom: "res3d_branch2a"
  top: "res3d_branch2b"
  convolution_param {
    num_output: 128
    bias_term: false
    pad: 1
    kernel_size: 3
    stride: 1
  }
}
layer {
  name: "bn3d_branch2b"
  type: "BatchNorm"
  bottom: "res3d_branch2b"
  top: "res3d_branch2b"
  batch_norm_param {
    use_global_stats: true
  }
}
layer {
  name: "scale3d_branch2b"
  type: "Scale"
  bottom: "res3d_branch2b"
  top: "res3d_branch2b"
  scale_param {
    bias_term: true
  }
}
layer {
  name: "res3d_branch2b_relu"
  type: "ReLU"
  bottom: "res3d_branch2b"
  top: "res3d_branch2b"
}
layer {
  name: "res3d_branch2c"
  type: "Convolution"
  bottom: "res3d_branch2b"
  top: "res3d_branch2c"
  convolution_param {
    num_output: 512
    bias_term: false
    pad: 0
    kernel_size: 1
    stride: 1
  }
}
layer {
  name: "bn3d_branch2c"
  type: "BatchNorm"
  bottom: "res3d_branch2c"
  top: "res3d_branch2c"
  batch_norm_param {
    use_global_stats: true
  }
}
layer {
  name: "scale3d_branch2c"
  type: "Scale"
  bottom: "res3d_branch2c"
  top: "res3d_branch2c"
  scale_param {
    bias_term: true
  }
}
layer {
  name: "res3d"
  type: "Eltwise"
  bottom: "res3c"
  bottom: "res3d_branch2c"
  top: "res3d"
}
layer {
  name: "res3d_relu"
  type: "ReLU"
  bottom: "res3d"
  top: "res3d"
}
layer {
  name: "res4a_branch1"
  type: "Convolution"
  bottom: "res3d"
  top: "res4a_branch1"
  convolution_param {
    num_output: 1024
    bias_term: false
    pad: 0
    kernel_size: 1
    stride: 2
  }
}
layer {
  name: "bn4a_branch1"
  type: "BatchNorm"
  bottom: "res4a_branch1"
  top: "res4a_branch1"
  batch_norm_param {
    use_global_stats: true
  }
}
layer {
  name: "scale4a_branch1"
  type: "Scale"
  bottom: "res4a_branch1"
  top: "res4a_branch1"
  scale_param {
    bias_term: true
  }
}
layer {
  name: "res4a_branch2a"
  type: "Convolution"
  bottom: "res3d"
  top: "res4a_branch2a"
  convolution_param {
    num_output: 256
    bias_term: false
    pad: 0
    kernel_size: 1
    stride: 2
  }
}
layer {
  name: "bn4a_branch2a"
  type: "BatchNorm"
  bottom: "res4a_branch2a"
  top: "res4a_branch2a"
  batch_norm_param {
    use_global_stats: true
  }
}
layer {
  name: "scale4a_branch2a"
  type: "Scale"
  bottom: "res4a_branch2a"
  top: "res4a_branch2a"
  scale_param {
    bias_term: true
  }
}
layer {
  name: "res4a_branch2a_relu"
  type: "ReLU"
  bottom: "res4a_branch2a"
  top: "res4a_branch2a"
}
layer {
  name: "res4a_branch2b"
  type: "Convolution"
  bottom: "res4a_branch2a"
  top: "res4a_branch2b"
  convolution_param {
    num_output: 256
    bias_term: false
    pad: 1
    kernel_size: 3
    stride: 1
  }
}
layer {
  name: "bn4a_branch2b"
  type: "BatchNorm"
  bottom: "res4a_branch2b"
  top: "res4a_branch2b"
  batch_norm_param {
    use_global_stats: true
  }
}
layer {
  name: "scale4a_branch2b"
  type: "Scale"
  bottom: "res4a_branch2b"
  top: "res4a_branch2b"
  scale_param {
    bias_term: true
  }
}
layer {
  name: "res4a_branch2b_relu"
  type: "ReLU"
  bottom: "res4a_branch2b"
  top: "res4a_branch2b"
}
layer {
  name: "res4a_branch2c"
  type: "Convolution"
  bottom: "res4a_branch2b"
  top: "res4a_branch2c"
  convolution_param {
    num_output: 1024
    bias_term: false
    pad: 0
    kernel_size: 1
    stride: 1
  }
}
layer {
  name: "bn4a_branch2c"
  type: "BatchNorm"
  bottom: "res4a_branch2c"
  top: "res4a_branch2c"
  batch_norm_param {
    use_global_stats: true
  }
}
layer {
  name: "scale4a_branch2c"
  type: "Scale"
  bottom: "res4a_branch2c"
  top: "res4a_branch2c"
  scale_param {
    bias_term: true
  }
}
layer {
  name: "res4a"
  type: "Eltwise"
  bottom: "res4a_branch1"
  bottom: "res4a_branch2c"
  top: "res4a"
}
layer {
  name: "res4a_relu"
  type: "ReLU"
  bottom: "res4a"
  top: "res4a"
}
layer {
  name: "res4b_branch2a"
  type: "Convolution"
  bottom: "res4a"
  top: "res4b_branch2a"
  convolution_param {
    num_output: 256
    bias_term: false
    pad: 0
    kernel_size: 1
    stride: 1
  }
}
layer {
  name: "bn4b_branch2a"
  type: "BatchNorm"
  bottom: "res4b_branch2a"
  top: "res4b_branch2a"
  batch_norm_param {
    use_global_stats: true
  }
}
layer {
  name: "scale4b_branch2a"
  type: "Scale"
  bottom: "res4b_branch2a"
  top: "res4b_branch2a"
  scale_param {
    bias_term: true
  }
}
layer {
  name: "res4b_branch2a_relu"
  type: "ReLU"
  bottom: "res4b_branch2a"
  top: "res4b_branch2a"
}
layer {
  name: "res4b_branch2b"
  type: "Convolution"
  bottom: "res4b_branch2a"
  top: "res4b_branch2b"
  convolution_param {
    num_output: 256
    bias_term: false
    pad: 1
    kernel_size: 3
    stride: 1
  }
}
layer {
  name: "bn4b_branch2b"
  type: "BatchNorm"
  bottom: "res4b_branch2b"
  top: "res4b_branch2b"
  batch_norm_param {
    use_global_stats: true
  }
}
layer {
  name: "scale4b_branch2b"
  type: "Scale"
  bottom: "res4b_branch2b"
  top: "res4b_branch2b"
  scale_param {
    bias_term: true
  }
}
layer {
  name: "res4b_branch2b_relu"
  type: "ReLU"
  bottom: "res4b_branch2b"
  top: "res4b_branch2b"
}
layer {
  name: "res4b_branch2c"
  type: "Convolution"
  bottom: "res4b_branch2b"
  top: "res4b_branch2c"
  convolution_param {
    num_output: 1024
    bias_term: false
    pad: 0
    kernel_size: 1
    stride: 1
  }
}
layer {
  name: "bn4b_branch2c"
  type: "BatchNorm"
  bottom: "res4b_branch2c"
  top: "res4b_branch2c"
  batch_norm_param {
    use_global_stats: true
  }
}
layer {
  name: "scale4b_branch2c"
  type: "Scale"
  bottom: "res4b_branch2c"
  top: "res4b_branch2c"
  scale_param {
    bias_term: true
  }
}
layer {
  name: "res4b"
  type: "Eltwise"
  bottom: "res4a"
  bottom: "res4b_branch2c"
  top: "res4b"
}
layer {
  name: "res4b_relu"
  type: "ReLU"
  bottom: "res4b"
  top: "res4b"
}
layer {
  name: "res4c_branch2a"
  type: "Convolution"
  bottom: "res4b"
  top: "res4c_branch2a"
  convolution_param {
    num_output: 256
    bias_term: false
    pad: 0
    kernel_size: 1
    stride: 1
  }
}
layer {
  name: "bn4c_branch2a"
  type: "BatchNorm"
  bottom: "res4c_branch2a"
  top: "res4c_branch2a"
  batch_norm_param {
    use_global_stats: true
  }
}
layer {
  name: "scale4c_branch2a"
  type: "Scale"
  bottom: "res4c_branch2a"
  top: "res4c_branch2a"
  scale_param {
    bias_term: true
  }
}
layer {
  name: "res4c_branch2a_relu"
  type: "ReLU"
  bottom: "res4c_branch2a"
  top: "res4c_branch2a"
}
layer {
  name: "res4c_branch2b"
  type: "Convolution"
  bottom: "res4c_branch2a"
  top: "res4c_branch2b"
  convolution_param {
    num_output: 256
    bias_term: false
    pad: 1
    kernel_size: 3
    stride: 1
  }
}
layer {
  name: "bn4c_branch2b"
  type: "BatchNorm"
  bottom: "res4c_branch2b"
  top: "res4c_branch2b"
  batch_norm_param {
    use_global_stats: true
  }
}
layer {
  name: "scale4c_branch2b"
  type: "Scale"
  bottom: "res4c_branch2b"
  top: "res4c_branch2b"
  scale_param {
    bias_term: true
  }
}
layer {
  name: "res4c_branch2b_relu"
  type: "ReLU"
  bottom: "res4c_branch2b"
  top: "res4c_branch2b"
}
layer {
  name: "res4c_branch2c"
  type: "Convolution"
  bottom: "res4c_branch2b"
  top: "res4c_branch2c"
  convolution_param {
    num_output: 1024
    bias_term: false
    pad: 0
    kernel_size: 1
    stride: 1
  }
}
layer {
  name: "bn4c_branch2c"
  type: "BatchNorm"
  bottom: "res4c_branch2c"
  top: "res4c_branch2c"
  batch_norm_param {
    use_global_stats: true
  }
}
layer {
  name: "scale4c_branch2c"
  type: "Scale"
  bottom: "res4c_branch2c"
  top: "res4c_branch2c"
  scale_param {
    bias_term: true
  }
}
layer {
  name: "res4c"
  type: "Eltwise"
  bottom: "res4b"
  bottom: "res4c_branch2c"
  top: "res4c"
}
layer {
  name: "res4c_relu"
  type: "ReLU"
  bottom: "res4c"
  top: "res4c"
}
layer {
  name: "res4d_branch2a"
  type: "Convolution"
  bottom: "res4c"
  top: "res4d_branch2a"
  convolution_param {
    num_output: 256
    bias_term: false
    pad: 0
    kernel_size: 1
    stride: 1
  }
}
layer {
  name: "bn4d_branch2a"
  type: "BatchNorm"
  bottom: "res4d_branch2a"
  top: "res4d_branch2a"
  batch_norm_param {
    use_global_stats: true
  }
}
layer {
  name: "scale4d_branch2a"
  type: "Scale"
  bottom: "res4d_branch2a"
  top: "res4d_branch2a"
  scale_param {
    bias_term: true
  }
}
layer {
  name: "res4d_branch2a_relu"
  type: "ReLU"
  bottom: "res4d_branch2a"
  top: "res4d_branch2a"
}
layer {
  name: "res4d_branch2b"
  type: "Convolution"
  bottom: "res4d_branch2a"
  top: "res4d_branch2b"
  convolution_param {
    num_output: 256
    bias_term: false
    pad: 1
    kernel_size: 3
    stride: 1
  }
}
layer {
  name: "bn4d_branch2b"
  type: "BatchNorm"
  bottom: "res4d_branch2b"
  top: "res4d_branch2b"
  batch_norm_param {
    use_global_stats: true
  }
}
layer {
  name: "scale4d_branch2b"
  type: "Scale"
  bottom: "res4d_branch2b"
  top: "res4d_branch2b"
  scale_param {
    bias_term: true
  }
}
layer {
  name: "res4d_branch2b_relu"
  type: "ReLU"
  bottom: "res4d_branch2b"
  top: "res4d_branch2b"
}
layer {
  name: "res4d_branch2c"
  type: "Convolution"
  bottom: "res4d_branch2b"
  top: "res4d_branch2c"
  convolution_param {
    num_output: 1024
    bias_term: false
    pad: 0
    kernel_size: 1
    stride: 1
  }
}
layer {
  name: "bn4d_branch2c"
  type: "BatchNorm"
  bottom: "res4d_branch2c"
  top: "res4d_branch2c"
  batch_norm_param {
    use_global_stats: true
  }
}
layer {
  name: "scale4d_branch2c"
  type: "Scale"
  bottom: "res4d_branch2c"
  top: "res4d_branch2c"
  scale_param {
    bias_term: true
  }
}
layer {
  name: "res4d"
  type: "Eltwise"
  bottom: "res4c"
  bottom: "res4d_branch2c"
  top: "res4d"
}
layer {
  name: "res4d_relu"
  type: "ReLU"
  bottom: "res4d"
  top: "res4d"
}
layer {
  name: "res4e_branch2a"
  type: "Convolution"
  bottom: "res4d"
  top: "res4e_branch2a"
  convolution_param {
    num_output: 256
    bias_term: false
    pad: 0
    kernel_size: 1
    stride: 1
  }
}
layer {
  name: "bn4e_branch2a"
  type: "BatchNorm"
  bottom: "res4e_branch2a"
  top: "res4e_branch2a"
  batch_norm_param {
    use_global_stats: true
  }
}
layer {
  name: "scale4e_branch2a"
  type: "Scale"
  bottom: "res4e_branch2a"
  top: "res4e_branch2a"
  scale_param {
    bias_term: true
  }
}
layer {
  name: "res4e_branch2a_relu"
  type: "ReLU"
  bottom: "res4e_branch2a"
  top: "res4e_branch2a"
}
layer {
  name: "res4e_branch2b"
  type: "Convolution"
  bottom: "res4e_branch2a"
  top: "res4e_branch2b"
  convolution_param {
    num_output: 256
    bias_term: false
    pad: 1
    kernel_size: 3
    stride: 1
  }
}
layer {
  name: "bn4e_branch2b"
  type: "BatchNorm"
  bottom: "res4e_branch2b"
  top: "res4e_branch2b"
  batch_norm_param {
    use_global_stats: true
  }
}
layer {
  name: "scale4e_branch2b"
  type: "Scale"
  bottom: "res4e_branch2b"
  top: "res4e_branch2b"
  scale_param {
    bias_term: true
  }
}
layer {
  name: "res4e_branch2b_relu"
  type: "ReLU"
  bottom: "res4e_branch2b"
  top: "res4e_branch2b"
}
layer {
  name: "res4e_branch2c"
  type: "Convolution"
  bottom: "res4e_branch2b"
  top: "res4e_branch2c"
  convolution_param {
    num_output: 1024
    bias_term: false
    pad: 0
    kernel_size: 1
    stride: 1
  }
}
layer {
  name: "bn4e_branch2c"
  type: "BatchNorm"
  bottom: "res4e_branch2c"
  top: "res4e_branch2c"
  batch_norm_param {
    use_global_stats: true
  }
}
layer {
  name: "scale4e_branch2c"
  type: "Scale"
  bottom: "res4e_branch2c"
  top: "res4e_branch2c"
  scale_param {
    bias_term: true
  }
}
layer {
  name: "res4e"
  type: "Eltwise"
  bottom: "res4d"
  bottom: "res4e_branch2c"
  top: "res4e"
}
layer {
  name: "res4e_relu"
  type: "ReLU"
  bottom: "res4e"
  top: "res4e"
}
layer {
  name: "res4f_branch2a"
  type: "Convolution"
  bottom: "res4e"
  top: "res4f_branch2a"
  convolution_param {
    num_output: 256
    bias_term: false
    pad: 0
    kernel_size: 1
    stride: 1
  }
}
layer {
  name: "bn4f_branch2a"
  type: "BatchNorm"
  bottom: "res4f_branch2a"
  top: "res4f_branch2a"
  batch_norm_param {
    use_global_stats: true
  }
}
layer {
  name: "scale4f_branch2a"
  type: "Scale"
  bottom: "res4f_branch2a"
  top: "res4f_branch2a"
  scale_param {
    bias_term: true
  }
}
layer {
  name: "res4f_branch2a_relu"
  type: "ReLU"
  bottom: "res4f_branch2a"
  top: "res4f_branch2a"
}
layer {
  name: "res4f_branch2b"
  type: "Convolution"
  bottom: "res4f_branch2a"
  top: "res4f_branch2b"
  convolution_param {
    num_output: 256
    bias_term: false
    pad: 1
    kernel_size: 3
    stride: 1
  }
}
layer {
  name: "bn4f_branch2b"
  type: "BatchNorm"
  bottom: "res4f_branch2b"
  top: "res4f_branch2b"
  batch_norm_param {
    use_global_stats: true
  }
}
layer {
  name: "scale4f_branch2b"
  type: "Scale"
  bottom: "res4f_branch2b"
  top: "res4f_branch2b"
  scale_param {
    bias_term: true
  }
}
layer {
  name: "res4f_branch2b_relu"
  type: "ReLU"
  bottom: "res4f_branch2b"
  top: "res4f_branch2b"
}
layer {
  name: "res4f_branch2c"
  type: "Convolution"
  bottom: "res4f_branch2b"
  top: "res4f_branch2c"
  convolution_param {
    num_output: 1024
    bias_term: false
    pad: 0
    kernel_size: 1
    stride: 1
  }
}
layer {
  name: "bn4f_branch2c"
  type: "BatchNorm"
  bottom: "res4f_branch2c"
  top: "res4f_branch2c"
  batch_norm_param {
    use_global_stats: true
  }
}
layer {
  name: "scale4f_branch2c"
  type: "Scale"
  bottom: "res4f_branch2c"
  top: "res4f_branch2c"
  scale_param {
    bias_term: true
  }
}
layer {
  name: "res4f"
  type: "Eltwise"
  bottom: "res4e"
  bottom: "res4f_branch2c"
  top: "res4f"
}
layer {
  name: "res4f_relu"
  type: "ReLU"
  bottom: "res4f"
  top: "res4f"
}
layer {
  name: "res5a_branch1"
  type: "Convolution"
  bottom: "res4f"
  top: "res5a_branch1"
  convolution_param {
    num_output: 2048
    bias_term: false
    pad: 0
    kernel_size: 1
    stride: 2
  }
}
layer {
  name: "bn5a_branch1"
  type: "BatchNorm"
  bottom: "res5a_branch1"
  top: "res5a_branch1"
  batch_norm_param {
    use_global_stats: true
  }
}
layer {
  name: "scale5a_branch1"
  type: "Scale"
  bottom: "res5a_branch1"
  top: "res5a_branch1"
  scale_param {
    bias_term: true
  }
}
layer {
  name: "res5a_branch2a"
  type: "Convolution"
  bottom: "res4f"
  top: "res5a_branch2a"
  convolution_param {
    num_output: 512
    bias_term: false
    pad: 0
    kernel_size: 1
    stride: 2
  }
}
layer {
  name: "bn5a_branch2a"
  type: "BatchNorm"
  bottom: "res5a_branch2a"
  top: "res5a_branch2a"
  batch_norm_param {
    use_global_stats: true
  }
}
layer {
  name: "scale5a_branch2a"
  type: "Scale"
  bottom: "res5a_branch2a"
  top: "res5a_branch2a"
  scale_param {
    bias_term: true
  }
}
layer {
  name: "res5a_branch2a_relu"
  type: "ReLU"
  bottom: "res5a_branch2a"
  top: "res5a_branch2a"
}
layer {
  name: "res5a_branch2b"
  type: "Convolution"
  bottom: "res5a_branch2a"
  top: "res5a_branch2b"
  convolution_param {
    num_output: 512
    bias_term: false
    pad: 1
    kernel_size: 3
    stride: 1
  }
}
layer {
  name: "bn5a_branch2b"
  type: "BatchNorm"
  bottom: "res5a_branch2b"
  top: "res5a_branch2b"
  batch_norm_param {
    use_global_stats: true
  }
}
layer {
  name: "scale5a_branch2b"
  type: "Scale"
  bottom: "res5a_branch2b"
  top: "res5a_branch2b"
  scale_param {
    bias_term: true
  }
}
layer {
  name: "res5a_branch2b_relu"
  type: "ReLU"
  bottom: "res5a_branch2b"
  top: "res5a_branch2b"
}
layer {
  name: "res5a_branch2c"
  type: "Convolution"
  bottom: "res5a_branch2b"
  top: "res5a_branch2c"
  convolution_param {
    num_output: 2048
    bias_term: false
    pad: 0
    kernel_si
I1213 23:56:46.165184 14932 layer_factory.hpp:77] Creating layer data
I1213 23:56:46.165241 14932 net.cpp:100] Creating Layer data
I1213 23:56:46.165263 14932 net.cpp:408] data -> data
I1213 23:56:46.165298 14932 net.cpp:408] data -> label
I1213 23:56:46.165817 14932 image_data_layer.cpp:38] Opening file market_evaluation/dataset/train.txt
I1213 23:56:46.170897 14932 image_data_layer.cpp:53] Shuffling data
I1213 23:56:46.172395 14932 image_data_layer.cpp:58] A total of 11642 images.
I1213 23:56:46.240330 14932 image_data_layer.cpp:85] output data size: 2,3,224,224
I1213 23:56:46.248430 14932 net.cpp:150] Setting up data
I1213 23:56:46.248469 14932 net.cpp:157] Top shape: 2 3 224 224 (301056)
I1213 23:56:46.248478 14932 net.cpp:157] Top shape: 2 (2)
I1213 23:56:46.248482 14932 net.cpp:165] Memory required for data: 1204232
I1213 23:56:46.248492 14932 layer_factory.hpp:77] Creating layer conv1
I1213 23:56:46.248538 14932 net.cpp:100] Creating Layer conv1
I1213 23:56:46.248561 14932 net.cpp:434] conv1 <- data
I1213 23:56:46.248587 14932 net.cpp:408] conv1 -> conv1
I1213 23:56:47.193416 14932 net.cpp:150] Setting up conv1
I1213 23:56:47.193450 14932 net.cpp:157] Top shape: 2 64 112 112 (1605632)
I1213 23:56:47.193454 14932 net.cpp:165] Memory required for data: 7626760
I1213 23:56:47.193470 14932 layer_factory.hpp:77] Creating layer bn_conv1
I1213 23:56:47.193480 14932 net.cpp:100] Creating Layer bn_conv1
I1213 23:56:47.193485 14932 net.cpp:434] bn_conv1 <- conv1
I1213 23:56:47.193490 14932 net.cpp:395] bn_conv1 -> conv1 (in-place)
I1213 23:56:47.193635 14932 net.cpp:150] Setting up bn_conv1
I1213 23:56:47.193642 14932 net.cpp:157] Top shape: 2 64 112 112 (1605632)
I1213 23:56:47.193655 14932 net.cpp:165] Memory required for data: 14049288
I1213 23:56:47.193662 14932 layer_factory.hpp:77] Creating layer scale_conv1
I1213 23:56:47.193670 14932 net.cpp:100] Creating Layer scale_conv1
I1213 23:56:47.193672 14932 net.cpp:434] scale_conv1 <- conv1
I1213 23:56:47.193675 14932 net.cpp:395] scale_conv1 -> conv1 (in-place)
I1213 23:56:47.193704 14932 layer_factory.hpp:77] Creating layer scale_conv1
I1213 23:56:47.193801 14932 net.cpp:150] Setting up scale_conv1
I1213 23:56:47.193806 14932 net.cpp:157] Top shape: 2 64 112 112 (1605632)
I1213 23:56:47.193819 14932 net.cpp:165] Memory required for data: 20471816
I1213 23:56:47.193822 14932 layer_factory.hpp:77] Creating layer conv1_relu
I1213 23:56:47.193828 14932 net.cpp:100] Creating Layer conv1_relu
I1213 23:56:47.193831 14932 net.cpp:434] conv1_relu <- conv1
I1213 23:56:47.193835 14932 net.cpp:395] conv1_relu -> conv1 (in-place)
I1213 23:56:47.194422 14932 net.cpp:150] Setting up conv1_relu
I1213 23:56:47.194430 14932 net.cpp:157] Top shape: 2 64 112 112 (1605632)
I1213 23:56:47.194443 14932 net.cpp:165] Memory required for data: 26894344
I1213 23:56:47.194447 14932 layer_factory.hpp:77] Creating layer pool1
I1213 23:56:47.194453 14932 net.cpp:100] Creating Layer pool1
I1213 23:56:47.194455 14932 net.cpp:434] pool1 <- conv1
I1213 23:56:47.194459 14932 net.cpp:408] pool1 -> pool1
I1213 23:56:47.194504 14932 net.cpp:150] Setting up pool1
I1213 23:56:47.194521 14932 net.cpp:157] Top shape: 2 64 56 56 (401408)
I1213 23:56:47.194525 14932 net.cpp:165] Memory required for data: 28499976
I1213 23:56:47.194530 14932 layer_factory.hpp:77] Creating layer pool1_pool1_0_split
I1213 23:56:47.194538 14932 net.cpp:100] Creating Layer pool1_pool1_0_split
I1213 23:56:47.194553 14932 net.cpp:434] pool1_pool1_0_split <- pool1
I1213 23:56:47.194561 14932 net.cpp:408] pool1_pool1_0_split -> pool1_pool1_0_split_0
I1213 23:56:47.194581 14932 net.cpp:408] pool1_pool1_0_split -> pool1_pool1_0_split_1
I1213 23:56:47.194628 14932 net.cpp:150] Setting up pool1_pool1_0_split
I1213 23:56:47.194633 14932 net.cpp:157] Top shape: 2 64 56 56 (401408)
I1213 23:56:47.194636 14932 net.cpp:157] Top shape: 2 64 56 56 (401408)
I1213 23:56:47.194638 14932 net.cpp:165] Memory required for data: 31711240
I1213 23:56:47.194640 14932 layer_factory.hpp:77] Creating layer res2a_branch1
I1213 23:56:47.194646 14932 net.cpp:100] Creating Layer res2a_branch1
I1213 23:56:47.194650 14932 net.cpp:434] res2a_branch1 <- pool1_pool1_0_split_0
I1213 23:56:47.194656 14932 net.cpp:408] res2a_branch1 -> res2a_branch1
I1213 23:56:47.198112 14932 net.cpp:150] Setting up res2a_branch1
I1213 23:56:47.198122 14932 net.cpp:157] Top shape: 2 256 56 56 (1605632)
I1213 23:56:47.198127 14932 net.cpp:165] Memory required for data: 38133768
I1213 23:56:47.198133 14932 layer_factory.hpp:77] Creating layer bn2a_branch1
I1213 23:56:47.198165 14932 net.cpp:100] Creating Layer bn2a_branch1
I1213 23:56:47.198170 14932 net.cpp:434] bn2a_branch1 <- res2a_branch1
I1213 23:56:47.198176 14932 net.cpp:395] bn2a_branch1 -> res2a_branch1 (in-place)
I1213 23:56:47.198644 14932 net.cpp:150] Setting up bn2a_branch1
I1213 23:56:47.198654 14932 net.cpp:157] Top shape: 2 256 56 56 (1605632)
I1213 23:56:47.198658 14932 net.cpp:165] Memory required for data: 44556296
I1213 23:56:47.198670 14932 layer_factory.hpp:77] Creating layer scale2a_branch1
I1213 23:56:47.198690 14932 net.cpp:100] Creating Layer scale2a_branch1
I1213 23:56:47.198698 14932 net.cpp:434] scale2a_branch1 <- res2a_branch1
I1213 23:56:47.198704 14932 net.cpp:395] scale2a_branch1 -> res2a_branch1 (in-place)
I1213 23:56:47.198746 14932 layer_factory.hpp:77] Creating layer scale2a_branch1
I1213 23:56:47.198817 14932 net.cpp:150] Setting up scale2a_branch1
I1213 23:56:47.198823 14932 net.cpp:157] Top shape: 2 256 56 56 (1605632)
I1213 23:56:47.198827 14932 net.cpp:165] Memory required for data: 50978824
I1213 23:56:47.198834 14932 layer_factory.hpp:77] Creating layer res2a_branch2a
I1213 23:56:47.198844 14932 net.cpp:100] Creating Layer res2a_branch2a
I1213 23:56:47.198849 14932 net.cpp:434] res2a_branch2a <- pool1_pool1_0_split_1
I1213 23:56:47.198856 14932 net.cpp:408] res2a_branch2a -> res2a_branch2a
I1213 23:56:47.201793 14932 net.cpp:150] Setting up res2a_branch2a
I1213 23:56:47.201803 14932 net.cpp:157] Top shape: 2 64 56 56 (401408)
I1213 23:56:47.201807 14932 net.cpp:165] Memory required for data: 52584456
I1213 23:56:47.201814 14932 layer_factory.hpp:77] Creating layer bn2a_branch2a
I1213 23:56:47.201833 14932 net.cpp:100] Creating Layer bn2a_branch2a
I1213 23:56:47.201836 14932 net.cpp:434] bn2a_branch2a <- res2a_branch2a
I1213 23:56:47.201839 14932 net.cpp:395] bn2a_branch2a -> res2a_branch2a (in-place)
I1213 23:56:47.201953 14932 net.cpp:150] Setting up bn2a_branch2a
I1213 23:56:47.201958 14932 net.cpp:157] Top shape: 2 64 56 56 (401408)
I1213 23:56:47.201962 14932 net.cpp:165] Memory required for data: 54190088
I1213 23:56:47.201970 14932 layer_factory.hpp:77] Creating layer scale2a_branch2a
I1213 23:56:47.201975 14932 net.cpp:100] Creating Layer scale2a_branch2a
I1213 23:56:47.201978 14932 net.cpp:434] scale2a_branch2a <- res2a_branch2a
I1213 23:56:47.201982 14932 net.cpp:395] scale2a_branch2a -> res2a_branch2a (in-place)
I1213 23:56:47.202014 14932 layer_factory.hpp:77] Creating layer scale2a_branch2a
I1213 23:56:47.202101 14932 net.cpp:150] Setting up scale2a_branch2a
I1213 23:56:47.202106 14932 net.cpp:157] Top shape: 2 64 56 56 (401408)
I1213 23:56:47.202118 14932 net.cpp:165] Memory required for data: 55795720
I1213 23:56:47.202122 14932 layer_factory.hpp:77] Creating layer res2a_branch2a_relu
I1213 23:56:47.202126 14932 net.cpp:100] Creating Layer res2a_branch2a_relu
I1213 23:56:47.202131 14932 net.cpp:434] res2a_branch2a_relu <- res2a_branch2a
I1213 23:56:47.202136 14932 net.cpp:395] res2a_branch2a_relu -> res2a_branch2a (in-place)
I1213 23:56:47.203996 14932 net.cpp:150] Setting up res2a_branch2a_relu
I1213 23:56:47.204006 14932 net.cpp:157] Top shape: 2 64 56 56 (401408)
I1213 23:56:47.204010 14932 net.cpp:165] Memory required for data: 57401352
I1213 23:56:47.204015 14932 layer_factory.hpp:77] Creating layer res2a_branch2b
I1213 23:56:47.204037 14932 net.cpp:100] Creating Layer res2a_branch2b
I1213 23:56:47.204042 14932 net.cpp:434] res2a_branch2b <- res2a_branch2a
I1213 23:56:47.204049 14932 net.cpp:408] res2a_branch2b -> res2a_branch2b
I1213 23:56:47.208014 14932 net.cpp:150] Setting up res2a_branch2b
I1213 23:56:47.208030 14932 net.cpp:157] Top shape: 2 64 56 56 (401408)
I1213 23:56:47.208034 14932 net.cpp:165] Memory required for data: 59006984
I1213 23:56:47.208044 14932 layer_factory.hpp:77] Creating layer bn2a_branch2b
I1213 23:56:47.208065 14932 net.cpp:100] Creating Layer bn2a_branch2b
I1213 23:56:47.208070 14932 net.cpp:434] bn2a_branch2b <- res2a_branch2b
I1213 23:56:47.208075 14932 net.cpp:395] bn2a_branch2b -> res2a_branch2b (in-place)
I1213 23:56:47.208204 14932 net.cpp:150] Setting up bn2a_branch2b
I1213 23:56:47.208209 14932 net.cpp:157] Top shape: 2 64 56 56 (401408)
I1213 23:56:47.208212 14932 net.cpp:165] Memory required for data: 60612616
I1213 23:56:47.208217 14932 layer_factory.hpp:77] Creating layer scale2a_branch2b
I1213 23:56:47.208225 14932 net.cpp:100] Creating Layer scale2a_branch2b
I1213 23:56:47.208227 14932 net.cpp:434] scale2a_branch2b <- res2a_branch2b
I1213 23:56:47.208230 14932 net.cpp:395] scale2a_branch2b -> res2a_branch2b (in-place)
I1213 23:56:47.208256 14932 layer_factory.hpp:77] Creating layer scale2a_branch2b
I1213 23:56:47.208340 14932 net.cpp:150] Setting up scale2a_branch2b
I1213 23:56:47.208348 14932 net.cpp:157] Top shape: 2 64 56 56 (401408)
I1213 23:56:47.208353 14932 net.cpp:165] Memory required for data: 62218248
I1213 23:56:47.208359 14932 layer_factory.hpp:77] Creating layer res2a_branch2b_relu
I1213 23:56:47.208377 14932 net.cpp:100] Creating Layer res2a_branch2b_relu
I1213 23:56:47.208382 14932 net.cpp:434] res2a_branch2b_relu <- res2a_branch2b
I1213 23:56:47.208389 14932 net.cpp:395] res2a_branch2b_relu -> res2a_branch2b (in-place)
I1213 23:56:47.209033 14932 net.cpp:150] Setting up res2a_branch2b_relu
I1213 23:56:47.209040 14932 net.cpp:157] Top shape: 2 64 56 56 (401408)
I1213 23:56:47.209044 14932 net.cpp:165] Memory required for data: 63823880
I1213 23:56:47.209049 14932 layer_factory.hpp:77] Creating layer res2a_branch2c
I1213 23:56:47.209066 14932 net.cpp:100] Creating Layer res2a_branch2c
I1213 23:56:47.209084 14932 net.cpp:434] res2a_branch2c <- res2a_branch2b
I1213 23:56:47.209091 14932 net.cpp:408] res2a_branch2c -> res2a_branch2c
I1213 23:56:47.215656 14932 net.cpp:150] Setting up res2a_branch2c
I1213 23:56:47.215677 14932 net.cpp:157] Top shape: 2 256 56 56 (1605632)
I1213 23:56:47.215682 14932 net.cpp:165] Memory required for data: 70246408
I1213 23:56:47.215697 14932 layer_factory.hpp:77] Creating layer bn2a_branch2c
I1213 23:56:47.215718 14932 net.cpp:100] Creating Layer bn2a_branch2c
I1213 23:56:47.215723 14932 net.cpp:434] bn2a_branch2c <- res2a_branch2c
I1213 23:56:47.215729 14932 net.cpp:395] bn2a_branch2c -> res2a_branch2c (in-place)
I1213 23:56:47.215878 14932 net.cpp:150] Setting up bn2a_branch2c
I1213 23:56:47.215884 14932 net.cpp:157] Top shape: 2 256 56 56 (1605632)
I1213 23:56:47.215888 14932 net.cpp:165] Memory required for data: 76668936
I1213 23:56:47.215898 14932 layer_factory.hpp:77] Creating layer scale2a_branch2c
I1213 23:56:47.215915 14932 net.cpp:100] Creating Layer scale2a_branch2c
I1213 23:56:47.215931 14932 net.cpp:434] scale2a_branch2c <- res2a_branch2c
I1213 23:56:47.215939 14932 net.cpp:395] scale2a_branch2c -> res2a_branch2c (in-place)
I1213 23:56:47.215973 14932 layer_factory.hpp:77] Creating layer scale2a_branch2c
I1213 23:56:47.216050 14932 net.cpp:150] Setting up scale2a_branch2c
I1213 23:56:47.216058 14932 net.cpp:157] Top shape: 2 256 56 56 (1605632)
I1213 23:56:47.216063 14932 net.cpp:165] Memory required for data: 83091464
I1213 23:56:47.216069 14932 layer_factory.hpp:77] Creating layer res2a
I1213 23:56:47.216081 14932 net.cpp:100] Creating Layer res2a
I1213 23:56:47.216086 14932 net.cpp:434] res2a <- res2a_branch1
I1213 23:56:47.216092 14932 net.cpp:434] res2a <- res2a_branch2c
I1213 23:56:47.216099 14932 net.cpp:408] res2a -> res2a
I1213 23:56:47.216125 14932 net.cpp:150] Setting up res2a
I1213 23:56:47.216131 14932 net.cpp:157] Top shape: 2 256 56 56 (1605632)
I1213 23:56:47.216136 14932 net.cpp:165] Memory required for data: 89513992
I1213 23:56:47.216141 14932 layer_factory.hpp:77] Creating layer res2a_relu
I1213 23:56:47.216145 14932 net.cpp:100] Creating Layer res2a_relu
I1213 23:56:47.216147 14932 net.cpp:434] res2a_relu <- res2a
I1213 23:56:47.216151 14932 net.cpp:395] res2a_relu -> res2a (in-place)
I1213 23:56:47.216878 14932 net.cpp:150] Setting up res2a_relu
I1213 23:56:47.216887 14932 net.cpp:157] Top shape: 2 256 56 56 (1605632)
I1213 23:56:47.216892 14932 net.cpp:165] Memory required for data: 95936520
I1213 23:56:47.216897 14932 layer_factory.hpp:77] Creating layer res2a_res2a_relu_0_split
I1213 23:56:47.216904 14932 net.cpp:100] Creating Layer res2a_res2a_relu_0_split
I1213 23:56:47.216917 14932 net.cpp:434] res2a_res2a_relu_0_split <- res2a
I1213 23:56:47.216920 14932 net.cpp:408] res2a_res2a_relu_0_split -> res2a_res2a_relu_0_split_0
I1213 23:56:47.216925 14932 net.cpp:408] res2a_res2a_relu_0_split -> res2a_res2a_relu_0_split_1
I1213 23:56:47.216961 14932 net.cpp:150] Setting up res2a_res2a_relu_0_split
I1213 23:56:47.216966 14932 net.cpp:157] Top shape: 2 256 56 56 (1605632)
I1213 23:56:47.216979 14932 net.cpp:157] Top shape: 2 256 56 56 (1605632)
I1213 23:56:47.216981 14932 net.cpp:165] Memory required for data: 108781576
I1213 23:56:47.216984 14932 layer_factory.hpp:77] Creating layer res2b_branch2a
I1213 23:56:47.216989 14932 net.cpp:100] Creating Layer res2b_branch2a
I1213 23:56:47.216991 14932 net.cpp:434] res2b_branch2a <- res2a_res2a_relu_0_split_0
I1213 23:56:47.216995 14932 net.cpp:408] res2b_branch2a -> res2b_branch2a
I1213 23:56:47.221314 14932 net.cpp:150] Setting up res2b_branch2a
I1213 23:56:47.221325 14932 net.cpp:157] Top shape: 2 64 56 56 (401408)
I1213 23:56:47.221328 14932 net.cpp:165] Memory required for data: 110387208
I1213 23:56:47.221331 14932 layer_factory.hpp:77] Creating layer bn2b_branch2a
I1213 23:56:47.221336 14932 net.cpp:100] Creating Layer bn2b_branch2a
I1213 23:56:47.221339 14932 net.cpp:434] bn2b_branch2a <- res2b_branch2a
I1213 23:56:47.221343 14932 net.cpp:395] bn2b_branch2a -> res2b_branch2a (in-place)
I1213 23:56:47.221464 14932 net.cpp:150] Setting up bn2b_branch2a
I1213 23:56:47.221472 14932 net.cpp:157] Top shape: 2 64 56 56 (401408)
I1213 23:56:47.221474 14932 net.cpp:165] Memory required for data: 111992840
I1213 23:56:47.221489 14932 layer_factory.hpp:77] Creating layer scale2b_branch2a
I1213 23:56:47.221498 14932 net.cpp:100] Creating Layer scale2b_branch2a
I1213 23:56:47.221504 14932 net.cpp:434] scale2b_branch2a <- res2b_branch2a
I1213 23:56:47.221524 14932 net.cpp:395] scale2b_branch2a -> res2b_branch2a (in-place)
I1213 23:56:47.221560 14932 layer_factory.hpp:77] Creating layer scale2b_branch2a
I1213 23:56:47.221649 14932 net.cpp:150] Setting up scale2b_branch2a
I1213 23:56:47.221657 14932 net.cpp:157] Top shape: 2 64 56 56 (401408)
I1213 23:56:47.221662 14932 net.cpp:165] Memory required for data: 113598472
I1213 23:56:47.221669 14932 layer_factory.hpp:77] Creating layer res2b_branch2a_relu
I1213 23:56:47.221676 14932 net.cpp:100] Creating Layer res2b_branch2a_relu
I1213 23:56:47.221681 14932 net.cpp:434] res2b_branch2a_relu <- res2b_branch2a
I1213 23:56:47.221688 14932 net.cpp:395] res2b_branch2a_relu -> res2b_branch2a (in-place)
I1213 23:56:47.223201 14932 net.cpp:150] Setting up res2b_branch2a_relu
I1213 23:56:47.223212 14932 net.cpp:157] Top shape: 2 64 56 56 (401408)
I1213 23:56:47.223215 14932 net.cpp:165] Memory required for data: 115204104
I1213 23:56:47.223220 14932 layer_factory.hpp:77] Creating layer res2b_branch2b
I1213 23:56:47.223239 14932 net.cpp:100] Creating Layer res2b_branch2b
I1213 23:56:47.223242 14932 net.cpp:434] res2b_branch2b <- res2b_branch2a
I1213 23:56:47.223248 14932 net.cpp:408] res2b_branch2b -> res2b_branch2b
I1213 23:56:47.227223 14932 net.cpp:150] Setting up res2b_branch2b
I1213 23:56:47.227243 14932 net.cpp:157] Top shape: 2 64 56 56 (401408)
I1213 23:56:47.227246 14932 net.cpp:165] Memory required for data: 116809736
I1213 23:56:47.227250 14932 layer_factory.hpp:77] Creating layer bn2b_branch2b
I1213 23:56:47.227255 14932 net.cpp:100] Creating Layer bn2b_branch2b
I1213 23:56:47.227258 14932 net.cpp:434] bn2b_branch2b <- res2b_branch2b
I1213 23:56:47.227262 14932 net.cpp:395] bn2b_branch2b -> res2b_branch2b (in-place)
I1213 23:56:47.227396 14932 net.cpp:150] Setting up bn2b_branch2b
I1213 23:56:47.227401 14932 net.cpp:157] Top shape: 2 64 56 56 (401408)
I1213 23:56:47.227413 14932 net.cpp:165] Memory required for data: 118415368
I1213 23:56:47.227419 14932 layer_factory.hpp:77] Creating layer scale2b_branch2b
I1213 23:56:47.227424 14932 net.cpp:100] Creating Layer scale2b_branch2b
I1213 23:56:47.227427 14932 net.cpp:434] scale2b_branch2b <- res2b_branch2b
I1213 23:56:47.227430 14932 net.cpp:395] scale2b_branch2b -> res2b_branch2b (in-place)
I1213 23:56:47.227466 14932 layer_factory.hpp:77] Creating layer scale2b_branch2b
I1213 23:56:47.227553 14932 net.cpp:150] Setting up scale2b_branch2b
I1213 23:56:47.227560 14932 net.cpp:157] Top shape: 2 64 56 56 (401408)
I1213 23:56:47.227566 14932 net.cpp:165] Memory required for data: 120021000
I1213 23:56:47.227572 14932 layer_factory.hpp:77] Creating layer res2b_branch2b_relu
I1213 23:56:47.227581 14932 net.cpp:100] Creating Layer res2b_branch2b_relu
I1213 23:56:47.227583 14932 net.cpp:434] res2b_branch2b_relu <- res2b_branch2b
I1213 23:56:47.227587 14932 net.cpp:395] res2b_branch2b_relu -> res2b_branch2b (in-place)
I1213 23:56:47.228879 14932 net.cpp:150] Setting up res2b_branch2b_relu
I1213 23:56:47.228885 14932 net.cpp:157] Top shape: 2 64 56 56 (401408)
I1213 23:56:47.228898 14932 net.cpp:165] Memory required for data: 121626632
I1213 23:56:47.228899 14932 layer_factory.hpp:77] Creating layer res2b_branch2c
I1213 23:56:47.228909 14932 net.cpp:100] Creating Layer res2b_branch2c
I1213 23:56:47.228912 14932 net.cpp:434] res2b_branch2c <- res2b_branch2b
I1213 23:56:47.228916 14932 net.cpp:408] res2b_branch2c -> res2b_branch2c
I1213 23:56:47.232772 14932 net.cpp:150] Setting up res2b_branch2c
I1213 23:56:47.232782 14932 net.cpp:157] Top shape: 2 256 56 56 (1605632)
I1213 23:56:47.232795 14932 net.cpp:165] Memory required for data: 128049160
I1213 23:56:47.232800 14932 layer_factory.hpp:77] Creating layer bn2b_branch2c
I1213 23:56:47.232805 14932 net.cpp:100] Creating Layer bn2b_branch2c
I1213 23:56:47.232807 14932 net.cpp:434] bn2b_branch2c <- res2b_branch2c
I1213 23:56:47.232810 14932 net.cpp:395] bn2b_branch2c -> res2b_branch2c (in-place)
I1213 23:56:47.232942 14932 net.cpp:150] Setting up bn2b_branch2c
I1213 23:56:47.232949 14932 net.cpp:157] Top shape: 2 256 56 56 (1605632)
I1213 23:56:47.232954 14932 net.cpp:165] Memory required for data: 134471688
I1213 23:56:47.232962 14932 layer_factory.hpp:77] Creating layer scale2b_branch2c
I1213 23:56:47.232970 14932 net.cpp:100] Creating Layer scale2b_branch2c
I1213 23:56:47.232975 14932 net.cpp:434] scale2b_branch2c <- res2b_branch2c
I1213 23:56:47.232982 14932 net.cpp:395] scale2b_branch2c -> res2b_branch2c (in-place)
I1213 23:56:47.233021 14932 layer_factory.hpp:77] Creating layer scale2b_branch2c
I1213 23:56:47.233119 14932 net.cpp:150] Setting up scale2b_branch2c
I1213 23:56:47.233124 14932 net.cpp:157] Top shape: 2 256 56 56 (1605632)
I1213 23:56:47.233136 14932 net.cpp:165] Memory required for data: 140894216
I1213 23:56:47.233140 14932 layer_factory.hpp:77] Creating layer res2b
I1213 23:56:47.233144 14932 net.cpp:100] Creating Layer res2b
I1213 23:56:47.233147 14932 net.cpp:434] res2b <- res2a_res2a_relu_0_split_1
I1213 23:56:47.233150 14932 net.cpp:434] res2b <- res2b_branch2c
I1213 23:56:47.233153 14932 net.cpp:408] res2b -> res2b
I1213 23:56:47.233187 14932 net.cpp:150] Setting up res2b
I1213 23:56:47.233194 14932 net.cpp:157] Top shape: 2 256 56 56 (1605632)
I1213 23:56:47.233198 14932 net.cpp:165] Memory required for data: 147316744
I1213 23:56:47.233203 14932 layer_factory.hpp:77] Creating layer res2b_relu
I1213 23:56:47.233211 14932 net.cpp:100] Creating Layer res2b_relu
I1213 23:56:47.233223 14932 net.cpp:434] res2b_relu <- res2b
I1213 23:56:47.233227 14932 net.cpp:395] res2b_relu -> res2b (in-place)
I1213 23:56:47.233889 14932 net.cpp:150] Setting up res2b_relu
I1213 23:56:47.233898 14932 net.cpp:157] Top shape: 2 256 56 56 (1605632)
I1213 23:56:47.233911 14932 net.cpp:165] Memory required for data: 153739272
I1213 23:56:47.233913 14932 layer_factory.hpp:77] Creating layer res2b_res2b_relu_0_split
I1213 23:56:47.233918 14932 net.cpp:100] Creating Layer res2b_res2b_relu_0_split
I1213 23:56:47.233921 14932 net.cpp:434] res2b_res2b_relu_0_split <- res2b
I1213 23:56:47.233924 14932 net.cpp:408] res2b_res2b_relu_0_split -> res2b_res2b_relu_0_split_0
I1213 23:56:47.233932 14932 net.cpp:408] res2b_res2b_relu_0_split -> res2b_res2b_relu_0_split_1
I1213 23:56:47.233973 14932 net.cpp:150] Setting up res2b_res2b_relu_0_split
I1213 23:56:47.233980 14932 net.cpp:157] Top shape: 2 256 56 56 (1605632)
I1213 23:56:47.233985 14932 net.cpp:157] Top shape: 2 256 56 56 (1605632)
I1213 23:56:47.233991 14932 net.cpp:165] Memory required for data: 166584328
I1213 23:56:47.234004 14932 layer_factory.hpp:77] Creating layer res2c_branch2a
I1213 23:56:47.234010 14932 net.cpp:100] Creating Layer res2c_branch2a
I1213 23:56:47.234012 14932 net.cpp:434] res2c_branch2a <- res2b_res2b_relu_0_split_0
I1213 23:56:47.234016 14932 net.cpp:408] res2c_branch2a -> res2c_branch2a
I1213 23:56:47.237781 14932 net.cpp:150] Setting up res2c_branch2a
I1213 23:56:47.237792 14932 net.cpp:157] Top shape: 2 64 56 56 (401408)
I1213 23:56:47.237797 14932 net.cpp:165] Memory required for data: 168189960
I1213 23:56:47.237802 14932 layer_factory.hpp:77] Creating layer bn2c_branch2a
I1213 23:56:47.237823 14932 net.cpp:100] Creating Layer bn2c_branch2a
I1213 23:56:47.237828 14932 net.cpp:434] bn2c_branch2a <- res2c_branch2a
I1213 23:56:47.237834 14932 net.cpp:395] bn2c_branch2a -> res2c_branch2a (in-place)
I1213 23:56:47.237965 14932 net.cpp:150] Setting up bn2c_branch2a
I1213 23:56:47.237973 14932 net.cpp:157] Top shape: 2 64 56 56 (401408)
I1213 23:56:47.237977 14932 net.cpp:165] Memory required for data: 169795592
I1213 23:56:47.237987 14932 layer_factory.hpp:77] Creating layer scale2c_branch2a
I1213 23:56:47.238006 14932 net.cpp:100] Creating Layer scale2c_branch2a
I1213 23:56:47.238011 14932 net.cpp:434] scale2c_branch2a <- res2c_branch2a
I1213 23:56:47.238018 14932 net.cpp:395] scale2c_branch2a -> res2c_branch2a (in-place)
I1213 23:56:47.238052 14932 layer_factory.hpp:77] Creating layer scale2c_branch2a
I1213 23:56:47.238134 14932 net.cpp:150] Setting up scale2c_branch2a
I1213 23:56:47.238142 14932 net.cpp:157] Top shape: 2 64 56 56 (401408)
I1213 23:56:47.238147 14932 net.cpp:165] Memory required for data: 171401224
I1213 23:56:47.238153 14932 layer_factory.hpp:77] Creating layer res2c_branch2a_relu
I1213 23:56:47.238160 14932 net.cpp:100] Creating Layer res2c_branch2a_relu
I1213 23:56:47.238167 14932 net.cpp:434] res2c_branch2a_relu <- res2c_branch2a
I1213 23:56:47.238173 14932 net.cpp:395] res2c_branch2a_relu -> res2c_branch2a (in-place)
I1213 23:56:47.238870 14932 net.cpp:150] Setting up res2c_branch2a_relu
I1213 23:56:47.238880 14932 net.cpp:157] Top shape: 2 64 56 56 (401408)
I1213 23:56:47.238884 14932 net.cpp:165] Memory required for data: 173006856
I1213 23:56:47.238888 14932 layer_factory.hpp:77] Creating layer res2c_branch2b
I1213 23:56:47.238909 14932 net.cpp:100] Creating Layer res2c_branch2b
I1213 23:56:47.238914 14932 net.cpp:434] res2c_branch2b <- res2c_branch2a
I1213 23:56:47.238920 14932 net.cpp:408] res2c_branch2b -> res2c_branch2b
I1213 23:56:47.242568 14932 net.cpp:150] Setting up res2c_branch2b
I1213 23:56:47.242579 14932 net.cpp:157] Top shape: 2 64 56 56 (401408)
I1213 23:56:47.242584 14932 net.cpp:165] Memory required for data: 174612488
I1213 23:56:47.242590 14932 layer_factory.hpp:77] Creating layer bn2c_branch2b
I1213 23:56:47.242609 14932 net.cpp:100] Creating Layer bn2c_branch2b
I1213 23:56:47.242612 14932 net.cpp:434] bn2c_branch2b <- res2c_branch2b
I1213 23:56:47.242615 14932 net.cpp:395] bn2c_branch2b -> res2c_branch2b (in-place)
I1213 23:56:47.242750 14932 net.cpp:150] Setting up bn2c_branch2b
I1213 23:56:47.242755 14932 net.cpp:157] Top shape: 2 64 56 56 (401408)
I1213 23:56:47.242768 14932 net.cpp:165] Memory required for data: 176218120
I1213 23:56:47.242772 14932 layer_factory.hpp:77] Creating layer scale2c_branch2b
I1213 23:56:47.242777 14932 net.cpp:100] Creating Layer scale2c_branch2b
I1213 23:56:47.242780 14932 net.cpp:434] scale2c_branch2b <- res2c_branch2b
I1213 23:56:47.242784 14932 net.cpp:395] scale2c_branch2b -> res2c_branch2b (in-place)
I1213 23:56:47.242820 14932 layer_factory.hpp:77] Creating layer scale2c_branch2b
I1213 23:56:47.242913 14932 net.cpp:150] Setting up scale2c_branch2b
I1213 23:56:47.242918 14932 net.cpp:157] Top shape: 2 64 56 56 (401408)
I1213 23:56:47.242930 14932 net.cpp:165] Memory required for data: 177823752
I1213 23:56:47.242935 14932 layer_factory.hpp:77] Creating layer res2c_branch2b_relu
I1213 23:56:47.242939 14932 net.cpp:100] Creating Layer res2c_branch2b_relu
I1213 23:56:47.242943 14932 net.cpp:434] res2c_branch2b_relu <- res2c_branch2b
I1213 23:56:47.242945 14932 net.cpp:395] res2c_branch2b_relu -> res2c_branch2b (in-place)
I1213 23:56:47.243612 14932 net.cpp:150] Setting up res2c_branch2b_relu
I1213 23:56:47.243618 14932 net.cpp:157] Top shape: 2 64 56 56 (401408)
I1213 23:56:47.243629 14932 net.cpp:165] Memory required for data: 179429384
I1213 23:56:47.243631 14932 layer_factory.hpp:77] Creating layer res2c_branch2c
I1213 23:56:47.243638 14932 net.cpp:100] Creating Layer res2c_branch2c
I1213 23:56:47.243640 14932 net.cpp:434] res2c_branch2c <- res2c_branch2b
I1213 23:56:47.243644 14932 net.cpp:408] res2c_branch2c -> res2c_branch2c
I1213 23:56:47.247251 14932 net.cpp:150] Setting up res2c_branch2c
I1213 23:56:47.247273 14932 net.cpp:157] Top shape: 2 256 56 56 (1605632)
I1213 23:56:47.247277 14932 net.cpp:165] Memory required for data: 185851912
I1213 23:56:47.247283 14932 layer_factory.hpp:77] Creating layer bn2c_branch2c
I1213 23:56:47.247289 14932 net.cpp:100] Creating Layer bn2c_branch2c
I1213 23:56:47.247294 14932 net.cpp:434] bn2c_branch2c <- res2c_branch2c
I1213 23:56:47.247300 14932 net.cpp:395] bn2c_branch2c -> res2c_branch2c (in-place)
I1213 23:56:47.247467 14932 net.cpp:150] Setting up bn2c_branch2c
I1213 23:56:47.247474 14932 net.cpp:157] Top shape: 2 256 56 56 (1605632)
I1213 23:56:47.247488 14932 net.cpp:165] Memory required for data: 192274440
I1213 23:56:47.247514 14932 layer_factory.hpp:77] Creating layer scale2c_branch2c
I1213 23:56:47.247520 14932 net.cpp:100] Creating Layer scale2c_branch2c
I1213 23:56:47.247534 14932 net.cpp:434] scale2c_branch2c <- res2c_branch2c
I1213 23:56:47.247539 14932 net.cpp:395] scale2c_branch2c -> res2c_branch2c (in-place)
I1213 23:56:47.247582 14932 layer_factory.hpp:77] Creating layer scale2c_branch2c
I1213 23:56:47.247694 14932 net.cpp:150] Setting up scale2c_branch2c
I1213 23:56:47.247701 14932 net.cpp:157] Top shape: 2 256 56 56 (1605632)
I1213 23:56:47.247714 14932 net.cpp:165] Memory required for data: 198696968
I1213 23:56:47.247720 14932 layer_factory.hpp:77] Creating layer res2c
I1213 23:56:47.247727 14932 net.cpp:100] Creating Layer res2c
I1213 23:56:47.247732 14932 net.cpp:434] res2c <- res2b_res2b_relu_0_split_1
I1213 23:56:47.247738 14932 net.cpp:434] res2c <- res2c_branch2c
I1213 23:56:47.247745 14932 net.cpp:408] res2c -> res2c
I1213 23:56:47.247766 14932 net.cpp:150] Setting up res2c
I1213 23:56:47.247772 14932 net.cpp:157] Top shape: 2 256 56 56 (1605632)
I1213 23:56:47.247776 14932 net.cpp:165] Memory required for data: 205119496
I1213 23:56:47.247781 14932 layer_factory.hpp:77] Creating layer res2c_relu
I1213 23:56:47.247787 14932 net.cpp:100] Creating Layer res2c_relu
I1213 23:56:47.247792 14932 net.cpp:434] res2c_relu <- res2c
I1213 23:56:47.247797 14932 net.cpp:395] res2c_relu -> res2c (in-place)
I1213 23:56:47.248364 14932 net.cpp:150] Setting up res2c_relu
I1213 23:56:47.248374 14932 net.cpp:157] Top shape: 2 256 56 56 (1605632)
I1213 23:56:47.248378 14932 net.cpp:165] Memory required for data: 211542024
I1213 23:56:47.248399 14932 layer_factory.hpp:77] Creating layer res2c_res2c_relu_0_split
I1213 23:56:47.248407 14932 net.cpp:100] Creating Layer res2c_res2c_relu_0_split
I1213 23:56:47.248411 14932 net.cpp:434] res2c_res2c_relu_0_split <- res2c
I1213 23:56:47.248428 14932 net.cpp:408] res2c_res2c_relu_0_split -> res2c_res2c_relu_0_split_0
I1213 23:56:47.248437 14932 net.cpp:408] res2c_res2c_relu_0_split -> res2c_res2c_relu_0_split_1
I1213 23:56:47.248476 14932 net.cpp:150] Setting up res2c_res2c_relu_0_split
I1213 23:56:47.248482 14932 net.cpp:157] Top shape: 2 256 56 56 (1605632)
I1213 23:56:47.248488 14932 net.cpp:157] Top shape: 2 256 56 56 (1605632)
I1213 23:56:47.248492 14932 net.cpp:165] Memory required for data: 224387080
I1213 23:56:47.248497 14932 layer_factory.hpp:77] Creating layer res3a_branch1
I1213 23:56:47.248504 14932 net.cpp:100] Creating Layer res3a_branch1
I1213 23:56:47.248509 14932 net.cpp:434] res3a_branch1 <- res2c_res2c_relu_0_split_0
I1213 23:56:47.248515 14932 net.cpp:408] res3a_branch1 -> res3a_branch1
I1213 23:56:47.252755 14932 net.cpp:150] Setting up res3a_branch1
I1213 23:56:47.252777 14932 net.cpp:157] Top shape: 2 512 28 28 (802816)
I1213 23:56:47.252781 14932 net.cpp:165] Memory required for data: 227598344
I1213 23:56:47.252796 14932 layer_factory.hpp:77] Creating layer bn3a_branch1
I1213 23:56:47.252804 14932 net.cpp:100] Creating Layer bn3a_branch1
I1213 23:56:47.252833 14932 net.cpp:434] bn3a_branch1 <- res3a_branch1
I1213 23:56:47.252851 14932 net.cpp:395] bn3a_branch1 -> res3a_branch1 (in-place)
I1213 23:56:47.253427 14932 net.cpp:150] Setting up bn3a_branch1
I1213 23:56:47.253446 14932 net.cpp:157] Top shape: 2 512 28 28 (802816)
I1213 23:56:47.253450 14932 net.cpp:165] Memory required for data: 230809608
I1213 23:56:47.253459 14932 layer_factory.hpp:77] Creating layer scale3a_branch1
I1213 23:56:47.253468 14932 net.cpp:100] Creating Layer scale3a_branch1
I1213 23:56:47.253471 14932 net.cpp:434] scale3a_branch1 <- res3a_branch1
I1213 23:56:47.253479 14932 net.cpp:395] scale3a_branch1 -> res3a_branch1 (in-place)
I1213 23:56:47.253515 14932 layer_factory.hpp:77] Creating layer scale3a_branch1
I1213 23:56:47.253613 14932 net.cpp:150] Setting up scale3a_branch1
I1213 23:56:47.253623 14932 net.cpp:157] Top shape: 2 512 28 28 (802816)
I1213 23:56:47.253628 14932 net.cpp:165] Memory required for data: 234020872
I1213 23:56:47.253634 14932 layer_factory.hpp:77] Creating layer res3a_branch2a
I1213 23:56:47.253643 14932 net.cpp:100] Creating Layer res3a_branch2a
I1213 23:56:47.253648 14932 net.cpp:434] res3a_branch2a <- res2c_res2c_relu_0_split_1
I1213 23:56:47.253654 14932 net.cpp:408] res3a_branch2a -> res3a_branch2a
I1213 23:56:47.257800 14932 net.cpp:150] Setting up res3a_branch2a
I1213 23:56:47.257822 14932 net.cpp:157] Top shape: 2 128 28 28 (200704)
I1213 23:56:47.257827 14932 net.cpp:165] Memory required for data: 234823688
I1213 23:56:47.257833 14932 layer_factory.hpp:77] Creating layer bn3a_branch2a
I1213 23:56:47.257839 14932 net.cpp:100] Creating Layer bn3a_branch2a
I1213 23:56:47.257844 14932 net.cpp:434] bn3a_branch2a <- res3a_branch2a
I1213 23:56:47.257850 14932 net.cpp:395] bn3a_branch2a -> res3a_branch2a (in-place)
I1213 23:56:47.258018 14932 net.cpp:150] Setting up bn3a_branch2a
I1213 23:56:47.258025 14932 net.cpp:157] Top shape: 2 128 28 28 (200704)
I1213 23:56:47.258039 14932 net.cpp:165] Memory required for data: 235626504
I1213 23:56:47.258047 14932 layer_factory.hpp:77] Creating layer scale3a_branch2a
I1213 23:56:47.258054 14932 net.cpp:100] Creating Layer scale3a_branch2a
I1213 23:56:47.258059 14932 net.cpp:434] scale3a_branch2a <- res3a_branch2a
I1213 23:56:47.258064 14932 net.cpp:395] scale3a_branch2a -> res3a_branch2a (in-place)
I1213 23:56:47.258106 14932 layer_factory.hpp:77] Creating layer scale3a_branch2a
I1213 23:56:47.258205 14932 net.cpp:150] Setting up scale3a_branch2a
I1213 23:56:47.258213 14932 net.cpp:157] Top shape: 2 128 28 28 (200704)
I1213 23:56:47.258218 14932 net.cpp:165] Memory required for data: 236429320
I1213 23:56:47.258224 14932 layer_factory.hpp:77] Creating layer res3a_branch2a_relu
I1213 23:56:47.258231 14932 net.cpp:100] Creating Layer res3a_branch2a_relu
I1213 23:56:47.258235 14932 net.cpp:434] res3a_branch2a_relu <- res3a_branch2a
I1213 23:56:47.258241 14932 net.cpp:395] res3a_branch2a_relu -> res3a_branch2a (in-place)
I1213 23:56:47.259050 14932 net.cpp:150] Setting up res3a_branch2a_relu
I1213 23:56:47.259062 14932 net.cpp:157] Top shape: 2 128 28 28 (200704)
I1213 23:56:47.259065 14932 net.cpp:165] Memory required for data: 237232136
I1213 23:56:47.259070 14932 layer_factory.hpp:77] Creating layer res3a_branch2b
I1213 23:56:47.259078 14932 net.cpp:100] Creating Layer res3a_branch2b
I1213 23:56:47.259083 14932 net.cpp:434] res3a_branch2b <- res3a_branch2a
I1213 23:56:47.259090 14932 net.cpp:408] res3a_branch2b -> res3a_branch2b
I1213 23:56:47.262801 14932 net.cpp:150] Setting up res3a_branch2b
I1213 23:56:47.262822 14932 net.cpp:157] Top shape: 2 128 28 28 (200704)
I1213 23:56:47.262827 14932 net.cpp:165] Memory required for data: 238034952
I1213 23:56:47.262833 14932 layer_factory.hpp:77] Creating layer bn3a_branch2b
I1213 23:56:47.262840 14932 net.cpp:100] Creating Layer bn3a_branch2b
I1213 23:56:47.262845 14932 net.cpp:434] bn3a_branch2b <- res3a_branch2b
I1213 23:56:47.262850 14932 net.cpp:395] bn3a_branch2b -> res3a_branch2b (in-place)
I1213 23:56:47.263020 14932 net.cpp:150] Setting up bn3a_branch2b
I1213 23:56:47.263027 14932 net.cpp:157] Top shape: 2 128 28 28 (200704)
I1213 23:56:47.263041 14932 net.cpp:165] Memory required for data: 238837768
I1213 23:56:47.263048 14932 layer_factory.hpp:77] Creating layer scale3a_branch2b
I1213 23:56:47.263056 14932 net.cpp:100] Creating Layer scale3a_branch2b
I1213 23:56:47.263061 14932 net.cpp:434] scale3a_branch2b <- res3a_branch2b
I1213 23:56:47.263065 14932 net.cpp:395] scale3a_branch2b -> res3a_branch2b (in-place)
I1213 23:56:47.263101 14932 layer_factory.hpp:77] Creating layer scale3a_branch2b
I1213 23:56:47.263195 14932 net.cpp:150] Setting up scale3a_branch2b
I1213 23:56:47.263202 14932 net.cpp:157] Top shape: 2 128 28 28 (200704)
I1213 23:56:47.263206 14932 net.cpp:165] Memory required for data: 239640584
I1213 23:56:47.263212 14932 layer_factory.hpp:77] Creating layer res3a_branch2b_relu
I1213 23:56:47.263219 14932 net.cpp:100] Creating Layer res3a_branch2b_relu
I1213 23:56:47.263224 14932 net.cpp:434] res3a_branch2b_relu <- res3a_branch2b
I1213 23:56:47.263229 14932 net.cpp:395] res3a_branch2b_relu -> res3a_branch2b (in-place)
I1213 23:56:47.263908 14932 net.cpp:150] Setting up res3a_branch2b_relu
I1213 23:56:47.263919 14932 net.cpp:157] Top shape: 2 128 28 28 (200704)
I1213 23:56:47.263924 14932 net.cpp:165] Memory required for data: 240443400
I1213 23:56:47.263928 14932 layer_factory.hpp:77] Creating layer res3a_branch2c
I1213 23:56:47.263937 14932 net.cpp:100] Creating Layer res3a_branch2c
I1213 23:56:47.263942 14932 net.cpp:434] res3a_branch2c <- res3a_branch2b
I1213 23:56:47.263949 14932 net.cpp:408] res3a_branch2c -> res3a_branch2c
I1213 23:56:47.267699 14932 net.cpp:150] Setting up res3a_branch2c
I1213 23:56:47.267727 14932 net.cpp:157] Top shape: 2 512 28 28 (802816)
I1213 23:56:47.267741 14932 net.cpp:165] Memory required for data: 243654664
I1213 23:56:47.267756 14932 layer_factory.hpp:77] Creating layer bn3a_branch2c
I1213 23:56:47.267778 14932 net.cpp:100] Creating Layer bn3a_branch2c
I1213 23:56:47.267792 14932 net.cpp:434] bn3a_branch2c <- res3a_branch2c
I1213 23:56:47.267807 14932 net.cpp:395] bn3a_branch2c -> res3a_branch2c (in-place)
I1213 23:56:47.267982 14932 net.cpp:150] Setting up bn3a_branch2c
I1213 23:56:47.267988 14932 net.cpp:157] Top shape: 2 512 28 28 (802816)
I1213 23:56:47.268002 14932 net.cpp:165] Memory required for data: 246865928
I1213 23:56:47.268010 14932 layer_factory.hpp:77] Creating layer scale3a_branch2c
I1213 23:56:47.268018 14932 net.cpp:100] Creating Layer scale3a_branch2c
I1213 23:56:47.268030 14932 net.cpp:434] scale3a_branch2c <- res3a_branch2c
I1213 23:56:47.268035 14932 net.cpp:395] scale3a_branch2c -> res3a_branch2c (in-place)
I1213 23:56:47.268080 14932 layer_factory.hpp:77] Creating layer scale3a_branch2c
I1213 23:56:47.268169 14932 net.cpp:150] Setting up scale3a_branch2c
I1213 23:56:47.268177 14932 net.cpp:157] Top shape: 2 512 28 28 (802816)
I1213 23:56:47.268182 14932 net.cpp:165] Memory required for data: 250077192
I1213 23:56:47.268188 14932 layer_factory.hpp:77] Creating layer res3a
I1213 23:56:47.268195 14932 net.cpp:100] Creating Layer res3a
I1213 23:56:47.268200 14932 net.cpp:434] res3a <- res3a_branch1
I1213 23:56:47.268206 14932 net.cpp:434] res3a <- res3a_branch2c
I1213 23:56:47.268213 14932 net.cpp:408] res3a -> res3a
I1213 23:56:47.268235 14932 net.cpp:150] Setting up res3a
I1213 23:56:47.268242 14932 net.cpp:157] Top shape: 2 512 28 28 (802816)
I1213 23:56:47.268246 14932 net.cpp:165] Memory required for data: 253288456
I1213 23:56:47.268251 14932 layer_factory.hpp:77] Creating layer res3a_relu
I1213 23:56:47.268257 14932 net.cpp:100] Creating Layer res3a_relu
I1213 23:56:47.268262 14932 net.cpp:434] res3a_relu <- res3a
I1213 23:56:47.268268 14932 net.cpp:395] res3a_relu -> res3a (in-place)
I1213 23:56:47.269664 14932 net.cpp:150] Setting up res3a_relu
I1213 23:56:47.269673 14932 net.cpp:157] Top shape: 2 512 28 28 (802816)
I1213 23:56:47.269677 14932 net.cpp:165] Memory required for data: 256499720
I1213 23:56:47.269681 14932 layer_factory.hpp:77] Creating layer res3a_res3a_relu_0_split
I1213 23:56:47.269702 14932 net.cpp:100] Creating Layer res3a_res3a_relu_0_split
I1213 23:56:47.269707 14932 net.cpp:434] res3a_res3a_relu_0_split <- res3a
I1213 23:56:47.269713 14932 net.cpp:408] res3a_res3a_relu_0_split -> res3a_res3a_relu_0_split_0
I1213 23:56:47.269721 14932 net.cpp:408] res3a_res3a_relu_0_split -> res3a_res3a_relu_0_split_1
I1213 23:56:47.269759 14932 net.cpp:150] Setting up res3a_res3a_relu_0_split
I1213 23:56:47.269767 14932 net.cpp:157] Top shape: 2 512 28 28 (802816)
I1213 23:56:47.269773 14932 net.cpp:157] Top shape: 2 512 28 28 (802816)
I1213 23:56:47.269778 14932 net.cpp:165] Memory required for data: 262922248
I1213 23:56:47.269781 14932 layer_factory.hpp:77] Creating layer res3b_branch2a
I1213 23:56:47.269789 14932 net.cpp:100] Creating Layer res3b_branch2a
I1213 23:56:47.269793 14932 net.cpp:434] res3b_branch2a <- res3a_res3a_relu_0_split_0
I1213 23:56:47.269800 14932 net.cpp:408] res3b_branch2a -> res3b_branch2a
I1213 23:56:47.273386 14932 net.cpp:150] Setting up res3b_branch2a
I1213 23:56:47.273409 14932 net.cpp:157] Top shape: 2 128 28 28 (200704)
I1213 23:56:47.273414 14932 net.cpp:165] Memory required for data: 263725064
I1213 23:56:47.273419 14932 layer_factory.hpp:77] Creating layer bn3b_branch2a
I1213 23:56:47.273452 14932 net.cpp:100] Creating Layer bn3b_branch2a
I1213 23:56:47.273458 14932 net.cpp:434] bn3b_branch2a <- res3b_branch2a
I1213 23:56:47.273474 14932 net.cpp:395] bn3b_branch2a -> res3b_branch2a (in-place)
I1213 23:56:47.273653 14932 net.cpp:150] Setting up bn3b_branch2a
I1213 23:56:47.273663 14932 net.cpp:157] Top shape: 2 128 28 28 (200704)
I1213 23:56:47.273676 14932 net.cpp:165] Memory required for data: 264527880
I1213 23:56:47.273684 14932 layer_factory.hpp:77] Creating layer scale3b_branch2a
I1213 23:56:47.273690 14932 net.cpp:100] Creating Layer scale3b_branch2a
I1213 23:56:47.273707 14932 net.cpp:434] scale3b_branch2a <- res3b_branch2a
I1213 23:56:47.273725 14932 net.cpp:395] scale3b_branch2a -> res3b_branch2a (in-place)
I1213 23:56:47.273782 14932 layer_factory.hpp:77] Creating layer scale3b_branch2a
I1213 23:56:47.273895 14932 net.cpp:150] Setting up scale3b_branch2a
I1213 23:56:47.273902 14932 net.cpp:157] Top shape: 2 128 28 28 (200704)
I1213 23:56:47.273916 14932 net.cpp:165] Memory required for data: 265330696
I1213 23:56:47.273922 14932 layer_factory.hpp:77] Creating layer res3b_branch2a_relu
I1213 23:56:47.273928 14932 net.cpp:100] Creating Layer res3b_branch2a_relu
I1213 23:56:47.273933 14932 net.cpp:434] res3b_branch2a_relu <- res3b_branch2a
I1213 23:56:47.273938 14932 net.cpp:395] res3b_branch2a_relu -> res3b_branch2a (in-place)
I1213 23:56:47.274736 14932 net.cpp:150] Setting up res3b_branch2a_relu
I1213 23:56:47.274756 14932 net.cpp:157] Top shape: 2 128 28 28 (200704)
I1213 23:56:47.274760 14932 net.cpp:165] Memory required for data: 266133512
I1213 23:56:47.274765 14932 layer_factory.hpp:77] Creating layer res3b_branch2b
I1213 23:56:47.274796 14932 net.cpp:100] Creating Layer res3b_branch2b
I1213 23:56:47.274801 14932 net.cpp:434] res3b_branch2b <- res3b_branch2a
I1213 23:56:47.274817 14932 net.cpp:408] res3b_branch2b -> res3b_branch2b
I1213 23:56:47.280293 14932 net.cpp:150] Setting up res3b_branch2b
I1213 23:56:47.280315 14932 net.cpp:157] Top shape: 2 128 28 28 (200704)
I1213 23:56:47.280319 14932 net.cpp:165] Memory required for data: 266936328
I1213 23:56:47.280325 14932 layer_factory.hpp:77] Creating layer bn3b_branch2b
I1213 23:56:47.280347 14932 net.cpp:100] Creating Layer bn3b_branch2b
I1213 23:56:47.280364 14932 net.cpp:434] bn3b_branch2b <- res3b_branch2b
I1213 23:56:47.280378 14932 net.cpp:395] bn3b_branch2b -> res3b_branch2b (in-place)
I1213 23:56:47.280560 14932 net.cpp:150] Setting up bn3b_branch2b
I1213 23:56:47.280567 14932 net.cpp:157] Top shape: 2 128 28 28 (200704)
I1213 23:56:47.280580 14932 net.cpp:165] Memory required for data: 267739144
I1213 23:56:47.280588 14932 layer_factory.hpp:77] Creating layer scale3b_branch2b
I1213 23:56:47.280596 14932 net.cpp:100] Creating Layer scale3b_branch2b
I1213 23:56:47.280601 14932 net.cpp:434] scale3b_branch2b <- res3b_branch2b
I1213 23:56:47.280606 14932 net.cpp:395] scale3b_branch2b -> res3b_branch2b (in-place)
I1213 23:56:47.280643 14932 layer_factory.hpp:77] Creating layer scale3b_branch2b
I1213 23:56:47.280757 14932 net.cpp:150] Setting up scale3b_branch2b
I1213 23:56:47.280766 14932 net.cpp:157] Top shape: 2 128 28 28 (200704)
I1213 23:56:47.280771 14932 net.cpp:165] Memory required for data: 268541960
I1213 23:56:47.280778 14932 layer_factory.hpp:77] Creating layer res3b_branch2b_relu
I1213 23:56:47.280786 14932 net.cpp:100] Creating Layer res3b_branch2b_relu
I1213 23:56:47.280789 14932 net.cpp:434] res3b_branch2b_relu <- res3b_branch2b
I1213 23:56:47.280796 14932 net.cpp:395] res3b_branch2b_relu -> res3b_branch2b (in-place)
I1213 23:56:47.281311 14932 net.cpp:150] Setting up res3b_branch2b_relu
I1213 23:56:47.281322 14932 net.cpp:157] Top shape: 2 128 28 28 (200704)
I1213 23:56:47.281327 14932 net.cpp:165] Memory required for data: 269344776
I1213 23:56:47.281332 14932 layer_factory.hpp:77] Creating layer res3b_branch2c
I1213 23:56:47.281340 14932 net.cpp:100] Creating Layer res3b_branch2c
I1213 23:56:47.281345 14932 net.cpp:434] res3b_branch2c <- res3b_branch2b
I1213 23:56:47.281352 14932 net.cpp:408] res3b_branch2c -> res3b_branch2c
I1213 23:56:47.285938 14932 net.cpp:150] Setting up res3b_branch2c
I1213 23:56:47.285960 14932 net.cpp:157] Top shape: 2 512 28 28 (802816)
I1213 23:56:47.285964 14932 net.cpp:165] Memory required for data: 272556040
I1213 23:56:47.285970 14932 layer_factory.hpp:77] Creating layer bn3b_branch2c
I1213 23:56:47.285977 14932 net.cpp:100] Creating Layer bn3b_branch2c
I1213 23:56:47.286005 14932 net.cpp:434] bn3b_branch2c <- res3b_branch2c
I1213 23:56:47.286025 14932 net.cpp:395] bn3b_branch2c -> res3b_branch2c (in-place)
I1213 23:56:47.286201 14932 net.cpp:150] Setting up bn3b_branch2c
I1213 23:56:47.286209 14932 net.cpp:157] Top shape: 2 512 28 28 (802816)
I1213 23:56:47.286223 14932 net.cpp:165] Memory required for data: 275767304
I1213 23:56:47.286231 14932 layer_factory.hpp:77] Creating layer scale3b_branch2c
I1213 23:56:47.286237 14932 net.cpp:100] Creating Layer scale3b_branch2c
I1213 23:56:47.286242 14932 net.cpp:434] scale3b_branch2c <- res3b_branch2c
I1213 23:56:47.286247 14932 net.cpp:395] scale3b_branch2c -> res3b_branch2c (in-place)
I1213 23:56:47.286293 14932 layer_factory.hpp:77] Creating layer scale3b_branch2c
I1213 23:56:47.286403 14932 net.cpp:150] Setting up scale3b_branch2c
I1213 23:56:47.286411 14932 net.cpp:157] Top shape: 2 512 28 28 (802816)
I1213 23:56:47.286423 14932 net.cpp:165] Memory required for data: 278978568
I1213 23:56:47.286429 14932 layer_factory.hpp:77] Creating layer res3b
I1213 23:56:47.286459 14932 net.cpp:100] Creating Layer res3b
I1213 23:56:47.286465 14932 net.cpp:434] res3b <- res3a_res3a_relu_0_split_1
I1213 23:56:47.286480 14932 net.cpp:434] res3b <- res3b_branch2c
I1213 23:56:47.286485 14932 net.cpp:408] res3b -> res3b
I1213 23:56:47.286521 14932 net.cpp:150] Setting up res3b
I1213 23:56:47.286528 14932 net.cpp:157] Top shape: 2 512 28 28 (802816)
I1213 23:56:47.286541 14932 net.cpp:165] Memory required for data: 282189832
I1213 23:56:47.286545 14932 layer_factory.hpp:77] Creating layer res3b_relu
I1213 23:56:47.286551 14932 net.cpp:100] Creating Layer res3b_relu
I1213 23:56:47.286556 14932 net.cpp:434] res3b_relu <- res3b
I1213 23:56:47.286562 14932 net.cpp:395] res3b_relu -> res3b (in-place)
I1213 23:56:47.287029 14932 net.cpp:150] Setting up res3b_relu
I1213 23:56:47.287037 14932 net.cpp:157] Top shape: 2 512 28 28 (802816)
I1213 23:56:47.287042 14932 net.cpp:165] Memory required for data: 285401096
I1213 23:56:47.287046 14932 layer_factory.hpp:77] Creating layer res3b_res3b_relu_0_split
I1213 23:56:47.287055 14932 net.cpp:100] Creating Layer res3b_res3b_relu_0_split
I1213 23:56:47.287058 14932 net.cpp:434] res3b_res3b_relu_0_split <- res3b
I1213 23:56:47.287065 14932 net.cpp:408] res3b_res3b_relu_0_split -> res3b_res3b_relu_0_split_0
I1213 23:56:47.287072 14932 net.cpp:408] res3b_res3b_relu_0_split -> res3b_res3b_relu_0_split_1
I1213 23:56:47.287109 14932 net.cpp:150] Setting up res3b_res3b_relu_0_split
I1213 23:56:47.287116 14932 net.cpp:157] Top shape: 2 512 28 28 (802816)
I1213 23:56:47.287122 14932 net.cpp:157] Top shape: 2 512 28 28 (802816)
I1213 23:56:47.287125 14932 net.cpp:165] Memory required for data: 291823624
I1213 23:56:47.287130 14932 layer_factory.hpp:77] Creating layer res3c_branch2a
I1213 23:56:47.287138 14932 net.cpp:100] Creating Layer res3c_branch2a
I1213 23:56:47.287142 14932 net.cpp:434] res3c_branch2a <- res3b_res3b_relu_0_split_0
I1213 23:56:47.287149 14932 net.cpp:408] res3c_branch2a -> res3c_branch2a
I1213 23:56:47.291548 14932 net.cpp:150] Setting up res3c_branch2a
I1213 23:56:47.291565 14932 net.cpp:157] Top shape: 2 128 28 28 (200704)
I1213 23:56:47.291569 14932 net.cpp:165] Memory required for data: 292626440
I1213 23:56:47.291575 14932 layer_factory.hpp:77] Creating layer bn3c_branch2a
I1213 23:56:47.291584 14932 net.cpp:100] Creating Layer bn3c_branch2a
I1213 23:56:47.291589 14932 net.cpp:434] bn3c_branch2a <- res3c_branch2a
I1213 23:56:47.291594 14932 net.cpp:395] bn3c_branch2a -> res3c_branch2a (in-place)
I1213 23:56:47.291741 14932 net.cpp:150] Setting up bn3c_branch2a
I1213 23:56:47.291750 14932 net.cpp:157] Top shape: 2 128 28 28 (200704)
I1213 23:56:47.291754 14932 net.cpp:165] Memory required for data: 293429256
I1213 23:56:47.291762 14932 layer_factory.hpp:77] Creating layer scale3c_branch2a
I1213 23:56:47.291772 14932 net.cpp:100] Creating Layer scale3c_branch2a
I1213 23:56:47.291793 14932 net.cpp:434] scale3c_branch2a <- res3c_branch2a
I1213 23:56:47.291802 14932 net.cpp:395] scale3c_branch2a -> res3c_branch2a (in-place)
I1213 23:56:47.291851 14932 layer_factory.hpp:77] Creating layer scale3c_branch2a
I1213 23:56:47.291949 14932 net.cpp:150] Setting up scale3c_branch2a
I1213 23:56:47.291957 14932 net.cpp:157] Top shape: 2 128 28 28 (200704)
I1213 23:56:47.291961 14932 net.cpp:165] Memory required for data: 294232072
I1213 23:56:47.291970 14932 layer_factory.hpp:77] Creating layer res3c_branch2a_relu
I1213 23:56:47.291978 14932 net.cpp:100] Creating Layer res3c_branch2a_relu
I1213 23:56:47.291985 14932 net.cpp:434] res3c_branch2a_relu <- res3c_branch2a
I1213 23:56:47.291990 14932 net.cpp:395] res3c_branch2a_relu -> res3c_branch2a (in-place)
I1213 23:56:47.292938 14932 net.cpp:150] Setting up res3c_branch2a_relu
I1213 23:56:47.292996 14932 net.cpp:157] Top shape: 2 128 28 28 (200704)
I1213 23:56:47.293015 14932 net.cpp:165] Memory required for data: 295034888
I1213 23:56:47.293035 14932 layer_factory.hpp:77] Creating layer res3c_branch2b
I1213 23:56:47.293062 14932 net.cpp:100] Creating Layer res3c_branch2b
I1213 23:56:47.293081 14932 net.cpp:434] res3c_branch2b <- res3c_branch2a
I1213 23:56:47.293102 14932 net.cpp:408] res3c_branch2b -> res3c_branch2b
I1213 23:56:47.298856 14932 net.cpp:150] Setting up res3c_branch2b
I1213 23:56:47.298882 14932 net.cpp:157] Top shape: 2 128 28 28 (200704)
I1213 23:56:47.298885 14932 net.cpp:165] Memory required for data: 295837704
I1213 23:56:47.298894 14932 layer_factory.hpp:77] Creating layer bn3c_branch2b
I1213 23:56:47.298907 14932 net.cpp:100] Creating Layer bn3c_branch2b
I1213 23:56:47.298914 14932 net.cpp:434] bn3c_branch2b <- res3c_branch2b
I1213 23:56:47.298938 14932 net.cpp:395] bn3c_branch2b -> res3c_branch2b (in-place)
I1213 23:56:47.299090 14932 net.cpp:150] Setting up bn3c_branch2b
I1213 23:56:47.299098 14932 net.cpp:157] Top shape: 2 128 28 28 (200704)
I1213 23:56:47.299103 14932 net.cpp:165] Memory required for data: 296640520
I1213 23:56:47.299113 14932 layer_factory.hpp:77] Creating layer scale3c_branch2b
I1213 23:56:47.299120 14932 net.cpp:100] Creating Layer scale3c_branch2b
I1213 23:56:47.299126 14932 net.cpp:434] scale3c_branch2b <- res3c_branch2b
I1213 23:56:47.299134 14932 net.cpp:395] scale3c_branch2b -> res3c_branch2b (in-place)
I1213 23:56:47.299175 14932 layer_factory.hpp:77] Creating layer scale3c_branch2b
I1213 23:56:47.299260 14932 net.cpp:150] Setting up scale3c_branch2b
I1213 23:56:47.299268 14932 net.cpp:157] Top shape: 2 128 28 28 (200704)
I1213 23:56:47.299271 14932 net.cpp:165] Memory required for data: 297443336
I1213 23:56:47.299278 14932 layer_factory.hpp:77] Creating layer res3c_branch2b_relu
I1213 23:56:47.299288 14932 net.cpp:100] Creating Layer res3c_branch2b_relu
I1213 23:56:47.299293 14932 net.cpp:434] res3c_branch2b_relu <- res3c_branch2b
I1213 23:56:47.299299 14932 net.cpp:395] res3c_branch2b_relu -> res3c_branch2b (in-place)
I1213 23:56:47.299960 14932 net.cpp:150] Setting up res3c_branch2b_relu
I1213 23:56:47.299970 14932 net.cpp:157] Top shape: 2 128 28 28 (200704)
I1213 23:56:47.299974 14932 net.cpp:165] Memory required for data: 298246152
I1213 23:56:47.299979 14932 layer_factory.hpp:77] Creating layer res3c_branch2c
I1213 23:56:47.299988 14932 net.cpp:100] Creating Layer res3c_branch2c
I1213 23:56:47.299993 14932 net.cpp:434] res3c_branch2c <- res3c_branch2b
I1213 23:56:47.300000 14932 net.cpp:408] res3c_branch2c -> res3c_branch2c
I1213 23:56:47.304098 14932 net.cpp:150] Setting up res3c_branch2c
I1213 23:56:47.304116 14932 net.cpp:157] Top shape: 2 512 28 28 (802816)
I1213 23:56:47.304121 14932 net.cpp:165] Memory required for data: 301457416
I1213 23:56:47.304129 14932 layer_factory.hpp:77] Creating layer bn3c_branch2c
I1213 23:56:47.304139 14932 net.cpp:100] Creating Layer bn3c_branch2c
I1213 23:56:47.304146 14932 net.cpp:434] bn3c_branch2c <- res3c_branch2c
I1213 23:56:47.304152 14932 net.cpp:395] bn3c_branch2c -> res3c_branch2c (in-place)
I1213 23:56:47.304304 14932 net.cpp:150] Setting up bn3c_branch2c
I1213 23:56:47.304313 14932 net.cpp:157] Top shape: 2 512 28 28 (802816)
I1213 23:56:47.304317 14932 net.cpp:165] Memory required for data: 304668680
I1213 23:56:47.304327 14932 layer_factory.hpp:77] Creating layer scale3c_branch2c
I1213 23:56:47.304337 14932 net.cpp:100] Creating Layer scale3c_branch2c
I1213 23:56:47.304342 14932 net.cpp:434] scale3c_branch2c <- res3c_branch2c
I1213 23:56:47.304349 14932 net.cpp:395] scale3c_branch2c -> res3c_branch2c (in-place)
I1213 23:56:47.304389 14932 layer_factory.hpp:77] Creating layer scale3c_branch2c
I1213 23:56:47.304476 14932 net.cpp:150] Setting up scale3c_branch2c
I1213 23:56:47.304483 14932 net.cpp:157] Top shape: 2 512 28 28 (802816)
I1213 23:56:47.304487 14932 net.cpp:165] Memory required for data: 307879944
I1213 23:56:47.304494 14932 layer_factory.hpp:77] Creating layer res3c
I1213 23:56:47.304502 14932 net.cpp:100] Creating Layer res3c
I1213 23:56:47.304508 14932 net.cpp:434] res3c <- res3b_res3b_relu_0_split_1
I1213 23:56:47.304515 14932 net.cpp:434] res3c <- res3c_branch2c
I1213 23:56:47.304522 14932 net.cpp:408] res3c -> res3c
I1213 23:56:47.304546 14932 net.cpp:150] Setting up res3c
I1213 23:56:47.304553 14932 net.cpp:157] Top shape: 2 512 28 28 (802816)
I1213 23:56:47.304558 14932 net.cpp:165] Memory required for data: 311091208
I1213 23:56:47.304563 14932 layer_factory.hpp:77] Creating layer res3c_relu
I1213 23:56:47.304569 14932 net.cpp:100] Creating Layer res3c_relu
I1213 23:56:47.304574 14932 net.cpp:434] res3c_relu <- res3c
I1213 23:56:47.304580 14932 net.cpp:395] res3c_relu -> res3c (in-place)
I1213 23:56:47.305315 14932 net.cpp:150] Setting up res3c_relu
I1213 23:56:47.305323 14932 net.cpp:157] Top shape: 2 512 28 28 (802816)
I1213 23:56:47.305327 14932 net.cpp:165] Memory required for data: 314302472
I1213 23:56:47.305331 14932 layer_factory.hpp:77] Creating layer res3c_res3c_relu_0_split
I1213 23:56:47.305340 14932 net.cpp:100] Creating Layer res3c_res3c_relu_0_split
I1213 23:56:47.305343 14932 net.cpp:434] res3c_res3c_relu_0_split <- res3c
I1213 23:56:47.305351 14932 net.cpp:408] res3c_res3c_relu_0_split -> res3c_res3c_relu_0_split_0
I1213 23:56:47.305358 14932 net.cpp:408] res3c_res3c_relu_0_split -> res3c_res3c_relu_0_split_1
I1213 23:56:47.305397 14932 net.cpp:150] Setting up res3c_res3c_relu_0_split
I1213 23:56:47.305403 14932 net.cpp:157] Top shape: 2 512 28 28 (802816)
I1213 23:56:47.305408 14932 net.cpp:157] Top shape: 2 512 28 28 (802816)
I1213 23:56:47.305413 14932 net.cpp:165] Memory required for data: 320725000
I1213 23:56:47.305418 14932 layer_factory.hpp:77] Creating layer res3d_branch2a
I1213 23:56:47.305428 14932 net.cpp:100] Creating Layer res3d_branch2a
I1213 23:56:47.305433 14932 net.cpp:434] res3d_branch2a <- res3c_res3c_relu_0_split_0
I1213 23:56:47.305440 14932 net.cpp:408] res3d_branch2a -> res3d_branch2a
I1213 23:56:47.309171 14932 net.cpp:150] Setting up res3d_branch2a
I1213 23:56:47.309183 14932 net.cpp:157] Top shape: 2 128 28 28 (200704)
I1213 23:56:47.309188 14932 net.cpp:165] Memory required for data: 321527816
I1213 23:56:47.309195 14932 layer_factory.hpp:77] Creating layer bn3d_branch2a
I1213 23:56:47.309203 14932 net.cpp:100] Creating Layer bn3d_branch2a
I1213 23:56:47.309208 14932 net.cpp:434] bn3d_branch2a <- res3d_branch2a
I1213 23:56:47.309214 14932 net.cpp:395] bn3d_branch2a -> res3d_branch2a (in-place)
I1213 23:56:47.309357 14932 net.cpp:150] Setting up bn3d_branch2a
I1213 23:56:47.309365 14932 net.cpp:157] Top shape: 2 128 28 28 (200704)
I1213 23:56:47.309370 14932 net.cpp:165] Memory required for data: 322330632
I1213 23:56:47.309394 14932 layer_factory.hpp:77] Creating layer scale3d_branch2a
I1213 23:56:47.309402 14932 net.cpp:100] Creating Layer scale3d_branch2a
I1213 23:56:47.309406 14932 net.cpp:434] scale3d_branch2a <- res3d_branch2a
I1213 23:56:47.309413 14932 net.cpp:395] scale3d_branch2a -> res3d_branch2a (in-place)
I1213 23:56:47.309449 14932 layer_factory.hpp:77] Creating layer scale3d_branch2a
I1213 23:56:47.309532 14932 net.cpp:150] Setting up scale3d_branch2a
I1213 23:56:47.309540 14932 net.cpp:157] Top shape: 2 128 28 28 (200704)
I1213 23:56:47.309545 14932 net.cpp:165] Memory required for data: 323133448
I1213 23:56:47.309551 14932 layer_factory.hpp:77] Creating layer res3d_branch2a_relu
I1213 23:56:47.309558 14932 net.cpp:100] Creating Layer res3d_branch2a_relu
I1213 23:56:47.309563 14932 net.cpp:434] res3d_branch2a_relu <- res3d_branch2a
I1213 23:56:47.309569 14932 net.cpp:395] res3d_branch2a_relu -> res3d_branch2a (in-place)
I1213 23:56:47.310274 14932 net.cpp:150] Setting up res3d_branch2a_relu
I1213 23:56:47.310284 14932 net.cpp:157] Top shape: 2 128 28 28 (200704)
I1213 23:56:47.310289 14932 net.cpp:165] Memory required for data: 323936264
I1213 23:56:47.310294 14932 layer_factory.hpp:77] Creating layer res3d_branch2b
I1213 23:56:47.310303 14932 net.cpp:100] Creating Layer res3d_branch2b
I1213 23:56:47.310308 14932 net.cpp:434] res3d_branch2b <- res3d_branch2a
I1213 23:56:47.310315 14932 net.cpp:408] res3d_branch2b -> res3d_branch2b
I1213 23:56:47.314482 14932 net.cpp:150] Setting up res3d_branch2b
I1213 23:56:47.314496 14932 net.cpp:157] Top shape: 2 128 28 28 (200704)
I1213 23:56:47.314501 14932 net.cpp:165] Memory required for data: 324739080
I1213 23:56:47.314508 14932 layer_factory.hpp:77] Creating layer bn3d_branch2b
I1213 23:56:47.314539 14932 net.cpp:100] Creating Layer bn3d_branch2b
I1213 23:56:47.314554 14932 net.cpp:434] bn3d_branch2b <- res3d_branch2b
I1213 23:56:47.314560 14932 net.cpp:395] bn3d_branch2b -> res3d_branch2b (in-place)
I1213 23:56:47.314707 14932 net.cpp:150] Setting up bn3d_branch2b
I1213 23:56:47.314715 14932 net.cpp:157] Top shape: 2 128 28 28 (200704)
I1213 23:56:47.314720 14932 net.cpp:165] Memory required for data: 325541896
I1213 23:56:47.314729 14932 layer_factory.hpp:77] Creating layer scale3d_branch2b
I1213 23:56:47.314738 14932 net.cpp:100] Creating Layer scale3d_branch2b
I1213 23:56:47.314743 14932 net.cpp:434] scale3d_branch2b <- res3d_branch2b
I1213 23:56:47.314749 14932 net.cpp:395] scale3d_branch2b -> res3d_branch2b (in-place)
I1213 23:56:47.314785 14932 layer_factory.hpp:77] Creating layer scale3d_branch2b
I1213 23:56:47.314870 14932 net.cpp:150] Setting up scale3d_branch2b
I1213 23:56:47.314878 14932 net.cpp:157] Top shape: 2 128 28 28 (200704)
I1213 23:56:47.314882 14932 net.cpp:165] Memory required for data: 326344712
I1213 23:56:47.314889 14932 layer_factory.hpp:77] Creating layer res3d_branch2b_relu
I1213 23:56:47.314896 14932 net.cpp:100] Creating Layer res3d_branch2b_relu
I1213 23:56:47.314903 14932 net.cpp:434] res3d_branch2b_relu <- res3d_branch2b
I1213 23:56:47.314908 14932 net.cpp:395] res3d_branch2b_relu -> res3d_branch2b (in-place)
I1213 23:56:47.315659 14932 net.cpp:150] Setting up res3d_branch2b_relu
I1213 23:56:47.315668 14932 net.cpp:157] Top shape: 2 128 28 28 (200704)
I1213 23:56:47.315673 14932 net.cpp:165] Memory required for data: 327147528
I1213 23:56:47.315677 14932 layer_factory.hpp:77] Creating layer res3d_branch2c
I1213 23:56:47.315687 14932 net.cpp:100] Creating Layer res3d_branch2c
I1213 23:56:47.315692 14932 net.cpp:434] res3d_branch2c <- res3d_branch2b
I1213 23:56:47.315701 14932 net.cpp:408] res3d_branch2c -> res3d_branch2c
I1213 23:56:47.319794 14932 net.cpp:150] Setting up res3d_branch2c
I1213 23:56:47.319805 14932 net.cpp:157] Top shape: 2 512 28 28 (802816)
I1213 23:56:47.319810 14932 net.cpp:165] Memory required for data: 330358792
I1213 23:56:47.319816 14932 layer_factory.hpp:77] Creating layer bn3d_branch2c
I1213 23:56:47.319824 14932 net.cpp:100] Creating Layer bn3d_branch2c
I1213 23:56:47.319828 14932 net.cpp:434] bn3d_branch2c <- res3d_branch2c
I1213 23:56:47.319835 14932 net.cpp:395] bn3d_branch2c -> res3d_branch2c (in-place)
I1213 23:56:47.319975 14932 net.cpp:150] Setting up bn3d_branch2c
I1213 23:56:47.319983 14932 net.cpp:157] Top shape: 2 512 28 28 (802816)
I1213 23:56:47.319988 14932 net.cpp:165] Memory required for data: 333570056
I1213 23:56:47.319996 14932 layer_factory.hpp:77] Creating layer scale3d_branch2c
I1213 23:56:47.320006 14932 net.cpp:100] Creating Layer scale3d_branch2c
I1213 23:56:47.320011 14932 net.cpp:434] scale3d_branch2c <- res3d_branch2c
I1213 23:56:47.320017 14932 net.cpp:395] scale3d_branch2c -> res3d_branch2c (in-place)
I1213 23:56:47.320055 14932 layer_factory.hpp:77] Creating layer scale3d_branch2c
I1213 23:56:47.320137 14932 net.cpp:150] Setting up scale3d_branch2c
I1213 23:56:47.320144 14932 net.cpp:157] Top shape: 2 512 28 28 (802816)
I1213 23:56:47.320148 14932 net.cpp:165] Memory required for data: 336781320
I1213 23:56:47.320155 14932 layer_factory.hpp:77] Creating layer res3d
I1213 23:56:47.320163 14932 net.cpp:100] Creating Layer res3d
I1213 23:56:47.320168 14932 net.cpp:434] res3d <- res3c_res3c_relu_0_split_1
I1213 23:56:47.320173 14932 net.cpp:434] res3d <- res3d_branch2c
I1213 23:56:47.320180 14932 net.cpp:408] res3d -> res3d
I1213 23:56:47.320204 14932 net.cpp:150] Setting up res3d
I1213 23:56:47.320210 14932 net.cpp:157] Top shape: 2 512 28 28 (802816)
I1213 23:56:47.320214 14932 net.cpp:165] Memory required for data: 339992584
I1213 23:56:47.320219 14932 layer_factory.hpp:77] Creating layer res3d_relu
I1213 23:56:47.320225 14932 net.cpp:100] Creating Layer res3d_relu
I1213 23:56:47.320230 14932 net.cpp:434] res3d_relu <- res3d
I1213 23:56:47.320236 14932 net.cpp:395] res3d_relu -> res3d (in-place)
I1213 23:56:47.321064 14932 net.cpp:150] Setting up res3d_relu
I1213 23:56:47.321085 14932 net.cpp:157] Top shape: 2 512 28 28 (802816)
I1213 23:56:47.321089 14932 net.cpp:165] Memory required for data: 343203848
I1213 23:56:47.321094 14932 layer_factory.hpp:77] Creating layer res3d_res3d_relu_0_split
I1213 23:56:47.321100 14932 net.cpp:100] Creating Layer res3d_res3d_relu_0_split
I1213 23:56:47.321128 14932 net.cpp:434] res3d_res3d_relu_0_split <- res3d
I1213 23:56:47.321135 14932 net.cpp:408] res3d_res3d_relu_0_split -> res3d_res3d_relu_0_split_0
I1213 23:56:47.321149 14932 net.cpp:408] res3d_res3d_relu_0_split -> res3d_res3d_relu_0_split_1
I1213 23:56:47.321192 14932 net.cpp:150] Setting up res3d_res3d_relu_0_split
I1213 23:56:47.321197 14932 net.cpp:157] Top shape: 2 512 28 28 (802816)
I1213 23:56:47.321208 14932 net.cpp:157] Top shape: 2 512 28 28 (802816)
I1213 23:56:47.321210 14932 net.cpp:165] Memory required for data: 349626376
I1213 23:56:47.321213 14932 layer_factory.hpp:77] Creating layer res4a_branch1
I1213 23:56:47.321218 14932 net.cpp:100] Creating Layer res4a_branch1
I1213 23:56:47.321221 14932 net.cpp:434] res4a_branch1 <- res3d_res3d_relu_0_split_0
I1213 23:56:47.321225 14932 net.cpp:408] res4a_branch1 -> res4a_branch1
I1213 23:56:47.324733 14932 net.cpp:150] Setting up res4a_branch1
I1213 23:56:47.324744 14932 net.cpp:157] Top shape: 2 1024 14 14 (401408)
I1213 23:56:47.324748 14932 net.cpp:165] Memory required for data: 351232008
I1213 23:56:47.324751 14932 layer_factory.hpp:77] Creating layer bn4a_branch1
I1213 23:56:47.324756 14932 net.cpp:100] Creating Layer bn4a_branch1
I1213 23:56:47.324761 14932 net.cpp:434] bn4a_branch1 <- res4a_branch1
I1213 23:56:47.324769 14932 net.cpp:395] bn4a_branch1 -> res4a_branch1 (in-place)
I1213 23:56:47.324930 14932 net.cpp:150] Setting up bn4a_branch1
I1213 23:56:47.324937 14932 net.cpp:157] Top shape: 2 1024 14 14 (401408)
I1213 23:56:47.324942 14932 net.cpp:165] Memory required for data: 352837640
I1213 23:56:47.324951 14932 layer_factory.hpp:77] Creating layer scale4a_branch1
I1213 23:56:47.324959 14932 net.cpp:100] Creating Layer scale4a_branch1
I1213 23:56:47.324964 14932 net.cpp:434] scale4a_branch1 <- res4a_branch1
I1213 23:56:47.324970 14932 net.cpp:395] scale4a_branch1 -> res4a_branch1 (in-place)
I1213 23:56:47.325007 14932 layer_factory.hpp:77] Creating layer scale4a_branch1
I1213 23:56:47.325095 14932 net.cpp:150] Setting up scale4a_branch1
I1213 23:56:47.325103 14932 net.cpp:157] Top shape: 2 1024 14 14 (401408)
I1213 23:56:47.325108 14932 net.cpp:165] Memory required for data: 354443272
I1213 23:56:47.325114 14932 layer_factory.hpp:77] Creating layer res4a_branch2a
I1213 23:56:47.325124 14932 net.cpp:100] Creating Layer res4a_branch2a
I1213 23:56:47.325129 14932 net.cpp:434] res4a_branch2a <- res3d_res3d_relu_0_split_1
I1213 23:56:47.325135 14932 net.cpp:408] res4a_branch2a -> res4a_branch2a
I1213 23:56:47.328982 14932 net.cpp:150] Setting up res4a_branch2a
I1213 23:56:47.328994 14932 net.cpp:157] Top shape: 2 256 14 14 (100352)
I1213 23:56:47.328999 14932 net.cpp:165] Memory required for data: 354844680
I1213 23:56:47.329005 14932 layer_factory.hpp:77] Creating layer bn4a_branch2a
I1213 23:56:47.329013 14932 net.cpp:100] Creating Layer bn4a_branch2a
I1213 23:56:47.329018 14932 net.cpp:434] bn4a_branch2a <- res4a_branch2a
I1213 23:56:47.329025 14932 net.cpp:395] bn4a_branch2a -> res4a_branch2a (in-place)
I1213 23:56:47.329165 14932 net.cpp:150] Setting up bn4a_branch2a
I1213 23:56:47.329172 14932 net.cpp:157] Top shape: 2 256 14 14 (100352)
I1213 23:56:47.329176 14932 net.cpp:165] Memory required for data: 355246088
I1213 23:56:47.329185 14932 layer_factory.hpp:77] Creating layer scale4a_branch2a
I1213 23:56:47.329195 14932 net.cpp:100] Creating Layer scale4a_branch2a
I1213 23:56:47.329200 14932 net.cpp:434] scale4a_branch2a <- res4a_branch2a
I1213 23:56:47.329206 14932 net.cpp:395] scale4a_branch2a -> res4a_branch2a (in-place)
I1213 23:56:47.329242 14932 layer_factory.hpp:77] Creating layer scale4a_branch2a
I1213 23:56:47.329325 14932 net.cpp:150] Setting up scale4a_branch2a
I1213 23:56:47.329332 14932 net.cpp:157] Top shape: 2 256 14 14 (100352)
I1213 23:56:47.329336 14932 net.cpp:165] Memory required for data: 355647496
I1213 23:56:47.329344 14932 layer_factory.hpp:77] Creating layer res4a_branch2a_relu
I1213 23:56:47.329351 14932 net.cpp:100] Creating Layer res4a_branch2a_relu
I1213 23:56:47.329356 14932 net.cpp:434] res4a_branch2a_relu <- res4a_branch2a
I1213 23:56:47.329362 14932 net.cpp:395] res4a_branch2a_relu -> res4a_branch2a (in-place)
I1213 23:56:47.330163 14932 net.cpp:150] Setting up res4a_branch2a_relu
I1213 23:56:47.330173 14932 net.cpp:157] Top shape: 2 256 14 14 (100352)
I1213 23:56:47.330176 14932 net.cpp:165] Memory required for data: 356048904
I1213 23:56:47.330181 14932 layer_factory.hpp:77] Creating layer res4a_branch2b
I1213 23:56:47.330191 14932 net.cpp:100] Creating Layer res4a_branch2b
I1213 23:56:47.330198 14932 net.cpp:434] res4a_branch2b <- res4a_branch2a
I1213 23:56:47.330204 14932 net.cpp:408] res4a_branch2b -> res4a_branch2b
I1213 23:56:47.334180 14932 net.cpp:150] Setting up res4a_branch2b
I1213 23:56:47.334203 14932 net.cpp:157] Top shape: 2 256 14 14 (100352)
I1213 23:56:47.334205 14932 net.cpp:165] Memory required for data: 356450312
I1213 23:56:47.334209 14932 layer_factory.hpp:77] Creating layer bn4a_branch2b
I1213 23:56:47.334215 14932 net.cpp:100] Creating Layer bn4a_branch2b
I1213 23:56:47.334218 14932 net.cpp:434] bn4a_branch2b <- res4a_branch2b
I1213 23:56:47.334223 14932 net.cpp:395] bn4a_branch2b -> res4a_branch2b (in-place)
I1213 23:56:47.334377 14932 net.cpp:150] Setting up bn4a_branch2b
I1213 23:56:47.334384 14932 net.cpp:157] Top shape: 2 256 14 14 (100352)
I1213 23:56:47.334388 14932 net.cpp:165] Memory required for data: 356851720
I1213 23:56:47.334398 14932 layer_factory.hpp:77] Creating layer scale4a_branch2b
I1213 23:56:47.334409 14932 net.cpp:100] Creating Layer scale4a_branch2b
I1213 23:56:47.334415 14932 net.cpp:434] scale4a_branch2b <- res4a_branch2b
I1213 23:56:47.334421 14932 net.cpp:395] scale4a_branch2b -> res4a_branch2b (in-place)
I1213 23:56:47.334460 14932 layer_factory.hpp:77] Creating layer scale4a_branch2b
I1213 23:56:47.334545 14932 net.cpp:150] Setting up scale4a_branch2b
I1213 23:56:47.334553 14932 net.cpp:157] Top shape: 2 256 14 14 (100352)
I1213 23:56:47.334556 14932 net.cpp:165] Memory required for data: 357253128
I1213 23:56:47.334564 14932 layer_factory.hpp:77] Creating layer res4a_branch2b_relu
I1213 23:56:47.334571 14932 net.cpp:100] Creating Layer res4a_branch2b_relu
I1213 23:56:47.334576 14932 net.cpp:434] res4a_branch2b_relu <- res4a_branch2b
I1213 23:56:47.334583 14932 net.cpp:395] res4a_branch2b_relu -> res4a_branch2b (in-place)
I1213 23:56:47.335381 14932 net.cpp:150] Setting up res4a_branch2b_relu
I1213 23:56:47.335391 14932 net.cpp:157] Top shape: 2 256 14 14 (100352)
I1213 23:56:47.335396 14932 net.cpp:165] Memory required for data: 357654536
I1213 23:56:47.335400 14932 layer_factory.hpp:77] Creating layer res4a_branch2c
I1213 23:56:47.335419 14932 net.cpp:100] Creating Layer res4a_branch2c
I1213 23:56:47.335424 14932 net.cpp:434] res4a_branch2c <- res4a_branch2b
I1213 23:56:47.335431 14932 net.cpp:408] res4a_branch2c -> res4a_branch2c
I1213 23:56:47.339809 14932 net.cpp:150] Setting up res4a_branch2c
I1213 23:56:47.339821 14932 net.cpp:157] Top shape: 2 1024 14 14 (401408)
I1213 23:56:47.339825 14932 net.cpp:165] Memory required for data: 359260168
I1213 23:56:47.339833 14932 layer_factory.hpp:77] Creating layer bn4a_branch2c
I1213 23:56:47.339840 14932 net.cpp:100] Creating Layer bn4a_branch2c
I1213 23:56:47.339845 14932 net.cpp:434] bn4a_branch2c <- res4a_branch2c
I1213 23:56:47.339851 14932 net.cpp:395] bn4a_branch2c -> res4a_branch2c (in-place)
I1213 23:56:47.340000 14932 net.cpp:150] Setting up bn4a_branch2c
I1213 23:56:47.340008 14932 net.cpp:157] Top shape: 2 1024 14 14 (401408)
I1213 23:56:47.340013 14932 net.cpp:165] Memory required for data: 360865800
I1213 23:56:47.340021 14932 layer_factory.hpp:77] Creating layer scale4a_branch2c
I1213 23:56:47.340034 14932 net.cpp:100] Creating Layer scale4a_branch2c
I1213 23:56:47.340039 14932 net.cpp:434] scale4a_branch2c <- res4a_branch2c
I1213 23:56:47.340045 14932 net.cpp:395] scale4a_branch2c -> res4a_branch2c (in-place)
I1213 23:56:47.340082 14932 layer_factory.hpp:77] Creating layer scale4a_branch2c
I1213 23:56:47.340175 14932 net.cpp:150] Setting up scale4a_branch2c
I1213 23:56:47.340183 14932 net.cpp:157] Top shape: 2 1024 14 14 (401408)
I1213 23:56:47.340186 14932 net.cpp:165] Memory required for data: 362471432
I1213 23:56:47.340194 14932 layer_factory.hpp:77] Creating layer res4a
I1213 23:56:47.340203 14932 net.cpp:100] Creating Layer res4a
I1213 23:56:47.340209 14932 net.cpp:434] res4a <- res4a_branch1
I1213 23:56:47.340214 14932 net.cpp:434] res4a <- res4a_branch2c
I1213 23:56:47.340221 14932 net.cpp:408] res4a -> res4a
I1213 23:56:47.340246 14932 net.cpp:150] Setting up res4a
I1213 23:56:47.340253 14932 net.cpp:157] Top shape: 2 1024 14 14 (401408)
I1213 23:56:47.340257 14932 net.cpp:165] Memory required for data: 364077064
I1213 23:56:47.340261 14932 layer_factory.hpp:77] Creating layer res4a_relu
I1213 23:56:47.340267 14932 net.cpp:100] Creating Layer res4a_relu
I1213 23:56:47.340272 14932 net.cpp:434] res4a_relu <- res4a
I1213 23:56:47.340278 14932 net.cpp:395] res4a_relu -> res4a (in-place)
I1213 23:56:47.340894 14932 net.cpp:150] Setting up res4a_relu
I1213 23:56:47.340903 14932 net.cpp:157] Top shape: 2 1024 14 14 (401408)
I1213 23:56:47.340908 14932 net.cpp:165] Memory required for data: 365682696
I1213 23:56:47.340911 14932 layer_factory.hpp:77] Creating layer res4a_res4a_relu_0_split
I1213 23:56:47.340919 14932 net.cpp:100] Creating Layer res4a_res4a_relu_0_split
I1213 23:56:47.340922 14932 net.cpp:434] res4a_res4a_relu_0_split <- res4a
I1213 23:56:47.340929 14932 net.cpp:408] res4a_res4a_relu_0_split -> res4a_res4a_relu_0_split_0
I1213 23:56:47.340937 14932 net.cpp:408] res4a_res4a_relu_0_split -> res4a_res4a_relu_0_split_1
I1213 23:56:47.340976 14932 net.cpp:150] Setting up res4a_res4a_relu_0_split
I1213 23:56:47.340983 14932 net.cpp:157] Top shape: 2 1024 14 14 (401408)
I1213 23:56:47.340988 14932 net.cpp:157] Top shape: 2 1024 14 14 (401408)
I1213 23:56:47.340992 14932 net.cpp:165] Memory required for data: 368893960
I1213 23:56:47.340997 14932 layer_factory.hpp:77] Creating layer res4b_branch2a
I1213 23:56:47.341015 14932 net.cpp:100] Creating Layer res4b_branch2a
I1213 23:56:47.341020 14932 net.cpp:434] res4b_branch2a <- res4a_res4a_relu_0_split_0
I1213 23:56:47.341027 14932 net.cpp:408] res4b_branch2a -> res4b_branch2a
I1213 23:56:47.346361 14932 net.cpp:150] Setting up res4b_branch2a
I1213 23:56:47.346386 14932 net.cpp:157] Top shape: 2 256 14 14 (100352)
I1213 23:56:47.346390 14932 net.cpp:165] Memory required for data: 369295368
I1213 23:56:47.346397 14932 layer_factory.hpp:77] Creating layer bn4b_branch2a
I1213 23:56:47.346405 14932 net.cpp:100] Creating Layer bn4b_branch2a
I1213 23:56:47.346426 14932 net.cpp:434] bn4b_branch2a <- res4b_branch2a
I1213 23:56:47.346442 14932 net.cpp:395] bn4b_branch2a -> res4b_branch2a (in-place)
I1213 23:56:47.346647 14932 net.cpp:150] Setting up bn4b_branch2a
I1213 23:56:47.346655 14932 net.cpp:157] Top shape: 2 256 14 14 (100352)
I1213 23:56:47.346668 14932 net.cpp:165] Memory required for data: 369696776
I1213 23:56:47.346676 14932 layer_factory.hpp:77] Creating layer scale4b_branch2a
I1213 23:56:47.346683 14932 net.cpp:100] Creating Layer scale4b_branch2a
I1213 23:56:47.346688 14932 net.cpp:434] scale4b_branch2a <- res4b_branch2a
I1213 23:56:47.346694 14932 net.cpp:395] scale4b_branch2a -> res4b_branch2a (in-place)
I1213 23:56:47.346742 14932 layer_factory.hpp:77] Creating layer scale4b_branch2a
I1213 23:56:47.346855 14932 net.cpp:150] Setting up scale4b_branch2a
I1213 23:56:47.346863 14932 net.cpp:157] Top shape: 2 256 14 14 (100352)
I1213 23:56:47.346868 14932 net.cpp:165] Memory required for data: 370098184
I1213 23:56:47.346874 14932 layer_factory.hpp:77] Creating layer res4b_branch2a_relu
I1213 23:56:47.346881 14932 net.cpp:100] Creating Layer res4b_branch2a_relu
I1213 23:56:47.346886 14932 net.cpp:434] res4b_branch2a_relu <- res4b_branch2a
I1213 23:56:47.346892 14932 net.cpp:395] res4b_branch2a_relu -> res4b_branch2a (in-place)
I1213 23:56:47.347965 14932 net.cpp:150] Setting up res4b_branch2a_relu
I1213 23:56:47.347975 14932 net.cpp:157] Top shape: 2 256 14 14 (100352)
I1213 23:56:47.347980 14932 net.cpp:165] Memory required for data: 370499592
I1213 23:56:47.347985 14932 layer_factory.hpp:77] Creating layer res4b_branch2b
I1213 23:56:47.347992 14932 net.cpp:100] Creating Layer res4b_branch2b
I1213 23:56:47.347997 14932 net.cpp:434] res4b_branch2b <- res4b_branch2a
I1213 23:56:47.348004 14932 net.cpp:408] res4b_branch2b -> res4b_branch2b
I1213 23:56:47.352061 14932 net.cpp:150] Setting up res4b_branch2b
I1213 23:56:47.352088 14932 net.cpp:157] Top shape: 2 256 14 14 (100352)
I1213 23:56:47.352092 14932 net.cpp:165] Memory required for data: 370901000
I1213 23:56:47.352099 14932 layer_factory.hpp:77] Creating layer bn4b_branch2b
I1213 23:56:47.352108 14932 net.cpp:100] Creating Layer bn4b_branch2b
I1213 23:56:47.352113 14932 net.cpp:434] bn4b_branch2b <- res4b_branch2b
I1213 23:56:47.352120 14932 net.cpp:395] bn4b_branch2b -> res4b_branch2b (in-place)
I1213 23:56:47.352320 14932 net.cpp:150] Setting up bn4b_branch2b
I1213 23:56:47.352327 14932 net.cpp:157] Top shape: 2 256 14 14 (100352)
I1213 23:56:47.352340 14932 net.cpp:165] Memory required for data: 371302408
I1213 23:56:47.352349 14932 layer_factory.hpp:77] Creating layer scale4b_branch2b
I1213 23:56:47.352356 14932 net.cpp:100] Creating Layer scale4b_branch2b
I1213 23:56:47.352361 14932 net.cpp:434] scale4b_branch2b <- res4b_branch2b
I1213 23:56:47.352367 14932 net.cpp:395] scale4b_branch2b -> res4b_branch2b (in-place)
I1213 23:56:47.352409 14932 layer_factory.hpp:77] Creating layer scale4b_branch2b
I1213 23:56:47.352514 14932 net.cpp:150] Setting up scale4b_branch2b
I1213 23:56:47.352521 14932 net.cpp:157] Top shape: 2 256 14 14 (100352)
I1213 23:56:47.352525 14932 net.cpp:165] Memory required for data: 371703816
I1213 23:56:47.352532 14932 layer_factory.hpp:77] Creating layer res4b_branch2b_relu
I1213 23:56:47.352540 14932 net.cpp:100] Creating Layer res4b_branch2b_relu
I1213 23:56:47.352545 14932 net.cpp:434] res4b_branch2b_relu <- res4b_branch2b
I1213 23:56:47.352550 14932 net.cpp:395] res4b_branch2b_relu -> res4b_branch2b (in-place)
I1213 23:56:47.354288 14932 net.cpp:150] Setting up res4b_branch2b_relu
I1213 23:56:47.354310 14932 net.cpp:157] Top shape: 2 256 14 14 (100352)
I1213 23:56:47.354315 14932 net.cpp:165] Memory required for data: 372105224
I1213 23:56:47.354320 14932 layer_factory.hpp:77] Creating layer res4b_branch2c
I1213 23:56:47.354328 14932 net.cpp:100] Creating Layer res4b_branch2c
I1213 23:56:47.354333 14932 net.cpp:434] res4b_branch2c <- res4b_branch2b
I1213 23:56:47.354341 14932 net.cpp:408] res4b_branch2c -> res4b_branch2c
I1213 23:56:47.359238 14932 net.cpp:150] Setting up res4b_branch2c
I1213 23:56:47.359262 14932 net.cpp:157] Top shape: 2 1024 14 14 (401408)
I1213 23:56:47.359266 14932 net.cpp:165] Memory required for data: 373710856
I1213 23:56:47.359273 14932 layer_factory.hpp:77] Creating layer bn4b_branch2c
I1213 23:56:47.359280 14932 net.cpp:100] Creating Layer bn4b_branch2c
I1213 23:56:47.359285 14932 net.cpp:434] bn4b_branch2c <- res4b_branch2c
I1213 23:56:47.359292 14932 net.cpp:395] bn4b_branch2c -> res4b_branch2c (in-place)
I1213 23:56:47.359494 14932 net.cpp:150] Setting up bn4b_branch2c
I1213 23:56:47.359501 14932 net.cpp:157] Top shape: 2 1024 14 14 (401408)
I1213 23:56:47.359515 14932 net.cpp:165] Memory required for data: 375316488
I1213 23:56:47.359524 14932 layer_factory.hpp:77] Creating layer scale4b_branch2c
I1213 23:56:47.359531 14932 net.cpp:100] Creating Layer scale4b_branch2c
I1213 23:56:47.359535 14932 net.cpp:434] scale4b_branch2c <- res4b_branch2c
I1213 23:56:47.359541 14932 net.cpp:395] scale4b_branch2c -> res4b_branch2c (in-place)
I1213 23:56:47.359580 14932 layer_factory.hpp:77] Creating layer scale4b_branch2c
I1213 23:56:47.359691 14932 net.cpp:150] Setting up scale4b_branch2c
I1213 23:56:47.359699 14932 net.cpp:157] Top shape: 2 1024 14 14 (401408)
I1213 23:56:47.359704 14932 net.cpp:165] Memory required for data: 376922120
I1213 23:56:47.359710 14932 layer_factory.hpp:77] Creating layer res4b
I1213 23:56:47.359719 14932 net.cpp:100] Creating Layer res4b
I1213 23:56:47.359724 14932 net.cpp:434] res4b <- res4a_res4a_relu_0_split_1
I1213 23:56:47.359729 14932 net.cpp:434] res4b <- res4b_branch2c
I1213 23:56:47.359735 14932 net.cpp:408] res4b -> res4b
I1213 23:56:47.359760 14932 net.cpp:150] Setting up res4b
I1213 23:56:47.359767 14932 net.cpp:157] Top shape: 2 1024 14 14 (401408)
I1213 23:56:47.359771 14932 net.cpp:165] Memory required for data: 378527752
I1213 23:56:47.359776 14932 layer_factory.hpp:77] Creating layer res4b_relu
I1213 23:56:47.359782 14932 net.cpp:100] Creating Layer res4b_relu
I1213 23:56:47.359787 14932 net.cpp:434] res4b_relu <- res4b
I1213 23:56:47.359792 14932 net.cpp:395] res4b_relu -> res4b (in-place)
I1213 23:56:47.360642 14932 net.cpp:150] Setting up res4b_relu
I1213 23:56:47.360651 14932 net.cpp:157] Top shape: 2 1024 14 14 (401408)
I1213 23:56:47.360656 14932 net.cpp:165] Memory required for data: 380133384
I1213 23:56:47.360661 14932 layer_factory.hpp:77] Creating layer res4b_res4b_relu_0_split
I1213 23:56:47.360667 14932 net.cpp:100] Creating Layer res4b_res4b_relu_0_split
I1213 23:56:47.360672 14932 net.cpp:434] res4b_res4b_relu_0_split <- res4b
I1213 23:56:47.360678 14932 net.cpp:408] res4b_res4b_relu_0_split -> res4b_res4b_relu_0_split_0
I1213 23:56:47.360687 14932 net.cpp:408] res4b_res4b_relu_0_split -> res4b_res4b_relu_0_split_1
I1213 23:56:47.360728 14932 net.cpp:150] Setting up res4b_res4b_relu_0_split
I1213 23:56:47.360734 14932 net.cpp:157] Top shape: 2 1024 14 14 (401408)
I1213 23:56:47.360740 14932 net.cpp:157] Top shape: 2 1024 14 14 (401408)
I1213 23:56:47.360744 14932 net.cpp:165] Memory required for data: 383344648
I1213 23:56:47.360749 14932 layer_factory.hpp:77] Creating layer res4c_branch2a
I1213 23:56:47.360757 14932 net.cpp:100] Creating Layer res4c_branch2a
I1213 23:56:47.360762 14932 net.cpp:434] res4c_branch2a <- res4b_res4b_relu_0_split_0
I1213 23:56:47.360769 14932 net.cpp:408] res4c_branch2a -> res4c_branch2a
I1213 23:56:47.365197 14932 net.cpp:150] Setting up res4c_branch2a
I1213 23:56:47.365221 14932 net.cpp:157] Top shape: 2 256 14 14 (100352)
I1213 23:56:47.365224 14932 net.cpp:165] Memory required for data: 383746056
I1213 23:56:47.365231 14932 layer_factory.hpp:77] Creating layer bn4c_branch2a
I1213 23:56:47.365237 14932 net.cpp:100] Creating Layer bn4c_branch2a
I1213 23:56:47.365242 14932 net.cpp:434] bn4c_branch2a <- res4c_branch2a
I1213 23:56:47.365248 14932 net.cpp:395] bn4c_branch2a -> res4c_branch2a (in-place)
I1213 23:56:47.365468 14932 net.cpp:150] Setting up bn4c_branch2a
I1213 23:56:47.365475 14932 net.cpp:157] Top shape: 2 256 14 14 (100352)
I1213 23:56:47.365489 14932 net.cpp:165] Memory required for data: 384147464
I1213 23:56:47.365496 14932 layer_factory.hpp:77] Creating layer scale4c_branch2a
I1213 23:56:47.365504 14932 net.cpp:100] Creating Layer scale4c_branch2a
I1213 23:56:47.365507 14932 net.cpp:434] scale4c_branch2a <- res4c_branch2a
I1213 23:56:47.365514 14932 net.cpp:395] scale4c_branch2a -> res4c_branch2a (in-place)
I1213 23:56:47.365556 14932 layer_factory.hpp:77] Creating layer scale4c_branch2a
I1213 23:56:47.365669 14932 net.cpp:150] Setting up scale4c_branch2a
I1213 23:56:47.365677 14932 net.cpp:157] Top shape: 2 256 14 14 (100352)
I1213 23:56:47.365698 14932 net.cpp:165] Memory required for data: 384548872
I1213 23:56:47.365715 14932 layer_factory.hpp:77] Creating layer res4c_branch2a_relu
I1213 23:56:47.365731 14932 net.cpp:100] Creating Layer res4c_branch2a_relu
I1213 23:56:47.365743 14932 net.cpp:434] res4c_branch2a_relu <- res4c_branch2a
I1213 23:56:47.365757 14932 net.cpp:395] res4c_branch2a_relu -> res4c_branch2a (in-place)
I1213 23:56:47.366318 14932 net.cpp:150] Setting up res4c_branch2a_relu
I1213 23:56:47.366339 14932 net.cpp:157] Top shape: 2 256 14 14 (100352)
I1213 23:56:47.366353 14932 net.cpp:165] Memory required for data: 384950280
I1213 23:56:47.366358 14932 layer_factory.hpp:77] Creating layer res4c_branch2b
I1213 23:56:47.366375 14932 net.cpp:100] Creating Layer res4c_branch2b
I1213 23:56:47.366380 14932 net.cpp:434] res4c_branch2b <- res4c_branch2a
I1213 23:56:47.366387 14932 net.cpp:408] res4c_branch2b -> res4c_branch2b
I1213 23:56:47.371001 14932 net.cpp:150] Setting up res4c_branch2b
I1213 23:56:47.371026 14932 net.cpp:157] Top shape: 2 256 14 14 (100352)
I1213 23:56:47.371031 14932 net.cpp:165] Memory required for data: 385351688
I1213 23:56:47.371037 14932 layer_factory.hpp:77] Creating layer bn4c_branch2b
I1213 23:56:47.371044 14932 net.cpp:100] Creating Layer bn4c_branch2b
I1213 23:56:47.371065 14932 net.cpp:434] bn4c_branch2b <- res4c_branch2b
I1213 23:56:47.371074 14932 net.cpp:395] bn4c_branch2b -> res4c_branch2b (in-place)
I1213 23:56:47.371274 14932 net.cpp:150] Setting up bn4c_branch2b
I1213 23:56:47.371284 14932 net.cpp:157] Top shape: 2 256 14 14 (100352)
I1213 23:56:47.371287 14932 net.cpp:165] Memory required for data: 385753096
I1213 23:56:47.371296 14932 layer_factory.hpp:77] Creating layer scale4c_branch2b
I1213 23:56:47.371304 14932 net.cpp:100] Creating Layer scale4c_branch2b
I1213 23:56:47.371309 14932 net.cpp:434] scale4c_branch2b <- res4c_branch2b
I1213 23:56:47.371315 14932 net.cpp:395] scale4c_branch2b -> res4c_branch2b (in-place)
I1213 23:56:47.371374 14932 layer_factory.hpp:77] Creating layer scale4c_branch2b
I1213 23:56:47.371485 14932 net.cpp:150] Setting up scale4c_branch2b
I1213 23:56:47.371493 14932 net.cpp:157] Top shape: 2 256 14 14 (100352)
I1213 23:56:47.371497 14932 net.cpp:165] Memory required for data: 386154504
I1213 23:56:47.371505 14932 layer_factory.hpp:77] Creating layer res4c_branch2b_relu
I1213 23:56:47.371512 14932 net.cpp:100] Creating Layer res4c_branch2b_relu
I1213 23:56:47.371516 14932 net.cpp:434] res4c_branch2b_relu <- res4c_branch2b
I1213 23:56:47.371523 14932 net.cpp:395] res4c_branch2b_relu -> res4c_branch2b (in-place)
I1213 23:56:47.372000 14932 net.cpp:150] Setting up res4c_branch2b_relu
I1213 23:56:47.372011 14932 net.cpp:157] Top shape: 2 256 14 14 (100352)
I1213 23:56:47.372016 14932 net.cpp:165] Memory required for data: 386555912
I1213 23:56:47.372021 14932 layer_factory.hpp:77] Creating layer res4c_branch2c
I1213 23:56:47.372030 14932 net.cpp:100] Creating Layer res4c_branch2c
I1213 23:56:47.372035 14932 net.cpp:434] res4c_branch2c <- res4c_branch2b
I1213 23:56:47.372042 14932 net.cpp:408] res4c_branch2c -> res4c_branch2c
I1213 23:56:47.377655 14932 net.cpp:150] Setting up res4c_branch2c
I1213 23:56:47.377677 14932 net.cpp:157] Top shape: 2 1024 14 14 (401408)
I1213 23:56:47.377682 14932 net.cpp:165] Memory required for data: 388161544
I1213 23:56:47.377697 14932 layer_factory.hpp:77] Creating layer bn4c_branch2c
I1213 23:56:47.377704 14932 net.cpp:100] Creating Layer bn4c_branch2c
I1213 23:56:47.377708 14932 net.cpp:434] bn4c_branch2c <- res4c_branch2c
I1213 23:56:47.377715 14932 net.cpp:395] bn4c_branch2c -> res4c_branch2c (in-place)
I1213 23:56:47.377919 14932 net.cpp:150] Setting up bn4c_branch2c
I1213 23:56:47.377926 14932 net.cpp:157] Top shape: 2 1024 14 14 (401408)
I1213 23:56:47.377939 14932 net.cpp:165] Memory required for data: 389767176
I1213 23:56:47.377948 14932 layer_factory.hpp:77] Creating layer scale4c_branch2c
I1213 23:56:47.377954 14932 net.cpp:100] Creating Layer scale4c_branch2c
I1213 23:56:47.377959 14932 net.cpp:434] scale4c_branch2c <- res4c_branch2c
I1213 23:56:47.377965 14932 net.cpp:395] scale4c_branch2c -> res4c_branch2c (in-place)
I1213 23:56:47.378003 14932 layer_factory.hpp:77] Creating layer scale4c_branch2c
I1213 23:56:47.378116 14932 net.cpp:150] Setting up scale4c_branch2c
I1213 23:56:47.378124 14932 net.cpp:157] Top shape: 2 1024 14 14 (401408)
I1213 23:56:47.378129 14932 net.cpp:165] Memory required for data: 391372808
I1213 23:56:47.378135 14932 layer_factory.hpp:77] Creating layer res4c
I1213 23:56:47.378142 14932 net.cpp:100] Creating Layer res4c
I1213 23:56:47.378147 14932 net.cpp:434] res4c <- res4b_res4b_relu_0_split_1
I1213 23:56:47.378154 14932 net.cpp:434] res4c <- res4c_branch2c
I1213 23:56:47.378159 14932 net.cpp:408] res4c -> res4c
I1213 23:56:47.378186 14932 net.cpp:150] Setting up res4c
I1213 23:56:47.378192 14932 net.cpp:157] Top shape: 2 1024 14 14 (401408)
I1213 23:56:47.378197 14932 net.cpp:165] Memory required for data: 392978440
I1213 23:56:47.378201 14932 layer_factory.hpp:77] Creating layer res4c_relu
I1213 23:56:47.378208 14932 net.cpp:100] Creating Layer res4c_relu
I1213 23:56:47.378213 14932 net.cpp:434] res4c_relu <- res4c
I1213 23:56:47.378219 14932 net.cpp:395] res4c_relu -> res4c (in-place)
I1213 23:56:47.378720 14932 net.cpp:150] Setting up res4c_relu
I1213 23:56:47.378729 14932 net.cpp:157] Top shape: 2 1024 14 14 (401408)
I1213 23:56:47.378734 14932 net.cpp:165] Memory required for data: 394584072
I1213 23:56:47.378738 14932 layer_factory.hpp:77] Creating layer res4c_res4c_relu_0_split
I1213 23:56:47.378746 14932 net.cpp:100] Creating Layer res4c_res4c_relu_0_split
I1213 23:56:47.378751 14932 net.cpp:434] res4c_res4c_relu_0_split <- res4c
I1213 23:56:47.378756 14932 net.cpp:408] res4c_res4c_relu_0_split -> res4c_res4c_relu_0_split_0
I1213 23:56:47.378764 14932 net.cpp:408] res4c_res4c_relu_0_split -> res4c_res4c_relu_0_split_1
I1213 23:56:47.378805 14932 net.cpp:150] Setting up res4c_res4c_relu_0_split
I1213 23:56:47.378813 14932 net.cpp:157] Top shape: 2 1024 14 14 (401408)
I1213 23:56:47.378818 14932 net.cpp:157] Top shape: 2 1024 14 14 (401408)
I1213 23:56:47.378823 14932 net.cpp:165] Memory required for data: 397795336
I1213 23:56:47.378826 14932 layer_factory.hpp:77] Creating layer res4d_branch2a
I1213 23:56:47.378835 14932 net.cpp:100] Creating Layer res4d_branch2a
I1213 23:56:47.378840 14932 net.cpp:434] res4d_branch2a <- res4c_res4c_relu_0_split_0
I1213 23:56:47.378846 14932 net.cpp:408] res4d_branch2a -> res4d_branch2a
I1213 23:56:47.382447 14932 net.cpp:150] Setting up res4d_branch2a
I1213 23:56:47.382468 14932 net.cpp:157] Top shape: 2 256 14 14 (100352)
I1213 23:56:47.382472 14932 net.cpp:165] Memory required for data: 398196744
I1213 23:56:47.382478 14932 layer_factory.hpp:77] Creating layer bn4d_branch2a
I1213 23:56:47.382485 14932 net.cpp:100] Creating Layer bn4d_branch2a
I1213 23:56:47.382490 14932 net.cpp:434] bn4d_branch2a <- res4d_branch2a
I1213 23:56:47.382496 14932 net.cpp:395] bn4d_branch2a -> res4d_branch2a (in-place)
I1213 23:56:47.382689 14932 net.cpp:150] Setting up bn4d_branch2a
I1213 23:56:47.382696 14932 net.cpp:157] Top shape: 2 256 14 14 (100352)
I1213 23:56:47.382701 14932 net.cpp:165] Memory required for data: 398598152
I1213 23:56:47.382710 14932 layer_factory.hpp:77] Creating layer scale4d_branch2a
I1213 23:56:47.382717 14932 net.cpp:100] Creating Layer scale4d_branch2a
I1213 23:56:47.382721 14932 net.cpp:434] scale4d_branch2a <- res4d_branch2a
I1213 23:56:47.382728 14932 net.cpp:395] scale4d_branch2a -> res4d_branch2a (in-place)
I1213 23:56:47.382768 14932 layer_factory.hpp:77] Creating layer scale4d_branch2a
I1213 23:56:47.382877 14932 net.cpp:150] Setting up scale4d_branch2a
I1213 23:56:47.382884 14932 net.cpp:157] Top shape: 2 256 14 14 (100352)
I1213 23:56:47.382889 14932 net.cpp:165] Memory required for data: 398999560
I1213 23:56:47.382896 14932 layer_factory.hpp:77] Creating layer res4d_branch2a_relu
I1213 23:56:47.382902 14932 net.cpp:100] Creating Layer res4d_branch2a_relu
I1213 23:56:47.382907 14932 net.cpp:434] res4d_branch2a_relu <- res4d_branch2a
I1213 23:56:47.382913 14932 net.cpp:395] res4d_branch2a_relu -> res4d_branch2a (in-place)
I1213 23:56:47.383569 14932 net.cpp:150] Setting up res4d_branch2a_relu
I1213 23:56:47.383576 14932 net.cpp:157] Top shape: 2 256 14 14 (100352)
I1213 23:56:47.383581 14932 net.cpp:165] Memory required for data: 399400968
I1213 23:56:47.383586 14932 layer_factory.hpp:77] Creating layer res4d_branch2b
I1213 23:56:47.383594 14932 net.cpp:100] Creating Layer res4d_branch2b
I1213 23:56:47.383599 14932 net.cpp:434] res4d_branch2b <- res4d_branch2a
I1213 23:56:47.383606 14932 net.cpp:408] res4d_branch2b -> res4d_branch2b
I1213 23:56:47.387306 14932 net.cpp:150] Setting up res4d_branch2b
I1213 23:56:47.387320 14932 net.cpp:157] Top shape: 2 256 14 14 (100352)
I1213 23:56:47.387326 14932 net.cpp:165] Memory required for data: 399802376
I1213 23:56:47.387331 14932 layer_factory.hpp:77] Creating layer bn4d_branch2b
I1213 23:56:47.387341 14932 net.cpp:100] Creating Layer bn4d_branch2b
I1213 23:56:47.387346 14932 net.cpp:434] bn4d_branch2b <- res4d_branch2b
I1213 23:56:47.387351 14932 net.cpp:395] bn4d_branch2b -> res4d_branch2b (in-place)
I1213 23:56:47.387552 14932 net.cpp:150] Setting up bn4d_branch2b
I1213 23:56:47.387559 14932 net.cpp:157] Top shape: 2 256 14 14 (100352)
I1213 23:56:47.387563 14932 net.cpp:165] Memory required for data: 400203784
I1213 23:56:47.387573 14932 layer_factory.hpp:77] Creating layer scale4d_branch2b
I1213 23:56:47.387580 14932 net.cpp:100] Creating Layer scale4d_branch2b
I1213 23:56:47.387584 14932 net.cpp:434] scale4d_branch2b <- res4d_branch2b
I1213 23:56:47.387590 14932 net.cpp:395] scale4d_branch2b -> res4d_branch2b (in-place)
I1213 23:56:47.387632 14932 layer_factory.hpp:77] Creating layer scale4d_branch2b
I1213 23:56:47.387742 14932 net.cpp:150] Setting up scale4d_branch2b
I1213 23:56:47.387749 14932 net.cpp:157] Top shape: 2 256 14 14 (100352)
I1213 23:56:47.387754 14932 net.cpp:165] Memory required for data: 400605192
I1213 23:56:47.387761 14932 layer_factory.hpp:77] Creating layer res4d_branch2b_relu
I1213 23:56:47.387768 14932 net.cpp:100] Creating Layer res4d_branch2b_relu
I1213 23:56:47.387773 14932 net.cpp:434] res4d_branch2b_relu <- res4d_branch2b
I1213 23:56:47.387778 14932 net.cpp:395] res4d_branch2b_relu -> res4d_branch2b (in-place)
I1213 23:56:47.388283 14932 net.cpp:150] Setting up res4d_branch2b_relu
I1213 23:56:47.388324 14932 net.cpp:157] Top shape: 2 256 14 14 (100352)
I1213 23:56:47.388342 14932 net.cpp:165] Memory required for data: 401006600
I1213 23:56:47.388358 14932 layer_factory.hpp:77] Creating layer res4d_branch2c
I1213 23:56:47.388392 14932 net.cpp:100] Creating Layer res4d_branch2c
I1213 23:56:47.388411 14932 net.cpp:434] res4d_branch2c <- res4d_branch2b
I1213 23:56:47.388428 14932 net.cpp:408] res4d_branch2c -> res4d_branch2c
I1213 23:56:47.391283 14932 net.cpp:150] Setting up res4d_branch2c
I1213 23:56:47.391363 14932 net.cpp:157] Top shape: 2 1024 14 14 (401408)
I1213 23:56:47.391382 14932 net.cpp:165] Memory required for data: 402612232
I1213 23:56:47.391412 14932 layer_factory.hpp:77] Creating layer bn4d_branch2c
I1213 23:56:47.391443 14932 net.cpp:100] Creating Layer bn4d_branch2c
I1213 23:56:47.391463 14932 net.cpp:434] bn4d_branch2c <- res4d_branch2c
I1213 23:56:47.391485 14932 net.cpp:395] bn4d_branch2c -> res4d_branch2c (in-place)
I1213 23:56:47.391769 14932 net.cpp:150] Setting up bn4d_branch2c
I1213 23:56:47.391793 14932 net.cpp:157] Top shape: 2 1024 14 14 (401408)
I1213 23:56:47.391808 14932 net.cpp:165] Memory required for data: 404217864
I1213 23:56:47.391829 14932 layer_factory.hpp:77] Creating layer scale4d_branch2c
I1213 23:56:47.391849 14932 net.cpp:100] Creating Layer scale4d_branch2c
I1213 23:56:47.391865 14932 net.cpp:434] scale4d_branch2c <- res4d_branch2c
I1213 23:56:47.391881 14932 net.cpp:395] scale4d_branch2c -> res4d_branch2c (in-place)
I1213 23:56:47.391957 14932 layer_factory.hpp:77] Creating layer scale4d_branch2c
I1213 23:56:47.392148 14932 net.cpp:150] Setting up scale4d_branch2c
I1213 23:56:47.392175 14932 net.cpp:157] Top shape: 2 1024 14 14 (401408)
I1213 23:56:47.392191 14932 net.cpp:165] Memory required for data: 405823496
I1213 23:56:47.392211 14932 layer_factory.hpp:77] Creating layer res4d
I1213 23:56:47.392230 14932 net.cpp:100] Creating Layer res4d
I1213 23:56:47.392248 14932 net.cpp:434] res4d <- res4c_res4c_relu_0_split_1
I1213 23:56:47.392266 14932 net.cpp:434] res4d <- res4d_branch2c
I1213 23:56:47.392283 14932 net.cpp:408] res4d -> res4d
I1213 23:56:47.392326 14932 net.cpp:150] Setting up res4d
I1213 23:56:47.392345 14932 net.cpp:157] Top shape: 2 1024 14 14 (401408)
I1213 23:56:47.392357 14932 net.cpp:165] Memory required for data: 407429128
I1213 23:56:47.392371 14932 layer_factory.hpp:77] Creating layer res4d_relu
I1213 23:56:47.392390 14932 net.cpp:100] Creating Layer res4d_relu
I1213 23:56:47.392405 14932 net.cpp:434] res4d_relu <- res4d
I1213 23:56:47.392419 14932 net.cpp:395] res4d_relu -> res4d (in-place)
I1213 23:56:47.392627 14932 net.cpp:150] Setting up res4d_relu
I1213 23:56:47.392649 14932 net.cpp:157] Top shape: 2 1024 14 14 (401408)
I1213 23:56:47.392663 14932 net.cpp:165] Memory required for data: 409034760
I1213 23:56:47.392676 14932 layer_factory.hpp:77] Creating layer res4d_res4d_relu_0_split
I1213 23:56:47.392693 14932 net.cpp:100] Creating Layer res4d_res4d_relu_0_split
I1213 23:56:47.392705 14932 net.cpp:434] res4d_res4d_relu_0_split <- res4d
I1213 23:56:47.392721 14932 net.cpp:408] res4d_res4d_relu_0_split -> res4d_res4d_relu_0_split_0
I1213 23:56:47.392738 14932 net.cpp:408] res4d_res4d_relu_0_split -> res4d_res4d_relu_0_split_1
I1213 23:56:47.392796 14932 net.cpp:150] Setting up res4d_res4d_relu_0_split
I1213 23:56:47.392814 14932 net.cpp:157] Top shape: 2 1024 14 14 (401408)
I1213 23:56:47.392828 14932 net.cpp:157] Top shape: 2 1024 14 14 (401408)
I1213 23:56:47.392841 14932 net.cpp:165] Memory required for data: 412246024
I1213 23:56:47.392854 14932 layer_factory.hpp:77] Creating layer res4e_branch2a
I1213 23:56:47.392873 14932 net.cpp:100] Creating Layer res4e_branch2a
I1213 23:56:47.392886 14932 net.cpp:434] res4e_branch2a <- res4d_res4d_relu_0_split_0
I1213 23:56:47.392901 14932 net.cpp:408] res4e_branch2a -> res4e_branch2a
I1213 23:56:47.396993 14932 net.cpp:150] Setting up res4e_branch2a
I1213 23:56:47.397047 14932 net.cpp:157] Top shape: 2 256 14 14 (100352)
I1213 23:56:47.397063 14932 net.cpp:165] Memory required for data: 412647432
I1213 23:56:47.397081 14932 layer_factory.hpp:77] Creating layer bn4e_branch2a
I1213 23:56:47.397102 14932 net.cpp:100] Creating Layer bn4e_branch2a
I1213 23:56:47.397117 14932 net.cpp:434] bn4e_branch2a <- res4e_branch2a
I1213 23:56:47.397143 14932 net.cpp:395] bn4e_branch2a -> res4e_branch2a (in-place)
I1213 23:56:47.397387 14932 net.cpp:150] Setting up bn4e_branch2a
I1213 23:56:47.397406 14932 net.cpp:157] Top shape: 2 256 14 14 (100352)
I1213 23:56:47.397419 14932 net.cpp:165] Memory required for data: 413048840
I1213 23:56:47.397439 14932 layer_factory.hpp:77] Creating layer scale4e_branch2a
I1213 23:56:47.397455 14932 net.cpp:100] Creating Layer scale4e_branch2a
I1213 23:56:47.397469 14932 net.cpp:434] scale4e_branch2a <- res4e_branch2a
I1213 23:56:47.397483 14932 net.cpp:395] scale4e_branch2a -> res4e_branch2a (in-place)
I1213 23:56:47.397547 14932 layer_factory.hpp:77] Creating layer scale4e_branch2a
I1213 23:56:47.397733 14932 net.cpp:150] Setting up scale4e_branch2a
I1213 23:56:47.397760 14932 net.cpp:157] Top shape: 2 256 14 14 (100352)
I1213 23:56:47.397778 14932 net.cpp:165] Memory required for data: 413450248
I1213 23:56:47.397794 14932 layer_factory.hpp:77] Creating layer res4e_branch2a_relu
I1213 23:56:47.397811 14932 net.cpp:100] Creating Layer res4e_branch2a_relu
I1213 23:56:47.397825 14932 net.cpp:434] res4e_branch2a_relu <- res4e_branch2a
I1213 23:56:47.397840 14932 net.cpp:395] res4e_branch2a_relu -> res4e_branch2a (in-place)
I1213 23:56:47.398018 14932 net.cpp:150] Setting up res4e_branch2a_relu
I1213 23:56:47.398041 14932 net.cpp:157] Top shape: 2 256 14 14 (100352)
I1213 23:56:47.398056 14932 net.cpp:165] Memory required for data: 413851656
I1213 23:56:47.398068 14932 layer_factory.hpp:77] Creating layer res4e_branch2b
I1213 23:56:47.398087 14932 net.cpp:100] Creating Layer res4e_branch2b
I1213 23:56:47.398102 14932 net.cpp:434] res4e_branch2b <- res4e_branch2a
I1213 23:56:47.398118 14932 net.cpp:408] res4e_branch2b -> res4e_branch2b
I1213 23:56:47.401741 14932 net.cpp:150] Setting up res4e_branch2b
I1213 23:56:47.401799 14932 net.cpp:157] Top shape: 2 256 14 14 (100352)
I1213 23:56:47.401814 14932 net.cpp:165] Memory required for data: 414253064
I1213 23:56:47.401832 14932 layer_factory.hpp:77] Creating layer bn4e_branch2b
I1213 23:56:47.401854 14932 net.cpp:100] Creating Layer bn4e_branch2b
I1213 23:56:47.401871 14932 net.cpp:434] bn4e_branch2b <- res4e_branch2b
I1213 23:56:47.401891 14932 net.cpp:395] bn4e_branch2b -> res4e_branch2b (in-place)
I1213 23:56:47.402170 14932 net.cpp:150] Setting up bn4e_branch2b
I1213 23:56:47.402196 14932 net.cpp:157] Top shape: 2 256 14 14 (100352)
I1213 23:56:47.402211 14932 net.cpp:165] Memory required for data: 414654472
I1213 23:56:47.402230 14932 layer_factory.hpp:77] Creating layer scale4e_branch2b
I1213 23:56:47.402247 14932 net.cpp:100] Creating Layer scale4e_branch2b
I1213 23:56:47.402261 14932 net.cpp:434] scale4e_branch2b <- res4e_branch2b
I1213 23:56:47.402276 14932 net.cpp:395] scale4e_branch2b -> res4e_branch2b (in-place)
I1213 23:56:47.402341 14932 layer_factory.hpp:77] Creating layer scale4e_branch2b
I1213 23:56:47.402487 14932 net.cpp:150] Setting up scale4e_branch2b
I1213 23:56:47.402508 14932 net.cpp:157] Top shape: 2 256 14 14 (100352)
I1213 23:56:47.402520 14932 net.cpp:165] Memory required for data: 415055880
I1213 23:56:47.402537 14932 layer_factory.hpp:77] Creating layer res4e_branch2b_relu
I1213 23:56:47.402554 14932 net.cpp:100] Creating Layer res4e_branch2b_relu
I1213 23:56:47.402567 14932 net.cpp:434] res4e_branch2b_relu <- res4e_branch2b
I1213 23:56:47.402582 14932 net.cpp:395] res4e_branch2b_relu -> res4e_branch2b (in-place)
I1213 23:56:47.402897 14932 net.cpp:150] Setting up res4e_branch2b_relu
I1213 23:56:47.402922 14932 net.cpp:157] Top shape: 2 256 14 14 (100352)
I1213 23:56:47.402936 14932 net.cpp:165] Memory required for data: 415457288
I1213 23:56:47.402951 14932 layer_factory.hpp:77] Creating layer res4e_branch2c
I1213 23:56:47.402972 14932 net.cpp:100] Creating Layer res4e_branch2c
I1213 23:56:47.402990 14932 net.cpp:434] res4e_branch2c <- res4e_branch2b
I1213 23:56:47.403009 14932 net.cpp:408] res4e_branch2c -> res4e_branch2c
I1213 23:56:47.405560 14932 net.cpp:150] Setting up res4e_branch2c
I1213 23:56:47.405614 14932 net.cpp:157] Top shape: 2 1024 14 14 (401408)
I1213 23:56:47.405633 14932 net.cpp:165] Memory required for data: 417062920
I1213 23:56:47.405650 14932 layer_factory.hpp:77] Creating layer bn4e_branch2c
I1213 23:56:47.405670 14932 net.cpp:100] Creating Layer bn4e_branch2c
I1213 23:56:47.405684 14932 net.cpp:434] bn4e_branch2c <- res4e_branch2c
I1213 23:56:47.405700 14932 net.cpp:395] bn4e_branch2c -> res4e_branch2c (in-place)
I1213 23:56:47.405947 14932 net.cpp:150] Setting up bn4e_branch2c
I1213 23:56:47.405967 14932 net.cpp:157] Top shape: 2 1024 14 14 (401408)
I1213 23:56:47.405980 14932 net.cpp:165] Memory required for data: 418668552
I1213 23:56:47.405998 14932 layer_factory.hpp:77] Creating layer scale4e_branch2c
I1213 23:56:47.406015 14932 net.cpp:100] Creating Layer scale4e_branch2c
I1213 23:56:47.406029 14932 net.cpp:434] scale4e_branch2c <- res4e_branch2c
I1213 23:56:47.406044 14932 net.cpp:395] scale4e_branch2c -> res4e_branch2c (in-place)
I1213 23:56:47.406103 14932 layer_factory.hpp:77] Creating layer scale4e_branch2c
I1213 23:56:47.406273 14932 net.cpp:150] Setting up scale4e_branch2c
I1213 23:56:47.406298 14932 net.cpp:157] Top shape: 2 1024 14 14 (401408)
I1213 23:56:47.406316 14932 net.cpp:165] Memory required for data: 420274184
I1213 23:56:47.406335 14932 layer_factory.hpp:77] Creating layer res4e
I1213 23:56:47.406355 14932 net.cpp:100] Creating Layer res4e
I1213 23:56:47.406373 14932 net.cpp:434] res4e <- res4d_res4d_relu_0_split_1
I1213 23:56:47.406389 14932 net.cpp:434] res4e <- res4e_branch2c
I1213 23:56:47.406405 14932 net.cpp:408] res4e -> res4e
I1213 23:56:47.406448 14932 net.cpp:150] Setting up res4e
I1213 23:56:47.406466 14932 net.cpp:157] Top shape: 2 1024 14 14 (401408)
I1213 23:56:47.406481 14932 net.cpp:165] Memory required for data: 421879816
I1213 23:56:47.406497 14932 layer_factory.hpp:77] Creating layer res4e_relu
I1213 23:56:47.406513 14932 net.cpp:100] Creating Layer res4e_relu
I1213 23:56:47.406527 14932 net.cpp:434] res4e_relu <- res4e
I1213 23:56:47.406540 14932 net.cpp:395] res4e_relu -> res4e (in-place)
I1213 23:56:47.406714 14932 net.cpp:150] Setting up res4e_relu
I1213 23:56:47.406736 14932 net.cpp:157] Top shape: 2 1024 14 14 (401408)
I1213 23:56:47.406750 14932 net.cpp:165] Memory required for data: 423485448
I1213 23:56:47.406764 14932 layer_factory.hpp:77] Creating layer res4e_res4e_relu_0_split
I1213 23:56:47.406779 14932 net.cpp:100] Creating Layer res4e_res4e_relu_0_split
I1213 23:56:47.406792 14932 net.cpp:434] res4e_res4e_relu_0_split <- res4e
I1213 23:56:47.406807 14932 net.cpp:408] res4e_res4e_relu_0_split -> res4e_res4e_relu_0_split_0
I1213 23:56:47.406824 14932 net.cpp:408] res4e_res4e_relu_0_split -> res4e_res4e_relu_0_split_1
I1213 23:56:47.406883 14932 net.cpp:150] Setting up res4e_res4e_relu_0_split
I1213 23:56:47.406901 14932 net.cpp:157] Top shape: 2 1024 14 14 (401408)
I1213 23:56:47.406915 14932 net.cpp:157] Top shape: 2 1024 14 14 (401408)
I1213 23:56:47.406929 14932 net.cpp:165] Memory required for data: 426696712
I1213 23:56:47.406941 14932 layer_factory.hpp:77] Creating layer res4f_branch2a
I1213 23:56:47.406960 14932 net.cpp:100] Creating Layer res4f_branch2a
I1213 23:56:47.406972 14932 net.cpp:434] res4f_branch2a <- res4e_res4e_relu_0_split_0
I1213 23:56:47.406988 14932 net.cpp:408] res4f_branch2a -> res4f_branch2a
I1213 23:56:47.410092 14932 net.cpp:150] Setting up res4f_branch2a
I1213 23:56:47.410106 14932 net.cpp:157] Top shape: 2 256 14 14 (100352)
I1213 23:56:47.410110 14932 net.cpp:165] Memory required for data: 427098120
I1213 23:56:47.410117 14932 layer_factory.hpp:77] Creating layer bn4f_branch2a
I1213 23:56:47.410125 14932 net.cpp:100] Creating Layer bn4f_branch2a
I1213 23:56:47.410131 14932 net.cpp:434] bn4f_branch2a <- res4f_branch2a
I1213 23:56:47.410140 14932 net.cpp:395] bn4f_branch2a -> res4f_branch2a (in-place)
I1213 23:56:47.410305 14932 net.cpp:150] Setting up bn4f_branch2a
I1213 23:56:47.410311 14932 net.cpp:157] Top shape: 2 256 14 14 (100352)
I1213 23:56:47.410316 14932 net.cpp:165] Memory required for data: 427499528
I1213 23:56:47.410326 14932 layer_factory.hpp:77] Creating layer scale4f_branch2a
I1213 23:56:47.410333 14932 net.cpp:100] Creating Layer scale4f_branch2a
I1213 23:56:47.410338 14932 net.cpp:434] scale4f_branch2a <- res4f_branch2a
I1213 23:56:47.410344 14932 net.cpp:395] scale4f_branch2a -> res4f_branch2a (in-place)
I1213 23:56:47.410384 14932 layer_factory.hpp:77] Creating layer scale4f_branch2a
I1213 23:56:47.410478 14932 net.cpp:150] Setting up scale4f_branch2a
I1213 23:56:47.410485 14932 net.cpp:157] Top shape: 2 256 14 14 (100352)
I1213 23:56:47.410490 14932 net.cpp:165] Memory required for data: 427900936
I1213 23:56:47.410498 14932 layer_factory.hpp:77] Creating layer res4f_branch2a_relu
I1213 23:56:47.410506 14932 net.cpp:100] Creating Layer res4f_branch2a_relu
I1213 23:56:47.410521 14932 net.cpp:434] res4f_branch2a_relu <- res4f_branch2a
I1213 23:56:47.410528 14932 net.cpp:395] res4f_branch2a_relu -> res4f_branch2a (in-place)
I1213 23:56:47.410663 14932 net.cpp:150] Setting up res4f_branch2a_relu
I1213 23:56:47.410672 14932 net.cpp:157] Top shape: 2 256 14 14 (100352)
I1213 23:56:47.410676 14932 net.cpp:165] Memory required for data: 428302344
I1213 23:56:47.410681 14932 layer_factory.hpp:77] Creating layer res4f_branch2b
I1213 23:56:47.410699 14932 net.cpp:100] Creating Layer res4f_branch2b
I1213 23:56:47.410704 14932 net.cpp:434] res4f_branch2b <- res4f_branch2a
I1213 23:56:47.410711 14932 net.cpp:408] res4f_branch2b -> res4f_branch2b
I1213 23:56:47.413480 14932 net.cpp:150] Setting up res4f_branch2b
I1213 23:56:47.413496 14932 net.cpp:157] Top shape: 2 256 14 14 (100352)
I1213 23:56:47.413501 14932 net.cpp:165] Memory required for data: 428703752
I1213 23:56:47.413507 14932 layer_factory.hpp:77] Creating layer bn4f_branch2b
I1213 23:56:47.413517 14932 net.cpp:100] Creating Layer bn4f_branch2b
I1213 23:56:47.413523 14932 net.cpp:434] bn4f_branch2b <- res4f_branch2b
I1213 23:56:47.413544 14932 net.cpp:395] bn4f_branch2b -> res4f_branch2b (in-place)
I1213 23:56:47.413729 14932 net.cpp:150] Setting up bn4f_branch2b
I1213 23:56:47.413738 14932 net.cpp:157] Top shape: 2 256 14 14 (100352)
I1213 23:56:47.413743 14932 net.cpp:165] Memory required for data: 429105160
I1213 23:56:47.413753 14932 layer_factory.hpp:77] Creating layer scale4f_branch2b
I1213 23:56:47.413760 14932 net.cpp:100] Creating Layer scale4f_branch2b
I1213 23:56:47.413766 14932 net.cpp:434] scale4f_branch2b <- res4f_branch2b
I1213 23:56:47.413774 14932 net.cpp:395] scale4f_branch2b -> res4f_branch2b (in-place)
I1213 23:56:47.413817 14932 layer_factory.hpp:77] Creating layer scale4f_branch2b
I1213 23:56:47.413914 14932 net.cpp:150] Setting up scale4f_branch2b
I1213 23:56:47.413923 14932 net.cpp:157] Top shape: 2 256 14 14 (100352)
I1213 23:56:47.413926 14932 net.cpp:165] Memory required for data: 429506568
I1213 23:56:47.413934 14932 layer_factory.hpp:77] Creating layer res4f_branch2b_relu
I1213 23:56:47.413942 14932 net.cpp:100] Creating Layer res4f_branch2b_relu
I1213 23:56:47.413947 14932 net.cpp:434] res4f_branch2b_relu <- res4f_branch2b
I1213 23:56:47.413954 14932 net.cpp:395] res4f_branch2b_relu -> res4f_branch2b (in-place)
I1213 23:56:47.414757 14932 net.cpp:150] Setting up res4f_branch2b_relu
I1213 23:56:47.414767 14932 net.cpp:157] Top shape: 2 256 14 14 (100352)
I1213 23:56:47.414772 14932 net.cpp:165] Memory required for data: 429907976
I1213 23:56:47.414777 14932 layer_factory.hpp:77] Creating layer res4f_branch2c
I1213 23:56:47.414788 14932 net.cpp:100] Creating Layer res4f_branch2c
I1213 23:56:47.414793 14932 net.cpp:434] res4f_branch2c <- res4f_branch2b
I1213 23:56:47.414800 14932 net.cpp:408] res4f_branch2c -> res4f_branch2c
I1213 23:56:47.418905 14932 net.cpp:150] Setting up res4f_branch2c
I1213 23:56:47.418915 14932 net.cpp:157] Top shape: 2 1024 14 14 (401408)
I1213 23:56:47.418920 14932 net.cpp:165] Memory required for data: 431513608
I1213 23:56:47.418926 14932 layer_factory.hpp:77] Creating layer bn4f_branch2c
I1213 23:56:47.418944 14932 net.cpp:100] Creating Layer bn4f_branch2c
I1213 23:56:47.418949 14932 net.cpp:434] bn4f_branch2c <- res4f_branch2c
I1213 23:56:47.418953 14932 net.cpp:395] bn4f_branch2c -> res4f_branch2c (in-place)
I1213 23:56:47.419123 14932 net.cpp:150] Setting up bn4f_branch2c
I1213 23:56:47.419129 14932 net.cpp:157] Top shape: 2 1024 14 14 (401408)
I1213 23:56:47.419142 14932 net.cpp:165] Memory required for data: 433119240
I1213 23:56:47.419176 14932 layer_factory.hpp:77] Creating layer scale4f_branch2c
I1213 23:56:47.419181 14932 net.cpp:100] Creating Layer scale4f_branch2c
I1213 23:56:47.419193 14932 net.cpp:434] scale4f_branch2c <- res4f_branch2c
I1213 23:56:47.419198 14932 net.cpp:395] scale4f_branch2c -> res4f_branch2c (in-place)
I1213 23:56:47.419239 14932 layer_factory.hpp:77] Creating layer scale4f_branch2c
I1213 23:56:47.419370 14932 net.cpp:150] Setting up scale4f_branch2c
I1213 23:56:47.419375 14932 net.cpp:157] Top shape: 2 1024 14 14 (401408)
I1213 23:56:47.419386 14932 net.cpp:165] Memory required for data: 434724872
I1213 23:56:47.419391 14932 layer_factory.hpp:77] Creating layer res4f
I1213 23:56:47.419395 14932 net.cpp:100] Creating Layer res4f
I1213 23:56:47.419399 14932 net.cpp:434] res4f <- res4e_res4e_relu_0_split_1
I1213 23:56:47.419402 14932 net.cpp:434] res4f <- res4f_branch2c
I1213 23:56:47.419405 14932 net.cpp:408] res4f -> res4f
I1213 23:56:47.419426 14932 net.cpp:150] Setting up res4f
I1213 23:56:47.419431 14932 net.cpp:157] Top shape: 2 1024 14 14 (401408)
I1213 23:56:47.419435 14932 net.cpp:165] Memory required for data: 436330504
I1213 23:56:47.419437 14932 layer_factory.hpp:77] Creating layer res4f_relu
I1213 23:56:47.419441 14932 net.cpp:100] Creating Layer res4f_relu
I1213 23:56:47.419445 14932 net.cpp:434] res4f_relu <- res4f
I1213 23:56:47.419447 14932 net.cpp:395] res4f_relu -> res4f (in-place)
I1213 23:56:47.419569 14932 net.cpp:150] Setting up res4f_relu
I1213 23:56:47.419574 14932 net.cpp:157] Top shape: 2 1024 14 14 (401408)
I1213 23:56:47.419577 14932 net.cpp:165] Memory required for data: 437936136
I1213 23:56:47.419580 14932 layer_factory.hpp:77] Creating layer res4f_res4f_relu_0_split
I1213 23:56:47.419584 14932 net.cpp:100] Creating Layer res4f_res4f_relu_0_split
I1213 23:56:47.419587 14932 net.cpp:434] res4f_res4f_relu_0_split <- res4f
I1213 23:56:47.419591 14932 net.cpp:408] res4f_res4f_relu_0_split -> res4f_res4f_relu_0_split_0
I1213 23:56:47.419596 14932 net.cpp:408] res4f_res4f_relu_0_split -> res4f_res4f_relu_0_split_1
I1213 23:56:47.419631 14932 net.cpp:150] Setting up res4f_res4f_relu_0_split
I1213 23:56:47.419634 14932 net.cpp:157] Top shape: 2 1024 14 14 (401408)
I1213 23:56:47.419638 14932 net.cpp:157] Top shape: 2 1024 14 14 (401408)
I1213 23:56:47.419641 14932 net.cpp:165] Memory required for data: 441147400
I1213 23:56:47.419644 14932 layer_factory.hpp:77] Creating layer res5a_branch1
I1213 23:56:47.419649 14932 net.cpp:100] Creating Layer res5a_branch1
I1213 23:56:47.419652 14932 net.cpp:434] res5a_branch1 <- res4f_res4f_relu_0_split_0
I1213 23:56:47.419656 14932 net.cpp:408] res5a_branch1 -> res5a_branch1
I1213 23:56:47.425712 14932 net.cpp:150] Setting up res5a_branch1
I1213 23:56:47.425734 14932 net.cpp:157] Top shape: 2 2048 7 7 (200704)
I1213 23:56:47.425737 14932 net.cpp:165] Memory required for data: 441950216
I1213 23:56:47.425743 14932 layer_factory.hpp:77] Creating layer bn5a_branch1
I1213 23:56:47.425751 14932 net.cpp:100] Creating Layer bn5a_branch1
I1213 23:56:47.425755 14932 net.cpp:434] bn5a_branch1 <- res5a_branch1
I1213 23:56:47.425760 14932 net.cpp:395] bn5a_branch1 -> res5a_branch1 (in-place)
I1213 23:56:47.425950 14932 net.cpp:150] Setting up bn5a_branch1
I1213 23:56:47.425958 14932 net.cpp:157] Top shape: 2 2048 7 7 (200704)
I1213 23:56:47.425961 14932 net.cpp:165] Memory required for data: 442753032
I1213 23:56:47.425969 14932 layer_factory.hpp:77] Creating layer scale5a_branch1
I1213 23:56:47.425987 14932 net.cpp:100] Creating Layer scale5a_branch1
I1213 23:56:47.425992 14932 net.cpp:434] scale5a_branch1 <- res5a_branch1
I1213 23:56:47.425997 14932 net.cpp:395] scale5a_branch1 -> res5a_branch1 (in-place)
I1213 23:56:47.426061 14932 layer_factory.hpp:77] Creating layer scale5a_branch1
I1213 23:56:47.426177 14932 net.cpp:150] Setting up scale5a_branch1
I1213 23:56:47.426182 14932 net.cpp:157] Top shape: 2 2048 7 7 (200704)
I1213 23:56:47.426194 14932 net.cpp:165] Memory required for data: 443555848
I1213 23:56:47.426198 14932 layer_factory.hpp:77] Creating layer res5a_branch2a
I1213 23:56:47.426205 14932 net.cpp:100] Creating Layer res5a_branch2a
I1213 23:56:47.426208 14932 net.cpp:434] res5a_branch2a <- res4f_res4f_relu_0_split_1
I1213 23:56:47.426213 14932 net.cpp:408] res5a_branch2a -> res5a_branch2a
I1213 23:56:47.428668 14932 net.cpp:150] Setting up res5a_branch2a
I1213 23:56:47.428680 14932 net.cpp:157] Top shape: 2 512 7 7 (50176)
I1213 23:56:47.428683 14932 net.cpp:165] Memory required for data: 443756552
I1213 23:56:47.428688 14932 layer_factory.hpp:77] Creating layer bn5a_branch2a
I1213 23:56:47.428694 14932 net.cpp:100] Creating Layer bn5a_branch2a
I1213 23:56:47.428697 14932 net.cpp:434] bn5a_branch2a <- res5a_branch2a
I1213 23:56:47.428701 14932 net.cpp:395] bn5a_branch2a -> res5a_branch2a (in-place)
I1213 23:56:47.428877 14932 net.cpp:150] Setting up bn5a_branch2a
I1213 23:56:47.428882 14932 net.cpp:157] Top shape: 2 512 7 7 (50176)
I1213 23:56:47.428894 14932 net.cpp:165] Memory required for data: 443957256
I1213 23:56:47.428900 14932 layer_factory.hpp:77] Creating layer scale5a_branch2a
I1213 23:56:47.428905 14932 net.cpp:100] Creating Layer scale5a_branch2a
I1213 23:56:47.428907 14932 net.cpp:434] scale5a_branch2a <- res5a_branch2a
I1213 23:56:47.428910 14932 net.cpp:395] scale5a_branch2a -> res5a_branch2a (in-place)
I1213 23:56:47.428942 14932 layer_factory.hpp:77] Creating layer scale5a_branch2a
I1213 23:56:47.429038 14932 net.cpp:150] Setting up scale5a_branch2a
I1213 23:56:47.429042 14932 net.cpp:157] Top shape: 2 512 7 7 (50176)
I1213 23:56:47.429045 14932 net.cpp:165] Memory required for data: 444157960
I1213 23:56:47.429049 14932 layer_factory.hpp:77] Creating layer res5a_branch2a_relu
I1213 23:56:47.429054 14932 net.cpp:100] Creating Layer res5a_branch2a_relu
I1213 23:56:47.429059 14932 net.cpp:434] res5a_branch2a_relu <- res5a_branch2a
I1213 23:56:47.429061 14932 net.cpp:395] res5a_branch2a_relu -> res5a_branch2a (in-place)
I1213 23:56:47.429677 14932 net.cpp:150] Setting up res5a_branch2a_relu
I1213 23:56:47.429684 14932 net.cpp:157] Top shape: 2 512 7 7 (50176)
I1213 23:56:47.429687 14932 net.cpp:165] Memory required for data: 444358664
I1213 23:56:47.429689 14932 layer_factory.hpp:77] Creating layer res5a_branch2b
I1213 23:56:47.429695 14932 net.cpp:100] Creating Layer res5a_branch2b
I1213 23:56:47.429698 14932 net.cpp:434] res5a_branch2b <- res5a_branch2a
I1213 23:56:47.429702 14932 net.cpp:408] res5a_branch2b -> res5a_branch2b
I1213 23:56:47.435647 14932 net.cpp:150] Setting up res5a_branch2b
I1213 23:56:47.435681 14932 net.cpp:157] Top shape: 2 512 7 7 (50176)
I1213 23:56:47.435684 14932 net.cpp:165] Memory required for data: 444559368
I1213 23:56:47.435690 14932 layer_factory.hpp:77] Creating layer bn5a_branch2b
I1213 23:56:47.435700 14932 net.cpp:100] Creating Layer bn5a_branch2b
I1213 23:56:47.435704 14932 net.cpp:434] bn5a_branch2b <- res5a_branch2b
I1213 23:56:47.435709 14932 net.cpp:395] bn5a_branch2b -> res5a_branch2b (in-place)
I1213 23:56:47.435928 14932 net.cpp:150] Setting up bn5a_branch2b
I1213 23:56:47.435936 14932 net.cpp:157] Top shape: 2 512 7 7 (50176)
I1213 23:56:47.435940 14932 net.cpp:165] Memory required for data: 444760072
I1213 23:56:47.435958 14932 layer_factory.hpp:77] Creating layer scale5a_branch2b
I1213 23:56:47.435968 14932 net.cpp:100] Creating Layer scale5a_branch2b
I1213 23:56:47.435973 14932 net.cpp:434] scale5a_branch2b <- res5a_branch2b
I1213 23:56:47.435981 14932 net.cpp:395] scale5a_branch2b -> res5a_branch2b (in-place)
I1213 23:56:47.436035 14932 layer_factory.hpp:77] Creating layer scale5a_branch2b
I1213 23:56:47.436141 14932 net.cpp:150] Setting up scale5a_branch2b
I1213 23:56:47.436148 14932 net.cpp:157] Top shape: 2 512 7 7 (50176)
I1213 23:56:47.436161 14932 net.cpp:165] Memory required for data: 444960776
I1213 23:56:47.436168 14932 layer_factory.hpp:77] Creating layer res5a_branch2b_relu
I1213 23:56:47.436177 14932 net.cpp:100] Creating Layer res5a_branch2b_relu
I1213 23:56:47.436180 14932 net.cpp:434] res5a_branch2b_relu <- res5a_branch2b
I1213 23:56:47.436187 14932 net.cpp:395] res5a_branch2b_relu -> res5a_branch2b (in-place)
I1213 23:56:47.436642 14932 net.cpp:150] Setting up res5a_branch2b_relu
I1213 23:56:47.436652 14932 net.cpp:157] Top shape: 2 512 7 7 (50176)
I1213 23:56:47.436656 14932 net.cpp:165] Memory required for data: 445161480
I1213 23:56:47.436661 14932 layer_factory.hpp:77] Creating layer res5a_branch2c
I1213 23:56:47.436681 14932 net.cpp:100] Creating Layer res5a_branch2c
I1213 23:56:47.436684 14932 net.cpp:434] res5a_branch2c <- res5a_branch2b
I1213 23:56:47.436688 14932 net.cpp:408] res5a_branch2c -> res5a_branch2c
I1213 23:56:47.439769 14932 net.cpp:150] Setting up res5a_branch2c
I1213 23:56:47.439790 14932 net.cpp:157] Top shape: 2 2048 7 7 (200704)
I1213 23:56:47.439795 14932 net.cpp:165] Memory required for data: 445964296
I1213 23:56:47.439801 14932 layer_factory.hpp:77] Creating layer bn5a_branch2c
I1213 23:56:47.439811 14932 net.cpp:100] Creating Layer bn5a_branch2c
I1213 23:56:47.439818 14932 net.cpp:434] bn5a_branch2c <- res5a_branch2c
I1213 23:56:47.439834 14932 net.cpp:395] bn5a_branch2c -> res5a_branch2c (in-place)
I1213 23:56:47.440023 14932 net.cpp:150] Setting up bn5a_branch2c
I1213 23:56:47.440029 14932 net.cpp:157] Top shape: 2 2048 7 7 (200704)
I1213 23:56:47.440042 14932 net.cpp:165] Memory required for data: 446767112
I1213 23:56:47.440047 14932 layer_factory.hpp:77] Creating layer scale5a_branch2c
I1213 23:56:47.440052 14932 net.cpp:100] Creating Layer scale5a_branch2c
I1213 23:56:47.440055 14932 net.cpp:434] scale5a_branch2c <- res5a_branch2c
I1213 23:56:47.440059 14932 net.cpp:395] scale5a_branch2c -> res5a_branch2c (in-place)
I1213 23:56:47.440104 14932 layer_factory.hpp:77] Creating layer scale5a_branch2c
I1213 23:56:47.440219 14932 net.cpp:150] Setting up scale5a_branch2c
I1213 23:56:47.440225 14932 net.cpp:157] Top shape: 2 2048 7 7 (200704)
I1213 23:56:47.440237 14932 net.cpp:165] Memory required for data: 447569928
I1213 23:56:47.440240 14932 layer_factory.hpp:77] Creating layer res5a
I1213 23:56:47.440245 14932 net.cpp:100] Creating Layer res5a
I1213 23:56:47.440249 14932 net.cpp:434] res5a <- res5a_branch1
I1213 23:56:47.440253 14932 net.cpp:434] res5a <- res5a_branch2c
I1213 23:56:47.440256 14932 net.cpp:408] res5a -> res5a
I1213 23:56:47.440279 14932 net.cpp:150] Setting up res5a
I1213 23:56:47.440282 14932 net.cpp:157] Top shape: 2 2048 7 7 (200704)
I1213 23:56:47.440286 14932 net.cpp:165] Memory required for data: 448372744
I1213 23:56:47.440289 14932 layer_factory.hpp:77] Creating layer res5a_relu
I1213 23:56:47.440292 14932 net.cpp:100] Creating Layer res5a_relu
I1213 23:56:47.440295 14932 net.cpp:434] res5a_relu <- res5a
I1213 23:56:47.440299 14932 net.cpp:395] res5a_relu -> res5a (in-place)
I1213 23:56:47.440677 14932 net.cpp:150] Setting up res5a_relu
I1213 23:56:47.440687 14932 net.cpp:157] Top shape: 2 2048 7 7 (200704)
I1213 23:56:47.440691 14932 net.cpp:165] Memory required for data: 449175560
I1213 23:56:47.440696 14932 layer_factory.hpp:77] Creating layer res5a_res5a_relu_0_split
I1213 23:56:47.440706 14932 net.cpp:100] Creating Layer res5a_res5a_relu_0_split
I1213 23:56:47.440711 14932 net.cpp:434] res5a_res5a_relu_0_split <- res5a
…
I1213 23:56:48.176457 14932 net.cpp:408] res4d_branch2a -> res4d_branch2a
I1213 23:56:48.180866 14932 net.cpp:150] Setting up res4d_branch2a
I1213 23:56:48.180874 14932 net.cpp:157] Top shape: 1 256 14 14 (50176)
I1213 23:56:48.180877 14932 net.cpp:165] Memory required for data: 199098380
I1213 23:56:48.180881 14932 layer_factory.hpp:77] Creating layer bn4d_branch2a
I1213 23:56:48.180886 14932 net.cpp:100] Creating Layer bn4d_branch2a
I1213 23:56:48.180889 14932 net.cpp:434] bn4d_branch2a <- res4d_branch2a
I1213 23:56:48.180893 14932 net.cpp:395] bn4d_branch2a -> res4d_branch2a (in-place)
I1213 23:56:48.181041 14932 net.cpp:150] Setting up bn4d_branch2a
I1213 23:56:48.181046 14932 net.cpp:157] Top shape: 1 256 14 14 (50176)
I1213 23:56:48.181048 14932 net.cpp:165] Memory required for data: 199299084
I1213 23:56:48.181054 14932 layer_factory.hpp:77] Creating layer scale4d_branch2a
I1213 23:56:48.181058 14932 net.cpp:100] Creating Layer scale4d_branch2a
I1213 23:56:48.181061 14932 net.cpp:434] scale4d_branch2a <- res4d_branch2a
I1213 23:56:48.181063 14932 net.cpp:395] scale4d_branch2a -> res4d_branch2a (in-place)
I1213 23:56:48.181094 14932 layer_factory.hpp:77] Creating layer scale4d_branch2a
I1213 23:56:48.181177 14932 net.cpp:150] Setting up scale4d_branch2a
I1213 23:56:48.181181 14932 net.cpp:157] Top shape: 1 256 14 14 (50176)
I1213 23:56:48.181183 14932 net.cpp:165] Memory required for data: 199499788
I1213 23:56:48.181187 14932 layer_factory.hpp:77] Creating layer res4d_branch2a_relu
I1213 23:56:48.181191 14932 net.cpp:100] Creating Layer res4d_branch2a_relu
I1213 23:56:48.181193 14932 net.cpp:434] res4d_branch2a_relu <- res4d_branch2a
I1213 23:56:48.181196 14932 net.cpp:395] res4d_branch2a_relu -> res4d_branch2a (in-place)
I1213 23:56:48.182220 14932 net.cpp:150] Setting up res4d_branch2a_relu
I1213 23:56:48.182229 14932 net.cpp:157] Top shape: 1 256 14 14 (50176)
I1213 23:56:48.182230 14932 net.cpp:165] Memory required for data: 199700492
I1213 23:56:48.182232 14932 layer_factory.hpp:77] Creating layer res4d_branch2b
I1213 23:56:48.182240 14932 net.cpp:100] Creating Layer res4d_branch2b
I1213 23:56:48.182242 14932 net.cpp:434] res4d_branch2b <- res4d_branch2a
I1213 23:56:48.182246 14932 net.cpp:408] res4d_branch2b -> res4d_branch2b
I1213 23:56:48.187655 14932 net.cpp:150] Setting up res4d_branch2b
I1213 23:56:48.187674 14932 net.cpp:157] Top shape: 1 256 14 14 (50176)
I1213 23:56:48.187677 14932 net.cpp:165] Memory required for data: 199901196
I1213 23:56:48.187683 14932 layer_factory.hpp:77] Creating layer bn4d_branch2b
I1213 23:56:48.187692 14932 net.cpp:100] Creating Layer bn4d_branch2b
I1213 23:56:48.187696 14932 net.cpp:434] bn4d_branch2b <- res4d_branch2b
I1213 23:56:48.187700 14932 net.cpp:395] bn4d_branch2b -> res4d_branch2b (in-place)
I1213 23:56:48.187857 14932 net.cpp:150] Setting up bn4d_branch2b
I1213 23:56:48.187862 14932 net.cpp:157] Top shape: 1 256 14 14 (50176)
I1213 23:56:48.187865 14932 net.cpp:165] Memory required for data: 200101900
I1213 23:56:48.187870 14932 layer_factory.hpp:77] Creating layer scale4d_branch2b
I1213 23:56:48.187875 14932 net.cpp:100] Creating Layer scale4d_branch2b
I1213 23:56:48.187877 14932 net.cpp:434] scale4d_branch2b <- res4d_branch2b
I1213 23:56:48.187881 14932 net.cpp:395] scale4d_branch2b -> res4d_branch2b (in-place)
I1213 23:56:48.187912 14932 layer_factory.hpp:77] Creating layer scale4d_branch2b
I1213 23:56:48.187995 14932 net.cpp:150] Setting up scale4d_branch2b
I1213 23:56:48.187999 14932 net.cpp:157] Top shape: 1 256 14 14 (50176)
I1213 23:56:48.188001 14932 net.cpp:165] Memory required for data: 200302604
I1213 23:56:48.188005 14932 layer_factory.hpp:77] Creating layer res4d_branch2b_relu
I1213 23:56:48.188010 14932 net.cpp:100] Creating Layer res4d_branch2b_relu
I1213 23:56:48.188012 14932 net.cpp:434] res4d_branch2b_relu <- res4d_branch2b
I1213 23:56:48.188015 14932 net.cpp:395] res4d_branch2b_relu -> res4d_branch2b (in-place)
I1213 23:56:48.188699 14932 net.cpp:150] Setting up res4d_branch2b_relu
I1213 23:56:48.188710 14932 net.cpp:157] Top shape: 1 256 14 14 (50176)
I1213 23:56:48.188715 14932 net.cpp:165] Memory required for data: 200503308
I1213 23:56:48.188721 14932 layer_factory.hpp:77] Creating layer res4d_branch2c
I1213 23:56:48.188740 14932 net.cpp:100] Creating Layer res4d_branch2c
I1213 23:56:48.188748 14932 net.cpp:434] res4d_branch2c <- res4d_branch2b
I1213 23:56:48.188756 14932 net.cpp:408] res4d_branch2c -> res4d_branch2c
I1213 23:56:48.193832 14932 net.cpp:150] Setting up res4d_branch2c
I1213 23:56:48.193858 14932 net.cpp:157] Top shape: 1 1024 14 14 (200704)
I1213 23:56:48.193864 14932 net.cpp:165] Memory required for data: 201306124
I1213 23:56:48.193873 14932 layer_factory.hpp:77] Creating layer bn4d_branch2c
I1213 23:56:48.193887 14932 net.cpp:100] Creating Layer bn4d_branch2c
I1213 23:56:48.193897 14932 net.cpp:434] bn4d_branch2c <- res4d_branch2c
I1213 23:56:48.193904 14932 net.cpp:395] bn4d_branch2c -> res4d_branch2c (in-place)
I1213 23:56:48.194103 14932 net.cpp:150] Setting up bn4d_branch2c
I1213 23:56:48.194109 14932 net.cpp:157] Top shape: 1 1024 14 14 (200704)
I1213 23:56:48.194111 14932 net.cpp:165] Memory required for data: 202108940
I1213 23:56:48.194118 14932 layer_factory.hpp:77] Creating layer scale4d_branch2c
I1213 23:56:48.194124 14932 net.cpp:100] Creating Layer scale4d_branch2c
I1213 23:56:48.194128 14932 net.cpp:434] scale4d_branch2c <- res4d_branch2c
I1213 23:56:48.194130 14932 net.cpp:395] scale4d_branch2c -> res4d_branch2c (in-place)
I1213 23:56:48.194169 14932 layer_factory.hpp:77] Creating layer scale4d_branch2c
I1213 23:56:48.194268 14932 net.cpp:150] Setting up scale4d_branch2c
I1213 23:56:48.194273 14932 net.cpp:157] Top shape: 1 1024 14 14 (200704)
I1213 23:56:48.194275 14932 net.cpp:165] Memory required for data: 202911756
I1213 23:56:48.194279 14932 layer_factory.hpp:77] Creating layer res4d
I1213 23:56:48.194284 14932 net.cpp:100] Creating Layer res4d
I1213 23:56:48.194288 14932 net.cpp:434] res4d <- res4c_res4c_relu_0_split_1
I1213 23:56:48.194290 14932 net.cpp:434] res4d <- res4d_branch2c
I1213 23:56:48.194293 14932 net.cpp:408] res4d -> res4d
I1213 23:56:48.194314 14932 net.cpp:150] Setting up res4d
I1213 23:56:48.194319 14932 net.cpp:157] Top shape: 1 1024 14 14 (200704)
I1213 23:56:48.194320 14932 net.cpp:165] Memory required for data: 203714572
I1213 23:56:48.194322 14932 layer_factory.hpp:77] Creating layer res4d_relu
I1213 23:56:48.194327 14932 net.cpp:100] Creating Layer res4d_relu
I1213 23:56:48.194329 14932 net.cpp:434] res4d_relu <- res4d
I1213 23:56:48.194334 14932 net.cpp:395] res4d_relu -> res4d (in-place)
I1213 23:56:48.195564 14932 net.cpp:150] Setting up res4d_relu
I1213 23:56:48.195574 14932 net.cpp:157] Top shape: 1 1024 14 14 (200704)
I1213 23:56:48.195580 14932 net.cpp:165] Memory required for data: 204517388
I1213 23:56:48.195583 14932 layer_factory.hpp:77] Creating layer res4d_res4d_relu_0_split
I1213 23:56:48.195590 14932 net.cpp:100] Creating Layer res4d_res4d_relu_0_split
I1213 23:56:48.195593 14932 net.cpp:434] res4d_res4d_relu_0_split <- res4d
I1213 23:56:48.195601 14932 net.cpp:408] res4d_res4d_relu_0_split -> res4d_res4d_relu_0_split_0
I1213 23:56:48.195610 14932 net.cpp:408] res4d_res4d_relu_0_split -> res4d_res4d_relu_0_split_1
I1213 23:56:48.195658 14932 net.cpp:150] Setting up res4d_res4d_relu_0_split
I1213 23:56:48.195664 14932 net.cpp:157] Top shape: 1 1024 14 14 (200704)
I1213 23:56:48.195669 14932 net.cpp:157] Top shape: 1 1024 14 14 (200704)
I1213 23:56:48.195672 14932 net.cpp:165] Memory required for data: 206123020
I1213 23:56:48.195677 14932 layer_factory.hpp:77] Creating layer res4e_branch2a
I1213 23:56:48.195686 14932 net.cpp:100] Creating Layer res4e_branch2a
I1213 23:56:48.195690 14932 net.cpp:434] res4e_branch2a <- res4d_res4d_relu_0_split_0
I1213 23:56:48.195698 14932 net.cpp:408] res4e_branch2a -> res4e_branch2a
I1213 23:56:48.199532 14932 net.cpp:150] Setting up res4e_branch2a
I1213 23:56:48.199555 14932 net.cpp:157] Top shape: 1 256 14 14 (50176)
I1213 23:56:48.199558 14932 net.cpp:165] Memory required for data: 206323724
I1213 23:56:48.199564 14932 layer_factory.hpp:77] Creating layer bn4e_branch2a
I1213 23:56:48.199574 14932 net.cpp:100] Creating Layer bn4e_branch2a
I1213 23:56:48.199579 14932 net.cpp:434] bn4e_branch2a <- res4e_branch2a
I1213 23:56:48.199584 14932 net.cpp:395] bn4e_branch2a -> res4e_branch2a (in-place)
I1213 23:56:48.199749 14932 net.cpp:150] Setting up bn4e_branch2a
I1213 23:56:48.199754 14932 net.cpp:157] Top shape: 1 256 14 14 (50176)
I1213 23:56:48.199756 14932 net.cpp:165] Memory required for data: 206524428
I1213 23:56:48.199761 14932 layer_factory.hpp:77] Creating layer scale4e_branch2a
I1213 23:56:48.199769 14932 net.cpp:100] Creating Layer scale4e_branch2a
I1213 23:56:48.199770 14932 net.cpp:434] scale4e_branch2a <- res4e_branch2a
I1213 23:56:48.199774 14932 net.cpp:395] scale4e_branch2a -> res4e_branch2a (in-place)
I1213 23:56:48.199810 14932 layer_factory.hpp:77] Creating layer scale4e_branch2a
I1213 23:56:48.199899 14932 net.cpp:150] Setting up scale4e_branch2a
I1213 23:56:48.199903 14932 net.cpp:157] Top shape: 1 256 14 14 (50176)
I1213 23:56:48.199906 14932 net.cpp:165] Memory required for data: 206725132
I1213 23:56:48.199909 14932 layer_factory.hpp:77] Creating layer res4e_branch2a_relu
I1213 23:56:48.199915 14932 net.cpp:100] Creating Layer res4e_branch2a_relu
I1213 23:56:48.199918 14932 net.cpp:434] res4e_branch2a_relu <- res4e_branch2a
I1213 23:56:48.199920 14932 net.cpp:395] res4e_branch2a_relu -> res4e_branch2a (in-place)
I1213 23:56:48.200738 14932 net.cpp:150] Setting up res4e_branch2a_relu
I1213 23:56:48.200743 14932 net.cpp:157] Top shape: 1 256 14 14 (50176)
I1213 23:56:48.200747 14932 net.cpp:165] Memory required for data: 206925836
I1213 23:56:48.200748 14932 layer_factory.hpp:77] Creating layer res4e_branch2b
I1213 23:56:48.200755 14932 net.cpp:100] Creating Layer res4e_branch2b
I1213 23:56:48.200758 14932 net.cpp:434] res4e_branch2b <- res4e_branch2a
I1213 23:56:48.200762 14932 net.cpp:408] res4e_branch2b -> res4e_branch2b
I1213 23:56:48.205130 14932 net.cpp:150] Setting up res4e_branch2b
I1213 23:56:48.205142 14932 net.cpp:157] Top shape: 1 256 14 14 (50176)
I1213 23:56:48.205145 14932 net.cpp:165] Memory required for data: 207126540
I1213 23:56:48.205150 14932 layer_factory.hpp:77] Creating layer bn4e_branch2b
I1213 23:56:48.205157 14932 net.cpp:100] Creating Layer bn4e_branch2b
I1213 23:56:48.205159 14932 net.cpp:434] bn4e_branch2b <- res4e_branch2b
I1213 23:56:48.205163 14932 net.cpp:395] bn4e_branch2b -> res4e_branch2b (in-place)
I1213 23:56:48.205329 14932 net.cpp:150] Setting up bn4e_branch2b
I1213 23:56:48.205333 14932 net.cpp:157] Top shape: 1 256 14 14 (50176)
I1213 23:56:48.205335 14932 net.cpp:165] Memory required for data: 207327244
I1213 23:56:48.205340 14932 layer_factory.hpp:77] Creating layer scale4e_branch2b
I1213 23:56:48.205345 14932 net.cpp:100] Creating Layer scale4e_branch2b
I1213 23:56:48.205348 14932 net.cpp:434] scale4e_branch2b <- res4e_branch2b
I1213 23:56:48.205351 14932 net.cpp:395] scale4e_branch2b -> res4e_branch2b (in-place)
I1213 23:56:48.205381 14932 layer_factory.hpp:77] Creating layer scale4e_branch2b
I1213 23:56:48.205471 14932 net.cpp:150] Setting up scale4e_branch2b
I1213 23:56:48.205476 14932 net.cpp:157] Top shape: 1 256 14 14 (50176)
I1213 23:56:48.205476 14932 net.cpp:165] Memory required for data: 207527948
I1213 23:56:48.205480 14932 layer_factory.hpp:77] Creating layer res4e_branch2b_relu
I1213 23:56:48.205484 14932 net.cpp:100] Creating Layer res4e_branch2b_relu
I1213 23:56:48.205487 14932 net.cpp:434] res4e_branch2b_relu <- res4e_branch2b
I1213 23:56:48.205489 14932 net.cpp:395] res4e_branch2b_relu -> res4e_branch2b (in-place)
I1213 23:56:48.206027 14932 net.cpp:150] Setting up res4e_branch2b_relu
I1213 23:56:48.206033 14932 net.cpp:157] Top shape: 1 256 14 14 (50176)
I1213 23:56:48.206037 14932 net.cpp:165] Memory required for data: 207728652
I1213 23:56:48.206038 14932 layer_factory.hpp:77] Creating layer res4e_branch2c
I1213 23:56:48.206044 14932 net.cpp:100] Creating Layer res4e_branch2c
I1213 23:56:48.206046 14932 net.cpp:434] res4e_branch2c <- res4e_branch2b
I1213 23:56:48.206051 14932 net.cpp:408] res4e_branch2c -> res4e_branch2c
I1213 23:56:48.209815 14932 net.cpp:150] Setting up res4e_branch2c
I1213 23:56:48.209830 14932 net.cpp:157] Top shape: 1 1024 14 14 (200704)
I1213 23:56:48.209832 14932 net.cpp:165] Memory required for data: 208531468
I1213 23:56:48.209837 14932 layer_factory.hpp:77] Creating layer bn4e_branch2c
I1213 23:56:48.209844 14932 net.cpp:100] Creating Layer bn4e_branch2c
I1213 23:56:48.209847 14932 net.cpp:434] bn4e_branch2c <- res4e_branch2c
I1213 23:56:48.209851 14932 net.cpp:395] bn4e_branch2c -> res4e_branch2c (in-place)
I1213 23:56:48.210044 14932 net.cpp:150] Setting up bn4e_branch2c
I1213 23:56:48.210052 14932 net.cpp:157] Top shape: 1 1024 14 14 (200704)
I1213 23:56:48.210053 14932 net.cpp:165] Memory required for data: 209334284
I1213 23:56:48.210059 14932 layer_factory.hpp:77] Creating layer scale4e_branch2c
I1213 23:56:48.210065 14932 net.cpp:100] Creating Layer scale4e_branch2c
I1213 23:56:48.210068 14932 net.cpp:434] scale4e_branch2c <- res4e_branch2c
I1213 23:56:48.210072 14932 net.cpp:395] scale4e_branch2c -> res4e_branch2c (in-place)
I1213 23:56:48.210109 14932 layer_factory.hpp:77] Creating layer scale4e_branch2c
I1213 23:56:48.210212 14932 net.cpp:150] Setting up scale4e_branch2c
I1213 23:56:48.210217 14932 net.cpp:157] Top shape: 1 1024 14 14 (200704)
I1213 23:56:48.210219 14932 net.cpp:165] Memory required for data: 210137100
I1213 23:56:48.210222 14932 layer_factory.hpp:77] Creating layer res4e
I1213 23:56:48.210228 14932 net.cpp:100] Creating Layer res4e
I1213 23:56:48.210230 14932 net.cpp:434] res4e <- res4d_res4d_relu_0_split_1
I1213 23:56:48.210233 14932 net.cpp:434] res4e <- res4e_branch2c
I1213 23:56:48.210237 14932 net.cpp:408] res4e -> res4e
I1213 23:56:48.210268 14932 net.cpp:150] Setting up res4e
I1213 23:56:48.210271 14932 net.cpp:157] Top shape: 1 1024 14 14 (200704)
I1213 23:56:48.210273 14932 net.cpp:165] Memory required for data: 210939916
I1213 23:56:48.210275 14932 layer_factory.hpp:77] Creating layer res4e_relu
I1213 23:56:48.210279 14932 net.cpp:100] Creating Layer res4e_relu
I1213 23:56:48.210281 14932 net.cpp:434] res4e_relu <- res4e
I1213 23:56:48.210285 14932 net.cpp:395] res4e_relu -> res4e (in-place)
I1213 23:56:48.211884 14932 net.cpp:150] Setting up res4e_relu
I1213 23:56:48.211891 14932 net.cpp:157] Top shape: 1 1024 14 14 (200704)
I1213 23:56:48.211894 14932 net.cpp:165] Memory required for data: 211742732
I1213 23:56:48.211895 14932 layer_factory.hpp:77] Creating layer res4e_res4e_relu_0_split
I1213 23:56:48.211900 14932 net.cpp:100] Creating Layer res4e_res4e_relu_0_split
I1213 23:56:48.211902 14932 net.cpp:434] res4e_res4e_relu_0_split <- res4e
I1213 23:56:48.211908 14932 net.cpp:408] res4e_res4e_relu_0_split -> res4e_res4e_relu_0_split_0
I1213 23:56:48.211912 14932 net.cpp:408] res4e_res4e_relu_0_split -> res4e_res4e_relu_0_split_1
I1213 23:56:48.211949 14932 net.cpp:150] Setting up res4e_res4e_relu_0_split
I1213 23:56:48.211953 14932 net.cpp:157] Top shape: 1 1024 14 14 (200704)
I1213 23:56:48.211956 14932 net.cpp:157] Top shape: 1 1024 14 14 (200704)
I1213 23:56:48.211957 14932 net.cpp:165] Memory required for data: 213348364
I1213 23:56:48.211959 14932 layer_factory.hpp:77] Creating layer res4f_branch2a
I1213 23:56:48.211966 14932 net.cpp:100] Creating Layer res4f_branch2a
I1213 23:56:48.211968 14932 net.cpp:434] res4f_branch2a <- res4e_res4e_relu_0_split_0
I1213 23:56:48.211972 14932 net.cpp:408] res4f_branch2a -> res4f_branch2a
I1213 23:56:48.215920 14932 net.cpp:150] Setting up res4f_branch2a
I1213 23:56:48.215929 14932 net.cpp:157] Top shape: 1 256 14 14 (50176)
I1213 23:56:48.215932 14932 net.cpp:165] Memory required for data: 213549068
I1213 23:56:48.215935 14932 layer_factory.hpp:77] Creating layer bn4f_branch2a
I1213 23:56:48.215941 14932 net.cpp:100] Creating Layer bn4f_branch2a
I1213 23:56:48.215945 14932 net.cpp:434] bn4f_branch2a <- res4f_branch2a
I1213 23:56:48.215947 14932 net.cpp:395] bn4f_branch2a -> res4f_branch2a (in-place)
I1213 23:56:48.216101 14932 net.cpp:150] Setting up bn4f_branch2a
I1213 23:56:48.216106 14932 net.cpp:157] Top shape: 1 256 14 14 (50176)
I1213 23:56:48.216109 14932 net.cpp:165] Memory required for data: 213749772
I1213 23:56:48.216114 14932 layer_factory.hpp:77] Creating layer scale4f_branch2a
I1213 23:56:48.216120 14932 net.cpp:100] Creating Layer scale4f_branch2a
I1213 23:56:48.216121 14932 net.cpp:434] scale4f_branch2a <- res4f_branch2a
I1213 23:56:48.216125 14932 net.cpp:395] scale4f_branch2a -> res4f_branch2a (in-place)
I1213 23:56:48.216156 14932 layer_factory.hpp:77] Creating layer scale4f_branch2a
I1213 23:56:48.216250 14932 net.cpp:150] Setting up scale4f_branch2a
I1213 23:56:48.216254 14932 net.cpp:157] Top shape: 1 256 14 14 (50176)
I1213 23:56:48.216256 14932 net.cpp:165] Memory required for data: 213950476
I1213 23:56:48.216260 14932 layer_factory.hpp:77] Creating layer res4f_branch2a_relu
I1213 23:56:48.216264 14932 net.cpp:100] Creating Layer res4f_branch2a_relu
I1213 23:56:48.216267 14932 net.cpp:434] res4f_branch2a_relu <- res4f_branch2a
I1213 23:56:48.216270 14932 net.cpp:395] res4f_branch2a_relu -> res4f_branch2a (in-place)
I1213 23:56:48.216976 14932 net.cpp:150] Setting up res4f_branch2a_relu
I1213 23:56:48.216981 14932 net.cpp:157] Top shape: 1 256 14 14 (50176)
I1213 23:56:48.216984 14932 net.cpp:165] Memory required for data: 214151180
I1213 23:56:48.216986 14932 layer_factory.hpp:77] Creating layer res4f_branch2b
I1213 23:56:48.216991 14932 net.cpp:100] Creating Layer res4f_branch2b
I1213 23:56:48.216995 14932 net.cpp:434] res4f_branch2b <- res4f_branch2a
I1213 23:56:48.216998 14932 net.cpp:408] res4f_branch2b -> res4f_branch2b
I1213 23:56:48.222610 14932 net.cpp:150] Setting up res4f_branch2b
I1213 23:56:48.222627 14932 net.cpp:157] Top shape: 1 256 14 14 (50176)
I1213 23:56:48.222630 14932 net.cpp:165] Memory required for data: 214351884
I1213 23:56:48.222635 14932 layer_factory.hpp:77] Creating layer bn4f_branch2b
I1213 23:56:48.222642 14932 net.cpp:100] Creating Layer bn4f_branch2b
I1213 23:56:48.222646 14932 net.cpp:434] bn4f_branch2b <- res4f_branch2b
I1213 23:56:48.222651 14932 net.cpp:395] bn4f_branch2b -> res4f_branch2b (in-place)
I1213 23:56:48.222818 14932 net.cpp:150] Setting up bn4f_branch2b
I1213 23:56:48.222823 14932 net.cpp:157] Top shape: 1 256 14 14 (50176)
I1213 23:56:48.222826 14932 net.cpp:165] Memory required for data: 214552588
I1213 23:56:48.222831 14932 layer_factory.hpp:77] Creating layer scale4f_branch2b
I1213 23:56:48.222836 14932 net.cpp:100] Creating Layer scale4f_branch2b
I1213 23:56:48.222837 14932 net.cpp:434] scale4f_branch2b <- res4f_branch2b
I1213 23:56:48.222841 14932 net.cpp:395] scale4f_branch2b -> res4f_branch2b (in-place)
I1213 23:56:48.222873 14932 layer_factory.hpp:77] Creating layer scale4f_branch2b
I1213 23:56:48.222962 14932 net.cpp:150] Setting up scale4f_branch2b
I1213 23:56:48.222966 14932 net.cpp:157] Top shape: 1 256 14 14 (50176)
I1213 23:56:48.222968 14932 net.cpp:165] Memory required for data: 214753292
I1213 23:56:48.222972 14932 layer_factory.hpp:77] Creating layer res4f_branch2b_relu
I1213 23:56:48.222977 14932 net.cpp:100] Creating Layer res4f_branch2b_relu
I1213 23:56:48.222980 14932 net.cpp:434] res4f_branch2b_relu <- res4f_branch2b
I1213 23:56:48.222982 14932 net.cpp:395] res4f_branch2b_relu -> res4f_branch2b (in-place)
I1213 23:56:48.223577 14932 net.cpp:150] Setting up res4f_branch2b_relu
I1213 23:56:48.223583 14932 net.cpp:157] Top shape: 1 256 14 14 (50176)
I1213 23:56:48.223585 14932 net.cpp:165] Memory required for data: 214953996
I1213 23:56:48.223587 14932 layer_factory.hpp:77] Creating layer res4f_branch2c
I1213 23:56:48.223595 14932 net.cpp:100] Creating Layer res4f_branch2c
I1213 23:56:48.223598 14932 net.cpp:434] res4f_branch2c <- res4f_branch2b
I1213 23:56:48.223601 14932 net.cpp:408] res4f_branch2c -> res4f_branch2c
I1213 23:56:48.228219 14932 net.cpp:150] Setting up res4f_branch2c
I1213 23:56:48.228237 14932 net.cpp:157] Top shape: 1 1024 14 14 (200704)
I1213 23:56:48.228240 14932 net.cpp:165] Memory required for data: 215756812
I1213 23:56:48.228245 14932 layer_factory.hpp:77] Creating layer bn4f_branch2c
I1213 23:56:48.228255 14932 net.cpp:100] Creating Layer bn4f_branch2c
I1213 23:56:48.228258 14932 net.cpp:434] bn4f_branch2c <- res4f_branch2c
I1213 23:56:48.228263 14932 net.cpp:395] bn4f_branch2c -> res4f_branch2c (in-place)
I1213 23:56:48.228454 14932 net.cpp:150] Setting up bn4f_branch2c
I1213 23:56:48.228459 14932 net.cpp:157] Top shape: 1 1024 14 14 (200704)
I1213 23:56:48.228461 14932 net.cpp:165] Memory required for data: 216559628
I1213 23:56:48.228492 14932 layer_factory.hpp:77] Creating layer scale4f_branch2c
I1213 23:56:48.228498 14932 net.cpp:100] Creating Layer scale4f_branch2c
I1213 23:56:48.228502 14932 net.cpp:434] scale4f_branch2c <- res4f_branch2c
I1213 23:56:48.228504 14932 net.cpp:395] scale4f_branch2c -> res4f_branch2c (in-place)
I1213 23:56:48.228546 14932 layer_factory.hpp:77] Creating layer scale4f_branch2c
I1213 23:56:48.228657 14932 net.cpp:150] Setting up scale4f_branch2c
I1213 23:56:48.228662 14932 net.cpp:157] Top shape: 1 1024 14 14 (200704)
I1213 23:56:48.228664 14932 net.cpp:165] Memory required for data: 217362444
I1213 23:56:48.228667 14932 layer_factory.hpp:77] Creating layer res4f
I1213 23:56:48.228672 14932 net.cpp:100] Creating Layer res4f
I1213 23:56:48.228675 14932 net.cpp:434] res4f <- res4e_res4e_relu_0_split_1
I1213 23:56:48.228678 14932 net.cpp:434] res4f <- res4f_branch2c
I1213 23:56:48.228682 14932 net.cpp:408] res4f -> res4f
I1213 23:56:48.228703 14932 net.cpp:150] Setting up res4f
I1213 23:56:48.228705 14932 net.cpp:157] Top shape: 1 1024 14 14 (200704)
I1213 23:56:48.228708 14932 net.cpp:165] Memory required for data: 218165260
I1213 23:56:48.228709 14932 layer_factory.hpp:77] Creating layer res4f_relu
I1213 23:56:48.228715 14932 net.cpp:100] Creating Layer res4f_relu
I1213 23:56:48.228718 14932 net.cpp:434] res4f_relu <- res4f
I1213 23:56:48.228721 14932 net.cpp:395] res4f_relu -> res4f (in-place)
I1213 23:56:48.229476 14932 net.cpp:150] Setting up res4f_relu
I1213 23:56:48.229483 14932 net.cpp:157] Top shape: 1 1024 14 14 (200704)
I1213 23:56:48.229486 14932 net.cpp:165] Memory required for data: 218968076
I1213 23:56:48.229488 14932 layer_factory.hpp:77] Creating layer res4f_res4f_relu_0_split
I1213 23:56:48.229492 14932 net.cpp:100] Creating Layer res4f_res4f_relu_0_split
I1213 23:56:48.229496 14932 net.cpp:434] res4f_res4f_relu_0_split <- res4f
I1213 23:56:48.229499 14932 net.cpp:408] res4f_res4f_relu_0_split -> res4f_res4f_relu_0_split_0
I1213 23:56:48.229504 14932 net.cpp:408] res4f_res4f_relu_0_split -> res4f_res4f_relu_0_split_1
I1213 23:56:48.229539 14932 net.cpp:150] Setting up res4f_res4f_relu_0_split
I1213 23:56:48.229544 14932 net.cpp:157] Top shape: 1 1024 14 14 (200704)
I1213 23:56:48.229547 14932 net.cpp:157] Top shape: 1 1024 14 14 (200704)
I1213 23:56:48.229549 14932 net.cpp:165] Memory required for data: 220573708
I1213 23:56:48.229552 14932 layer_factory.hpp:77] Creating layer res5a_branch1
I1213 23:56:48.229557 14932 net.cpp:100] Creating Layer res5a_branch1
I1213 23:56:48.229559 14932 net.cpp:434] res5a_branch1 <- res4f_res4f_relu_0_split_0
I1213 23:56:48.229564 14932 net.cpp:408] res5a_branch1 -> res5a_branch1
I1213 23:56:48.236336 14932 net.cpp:150] Setting up res5a_branch1
I1213 23:56:48.236358 14932 net.cpp:157] Top shape: 1 2048 7 7 (100352)
I1213 23:56:48.236361 14932 net.cpp:165] Memory required for data: 220975116
I1213 23:56:48.236366 14932 layer_factory.hpp:77] Creating layer bn5a_branch1
I1213 23:56:48.236376 14932 net.cpp:100] Creating Layer bn5a_branch1
I1213 23:56:48.236380 14932 net.cpp:434] bn5a_branch1 <- res5a_branch1
I1213 23:56:48.236384 14932 net.cpp:395] bn5a_branch1 -> res5a_branch1 (in-place)
I1213 23:56:48.236593 14932 net.cpp:150] Setting up bn5a_branch1
I1213 23:56:48.236598 14932 net.cpp:157] Top shape: 1 2048 7 7 (100352)
I1213 23:56:48.236599 14932 net.cpp:165] Memory required for data: 221376524
I1213 23:56:48.236605 14932 layer_factory.hpp:77] Creating layer scale5a_branch1
I1213 23:56:48.236610 14932 net.cpp:100] Creating Layer scale5a_branch1
I1213 23:56:48.236613 14932 net.cpp:434] scale5a_branch1 <- res5a_branch1
I1213 23:56:48.236616 14932 net.cpp:395] scale5a_branch1 -> res5a_branch1 (in-place)
I1213 23:56:48.236657 14932 layer_factory.hpp:77] Creating layer scale5a_branch1
I1213 23:56:48.236765 14932 net.cpp:150] Setting up scale5a_branch1
I1213 23:56:48.236770 14932 net.cpp:157] Top shape: 1 2048 7 7 (100352)
I1213 23:56:48.236773 14932 net.cpp:165] Memory required for data: 221777932
I1213 23:56:48.236776 14932 layer_factory.hpp:77] Creating layer res5a_branch2a
I1213 23:56:48.236783 14932 net.cpp:100] Creating Layer res5a_branch2a
I1213 23:56:48.236788 14932 net.cpp:434] res5a_branch2a <- res4f_res4f_relu_0_split_1
I1213 23:56:48.236790 14932 net.cpp:408] res5a_branch2a -> res5a_branch2a
I1213 23:56:48.240406 14932 net.cpp:150] Setting up res5a_branch2a
I1213 23:56:48.240417 14932 net.cpp:157] Top shape: 1 512 7 7 (25088)
I1213 23:56:48.240419 14932 net.cpp:165] Memory required for data: 221878284
I1213 23:56:48.240423 14932 layer_factory.hpp:77] Creating layer bn5a_branch2a
I1213 23:56:48.240430 14932 net.cpp:100] Creating Layer bn5a_branch2a
I1213 23:56:48.240433 14932 net.cpp:434] bn5a_branch2a <- res5a_branch2a
I1213 23:56:48.240437 14932 net.cpp:395] bn5a_branch2a -> res5a_branch2a (in-place)
I1213 23:56:48.240624 14932 net.cpp:150] Setting up bn5a_branch2a
I1213 23:56:48.240629 14932 net.cpp:157] Top shape: 1 512 7 7 (25088)
I1213 23:56:48.240631 14932 net.cpp:165] Memory required for data: 221978636
I1213 23:56:48.240636 14932 layer_factory.hpp:77] Creating layer scale5a_branch2a
I1213 23:56:48.240641 14932 net.cpp:100] Creating Layer scale5a_branch2a
I1213 23:56:48.240644 14932 net.cpp:434] scale5a_branch2a <- res5a_branch2a
I1213 23:56:48.240648 14932 net.cpp:395] scale5a_branch2a -> res5a_branch2a (in-place)
I1213 23:56:48.240684 14932 layer_factory.hpp:77] Creating layer scale5a_branch2a
I1213 23:56:48.240787 14932 net.cpp:150] Setting up scale5a_branch2a
I1213 23:56:48.240792 14932 net.cpp:157] Top shape: 1 512 7 7 (25088)
I1213 23:56:48.240793 14932 net.cpp:165] Memory required for data: 222078988
I1213 23:56:48.240797 14932 layer_factory.hpp:77] Creating layer res5a_branch2a_relu
I1213 23:56:48.240803 14932 net.cpp:100] Creating Layer res5a_branch2a_relu
I1213 23:56:48.240805 14932 net.cpp:434] res5a_branch2a_relu <- res5a_branch2a
I1213 23:56:48.240809 14932 net.cpp:395] res5a_branch2a_relu -> res5a_branch2a (in-place)
I1213 23:56:48.241643 14932 net.cpp:150] Setting up res5a_branch2a_relu
I1213 23:56:48.241650 14932 net.cpp:157] Top shape: 1 512 7 7 (25088)
I1213 23:56:48.241653 14932 net.cpp:165] Memory required for data: 222179340
I1213 23:56:48.241655 14932 layer_factory.hpp:77] Creating layer res5a_branch2b
I1213 23:56:48.241662 14932 net.cpp:100] Creating Layer res5a_branch2b
I1213 23:56:48.241663 14932 net.cpp:434] res5a_branch2b <- res5a_branch2a
I1213 23:56:48.241668 14932 net.cpp:408] res5a_branch2b -> res5a_branch2b
I1213 23:56:48.249038 14932 net.cpp:150] Setting up res5a_branch2b
I1213 23:56:48.249063 14932 net.cpp:157] Top shape: 1 512 7 7 (25088)
I1213 23:56:48.249066 14932 net.cpp:165] Memory required for data: 222279692
I1213 23:56:48.249073 14932 layer_factory.hpp:77] Creating layer bn5a_branch2b
I1213 23:56:48.249083 14932 net.cpp:100] Creating Layer bn5a_branch2b
I1213 23:56:48.249086 14932 net.cpp:434] bn5a_branch2b <- res5a_branch2b
I1213 23:56:48.249091 14932 net.cpp:395] bn5a_branch2b -> res5a_branch2b (in-place)
I1213 23:56:48.249290 14932 net.cpp:150] Setting up bn5a_branch2b
I1213 23:56:48.249295 14932 net.cpp:157] Top shape: 1 512 7 7 (25088)
I1213 23:56:48.249299 14932 net.cpp:165] Memory required for data: 222380044
I1213 23:56:48.249303 14932 layer_factory.hpp:77] Creating layer scale5a_branch2b
I1213 23:56:48.249308 14932 net.cpp:100] Creating Layer scale5a_branch2b
I1213 23:56:48.249310 14932 net.cpp:434] scale5a_branch2b <- res5a_branch2b
I1213 23:56:48.249315 14932 net.cpp:395] scale5a_branch2b -> res5a_branch2b (in-place)
I1213 23:56:48.249353 14932 layer_factory.hpp:77] Creating layer scale5a_branch2b
I1213 23:56:48.249462 14932 net.cpp:150] Setting up scale5a_branch2b
I1213 23:56:48.249467 14932 net.cpp:157] Top shape: 1 512 7 7 (25088)
I1213 23:56:48.249469 14932 net.cpp:165] Memory required for data: 222480396
I1213 23:56:48.249474 14932 layer_factory.hpp:77] Creating layer res5a_branch2b_relu
I1213 23:56:48.249477 14932 net.cpp:100] Creating Layer res5a_branch2b_relu
I1213 23:56:48.249480 14932 net.cpp:434] res5a_branch2b_relu <- res5a_branch2b
I1213 23:56:48.249483 14932 net.cpp:395] res5a_branch2b_relu -> res5a_branch2b (in-place)
I1213 23:56:48.250548 14932 net.cpp:150] Setting up res5a_branch2b_relu
I1213 23:56:48.250556 14932 net.cpp:157] Top shape: 1 512 7 7 (25088)
I1213 23:56:48.250558 14932 net.cpp:165] Memory required for data: 222580748
I1213 23:56:48.250561 14932 layer_factory.hpp:77] Creating layer res5a_branch2c
I1213 23:56:48.250568 14932 net.cpp:100] Creating Layer res5a_branch2c
I1213 23:56:48.250571 14932 net.cpp:434] res5a_branch2c <- res5a_branch2b
I1213 23:56:48.250576 14932 net.cpp:408] res5a_branch2c -> res5a_branch2c
I1213 23:56:48.255813 14932 net.cpp:150] Setting up res5a_branch2c
I1213 23:56:48.255832 14932 net.cpp:157] Top shape: 1 2048 7 7 (100352)
I1213 23:56:48.255836 14932 net.cpp:165] Memory required for data: 222982156
I1213 23:56:48.255841 14932 layer_factory.hpp:77] Creating layer bn5a_branch2c
I1213 23:56:48.255849 14932 net.cpp:100] Creating Layer bn5a_branch2c
I1213 23:56:48.255852 14932 net.cpp:434] bn5a_branch2c <- res5a_branch2c
I1213 23:56:48.255857 14932 net.cpp:395] bn5a_branch2c -> res5a_branch2c (in-place)
I1213 23:56:48.256057 14932 net.cpp:150] Setting up bn5a_branch2c
I1213 23:56:48.256062 14932 net.cpp:157] Top shape: 1 2048 7 7 (100352)
I1213 23:56:48.256065 14932 net.cpp:165] Memory required for data: 223383564
I1213 23:56:48.256070 14932 layer_factory.hpp:77] Creating layer scale5a_branch2c
I1213 23:56:48.256075 14932 net.cpp:100] Creating Layer scale5a_branch2c
I1213 23:56:48.256078 14932 net.cpp:434] scale5a_branch2c <- res5a_branch2c
I1213 23:56:48.256081 14932 net.cpp:395] scale5a_branch2c -> res5a_branch2c (in-place)
I1213 23:56:48.256122 14932 layer_factory.hpp:77] Creating layer scale5a_branch2c
I1213 23:56:48.256235 14932 net.cpp:150] Setting up scale5a_branch2c
I1213 23:56:48.256239 14932 net.cpp:157] Top shape: 1 2048 7 7 (100352)
I1213 23:56:48.256242 14932 net.cpp:165] Memory required for data: 223784972
I1213 23:56:48.256245 14932 layer_factory.hpp:77] Creating layer res5a
I1213 23:56:48.256252 14932 net.cpp:100] Creating Layer res5a
I1213 23:56:48.256253 14932 net.cpp:434] res5a <- res5a_branch1
I1213 23:56:48.256256 14932 net.cpp:434] res5a <- res5a_branch2c
I1213 23:56:48.256260 14932 net.cpp:408] res5a -> res5a
I1213 23:56:48.256281 14932 net.cpp:150] Setting up res5a
I1213 23:56:48.256285 14932 net.cpp:157] Top shape: 1 2048 7 7 (100352)
I1213 23:56:48.256288 14932 net.cpp:165] Memory required for data: 224186380
I1213 23:56:48.256290 14932 layer_factory.hpp:77] Creating layer res5a_relu
I1213 23:56:48.256295 14932 net.cpp:100] Creating Layer res5a_relu
I1213 23:56:48.256297 14932 net.cpp:434] res5a_relu <- res5a
I1213 23:56:48.256300 14932 net.cpp:395] res5a_relu -> res5a (in-place)
I1213 23:56:48.257894 14932 net.cpp:150] Setting up res5a_relu
I1213 23:56:48.257900 14932 net.cpp:157] Top shape: 1 2048 7 7 (100352)
I1213 23:56:48.257903 14932 net.cpp:165] Memory required for data: 224587788
I1213 23:56:48.257905 14932 layer_factory.hpp:77] Creating layer res5a_res5a_relu_0_split
I1213 23:56:48.257911 14932 net.cpp:100] Creating Layer res5a_res5a_relu_0_split
I1213 23:56:48.257913 14932 net.cpp:434] res5a_res5a_relu_0_split <- res5a
I1213 23:56:48.257917 14932 net.cpp:408] res5a_res5a_relu_0_split -> res5a_res5a_relu_0_split_0
I1213 23:56:48.257922 14932 net.cpp:408] res5a_res5a_relu_0_split -> res5a_res5a_relu_0_split_1
I1213 23:56:48.257961 14932 net.cpp:150] Setting up res5a_res5a_relu_0_split
I1213 23:56:48.257964 14932 net.cpp:157] Top shape: 1 2048 7 7 (100352)
I1213 23:56:48.257967 14932 net.cpp:157] Top shape: 1 2048 7 7 (100352)
I1213 23:56:48.257968 14932 net.cpp:165] Memory required for data: 225390604
I1213 23:56:48.257971 14932 layer_factory.hpp:77] Creating layer res5b_branch2a
I1213 23:56:48.257977 14932 net.cpp:100] Creating Layer res5b_branch2a
I1213 23:56:48.257980 14932 net.cpp:434] res5b_branch2a <- res5a_res5a_relu_0_split_0
I1213 23:56:48.257983 14932 net.cpp:408] res5b_branch2a -> res5b_branch2a
I1213 23:56:48.261667 14932 net.cpp:150] Setting up res5b_branch2a
I1213 23:56:48.261685 14932 net.cpp:157] Top shape: 1 512 7 7 (25088)
I1213 23:56:48.261689 14932 net.cpp:165] Memory required for data: 225490956
I1213 23:56:48.261694 14932 layer_factory.hpp:77] Creating layer bn5b_branch2a
I1213 23:56:48.261703 14932 net.cpp:100] Creating Layer bn5b_branch2a
I1213 23:56:48.261706 14932 net.cpp:434] bn5b_branch2a <- res5b_branch2a
I1213 23:56:48.261710 14932 net.cpp:395] bn5b_branch2a -> res5b_branch2a (in-place)
I1213 23:56:48.261904 14932 net.cpp:150] Setting up bn5b_branch2a
I1213 23:56:48.261909 14932 net.cpp:157] Top shape: 1 512 7 7 (25088)
I1213 23:56:48.261911 14932 net.cpp:165] Memory required for data: 225591308
I1213 23:56:48.261916 14932 layer_factory.hpp:77] Creating layer scale5b_branch2a
I1213 23:56:48.261921 14932 net.cpp:100] Creating Layer scale5b_branch2a
I1213 23:56:48.261924 14932 net.cpp:434] scale5b_branch2a <- res5b_branch2a
I1213 23:56:48.261927 14932 net.cpp:395] scale5b_branch2a -> res5b_branch2a (in-place)
I1213 23:56:48.261965 14932 layer_factory.hpp:77] Creating layer scale5b_branch2a
I1213 23:56:48.262130 14932 net.cpp:150] Setting up scale5b_branch2a
I1213 23:56:48.262140 14932 net.cpp:157] Top shape: 1 512 7 7 (25088)
I1213 23:56:48.262143 14932 net.cpp:165] Memory required for data: 225691660
I1213 23:56:48.262150 14932 layer_factory.hpp:77] Creating layer res5b_branch2a_relu
I1213 23:56:48.262156 14932 net.cpp:100] Creating Layer res5b_branch2a_relu
I1213 23:56:48.262161 14932 net.cpp:434] res5b_branch2a_relu <- res5b_branch2a
I1213 23:56:48.262166 14932 net.cpp:395] res5b_branch2a_relu -> res5b_branch2a (in-place)
I1213 23:56:48.263048 14932 net.cpp:150] Setting up res5b_branch2a_relu
I1213 23:56:48.263056 14932 net.cpp:157] Top shape: 1 512 7 7 (25088)
I1213 23:56:48.263058 14932 net.cpp:165] Memory required for data: 225792012
I1213 23:56:48.263061 14932 layer_factory.hpp:77] Creating layer res5b_branch2b
I1213 23:56:48.263068 14932 net.cpp:100] Creating Layer res5b_branch2b
I1213 23:56:48.263072 14932 net.cpp:434] res5b_branch2b <- res5b_branch2a
I1213 23:56:48.263077 14932 net.cpp:408] res5b_branch2b -> res5b_branch2b
I1213 23:56:48.269186 14932 net.cpp:150] Setting up res5b_branch2b
I1213 23:56:48.269207 14932 net.cpp:157] Top shape: 1 512 7 7 (25088)
I1213 23:56:48.269209 14932 net.cpp:165] Memory required for data: 225892364
I1213 23:56:48.269215 14932 layer_factory.hpp:77] Creating layer bn5b_branch2b
I1213 23:56:48.269225 14932 net.cpp:100] Creating Layer bn5b_branch2b
I1213 23:56:48.269229 14932 net.cpp:434] bn5b_branch2b <- res5b_branch2b
I1213 23:56:48.269234 14932 net.cpp:395] bn5b_branch2b -> res5b_branch2b (in-place)
I1213 23:56:48.269439 14932 net.cpp:150] Setting up bn5b_branch2b
I1213 23:56:48.269444 14932 net.cpp:157] Top shape: 1 512 7 7 (25088)
I1213 23:56:48.269446 14932 net.cpp:165] Memory required for data: 225992716
I1213 23:56:48.269451 14932 layer_factory.hpp:77] Creating layer scale5b_branch2b
I1213 23:56:48.269456 14932 net.cpp:100] Creating Layer scale5b_branch2b
I1213 23:56:48.269459 14932 net.cpp:434] scale5b_branch2b <- res5b_branch2b
I1213 23:56:48.269464 14932 net.cpp:395] scale5b_branch2b -> res5b_branch2b (in-place)
I1213 23:56:48.269502 14932 layer_factory.hpp:77] Creating layer scale5b_branch2b
I1213 23:56:48.269623 14932 net.cpp:150] Setting up scale5b_branch2b
I1213 23:56:48.269629 14932 net.cpp:157] Top shape: 1 512 7 7 (25088)
I1213 23:56:48.269630 14932 net.cpp:165] Memory required for data: 226093068
I1213 23:56:48.269634 14932 layer_factory.hpp:77] Creating layer res5b_branch2b_relu
I1213 23:56:48.269639 14932 net.cpp:100] Creating Layer res5b_branch2b_relu
I1213 23:56:48.269641 14932 net.cpp:434] res5b_branch2b_relu <- res5b_branch2b
I1213 23:56:48.269644 14932 net.cpp:395] res5b_branch2b_relu -> res5b_branch2b (in-place)
I1213 23:56:48.270151 14932 net.cpp:150] Setting up res5b_branch2b_relu
I1213 23:56:48.270157 14932 net.cpp:157] Top shape: 1 512 7 7 (25088)
I1213 23:56:48.270159 14932 net.cpp:165] Memory required for data: 226193420
I1213 23:56:48.270162 14932 layer_factory.hpp:77] Creating layer res5b_branch2c
I1213 23:56:48.270174 14932 net.cpp:100] Creating Layer res5b_branch2c
I1213 23:56:48.270177 14932 net.cpp:434] res5b_branch2c <- res5b_branch2b
I1213 23:56:48.270184 14932 net.cpp:408] res5b_branch2c -> res5b_branch2c
I1213 23:56:48.273818 14932 net.cpp:150] Setting up res5b_branch2c
I1213 23:56:48.273835 14932 net.cpp:157] Top shape: 1 2048 7 7 (100352)
I1213 23:56:48.273838 14932 net.cpp:165] Memory required for data: 226594828
I1213 23:56:48.273843 14932 layer_factory.hpp:77] Creating layer bn5b_branch2c
I1213 23:56:48.273850 14932 net.cpp:100] Creating Layer bn5b_branch2c
I1213 23:56:48.273854 14932 net.cpp:434] bn5b_branch2c <- res5b_branch2c
I1213 23:56:48.273859 14932 net.cpp:395] bn5b_branch2c -> res5b_branch2c (in-place)
I1213 23:56:48.274055 14932 net.cpp:150] Setting up bn5b_branch2c
I1213 23:56:48.274060 14932 net.cpp:157] Top shape: 1 2048 7 7 (100352)
I1213 23:56:48.274061 14932 net.cpp:165] Memory required for data: 226996236
I1213 23:56:48.274067 14932 layer_factory.hpp:77] Creating layer scale5b_branch2c
I1213 23:56:48.274072 14932 net.cpp:100] Creating Layer scale5b_branch2c
I1213 23:56:48.274075 14932 net.cpp:434] scale5b_branch2c <- res5b_branch2c
I1213 23:56:48.274078 14932 net.cpp:395] scale5b_branch2c -> res5b_branch2c (in-place)
I1213 23:56:48.274121 14932 layer_factory.hpp:77] Creating layer scale5b_branch2c
I1213 23:56:48.274231 14932 net.cpp:150] Setting up scale5b_branch2c
I1213 23:56:48.274236 14932 net.cpp:157] Top shape: 1 2048 7 7 (100352)
I1213 23:56:48.274238 14932 net.cpp:165] Memory required for data: 227397644
I1213 23:56:48.274242 14932 layer_factory.hpp:77] Creating layer res5b
I1213 23:56:48.274247 14932 net.cpp:100] Creating Layer res5b
I1213 23:56:48.274250 14932 net.cpp:434] res5b <- res5a_res5a_relu_0_split_1
I1213 23:56:48.274253 14932 net.cpp:434] res5b <- res5b_branch2c
I1213 23:56:48.274256 14932 net.cpp:408] res5b -> res5b
I1213 23:56:48.274278 14932 net.cpp:150] Setting up res5b
I1213 23:56:48.274282 14932 net.cpp:157] Top shape: 1 2048 7 7 (100352)
I1213 23:56:48.274284 14932 net.cpp:165] Memory required for data: 227799052
I1213 23:56:48.274286 14932 layer_factory.hpp:77] Creating layer res5b_relu
I1213 23:56:48.274291 14932 net.cpp:100] Creating Layer res5b_relu
I1213 23:56:48.274292 14932 net.cpp:434] res5b_relu <- res5b
I1213 23:56:48.274296 14932 net.cpp:395] res5b_relu -> res5b (in-place)
I1213 23:56:48.274874 14932 net.cpp:150] Setting up res5b_relu
I1213 23:56:48.274883 14932 net.cpp:157] Top shape: 1 2048 7 7 (100352)
I1213 23:56:48.274884 14932 net.cpp:165] Memory required for data: 228200460
I1213 23:56:48.274886 14932 layer_factory.hpp:77] Creating layer res5b_res5b_relu_0_split
I1213 23:56:48.274891 14932 net.cpp:100] Creating Layer res5b_res5b_relu_0_split
I1213 23:56:48.274893 14932 net.cpp:434] res5b_res5b_relu_0_split <- res5b
I1213 23:56:48.274900 14932 net.cpp:408] res5b_res5b_relu_0_split -> res5b_res5b_relu_0_split_0
I1213 23:56:48.274905 14932 net.cpp:408] res5b_res5b_relu_0_split -> res5b_res5b_relu_0_split_1
I1213 23:56:48.274945 14932 net.cpp:150] Setting up res5b_res5b_relu_0_split
I1213 23:56:48.274950 14932 net.cpp:157] Top shape: 1 2048 7 7 (100352)
I1213 23:56:48.274951 14932 net.cpp:157] Top shape: 1 2048 7 7 (100352)
I1213 23:56:48.274953 14932 net.cpp:165] Memory required for data: 229003276
I1213 23:56:48.274955 14932 layer_factory.hpp:77] Creating layer res5c_branch2a
I1213 23:56:48.274962 14932 net.cpp:100] Creating Layer res5c_branch2a
I1213 23:56:48.274966 14932 net.cpp:434] res5c_branch2a <- res5b_res5b_relu_0_split_0
I1213 23:56:48.274968 14932 net.cpp:408] res5c_branch2a -> res5c_branch2a
I1213 23:56:48.278152 14932 net.cpp:150] Setting up res5c_branch2a
I1213 23:56:48.278174 14932 net.cpp:157] Top shape: 1 512 7 7 (25088)
I1213 23:56:48.278178 14932 net.cpp:165] Memory required for data: 229103628
I1213 23:56:48.278187 14932 layer_factory.hpp:77] Creating layer bn5c_branch2a
I1213 23:56:48.278208 14932 net.cpp:100] Creating Layer bn5c_branch2a
I1213 23:56:48.278218 14932 net.cpp:434] bn5c_branch2a <- res5c_branch2a
I1213 23:56:48.278231 14932 net.cpp:395] bn5c_branch2a -> res5c_branch2a (in-place)
I1213 23:56:48.278637 14932 net.cpp:150] Setting up bn5c_branch2a
I1213 23:56:48.278647 14932 net.cpp:157] Top shape: 1 512 7 7 (25088)
I1213 23:56:48.278651 14932 net.cpp:165] Memory required for data: 229203980
I1213 23:56:48.278661 14932 layer_factory.hpp:77] Creating layer scale5c_branch2a
I1213 23:56:48.278669 14932 net.cpp:100] Creating Layer scale5c_branch2a
I1213 23:56:48.278673 14932 net.cpp:434] scale5c_branch2a <- res5c_branch2a
I1213 23:56:48.278681 14932 net.cpp:395] scale5c_branch2a -> res5c_branch2a (in-place)
I1213 23:56:48.278743 14932 layer_factory.hpp:77] Creating layer scale5c_branch2a
I1213 23:56:48.278925 14932 net.cpp:150] Setting up scale5c_branch2a
I1213 23:56:48.278934 14932 net.cpp:157] Top shape: 1 512 7 7 (25088)
I1213 23:56:48.278936 14932 net.cpp:165] Memory required for data: 229304332
I1213 23:56:48.278954 14932 layer_factory.hpp:77] Creating layer res5c_branch2a_relu
I1213 23:56:48.278961 14932 net.cpp:100] Creating Layer res5c_branch2a_relu
I1213 23:56:48.278965 14932 net.cpp:434] res5c_branch2a_relu <- res5c_branch2a
I1213 23:56:48.278970 14932 net.cpp:395] res5c_branch2a_relu -> res5c_branch2a (in-place)
I1213 23:56:48.279582 14932 net.cpp:150] Setting up res5c_branch2a_relu
I1213 23:56:48.279599 14932 net.cpp:157] Top shape: 1 512 7 7 (25088)
I1213 23:56:48.279606 14932 net.cpp:165] Memory required for data: 229404684
I1213 23:56:48.279613 14932 layer_factory.hpp:77] Creating layer res5c_branch2b
I1213 23:56:48.279628 14932 net.cpp:100] Creating Layer res5c_branch2b
I1213 23:56:48.279638 14932 net.cpp:434] res5c_branch2b <- res5c_branch2a
I1213 23:56:48.279646 14932 net.cpp:408] res5c_branch2b -> res5c_branch2b
I1213 23:56:48.289013 14932 net.cpp:150] Setting up res5c_branch2b
I1213 23:56:48.289034 14932 net.cpp:157] Top shape: 1 512 7 7 (25088)
I1213 23:56:48.289038 14932 net.cpp:165] Memory required for data: 229505036
I1213 23:56:48.289047 14932 layer_factory.hpp:77] Creating layer bn5c_branch2b
I1213 23:56:48.289058 14932 net.cpp:100] Creating Layer bn5c_branch2b
I1213 23:56:48.289063 14932 net.cpp:434] bn5c_branch2b <- res5c_branch2b
I1213 23:56:48.289070 14932 net.cpp:395] bn5c_branch2b -> res5c_branch2b (in-place)
I1213 23:56:48.289351 14932 net.cpp:150] Setting up bn5c_branch2b
I1213 23:56:48.289358 14932 net.cpp:157] Top shape: 1 512 7 7 (25088)
I1213 23:56:48.289361 14932 net.cpp:165] Memory required for data: 229605388
I1213 23:56:48.289368 14932 layer_factory.hpp:77] Creating layer scale5c_branch2b
I1213 23:56:48.289374 14932 net.cpp:100] Creating Layer scale5c_branch2b
I1213 23:56:48.289377 14932 net.cpp:434] scale5c_branch2b <- res5c_branch2b
I1213 23:56:48.289381 14932 net.cpp:395] scale5c_branch2b -> res5c_branch2b (in-place)
I1213 23:56:48.289432 14932 layer_factory.hpp:77] Creating layer scale5c_branch2b
I1213 23:56:48.289559 14932 net.cpp:150] Setting up scale5c_branch2b
I1213 23:56:48.289564 14932 net.cpp:157] Top shape: 1 512 7 7 (25088)
I1213 23:56:48.289566 14932 net.cpp:165] Memory required for data: 229705740
I1213 23:56:48.289572 14932 layer_factory.hpp:77] Creating layer res5c_branch2b_relu
I1213 23:56:48.289577 14932 net.cpp:100] Creating Layer res5c_branch2b_relu
I1213 23:56:48.289580 14932 net.cpp:434] res5c_branch2b_relu <- res5c_branch2b
I1213 23:56:48.289583 14932 net.cpp:395] res5c_branch2b_relu -> res5c_branch2b (in-place)
I1213 23:56:48.289783 14932 net.cpp:150] Setting up res5c_branch2b_relu
I1213 23:56:48.289793 14932 net.cpp:157] Top shape: 1 512 7 7 (25088)
I1213 23:56:48.289796 14932 net.cpp:165] Memory required for data: 229806092
I1213 23:56:48.289799 14932 layer_factory.hpp:77] Creating layer res5c_branch2c
I1213 23:56:48.289810 14932 net.cpp:100] Creating Layer res5c_branch2c
I1213 23:56:48.289814 14932 net.cpp:434] res5c_branch2c <- res5c_branch2b
I1213 23:56:48.289819 14932 net.cpp:408] res5c_branch2c -> res5c_branch2c
I1213 23:56:48.293817 14932 net.cpp:150] Setting up res5c_branch2c
I1213 23:56:48.293844 14932 net.cpp:157] Top shape: 1 2048 7 7 (100352)
I1213 23:56:48.293849 14932 net.cpp:165] Memory required for data: 230207500
I1213 23:56:48.293859 14932 layer_factory.hpp:77] Creating layer bn5c_branch2c
I1213 23:56:48.293871 14932 net.cpp:100] Creating Layer bn5c_branch2c
I1213 23:56:48.293877 14932 net.cpp:434] bn5c_branch2c <- res5c_branch2c
I1213 23:56:48.293885 14932 net.cpp:395] bn5c_branch2c -> res5c_branch2c (in-place)
I1213 23:56:48.294651 14932 net.cpp:150] Setting up bn5c_branch2c
I1213 23:56:48.294662 14932 net.cpp:157] Top shape: 1 2048 7 7 (100352)
I1213 23:56:48.294667 14932 net.cpp:165] Memory required for data: 230608908
I1213 23:56:48.294677 14932 layer_factory.hpp:77] Creating layer scale5c_branch2c
I1213 23:56:48.294687 14932 net.cpp:100] Creating Layer scale5c_branch2c
I1213 23:56:48.294692 14932 net.cpp:434] scale5c_branch2c <- res5c_branch2c
I1213 23:56:48.294697 14932 net.cpp:395] scale5c_branch2c -> res5c_branch2c (in-place)
I1213 23:56:48.295161 14932 layer_factory.hpp:77] Creating layer scale5c_branch2c
I1213 23:56:48.295285 14932 net.cpp:150] Setting up scale5c_branch2c
I1213 23:56:48.295295 14932 net.cpp:157] Top shape: 1 2048 7 7 (100352)
I1213 23:56:48.295300 14932 net.cpp:165] Memory required for data: 231010316
I1213 23:56:48.295307 14932 layer_factory.hpp:77] Creating layer res5c
I1213 23:56:48.295315 14932 net.cpp:100] Creating Layer res5c
I1213 23:56:48.295320 14932 net.cpp:434] res5c <- res5b_res5b_relu_0_split_1
I1213 23:56:48.295325 14932 net.cpp:434] res5c <- res5c_branch2c
I1213 23:56:48.295331 14932 net.cpp:408] res5c -> res5c
I1213 23:56:48.295359 14932 net.cpp:150] Setting up res5c
I1213 23:56:48.295366 14932 net.cpp:157] Top shape: 1 2048 7 7 (100352)
I1213 23:56:48.295369 14932 net.cpp:165] Memory required for data: 231411724
I1213 23:56:48.295373 14932 layer_factory.hpp:77] Creating layer res5c_relu
I1213 23:56:48.295380 14932 net.cpp:100] Creating Layer res5c_relu
I1213 23:56:48.295384 14932 net.cpp:434] res5c_relu <- res5c
I1213 23:56:48.295388 14932 net.cpp:395] res5c_relu -> res5c (in-place)
I1213 23:56:48.295840 14932 net.cpp:150] Setting up res5c_relu
I1213 23:56:48.295851 14932 net.cpp:157] Top shape: 1 2048 7 7 (100352)
I1213 23:56:48.295856 14932 net.cpp:165] Memory required for data: 231813132
I1213 23:56:48.295861 14932 layer_factory.hpp:77] Creating layer pool5
I1213 23:56:48.295871 14932 net.cpp:100] Creating Layer pool5
I1213 23:56:48.295877 14932 net.cpp:434] pool5 <- res5c
I1213 23:56:48.295886 14932 net.cpp:408] pool5 -> pool5
I1213 23:56:48.296139 14932 net.cpp:150] Setting up pool5
I1213 23:56:48.296150 14932 net.cpp:157] Top shape: 1 2048 1 1 (2048)
I1213 23:56:48.296154 14932 net.cpp:165] Memory required for data: 231821324
I1213 23:56:48.296159 14932 layer_factory.hpp:77] Creating layer upsample
I1213 23:56:48.296169 14932 net.cpp:100] Creating Layer upsample
I1213 23:56:48.296175 14932 net.cpp:434] upsample <- pool5
I1213 23:56:48.296183 14932 net.cpp:408] upsample -> pool5_up
I1213 23:56:48.699084 14932 net.cpp:150] Setting up upsample
I1213 23:56:48.699118 14932 net.cpp:157] Top shape: 1 2048 2 2 (8192)
I1213 23:56:48.699122 14932 net.cpp:165] Memory required for data: 231854092
I1213 23:56:48.699128 14932 layer_factory.hpp:77] Creating layer fc8_
I1213 23:56:48.699139 14932 net.cpp:100] Creating Layer fc8_
I1213 23:56:48.699143 14932 net.cpp:434] fc8_ <- pool5_up
I1213 23:56:48.699151 14932 net.cpp:408] fc8_ -> fc8_
I1213 23:56:48.835712 14932 net.cpp:150] Setting up fc8_
I1213 23:56:48.835742 14932 net.cpp:157] Top shape: 1 751 (751)
I1213 23:56:48.835747 14932 net.cpp:165] Memory required for data: 231857096
I1213 23:56:48.835757 14932 layer_factory.hpp:77] Creating layer fc8__fc8__0_split
I1213 23:56:48.835767 14932 net.cpp:100] Creating Layer fc8__fc8__0_split
I1213 23:56:48.835772 14932 net.cpp:434] fc8__fc8__0_split <- fc8_
I1213 23:56:48.835801 14932 net.cpp:408] fc8__fc8__0_split -> fc8__fc8__0_split_0
I1213 23:56:48.835813 14932 net.cpp:408] fc8__fc8__0_split -> fc8__fc8__0_split_1
I1213 23:56:48.835857 14932 net.cpp:150] Setting up fc8__fc8__0_split
I1213 23:56:48.835866 14932 net.cpp:157] Top shape: 1 751 (751)
I1213 23:56:48.835871 14932 net.cpp:157] Top shape: 1 751 (751)
I1213 23:56:48.835889 14932 net.cpp:165] Memory required for data: 231863104
I1213 23:56:48.835894 14932 layer_factory.hpp:77] Creating layer loss
I1213 23:56:48.835902 14932 net.cpp:100] Creating Layer loss
I1213 23:56:48.835917 14932 net.cpp:434] loss <- fc8__fc8__0_split_0
I1213 23:56:48.835923 14932 net.cpp:434] loss <- label_data_1_split_0
I1213 23:56:48.835930 14932 net.cpp:408] loss -> loss
…
